wgan_results/gum/clr/critic.pth (torch_old, 273515 bytes, 17 tensors)

bias f4 [128]
00000000: b8dc b7be 1035 f0be 80de c3bd 67a3 3ebf
00000010: bd79 ba3e e5a6 1fbe 4dbf 5e3f 7d33 023f
00000020: bda3 953f 121a 3fbe 54b0 a03f 5f15 823f
00000030: b4b3 8c3e 732d 5b3f 9762 f2bd bd33 2d3f
00000040: f713 d73e b811 38bf 280a 6a3f 356a 19bf
00000050: 05db 77bf d56f 253f 279e 04bf 9cf4 4e3e
00000060: 0ead 623f a7f7 d5be b398 1ebf 1fd2 0f3f
00000070: 7ad7 df3e 6a0a 4b3f 40d4 a13f f527 e63e
00000080: 3ccc 5fbf d6d2 e0be 8be4 77bf 9fe2 d83e
00000090: de75 583f 742f 113f 2284 c83e 210a 5d3f
000000a0: a1ef 63bf 61d4 4a3f e087 4e3f 9a16 3ebf
000000b0: a0e3 483f abf3 ccbe bca6 5cbf 4e6f 4dbf
000000c0: 2a9d 8b3f 4ff3 863f 8554 a63f b83e 353f
000000d0: 0a56 e63e a55a 303f 191b 953e 26e1 213f
000000e0: cdf8 7a3f 9cf9 bd3f cfbc 633f 6e7a 263f
000000f0: a9fc 5f3e 460f c23f 1f92 343f 6f66 b13e
00000100: 97f3 1ebf 71d3 193f abf5 82bf 28a5 363f
00000110: d2aa 70be 5fe4 1fbf e2b7 5abf e915 0fbf
00000120: 261e f83e 1389 963f f704 623f a152 4ebf
00000130: d91c 27bf d841 d43e 17a6 32bf 325a e8be
00000140: b11d e13e 387a 223f 8d8b e4be 6883 42be
00000150: 624c dd3e eb7d 4fbf f5a6 9b3f e499 62bf
00000160: ef7c 5ebf 0cfb 0d3f a4d2 ae3f 77ad 8a3f
00000170: 1a74 953e d26a 923f 76bb bdbe 3e9d c63e
00000180: 6920 53bf f8b9 393f d78d 1cbf d5ae cabe
00000190: f8bd 793c 31a9 a53f 866a 1bbf e853 93be
000001a0: c477 b13e 3790 223f 6cb8 523f 4237 b23f
000001b0: 92ef a7be 4423 26bf 78ad 35bf 5758 253f
000001c0: 8284 173f 4a0a c03f 41f6 823e 20bd 0bbf
000001d0: 0084 72bf 7d2f 0cbf 2a12 ac3e 7bcf 3abe
000001e0: 3db0 62bf d831 78be bc68 6dbf 007e 8cbe
000001f0: 33c8 643f f43f 033f 0e37 023f 7e2d 47be
-0.35910583 -0.46915483 -0.09563923 -0.7446808 0.36421004 -0.15591009 0.8701065 0.50859815
1.1690594 -0.18662289 1.2553811 1.0162772 0.27480853 0.85616225 -0.11835211 0.6765707
0.4200742 -0.71902037 0.9142175 -0.59927684 -0.9681857 0.6462377 -0.5180382 0.20210499
0.8854531 -0.41790506 -0.6195175 0.56179994 0.43719083 0.79312766 1.2642899 0.4495236
-0.8742101 -0.43910855 -0.96833104 0.42360398 0.8455485 0.5671303 0.3916331 0.8634358
-0.8903752 0.79230314 0.8067608 -0.7425324 0.7847233 -0.40029654 -0.86191916 -0.8024796
1.0907338 1.0543002 1.2994543 0.70798826 0.44987518 0.6888831 0.29122236 0.63234174
0.9803589 1.48418 0.88959974 0.6503056 0.21873726 1.5160911 0.70535463 0.34648463
-0.6209044 0.6008826 -1.0231222 0.7134576 -0.23502663 -0.6245784 -0.8543683 -0.5589281
0.484605 1.1760582 0.88288826 -0.8059483 -0.65278393 0.41456485 -0.69784683 -0.45381314
0.43967965 0.6346774 -0.4463772 -0.1899544 0.43222338 -0.8105151 1.2160326 -0.8851607
-0.86909384 0.5546119 1.3658032 1.0834187 0.2919014 1.1438849 -0.37057084 0.3879184
-0.8247133 0.7254939 -0.6115393 -0.3958651 0.015243046 1.2942258 -0.60709417 -0.28774953
0.34661686 0.63501304 0.82312655 1.3923113 -0.32799965 -0.6489756 -0.7096782 0.6458792
0.59186566 1.500314 0.25578502 -0.54585457 -0.94732666 -0.5475996 0.33607608 -0.1824321
-0.8855017 -0.24237764 -0.92737937 -0.2743988 0.8936798 0.5126946 0.50865257 -0.19450948

weight_orig f4 [128, 1]
00000000: ad2d 9bbc f99a 9fbc 5a69 053d 2dc5 453c
00000010: eb65 63bd d67d b0bb 164a 553c 0e8e ff3c
00000020: a234 003e 309a be3b 569e d63d 40a2 d73d
00000030: 6881 1fbd 3dac 983d aa8b fb3c c2f3 663c
00000040: e71a a6bd 460b 3d3c b264 c2bc abf1 7fbc
00000050: 38a4 383c 55d3 d5bc f51e 4e3b 2448 f9bb
00000060: 1547 053d 3299 8bbc d02c 033b aec3 abbd
00000070: 5151 df3c 8e30 e1bd c766 77be 579d b1bd
00000080: 834b fcba f74a b1bc 2e67 d53b d69a a7bd
00000090: 33da eebd 9b4e 8dbd 4a83 4cbd bf60 f9bd
000000a0: 0da2 e2bb 24fd 34bb 7ac5 e6bb 4364 9fbc
000000b0: 6490 f7bd 2e7d 2b3c a469 84bc 76bc f43b
000000c0: b935 1bbe ccd5 26be b19e 3cbe ccf6 c0bd
000000d0: c1ad b1bd 8ebc 0cbc 10b0 15bd bc4a e4bc
000000e0: 27c7 a63d 340c e93d 6282 cc3c bd63 2e3e
000000f0: be71 e9bc 45f7 153e 35c1 073e 8aaa e1bc
00000100: 5d54 f4bb 5a2a bbbd 3a24 1a3c 8d8a 20bc
00000110: 1fda 72ba feae 20bc fa26 40bb b397 113b
00000120: a542 bfbd 9067 333e a8fd 0abe bd15 02bb
00000130: 0d80 b7bc 9218 a4bd 38e1 383c 7e6a 99bb
00000140: d4c4 adbd d305 613d 1b88 07bc e1ba 5d3d
00000150: a71e 78bd 66f2 993b c49c 0f3d 2007 903b
00000160: db56 aebc d2b0 9cbd 63ef 8a3d f414 3b3d
00000170: efcb 16bd 3c2e ec3c a01c 45bc 40ad 99bd
00000180: 3902 59bc e592 cfbd f997 243c e2a7 dcb9
00000190: c84d 31bb 994d 7dbe 5e4b 40bc f9e9 a03d
000001a0: 267e 89bd b958 b2bd 465a f93d 993f 55be
000001b0: dfaf 38bc 946b b43c 3457 26bc bd96 aabd
000001c0: 8a34 afbd c223 ce3d 729e 2d3e 5edc 97bc
000001d0: 1dc4 3cbc 58c9 8abc 6447 31bd ad6e 54bc
000001e0: bdb4 5c3c d91e 9a3d ec0a 863b 3fe5 863d
000001f0: 2a69 4d3d fcb5 0fbd f9b0 9fbd 3412 afba
-0.018942678 -0.019483076 0.032571174 0.012070936 -0.05551712 -0.0053860946 0.013018152 0.031195667
0.12520078 0.0058167204 0.10479419 0.105289936 -0.03894177 0.07454727 0.030706245 0.014096202
-0.081106 0.011538332 -0.023729656 -0.015621583 0.011269622 -0.026101748 0.0031451557 -0.007607477
0.032538492 -0.017040823 0.0020015724 -0.08386932 0.027260454 -0.10995589 -0.241603 -0.08672588
-0.0019248578 -0.021642191 0.006512544 -0.081838295 -0.11662712 -0.068997584 -0.049929895 -0.12176656
-0.0069162906 -0.0027616704 -0.007042584 -0.019456988 -0.12088087 0.010466857 -0.016163655 0.0074687554
-0.15157212 -0.16292495 -0.18419911 -0.09422073 -0.08675719 -0.008589877 -0.03654486 -0.027867667
0.08143454 0.11379281 0.024964515 0.17030235 -0.02849662 0.14645107 0.13257296 -0.02754714
-0.007456346 -0.09138937 0.009408051 -0.009798658 -0.000926407 -0.009807346 -0.0029320107 0.0022215664
-0.09338883 0.17519975 -0.13573325 -0.0019849383 -0.022399927 -0.08012499 0.011284165 -0.0046818843
-0.084848076 0.054937195 -0.008272196 0.0541333 -0.060576107 0.0046980856 0.035061613 0.0043953806
-0.02128165 -0.07650913 0.06783941 0.04567428 -0.03681558 0.02883064 -0.0120307505 -0.07503748
-0.013245159 -0.1013544 0.010045999 -0.00042086752 -0.0027054418 -0.24736632 -0.011736719 0.07857127
-0.06713514 -0.08708329 0.121754214 -0.20825042 -0.0112724 0.022023953 -0.010152627 -0.08329532
-0.08554943 0.10065414 0.16954973 -0.018537696 -0.011521366 -0.016941711 -0.043280974 -0.01296584
0.013470826 0.07525415 0.0040906575 0.06586694 0.05014912 -0.035085663 -0.07797427 -0.0013356865

weight_u f4 [128]
00000000: 9bea b43c df13 ba3c 0d8a 1bbd 9192 66bc
00000010: a98e 843d bac3 cd3b 6daa 78bc 80f8 14bd
00000020: 4978 15be 3a37 debb 1c37 fabd 2266 fbbd
00000030: 10f6 393d c7fe b1bd 30a2 12bd 09a1 86bc
00000040: c8a7 c13d 2666 5cbc b4a2 e23c 9232 953c
00000050: 2944 57bc 704a f93c ec4e 70bb 5e50 113c
00000060: 1962 1bbd 98c0 a23c 8dee 18bb db40 c83d
00000070: bb2d 02bd 1845 033e c437 903e eb12 cf3d
00000080: 0512 133b e1b2 ce3c 59cc f8bb 6567 c33d
00000090: fa3b 0b3e 8dbe a43d fa6e 6e3d b55e 113e
000000a0: 7c1c 043c fd01 533b 0e86 063c 16d4 b93c
000000b0: 0650 103e a9ee 47bc ed5f 9a3c 05aa 0ebc
000000c0: fcf3 343e ad81 423e 8ee7 5b3e 1ef8 e03d
000000d0: 0e26 cf3d 4714 243c db83 2e3d 0b14 053d
000000e0: 9a70 c2bd bed9 07be eb6d eebc 6150 4bbe
000000f0: ef14 083d dfd6 2ebe 6645 1ebe 338c 033d
00000100: 576d 0e3c 7635 da3d 21b5 33bc 302b 3b3c
00000110: da90 8d3a ac55 3b3c d405 603b 9cbd 29bb
00000120: a0fb de3d 2429 51be 410b 223e 30a9 173b
00000130: 88ef d53c 2450 bf3d 478b 57bc 96dc b23b
00000140: 1d97 ca3d 2f2c 83bd d402 1e3c ce40 81bd
00000150: f3a2 903d 097b b3bb 996e 27bd 99ea a7bb
00000160: 5c41 cb3c f6ad b63d 9efa a1bd 831c 5abd
00000170: cfce 2f3d 46ad 09bd 0fce 653c 6b2a b33d
00000180: 7c00 7d3c 8d00 f23d ade4 3fbc 80a0 003a
00000190: 2ab6 4e3b 78a8 933e 4130 603c 6f9a bbbd
000001a0: 234c a03d 61ed cf3d f05a 11be 339e 783e
000001b0: bf51 573c 4858 d2bc 15ee 413c 00e2 c63d
000001c0: d043 cc3d 8554 f0bd 5d6a 4abe 6e0c b13c
000001d0: 2f13 5c3c 44ce a13c b6ae 4e3d a0aa 773c
000001e0: ffa7 80bc dbae b3bd 6b46 9cbb f444 9dbd
000001f0: fa7a 6fbd ff8b 273d 852d ba3d c81b cc3a
0.022084525 0.022714553 -0.037973452 -0.01407303 0.06472523 0.006279436 -0.015177351 -0.0363698
-0.14596666 -0.006781486 -0.122175425 -0.1227534 0.04540068 -0.08691173 -0.035799205 -0.01643421
0.0945583 -0.013452088 0.027665474 0.01821259 -0.013138809 0.030431002 -0.0036668135 0.008869259
-0.03793535 0.019867226 -0.0023335547 0.09777995 -0.031781893 0.12819326 0.28167546 0.1011103
0.002244116 0.02523178 -0.0075927195 0.09541205 0.13597098 0.08044157 0.058211304 0.14196284
0.008063432 0.003219723 0.008210672 0.022684138 0.14093027 -0.012202897 0.01884457 -0.008707528
0.17671198 0.1899478 0.2147505 0.109848246 0.1011468 0.0100146 0.042606216 0.032489818
-0.09494133 -0.13266656 -0.029105147 -0.19854881 0.03322309 -0.17074154 -0.15456161 0.032116126
0.008693061 0.10654728 -0.010968477 0.011423871 0.0010800615 0.011434 0.0034183161 -0.002590037
0.108878374 -0.2042585 0.15824606 0.0023141615 0.026115194 0.093414575 -0.013155765 0.005458425
0.09892104 -0.06404912 0.009644229 -0.06311189 0.0706233 -0.0054773134 -0.04087696 -0.0051244018
0.02481144 0.08919899 -0.079091296 -0.053249847 0.042921837 -0.033612512 0.014026179 0.08748325
0.01544201 0.11816511 -0.011712235 0.0004906729 0.0031541684 0.2883947 0.01368338 -0.09160315
0.07827022 0.10152698 -0.14194846 0.24279098 0.013142048 -0.025676861 0.011836548 0.09711075
0.09973872 -0.11734871 -0.19767137 0.021612372 0.013432308 0.019751675 0.050459586 0.015116364
-0.015705107 -0.087735854 -0.0047691367 -0.076791674 -0.05846689 0.040904995 0.090907134 0.0015572244

weight f4 [128, 1]
00000000: 9bea b4bc df13 babc 0d8a 1b3d 9192 663c
00000010: a98e 84bd bac3 cdbb 6daa 783c 80f8 143d
00000020: 4978 153e 3a37 de3b 1c37 fa3d 2266 fb3d
00000030: 10f6 39bd c7fe b13d 30a2 123d 09a1 863c
00000040: c8a7 c1bd 2666 5c3c b4a2 e2bc 9232 95bc
00000050: 2944 573c 704a f9bc ec4e 703b 5e50 11bc
00000060: 1962 1b3d 98c0 a2bc 8dee 183b db40 c8bd
00000070: bb2d 023d 1845 03be c437 90be eb12 cfbd
00000080: 0512 13bb e1b2 cebc 59cc f83b 6567 c3bd
00000090: fa3b 0bbe 8dbe a4bd fa6e 6ebd b55e 11be
000000a0: 7c1c 04bc fd01 53bb 0e86 06bc 16d4 b9bc
000000b0: 0650 10be a9ee 473c ed5f 9abc 05aa 0e3c
000000c0: fcf3 34be ad81 42be 8ee7 5bbe 1ef8 e0bd
000000d0: 0e26 cfbd 4714 24bc db83 2ebd 0b14 05bd
000000e0: 9a70 c23d bed9 073e eb6d ee3c 6150 4b3e
000000f0: ef14 08bd dfd6 2e3e 6645 1e3e 338c 03bd
00000100: 576d 0ebc 7635 dabd 21b5 333c 302b 3bbc
00000110: da90 8dba ac55 3bbc d405 60bb 9cbd 293b
00000120: a0fb debd 2429 513e 410b 22be 30a9 17bb
00000130: 88ef d5bc 2450 bfbd 478b 573c 96dc b2bb
00000140: 1d97 cabd 2f2c 833d d402 1ebc ce40 813d
00000150: f3a2 90bd 097b b33b 996e 273d 99ea a73b
00000160: 5c41 cbbc f6ad b6bd 9efa a13d 831c 5a3d
00000170: cfce 2fbd 46ad 093d 0fce 65bc 6b2a b3bd
00000180: 7c00 7dbc 8d00 f2bd ade4 3f3c 80a0 00ba
00000190: 2ab6 4ebb 78a8 93be 4130 60bc 6f9a bb3d
000001a0: 234c a0bd 61ed cfbd f05a 113e 339e 78be
000001b0: bf51 57bc 4858 d23c 15ee 41bc 00e2 c6bd
000001c0: d043 ccbd 8554 f03d 5d6a 4a3e 6e0c b1bc
000001d0: 2f13 5cbc 44ce a1bc b6ae 4ebd a0aa 77bc
000001e0: ffa7 803c dbae b33d 6b46 9c3b f444 9d3d
000001f0: fa7a 6f3d ff8b 27bd 852d babd c81b ccba
-0.022084525 -0.022714553 0.037973452 0.01407303 -0.06472523 -0.006279436 0.015177351 0.0363698
0.14596666 0.006781486 0.122175425 0.1227534 -0.04540068 0.08691173 0.035799205 0.01643421
-0.0945583 0.013452088 -0.027665474 -0.01821259 0.013138809 -0.030431002 0.0036668135 -0.008869259
0.03793535 -0.019867226 0.0023335547 -0.09777995 0.031781893 -0.12819326 -0.28167546 -0.1011103
-0.002244116 -0.02523178 0.0075927195 -0.09541205 -0.13597098 -0.08044157 -0.058211304 -0.14196284
-0.008063432 -0.003219723 -0.008210672 -0.022684138 -0.14093027 0.012202897 -0.01884457 0.008707528
-0.17671198 -0.1899478 -0.2147505 -0.109848246 -0.1011468 -0.0100146 -0.042606216 -0.032489818
0.09494133 0.13266656 0.029105147 0.19854881 -0.03322309 0.17074154 0.15456161 -0.032116126
-0.008693061 -0.10654728 0.010968477 -0.011423871 -0.0010800615 -0.011434 -0.0034183161 0.002590037
-0.108878374 0.2042585 -0.15824606 -0.0023141615 -0.026115194 -0.093414575 0.013155765 -0.005458425
-0.09892104 0.06404912 -0.009644229 0.06311189 -0.0706233 0.0054773134 0.04087696 0.0051244018
-0.02481144 -0.08919899 0.079091296 0.053249847 -0.042921837 0.033612512 -0.014026179 -0.08748325
-0.01544201 -0.11816511 0.011712235 -0.0004906729 -0.0031541684 -0.2883947 -0.01368338 0.09160315
-0.07827022 -0.10152698 0.14194846 -0.24279098 -0.013142048 0.025676861 -0.011836548 -0.09711075
-0.09973872 0.11734871 0.19767137 -0.021612372 -0.013432308 -0.019751675 -0.050459586 -0.015116364
0.015705107 0.087735854 0.0047691367 0.076791674 0.05846689 -0.040904995 -0.090907134 -0.0015572244

bias f4 [128]
00000000: 5ecd d93f 40f7 ca3d 1a9d 2e3f 395b 273f
00000010: 37b2 93be 283c ba3f 0917 483f b018 c2bd
00000020: a856 af3f 9257 943f 2e57 e73f 9502 86be
00000030: d9a8 b13f 5fe1 e63f 0a01 fd3e 6370 4f3f
00000040: b838 98be fb8a ed3f 1e90 f2be 0d8a d33f
00000050: e3b4 bd3f 558f 8e3f 4fe1 07bf c017 753f
00000060: b2af e7be 0733 df3d 4126 b8bd 951a 0a3e
00000070: ae91 ce3f aa7d b4be 2b30 f63f 959b b3be
00000080: ae77 b43f 1e24 e53f b7f1 c23f 6b7f e93f
00000090: d21b cb3f 9722 853f 8142 94be 7749 d13f
000000a0: 3049 ef3f 2a14 073f 97c6 973f f95a f13f
000000b0: e502 e13f 875b b93f 0e42 23bf ce10 fa3e
000000c0: 3d60 c63f 5b8e ae3f e7a6 413d d21a a13f
000000d0: ae22 7dbe e493 83bd 848e d53f 9706 3d3e
000000e0: d4d1 acbe e018 dbbe c110 c63f ffbf e53e
000000f0: d69b d63f a8a4 fdbe c30b ac3f 7f2f 2cbf
00000100: ecd0 74bc ccd6 01bf a8fe fa3e 9a44 0cbf
00000110: 00e9 9bbe e56d f4be 8d52 f0be 147b d6be
00000120: e2a5 e03f 6e3f 473f 6242 823e ff6c 00bf
00000130: baf8 8abd 7cf6 0abc 48d1 ec3f 18b2 0540
00000140: 84ef 253f 4a50 de3f ca40 c23f 44b1 32bf
00000150: 8ffe 71be 397b 18bf b5c5 d93f e921 be3f
00000160: 6997 26be 4512 a13f 8944 c83f ee57 263f
00000170: 00fb c93f e57a 593f eca8 ccbc e7da 10bf
00000180: 8aea bebe d96b e43f 93eb 083f 3a84 bc3f
00000190: 1a6f 0ebd b108 15bf 79ec 16bd 312f f2be
000001a0: e0bc 1abf bf01 ff3e dca3 e0be 0fe1 93be
000001b0: 2009 013f ef98 da3f 3efa f53f edd4 d03f
000001c0: c628 d83f 54db 58be b4bd a13f bfe5 f83d
000001d0: 2846 bb3a 328d af3f b580 e5be c95f 8c3f
000001e0: 9cdf a3be ed7a e93f 3cbf a5be e6e7 26bf
000001f0: 3a23 4f3e eab1 b8be f10f 14be 2930 13bf
1.7015798 0.099104404 0.6820847 0.6537357 -0.28846905 1.4549608 0.7816015 -0.09477365
1.369832 1.1589224 1.807348 -0.26173845 1.3879653 1.8037528 0.49414855 0.81030864
-0.29730773 1.8558038 -0.47375578 1.6526505 1.4820827 1.1137491 -0.5307817 0.95739365
-0.45251232 0.108984046 -0.08991671 0.13486703 1.6138208 -0.35252124 1.923345 -0.35079637
1.4099023 1.7901647 1.5230016 1.824201 1.5867865 1.0401181 -0.28956988 1.6350545
1.869421 0.5276514 1.185748 1.8855888 1.7579008 1.4481057 -0.63772666 0.48840946
1.549812 1.3637193 0.04727831 1.258631 -0.2472026 -0.06424692 1.6684117 0.18459545
-0.33753836 -0.42792416 1.5473863 0.44873044 1.6766307 -0.49539685 1.3441089 -0.67259973
-0.014942389 -0.5071838 0.49022412 -0.5479218 -0.30451202 -0.47740093 -0.4693798 -0.41890776
1.7550623 0.7783116 0.2544127 -0.50166315 -0.06785722 -0.008481618 1.8501368 2.088995
0.64818597 1.7368252 1.5176022 -0.69801736 -0.23632263 -0.5956302 1.701346 1.4854099
-0.16268696 1.25837 1.5645915 0.6497792 1.5779724 0.8495315 -0.024982892 -0.5658402
-0.37288314 1.7845412 0.5348446 1.4727852 -0.034773923 -0.5821639 -0.03684661 -0.4730163
-0.6044445 0.4980602 -0.43875015 -0.28882644 0.5040455 1.7077922 1.9216993 1.631498
1.6887443 -0.21177417 1.2636018 0.121531956 0.0014287876 1.3714964 -0.44824758 1.0966731
-0.32006538 1.8240639 -0.32372463 -0.651976 0.20228282 -0.36073238 -0.14459206 -0.5749536

weight_orig f4 [128, 128]
00000000: 2102 6bbc a10d c33d d9ae dcbd 53dc 853d
00000010: 42fb 923d c631 6f3d b17a 573d e2d8 2f3e
00000020: 3e56 e13d 5ca7 f0bd 8293 623d 62a4 913d
00000030: e4c6 0d3d fa24 5d3d 1b12 47be 688d f9bc
00000040: 0777 0f3e 6d77 343e 4117 c83d 138a 443e
00000050: 8b6e 533e 0780 873d bf3b 3e3e 5a08 9c3d
00000060: 8b44 bc3d ce93 8c3d cc39 113e 6d70 293e
00000070: f8a2 923d 1a41 9ebc 4a40 af3e f178 ec3d
00000080: 3639 3abe d851 e7bb 128f 93bd 2c97 1c3e
00000090: 2bb2 d9bd 0e80 463d 9000 08be 9915 43be
000000a0: d5b3 643d 988a 46bd 88aa 5d3d 5b2f 8b3d
000000b0: 707c d1bc 1ada 4dbd 1769 023e 5cdf 623d
000000c0: aeb4 f0bd 6f5f 1cbc 23e4 c8bd 67c0 69bd
000000d0: d754 a53d 00a3 363e 6792 c03c 69df 8e3e
000000e0: d049 2f3c 6962 3abd fd01 ac3d 85fe 09bd
000000f0: 4222 473d 3577 913d 422d 653d d9f7 0c3d
00000100: a9a7 85bd b025 0cbc 52fb aebd e3d2 3d3d
00000110: 0e56 3e3e 6e04 e0bd c235 f5b9 1b6b 51be
00000120: 8cfa 08be 5847 0d3d da16 7bbd 3436 49be
00000130: d775 e63d bfcf b7bc 666a d73d 5e0c dcbd
00000140: 7644 c33d 917b a0bd a849 c03d 5815 973d
00000150: b97c 64bd 4639 d7bb 3628 f53d 690a c4bd
00000160: c13c 303e f264 1fbd 6375 a5bc 9f84 1c3e
00000170: 82aa 933d bbc5 acbd f955 3f3c 95fa 9bbc
00000180: f46b 123e a2ed 373d 45f0 37be a45d 4b3e
00000190: ad13 06be 7b81 d23e 0c59 a8bc 2ff9 a73d
000001a0: 59dd 4abd 5fe4 26be 8446 abbd 19f6 00be
000001b0: a557 65bd a4e5 d6bd ef89 88be c9a6 943d
000001c0: 6694 1f3e ecf4 5f3d f95a e7bd 5ec2 e2bd
000001d0: b681 39be 37dd f6bd da7f 5c3e 6c86 a83c
000001e0: e601 47bd eb16 c03d a00f b43d 62b8 4e3d
000001f0: e8e8 9dbd 3e52 9bbd 6f3a db3d 55f0 f0bd
00000200: 2146 043d c254 133d 90db 08be e116 33be
00000210: 6580 67be 2c0b 2a3d 06c3 e23d 064f a73c
00000220: 7040 c5bd f3bd 193e 9ae2 9b3d 3052 4bbc
00000230: 4e71 2b3e 25e3 ae3d 8e54 01bd 15b3 923d
00000240: 4449 febd 64fd c3bd bd67 c53d 49e5 1dbe
00000250: 436b 35be 48dd 06bd b244 6dbd ecbe 0d3c
00000260: 83d7 31bd c2fe 02be c71c 473d b08d d6bd
00000270: c2ef 96bc 2b85 43be 8936 ac3d 7813 b03c
00000280: 88a9 e5bd 7547 dcbd 8c3c e13d ae60 fdbd
00000290: cb20 5abe 6e4c 743d ba5c bebd a173 4d3d
000002a0: e67c 9ebb 74f4 92bd 5a13 cbbd 0451 f1bc
000002b0: 2c2c 1a3e cd38 cd3c 1dc0 b2bc 3c12 b33c
000002c0: bde7 26be c0c9 c0ba 39c2 113d 1ff5 11be
000002d0: 0587 d03d d8d9 37bc 32cf 323d 891d 6dbd
000002e0: 0b53 e63d 5ccd f0bb 7d2a 7abd f83b cebc
000002f0: 5934 c8bd 3a61 bfbd 00e9 abbc 26cc f03d
00000300: 5de6 3d3d ede1 b4bd 5692 10be f933 7b3d
00000310: 39bb cebd ddfe 723c fd61 ecbd 437e 00be
00000320: b695 7dbc 55d8 d7bd 726d 0cbe 2907 b4bb
00000330: 6d9d 19bd 33c4 afbc 9e8d 62bd 98b4 a03c
00000340: 9d39 44be 6607 c8bd b246 25be f3d7 0c3e
00000350: bfa0 22be 1cd9 c33c 3bb3 cc3c 903b 07be
00000360: 368e 05be 65bd 86bd 2527 b1bd 58fb 263d
00000370: 0a48 b03c d959 89bd e328 2cbd 0731 4d3d
00000380: a9a4 583c e32b 31bd cb71 97bc 5046 ac3c
00000390: 92c5 31be 609f b33c f7dc b1bd 5e5d 313e
000003a0: 468c 41be e3e5 d6bd 8d35 dd3d acbe 79be
000003b0: 246d 08bd aded 133d aa4e b6bd 9aea cdbc
000003c0: 7bfa 51bd 05a2 cb3c 5b99 163b 47d5 fabd
000003d0: e3bd 763d 90af 16bd 4cb9 b7bc e1fa 74bd
000003e0: 6f40 75bc 66c2 0dbe 7fef 5abc 5856 433e
000003f0: 3b59 653d 2928 403e 4b80 c13d 8c21 e83d
-0.014343769 0.09524084 -0.10775537 0.06536164 0.0717683 0.058397077 0.052607242 0.17172578
0.110027775 -0.11750671 0.055316456 0.07111432 0.034613505 0.05399034 -0.194405 -0.030462936
0.14010249 0.17623682 0.0977006 0.19193296 0.20647638 0.06616216 0.18577479 0.076187804
0.09192761 0.06864129 0.14182204 0.16546793 0.0715999 -0.019318152 0.34228736 0.11546505
-0.18185887 -0.007059317 -0.07205023 0.15292042 -0.10629686 0.048461966 -0.13281465 -0.19051208
0.055835564 -0.048472017 0.05411771 0.06796142 -0.025572032 -0.050256826 0.12735401 0.055388793
-0.11753212 -0.0095442375 -0.098091386 -0.057068255 0.080728225 0.17835617 0.02350731 0.27904823
0.010698751 -0.045504007 0.08398817 -0.033689994 0.048616655 0.07102815 0.055951364 0.034416053
-0.06526119 -0.008553907 -0.08544029 0.046343695 0.18587515 -0.10938345 -0.00046770094 -0.20451014
-0.13376826 0.034491867 -0.06130109 -0.19649583 0.11252945 -0.022437928 0.10518341 -0.10744546
0.09534542 -0.078360684 0.09389049 0.07377118 -0.055783007 -0.006568107 0.1197056 -0.09572298
0.17210676 -0.03891463 -0.020197576 0.15284966 0.07210256 -0.084361516 0.011678212 -0.019040385
0.14298993 0.04490436 -0.1796275 0.1985994 -0.13093443 0.4111441 -0.020550273 0.08201825
-0.0495275 -0.16298054 -0.08363059 -0.12593879 -0.055991787 -0.10493019 -0.26667735 0.07258374
0.15583953 0.054676935 -0.112966485 -0.11072229 -0.18115887 -0.12053912 0.21533147 0.02057191
-0.048585795 0.09379371 0.08792043 0.05046881 -0.07710439 -0.07584046 0.10704505 -0.1176459
0.032293443 0.035969503 -0.13365006 -0.17489196 -0.22607572 0.04151456 0.11072354 0.020423423
-0.09631431 0.15013866 0.0761158 -0.012409732 0.16742441 0.08539418 -0.03157478 0.071630634
-0.12416318 -0.09569815 0.09638927 -0.15419497 -0.17716698 -0.032925874 -0.05792684 0.008651476
-0.04341842 -0.12792495 0.04861143 -0.104762435 -0.018424872 -0.19093768 0.08408839 0.021493658
-0.11213976 -0.10755817 0.109978765 -0.12371956 -0.21301572 0.0596432 -0.0929503 0.0501591
-0.0048366664 -0.07175532 -0.099158004 -0.029457577 0.15055913 0.025051499 -0.021820122 0.02185928
-0.16299339 -0.0014708564 0.035585616 -0.14253663 0.10182003 -0.011221372 0.043654628 -0.057889495
0.11246308 -0.0073486995 -0.061075676 -0.02517508 -0.097756095 -0.09344716 -0.020985126 0.11757688
0.04636227 -0.088321544 -0.14118323 0.06132886 -0.10094304 0.014831272 -0.11542127 -0.12548165
-0.015477588 -0.10539309 -0.13713625 -0.0054940176 -0.03750365 -0.02145586 -0.055310838 0.019617364
-0.19162603 -0.09767036 -0.1614025 0.13754253 -0.15881632 0.023907237 0.024987807 -0.13206315
-0.1304253 -0.06579093 -0.08650044 0.040767044 0.021518726 -0.0670659 -0.04203118 0.050095584
0.013222852 -0.043254744 -0.018486878 0.021029621 -0.17360523 0.021926582 -0.08684724 0.17320773
-0.18901166 -0.10493066 0.108012296 -0.24389142 -0.03330721 0.036115337 -0.08901723 -0.02513628
-0.051264267 0.02485753 0.002297959 -0.12247711 0.060239684 -0.036788523 -0.022427224 -0.05980957
-0.014968975 -0.13843688 -0.013362764 0.19075906 0.0559933 0.1876532 0.09448298 0.113345236

weight_u f4 [128]
00000000: 4e04 a43d 1290 de3c 0a20 663d eae0 d03d
00000010: 085f c73c e11e 083e 3e13 953d 0b68 0d3d
00000020: 78ca 083e 7568 1e3d ff1f c03d 3553 f0bd
00000030: 1de9 0c3e 274a 273e a751 b53d 1743 bbbc
00000040: 37c1 d6bd 988c e83d 1f5a 5dbc 061d 993d
00000050: a6ed 233e 9f47 cd3c 30f2 d6bd e31a 503d
00000060: f5f4 e6bd 2636 583c b36d 80bc 52af e23d
00000070: 9e6d 1b3e d7f2 4c3d a994 c03d 3ecc ff3c
00000080: 1844 153e c277 b63d 7e6b 0c3e bf4e be3d
00000090: 3531 f43d 6ccf fb3d 13ee 763d 39e3 e83d
000000a0: e4e1 e03d 0656 9b3c d78f a43d bd5b a73d
000000b0: 1ead e83d 7917 ed3d 41e9 e9bd 7123 d63d
000000c0: 56e2 a8ba 2058 9b3d 7440 9f3d e618 943d
000000d0: 7239 a6bc 7917 c23d cb5d 373e 4eb8 bc3d
000000e0: 1558 9cbd 3b63 a8bd ba61 a03d 63c5 ed3d
000000f0: d5a2 953d a16a b03c c8ce 513d d8a2 34bd
00000100: ac0c bf3d ee2e 223d 9561 7d3c c50a bd3c
00000110: 0d18 0abd c57c 223d 0f28 dabd bb6a 9ebd
00000120: 44bc ce3d a5aa c93c 13fd 9e3c 8089 9d3d
00000130: b75d 193d f7aa 583d 8487 ac3d 6259 263e
00000140: 88ea e33d 48a1 bd3d 8526 b23d f149 cebd
00000150: 9f90 a4bd 12b2 f9bd aa6a b43d fc7e e23d
00000160: b246 dabd a74e cf3c d441 c53d 8d83 a33c
00000170: 831d b53d b1bc 043d 2287 d33d eda5 ddbd
00000180: a628 c13d 1eda cd3d 9ca3 543d 168c 383e
00000190: f9a2 ed3b 8281 88bd bd37 edbc e5fe dbbd
000001a0: de4d f1bd 3177 863d 0ef2 aa3d 24f8 ac3c
000001b0: b720 913d 966f 843d 1108 e73d 9576 b13d
000001c0: 7178 fa3c b139 9fbd 2afc 8e3c 10ad fa3c
000001d0: 6ea2 d63d 40ef 2b3e 57be b2bd 5388 db3c
000001e0: 3c01 123a c530 193e f5e4 9abd 8d24 723c
000001f0: 020b 1f3d 258e 1a3d ccec 7abd 76dc 8ebd
0.080086336 0.027168307 0.0561829 0.10199149 0.024337307 0.1329303 0.07279061 0.03452305
0.13358486 0.038673837 0.09381103 -0.117346205 0.137608 0.1633688 0.088534646 -0.02285914
-0.104860716 0.11354941 -0.013510256 0.07476239 0.16008624 0.025058566 -0.10495412 0.05080689
-0.112771906 0.013196504 -0.015677309 0.11068596 0.15178534 0.050036278 0.09403355 0.03122532
0.14576757 0.08909561 0.1371288 0.092923634 0.11923448 0.12295422 0.06028564 0.11371464
0.10980585 0.018961918 0.08035248 0.081717946 0.113611445 0.11576743 -0.11421443 0.10455979
-0.0012884836 0.07585168 0.07775965 0.072313115 -0.020291064 0.09477133 0.17906873 0.09214841
-0.07633988 -0.08222052 0.0783114 0.11609914 0.07306448 0.02153522 0.051222593 -0.044100612
0.09328589 0.039595537 0.01546516 0.023076424 -0.033714343 0.03966977 -0.10652172 -0.07735201
0.100945026 0.024617502 0.019407785 0.07692242 0.03744289 0.05289742 0.08424285 0.16245034
0.11128718 0.092592776 0.08698753 -0.10072697 -0.08035397 -0.12192167 0.08809407 0.110593766
-0.10658015 0.025306059 0.09631696 0.01996019 0.088435195 0.032406513 0.10328509 -0.108226635
0.09431581 0.10051368 0.051913843 0.18022189 0.007252094 -0.06665327 -0.028957242 -0.10741977
-0.1178243 0.06565703 0.083469495 0.021114416 0.07086318 0.06466596 0.112808354 0.08665196
0.030575009 -0.07774676 0.017454226 0.0306001 0.104802 0.16790485 -0.08727711 0.026798403
0.0005569642 0.1496001 -0.07563201 0.014779222 0.038828857 0.037733216 -0.061260983 -0.06975643

weight_v f4 [128]
00000000: 6d09 0d3d 4695 99bd a4e1 a6bd 9fae d73a
00000010: 75e5 b33d d44a 35bd 7dc1 073d 72ec 6d3d
00000020: ef0d 643d 6668 d63d 8352 2a3d 1979 593d
00000030: aaf8 e43d e6f6 113d d88f a3bd 1c51 583b
00000040: 86e8 cb3d 40a2 c93c 22b8 b33d c91a edbd
00000050: f249 233c b895 803d 4db2 df3c 1ac8 923d
00000060: 1816 383d ce6a bdbd b8a5 fdbd 56a9 053e
00000070: f1b5 373b 1c1b 97bd e7dd cc3e 99cc cd3d
00000080: fa0f b33d b473 b2bd 02a8 893d 4ed1 c73d
00000090: 907b 26bd b67a 0f3d 1fda a63c c183 26be
000000a0: bcda 5f3c 0f36 db3c bed5 5b3d d4f6 afbd
000000b0: f8fb b83c 950f ca3b a65e d6bd 533f 0a3d
000000c0: b367 3dbd 1d34 083c 2d7d 71bd 387c 79bd
000000d0: 265c 023e 0dfa 9f3d 1b12 f53d 813b d83d
000000e0: 216e 453d 4d07 1b3d df84 703d 27c7 a73c
000000f0: d05f 013d 9d0f 123d a8fe 2b3d 203b b93d
00000100: 16aa ae3d 85a6 d33d 026b d53b f2f0 b13d
00000110: ade2 01be fb37 9bbb e677 c23d 5f23 9e3d
00000120: df27 dc3c de03 ad3c bfcd c33d cbf5 cd3d
00000130: 9f03 dabd 37a0 083d 9c8b 233d 3a27 e7bc
00000140: f6e1 8f3d f357 2d3d a6fa bfbd c390 053d
00000150: 9a02 bb3d c29a c43c cb29 563d b7a5 ff3b
00000160: 2c8e c1bd 6da9 df3d ef4c 063d 67ca ed3c
00000170: a869 dd3d 220b b43c 18c7 4e3c cdcb b73d
00000180: de9b cdbd e5e7 973d d2bf bd3d d0d1 a8bd
00000190: 7949 a5bd 8769 d43e 973c d9bd 0f5b 2b3d
000001a0: 95c8 9f3d b45a 26be 7e73 0b3d 6a5c 72bd
000001b0: 336f 1bbd 5ecb 933d 4653 813c 7e52 97bd
000001c0: dec9 133e c993 323d c86f 8a3b 6a78 13bd
000001d0: 6870 04bd b5fa 5d3c 0f40 243e c7c4 b0bd
000001e0: 0810 a03d dc6f 6bbc 7c9e 0e3d 5e38 ae3c
000001f0: c310 413d 00eb ae3d c54b ddbb a3c9 41bd
0.034432817 -0.07499175 -0.08148506 0.0016455239 0.08784 -0.044260815 0.03314351 0.05808682
0.05567735 0.10469131 0.041582596 0.053094003 0.111802414 0.03563585 -0.079864204 0.003300733
0.0995646 0.0246135 0.08775355 -0.115773745 0.00996636 0.062785566 0.0273067 0.071670726
0.044942945 -0.09248887 -0.12385124 0.13052878 0.002803203 -0.073782176 0.40013048 0.100487895
0.08743282 -0.08713475 0.06721498 0.097567186 -0.040645182 0.035029136 0.02036768 -0.16261198
0.01366299 0.026759176 0.053670637 -0.085920006 0.022581086 0.0061664083 -0.104672715 0.033751797
-0.046241473 0.008313206 -0.058957268 -0.06090948 0.12730464 0.07811365 0.11966344 0.105582245
0.04820073 0.03784876 0.058720466 0.020480705 0.031585515 0.03565942 0.041990906 0.0904448
0.08528535 0.103344955 0.0065130005 0.08688535 -0.12684126 -0.004736898 0.09495525 0.0772159
0.02687448 0.021120008 0.09560727 0.10056647 -0.10645222 0.033355918 0.039928064 -0.028216947
0.070255205 0.042320203 -0.09373979 0.03260876 0.091313556 0.023999576 0.05228595 0.007801737
-0.09450945 0.10920987 0.032788213 0.029027177 0.10811168 0.021977965 0.01262071 0.08974419
-0.10039495 0.07417277 0.092651024 -0.082431436 -0.080706544 0.4148676 -0.1060726 0.041834887
0.0780193 -0.16245538 0.03404569 -0.059170164 -0.037947845 0.072165236 0.015786778 -0.07388781
0.14432475 0.04359797 0.004224751 -0.036003508 -0.03233376 0.013548543 0.16040061 -0.08631282
0.07815558 -0.014369931 0.03481911 0.021267112 0.047135126 0.085409164 -0.006753417 -0.047311436

weight f4 [128, 128]
00000000: 8e9b 2ebb efeb 903c d2f6 a3bc b2e9 463c
00000010: f868 5a3c c5b7 313c 0c19 203c dda6 023d
00000020: 026c a73c 57cd b2bc bb57 283c 786b 583c
00000030: 1dad d23b 964e 243c 13e8 13bd e569 b9bb
00000040: 412f d53c 7a15 063d 1baa 943c 9906 123d
00000050: 3417 1d3d 5d59 493c 2d57 0d3d 1adc 673c
00000060: 4ee1 8b3c cbe4 503c 16cd d73c 0fc8 fb3c
00000070: c6e5 593c 3f29 6bbb 7d35 823d 09b2 af3c
00000080: 7a5c 0abd f7dd abba 9d44 5bbc 54b0 e83c
00000090: adbe a1bc 907b 133c 5c18 cabc dbf1 10bd
000000a0: 28ec 293c 6483 13bc d1b1 243c 1ed3 4e3c
000000b0: 1fa5 9bbb e5f1 18bc 3cc9 c13c 1690 283c
000000c0: 3cd7 b2bc 815d e8ba 5442 95bc 84ac 2dbc
000000d0: 6fad 753c 42b2 073d f813 8f3b f54d 543d
000000e0: 913c 023b 167b 0abc 2e99 7f3c 240e cdbb
000000f0: 14f4 133c 5728 583c 6046 2a3c 7479 d13b
00000100: 709b 46bc 2941 d0ba 3f02 82bc 4509 0d3c
00000110: b96a 0d3d 0571 a6bc f42f b6b8 3e98 1bbd
00000120: d58b cbbc 95ef d13b 388e 3abc 4e7f 15bd
00000130: 813a ab3c b691 88bb f10c a03c 197e a3bc
00000140: ac14 913c f178 6ebc ebdd 8e3c 5e81 603c
00000150: 36c3 29bc 71e8 9fba e425 b63c bfa7 91bc
00000160: 11f1 023d ebda ecbb ccdd 75bb c394 e83c
00000170: 636d 5b3c 065e 80bc de28 0e3b a4c7 67bb
00000180: 0694 d93c eaa7 083c e0a9 08bd 0319 173d
00000190: f23b c7bc 1267 9c3d e928 7abb 769a 793c
000001a0: b2b9 16bc 20ff f7bc 9982 7ebc f4a1 bfbc
000001b0: de65 2abc 4eaa 9fbc 7ee4 4abd 43e4 5c3c
000001c0: 6e21 ed3c 7f65 263c bfe4 abbc 8c7a a8bc
000001d0: 24d4 09bd 946a b7bc e7d3 233d 566c 7a3b
000001e0: 09dc 13bc 39b8 8e3c 5bc8 853c 0c97 193c
000001f0: 31a6 6abc 7ecd 66bc 1fe2 a23c 8e03 b3bc
00000200: 1a8e c43b f7ed da3b ca5d cbbc 8a0f 05bd
00000210: 8d00 2cbd 02ae fc3b 097b a83c 9c9d 783b
00000220: 178e 92bc ba74 e43c 01a4 673c 8110 17bb
00000230: 2fc2 fe3c 49f0 813c 502e c0bb b8fd 593c
00000240: 49ee bcbc 129e 91bc 4bab 923c cfa0 eabc
00000250: a5ca 06bd 8767 c8bb 6c49 30bc 45a1 d23a
00000260: 4122 04bc a3a7 c2bc 01f0 133c f568 9fbc
00000270: 8449 60bb c044 11bd 43e7 7f3c 65d2 823b
00000280: b5a2 aabc 00aa a3bc eb58 a73c 7a41 bcbc
00000290: de10 22bd 9882 353c ae6f 8dbc c2a5 183c
000002a0: 1a82 6bba dc5e 5abc d1e1 96bc 644b b3bb
000002b0: 8318 e53c 0d7a 983b 13cf 84bb 170c 853b
000002c0: 2104 f8bc 173d 8fb9 cf97 d83b 71e3 d8bc
000002d0: c7ee 9a3c 3699 08bb 48da 043c 532c 30bc
000002e0: a720 ab3c 92e9 b2ba 9ade 39bc 9c3a 99bb
000002f0: b9bf 94bc 3a31 8ebc 0c74 7fbb ace8 b23c
00000300: bd17 0d3c 9b64 86bc 3ed4 d6bc daa3 3a3c
00000310: 2899 99bc c38a 343b fba0 afbc e1ef bebc
00000320: e168 3cbb 9f5e a0bc caab d0bc 11c2 85ba
00000330: 6544 e4bb 7f97 82bb 5b53 28bc aecd 6e3b
00000340: d1ca 11bd 539e 94bc 6b98 f5bc 0d4a d13c
00000350: 01a9 f1bc 1e83 913b cf16 983b a0f3 c8bc
00000360: 9f75 c6bc 2538 48bc 379f 83bc 4321 f83b
00000370: 74f9 823b 7219 4cbc fbd2 ffbb 4674 183c
00000380: 6ff6 203b bda2 03bc be0a 61bb b5fe 7f3b
00000390: ed14 04bd f474 853b 4e26 84bc 81c7 033d
000003a0: 9fcd 0fbd 7daa 9fbc e75a a43c 7f8e 39bd
000003b0: b5b9 cabb 32d1 db3b 9973 87bc 27fe 98bb
000003c0: c502 1cbc d14b 973b 1fc9 df39 7f5d babc
000003d0: 4d53 373c 1fea dfbb 0881 88bb 3504 36bc
000003e0: e337 36bb 70a6 d2bc 72aa 22bb f521 113d
000003f0: 0b67 2a3c 08c5 0e3d b8c4 8f3c 4978 ac3c
-0.002664301 0.017690627 -0.020015154 0.012140678 0.013330691 0.010847037 0.009771597 0.031897414
0.020437244 -0.02182643 0.010274823 0.013209216 0.006429328 0.010028502 -0.036109995 -0.0056583756
0.026023509 0.032735325 0.018147519 0.035650823 0.038352206 0.012289372 0.034506965 0.014151597
0.017075207 0.012749861 0.02634291 0.030735044 0.013299411 -0.003588274 0.06357858 0.021447198
-0.0337796 -0.0013112415 -0.013383058 0.028404392 -0.019744242 0.009001628 -0.024669819 -0.0353869
0.010371245 -0.009003494 0.01005216 0.012623576 -0.0047499086 -0.009335016 0.023655526 0.010288259
-0.021831147 -0.0017728062 -0.018220104 -0.010600213 0.014994963 0.033128984 0.004366394 0.051832158
0.0019872526 -0.008452198 0.015600486 -0.006257789 0.009030361 0.0131932115 0.010392755 0.006392652
-0.01212202 -0.001588856 -0.015870212 0.008608167 0.034525607 -0.020317564 -8.687368e-05 -0.037986986
-0.02484695 0.006406734 -0.011386447 -0.03649836 0.02090192 -0.0041677607 0.019537421 -0.019957589
0.017710052 -0.014555202 0.017439803 0.013702719 -0.010361483 -0.001220001 0.022234865 -0.017780183
0.03196818 -0.0072282455 -0.0037516234 0.028391248 0.013392779 -0.015669834 0.002169184 -0.0035366798
0.02655984 0.008340815 -0.03336513 0.036889087 -0.024320576 0.076368466 -0.0038171357 0.01523458
-0.009199547 -0.03027302 -0.015534067 -0.023392655 -0.010400264 -0.019490387 -0.049534313 0.013482156
0.028946605 0.0101560345 -0.020983098 -0.020566247 -0.03364958 -0.022389688 0.039997008 0.0038211546
-0.009024628 0.017421829 0.016330888 0.009374391 -0.01432185 -0.014087079 0.019883214 -0.021852281
0.005998385 0.0066811997 -0.024824996 -0.032485522 -0.041992713 0.007711173 0.02056648 0.003793574
-0.01789002 0.02788769 0.014138223 -0.0023050609 0.031098453 0.015861647 -0.005864896 0.01330512
-0.023062842 -0.01777557 0.017903944 -0.028641133 -0.0329081 -0.006115857 -0.010759693 0.001606979
-0.008064807 -0.023761576 0.009029389 -0.019459227 -0.0034223506 -0.035465956 0.015619102 0.003992366
-0.020829538 -0.019978523 0.020428142 -0.02298044 -0.039566867 0.011078499 -0.017265167 0.0093168635
-0.0008983925 -0.01332828 -0.018418225 -0.0054716337 0.02796579 0.0046532215 -0.0040530055 0.004060279
-0.030275406 -0.000273206 0.006609894 -0.02647564 0.018912686 -0.0020843274 0.008108683 -0.010752755
0.020889593 -0.0013649932 -0.011344576 -0.0046761762 -0.018157827 -0.017357457 -0.0038979081 0.021839462
0.008611617 -0.016405394 -0.026224252 0.011391604 -0.018749788 0.0027548529 -0.021439066 -0.023307743
-0.0028749036 -0.019576369 -0.02547254 -0.0010204931 -0.006966161 -0.003985345 -0.01027378 0.0036438513
-0.03559381 -0.018141901 -0.029979905 0.025548005 -0.029499533 0.004440679 0.004641391 -0.024530232
-0.024226008 -0.012220417 -0.01606713 0.0075723245 0.0039970223 -0.0124572385 -0.0078071333 0.0093050655
0.0024560948 -0.008034405 -0.0034338678 0.003906173 -0.03224652 0.00407278 -0.016131546 0.032172684
-0.035108205 -0.019490475 0.020062877 -0.04530191 -0.006186689 0.0067082876 -0.016534613 -0.004668969
-0.009522145 0.0046171923 0.0004268372 -0.02274966 0.011189294 -0.0068333293 -0.0041657723 -0.0111094015
-0.0027804307 -0.02571413 -0.0024820832 0.035432775 0.010400544 0.034855872 0.017549857 0.02105345

bias f4 [128]
00000000: cdf1 7bbd 4e2a c13e 49cc 7a3e 188a 3bbd
00000010: ca36 2c3e 57af 433e 9482 cabc 9115 32bd
00000020: 1ec2 8c3e a46d be3e 62cb e9bc 5c54 d73d
00000030: d3ce 3a3d 29ae bebd f4ba a13d 7fc1 793d
00000040: d44e 4c3d f6e8 93bd a5a0 4cbd 7e9b be3e
00000050: afc8 943d 2b69 773e af21 2d3d 63fa 583e
00000060: 877e 943d a860 713d e8c8 fbbd 0c96 063c
00000070: d7bd 0bbe 1207 4d3d a99d 7c3e 8b95 4c3d
00000080: 3d36 8abd 88b6 f73b 30d0 90bd 4539 d53b
00000090: 61cf a53e 864c 043c 5bc1 85bd 6005 573d
000000a0: cb08 ac3e 26a0 01be 99bb 4d3d ffde a43d
000000b0: 1e98 953e f065 f6bc 1d1f 933d 7a05 913e
000000c0: 706f 8b3e 9411 07bc f33f a23d 395a 07bd
000000d0: bae3 653e 29ea c33d e6c6 37bd ae14 3c3c
000000e0: c903 973e 1de3 193c 4e4b 9c3c 44dd c03d
000000f0: 55f8 86bc 4059 12bc ed91 7c3e 6758 c13e
00000100: 95ae 863e 1685 ab3c 744e 9f3e cf4a 37bc
00000110: 08e8 22bd 3176 a23e a619 e4bc 33f0 ae3e
00000120: 5e66 8b3d 4e3c 853d 0e81 4b3e 7105 fd3d
00000130: f435 0f3d 9e4b ae3e b6cb dabc 314f 7bbd
00000140: 496f 703d 09e2 363e 58fa 173d 86c9 753c
00000150: e050 c83d 18a2 33bd a414 1d3d 57c8 9cbc
00000160: 19ea 8d3e 0b43 913d 1c0c 2c3a e0c4 91bd
00000170: 9b86 bcbd 7d48 a43c 9c11 f83c a7a2 9fbd
00000180: 9ae7 823e 1ffd 403c b8f0 efbc 9f65 bf3e
00000190: 3dda 913d 80fc 323e fdd6 5f3d f791 5e3e
000001a0: b168 c63d 3287 ba3e c055 a63e 8c75 48bc
000001b0: 57c6 72bc d91b 0f3c a4bb 063d 51c1 433e
000001c0: 2f21 953e d4cd 01bd a14b 913e 9d8e 913e
000001d0: 0079 af3d 025f 81bc 6f23 8cbd 0931 5d3b
000001e0: f6b9 e63d f645 8cbb 88a8 73bd c62d 343d
000001f0: 6214 c13e ea8c af3e 531f 6c3c 765b 94bd
-0.061509896 0.37727588 0.24491991 -0.045785993 0.16817775 0.19109856 -0.024720468 -0.0434776
0.2749185 0.37193024 -0.028539363 0.10514137 0.0456074 -0.09310562 0.078969866 0.060975548
0.049879864 -0.07222168 -0.04995789 0.37228006 0.0726484 0.24161212 0.04226845 0.21189265
0.07250696 0.05893007 -0.12294179 0.008214485 -0.13646637 0.05005557 0.24669518 0.049947303
-0.067486264 0.007559601 -0.070709586 0.006507071 0.3238478 0.008074885 -0.0653102 0.05249536
0.33600459 -0.12658748 0.050227735 0.08050346 0.2921762 -0.030077904 0.07183669 0.2832449
0.27233458 -0.008243937 0.079223536 -0.033045027 0.22450152 0.09566147 -0.04486742 0.01147954
0.29495075 0.009392527 0.019078877 0.09417203 -0.016475836 -0.008932412 0.24665041 0.37762758
0.2630507 0.020937484 0.31114542 -0.011187269 -0.039772063 0.31730798 -0.027844261 0.34167632
0.06806634 0.06505643 0.19873449 0.123545535 0.034963563 0.34042066 -0.026708465 -0.06135482
0.05869988 0.17859663 0.03710398 0.01500166 0.09781051 -0.043855757 0.038349763 -0.019138498
0.27717665 0.070928656 0.0006563084 -0.07117629 -0.092053615 0.020054096 0.030281834 -0.07794695
0.25567323 0.011779099 -0.029289588 0.37382218 0.07121704 0.17479134 0.05464839 0.21735369
0.09687937 0.3643127 0.32487297 -0.012235057 -0.014817796 0.008734667 0.03289379 0.19116713
0.2912688 -0.031690434 0.28378013 0.28429118 0.08568001 -0.015792374 -0.06842696 0.003375115
0.11265938 -0.004280801 -0.059486896 0.043988965 0.37710863 0.34287196 0.014411765 -0.07244007

weight_orig f4 [128, 128]
00000000: ad16 d33d 8a0d 85be 5ec0 9f3d fceb cbbd
00000010: c6bc e13c 8565 ddbd 1a88 1a3e 66e9 823c
00000020: ca19 45bd 76a7 403c 0b48 24bc 4557 a73d
00000030: 1cf4 373e df73 d33d 066d 9d3d 00e9 103e
00000040: e4d5 9d3d 9cba a3bd 6c52 1a3d 54f5 a3bd
00000050: 3668 e4bc ecd3 88bd de48 df3d 4af3 273e
00000060: c609 dd3d d236 b9bc fcc6 183e d999 2cbd
00000070: 8992 1b3e b2fb 013e 0f59 04be 2720 733c
00000080: aff4 45be 497e 773d f9c8 413c 8865 04be
00000090: f652 debd 65dd 263e be51 5e3d 8aec 54be
000000a0: d5b6 cbbd 3baa d83d 84be 48bc 8a04 babc
000000b0: 8c7a a7bd 6ea0 383d 95f2 aebc e0a6 c43d
000000c0: 8567 ebbd ae4e 213e 9674 533d a76e cebb
000000d0: 5f79 df3d da64 1a3d 50b1 16be e089 033c
000000e0: 43e8 bbbd 5864 e63d 93ce 4e3d 529c 3c3e
000000f0: 4ca9 2d3e c54f 47bd 8d99 edbd 2a07 6bbd
00000100: e6bb 293d a978 03be c45d cfbd f9be f83c
00000110: e098 81bb f9d7 063e e960 7e3e d5e5 eabc
00000120: 8f59 f43c db96 353d 42ac e6bb b8ce 183e
00000130: 2614 213e ae29 9abc 013b d2bc 5932 9dbc
00000140: fc78 5cbd 368d 19be 3340 213e 238b 873d
00000150: 7d6d 2bbe 9483 303d 9167 eb3d 979a cf3c
00000160: 37a6 343d 6c29 103d 2d59 273c c030 f73d
00000170: 8fb7 02bd 125e c5bd 8390 183e 177b e63d
00000180: 6438 563c 93eb 93bd 9933 14be 4ae1 2b3e
00000190: a3c1 23bd 1d26 713b 75a4 a23b 2a1b ad3d
000001a0: 03ee c4bc d892 203e 332a 1dbd 0f2c e83d
000001b0: f5a6 0f3d c87d 483d 2345 b2bd 9c4d 70bd
000001c0: c229 9b3d 504b 313e 8417 22be 0571 61be
000001d0: 1b44 20bd 1076 e73d 0ee6 aab8 373e a0bc
000001e0: d636 0c3e b6b0 56bc aa67 a7bc 19b5 d43d
000001f0: f6a8 b43d fab8 483d 3824 e4bd 627a a33c
00000200: 735b b4bd 3977 cebd 26d3 87bd 5eba 593d
00000210: 47b4 9ebb c745 62bd 5574 673e 54e5 1d3e
00000220: 3d92 34be f83b 773e 0596 e7bd cf33 dcba
00000230: 1796 8d3d cbca d9bd 8e3c be3d 88ca 7fbd
00000240: 884f 25be 5193 183e fc3f 0a3e f559 00bd
00000250: 7ab6 773d 0aee 333d 1426 b43d dfa8 463e
00000260: 880e 403e 72dd d9bc f9bb 7f3d 4eeb 54be
00000270: 3ad0 a13d b9fb 4e3e fe17 e2bd a95f 123d
00000280: 5830 06bd 2e56 953d 95ff 9ebd a8d5 c7bd
00000290: 88ec cc3d 385d 4f3e 0bdf 953d 0463 4f3d
000002a0: 8281 89bd 3d5d 8e3d 7469 52be 9cb8 11be
000002b0: 6348 893e 416f 1a3e c98f 0a3e eff0 3fbe
000002c0: 17bb 7a3b 341d 3b3d 0d8c c13d a825 653e
000002d0: babc b73c 645e 82bd 60d3 b1bc 9362 243d
000002e0: a5c8 0c3e d741 ff3d 7a57 59bd 08be 623c
000002f0: 2634 89bb 6be2 24bd 98b5 903d 354e 35be
00000300: e14b 81bd 3376 573d 02b0 8abd 7a82 7c3d
00000310: 3fd0 2a3e fbb8 8dba a551 73bd 2778 103d
00000320: 6526 323e 801a d73c 4127 ef3d 8373 5e3d
00000330: 6fd5 b03d fa43 f03c 3664 b13d aff1 adbb
00000340: cc2b 2abd df45 2e3d de16 36bc 94c7 30bc
00000350: 988c 3cbe 9a6f e2bc 4f2f f3bc c919 72bb
00000360: b3dc a63d 6934 843d b711 c13d c6fd 413e
00000370: 5e4b 0bbe d21d 0d3e 8e81 0dbd 9863 ea3d
00000380: d6fe bfbd 348e 4bbd 77d7 b53c 4376 253e
00000390: 34fc 203d 069e fb3d de46 17be 6e0f b53d
000003a0: b2bc 1f3c 21ab 303e 48d1 e83c 6d1a ab3c
000003b0: 4832 303e 0bef 583e 75c7 653e 523a 2cbd
000003c0: 0717 38bd c4d6 bb3d e61b f1bc 491d e6bd
000003d0: 9075 a73d 8838 46bd b43b a33d ea99 8fbb
000003e0: 5f74 15bd 5ea5 e43d e441 043d e087 5b3d
000003f0: 927d 5a3d b733 7b3d 3ec1 543c af20 edbc
0.103070594 -0.25986892 0.07800363 -0.0995712 0.027555835 -0.10810379 0.15090981 0.015980434
-0.048120297 0.011758676 -0.010026942 0.08170942 0.17964214 0.10324835 0.0768681 0.14151382
0.07706812 -0.07994577 0.03767626 -0.08005777 -0.027881723 -0.06681046 0.1090257 0.16401401
0.1079288 -0.022609148 0.14919657 -0.042138908 0.15192617 0.1269367 -0.12924598 0.014839209
-0.1933162 0.06042317 0.011827701 -0.12929356 -0.10855667 0.16295393 0.054277174 -0.20793357
-0.09946982 0.10579344 -0.012252454 -0.022707243 -0.08177671 0.045074873 -0.021355907 0.096021414
-0.11494354 0.1575267 0.051624857 -0.006299812 0.109118216 0.037693836 -0.14716077 0.008028477
-0.0917516 0.11249608 0.050489973 0.18419006 0.16959113 -0.04866006 -0.11601553 -0.05737988
0.04143896 -0.12838997 -0.10125306 0.0303645 -0.0039549917 0.13168325 0.24841656 -0.028674046
0.029827861 0.04433332 -0.0070395777 0.14922607 0.15730342 -0.018818703 -0.0256629 -0.019189047
-0.053826317 -0.14995274 0.15747146 0.06618335 -0.16740985 0.043094233 0.11494363 0.025342269
0.044103827 0.035195753 0.010214132 0.12069845 -0.031913336 -0.09637083 0.14898877 0.11253946
0.013074968 -0.072226666 -0.14472808 0.1678516 -0.03997959 0.00367964 0.0049634525 0.08452447
-0.024039274 0.15681016 -0.038370322 0.113365285 0.035071332 0.04894808 -0.08704593 -0.058667764
0.07576324 0.17313886 -0.15829283 -0.2201577 -0.03912745 0.113018155 -8.149083e-05 -0.019560916
0.13692793 -0.013103655 -0.020435173 0.10386104 0.08821289 0.049004532 -0.11139721 0.019955818
-0.08806505 -0.10081334 -0.0663207 0.05315625 -0.004843268 -0.055242326 0.22602971 0.15419513
-0.1763391 0.2414397 -0.11307911 -0.0016800108 0.06913393 -0.10634383 0.09288894 -0.06244901
-0.1614362 0.14899947 0.1350097 -0.03133579 0.060476758 0.043928184 0.08796325 0.19400357
0.18755543 -0.026594851 0.062435124 -0.20792887 0.07901044 0.20213212 -0.110397324 0.03573576
-0.032760948 0.07291828 -0.07763592 -0.097575486 0.10006052 0.20250404 0.07317933 0.050631538
-0.06714155 0.069513775 -0.2054804 -0.14230579 0.2681304 0.15081502 0.13531412 -0.18744253
0.0038258487 0.045682147 0.09450541 0.22377646 0.022428859 -0.0636566 -0.021707237 0.04013307
0.13748415 0.1246373 -0.05306194 0.013839252 -0.004187125 -0.04025499 0.07065886 -0.17705615
-0.06313301 0.052602958 -0.06771852 0.06164787 0.16681002 -0.0010812575 -0.059404034 0.035270836
0.17397459 0.026257753 0.11677409 0.05430938 0.08634459 0.029329289 0.08661692 -0.005308352
-0.041545674 0.042547103 -0.01111385 -0.010789771 -0.18413007 -0.027641106 -0.029685644 -0.0036941639
0.08147564 0.06455309 0.09427207 0.18944463 -0.13602969 0.13780907 -0.03454738 0.11444777
-0.09374778 -0.049696162 0.022197468 0.16158395 0.03930302 0.12286 -0.14773127 0.088408336
0.009749578 0.1725278 0.028420106 0.020886624 0.17206681 0.21184938 0.22439368 -0.042047806
-0.044943836 0.09171823 -0.029432248 -0.112360545 0.0817672 -0.048393756 0.07970372 -0.0043823617
-0.036487933 0.11164354 0.0322894 0.053596377 0.05334241 0.061328616 0.012985526 -0.028946249

weight_u f4 [128]
00000000: cbac d23d b187 b43d 030c c0bd fc6b d03d
00000010: 0946 a13d b632 ec3b 1276 febd 55a6 723d
00000020: ccd4 b3bd c85d a8bc 7ba0 b8bd 93f5 f7bd
00000030: c1dc c6bd 8fdb ef3d 26c2 03be 91e0 21be
00000040: 6ccc 53bd 9669 143e b32a bfbd d212 ee3d
00000050: 79c9 bebd fe99 9e3d d7c1 9d3d b285 b1bd
00000060: a8d0 8bbd 0bf6 94bd 6cb0 3ebc 67db 913c
00000070: ca35 1a3e e1c1 1c3d a7c3 623d 51bd e8bd
00000080: 9f68 0abe ea74 0bbe cf9a 6dbd 14e0 78bd
00000090: aeae 99bd a115 8dbd 4509 b5ba 76fb 0dbe
000000a0: 71b0 74bd 28f3 1fbc a5d2 abbd 70d6 56bd
000000b0: 3187 beb9 f821 f83d ed44 eebd eade 313d
000000c0: c90c ebbd c1f1 a53d bda6 eebd 1259 13be
000000d0: 44c7 803d faf4 e4bd e913 7d3d 89d4 9bbd
000000e0: 7466 9bbd e232 01be 1331 703d af8d 02be
000000f0: d510 043e 2cde 7dbd 8c22 80bd 67e1 1fbb
00000100: ec8b 63bd 0dc2 d4bd f384 57bd d612 debd
00000110: 7360 be3d bdee 4f3d fbe8 bbbd eddb cdbc
00000120: 83a1 c2bd 44db d3bd 5f16 393c 274a 0dbe
00000130: f0fc 523d 04b6 0ebd 3ff0 c2bc cedd 4e3d
00000140: 8993 05be 75c8 023d 3e46 a6bd 8a28 be3d
00000150: 4733 813d b830 84bd 048f 88bd c10d 38bd
00000160: 1662 c93d a57c f6bd 51d3 af3b 4b19 993d
00000170: e13e f93c 7453 edbd db15 e53c 3a0d 30bc
00000180: 1a6c 90bd cd1a 07be f0ee 70bd 4473 1f3d
00000190: ff84 f2bd 46c4 8f3c 0783 b2bd bc42 8abd
000001a0: ff04 05be 08f5 a6bd 2a74 d4bd d11f 803d
000001b0: bff9 2dbe 3382 a3bd 3d8b a83d 13d9 f0bc
000001c0: ff3a 87bd 4789 af3d 1e68 82bd 77f6 7ebc
000001d0: a390 cdbd b0c3 71bd 7986 5d3d fbf7 3b3d
000001e0: b0ba 913d ff4a a33d 253e e13d 59f4 19be
000001f0: 7bfc 2bbe 135e 4cbd a276 b6bd 5a6f e53d
0.10286864 0.088149436 -0.09377291 0.101768464 0.07874686 0.0072081937 -0.12424864 0.059240658
-0.08780822 -0.02055253 -0.09014984 -0.121073864 -0.09710074 0.11711799 -0.1286703 -0.15808322
-0.051708624 0.14493403 -0.09334316 0.116246834 -0.093157716 0.077442154 0.07702988 -0.086680785
-0.068269074 -0.072734915 -0.011638742 0.017804815 0.15059581 0.038270835 0.05536237 -0.11364234
-0.13516472 -0.13618818 -0.058008965 -0.060760573 -0.07504021 -0.06888891 -0.0013811967 -0.13865456
-0.05973858 -0.009762563 -0.08389787 -0.052450597 -0.0003634035 0.12115854 -0.1163424 0.043425478
-0.11477048 0.081027515 -0.116528966 -0.14389446 0.06288007 -0.11179538 0.061786566 -0.07608897
-0.07587901 -0.12617067 0.05864055 -0.1274936 0.12897046 -0.061979458 -0.06256589 -0.0024395825
-0.05555336 -0.10388575 -0.052617025 -0.108434364 0.0929574 0.050764788 -0.09175297 -0.025129283
-0.09503462 -0.10344556 0.011296838 -0.13797818 0.05151075 -0.034841552 -0.023796199 0.0505045
-0.13044561 0.031929452 -0.081188664 0.09285076 0.063086085 -0.06454605 -0.06667903 -0.04493499
0.098331615 -0.12035493 0.005365767 0.074755274 0.03042549 -0.11588183 0.027964523 -0.010745341
-0.07051869 -0.13193817 -0.05882162 0.038928285 -0.11841773 0.017549645 -0.08716398 -0.0675101
-0.12990187 -0.08152205 -0.10373719 0.062560685 -0.16989802 -0.07983818 0.082296826 -0.029400384
-0.066030495 0.085711055 -0.06367515 -0.0155616915 -0.10037353 -0.059024513 0.05408332 0.04589079
0.07115686 0.07973289 0.10998181 -0.15034617 -0.16795532 -0.049894404 -0.08909346 0.11202879

weight_v f4 [128]
00000000: 152b 2abc 820a 19be 6848 21be 6bf6 b9bd
00000010: 60a4 843d 49a6 dabd 7c7c d43d 6f16 1d3e
00000020: b6b1 febc 97c9 b53d a735 87bd 5af2 adbd
00000030: 283e df3d 2b43 a5bc 6413 093e c205 0c3e
00000040: 49f4 f1bc 3f8e a3bc cf78 b13d 1d98 da3d
00000050: af05 89bd 56a9 dfbd d621 0b3a 6338 a13d
00000060: 50b3 4d3d 8ca2 8abd 0e21 9a3d a13e c2bd
00000070: 2345 993d 398d b53d 77bb 1cbd cd7b 103e
00000080: 8d29 fabd b90f 16bc 97cf cbbc a01e c0bc
00000090: c325 efbc 4d21 ab3d 5261 203e cd16 7fbd
000000a0: 942c 78bd e8c8 b6bd 5fc6 21be b4d2 95bc
000000b0: 4269 f43d 7069 9b3d fe91 8f3d 2d09 31bd
000000c0: 51e2 06be d470 e33d b0a8 ca3d c0d3 99bd
000000d0: b36c f6bc 2667 0cbd 0b21 8fbc a091 5fbd
000000e0: fa11 f6bc 019a a73d c024 bbbc 48ae 033d
000000f0: 0af2 57bd 1bc1 933d 1973 e7bd f93c 993d
00000100: 9ef9 0e3e e252 f23d b2e5 7c3d 1230 2b3d
00000110: 91f4 b53d ddb7 873d 6e35 d43d 7bd5 c53d
00000120: fb0c 28bd c44c e93d c615 3dbd 4e49 a93d
00000130: bfc9 043e dc5d f53d 945c cfbc 35bd e9bc
00000140: a4d5 c4bd e8da 35bd da1f d53d 1664 8e3d
00000150: 69d8 36be 858b 473d 7db7 45bd c7e1 43bd
00000160: 57ab 273d 0361 a3bd 5c81 0fbd 0f3f 9c3d
00000170: 8a9d 21bd b124 a7bd 8f25 acbc dca6 a43d
00000180: 982f 8c3d 99da a8bc 9598 b3bd 228c f03d
00000190: 9071 993d 760d 5b3d 4ed8 3dbe 39f3 0d3d
000001a0: cc55 8d3d 3fd1 fa3d 18c2 5c3d fcae ba3d
000001b0: 5712 b6bd cac4 55bc 8566 df3d c35b 2abc
000001c0: a755 eebd 2f16 b43d 6e35 05be 7cbc 10be
000001d0: 484f 083e de98 a63d 009e 9fbc 3653 9cbd
000001e0: 0d1c 163e a0d7 f2bd 3c58 d03d 3e6f 9d3d
000001f0: 8381 92bd cf67 bd3d 35f6 0dbe e8d7 913d
-0.010386248 -0.14945415 -0.15750277 -0.090802036 0.064766645 -0.106762476 0.10375306 0.15340589
-0.031090599 0.08876341 -0.0660203 -0.084934905 0.10900527 -0.02017363 0.13386303 0.13674071
-0.02953543 -0.01996529 0.086656205 0.106735446 -0.06690537 -0.1092097 0.0005307471 0.07872083
0.050219834 -0.067692846 0.07525836 -0.09484602 0.0748389 0.08864827 -0.038264718 0.14109726
-0.122149564 -0.009159022 -0.02487926 -0.023452103 -0.02919281 0.08355961 0.15662125 -0.062277604
-0.060589388 -0.089250386 -0.15798329 -0.018288948 0.11934139 0.0758847 0.07010268 -0.04322164
-0.1317227 0.11105505 0.09895456 -0.07511091 -0.030081129 -0.034278058 -0.01747181 -0.05458224
-0.030037869 0.08183671 -0.022844672 0.03214863 -0.05272106 0.07214566 -0.1130125 0.07482333
0.13962409 0.11832215 0.061742492 0.04179389 0.08884538 0.06626866 0.103617534 0.09659859
-0.041028004 0.11391595 -0.046163343 0.08265935 0.12967585 0.11980793 -0.0253127 -0.028532604
-0.09611061 -0.04439822 0.10406466 0.06952684 -0.17855991 0.04871704 -0.04827069 -0.04782274
0.040934887 -0.07977488 -0.035035476 0.07629215 -0.03945688 -0.08161295 -0.021014003 0.080396384
0.06845015 -0.020612048 -0.08769337 0.11745478 0.074923635 0.053479634 -0.18539545 0.034655783
0.0690113 0.12246942 0.05389604 0.09115407 -0.08890217 -0.013047406 0.10908226 -0.010397854
-0.11637431 0.08793294 -0.13008663 -0.14134401 0.13311493 0.08134626 -0.01948452 -0.07633059
0.14659138 -0.118575335 0.10173079 0.076872334 -0.07153609 0.092483155 -0.13863452 0.07121259
