wgan_results/gum/clr/generator.pth (torch_old, 145868 bytes, 19 tensors)

weight f4 [128, 3]
0.06231028 0.15205987 0.26216608 0.02735475 0.10667243 -0.025813134 0.18305032 -0.03702097
-0.05667657 0.05281182 -0.0852709 0.08288936 -0.08023368 -0.21244459 -0.16895346 -0.23452759
0.13934293 -0.039197523 -0.14223887 -0.111447185 -0.13252258 -0.09113145 0.0683274 0.10725756
-0.100479275 -0.14504956 -0.09129046 -0.047785945 -0.1137506 -0.09123603 -0.10455238 -0.17275862
-0.13016284 0.04274429 0.08186492 -0.17768341 -0.11034844 0.2495935 -0.15550375 0.2467904
-0.0064227865 -0.14102419 -0.18983896 0.18695128 0.026781268 -0.1652754 -0.17683284 0.17329022
0.1122462 -0.21115401 -0.048775613 0.07108899 0.02979047 0.15221919 -0.028573332 0.0488022
-0.14803998 0.13940653 -0.2162693 0.0114075495 0.06511565 -0.14501032 -0.21035203 -0.13322589
0.018283578 -0.07008942 0.07608894 0.014931935 -0.086605154 0.22731632 0.0533294 -0.14939052
-0.11446362 0.16030958 -0.20411117 -0.2025036 -0.047090806 -0.20316523 -0.094123155 -0.027358836
-0.122699596 -0.17605753 0.13156228 -0.025736175 -0.0988466 0.21662822 0.15603906 -0.06373303
-0.22716765 -0.020579305 -0.23863426 -0.12824182 -0.1566417 0.1431251 -0.104619496 0.027755499
-0.0011964081 -0.0823038 0.055844445 -0.14458393 0.12048318 0.18658924 0.008852233 0.07225062
0.12697534 0.0088581 0.13131817 0.15683906 -0.09708368 0.0013785234 -0.064766735 0.064521156
-0.003927026 0.22127578 -0.06734143 -0.024694698 0.25192463 -0.07380977 0.052656833 -0.09776181
0.08242026 0.029061815 0.16944304 0.04608312 -0.028884863 0.117144436 0.14008752 -0.04962082
0.14105283 0.0578123 -0.131538 -0.112895206 0.08867028 -0.08486463 0.09945789 0.019931862
0.058681592 0.12355589 0.16899739 0.21795821 0.12586708 -0.020455612 -0.075336084 -0.16901696
0.17289178 0.042926922 -0.05999744 -0.12470899 0.15733843 0.012027434 -0.021525472 -0.023323126
0.18969232 0.13407788 0.09974812 -0.17232482 0.03022919 0.037725933 0.17602663 -0.1298285
0.063119724 -0.02581036 -0.15681191 -0.12624644 -0.2028329 0.20342082 0.08965932 -0.105220996
-0.18760455 0.19215688 0.1432452 -0.045290895 0.15745455 -0.05924112 -0.18413591 0.010714723
-0.12437713 -0.08917656 0.21385571 0.103833534 -0.011755877 -0.10276477 -0.007717347 -0.043845907
0.1802796 0.11257797 -0.079381265 -0.09497213 0.13087408 -0.16806889 0.044928193 -0.00370148
0.09843918 -0.17029268 0.0527815 0.06163192 0.074239455 0.12871985 -0.12542349 -0.046928417
0.16317487 -0.02126841 -0.14451388 0.034918897 0.011696046 -0.0785004 0.19092633 -0.12319935
0.036907807 -0.1181064 -0.1433019 0.02883732 0.20149408 0.151209 -0.07205724 -0.15892059
-0.12403997 0.14119786 0.10295627 0.15274428 0.20777191 -0.008107587 -0.11308384 -0.08429039
-0.052214317 0.03229559 -0.07673611 0.09838372 -0.0031032502 -0.005631724 -0.17666683 -0.09270025
0.18488383 -0.11908066 -0.13396198 -0.065189 -0.09993783 0.1619508 -0.18953052 0.12738618
0.05747126 -0.115420066 0.0054416847 -0.08234859 -0.051169273 -0.03440066 -0.15186095 0.08467451
-0.07814486 -0.1721693 0.028162098 -0.02000221 -0.08749409 -0.15160106 0.19017571 -0.031632252
00000000: 1039 7f3d 95b5 1b3e a23a 863e 1217 e03c
00000010: 1377 da3d 1176 d3bc 8b71 3b3e 4da3 17bd
00000020: b125 68bd 3551 583d 82a2 aebd e6c1 a93d
00000030: 8e51 a4bd 138b 59be 2302 2dbe 0028 70be
00000040: eaaf 0e3e 958d 20bd 11a7 11be 6c3e e4bd
00000050: 00b4 07be 20a3 babd 3cef 8b3d daa9 db3d
00000060: 14c8 cdbd df87 14be 7ef6 babd 32bb 43bd
00000070: 13f6 e8bd f5d9 babd 8f1f d6bd a3e7 30be
00000080: 6849 05be a314 2f3d cca8 a73d a4f2 35be
00000090: 5dfe e1bd 7095 7f3e 603c 1fbe 9fb6 7c3e
000000a0: 3d76 d2bb a568 10be 2565 42be 2870 3f3e
000000b0: 6464 db3c f43d 29be ab13 35be fe72 313e
000000c0: 56e1 e53d c238 58be f0c8 47bd 1b97 913d
000000d0: 250b f43c 59df 1b3e 9f12 eabc d1e4 473d
000000e0: cb97 17be 96c0 0e3e b375 5dbe bbe6 3a3c
000000f0: 5b5b 853d 967d 14be 8666 57be 5e6c 08be
00000100: 71c7 953c 0b8b 8fbd 85d4 9b3d 13a5 743c
00000110: 0b5e b1bd 9cc5 683e ee6f 5a3d d4f9 18be
00000120: e76b eabd 3228 243e 8502 51be 1b5d 4fbe
00000130: 4ae2 40bd 8c0a 50be a4c3 c0bd a31f e0bc
00000140: ed49 fbbd 6d48 34be 43b8 063e acd4 d2bc
00000150: 1670 cabd cad3 5d3e b4c8 1f3e 7686 82bd
00000160: a39e 68be ee95 a8bc 8a5c 74be d351 03be
00000170: af66 20be 638f 123e bf42 d6bd 805f e33c
00000180: cbd0 9cba e58e a8bd 25bd 643d cf0d 14be
00000190: e3bf f63d 4011 3f3e f508 113c 22f8 933d
000001a0: d305 023e 9021 113c 4578 063e 6b9a 203e
000001b0: cfd3 c6bd 92af b43a 6ca4 84bd ab23 843d
000001c0: 48ae 80bb 1e96 623e 4eea 89bd 894c cabc
000001d0: 44fc 803e 9429 97bd b1ae 573d 5837 c8bd
000001e0: f4cb a83d 0b13 ee3c 7a82 2d3e a7c1 3c3d
000001f0: f39f ecbc 6ce9 ef3d 1a73 0f3e 333f 4bbd
00000200: 2770 103e 97cc 6c3d e6b1 06be 9a35 e7bd
00000210: c498 b53d 82cd adbd 94b0 cb3d 2548 a33c
00000220: 1c5c 703d df0a fd3d a70d 2d3e 7030 5f3e
00000230: 4de3 003e 8792 a7bc ce49 9abd c812 2dbe
00000240: 8b0a 313e 24d4 2f3d e0bf 75bd 6d67 ffbd
00000250: 531d 213e b70e 453c 3056 b0bc 2410 bfbc
00000260: b43e 423e b64b 093e be48 cc3d eb75 30be
00000270: 35a3 f73c 8286 1a3d 5340 343e c3f1 04be
00000280: ea44 813d 4070 d3bc 4d93 20be bf46 01be
00000290: 6eb3 4fbe 8c4d 503e 4e9f b73d 1b7e d7bd
000002a0: 681b 40be c6c4 443e dfae 123e f282 39bd
000002b0: c43b 213e d1a6 72bd 208e 3cbe ce8c 2f3c
000002c0: 70b9 febd 33a2 b6bd fefc 5a3e ada6 d43d
000002d0: b99b 40bc 5676 d2bd cce1 fcbb c497 33bd
000002e0: 379b 383e 478f e63d a592 a2bd c080 c2bd
000002f0: db03 063e 401a 2cbe a006 383d 8894 72bb
00000300: 7b9a c93d 3461 2ebe 6a31 583d c171 7c3d
00000310: db0a 983d 23cf 033e 046f 00be 0338 40bd
00000320: 5017 273e 173b aebc 72fb 13be 1e07 0f3d
00000330: c6a0 3f3c d1c4 a0bd 3182 433e f14f fcbd
00000340: a42c 173d c5e1 f1bd bcbd 12be 3e3c ec3c
00000350: 7754 4e3e 88d6 1a3e bf92 93bd 14bc 22be
00000360: ab08 febd 2c96 103e bdda d23d ff68 1c3e
00000370: 29c2 543e afd5 04bc 8098 e7bd 71a0 acbd
00000380: aede 55bd 6148 043d d227 9dbd 677d c93d
00000390: e65f 4bbb 538a b8bb 26e8 34be a1d9 bdbd
000003a0: 3052 3d3e 90e0 f3bd 542d 09be cf81 85bd
000003b0: 34ac ccbd 6ed6 253e 4a14 42be 8671 023e
000003c0: fc66 6b3d 5b61 ecbd 2950 b23b 61a6 a8bd
000003d0: df96 51bd b5e7 0cbd 7081 1bbe d469 ad3d
000003e0: 6a0a a0bd 264d 30be 33b4 e63c addb a3bc
000003f0: 1a30 b3bd 4f3d 1bbe 6cbd 423e d290 01bd

bias f4 [128]
0.34325498 -0.38783717 -0.121925846 0.43865702 -0.491051 -0.45648092 -0.3917285 -0.310547
0.36419457 0.10865091 -0.23184012 0.31478867 0.49017966 -0.37411508 -0.21357794 0.096690506
-0.21519838 -0.39813793 0.051171977 -0.38193402 0.095123105 0.47625428 -0.17848285 0.24344237
0.21098891 0.083168894 0.13842955 0.21136187 -0.3428849 0.22237165 0.19441968 0.121020734
-0.2773559 0.5475954 -0.049623635 0.14695537 -0.004021818 0.39413503 -0.47600254 0.24672718
-0.010457123 0.4266603 0.57490706 -0.53439677 -0.5135583 0.01574059 -0.33582819 0.47611824
-0.27530196 0.05717207 -0.43396622 -0.56611544 -0.4085582 -0.3493029 -0.056017708 -0.37129736
-0.54094636 0.05525622 0.46321908 -0.381699 0.37017936 -0.51478493 0.17945746 -0.4048344
0.35337856 -0.121263064 -0.05529198 0.27886066 -0.29851338 -0.18156943 -0.1935439 -0.5665282
-0.021819022 -0.0014252005 0.55530447 -0.27019033 -0.056661844 -0.45185852 -0.49335155 0.53770584
0.50323653 0.5673513 0.26523602 0.36395538 0.16968367 0.4279367 -0.065175936 0.3943055
-0.009243444 -0.22675431 -0.28273502 -0.42518586 -0.20968585 -0.2895967 -0.3436413 -0.010785658
-0.4221001 -0.16439171 0.15481694 0.4009467 0.1471207 0.28318134 -0.51986784 0.2602529
0.050145455 0.38138482 0.24627832 0.52214015 0.2717148 -0.4012437 0.1844718 0.05279531
0.23348781 -0.22697385 -0.5047697 0.1474867 0.5641994 0.18509932 0.38549018 -0.26316395
-0.5328433 -0.06786522 -0.44128543 0.47896004 0.34715262 0.13207391 -0.22914234 -0.001613069
00000000: 1ebf af3e 9892 c6be 42b4 f9bd a797 e03e
00000010: 096b fbbe deb7 e9be a390 c8be 0400 9fbe
00000020: b677 ba3e 5e84 de3d 7f67 6dbe fb2b a13e
00000030: d4f8 fa3e 038c bfbe 2db4 5abe ac05 c63d
00000040: f75c 5cbe bcd8 cbbe b599 513d db8c c3be
00000050: e7cf c23d 9ad7 f33e 35c4 36be f548 793e
00000060: 7a0d 583e 7454 aa3d 7ac0 0d3e 3f6f 583e
00000070: 9c8e afbe 65b5 633e f415 473e b8d9 f73d
00000080: 9801 8ebe 362f 0c3f 2742 4bbd 787b 163e
00000090: 74c9 83bb 11cc c93e 9bb6 f3be 0da6 7c3e
000000a0: 5a54 2bbc 3873 da3e 1c2d 133f 3ace 08bf
000000b0: 8f78 03bf 69f2 803c acf1 abbe c5c5 f33e
000000c0: 61f4 8cbe 432d 6a3d d230 debe f1ec 10bf
000000d0: 8a2e d1be d4d7 b2be d372 65bd b01a bebe
000000e0: 767b 0abf 5954 623d 0d2b ed3e 0d6e c3be
000000f0: 2688 bd3e f2c8 03bf b2c3 373e 7446 cfbe
00000100: 09ee b43e c558 f8bd d879 62bd d3c6 8e3e
00000110: bfd6 98be 56ed 39be 5f30 46be fe07 11bf
00000120: cebd b2bc cbcd baba 6f28 0e3f 6356 8abe
00000130: 4016 68bd 005a e7be 9398 fcbe 17a7 093f
00000140: 1cd4 003f ef3d 113f 04cd 873e 5c58 ba3e
00000150: 8ec1 2d3e 851a db3e f67a 85bd 69e2 c93e
00000160: d071 17bc 4832 68be a5c2 90be f6b1 d9be
00000170: e3b7 56be 0546 94be c1f1 afbe 54b6 30bc
00000180: 811d d8be 4d56 28be 5588 1e3e e348 cd3e
00000190: cfa6 163e 25fd 903e 0f16 05bf de3f 853e
000001a0: 5265 4d3d df44 c33e 6230 7c3e faaa 053f
000001b0: 341e 8b3e d06f cdbe 2de6 3c3e e53f 583d
000001c0: 6e17 6f3e d56b 68be 9638 01bf c106 173e
000001d0: 5f6f 103f ad8a 3d3e f85e c53e 6dbd 86be
000001e0: 6b68 08bf ecfc 8abd 2af0 e1be 403a f53e
000001f0: fdbd b13e 623e 073e 4aa4 6abe 9d6d d3ba

weight f4 [128]
1.0462024 1.0267949 1.0833738 0.9700696 1.0370592 1.0423955 0.9684034 0.99850047
0.99970883 1.0114895 0.98725116 1.0292203 1.0376574 0.97894454 1.008371 0.9756711
0.9730845 0.99395126 0.9903436 1.0178772 0.94098586 0.959948 1.0326355 1.0016035
1.0133333 0.9660965 0.9556145 0.9842021 0.9911011 0.9885731 0.97720766 0.9980885
0.986161 0.9736569 1.0193062 1.0078176 0.9663452 1.0026875 1.0161983 0.99762726
1.0099964 1.0112749 0.9945471 1.0093744 1.0015572 1.0548265 1.0300257 1.0036876
0.9761563 0.99366045 1.0070367 1.0111467 0.9757315 1.0128189 1.0039096 0.9604129
0.9915086 1.0460039 0.9699328 1.0018307 0.98719466 0.98638374 1.0101981 0.9954922
1.0271349 1.000856 1.0054123 0.9643938 1.0286682 0.9951946 0.98022044 0.98874724
0.97769153 1.0255241 0.99295896 1.0051485 0.97206247 0.98827547 1.0101386 1.0067143
1.0251946 1.0292788 0.9946248 1.0006963 0.99671376 1.0255091 0.9857008 1.0035768
1.0153415 1.0091873 0.9597849 1.0325447 0.9797326 1.0198966 0.97573864 0.9518411
1.0097932 0.9630262 1.0335578 0.9813838 1.0092858 0.9796237 0.99889266 1.0381353
0.98046696 1.0242203 0.97004277 1.0088309 0.99499315 0.9493243 1.0320975 1.0217649
0.9758311 0.97246706 1.0133482 1.0048523 0.9911115 0.99043345 0.993688 1.0134908
0.9599462 1.0283458 0.9822381 0.9614827 0.9804675 0.9748003 0.9669564 1.0046295
00000000: f6e9 853f 046e 833f feab 8a3f 7b56 783f
00000010: 5bbe 843f 376d 853f 49e9 773f ba9d 7f3f
00000020: ebec 7f3f 7d78 813f 7ebc 7c3f 7ebd 833f
00000030: f5d1 843f 1c9c 7a3f 4d12 813f 95c5 793f
00000040: 111c 793f 9773 7e3f 2887 7d3f cd49 823f
00000050: 73e4 703f 27bf 753f 662d 843f 8b34 803f
00000060: e8b4 813f 1a52 773f 27a3 743f abf4 7b3f
00000070: cdb8 7d3f 2013 7d3f 482a 7a3f ba82 7f3f
00000080: 0c75 7c3f 9441 793f a078 823f 2b00 813f
00000090: 6662 773f 1058 803f c912 823f 8064 7f3f
000000a0: 9047 813f 7571 813f a49a 7e3f 2e33 813f
000000b0: 0733 803f 8e04 873f e2d7 833f d678 803f
000000c0: 61e5 793f 8860 7e3f 94e6 803f 416d 813f
000000d0: 8ac9 793f 0da4 813f 1c80 803f 9fdd 753f
000000e0: 82d3 7d3f 75e3 853f 844d 783f fd3b 803f
000000f0: cab8 7c3f a583 7c3f 2c4e 813f 94d8 7e3f
00000100: 2879 833f 0d1c 803f 5ab1 803f 83e2 763f
00000110: 66ab 833f 13c5 7e3f baef 7a3f 8a1e 7d3f
00000120: fe49 7a3f 6044 833f 8f32 7e3f b5a8 803f
00000130: 16d9 783f 9fff 7c3f 394c 813f 04dc 803f
00000140: 9439 833f 68bf 833f bb9f 7e3f d116 803f
00000150: a228 7f3f e243 833f e356 7c3f 3475 803f
00000160: b6f6 813f 0d2d 813f 77b4 753f 6d2a 843f
00000170: c1cf 7a3f f98b 823f 02ca 793f dcab 733f
00000180: e740 813f e388 763f 9f4b 843f f83b 7b3f
00000190: 4730 813f 9ec8 7a3f 6eb7 7f3f 9ee1 843f
000001a0: e2ff 7a3f a719 833f b954 783f 5f21 813f
000001b0: dfb7 7e3f eb06 733f c51b 843f 31c9 823f
000001c0: 11d0 793f 9af3 783f 65b5 813f 009f 803f
000001d0: 7cb9 7d3f 0c8d 7d3f 5662 7e3f 11ba 813f
000001e0: 09bf 753f d6a0 833f f573 7b3f bb23 763f
000001f0: ebff 7a3f 838c 793f 748a 773f b397 803f

bias f4 [128]
0.0082930755 0.09533356 0.07357363 0.027645813 0.03030796 -0.015858255 -0.008579644 0.0047371592
0.081163004 0.064520866 0.051471304 0.06413542 0.06403835 0.01848642 -0.02019661 -0.037024897
0.01486627 -0.026636062 -0.002047524 0.035279755 0.055116814 0.016484108 0.05390489 0.030868042
-0.04066153 0.004019555 0.045818318 -0.023924008 -0.059923727 0.097976156 0.012239624 -0.009871605
0.068978935 -0.06385403 0.0009548611 -0.013889814 0.012489323 -0.026156234 -0.04740106 0.04450729
-0.037531134 -0.010098015 -0.029457364 0.061773404 0.025225293 0.008301972 0.018325975 0.053776897
0.010491514 0.049732298 -0.03166309 0.02600712 -0.062293354 -0.027339181 0.06243734 0.019918663
-0.01994057 0.019436132 -0.07215579 -0.03442774 0.05346196 0.009321338 -0.012192449 -0.0068667666
0.019115873 0.014938462 -0.032050252 -0.0062131425 -0.04277901 0.044541232 -0.020690126 0.062783584
-0.022085262 0.053874467 0.050324276 0.03266131 0.05907403 -0.047200575 0.0017918469 -0.04930668
0.037886456 0.0144786835 -0.010527402 0.000924041 0.014754368 0.0345366 -0.0487554 0.04662904
-0.03508727 0.074322954 -0.06915579 0.06560247 0.008301671 0.087699965 0.062869735 -0.0017619012
0.018778179 0.025920643 0.0781794 -0.051069226 0.04026721 0.060212858 -0.021850636 0.023582317
-0.08005332 -0.04882848 0.038577795 0.05894243 0.05294281 -0.012291377 0.055477545 0.035214838
0.061986413 -0.024751823 -0.014979013 -0.05123524 0.02035001 0.05885698 0.07035673 -0.032794043
-0.05347953 0.10016661 0.041317955 -0.026061391 0.027891198 -0.0074188476 -0.037033834 -0.00034046845
00000000: aedf 073c 3e3e c33d c5ad 963d 7979 e23c
00000010: 6648 f83c 2ce9 81bc a391 0cbc 2c3a 9b3b
00000020: ca38 a63d 8423 843d 93d3 523d 6e59 833d
00000030: 8a26 833d d570 973c 5c73 a5bc 6ba7 17bd
00000040: a891 733c df33 dabc c12f 06bb 8181 103d
00000050: 2bc2 613d ae09 873c 60cb 5c3d fade fc3c
00000060: b48c 26bd 79b6 833b fdab 3b3d 48fc c3bc
00000070: 9572 75bd b9a7 c83d b488 483c 83bc 21bc
00000080: d444 8d3d e7c5 82bd a54f 7a3a 1a92 63bc
00000090: 04a0 4c3c 9945 d6bc 9d27 42bd 474d 363d
000000a0: 3fba 19bd 2572 25bc 9250 f1bc 1c06 7d3d
000000b0: 46a5 ce3c ff04 083c 5b20 963c 2a45 5c3d
000000c0: 99e4 2b3c 18b4 4b3d 28b1 01bd e20c d53c
000000d0: 5127 7fbd 6bf6 dfbc 4cbe 7f3d 772c a33c
000000e0: 685a a3bc 8638 9f3c 6ac6 93bd 1a04 0dbd
000000f0: eefa 5a3d 86b8 183c d6c2 47bc 9d02 e1bb
00000100: e498 9c3c 73c0 743c 2047 03bd 9e97 cbbb
00000110: 0b39 2fbd de70 363d 577e a9bc ae94 803d
00000120: 27ec b4bc 79ab 5c3d d420 4e3d dec7 053d
00000130: 9cf7 713d 6455 41bd 68dc ea3a cdf5 49bd
00000140: d42e 1b3d 0038 6d3c 207b 2cbc 583b 723a
00000150: 4ebc 713c 4076 0d3d beb3 47bd 18fe 3e3d
00000160: abb7 0fbd a236 983d 8da1 8dbd 965a 863d
00000170: bb03 083c 0a9c b33d d9c1 803d 98ef e6ba
00000180: b2d4 993c 8757 d43c 851c a03d f72d 51bd
00000190: 3bef 243d c2a1 763d 1b00 b3bc b42f c13c
000001a0: fff2 a3bd 5f00 48bd c003 1e3d 9e6d 713d
000001b0: 8fda 583d c661 49bc 6c3c 633d 6f3d 103d
000001c0: 77e5 7d3d 56c4 cabc 896a 75bc 0bdc 51bd
000001d0: 10b5 a63c 0414 713d 3017 903d 0c53 06bd
000001e0: 5a0d 5bbd 2724 cd3d 043d 293d b37e d5bc
000001f0: 157c e43c ce19 f3bb cab0 17bd e780 b2b9

running_mean f4 [128]
0.3421034 -0.38775232 -0.121134914 0.4385213 -0.49030045 -0.45709255 -0.3914149 -0.3113463
0.36447448 0.10904378 -0.23136923 0.31561095 0.49031064 -0.37280637 -0.21440975 0.09565148
-0.21445587 -0.39865097 0.051700916 -0.3813794 0.09638564 0.4761817 -0.17790149 0.24467266
0.21141657 0.08356649 0.13874525 0.21085872 -0.34407267 0.22252347 0.19459598 0.12139711
-0.2775203 0.5462475 -0.05023903 0.14614639 -0.0040011154 0.3933315 -0.47728184 0.24690592
-0.011014754 0.42629707 0.57471657 -0.53359973 -0.51367015 0.015185521 -0.3361505 0.47689226
-0.27460563 0.05661476 -0.4348391 -0.5650863 -0.40929595 -0.34960753 -0.055415068 -0.37036583
-0.54229426 0.05523296 0.4632565 -0.38262495 0.37028822 -0.51559067 0.17875628 -0.40532613
0.3535889 -0.12174191 -0.0563118 0.2787967 -0.2992485 -0.1814197 -0.19486101 -0.565334
-0.022761947 -0.001185943 0.55531293 -0.2704585 -0.055879436 -0.45177335 -0.4932072 0.53778
0.5034925 0.56733143 0.26508015 0.3635434 0.16875584 0.427822 -0.0656377 0.39382133
-0.010430135 -0.22585279 -0.28348777 -0.4246535 -0.21002929 -0.2897192 -0.34299842 -0.010683702
-0.4223408 -0.16323975 0.1557284 0.40063632 0.14779325 0.28455958 -0.52021617 0.25997692
0.04965216 0.380258 0.24586406 0.5219141 0.2726565 -0.40123612 0.18455231 0.05346664
0.23305058 -0.22783203 -0.5054487 0.14648989 0.5647233 0.1856416 0.38556942 -0.26310813
-0.53336567 -0.06747198 -0.4397299 0.47868058 0.34803733 0.1312667 -0.22924475 -0.002296552
00000000: 2d28 af3e 7987 c6be 9515 f8bd dd85 e03e
00000010: a908 fbbe 0908 eabe 8967 c8be c868 9fbe
00000020: 669c ba3e 5852 df3d 0eec 6cbe c297 a13e
00000030: ff09 fb3e 7ae0 bebe 3b8e 5bbe ece4 c33d
00000040: 529a 5bbe fb1b ccbe 57c4 533d 2944 c3be
00000050: d665 c53d 16ce f33e cf2b 36be 788b 7a3e
00000060: 967d 583e e824 ab3d 3c13 0e3e 59eb 573e
00000070: 4b2a b0be 31dd 633e 2b44 473e 0c9f f83d
00000080: 2417 8ebe e0d6 0b3f 71c7 4dbd 66a7 153e
00000090: ca1b 83bb bf62 c93e 495e f4be e8d4 7c3e
000000a0: 3a77 34bc 9c43 da3e a020 133f fe99 08bf
000000b0: e37f 03bf b1cc 783c eb1b acbe 392b f43e
000000c0: 1c99 8cbe e1e4 673d 3ba3 debe 7fa9 10bf
000000d0: 3d8f d1be c2ff b2be e9fa 62bd 97a0 bdbe
000000e0: ccd3 0abf f53b 623d f52f ed3e 6be7 c3be
000000f0: 6b96 bd3e c0fd 03bf e30b 373e e886 cfbe
00000100: 9b09 b53e d353 f9bd 34a7 66bd 71be 8e3e
00000110: 1937 99be 16c6 39be a589 47be bbb9 10bf
00000120: 4377 babc a571 9bba fd28 0e3f 8979 8abe
00000130: d6e1 64bd d64e e7be a785 fcbe f3ab 093f
00000140: e2e4 003f a23c 113f 96b8 873e 5c22 ba3e
00000150: 55ce 2c3e 7c0b db3e 0f6d 86bd f3a2 c93e
00000160: 28e3 2abc f445 67be 4f25 91be 2f6c d9be
00000170: eb11 57be 1356 94be 7d9d afbe b20a 2fbc
00000180: 0e3d d8be 5228 27be 4477 1f3e 3420 cd3e
00000190: 1d57 173e cbb1 913e e32c 05bf b21b 853e
000001a0: 1060 4b3d 2db1 c23e cac3 7b3e 2a9c 053f
000001b0: a299 8b3e d26e cdbe 48fb 3c3e d6ff 5a3d
000001c0: d0a4 6e3e cd4c 69be 1665 01bf 7201 163e
000001d0: b591 103f d518 3e3e 5b69 c53e 1cb6 86be
000001e0: a78a 08bf c02e 8abd 4724 e1be 9f15 f53e
000001f0: f331 b23e c76a 063e 23bf 6abe c081 16bb

running_var f4 [128]
0.09620729 0.01297371 0.037701797 0.017105715 0.08061878 0.07563751 0.050182205 0.024444317
0.039622553 0.023692157 0.05796487 0.040490236 0.099864215 0.08016443 0.071717106 0.089127876
0.059970483 0.0292098 0.02534303 0.06677421 0.06979149 0.022843948 0.013496401 0.07641888
0.08123931 0.08431796 0.024663402 0.0488691 0.08146909 0.056749433 0.0975416 0.03213817
0.01004436 0.07020244 0.0215353 0.042173162 0.013548356 0.053460628 0.06902335 0.017867183
0.03646457 0.016786864 0.041999057 0.033549085 0.025105951 0.019193102 0.09217817 0.0348301
0.035019334 0.040591717 0.037250698 0.057842955 0.033502456 0.021370905 0.08173458 0.0602156
0.092594385 0.030784637 0.049238678 0.064899184 0.010898538 0.047454946 0.03270294 0.029976862
0.041871194 0.025968678 0.04460665 0.02288709 0.043195296 0.03047936 0.061912894 0.053147484
0.045946907 0.06690733 0.022556154 0.016809376 0.03146701 0.057605837 0.0320768 0.07890532
0.016802236 0.010534439 0.03626463 0.030492812 0.067478575 0.017334107 0.024716144 0.018177407
0.05137654 0.03153815 0.05358605 0.03515702 0.08111992 0.02820073 0.033586517 0.029898187
0.023528704 0.07834326 0.051443197 0.016677858 0.032685652 0.07895833 0.015035628 0.034478407
0.05471129 0.07436222 0.065577365 0.023417149 0.0623055 0.040841807 0.103646964 0.048574414
0.04189676 0.068281196 0.04708731 0.044353284 0.09405512 0.065836884 0.04041902 0.01811397
0.012736179 0.019426018 0.09638124 0.035037596 0.05871715 0.04893078 0.0050620995 0.05746262
00000000: 5408 c53d af8f 543c 336d 1a3d 4921 8c3c
00000010: 751b a53d d7e7 9a3d db8b 4d3d 733f c83c
00000020: 424b 223d 0e16 c23c 926c 6d3d 17d9 253d
00000030: 9c85 cc3d 402d a43d 6be0 923d ad88 b63d
00000040: 9ca3 753d 6449 ef3c 309c cf3c ebc0 883d
00000050: d7ee 8e3d 3b23 bb3c 0220 5d3c 8081 9c3d
00000060: cc60 a63d e5ae ac3d e70a ca3c f72a 483d
00000070: 44d9 a63d 1872 683d e4c3 c73d 50a3 033d
00000080: 1991 243c 4cc6 8f3d cc6a b03c c4bd 2c3d
00000090: ecf9 5d3c 88f9 5a3d 1d5c 8d3d 335e 923c
000000a0: df5b 153d 9b84 893c 3407 2c3d c46a 093d
000000b0: ffaa cd3c da3a 9d3c e9c7 bc3d 02aa 0e3d
000000c0: 6f70 0f3d 8043 263d 3094 183d bcec 6c3d
000000d0: df39 093d 0912 af3c 7664 a73d a2a4 763d
000000e0: 20a2 bd3d 1030 fc3c 7fae 493d dde9 843d
000000f0: c88f 323c 1e60 423d 85f3 053d 0992 f53c
00000100: 2181 2b3d 44bc d43c 76b5 363d b57d bb3c
00000110: 8ded 303d daaf f93c 6098 7d3d 2db1 593d
00000120: d332 3c3d b606 893d afc7 b83c d1b3 893c
00000130: 8de3 003d 19f4 6b3d f662 033d 1d99 a13d
00000140: d8a4 893c a498 2c3c 388a 143d 10cc f93c
00000150: 3532 8a3d 4200 8e3c 8379 ca3c c9e8 943c
00000160: 3570 523d 262e 013d 0c7d 5b3d cf00 103d
00000170: 3322 a63d 3805 e73c 0492 093d 0bed f43c
00000180: 45bf c03c 6e72 a03d 1ab6 523d 01a0 883c
00000190: 64e1 053d e8b4 a13d ff57 763c 3b39 0d3d
000001a0: f218 603d 384b 983d 6d4d 863d 52d5 bf3c
000001b0: 0d34 7f3d bd49 273d dc44 d43d f7f5 463d
000001c0: f09b 2b3d 03d7 8b3d a0de 403d caab 353d
000001d0: f99f c03d 7dd5 863d 6a8e 253d c063 943c
000001e0: 68ab 503c 5023 9f3c 8763 c53d 9583 0f3d
000001f0: 6581 703d a46b 483d f8df a53b ed5d 6b3d

weight f4 [128, 128]
0.2009988 -0.010669595 -0.091098845 -0.06727278 0.052516937 0.10892928 -0.037321154 -0.100544915
0.000570625 0.04484047 -0.0867509 -0.119003005 0.12144341 -0.04930624 0.11468562 -0.110770665
-0.004739795 -0.017264811 0.05348944 0.030531527 -0.005754835 0.074218296 -0.051582783 -0.09121089
-0.11550219 0.047946706 -0.041943107 -0.048708674 -0.0251803 0.012532328 -0.063520044 -0.11520238
0.009757142 -0.0750986 -0.047895506 -0.043803476 0.005625387 -0.031854365 0.19447601 -0.12771052
0.07883693 0.1488511 0.1256829 0.026040675 0.079456724 0.00095246016 -0.021126969 -0.1348213
-0.08704236 -0.005072478 0.011837158 -0.031674072 -0.061256804 -0.071218476 0.11777281 0.06939555
-0.11004437 0.18144919 0.063807175 0.036431402 -0.0675484 -0.09303798 0.071112595 -0.03220412
-0.022272594 0.18754926 0.065856755 0.082212985 -0.029533511 -0.048522156 0.1065923 -0.08379304
-0.09493353 0.0119722625 -0.16483633 -0.12688634 0.10838222 -0.10102529 -0.10572854 0.17542192
0.08199356 0.07244742 0.030811852 -0.13379048 0.17057851 -0.018220803 -0.07083743 -0.16595891
0.0053604636 -0.13468468 -0.06361619 -0.084804915 -0.11838222 -0.0685973 0.03686435 -0.07188392
0.047837008 -0.036259335 0.028241001 -0.0613521 -0.05308626 -0.09176607 0.15577662 -0.040579118
0.08203743 -0.10040868 0.028994463 0.205751 -0.028079938 -0.07880218 -0.13504411 0.07033689
0.12013267 0.08044793 -0.16798685 -0.0011881597 -0.029922783 -0.06638629 -0.016693754 0.08671243
0.15329485 0.0740633 -0.068678804 -0.05688906 0.0034671186 -0.026550429 0.012412399 0.048423804
0.11942199 -0.13093829 0.056056634 0.029053323 -0.012045813 0.061861224 0.010572929 0.13912751
0.0566657 -0.07176199 0.09619741 -0.10377696 -0.1911578 0.14055704 0.102783695 -0.068889275
0.052257862 -0.046258904 0.12108878 0.101878986 0.049373314 -0.06413751 -0.14567387 -0.014380475
0.029804453 -0.062029883 -0.004973766 0.042036768 -0.14985532 -0.032231737 0.1363351 -0.037820823
0.076344505 0.041823775 -0.13661207 0.016197298 -0.11540013 -0.14760852 0.07151817 -0.113757
0.09276032 0.049632944 0.06610988 0.050517663 0.11861684 0.04112562 -0.13031852 -0.093252294
-0.045971986 -0.12611094 -0.087783374 -0.059873085 -0.0073362296 -0.14319319 0.06057926 -0.077631906
-0.016974252 -0.03814805 0.11256298 -0.05752653 -0.08718217 0.037979797 0.032864597 -0.12263502
-0.079601236 0.09884874 0.055449825 -0.08375501 0.045105122 0.08014428 0.08254984 0.11982848
-0.04006556 -0.12724315 -0.14000677 0.09789579 0.15073678 0.027035244 -0.0054357466 -0.07011479
-0.11890097 0.062007338 0.03944075 -0.14148751 0.051758494 -0.14481014 0.10691436 0.04844366
-0.100565165 0.0720782 -0.15842503 0.040369757 0.079313554 -0.15938446 -0.13989556 -0.11065421
-0.027634708 -0.14509577 -0.055084713 -0.10670905 -0.02819599 0.027109005 0.009495172 -0.120573126
0.027748974 -0.080780715 -0.1580274 -0.0913173 0.05988272 -0.123088546 -0.13889876 0.064463854
-0.08113478 0.034406044 0.06487016 -0.0046212124 -0.120637916 -0.009219252 0.06535023 -0.08567832
-0.032107435 0.17864546 -0.037515655 -0.041831788 0.116446644 -0.07703347 -0.010334767 0.09615794
00000000: a1d2 4d3e 86cf 2ebc 0892 babd 50c6 89bd
00000010: 001c 573d 5016 df3d 11de 18bd 7eea cdbd
00000020: ff95 153a a4aa 373d 75aa b1bd d9b7 f3bd
00000030: 53b7 f83d 57f5 49bd 4be0 ea3d bbdb e2bd
00000040: 4850 9bbb ef6e 8dbc be17 5b3d 411d fa3c
00000050: 0e93 bcbb c3ff 973d 7848 53bd c6cc babd
00000060: 6a8c ecbd c463 443d 89cc 2bbd bf82 47bd
00000070: eb46 cebc 6554 4d3c cc16 82bd 3aef ebbd
00000080: 6bdc 1f3c 4bcd 99bd 142e 44bd 466b 33bd
00000090: 2b55 b83b b979 02bd b824 473e 8cc6 02be
000000a0: 4275 a13d 6c6c 183e 05b3 003e 4153 d53c
000000b0: 35ba a23d 85ae 793a 7712 adbc 980e 0abe
000000c0: 4443 b2bd 0837 a6bb a4f0 413c acbc 01bd
000000d0: 6ae8 7abd feda 91bd df32 f13d 411f 8e3d
000000e0: f15e e1bd d1cd 393e 56ad 823d 1839 153d
000000f0: d156 8abd b28a bebd 7ba3 913d 78e8 03bd
00000100: 0475 b6bc ea0c 403e e8df 863d 485f a83d
00000110: 43f0 f1bc 2bbf 46bd 104d da3d af9b abbd
00000120: 836c c2bd 4f27 443c dbca 28be 7eee 01be
00000130: 7ff7 dd3d 59e6 cebd 3488 d8bd cea1 333e
00000140: 3dec a73d 505f 943d 2369 fc3c 5f00 09be
00000150: 22ac 2e3e cb43 95bc 3713 91bd 22f1 29be
00000160: d4a6 af3b c8ea 09be 3449 82bd 33ae adbd
00000170: 6172 f2bd be7c 8cbd 13ff 163d e037 93bd
00000180: bdf0 433d ab84 14bd ac59 e73c 574c 7bbd
00000190: fa70 59bd d9ef bbbd e883 1f3e 4a36 26bd
000001a0: 3d03 a83d 11a3 cdbd cc85 ed3c 64b0 523e
000001b0: e607 e6bc 0a63 a1bd 0149 0abe ca0c 903d
000001c0: 1e08 f63d e2c1 a43d bf04 2cbe 06bc 9bba
000001d0: a020 f5bc 89f5 87bd 57c1 88bc 4996 b13d
000001e0: 53f9 1c3e 80ae 973d 79a7 8cbd 8104 69bd
000001f0: 9938 633b 4980 d9bc 605d 4b3c 0a58 463d
00000200: 8493 f43d b014 06be a49b 653d 3c01 ee3c
00000210: cd5b 45bc 3262 7d3d 143a 2d3c 7177 0e3e
00000220: 4b1a 683d f3f7 92bd 2603 c53d 0489 d4bd
00000230: dfbe 43be 2fee 0f3e 4280 d23d d215 8dbd
00000240: 570c 563d fa79 3dbd 65fd f73d eea5 d03d
00000250: ac3b 4a3d 875a 83bd 882b 15be 159c 6bbc
00000260: 7828 f43c 0c13 7ebd f9fa a2bb bf2e 2c3d
00000270: ac73 19be 6d05 04bd 6e9b 0b3e 02ea 1abd
00000280: 825a 9c3d 684f 2b3d 09e4 0bbe 32b0 843c
00000290: e756 ecbd b026 17be 1e78 923d 6ef9 e8bd
000002a0: 1ff9 bd3d ea4b 4b3d 9e64 873d 9ceb 4e3d
000002b0: 63ed f23d 5773 283d 3872 05be 0ffb bebd
000002c0: 1f4d 3cbd 3a23 01be c5c7 b3bd 7b3d 75bd
000002d0: c164 f0bb 3ca1 12be f521 783d 7afd 9ebd
000002e0: 960d 8bbc 2141 1cbd 6b87 e63d f0a0 6bbd
000002f0: 918c b2bd b490 1b3d 079d 063d 1228 fbbd
00000300: f905 a3bd 3571 ca3d 5b1f 633d bf87 abbd
00000310: 26c0 383d af22 a43d e40f a93d a268 f53d
00000320: c91b 24bd 074c 02be ef5d 0fbe 977d c83d
00000330: be5a 1a3e 0479 dd3c 591e b2bb 5898 8fbd
00000340: 5a82 f3bd 68fb 7d3d a08c 213d 1ae2 10be
00000350: b700 543d 1c49 14be eaf5 da3d dc6c 463d
00000360: 1cf5 cdbd bc9d 933d 2c3a 22be c25a 253d
00000370: 256f a23d ae35 23be c840 0fbe ad9e e2bd
00000380: 2f62 e2bc fc93 14be 82a0 61bd 468a dabd
00000390: 47fb e6bc b413 de3c a391 1b3c 0bef f6bd
000003a0: d151 e33c 5c70 a5bd efd1 21be 9104 bbbd
000003b0: 9547 753d d915 fcbd 7a3b 0ebe a005 843d
000003c0: fe29 a6bd 5aed 0c3d a5da 843d 8a6d 97bb
000003d0: 0311 f7bd 580c 17bc 57d6 853d 1d78 afbd
000003e0: 1683 03bd d6ee 363e 04aa 19bd cf57 2bbd
000003f0: 947b ee3d b9c3 9dbd 2853 29bc 74ee c43d

bias f4 [128]
0.03210963 -0.08583795 0.046608236 0.032847296 -0.05831557 -0.03468446 -0.021139523 0.024772903
-0.033508137 0.08458857 0.054711733 0.05605409 0.06496912 0.08018663 -0.0566813 -0.07915424
0.07363001 0.00620325 -0.065348394 0.048321333 0.08574773 0.034906164 -0.06575616 -0.059182905
0.060323108 0.044001766 -0.0012272957 -0.0024477097 -0.024137897 -0.070544004 -0.030584643 -0.011452706
-0.07294339 -0.057572883 -0.058967013 0.0150495125 -0.07916172 0.07449986 -0.064596295 -0.0797985
-0.01769453 -0.07222471 0.08142841 0.016233873 0.01041393 -0.03956017 -0.06451148 0.0152530195
0.017424077 -0.016350714 0.019003164 0.067790106 0.05995842 -0.017658612 -0.026081609 0.0042267866
-0.085825555 -0.0033258714 -0.040272605 -0.051155735 0.017264346 0.060446687 -0.055900518 -0.06978367
-0.049900338 -0.05387364 -0.03830117 -0.0086552035 -0.02980792 -0.04234332 -0.070931025 -0.030635666
-0.0681914 -0.047585588 0.023596775 -0.065903686 0.024043178 0.07411326 -0.0026450912 0.067025214
0.008390782 -0.06045154 0.042415947 0.0064816657 0.0041282657 0.0015472962 -0.038504526 0.04022875
-0.05761523 -0.0028974798 -0.017491493 -0.06774019 -0.003240253 0.066488996 -0.08728592 0.0034739014
0.0731268 -0.015245043 0.055502214 0.044044297 0.018270226 -0.06321601 -0.014123225 -0.006848639
0.079426266 -0.08253085 -0.015080269 0.028976714 0.004970649 -0.05367006 -0.086044766 -0.07983975
-0.081903495 -0.015017664 -0.08828275 -0.05144082 0.08025055 -0.0043845926 -0.069986336 0.068918206
-0.019645926 -0.085691616 0.009540479 -0.048636265 0.05165367 -0.06695878 -0.072299086 -0.0020060514
00000000: 6385 033d cfcb afbd 47e8 3e3d e38a 063d
00000010: 4fdc 6ebd 4b11 0ebd cb2c adbc 8bf0 ca3c
00000020: d43f 09bd c63c ad3d 6919 603d f998 653d
00000030: 880e 853d e338 a43d a72a 68bd 9e1b a2bd
00000040: 55cb 963d a244 cb3b 61d5 85bd 97ec 453d
00000050: 829c af3d c4f9 0e3d 2aab 86bd c669 72bd
00000060: 5d15 773d 323b 343d 36dd a0ba c169 20bb
00000070: d7bc c5bc 6079 90bd a58c fabc 21a4 3bbc
00000080: 5863 95bd 8bd1 6bbd 6587 71bd 3b92 763c
00000090: 8a1f a2bd 6293 983d 104b 84bd 656d a3bd
000000a0: 1ef4 90bc 8cea 93bd f0c3 a63d e6fc 843c
000000b0: 309f 2a3c d809 22bd 981e 84bd cde7 793c
000000c0: f0bc 8e3c eff1 85bc 86ac 9b3c 8ad5 8a3d
000000d0: f696 753d cba8 90bc 19a9 d5bc db80 8a3b
000000e0: 4fc5 afbd ddf6 59bb e3f4 24bd ad88 51bd
000000f0: f56d 8d3c f296 773d f1f7 64bd beea 8ebd
00000100: 4c64 4cbd 9baa 5cbd b0e1 1cbd 8ece 0dbc
00000110: bd2f f4bc 3070 2dbd 4944 91bd a6f7 fabc
00000120: efa7 8bbd 1be9 42bd 064e c13c 83f8 86bd
00000130: 33f6 c43c b1c8 973d 4459 2dbb 8444 893d
00000140: 7e79 093c 099c 77bd 58bc 2d3d 2764 d43b
00000150: 6746 873b a5ce ca3a ecb6 1dbd e7c6 243d
00000160: f3fd 6bbd a5e3 3dbb 524a 8fbc 5ebb 8abd
00000170: 6d5a 54bb 622b 883d f6c2 b2bd 65aa 633b
00000180: 81c3 953d 58c6 79bc 4a56 633d cb67 343d
00000190: 71ab 953c 6577 81bd 1965 67bc 8c6a e0bb
000001a0: 3daa a23d ef05 a9bd 3c13 77bc 9360 ed3c
000001b0: d3e0 a23b 23d5 5bbd 3d38 b0bd 0683 a3bd
000001c0: 05bd a7bd a60c 76bc 96cd b4bd 9cb3 52bd
000001d0: 665a a43d a1ac 8fbb ff54 8fbd fd24 8d3d
000001e0: 7ef0 a0bc 167f afbd ab4f 1c3c d236 47bd
000001f0: cc92 533d af21 89bd 8b11 94bd f577 03bb

weight f4 [128]
1.0054932 0.988957 1.0442331 1.0197868 1.0177345 0.99112463 1.0042334 0.9706527
0.98961705 1.0288998 1.0434256 1.019061 0.9347186 1.0437442 1.0434223 0.98657763
1.0095294 0.9634232 0.9840829 0.9877639 1.0318983 1.0385194 0.9741533 0.9382046
1.0099931 1.0022074 0.9512841 0.9969276 0.9689302 0.98948294 1.0047562 0.9770418
1.0014347 0.9674884 0.96564674 0.99181265 1.0051425 0.97225636 0.9699223 1.0088248
1.0320157 1.0346761 1.0095283 1.0363307 0.9869465 1.0164549 1.0146093 1.0182444
0.9431519 0.9773076 0.97230005 1.017392 1.0292834 1.0130417 0.96307164 0.97401273
0.96392334 0.9970432 1.0145273 0.9542213 0.9795343 1.023149 0.9709594 0.95159185
1.0394859 1.0145283 1.0220289 1.0520945 1.0127 0.9869276 1.0207624 1.0173566
0.962887 1.029656 0.9855272 0.9798887 0.97613335 0.98290616 0.9829262 1.0424023
0.96879816 0.9941101 0.9875565 1.0055702 0.99149245 0.95626295 1.0315899 1.000015
1.0221883 1.0236183 1.0291471 0.98870295 1.0004044 0.98945695 0.9951123 1.0002887
1.0385612 0.96461636 1.0587845 0.9857329 0.99373376 1.0213424 0.99786395 1.0186957
1.022907 1.0086836 0.981224 1.0653895 1.0031345 1.0883596 0.9751111 1.0120941
0.98433584 1.0010242 1.0043228 1.0349241 1.0097076 0.99205035 0.9812211 0.99814254
0.98083216 1.0038861 1.0190134 1.014553 0.9984306 1.0085776 0.99199855 0.96458465
00000000: 00b4 803f 492c 7d3f 6ea9 853f 6088 823f
00000010: 2045 823f 58ba 7d3f b88a 803f b27c 783f
00000020: 8b57 7d3f fdb2 833f f88e 853f 9770 823f
00000030: b849 6f3f 6999 853f dd8e 853f 5a90 7c3f
00000040: 4238 813f e7a2 763f dbec 7b3f 18de 7c3f
00000050: 3e15 843f 34ee 843f 1c62 793f 2d2e 703f
00000060: 7447 813f 5548 803f 5b87 733f a636 7f3f
00000070: cf0b 783f c14e 7d3f da9b 803f 691f 7a3f
00000080: 032f 803f 52ad 773f a034 773f 6fe7 7d3f
00000090: 82a8 803f cbe5 783f d44c 783f 2c21 813f
000000a0: 1719 843f 4470 843f 3938 813f 7ca6 843f
000000b0: 87a8 7c3f 321b 823f b8de 813f d555 823f
000000c0: 6772 713f d530 7a3f a8e8 783f e739 823f
000000d0: 8fbf 833f 5aab 813f dd8b 763f e658 793f
000000e0: aec3 763f 393e 7f3f 08dc 813f d947 743f
000000f0: c3c2 7a3f 8cf6 823f cc90 783f 869b 733f
00000100: e00d 853f 10dc 813f d8d1 823f 08ab 863f
00000110: 27a0 813f 4aa7 7c3f 58a8 823f be38 823f
00000120: c37f 763f c5cb 833f 834b 7c3f fcd9 7a3f
00000130: e0e3 793f bd9f 7b3f 0da1 7b3f 706d 853f
00000140: 2803 783f 007e 7e3f 81d0 7c3f 86b6 803f
00000150: 73d2 7d3f a6cd 743f 230b 843f 7e00 803f
00000160: 11d7 823f ed05 833f 18bb 833f a31b 7d3f
00000170: 400d 803f 0d4d 7d3f aebf 7e3f 7609 803f
00000180: 93ef 843f 19f1 763f 4086 873f fe58 7c3f
00000190: 5665 7e3f 59bb 823f 0374 7f3f 9f64 823f
000001a0: 9eee 823f 8b1c 813f 7f31 7b3f af5e 883f
000001b0: b666 803f 5e4f 8b3f e2a0 793f 4d8c 813f
000001c0: 6ffd 7b3f 9021 803f a68d 803f 6578 843f
000001d0: 193e 813f 03f7 7d3f 4e31 7b3f 4586 7f3f
000001e0: d117 7b3f 577f 803f 086f 823f dfdc 813f
000001f0: 2699 7f3f 1219 813f 9ef3 7d3f 05ef 763f

bias f4 [128]
0.018997846 0.004614111 0.043086812 0.0071191285 -0.0043440666 -0.042515717 0.01852629 0.035248507
0.032688025 0.054551907 -0.020386552 0.020185705 -0.029691102 -0.05195037 -0.010985587 0.042313945
0.03346403 -0.010884157 0.012732703 -0.04709443 0.05553387 -0.003989671 -0.01812055 -0.073382095
0.03713481 0.017733283 -0.023691835 -0.051505335 -0.038880426 -0.03412681 -0.047360253 0.0074098203
0.049314763 -0.024299946 -0.005539261 0.014815381 0.03547897 -0.04356167 0.0052509047 0.07718059
0.109270595 0.0016702878 -0.03578904 0.011068259 0.045600962 -0.05427991 -0.0031516938 0.029210286
-0.01531131 0.02810967 -0.039936177 0.01047219 0.017892884 0.029658651 -0.010377267 0.0048449705
-0.044304248 0.059881594 0.013144514 0.05478821 0.03969361 0.058644727 -0.036377102 -0.038344704
0.027727302 0.069970824 0.002030989 -0.029904526 0.027081821 -0.011288211 0.013366547 0.049335524
0.011238333 0.022722809 0.061078954 -0.018530177 -0.014126633 0.034507725 -0.037336834 -0.02624579
-0.0060974187 -0.02063397 -0.024923027 0.023599256 -0.028046178 0.029782685 -0.04379972 -0.024918204
-0.014755243 0.04494432 0.038035635 0.01306213 -0.019121103 -0.023787437 -0.012585452 -0.007825945
-0.002998969 0.03905254 0.054432727 0.023147995 0.016536951 0.0635913 0.0122473035 0.06788716
-0.022722509 -0.0078117936 0.022141527 0.067312196 0.029762499 0.043982353 -0.047109336 0.035280377
0.014951003 0.011821472 0.018649248 0.037986185 -0.088132136 0.053378183 0.011950967 -0.04117226
0.009388225 0.008195059 0.029240688 -0.042736568 0.039779358 -0.024679743 0.040920615 0.008554402
00000000: 5fa1 9b3c f831 973b cc7b 303d 9447 e93b
00000010: ac58 8ebb f624 2ebd 72c4 973c bd60 103d
00000020: e1e3 053d d271 5f3d b301 a7bc 7e5c a53c
00000030: c13a f3bc e9c9 54bd e4fc 33bc 6351 2d3d
00000040: 9411 093d 7753 32bc d49c 503c 17e6 40bd
00000050: 7c77 633d c9bb 82bb 8c71 94bc 5a49 96bd
00000060: ac1a 183d 6445 913c 6115 c2bc 42f7 52bd
00000070: 1541 1fbd 8ec8 0bbd d3fc 41bd 14ce f23b
00000080: 47fe 493d ae10 c7bc b082 b5bb 36bc 723c
00000090: 6552 113d b96d 32bd c80f ac3b db10 9e3d
000000a0: 43c9 df3d 8fed da3a 8797 12bd a557 353c
000000b0: 13c8 3a3d 9c54 5ebd a68c 4ebb 694a ef3c
000000c0: 4adc 7abc 4046 e63c 1e94 23bd 8c93 2b3c
000000d0: 1994 923c b3f6 f23c 6a05 2abc 8fc2 9e3b
000000e0: 5f78 35bd 6746 753d 165c 573c 9a69 603d
000000f0: c495 223d 7435 703d 2800 15bd 560f 1dbd
00000100: 5e24 e33c dd4c 8f3d 571a 053b 56fa f4bc
00000110: b2da dd3c 30f2 38bc 5dff 5a3c 0c14 4a3d
00000120: fc20 383c 2f25 ba3c ed2d 7a3d 99cc 97bc
00000130: 6573 67bc f957 0d3d 82ee 18bd 6901 d7bc
00000140: dbcc c7bb 9208 a9bc 602b ccbc 3a53 c13c
00000150: 19c1 e5bc d1fa f33c 5667 33bd 4321 ccbc
00000160: fabf 71bc 8917 383d 41cb 1b3d 8b02 563c
00000170: dca3 9cbc dfdd c2bc 3633 4ebc 6438 00bc
00000180: 5a8a 44bb 8ef5 1f3d daf4 5e3d dda0 bd3c
00000190: 8078 873c 283c 823d eaa8 483c 6c08 8b3d
000001a0: 8e24 babc 13fa ffbb 2662 b53c fada 893d
000001b0: 7cd0 f33c d726 343d b8f5 40bd 2882 103d
000001c0: 0df5 743c d9ae 413c 4fc6 983c 6797 1b3d
000001d0: 9f7e b4bd 15a3 5a3d fdcd 433c 3ea4 28bd
000001e0: 12d1 193c 9244 063c 2b8a ef3c 8a0c 2fbd
000001f0: aeef 223d 2c2d cabc 609c 273d c327 0c3c

running_mean f4 [128]
-0.23759246 -0.78278357 -0.33595315 0.3368334 -0.38949051 0.21919686 -1.005531 -0.2778632
0.24641839 -0.8100855 0.64295965 0.52825487 0.7302047 0.3627641 -0.12130252 0.20071776
-0.34067357 0.924272 0.17612423 -0.21099989 0.22401334 -0.7251052 -0.40692374 0.060726095
0.4787223 -0.7837562 -0.20422202 0.09274165 0.28519878 -0.5135381 0.31673104 -1.082376
-0.6184118 -1.2910571 0.23267893 0.18693079 -0.15606841 -0.57132316 0.44926044 -1.0446752
-1.1555191 -0.42606196 -0.7416415 0.025044655 0.13868868 -0.35591963 0.44805628 -1.4088358
-0.3471469 0.113561094 -0.016077073 0.47332093 0.32115293 -0.71584725 0.6974424 -0.23132858
0.260004 -0.28039497 -0.3853136 -0.8788067 -0.8287314 -0.07202716 -0.21403372 -0.38022628
-0.3703096 -1.2543331 0.2106816 0.33243468 -0.4187498 -0.8671761 -0.7206808 -0.7601774
-0.1844531 -0.75881654 0.2186191 -0.31230828 -0.1902076 -0.45221862 0.23723605 -0.3366431
-0.8788042 -0.8892416 0.30245233 -0.7556714 -0.037937693 -0.3218275 0.033432357 -0.23330463
-0.69327044 -0.3024546 0.29235852 0.08264459 0.24047601 -0.46760496 -0.39840525 -0.2943768
-0.7081093 -0.60358745 -0.13073777 0.90968627 -1.1367482 -1.0638106 -0.7808491 -1.0763155
0.21800892 -0.050839618 0.036201674 -1.0559529 -0.8639797 -1.1795728 -0.186789 -0.37045264
0.010403774 0.20133668 -0.4831267 -0.27340063 0.43778592 -0.162551 -0.33990833 0.30904925
-0.026530175 -0.41657615 0.06521787 -0.37254545 -0.5112753 -0.09112164 -0.029515782 -0.016625296
00000000: 704b 73be 8164 48bf 0d02 acbe 6d75 ac3e
00000010: 4d6b c7be 2475 603e 3db5 80bf 1644 8ebe
00000020: 1a55 7c3e c361 4fbf 0199 243f b63b 073f
00000030: b2ee 3a3f 37bc b93e 756d f8bd f588 4d3e
00000040: c46c aebe 179d 6c3f e959 343e 5b10 58be
00000050: c163 653e 7fa0 39bf 4f58 d0be edbb 783d
00000060: 171b f53e 3fa4 48bf 941f 51be 56ef bd3d
00000070: 9305 923e 3c77 03bf 922a a23e 4c8b 8abf
00000080: 3c50 1ebf 5c41 a5bf 6343 6e3e c96a 3f3e
00000090: 66d0 1fbe 3c42 12bf 7705 e63e ebb7 85bf
000000a0: 0de8 93bf cb24 dabe 38dc 3dbf 732a cd3c
000000b0: 6804 0e3e 193b b6be a267 e53e bb54 b4bf
000000c0: 3dbd b1be b892 e83d 11b4 83bc 1f57 f23e
000000d0: 286e a43e c441 37bf 968b 323f 66e1 6cbe
000000e0: 3f1f 853e ee8f 8fbe d347 c5be 7af9 60bf
000000f0: be27 54bf fa82 93bd a82b 5bbe 05ad c2be
00000100: 3899 bdbe fd8d a0bf ebbc 573e e134 aa3e
00000110: 6066 d6be 41ff 5dbf 897e 38bf fc9a 42bf
00000120: 46e1 3cbe cd41 42bf afdd 5f3e dfe6 9fbe
00000130: c8c5 42be 3389 e7be 02ee 723e 7c5c acbe
00000140: 50f9 60bf 56a5 63bf 08db 9a3e ae73 41bf
00000150: 8e64 1bbd 93c6 a4be 5ef0 083d 69e7 6ebe
00000160: 2c7a 31bf 54db 9abe 04b0 953e 9141 a93d
00000170: 583f 763e eb69 efbe c6fb cbbe 8eb8 96be
00000180: a746 35bf b584 1abf 1fe0 05be 33e1 683f
00000190: f780 91bf f22a 88bf bae5 47bf b5c4 89bf
000001a0: bb3d 5f3e 343d 50bd 3548 143d 7729 87bf
000001b0: c62d 5dbf 3efc 96bf 9e45 3fbe f8ab bdbe
000001c0: 9774 2a3c 342b 4e3e 625c f7be 2bfb 8bbe
000001d0: 7a25 e03e c573 26be 7708 aebe b43b 9e3e
000001e0: cf55 d9bc 7849 d5be f290 853d 47be bebe
000001f0: f0e2 02bf fb9d babd 15cb f1bc c631 88bc

running_var f4 [128]
0.9173005 1.0135094 0.4256411 0.1717462 0.79063827 0.9038115 0.55799305 0.635354
0.7170055 0.6313296 0.7669694 0.7479071 0.32692134 0.29733154 0.49470034 0.56426287
0.7426566 0.30927315 0.628542 0.7754966 0.38951224 0.6323046 0.8324561 0.62836325
0.24245082 0.92739403 1.1880616 0.2407856 0.46445316 0.6712611 0.40197864 0.34230015
0.82429504 1.1390868 0.44765645 0.49214602 0.42873147 0.46059874 0.40521246 0.89756763
1.364768 0.86518836 0.96333116 0.580495 0.3844483 0.2666053 0.2052761 1.7512072
0.23783989 1.1309289 0.5650893 0.26080498 0.62448806 0.756274 0.38968208 0.47805664
0.49943534 0.20494084 0.19457996 1.1729636 0.19760184 0.98394644 0.17359546 1.2565136
1.0834785 0.70500183 0.21921514 0.55982864 0.5437085 1.1533744 0.22641936 1.0110781
0.5022362 0.25022703 0.7360121 0.85546464 0.67663807 1.0137236 0.5811357 0.5974831
0.44710273 0.8872445 0.21450813 1.0632612 0.18808974 0.64972126 0.26415846 0.49060374
0.9002009 0.72774976 0.4436983 1.2962332 0.28192464 0.65442556 0.24169903 0.4602271
0.43270177 0.61563087 0.3614676 0.59979683 1.0128045 0.7103704 0.59712434 0.58947897
0.4605873 0.21891938 0.34656015 0.36148247 0.94909424 1.4764597 0.19198555 1.094927
0.5806789 0.30412582 0.39617088 0.44686115 0.19930896 0.8763711 0.8110525 0.19830799
0.11786662 0.29005492 0.5429582 0.3450852 0.7105444 0.3992365 0.16455635 2.4262264
00000000: 35d4 6a3f adba 813f a1ed d93e 3cde 2f3e
00000010: 4567 4a3f 3160 673f a2d8 0e3f 8fa6 223f
00000020: ac8d 373f d19e 213f 1b58 443f d776 3f3f
00000030: 3c62 a73e d73b 983e 5d49 fd3e 8873 103f
00000040: be1e 3e3f 0d59 9e3e 21e8 203f f286 463f
00000050: 266e c73e b7de 213f d81b 553f 6adc 203f
00000060: 0745 783e b269 6d3f 6712 983f 8090 763e
00000070: cecc ed3e c4d7 2b3f 25d0 cd3e f741 af3e
00000080: 0005 533f 99cd 913f 3a33 e53e 90fa fb3e
00000090: b182 db3e 99d3 eb3e 0278 cf3e fec6 653f
000000a0: b8b0 ae3f fc7c 5d3f df9c 763f 529b 143f
000000b0: 68d6 c43e 7d80 883e e633 523e 8f27 e03f
000000c0: 4d8c 733e 47c2 903f b1a9 103f 3b88 853e
000000d0: 73de 1f3f 2c9b 413f 6984 c73e d7c3 f43e
000000e0: fdb5 ff3e 03dc 513e f83f 473e ac23 963f
000000f0: 2358 4a3e eae3 7b3f 02c3 313e 70d5 a03f
00000100: 6caf 8a3f 007b 343f ef79 603e ee50 0f3f
00000110: 7b30 0b3f c6a1 933f 7ada 673e 026b 813f
00000120: 8d92 003f c21d 803e 4a6b 3c3f bbff 5a3f
00000130: 2738 2d3f b2c1 813f 4fc5 143f a7f4 183f
00000140: a6ea e43e 7522 633f 05a8 5b3e f118 883f
00000150: 999a 403e 2254 263f c73f 873e 6a30 fb3e
00000160: 9173 663f cf4d 3a3f 6c2c e33e f8ea a53f
00000170: 6d58 903e 6f88 273f f37f 773e e3a2 eb3e
00000180: 168b dd3e fc99 1d3f 4812 b93e 498c 193f
00000190: 94a3 813f d6da 353f 24dd 183f 18e8 163f
000001a0: 19d2 eb3e 672c 603e 5570 b13e 3b14 b93e
000001b0: d7f7 723f a2fc bc3f dc97 443e 9126 8c3f
000001c0: 5fa7 143f 61b6 9b3e e9d6 ca3e fcca e43e
000001d0: a617 4c3e db59 603f 23a1 4f3f 4011 4b3e
000001e0: 0e64 f13d 1482 943e 4fff 0a3f 02af b03e
000001f0: 3de6 353f ba68 cc3e 7681 283e 4b47 1b40

weight f4 [128, 128]
-0.062635496 0.0019578764 -0.0315678 0.09893181 -0.014112997 -0.1214203 -0.14451407 -0.047459215
0.061348118 -0.034239575 -0.0019498013 0.06945994 0.11125327 -0.035402272 -0.11922356 0.016328374
0.010834041 0.08313978 0.048416853 -0.032419022 0.10050785 0.0794865 0.08777043 0.01567541
-0.13711548 -0.17476515 0.10804214 0.08256536 -0.002783318 -0.051856883 -0.012671551 -0.16287111
0.06423173 0.011178969 -0.0363825 0.15464288 -0.11950704 0.14803062 0.00018704309 -0.11301144
-0.121547304 -0.14129275 0.13295762 -0.18821447 -0.025520202 0.15362066 -0.031417906 -0.08752663
0.14253719 -0.1503048 -0.08477175 -0.048038874 0.120370634 -0.0687405 -0.10189379 0.12849852
0.016125824 -0.16246344 0.066367224 -0.03945289 0.060301743 -0.06846273 0.018352862 0.094256066
-0.11052236 0.04947122 -0.10018635 0.09299985 -0.10154376 0.16395353 -0.046689965 -0.071563564
0.045798235 0.11028934 -0.14509226 0.002408895 0.008552496 -0.0021885212 -0.101398505 -0.050178662
-0.11117805 -0.08599466 -0.052312423 0.0838073 0.10854306 0.07665208 0.04180365 0.028230127
0.11232884 0.045137923 -6.164518e-05 -0.07160505 0.03339374 0.13037694 0.058956996 0.039919224
0.18841228 -0.12376195 0.022327129 0.024810128 -0.15157211 -0.044764183 -0.15338428 -0.006894428
0.010681501 -0.14250228 -0.052546598 -0.0806102 0.07765824 0.035106834 0.024115559 -0.13186048
0.06739788 0.07248271 -0.17893293 -0.056185115 0.13854006 0.08471125 0.15925556 0.045350183
-0.043331563 -0.029371252 -0.14372507 0.10969537 -0.07936797 -0.1391709 -0.06760445 0.083857454
-0.0983288 -0.09843279 -0.027489107 -0.15454781 0.04872675 0.10125503 0.11427859 -0.14339791
-0.17276675 -0.08526552 -0.025249848 -0.064979315 -0.020960921 0.04782836 -0.009699863 0.016490893
-0.09803597 -0.04303153 -0.10571006 -0.07503799 -0.12242366 -0.024077047 -0.062288407 0.11385684
-0.10560858 0.03183717 0.029028606 0.019348549 -0.095576696 0.1480841 -0.06567506 -0.041570496
0.016961977 0.14076884 0.10509152 -0.08402163 -0.11698332 -0.045276575 -0.13368967 0.109510005
0.11118134 -0.14933202 0.04964476 -0.055856578 0.02881861 0.06718085 -0.12747021 -0.11043565
0.021741 0.0044644307 0.083257005 0.04385482 -0.13530038 0.13832578 0.09406951 -0.09185581
0.08498543 0.046674717 -0.061918225 -0.05086389 -0.14321089 0.06115963 0.08208062 -0.13265347
0.09544161 -0.06343784 -0.0707932 -0.012399016 0.0021597892 0.14014567 -0.009627459 -0.008421555
-0.18960507 0.047554143 0.063201115 0.16633263 0.036373496 -0.04938788 0.1445654 0.098969854
-0.04284595 -0.06852071 0.044239007 0.03216551 -0.11226533 0.17109536 0.1459095 0.023122843
0.044745427 0.047928583 0.017828552 0.118690856 0.102242656 -0.07813915 -0.02449084 0.0035202682
0.07337593 0.1003037 -0.10615065 -0.14895965 -0.09012578 0.13329843 0.017276835 0.14312033
0.006031086 -0.15784551 0.019915277 0.018337442 -0.017475681 -0.09432914 0.054691937 -0.09862012
-0.09186476 -0.061047096 0.09242621 -0.09493996 0.07055786 -0.06743657 -0.114503875 0.017664786
0.13171676 -0.014944773 -0.07705311 0.0013072849 0.13852751 -0.07421874 0.012141228 -0.054687407
00000000: 0a47 80bd b74f 003b 3d4d 01bd c39c ca3d
00000010: 333a 67bc 35ab f8bd 7ffb 13be 9864 42bd
00000020: 2a48 7b3d cc3e 0cbd 7a90 ffba 0341 8e3d
00000030: c1d8 e33d f901 11bd 7b2b f4bd 15c3 853c
00000040: 4381 313c 3045 aa3d c050 463d cfc9 04bd
00000050: 0fd7 cd3d d1c9 a23d fcc0 b33d b869 803c
00000060: 0068 0cbe a3f5 32be 3345 dd3d 0718 a93d
00000070: 5468 36bb e267 54bd 569c 4fbc afc7 26be
00000080: ed8b 833d ff27 373c d105 15bd b45a 1e3e
00000090: 1bc0 f4bd 5795 173e ff20 4439 8b72 e7bd
000000a0: cbed f8bd 0caf 10be 0b26 083e 4bbb 40be
000000b0: be0f d1bc bc4e 1d3e 10b0 00bd 2941 b3bd
000000c0: 45f5 113e 80e9 19be d09c adbd 69c4 44bd
000000d0: e184 f63d d2c7 8cbd b1ad d0bd 1e95 033e
000000e0: 4e1a 843c d15c 26be 8aeb 873d 5b99 21bd
000000f0: f6fe 763d 3036 8cbd be58 963c 5309 c13d
00000100: 8c59 e2bd 55a2 4a3d 802e cdbd b576 be3d
00000110: 2df6 cfbd 6fe3 273e fa3d 3fbd eb8f 92bd
00000120: ee96 3b3d 61df e13d 1193 14be 8dde 1d3b
00000130: c51f 0c3c 4b6d 0fbb 05aa cfbd 2488 4dbd
00000140: 51b1 e3bd f81d b0bd 8d45 56bd 29a3 ab3d
00000150: d34b de3d c4fb 9c3d 4e3a 2b3d de42 e73c
00000160: aa0c e63d 8be2 383d 8147 81b8 aba5 92bd
00000170: e0c7 083d 8881 053e e47c 713d 5782 233d
00000180: 26ef 403e e876 fdbd 62e7 b63c 9c3e cb3c
00000190: b835 1bbe a65a 37bd c510 1dbe a7ea e1bb
000001a0: 7601 2f3c 1eec 11be 1a3b 57bd f616 a5bd
000001b0: 490b 9f3d 2fcc 0f3d fe8d c53c 6f06 07be
000001c0: e607 8a3d d171 943d 323a 37be 5d22 66bd
000001d0: 72dd 0d3e 187d ad3d e413 233e 1dc1 393d
000001e0: 707c 31bd fb9b f0bc aa2c 13be f7a7 e03d
000001f0: ad8b a2bd d182 0ebe 3474 8abd 75bd ab3d
00000200: 9c60 c9bd 2197 c9bd d630 e1bc c841 1ebe
00000210: b395 473d cc5e cf3d e50a ea3d e7d6 12be
00000220: c4e9 30be b09f aebd c5d8 cebc e013 85bd
00000230: 3db6 abbc ace7 433d 2dec 1ebc e917 873c
00000240: 15c7 c8bd d441 30bd 847e d8bd 85ad 99bd
00000250: 41b9 fabd 3a3d c5bc 2122 7fbd c62d e93d
00000260: 5049 d8bd b167 023d 66cd ed3c d980 9e3c
00000270: b7bd c3bd 5ca3 173e a580 86bd d345 2abd
00000280: d8f3 8a3c b525 103e 393a d73d 8813 acbd
00000290: f394 efbd ee73 39bd f2e5 08be c846 e03d
000002a0: 0bb3 e33d 7eea 18be 4e58 4b3d dec9 64bd
000002b0: 0115 ec3c 1d96 893d 8d87 02be 162c e2bd
000002c0: 2e1a b23c 5c4a 923b a682 aa3d 1da1 333d
000002d0: 2f8c 0abe 46a5 0d3e 84a7 c03d e61e bcbd
000002e0: d70c ae3d fd2d 3f3d f79d 7dbd a856 50bd
000002f0: e0a5 12be 8582 7a3d e219 a83d 50d6 07be
00000300: e476 c33d b3eb 81bd 06fc 90bd 3e25 4bbc
00000310: 408b 0d3b 5982 0f3e 7dbc 1dbc 90fa 09bc
00000320: d527 42be 22c8 423d 966f 813d 1a53 2a3e
00000330: 60fc 143d f24a 4abd f408 143e b5b0 ca3d
00000340: 3c7f 2fbd 9654 8cbd f633 353d fbbf 033d
00000350: 5eeb e5bd 9f33 2f3e 4d69 153e 1e6c bd3c
00000360: fb46 373d c350 443d 2f0d 923c 3114 f33d
00000370: 9964 d13d 6b07 a0bd 04a1 c8bc 4db4 663b
00000380: 1f46 963d 076c cd3d 8365 d9bd e188 18be
00000390: dd93 b8bd 627f 083e 2688 8d3c 238e 123e
000003a0: 6ba0 c53b 41a2 21be 5d25 a33c 6738 963c
000003b0: 2929 8fbc a32f c1bd a704 603d 58f9 c9bd
000003c0: 9723 bcbd 850c 7abd f449 bd3d e26f c2bd
000003d0: a480 903d 2f1c 8abd 0281 eabd beb5 903c
000003e0: c2e0 063e ecda 74bc 05ce 9dbd 3459 ab3a
000003f0: 28da 0d3e ffff 97bd 00ec 463c e7ff 5fbd
