wgan_results/multimodal/resnet/critic.pth (torch_old, 809641 bytes, 37 tensors)

bias f4 [128]
000000 45 43 3a c0 c0 a8 00 c0 41 44 8d 40 06 9f 57 40
       -2.9103558 -2.0102997 4.414582 3.369081
000010 e8 0a af bf e2 78 58 40 ff c1 02 c0 08 2c 9b bf
       -1.3675203 3.382378 -2.0430906 -1.2122812
000020 32 9a 07 c0 9a e9 88 40 69 45 c6 bf fa 8e 9d 40
       -2.1187863 4.278516 -1.5489932 4.923703
000030 b7 fb 04 c0 1a ec 89 40 5e 23 9b 40 4c e3 4c 40
       -2.0778635 4.310071 4.8480673 3.201373
000040 6d 16 82 40 3a bb 85 40 f2 bc 4e c0 a3 17 9c 40
       4.0652375 4.179105 -3.2302823 4.8778853
000050 62 d4 20 40 b1 ec 94 40 d6 5d 55 40 a4 c4 59 40
       2.5129628 4.653893 3.3338523 3.402627
000060 26 8f ca bf 87 2f 95 40 08 f4 45 c0 87 16 06 c0
       -1.5824935 4.6620517 -3.0930195 -2.095125
000070 98 de 4b 40 8e ff 10 c0 c4 35 97 40 06 c4 48 c0
       3.185461 -2.2655978 4.725313 -3.1369643
000080 91 96 36 be 93 d1 c7 bf c1 35 4b c0 b4 74 91 40
       -0.17830874 -1.5610832 -3.1751559 4.545496
000090 ea 99 34 40 8e 7b 90 bf 73 49 c0 bf 52 96 89 40
       2.8218942 -1.1287706 -1.5022415 4.2995996
0000a0 8e d5 db bf 93 ae 82 40 8a 3c ab bf 68 e9 95 40
       -1.7174547 4.0838103 -1.337785 4.684742
0000b0 5a 7c 48 40 82 1f 86 40 e9 0b 70 40 54 a3 7c 40
       3.1325898 4.191346 3.750727 3.9474688
0000c0 cd a9 97 40 83 97 81 bf f6 8d b4 bf a5 cb 01 c0
       4.7394776 -1.0124363 -1.4105823 -2.0280545
0000d0 94 22 55 40 44 12 5b 40 c3 46 50 40 48 48 ac bf
       3.3302355 3.4229898 3.254319 -1.3459558
0000e0 31 07 d5 bf e7 2d 28 40 60 2d 97 40 00 86 3c 40
       -1.664282 2.6278017 4.724289 2.9456787
0000f0 e3 d6 ce bf 3e 7c 81 c0 c8 43 85 c0 63 19 9b 40
       -1.6159328 -4.0464163 -4.164524 4.846849
000100 1b 76 16 c0 d6 87 fe bf 9b bb 9b bf 8d fb 94 3f
       -2.3509586 -1.9885204 -1.2166628 1.1639267
000110 0c 84 4d 40 8a b0 63 40 f2 45 41 40 1e 4f 39 c0
       3.2111845 3.55765 3.0198941 -2.895454
000120 8d 83 90 40 61 8c d1 bf 9d e7 96 40 fe a5 45 40
       4.5160584 -1.6370965 4.715773 3.0882564
000130 32 0e 93 40 d0 4a ce bf 82 23 91 40 71 1d 06 40
       4.595483 -1.6116581 4.5355844 2.095547
000140 64 40 a2 3f 3e 6a 39 3f 24 13 56 c0 9e a3 9f bf
       1.26759 0.7242774 -3.3449183 -1.2471807
000150 d5 3d bb bf eb e8 3c 40 30 e3 43 c0 08 e8 ae bf
       -1.4628245 2.9517162 -3.0607414 -1.366456
000160 30 fa 8b 40 cf 93 7e 40 f9 36 61 40 72 62 8c 40
       4.3742905 3.9777715 3.5189803 4.3870173
000170 ce cf c4 bf 83 28 56 c0 eb 53 39 bf b8 ab c8 bf
       -1.5375917 -3.3462226 -0.72393674 -1.5677404
000180 a9 e6 cb bf 07 cd 38 c0 dc aa cd bf ef 55 21 40
       -1.5929767 -2.8875139 -1.6067767 2.52087
000190 f8 95 c7 bf b1 31 cb bf 1e ae 5e 40 5a c5 66 40
       -1.5592642 -1.587454 3.4793773 3.6057954
0001a0 4d 3a 8e 40 a4 9e 88 40 15 eb 93 40 2b a6 4d 40
       4.444617 4.2693653 4.6224465 3.213267
0001b0 16 4d 91 40 17 41 93 40 42 e0 e3 be ab eb 7d 40
       4.54066 4.6016955 -0.44507033 3.967509
0001c0 2a b2 3e 40 9e 89 51 40 bd b1 7c bf 90 21 6f 40
       2.9796243 3.2740245 -0.9870871 3.7364235
0001d0 4a 7b c5 bf af 66 ab bd 05 2c 3e 40 d9 96 5c c0
       -1.542825 -0.08369195 2.9714367 -3.446707
0001e0 01 6f 2e c0 1d bb 8d 40 66 87 8a 40 9c 65 95 40
       -2.7255251 4.429091 4.329028 4.6686535
0001f0 3d 13 86 40 da 49 7d 40 1b 17 8f 40 93 a5 8b 40
       4.1898484 3.9576325 4.4715705 4.3639617

weight_orig f4 [128, 1]
000000 4b 35 98 3f 1e 31 d7 3f 56 da d2 be 82 be dc 3e
       1.1891264 1.6811864 -0.41182202 0.43114096
000010 08 05 b3 3f 60 03 59 3e aa bf da 3f 8e a9 7f 3f
       1.398591 0.21192694 1.7089741 0.99868095
000020 e2 3b e2 3f f1 17 0d bf df 00 e8 3f 3b 64 22 bf
       1.7674525 -0.55114657 1.8125266 -0.6343419
000030 66 e9 dc 3f a8 17 0e bf 49 d8 1f bf a3 7d 20 3d
       1.7258728 -0.55504847 -0.624394 0.039182317
000040 84 0c 06 bf 48 cd 09 bf 30 77 a9 3f 1d e2 20 bf
       -0.5236285 -0.5382886 1.3239498 -0.6284502
000050 13 15 a6 be 3c 5a 19 bf ce c8 e5 be f7 91 e0 be
       -0.32437953 -0.5990331 -0.44879764 -0.43861362
000060 64 d6 a7 3f b8 cb 19 bf e8 e4 a1 3f 53 73 00 40
       1.3112302 -0.60076475 1.2647982 2.0070388
000070 e2 7d db be f7 fc 6d 3f 66 6c 78 3e 76 c3 87 3f
       -0.42869478 0.9296412 0.242601 1.0606525
000080 29 4b 23 bb 69 7c a5 3f 55 42 a6 3f c2 ef 15 bf
       -0.0024916625 1.2928592 1.2988993 -0.58568966
000090 9c 25 ba be f5 33 6f 3f 8a 53 9f 3f 4f ca 0d bf
       -0.3635682 0.93438655 1.2447369 -0.55386823
0000a0 6a a8 dd 3b 10 a9 06 bf 76 c1 8d 3f 95 ef 1d bc
       0.0067644613 -0.5260172 1.1074665 -0.00963964
0000b0 7c f1 53 3e d3 c5 2f be 78 4c f7 be 71 29 02 bf
       0.20697588 -0.17165308 -0.4830053 -0.50844485
0000c0 2f 72 b2 bc 83 53 bb 3a b4 84 95 3f 5e f0 d7 3f
       -0.021782963 0.0014291856 1.1681123 1.6870229
0000d0 7e d2 db be 1a 94 be 3e be 6c d6 be f6 95 8e 3f
       -0.4293403 0.37222368 -0.4187984 1.1139514
0000e0 28 7f c0 3f 0b 77 f5 bc 30 c8 1b bf da 29 c2 be
       1.5038805 -0.02996399 -0.60852337 -0.37922555
0000f0 e3 3c ab 3f 95 d6 81 3f 47 cb 33 3f d6 d1 1f bf
       1.3377956 1.014361 0.7023205 -0.6242956
000100 bd b5 ca 3f 1e f2 ea 3f d5 1f 78 3b 7f 8e ac be
       1.5836712 1.8355138 0.003786077 -0.33702466
000110 90 bb d3 be 01 92 ea be a9 5b c7 be 6c b9 97 3f
       -0.41354036 -0.45814517 -0.3893712 1.1853461
000120 8a f3 14 bf c1 cc 8c 3f 28 7b 1b bf e0 cd cb be
       -0.5818411 1.0999986 -0.60734797 -0.39805508
000130 34 74 17 bf 88 1e ab 3f 8f bc 22 3f e6 af a5 be
       -0.59161687 1.3368692 0.6356897 -0.32360762
000140 68 fb bb be a4 10 97 be 20 a7 af 3f 1b 34 83 3f
       -0.36715245 -0.29504883 1.3722878 1.0250276
000150 6f 22 9b 3f b9 a2 b8 be 87 72 a0 3f 78 ac 90 3f
       1.2119883 -0.36061648 1.2534951 1.1302633
000160 74 43 10 bf b6 36 bc 3e 68 58 e8 be 9b 85 39 be
       -0.56352925 0.3676049 -0.4537995 -0.18117373
000170 e2 5b b5 3f f8 17 57 3f af 9e 40 3b f7 67 e5 3f
       1.4168665 0.8402095 0.0029391458 1.7922353
000180 e5 32 a9 3f 49 3b 97 3f 1c 80 aa 3f 68 a6 98 be
       1.3218657 1.1814967 1.3320346 -0.29814458
000190 63 33 a5 3f 5a 21 a8 3f dd 81 18 bd 73 c5 e2 bc
       1.2906307 1.3135178 -0.037233222 -0.027682042
0001a0 40 c7 9c 3e 12 5f b7 bd 0c 6e 18 bf 2d 84 dd be
       0.30620766 -0.0895368 -0.5954292 -0.43264905
0001b0 51 b7 15 bf b0 c9 17 bf cd f8 86 3f 8c 65 d2 3d
       -0.58482844 -0.59292126 1.0544678 0.10273275
0001c0 45 95 c4 be 1a 8a fa 3e 15 79 87 3f 9e f5 d2 3e
       -0.38395134 0.48933488 1.0583826 0.41203016
0001d0 7f 9b a3 3f 12 d4 1e ba f3 19 7a be 9d 27 b5 3f
       1.2781829 -0.00060588226 -0.24423961 1.4152714
0001e0 8b d8 8e 3f 7b 0c 12 bf bf c3 0e bf 72 07 1a bf
       1.1159834 -0.57050294 -0.55767435 -0.6016761
0001f0 b2 25 0a bf 24 8e 02 bf 85 6e 13 bf 5e eb 0f bf
       -0.5396377 -0.5099814 -0.57590514 -0.56218517

weight_u f4 [128]
000000 af a2 f0 3d ed 1a 2a 3e df ac 26 bd 82 7e 2e 3d
       0.117497794 0.16611834 -0.040692206 0.042601116
000010 00 83 0d 3e 7e 8b ab 3c b2 ea 2c 3e a8 18 ca 3d
       0.13819504 0.020940538 0.16886404 0.09867984
000020 6e d5 32 3e 49 10 5f bd f6 64 37 3e 14 5e 80 bd
       0.1746423 -0.05445889 0.17909607 -0.06267944
000030 69 a0 2e 3e 90 a4 60 bd 74 b5 7c bd de ba 7d 3b
       0.17053379 -0.05484444 -0.061696485 0.0038716118
000040 23 ed 53 bd 12 dc 59 bd 9b f5 05 3e b7 59 7e bd
       -0.051739823 -0.05318839 0.13081972 -0.062097277
000050 f5 48 03 bd d0 71 72 bd eb a3 35 bd c0 84 31 bd
       -0.032052 -0.05919057 -0.044345777 -0.04333949
000060 22 ac 04 3e 3a 25 73 bd dc f2 ff 3d 51 13 4b 3e
       0.12956288 -0.059361674 0.124974936 0.19831587
000070 0f 81 2d bd 0e 20 bc 3d c6 5f c4 3c 18 a3 d6 3d
       -0.042359408 0.091858014 0.02397145 0.104803264
000080 9f 14 81 b9 48 d0 02 3e bc 6c 03 3e 4c 0b 6d bd
       -0.0002462016 0.12774765 0.12834448 -0.0578721
000090 4b 25 13 bd e3 15 bd 3d 96 e3 fb 3d 47 2a 60 bd
       -0.035924237 0.0923269 0.12299268 -0.05472782
0000a0 68 37 2f 3a a2 e4 54 bd 4a 1c e0 3d d5 b0 79 ba
       0.00066839764 -0.051975854 0.10942896 -0.0009524946
0000b0 89 89 a7 3c f2 f1 8a bc 2b 7c 43 bd f6 c7 4d bd
       0.020451324 -0.016961072 -0.047725838 -0.050239526
0000c0 eb 0e 0d bb f1 13 14 39 0c 62 ec 3d 1b b2 2a 3e
       -0.0021523784 0.00014121809 0.115421385 0.16669504
0000d0 f1 c3 2d bd 17 a6 16 3d b2 7f 29 bd 3f 6c e1 3d
       -0.042423192 0.03677949 -0.041381545 0.110069744
0000e0 42 2a 18 3e 19 09 42 bb 19 49 76 bd 8e 7b 19 bd
       0.1485987 -0.0029607473 -0.060128305 -0.037471347
0000f0 3f 5c 07 3e f7 44 cd 3d b5 1f 8e 3d 41 ab 7c bd
       0.13218783 0.100229196 0.069396414 -0.061686758
000100 09 3d 20 3e 64 b8 39 3e 40 23 c4 39 1f 67 08 bd
       0.15648283 0.18136746 0.00037410296 -0.03330147
000110 e9 5e 27 bd 6a 6c 39 bd be 96 1d bd d9 de ef 3d
       -0.040861998 -0.045269407 -0.038473837 0.11712427
000120 8c 7c 6b bd 6b 99 de 3d 50 cf 75 bd 7b 1a 21 bd
       -0.057491824 0.10869106 -0.06001216 -0.039331894
000130 6a 71 6f bd 40 44 07 3e e6 a3 80 3d fb f8 02 bd
       -0.05845777 0.13209629 0.06281261 -0.031975728
000140 a9 98 14 bd 02 d4 ee bc ad d9 0a 3e 8c 6d cf 3d
       -0.0362784 -0.029153828 0.13559599 0.10128316
000150 0c 43 f5 3d 78 f3 11 bd 4e a9 fd 3d 48 b9 e4 3d
       0.11975679 -0.03563258 0.12385808 0.11168152
000160 42 13 64 bd 8a c7 14 3d 28 aa 37 bd d0 a6 92 bc
       -0.05568243 0.036323108 -0.044840008 -0.017901808
000170 61 5c 0f 3e 0c 07 aa 3d 2e 43 98 39 5e 57 35 3e
       0.14000084 0.08302125 0.00029041752 0.17709109
000180 9f bf 05 3e 6e 17 ef 3d 05 c7 06 3e 82 55 f1 bc
       0.13061379 0.11674391 0.13161857 -0.029459719
000190 8e 96 02 3e 64 e7 04 3e bd 1b 71 bb 2d 42 33 bb
       0.12752745 0.12978894 -0.0036790215 -0.0027352676
0001a0 57 dc f7 3c a0 f3 10 bc 68 fc 70 bd c3 1a 2f bd
       0.030256433 -0.008847147 -0.058834463 -0.04275013
0001b0 10 b2 6c bd 90 f8 6f bd b2 62 d5 3d 8e 50 26 3c
       -0.057787 -0.058586657 0.10419215 0.010151042
0001c0 31 65 1b bd fb 0b 46 3d 81 2d d6 3d 70 c2 26 3d
       -0.0379383 0.04835127 0.10457898 0.040712774
0001d0 20 54 01 3e 10 1a 7b b8 53 b3 c5 bc 10 33 0f 3e
       0.12629747 -5.9867336e-05 -0.02413336 0.13984323
0001e0 82 d5 e1 3d cd e5 66 bd a1 b4 61 bd a7 83 73 bd
       0.110270515 -0.0563715 -0.0551039 -0.059451725
0001f0 da 67 5a bd 2a 67 4e bd 86 15 69 bd ff 87 63 bd
       -0.053321697 -0.050391354 -0.056905292 -0.055549618

weight f4 [128, 1]
000000 c2 74 01 3f 30 97 31 3e f0 7b cb 3d 20 f3 ef 3e
       0.50568783 0.1734283 0.099357486 0.46865177
000010 5a ed 4f bf d0 d3 52 be 48 28 9f 3e a8 41 4f 3e
       -0.81221545 -0.20588613 0.3108542 0.2023989
000020 10 d8 90 bd e0 0b 1b 3f ac db 6a bf 90 7f 55 3f
       -0.07072461 0.60564995 -0.9174144 0.8339777
000030 b6 91 39 3f b4 24 2c 3f 60 d0 3e 3e 6e a0 28 bf
       0.7248796 0.67243505 0.18634176 -0.65869796
000040 fc 2b b0 3e 42 d1 11 bf 4e 44 7d bf 04 a2 db be
       0.34408557 -0.5695993 -0.9893235 -0.42897046
000050 fc ec 9e be 80 bb 02 3e 60 5f b6 be 7c ae 81 be
       -0.3104018 0.12766838 -0.3561964 -0.25328434
000060 64 6c e0 be d0 37 74 bf 00 4c de ba 00 ae 95 3b
       -0.43832695 -0.95397663 -0.0016959906 0.0045678616
000070 04 e9 93 be d8 2d f5 3e 60 ac 33 bd 00 d8 04 3e
       -0.28888714 0.47886539 -0.04386556 0.12973022
000080 20 c6 5f bf 70 24 b9 3d 9c 8e 56 3f be 28 26 bf
       -0.8741169 0.09040153 0.83811355 -0.6490592
000090 9e 7c 07 bf 1c 53 c9 be b2 ab 48 3f 4c c8 83 be
       -0.52924526 -0.3932122 0.78386986 -0.25738752
0000a0 08 b1 7f 3f 24 3d 7b bf a0 89 db 3d b6 d5 48 3f
       0.99879503 -0.9814017 0.10719609 0.78451097
0000b0 e0 4f 38 3f be 40 60 bf da e1 57 bf 84 2a c2 be
       0.7199688 -0.8759879 -0.84329 -0.37923062
0000c0 b0 98 23 bf 10 d7 00 3f 4c 74 98 be 24 15 0f 3f
       -0.6390486 0.5032816 -0.29776227 0.55891633
0000d0 5a c9 23 3f b0 92 8d bd 34 a3 91 3e 00 41 e0 bb
       0.63979113 -0.06912744 0.28444827 -0.006843686
0000e0 cc aa a9 3e 30 ee d5 3d 78 0c 11 bf bc 3b 5e bf
       0.3313812 0.10445821 -0.5665965 -0.868099
0000f0 7e c3 6e bf 30 2e fa be 80 89 31 be 6c 1b e9 be
       -0.9326705 -0.48863363 -0.17337608 -0.45528734
000100 64 6b 8f be ba ba 29 3f a0 a1 3a 3e 9c 18 74 3f
       -0.2801162 0.6630055 0.18225718 0.9535005
000110 ee 65 4d 3f 18 50 8e be d0 20 60 bf 60 aa af bd
       0.8023366 -0.27795482 -0.8755007 -0.08577418
000120 76 85 0f bf 26 45 29 3f da 21 10 bf 7c c3 4a bf
       -0.5606302 0.6612114 -0.56301653 -0.79204535
000130 d8 67 2d bf b4 1d ea be a8 a9 67 be 9a 22 65 3f
       -0.6773658 -0.45725787 -0.22623312 0.8950592
000140 e2 7a 30 3f c4 f1 cc 3e 8c 26 72 bf d0 81 fa bd
       0.68937504 0.40028203 -0.9459007 -0.12231791
000150 52 01 31 bf 40 b3 1c 3e e8 09 5e bf 70 3d 1c 3f
       -0.6914264 0.15302753 -0.86733866 0.61031246
000160 a0 aa 8d 3d f4 cd 52 bf 7c 56 25 3f 46 b2 04 bf
       0.0691731 -0.8234551 0.6458509 -0.51834524
000170 40 1a a9 3d ee 05 1c bf 24 fe ff be 18 ca 40 be
       0.0825696 -0.6094655 -0.4999858 -0.18827093
000180 b2 a2 03 bf c2 4f 58 3f 00 61 eb 3b 56 4b 26 3f
       -0.5142013 0.844967 0.007183194 0.64958704
000190 00 f8 b1 3a 50 01 99 bd ba 07 18 3f 40 9d 33 3f
       0.0013577938 -0.074709535 0.5938679 0.7016182
0001a0 c0 bf 24 bf e0 ea 4e bf 7c 9f 5f 3f 20 e8 c5 3e
       -0.6435509 -0.8082714 0.8735273 0.3865366
0001b0 d0 a2 2c 3f 54 45 7b 3f 84 5c d0 3e 0c 07 33 bf
       0.6743593 0.9815266 0.40695584 -0.6993263
0001c0 f0 ee ba be 0c 01 17 bf 98 3d 86 3e 10 c0 69 be
       -0.3651042 -0.5898597 0.26218867 -0.22827172
0001d0 a8 43 19 3e 16 3d 18 bf e0 55 41 bf 28 87 04 3f
       0.14967215 -0.5946821 -0.7552166 0.5176873
0001e0 f6 ea 3c 3f 00 26 80 bd 14 97 f3 3e 88 26 4d 3f
       0.7379602 -0.06257248 0.475762 0.8013692
0001f0 00 52 3e 3b 1c df 73 3f ba 02 1c 3f 7c 9b 13 3f
       0.0029040575 0.9526231 0.6094166 0.57659125

bias f4 [128]
000000 5b 06 43 40 a3 fb 43 40 91 bc 05 bf b5 b7 0d c0
       3.047263 3.0622337 -0.52240855 -2.2143376
000010 35 9f 3b 40 cd 2b c8 bf 9a f7 c2 bf fd 84 e0 bf
       2.9315922 -1.5638367 -1.5231812 -1.7540585
000020 2d 43 3c 40 37 a7 15 c0 e1 43 04 c0 0b 2e 5a 40
       2.9416 -2.338331 -2.066643 3.4090602
000030 87 2a 96 bf 18 f7 14 c0 d2 1f 3a 40 fc a0 12 c0
       -1.1731728 -2.3275814 2.9081922 -2.2910757
000040 8e c5 85 bf 66 1f f5 bf 33 f1 5f 40 4f c4 22 c0
       -1.0450914 -1.9150207 3.4990966 -2.5432317
000050 be cd 31 c0 81 33 64 40 85 dd f1 bf 42 63 4d 40
       -2.7781825 3.5656435 -1.8895727 3.2091832
000060 aa cb a2 bf 05 d4 4a 40 a3 e5 db bf b2 d8 34 40
       -1.2718403 3.1691906 -1.7179455 2.825726
000070 91 23 52 40 fc 75 39 40 62 9d bc bf a1 ff 36 40
       3.2834208 2.8978262 -1.473553 2.8593524
000080 b3 28 3f 40 85 ff 4a 40 79 55 60 40 8a 50 08 c0
       2.986859 3.1718457 3.5052168 -2.1299157
000090 f5 0c 3f 40 9c 75 0f c0 1a 90 0e c0 99 77 b6 bf
       2.9851658 -2.2415533 -2.2275453 -1.4255248
0000a0 8d 45 1c c0 35 50 6c 40 ea cd 36 40 d1 57 4d 40
       -2.441745 3.6923954 2.856318 3.208485
0000b0 fe 0b 5f 40 d4 5c a0 bf 41 aa a9 bf 89 f7 2d 40
       3.485107 -1.2528329 -1.3255082 2.7182333
0000c0 2d 7e 05 c0 21 06 46 40 ae 04 ab bf 61 5a c2 bf
       -2.0858262 3.094124 -1.3360803 -1.5183831
0000d0 60 48 3a 40 f3 e0 22 c0 cf 2a 43 40 fd 74 00 c0
       2.9106674 -2.5449798 3.0494878 -2.0071404
0000e0 90 53 51 40 d9 43 4a 40 e5 8a 43 40 7b 34 19 c0
       3.2707253 3.160391 3.0553524 -2.3938282
0000f0 bf ab e7 bf 1d 4a 30 40 a7 8a 0a c0 be c5 f4 bf
       -1.8099288 2.7545235 -2.1647127 -1.9122846
000100 3b 40 d2 bf c4 93 3c 40 9a 06 05 c0 63 df 0d c0
       -1.6425852 2.946519 -2.078528 -2.2167594
000110 e4 9b fe bf b1 90 5c 40 65 ac 0b c0 8a 3d bc bf
       -1.9891324 3.4463313 -2.1823971 -1.470628
000120 b4 fa 29 c0 88 28 18 c0 01 05 0c c0 d3 d7 dd bf
       -2.6559267 -2.3774738 -2.1878054 -1.7331489
000130 b8 16 4f 40 3d fc a1 bf 64 44 e8 bf 76 e3 52 40
       3.2357616 -1.2655102 -1.8145871 3.295133
000140 bb 38 11 c0 86 59 33 40 d2 99 51 40 cf 00 bd bf
       -2.2690876 2.802339 3.2750134 -1.4765872
000150 2b f9 1b 40 31 30 08 c0 3e 4d 52 40 bb bd 4f 40
       2.437083 -2.1279414 3.2859645 3.2459552
000160 0f 5b 2a 40 d7 70 31 40 5f 6a 4d 40 29 c4 d2 bf
       2.6618078 2.7725122 3.2096174 -1.6466113
000170 31 51 36 40 1b 04 e5 bf 0a 12 aa bf 7e a5 17 c0
       2.8487055 -1.7891878 -1.3286755 -2.3694758
000180 b6 bb 1d c0 bb 13 d3 bf 56 32 4e 40 49 e8 4e 40
       -2.464582 -1.6490396 3.2218223 3.2329276
000190 58 11 35 40 b6 3c 04 c0 64 ee 49 40 76 e0 12 c0
       2.8291836 -2.0662055 3.1551752 -2.29495
0001a0 74 11 51 40 29 a1 0e c0 6e 15 4e 40 70 da e5 bf
       3.2666903 -2.2285864 3.220058 -1.7957287
0001b0 a6 23 8f bf b0 64 e4 bf 9d 02 4a 40 5c b5 04 c0
       -1.1182754 -1.7843227 3.1564095 -2.0735693
0001c0 a9 a8 00 c0 8a 4f 19 c0 9f ff 42 40 22 8e 3e 40
       -2.0102942 -2.3954797 3.0468519 2.977425
0001d0 f7 6f 43 40 40 7c f4 bf d6 37 51 40 3e 07 54 40
       3.0537088 -1.9100418 3.269033 3.312942
0001e0 7b 52 24 c0 8b c6 35 40 e0 1c 00 c0 4a dd 55 40
       -2.5675342 2.840243 -2.0017624 3.3416314
0001f0 9d 12 c4 bf 49 bf 03 c0 b6 98 0f c0 71 1e 40 40
       -1.531818 -2.0585501 -2.2436957 3.001858

weight_orig f4 [128, 128]
000000 4f c4 ca bd b2 f0 63 bc 64 a0 f6 3d 3e 96 2e 3d
       -0.09900724 -0.013912367 0.12042311 0.04262375
000010 45 82 7c b9 3e d9 cb 3d 40 a4 32 bd 9f 27 4e bd
       -0.00024081122 0.09953545 -0.043613672 -0.050330754
000020 e0 9f 09 3d 04 b8 01 3d 88 17 b8 bc 82 48 a7 bd
       0.033599734 0.03166963 -0.022472158 -0.08168127
000030 dd e8 ba 3c c1 fc a8 bd 5b 94 eb bd 82 e7 85 3d
       0.022816116 -0.08251334 -0.11502906 0.06538297
000040 44 ca 64 3c bf 64 67 bd c1 86 b4 bc 7e 0a 6d bd
       0.0139642395 -0.056492563 -0.022036912 -0.057871334
000050 02 38 49 bc 87 ad 10 bd c8 73 5d 3d e6 1c 8d bd
       -0.01228142 -0.03532174 0.054065496 -0.068902776
000060 67 8c fc bb 71 4e 86 bd c6 97 59 bd 2c 73 d8 bd
       -0.007707167 -0.0655793 -0.053123258 -0.10568842
000070 dc e0 5b 39 14 52 59 bc 2a 30 eb 3d 8b eb 72 3c
       0.00020969234 -0.013264198 0.11483796 0.014826666
000080 11 b9 82 39 ae d0 8f bd 0a 44 40 bd 3b 2d 01 be
       0.00024933417 -0.07022224 -0.046939887 -0.1261491
000090 d2 a7 4f 3d 50 f1 25 3d 93 34 6b bc 57 14 dd bd
       0.050697155 0.040513337 -0.014355796 -0.10794895
0000a0 ee 9d d1 3c 19 73 5f bc 36 09 1e bb cb cb a4 3d
       0.025588002 -0.013638281 -0.0024114377 0.08046683
0000b0 cc 85 10 3a 35 14 7f 3d 02 6f 09 3d 28 b8 7d bd
       0.00055131014 0.06227513 0.03355313 -0.061943203
0000c0 a2 bd 0a 3d eb 39 9e 3c 9c 0c 99 bc 18 3b b6 bb
       0.033872254 0.019314727 -0.01868277 -0.0055612437
0000d0 54 13 13 3d 38 c0 01 3e fa 6d 63 bd 00 06 55 3d
       0.035907105 0.12670982 -0.055524804 0.052007675
0000e0 c8 ac 06 be 29 72 95 3c f0 db 5c bd 1a 39 4f bd
       -0.13151848 0.018242912 -0.053920686 -0.050591566
0000f0 ee 40 12 3d 2c ba da 3c aa 8d 8d bd f2 5d e0 bd
       0.035706453 0.026700102 -0.06911786 -0.10955419
000100 32 55 d6 bd 05 92 1c be 85 a3 47 3d d5 ce 45 bd
       -0.104654685 -0.15290077 0.04873993 -0.048292954
000110 c9 4e 82 bc 02 92 23 3c 13 58 23 bc 86 84 91 ba
       -0.015906708 0.009983541 -0.009969729 -0.0011102117
000120 03 99 c7 3d 24 b2 26 bd 1a 0a 76 3b ed 26 14 bd
       0.097459815 -0.040697232 0.0037542642 -0.036169935
000130 86 e2 4f 3d 52 e8 0d 3c 46 73 11 3d f4 90 14 bb
       0.05075314 0.0086613465 0.035510324 -0.0022669407
000140 d0 51 ff 3c f6 68 8b 3c 3c 7b 8c 3c 01 ed 94 3d
       0.03116694 0.017017823 0.017148606 0.072717674
000150 82 3d 77 3d f5 76 43 bc 75 1d aa 3c e3 39 81 3c
       0.060361393 -0.011930217 0.020766 0.015774673
000160 b2 71 e6 3c 90 4d 4a 3c b9 67 66 bc 18 13 ae 3d
       0.028130386 0.012347594 -0.014062815 0.084997356
000170 e9 73 11 bb b8 78 30 3c 79 c5 f8 3c c3 6a 04 3d
       -0.0022194332 0.010770969 0.0303676 0.03232838
000180 d2 83 6a bc 79 c3 90 bd 75 e5 77 bd 4c 29 64 bb
       -0.014313655 -0.070685335 -0.06052156 -0.0034814654
000190 20 4e b6 bc 32 85 04 bd bf 14 c8 3d 93 5c 90 bb
       -0.02225405 -0.032353587 0.09769582 -0.004405567
0001a0 71 95 cf 3d 0f e2 a5 3c 6d f8 c2 bd ef e7 bc bd
       0.101359256 0.020249395 -0.0952004 -0.09223925
0001b0 03 79 b1 bc 3a dd 8f bd 24 9e f6 3b bd d9 ce 3d
       -0.021664148 -0.070246175 0.007526176 0.10100124
0001c0 30 61 0e bc 7d 62 e2 3b 0d 63 23 bc 5a 8b fe 3d
       -0.0086901635 0.0069087134 -0.009972346 0.12428923
0001d0 2d 14 d0 bc 06 24 af ba ab 43 60 bb 5d a7 c3 bd
       -0.025400246 -0.0013362176 -0.003422002 -0.095534064
0001e0 59 12 3b bc f6 46 a5 bd a2 d4 2e 3c a2 92 ae 3c
       -0.011417949 -0.08070175 0.010670813 0.021310154
0001f0 6f 29 e0 bd 76 e7 89 bb df 8c de 3c c7 19 95 bd
       -0.10945403 -0.0042085005 0.027166782 -0.07280307
000200 44 4d 89 3c 53 38 c7 b9 a9 56 84 3d fb f4 51 3d
       0.016760476 -0.00037998203 0.064618416 0.051259022
000210 cd c5 7c bb 7d 02 c5 3d de 34 7c bd 70 0c b9 bd
       -0.0038570047 0.09619615 -0.061573856 -0.090355754
000220 84 94 4c 3d e0 0d 33 bb 3c 44 0e bd 76 8e bc 3d
       0.049946323 -0.0027321503 -0.034733042 0.0920686
000230 d9 82 8c bd 22 e0 08 3d 48 c2 c1 bd d7 ba 42 3d
       -0.06860895 0.033416875 -0.09460884 0.047541466
000240 e3 86 3b 3d b2 b4 ce 3d e5 87 96 3d a6 9b c8 bc
       0.045782935 0.10093059 0.073501386 -0.024488281
000250 24 08 87 3d 5b ce 26 3d f7 a7 23 be 40 f2 db 3c
       0.065933496 0.04072414 -0.15982042 0.026848912
000260 0c bd 2e 3d 1c 87 cb 3d 2b d1 88 bd 42 98 ed bc
       0.042660758 0.099378794 -0.066805206 -0.029003266
000270 bb 13 ae bd f9 78 40 3c d1 1e 40 3e 4d 39 28 3d
       -0.08499857 0.011747592 0.18761756 0.04107027
000280 0d a1 15 3c d9 47 f4 bc f8 d1 a5 bd 87 06 4d bd
       0.009132636 -0.029819416 -0.08096689 -0.050055053
000290 0b 1c 00 3d ba 1c b3 bc 8c 97 2d 3d 12 84 cc 3c
       0.031276744 -0.021864284 0.042380854 0.02496532
0002a0 27 0c 64 3b c8 db b2 bc 94 ab 8d 3d 66 6e ac 3d
       0.0034797282 -0.021833315 0.069174916 0.08419494
0002b0 ea 2d e2 3d 2f 17 e2 3c 40 50 44 bd c7 86 d5 bc
       0.11043914 0.027598945 -0.047928095 -0.026065243
0002c0 b0 2e d5 3d 7d 9c 67 3b cd b4 78 bc 1a fb 59 3d
       0.104092956 0.0035341077 -0.015179825 0.053217985
0002d0 be 49 a7 3a 55 d0 96 3c f2 72 79 bd 64 23 67 bd
       0.0012763066 0.018409887 -0.060900636 -0.056430236
0002e0 ac 64 b0 3c 80 68 d5 3d f0 39 2e 3c 30 62 33 bb
       0.02153238 0.104203224 0.010633931 -0.0027371757
0002f0 2c 16 1d bd bd d4 ea 3c 28 ec df ba 2d eb 93 bd
       -0.038351223 0.028665895 -0.001708393 -0.072225906
000300 00 9e 52 3d 44 be 0a 3c 9c 7a 26 3b a1 67 58 3c
       0.05142021 0.008468214 0.002540267 0.013208301
000310 3e 0a db 3b e6 01 86 3d d0 3e a6 3d 1d b9 c1 bd
       0.0066845706 0.06543331 0.08117449 -0.09459136
000320 ba d4 c0 bc 78 1d 72 bd 20 b4 35 bc ca 98 e1 3d
       -0.023538936 -0.059110135 -0.011090308 0.1101547
000330 87 fe 5a 3d 19 e8 15 bb 02 73 6c 3b 54 28 19 3e
       0.053465392 -0.0022873937 0.0036079292 0.1495679
000340 3a 1f 9f 3d 19 76 8f bd 77 b6 90 3d ab 1a 0a 3d
       0.07769628 -0.07004947 0.070660524 0.03371684
000350 90 39 f1 bc cc 3c 8f 3d b5 d8 6b 3d 7d d0 4f bc
       -0.029446393 0.06994018 0.057579715 -0.012683985
000360 55 5a 96 bd d5 e3 ce 3d 2a b9 dd bb 4c e7 57 3d
       -0.07341448 0.10102049 -0.006766458 0.052710816
000370 82 42 41 3d 94 b0 27 bc be d8 a6 3a fb fe b8 3d
       0.047182567 -0.010234971 0.0012729389 0.09033009
000380 66 ee a4 bd 08 c9 c8 bd 4c 39 f7 3c 9e 04 3c 3b
       -0.080532834 -0.09803969 0.030178688 0.0028689275
000390 1b 21 8e 3d d5 05 e4 3c 1d 8f 42 bd 6b 67 b4 3d
       0.06939908 0.027834812 -0.047499765 0.08808788
0003a0 cb 6a b0 3d bb 03 c3 3d 67 97 b8 bd 30 33 97 bc
       0.08614119 0.09522196 -0.09013253 -0.018457025
0003b0 77 ac 4b 3d 2b 67 8a bc 38 d6 0f 3c 06 c9 07 3d
       0.049725022 -0.016894897 0.008779101 0.033150695
0003c0 5f e6 27 3d 11 03 eb 3d 63 40 89 3d 2c b0 af 3d
       0.040991183 0.11475194 0.06701734 0.08578524
0003d0 2a 41 5b bd c6 4a ca 3b 81 8d 5d 3c f7 2a 94 bd
       -0.053528942 0.0061734645 0.013522507 -0.072347574
0003e0 0a 6c 3a bc 98 e6 45 bd 37 83 74 bc 01 5a 98 3d
       -0.011378298 -0.048315614 -0.014923862 0.07439042
0003f0 ac 50 28 3d 32 18 cb bc ef 71 d6 3c 26 55 9f 3d
       0.04109256 -0.02479181 0.026177375 0.07779913

weight_u f4 [128]
000000 1e f0 67 bc 35 55 45 bd d7 ba c7 3d 1a fd bf 3d
       -0.0141563695 -0.048176963 0.09752434 0.09374447
000010 d6 bc 8f 3b 3b df d4 3c b5 93 46 3d c0 be 8b 3d
       0.0043865247 0.02598535 0.04848071 0.06823492
000020 f6 96 47 bd 9e f9 62 3d 1d 5a d6 3c db 42 30 bd
       -0.048727952 0.055413835 0.026166016 -0.04303251
000030 d8 61 c2 3d f9 99 ea 3c cd ff 4b bc 4a f3 35 3e
       0.094913185 0.028637873 -0.012451124 0.17768589
000040 16 5f 0b 3d 4a 36 12 3e ec f9 6a bd f4 fb 83 3e
       0.034026228 0.14278522 -0.05736725 0.25778162
000050 01 f6 d8 3d 85 49 d6 bc 80 ca 25 3d 65 8f ad bd
       0.105937965 -0.026158104 0.040476322 -0.08474616
000060 66 ca fd 3d e1 d8 1d bd cc e5 41 bd 79 95 3b 3c
       0.1239212 -0.03853691 -0.047338292 0.011449211
000070 e8 fc 82 bd db f2 32 bd a5 b1 f8 39 51 42 93 bb
       -0.06395894 -0.043688636 0.00047434602 -0.0044939895
000080 e1 14 61 bd 2e bc b1 bd 77 87 19 bd b4 b5 79 3d
       -0.054951552 -0.086784706 -0.037482705 0.0609643
000090 ae 41 12 bd 75 4c 3f 3e a5 8e b6 3d b9 91 b6 3c
       -0.03570717 0.1868151 0.08913926 0.022286283
0000a0 61 93 33 3e c1 c6 41 bd f5 30 41 bd 82 91 3d bd
       0.1753669 -0.047308687 -0.04716583 -0.046281345
0000b0 ed 44 d1 bc 7f d6 f6 3d 50 69 c8 bc 64 b7 ba bb
       -0.025545562 0.12052631 -0.02446428 -0.0056981314
0000c0 c0 4a 89 3d 30 52 0e bd 8c dc aa 3d fc 5e 4c 3d
       0.067037106 -0.03474635 0.08342847 0.04989527
0000d0 9a e9 91 bc 04 2a 45 3e e2 e1 1f 3c 16 fd bb 3c
       -0.017811585 0.19254309 0.0097584445 0.02294783
0000e0 ea 49 2f bd ac 32 56 bd a8 a2 e0 bc 55 96 6e 3e
       -0.0427951 -0.05229442 -0.02742131 0.23299535
0000f0 ad 0a 4a 3d 44 d7 8d bb 65 32 df 3c bb 7e ed bc
       0.049326587 -0.00432864 0.02724571 -0.028991094
000100 5f 9b 0e 3d 3d 90 e8 bc b7 cc 4c 3d 1c d9 78 3d
       0.034816142 -0.02838909 0.04999992 0.060753927
000110 2c 58 9e 3d 2b fa 09 bd 2e bf 73 3e 43 9c 45 3d
       0.07731661 -0.033685844 0.23803398 0.048244726
000120 de 72 e7 3d 1f 4d 41 3e 40 61 68 3d 52 72 94 bc
       0.11301206 0.18877076 0.05673337 -0.018120918
000130 54 18 01 bc 3e c9 8d 3d 46 eb 82 3d 30 e2 b6 bd
       -0.007879335 0.069231495 0.06392531 -0.089298606
000140 b5 7c e6 3d 68 ed c7 bc dc 56 fb bc 93 72 45 3d
       0.11254255 -0.024405196 -0.030681066 0.04820497
000150 42 c1 23 bd 97 7f 40 3e 65 7f 3e bd 67 be f7 bd
       -0.039979227 0.18798672 -0.04650821 -0.12096863
000160 4c 1a 29 3c 0b 65 23 3c 84 d4 50 bd ae ef 40 3e
       0.010321211 0.009972821 -0.05098392 0.1884143
000170 be 30 4a bd bc 4e 93 3d d8 e2 ca 3d 2c d3 11 3d
       -0.04936289 0.07192752 0.09906548 0.03560178
000180 12 87 54 3e a4 18 73 3d 73 eb ec bc 5f 6b a3 bd
       0.2075465 0.05934967 -0.028920865 -0.07979464
000190 e9 73 62 3c fe af 34 3d d0 a8 bd bd 86 60 70 3d
       0.01382158 0.04411315 -0.09260714 0.058685802
0001a0 4e e2 00 bd 31 6e 83 3d 9f 93 3b bc 10 0d c9 3d
       -0.03146582 0.06417502 -0.01144877 0.098169446
0001b0 e3 8d 1a bb 53 26 3c bd e5 3d 91 bd f7 d9 0f 3d
       -0.0023583106 -0.045934986 -0.070918836 0.035119977
0001c0 d2 99 2c 3c d8 27 78 3e 47 83 1c 3c 92 0c bc bd
       0.0105347205 0.24233949 0.009552783 -0.09182085
0001d0 1e 23 46 bd e3 f3 3c bc 48 98 a5 bd 12 8f 12 bd
       -0.048373334 -0.0115327565 -0.08085686 -0.035780974
0001e0 ed fd 84 3e 04 8b 8b bc bb a6 4a 3e 9f d6 f3 bb
       0.2597498 -0.017034061 0.19790165 -0.0074413563
0001f0 db 52 d2 3c 04 53 3e 3c 2f dc 76 3d 94 e3 79 bd
       0.025674274 0.011616472 0.060268577 -0.06100805

weight_v f4 [128]
000000 e9 3a 2c 3e 18 14 e3 3d b6 9f 1b bd dd 9a 59 b7
       0.16819347 0.11087817 -0.03799411 -1.2970265e-05
000010 61 ad 8c 3d 83 0b 69 bc 01 a1 ca 3d 85 f7 73 3d
       0.06869007 -0.014223936 0.0989399 0.059562225
000020 e8 76 df 3d 22 02 b0 bd dc 0a f4 3d 88 f9 d0 bd
       0.109113514 -0.08594157 0.11916134 -0.10203844
000030 62 b2 e0 3d c9 31 be bd 7f d0 d0 bd 87 dc aa bc
       0.10971524 -0.092868395 -0.101960175 -0.020857109
000040 00 71 aa bd a0 8c ab bd c6 ba 37 3e 23 41 d3 bd
       -0.08322334 -0.083764315 0.17942342 -0.10315158
000050 38 47 5e bd 97 26 c9 bd 3b eb aa 3d 88 08 90 bd
       -0.05426714 -0.098218136 0.08345648 -0.07032877
000060 53 08 a4 3d 24 83 c6 bd 2b d0 32 3e f4 0c a4 3d
       0.080094 -0.09692982 0.17462222 0.08010283
000070 08 72 a4 3d 54 e1 04 3e 74 1f a9 bc 15 0c b7 3d
       0.08029562 0.12976581 -0.02064488 0.08937851
000080 ad c1 4d 3a 5f c0 a8 3d 14 13 3c 3e 10 9d ce bd
       0.00078489893 0.08239817 0.18366653 -0.10088551
000090 a3 f4 75 bd 58 4a 5c 3d d5 3d a1 3d 66 30 b9 bd
       -0.060047757 0.053781837 0.07873122 -0.090424344
0000a0 62 7e 26 b9 81 17 b2 bd d7 83 86 3d 87 07 fb bc
       -0.00015878075 -0.08695889 0.06568115 -0.030643238
0000b0 3a 8f b7 bc e7 12 03 bd 33 72 a1 bd 1a e1 a4 bd
       -0.022407163 -0.03200045 -0.0788311 -0.08050747
0000c0 df ed 16 bd 32 02 81 b9 1d 8d 9c 3d 3b 1c d6 3d
       -0.036847945 -0.00024606433 0.07644103 0.10454603
0000d0 ac 6f 92 bd 7c ec 0d bc 1d c6 90 bd 3c 12 91 3d
       -0.07150206 -0.008662339 -0.07069037 0.07083556
0000e0 63 4f 89 3d 30 b1 b6 bc 18 7c c2 bd 67 cc 7c bd
       0.06704595 -0.022301286 -0.09496325 -0.06171837
0000f0 96 16 9b 3d 5f 8f d7 3d 60 8c e6 3d c4 43 d0 bd
       0.07572667 0.10525393 0.11257243 -0.10169175
000100 67 01 9e 3d 52 95 a8 3d f0 4e e7 b8 fd 35 1c 3e
       0.07715111 0.082316056 -0.000110296416 0.1525497
000110 b2 5b 8d bd b2 ae 9a bd b9 87 84 bd ae b6 2e 3e
       -0.06902255 -0.07552852 -0.064711995 0.17061874
000120 73 3f b4 bd 32 6c 66 3d 52 0e d4 bd ca af 84 bd
       -0.088011645 0.056255527 -0.10354294 -0.064788416
000130 96 6a c6 bd 40 cc a3 3d 14 62 9b ba 5b 7f 8e 3d
       -0.096882984 0.07997942 -0.0011854791 0.06957885
000140 e9 e7 2d 3e 24 73 c6 3c e9 07 45 3e 7a 2f 84 3d
       0.16982998 0.024224825 0.19241299 0.06454368
000150 e8 87 9c 3d 97 bd 06 bd 3d 30 32 3e 95 9c 9c 3d
       0.076431096 -0.03289565 0.17401214 0.07647053
000160 de 1e a8 bd a7 91 5e bc 5a 4a a4 bd 48 68 0e bd
       -0.082090124 -0.013584531 -0.08021994 -0.03476742
000170 aa 30 6e 3d 22 8a b5 3d 69 91 a2 b9 69 0d eb 3d
       0.05815188 0.08864237 -0.00031007387 0.11477167
000180 50 90 b7 3d d4 f9 2a 3e ea 32 a0 3d 5b 34 d7 bc
       0.08963072 0.16696864 0.07822211 -0.026270082
000190 b2 28 b2 3d eb 5a a4 3d 69 67 a5 bc b9 aa d5 bc
       0.08699168 0.08025154 -0.020190911 -0.026082383
0001a0 d8 54 8c bc 02 8c eb bc 4a 9c bd bd c5 51 a5 3d
       -0.0171303 -0.028753284 -0.092583254 0.08072237
0001b0 9b 46 c1 bd a2 7b bb bd cb c2 20 3d 7b d0 ad bc
       -0.09437295 -0.091544405 0.03924827 -0.021217575
0001c0 d7 41 7d bd 45 69 50 bb d1 b5 84 3d db 34 cf bb
       -0.061830368 -0.0031801027 0.06479991 -0.0063234395
0001d0 f9 6f a9 3d 1a 4c 8c 3a b8 83 ed bc 05 78 4b 3e
       0.0827331 0.0010703832 -0.028993472 0.19870003
0001e0 7b 33 21 3e 53 33 bc bd 61 ff b9 bd 7e 37 c5 bd
       0.15742294 -0.09189477 -0.09081913 -0.09629725
0001f0 af 31 b8 bd d0 01 a5 bd 69 f4 bd bd ce 8a b3 bd
       -0.089938514 -0.08056986 -0.09275133 -0.08766709

weight f4 [128, 128]
000000 6a 25 70 3d e6 c3 05 3d 48 bc 85 3c 77 5d 98 3d
       0.05862943 0.032657526 0.016325131 0.07439702
000010 5a c0 44 3d a1 5a ab 3d aa 38 08 3d 3f 14 89 bd
       0.048035003 0.083668955 0.033257164 -0.06693315
000020 07 8b 94 3d 8e 04 79 3d a0 01 e2 3b 30 73 a0 3b
       0.0725308 0.06079536 0.0068971664 0.004896544
000030 80 42 cd ba 18 4c 2c 3c 26 c5 73 3d cf 81 1c bd
       -0.0015660077 0.010516189 0.059514187 -0.038209733
000040 1f c5 ae bd 68 35 3c bd 56 4e 02 bd f0 6c 82 bd
       -0.085336916 -0.04594937 -0.03181299 -0.063684344
000050 4b 41 4b bd 18 2d 7a bc a3 11 96 bd 51 c4 4d bd
       -0.049622815 -0.01526954 -0.07327583 -0.05023605
000060 40 81 6d bc 61 76 98 3d 86 77 a1 bd 3c 23 dd 3c
       -0.014496148 0.07444454 -0.078841254 0.02699434
000070 a3 c5 0f bd fb 69 45 bd 4f 50 16 bd 80 a1 15 3d
       -0.03510059 -0.048196774 -0.036697682 0.03653097
000080 02 0e 71 3d b8 10 91 3c 83 d3 9a 3d 68 1c 7b 3c
       0.05885125 0.017708167 0.07559874 0.015326597
000090 cb 64 7b bd 32 8f 5a 3d 0c 12 9d bd 52 19 4f bd
       -0.06137542 0.053359218 -0.07669458 -0.050561257
0000a0 79 27 a8 3d e6 de 25 bd b1 04 99 3d bf 8a b1 bd
       0.08210654 -0.040495776 0.07471598 -0.08669042
0000b0 11 53 85 bd 27 2f 01 bd 38 a5 c1 3c 94 7f 9d bd
       -0.06509984 -0.03153911 0.023638353 -0.07690349
0000c0 ee 47 16 3d dc ee cf 3c d5 f8 8b 3d 60 31 9e bc
       0.03668969 0.025382452 0.0683457 -0.019310653
0000d0 9a ff b3 bd 10 7e ba bb 8e 58 97 bd 6a ec 11 3d
       -0.087889865 -0.0056912974 -0.07389937 0.035625853
0000e0 64 c5 99 bc c7 f9 8c 3d b0 bc 01 bc 32 7c d4 bc
       -0.018770881 0.06883579 -0.007918522 -0.025938127
0000f0 ba 93 1d 3d 4e f1 40 3d f2 65 34 3d 60 fe ab 3c
       0.03847096 0.047105126 0.044042535 0.020995319
000100 12 f1 51 3d e5 55 54 bd b2 4d 6d bd f5 dd 5c bd
       0.051255293 -0.051839728 -0.057935424 -0.053922612
000110 8a 57 1d 3d 4e 02 03 bd 70 b9 ef bb a8 3e 20 3c
       0.038413562 -0.03198462 -0.007315807 0.009780563
000120 82 bc 65 3d 70 48 0d bc 30 8c ef 3c 70 d9 85 bb
       0.05608798 -0.0086232275 0.029241651 -0.0040847585
000130 af bb 85 bd 23 1f 50 bd 72 41 0e 3d 90 52 84 bb
       -0.065299384 -0.050810944 0.034730382 -0.0040381625
000140 6f 4e a6 3d bc 03 93 3c 2f 84 96 3d 36 c0 15 3d
       0.08120429 0.017946117 0.07349431 0.03656026
000150 a6 e7 14 3d a9 c8 b0 3d b3 41 58 bd b4 35 da 3c
       0.03635373 0.08632023 -0.05279703 0.026636936
000160 b0 e6 b9 bc 40 b7 f2 ba 70 f3 1f bd aa 45 59 3d
       -0.022693008 -0.0018517748 -0.03905052 0.053044952
000170 26 cf 5f bd 88 a3 4d bc c6 6a 48 bd ad 07 92 3d
       -0.05464091 -0.012551196 -0.048929952 0.0713037
000180 21 a7 ac 3d 00 ef 29 3b 82 27 7e 3d 97 c6 ab bd
       0.08430315 0.0025929809 0.062049396 -0.083874874
000190 00 e2 61 3a b2 a2 39 3d 95 62 99 3d f2 bd 3a 3d
       0.00086167455 0.045321174 0.07489506 0.045591302
0001a0 80 72 b1 bb 53 28 84 bd 82 5c ff bc d0 5e 10 bd
       -0.005415261 -0.06453004 -0.03117204 -0.03524667
0001b0 00 5a a9 3c be 14 5b 3d 62 ec 15 3d a0 22 fd bb
       0.020672798 0.05348658 0.036602385 -0.007725075
0001c0 3e d8 96 bd bc 0a 16 bd f1 0d 92 3d 7c 41 b0 3c
       -0.07365464 -0.03663133 0.07131565 0.0215156
0001d0 72 0d 6d 3d 49 85 91 bd 40 66 6c bc 4e a9 90 bd
       0.05787415 -0.071055 -0.014428675 -0.07063542
0001e0 aa e4 5c bd 72 3e 97 bd 1e 79 3f bd e1 08 a9 3d
       -0.05392901 -0.073849574 -0.046746366 0.08253647
0001f0 60 a1 d6 bc 15 58 92 3d e4 85 7e bd c8 07 ad 3c
       -0.026199996 0.071457066 -0.062139407 0.021121874
000200 20 20 45 3c d2 cd b2 bd 69 f4 08 bd d8 8d aa bd
       0.012031585 -0.08730663 -0.033436213 -0.08327836
000210 5c 7e f3 bc 6a fe 6f 3d a0 df b3 3c d4 70 ac 3c
       -0.029723339 0.058592238 0.021957219 0.021049894
000220 1e 7d 57 3d bc 5d 0b 3d 46 ee 64 3d fa 6e b2 bd
       0.052609555 0.03402494 0.055891298 -0.08712573
000230 ba ae 9c bd e8 bc 40 3c 4c 3a bc bc f8 87 69 3c
       -0.07650514 0.011763789 -0.022977017 0.014253609
000240 f0 cd f8 bb 90 c9 e8 3b 10 35 4b bd 12 b2 97 bd
       -0.007592909 0.0071041062 -0.04961115 -0.07407011
000250 60 28 ac bb 4a d8 7b 3d 40 5c 80 bd 36 79 ea bc
       -0.0052538365 0.061485566 -0.06267595 -0.028622251
000260 83 7b a9 3d 07 78 ab 3d f0 38 d2 bb 10 93 f2 bb
       0.08275511 0.08372503 -0.006415479 -0.007402785
000270 34 07 a7 bc 20 65 2a bb 7f 16 8c 3d 3c b0 d9 bc
       -0.020389177 -0.0026000217 0.06840228 -0.026573293
000280 40 5e ab 3a 34 7b a0 bd 75 f8 ab 3d 2c 05 eb bc
       0.0013074353 -0.07835999 0.08396999 -0.02868899
000290 42 de 30 3d 04 d5 af bd 04 c3 82 bc 42 a0 ff bc
       0.04318071 -0.085855514 -0.015962131 -0.031204347
0002a0 f0 97 2a bc 10 54 95 bd c1 7c a9 3d a2 25 35 3d
       -0.010412201 -0.07291424 0.08275748 0.044225343
0002b0 ba 38 46 3d 5c 9a dd 3c 00 e0 6d 39 45 b5 91 bd
       0.048393942 0.027051143 0.00022685528 -0.071146525
0002c0 58 49 4b 3c fa 6a 47 3d 62 11 46 3d be 26 44 3d
       0.012407623 0.048686005 0.04835642 0.04788851
0002d0 a0 66 e1 bb de 67 3c 3d e5 1e 54 bd 2c fa e6 3c
       -0.006878689 0.045997493 -0.051787276 0.028195463
0002e0 5e 48 44 bd 9b 8f a9 bd 60 48 57 bd 2a 37 8a bd
       -0.047920577 -0.08279344 -0.052559257 -0.06748803
0002f0 71 1a b3 3d 96 40 64 bd e4 0d c4 bc 20 3a 42 bb
       0.08745278 -0.055725656 -0.023932405 -0.0029636696
000300 0c f3 8e bc da fa 30 3d d8 f5 83 bd 89 e8 a3 3d
       -0.017449878 0.04320798 -0.06443375 0.08003337
000310 80 d4 70 bc 0e 9a 37 3d 3e 93 2c 3d e8 63 14 3c
       -0.014699101 0.044824652 0.04213261 0.009057023
000320 66 6f 7a 3d f3 55 9f 3d ce 5b 28 3d 14 13 dc 3c
       0.061141394 0.077800654 0.041103177 0.026864566
000330 e3 79 a7 3d 59 a6 83 3d 6c 6e b0 bc c8 fc 07 3d
       0.08177545 0.06428213 -0.021537028 0.033200055
000340 52 20 32 3d 40 44 f1 bb d4 b4 97 3c 56 7a 1e 3d
       0.043487854 -0.0073628724 0.018518843 0.038690887
000350 ab 8d 54 bd 04 23 00 bd 73 1b 81 3d 66 98 10 bd
       -0.051892918 -0.031283394 0.06304064 -0.03530159
000360 42 4f 0e 3d ca bb 61 3d 99 49 a6 3d 75 4e ae 3d
       0.034743555 0.05511073 0.081195064 0.08511058
000370 78 09 a2 bc b2 6b 8f bd 72 81 3c 3d f8 62 6f 3c
       -0.019779906 -0.07002963 0.046021886 0.014610998
000380 d2 6f 4a bd f0 19 76 bc 76 1d 26 3d fc 8b b5 3c
       -0.049423046 -0.015020832 0.04055544 0.022161476
000390 58 50 83 bd a0 55 af bb 6a 65 48 3d c3 dc 4a bd
       -0.06411809 -0.0053507835 0.04892484 -0.04952694
0003a0 68 2d 88 bd 96 95 73 3d 48 7e 0a 3c 21 d3 52 bd
       -0.066492856 0.05946883 0.008452959 -0.05147088
0003b0 df fb 90 3d 4b cb a8 3d 4c 36 ca 3c a5 e1 82 3d
       0.070792906 0.082419 0.024684094 0.063906945
0003c0 dc ad 8b bc 7e 49 7e 3d fc a5 a7 bc 43 f1 b3 3d
       -0.017050676 0.062081806 -0.02046489 0.087862514
0003d0 74 ea c9 3c 60 65 d0 bc 10 1e 80 bd 1e d0 e6 bc
       0.024647929 -0.025438964 -0.06255734 -0.02817541
0003e0 78 fd 7a bc 6e 07 5d 3d 00 4b bd b9 2d c3 b1 bd
       -0.015319221 0.053962164 -0.00036104769 -0.08679805
0003f0 28 13 21 3c 13 37 81 bd 68 d6 aa bd 83 22 a4 bd
       0.009831227 -0.06309333 -0.08341676 -0.08014395

bias f4 [128]
000000 bc c9 23 c0 4f cf 21 c0 b3 08 36 40 e4 13 25 40
       -2.559188 -2.528278 2.844281 2.579339
000010 2c 33 df bf ab b9 2e 40 bf 77 21 c0 46 9b 27 c0
       -1.7437491 2.7300823 -2.5229337 -2.6188521
000020 36 ce 12 c0 49 69 63 40 95 9f 02 c0 c3 8d 5b 40
       -2.293836 3.553301 -2.04099 3.4305274
000030 86 d0 13 c0 34 f5 52 40 cd 73 60 40 12 55 61 40
       -2.3096023 3.296216 3.507068 3.5208173
000040 36 d8 4d 40 ab 88 52 40 cc 5d 27 c0 af e7 5d 40
       3.2163215 3.2895916 -2.6151 3.4672658
000050 32 66 86 3f a7 fd 51 40 30 e9 10 40 95 af 16 40
       1.0499938 3.2811067 2.2642326 2.3544667
000060 e5 ae 13 c0 4a d2 3d 40 e4 c8 13 c0 b7 17 f7 bf
       -2.3075497 2.96596 -2.3091364 -1.9304112
000070 ed c3 25 40 5a a8 19 c0 5b 21 53 40 6d a0 0e c0
       2.5900834 -2.4009004 3.2989109 -2.2285416
000080 00 04 09 bf fb bb 16 c0 c1 70 23 c0 e3 57 41 40
       -0.5352173 -2.3552234 -2.553757 3.0209892
000090 46 e7 48 40 d5 5b 03 c0 4e 05 22 c0 8b 25 5c 40
       3.1391158 -2.05248 -2.5315738 3.4397914
0000a0 96 51 34 c0 aa 6f 5b 40 c7 1c 18 c0 72 74 54 40
       -2.8174796 3.4286904 -2.3767564 3.3196073
0000b0 81 6b 23 40 86 6f 65 40 94 c0 77 40 5c 80 51 40
       2.5534365 3.5849319 3.871129 3.2734594
0000c0 f6 b5 50 40 d1 45 43 c0 24 79 20 c0 88 49 fc bf
       3.261106 -3.0511363 -2.5073938 -1.970994
0000d0 34 85 16 40 b3 98 15 40 2e 61 57 40 ab 8d 1d c0
       2.35188 2.337445 3.3653064 -2.4617717
0000e0 fb 4b 15 c0 07 ad 39 40 df c5 56 40 3f 0c 3e 40
       -2.3327625 2.9011858 3.355827 2.9694974
0000f0 71 e4 14 c0 aa 0d 3b c0 33 6a 35 c0 43 fe 62 40
       -2.326443 -2.922709 -2.834607 3.546769
000100 c4 e5 04 c0 b7 25 09 c0 db ce 13 c0 85 3b 35 3f
       -2.0765238 -2.142927 -2.3095005 0.70793945
000110 07 31 63 40 c1 c8 57 40 b8 5d 0b 40 ea 01 44 c0
       3.5498674 3.371628 2.1775951 -3.0626168
000120 13 0e 45 40 bd 38 11 c0 94 77 60 40 bb 87 4d 3e
       3.078984 -2.269088 3.5072985 0.20071308
000130 83 2f 61 40 73 c0 0b c0 53 1f 51 40 00 58 ac 3f
       3.518525 -2.1836212 3.2675369 1.3464355
000140 a1 99 92 3f 20 a4 8e 3f 93 ef f0 bf f0 f4 2c c0
       1.1453134 1.1143837 -1.8823112 -2.7024498
000150 ad 30 12 c0 1c c8 5b 40 0f 7d 2f c0 d0 15 e7 bf
       -2.284221 3.4340887 -2.742008 -1.8053532
000160 4e c6 54 40 ad ac 31 40 b2 bf 20 40 98 b6 5a 40
       3.3246036 2.7761643 2.5117002 3.4173946
000170 c1 bf 02 c0 de 0a 38 c0 1a cb d5 bf 1e d8 ee bf
       -2.0429537 -2.8756633 -1.6702607 -1.8659704
000180 f5 73 10 c0 a3 69 2c c0 4c db 25 c0 10 cf 3d 40
       -2.2570775 -2.6939476 -2.5915098 2.965763
000190 17 9e 1f c0 fe c4 01 c0 32 0e a2 3f 5d 9c 41 40
       -2.494024 -2.0276484 1.2660582 3.0251687
0001a0 e3 c9 56 40 54 cf 5b 40 ca 7f 59 40 16 da 2e 40
       3.3560722 3.4345293 3.3984246 2.732061
0001b0 62 41 50 40 3d b3 32 40 91 4e 14 c0 34 91 2c 40
       3.2539907 2.7921898 -2.3172953 2.6963625
0001c0 38 6e 22 40 a1 1d 1f 40 4b 97 03 c0 66 1f 35 40
       2.5379772 2.4861834 -2.0561092 2.8300414
0001d0 78 7a f6 bf 87 47 45 40 15 f4 55 3f c3 7c 22 c0
       -1.9256124 3.0824907 0.83575565 -2.5388649
0001e0 55 32 29 c0 74 15 66 40 ee 1d 59 40 9d af 3b 40
       -2.643697 3.5950594 3.3924518 2.9325936
0001f0 8c ea 58 40 40 d1 18 40 77 1a 60 40 61 c4 66 40
       3.3893156 2.3877716 3.5016153 3.605736

weight_orig f4 [128, 128]
000000 6f c8 6f 3d f8 a3 ec bc 04 67 33 3e 7d 21 79 3d
       0.058540758 -0.02888678 0.17519766 0.060822953
000010 26 de fc bc 5d 45 fa bc dd 31 c4 3d e6 bb 08 3e
       -0.030867647 -0.030550653 0.09579823 0.13352928
000020 f4 95 d6 3c e6 67 aa 3d 6d a1 80 bd 24 63 cb 3d
       0.02619455 0.08320598 -0.062807895 0.09931019
000030 8f ad e2 3c 8f 40 20 bd 53 a5 00 be 7b 0c cb 3d
       0.02767065 -0.039124068 -0.12563066 0.0991449
000040 a7 87 57 bc 6a ad c5 3c 9a 46 a2 bc 81 7b a9 3c
       -0.013154901 0.024130542 -0.019809056 0.020688774
000050 52 f2 0b bd a3 f1 02 bd e0 c3 b7 bd d5 05 0d 3c
       -0.03416664 -0.031968724 -0.08972907 0.0086073475
000060 53 a5 0d 3e 46 e4 3f 3d 85 cd 35 bc 83 0f bf bc
       0.13832597 0.046848558 -0.011096363 -0.023322826
000070 7c eb 56 3c 5c e4 75 3d d5 e2 96 bb 7d e5 8b bc
       0.013117667 0.060032234 -0.004604677 -0.017077202
000080 53 4d d6 3c 59 84 a9 3d 43 0a cc 3d 32 41 08 3d
       0.026159918 0.082771964 0.09962895 0.0332653
000090 8d d2 3e bc 6d ee a9 3d ee 65 58 3d ae e1 8e 3d
       -0.011646879 0.08297429 0.052831583 0.06976639
0000a0 28 2e 23 bb cd 34 8d 3c f7 59 09 bc 62 47 5b 3d
       -0.0024899337 0.017237091 -0.008383266 0.053534873
0000b0 ef 97 0e 3d a9 53 20 3e 18 bd ac bc 68 c3 a4 bc
       0.034812864 0.15656914 -0.02108626 -0.020112708
0000c0 1a 82 6c bb 33 d1 7e 3d 63 6e e0 3d ad 28 50 3c
       -0.0036088289 0.062211227 0.109585546 0.01270501
0000d0 aa 41 95 3d a6 88 ad 3d 74 39 d2 bb 57 8e 1c 3c
       0.07287915 0.08473329 -0.0064155404 0.009555421
0000e0 b4 f3 1e 3e 9e b5 c2 3c 44 78 c5 bd 6b 3f b5 3c
       0.15522653 0.023768242 -0.096420795 0.022124967
0000f0 51 a3 1e bd 1c 93 04 bd a2 28 0b bd 2a 9c 18 bc
       -0.03872997 -0.032366857 -0.033974297 -0.009314576
000100 6a 1f 2a bd d5 45 97 bd b1 8c 1a bc a3 ea 1c 3c
       -0.041533865 -0.07386366 -0.0094329575 0.009577426
000110 ef 47 9e 3c 57 c6 d4 3d 48 54 c5 3d 78 0f 85 3d
       0.01932141 0.10389393 0.09635216 0.06497091
000120 73 9c 54 3d c4 7d 3c 3d 8a 46 59 3d c8 ca 98 3c
       0.051907014 0.046018377 0.053045787 0.018651381
000130 03 68 90 3d 63 b9 18 bc 9d 84 99 3b ff 6c 3e 3d
       0.07051089 -0.009321543 0.004684998 0.046490666
000140 ea 11 01 3e 3d a0 05 3d 32 ae 0a 3c 8c a5 8e bc
       0.1260449 0.03262352 0.008464383 -0.017412923
000150 c6 a1 fe 3b fe 79 d1 bb ef de 7f bc 4e 7e a4 3d
       0.0077707497 -0.0063927164 -0.015617116 0.08031903
000160 94 52 c9 bc 99 9e 30 bd 47 09 bb 3d 03 da 32 3d
       -0.02457551 -0.04312 0.09132629 0.043664943
000170 99 f2 33 bc ff d4 29 bd 4f 39 d8 3d e5 f9 06 bb
       -0.010983133 -0.041462895 0.10557806 -0.0020595726
000180 f6 3e b5 3d 7f 6d 87 3b 95 53 8c bd 43 05 c7 3d
       0.088498995 0.004132926 -0.068518795 0.097178005
000190 22 19 2a bd 6d e4 78 bc 39 6d 12 3d 88 c4 8c 3d
       -0.041527875 -0.01519118 0.035748694 0.06873423
0001a0 e6 00 b6 bb 4c ed a8 3c 74 1f c3 3d aa 09 26 3e
       -0.0055543063 0.020620964 0.095274836 0.16214624
0001b0 46 a3 93 bc d2 ac 37 bd 8b 31 09 3e b9 29 ab 3c
       -0.01802219 -0.04484255 0.13397805 0.020893918
0001c0 ce 28 1b 3d 93 95 64 3d b0 ab 7d bd d9 00 d0 3d
       0.03788071 0.055806708 -0.061931312 0.10156412
0001d0 2b c6 7c 3d f3 92 af 3d 76 de 28 3c d8 85 dd bc
       0.061712425 0.0857295 0.010306945 -0.02704136
0001e0 bd 80 85 3d ea 8b e6 bc e1 ed 10 3c 42 82 d5 bc
       0.065186955 -0.028142888 0.008845777 -0.026063088
0001f0 ad e9 01 3d 4d 77 40 bd 22 e4 d0 bc 26 ff 59 bd
       0.03171699 -0.046988774 -0.025499407 -0.053221844
000200 01 54 07 3a 04 d3 cf 3d 39 37 f0 ba 2e 43 68 3d
       0.0005162359 0.1014767 -0.0018327005 0.056704693
000210 a1 3f be bd 1e fe 6a 3e 23 5f 5c bd 3d d7 96 3b
       -0.0928948 0.229485 -0.053801667 0.004603295
000220 d0 f2 37 bc 4d a6 56 bd d8 35 0e 3b 44 5d 8d bd
       -0.011227325 -0.05240469 0.0021699574 -0.06902555
000230 dd 88 05 bd 50 69 90 bc 9c 20 57 3e 8d ac 0c 3d
       -0.032601226 -0.017628342 0.21008533 0.034344245
000240 ed e7 ca 3c e9 be f2 3d f3 7b e7 bd d1 39 e8 bc
       0.024768794 0.118528195 -0.11302938 -0.028347882
000250 37 bc 9b 3c 3e 3d e2 bc 07 69 b0 bd ff 0c ad bd
       0.019010646 -0.027617093 -0.086137824 -0.084497444
000260 3f c6 cf 3d 9a 8a ee bc af 3d 02 3d 07 95 c3 3d
       0.10145234 -0.029118825 0.031797107 0.09549909
000270 65 76 8e 3b 55 45 aa 3d 3f 67 4d 3e 8a 17 13 3d
       0.00434761 0.08314005 0.20058917 0.03591112
000280 ff 15 d1 bd 3c da 36 3c 22 fc 31 3b 97 d0 f5 bc
       -0.102092735 0.01116043 0.002715834 -0.03000669
000290 9f 94 4c 3a af e6 19 bd 88 65 1f bd b6 cf b6 3d
       0.00078041287 -0.037573513 -0.038915187 0.089263365
0002a0 0f 83 2e 3c f1 6e 7a bd bf d6 8c 3d 6f 06 90 3d
       0.010651364 -0.06114096 0.06876897 0.07032477
0002b0 23 13 e8 bc 02 73 9e bd e9 0e 29 3d af 4c 81 3d
       -0.028329438 -0.0773678 0.041273985 0.06313454
0002c0 51 ca 29 3d 0b d8 44 3d b3 11 42 3d ea f6 26 bd
       0.04145271 0.048057597 0.04738016 -0.04076282
0002d0 00 af 99 3c 96 d9 ec 3c dd b5 82 3d bc bd be bd
       0.018760204 0.028912347 0.06382344 -0.09313533
0002e0 0e 52 72 3c a0 b9 0f 3e f8 f3 c0 bc 60 80 4f 3d
       0.014790071 0.14035654 -0.023553833 0.050659537
0002f0 a2 a2 27 bd af 22 a1 3d cf db f1 3d 77 60 5f 3c
       -0.040926583 0.078679435 0.11809503 0.013633839
000300 3c a9 b3 3c 6a e9 40 3d b5 2d 38 bd 30 61 36 3c
       0.021931283 0.0470976 -0.044965465 0.01113157
000310 33 a1 77 3d fd ce 2d bc 1d 0a 1b 3b 21 6f 91 3d
       0.060456466 -0.010608432 0.002365715 0.07101274
000320 5e 2e ad 3d 4c 1b 16 3c f7 52 2b 3c 8e e1 ad 3d
       0.084561095 0.0091617815 0.010456792 0.08490287
000330 ce 74 8f 3c 6e e6 b0 bc de 2b 2d bb c1 a5 8c bd
       0.017511752 -0.021594252 -0.0026423852 -0.068675525
000340 3c 51 60 3d ce 5b 93 3b dd de 0b 3d e4 a3 08 bd
       0.05476497 0.004497028 0.034148086 -0.033359423
000350 38 0c d5 3d 73 40 8d bc 4a a0 25 3e 46 dc 95 3c
       0.10402721 -0.017242646 0.16174427 0.018293511
000360 b1 3e 19 3e 8d f3 0f bc c1 a3 09 3c d0 52 42 3d
       0.14965321 -0.008786094 0.008400858 0.047442257
000370 d5 58 92 3d 0d 7e 99 3c af eb c6 3d a1 8d c0 3b
       0.071458496 0.018736864 0.09712922 0.0058762585
000380 67 06 24 bd b8 c7 8a 3c 8d bd fe bc 07 ca 06 3d
       -0.04004517 0.016940936 -0.031096244 0.032907512
000390 6a 61 3d 3d 9c 6d 6d 3b 09 5e e5 bc f0 8f 6c 3d
       0.04623548 0.0036228662 -0.027998941 0.057754457
0003a0 61 cf a2 bc 10 a2 f7 3c a0 2d 91 bc f3 bc fb bb
       -0.019874277 0.030228645 -0.017721951 -0.0076824366
0003b0 44 f2 e8 3d cb 8c a6 3d 40 36 fc 3c fc db a4 bd
       0.113743335 0.08132323 0.030787587 -0.08049771
0003c0 54 dd af bb 10 5e 3e bc c0 68 fc 3d 9a a9 30 3d
       -0.0053669605 -0.011619106 0.12324667 0.043130495
0003d0 5a d6 e4 3d c5 c6 80 bd 6d 65 17 bd d8 01 04 3d
       0.11173697 -0.06287912 -0.03696196 0.03222832
0003e0 b8 ec 68 3d d7 25 dd 3d 4f 23 f7 bc 9c 59 5f bc
       0.056866378 0.10798233 -0.030168204 -0.013632204
0003f0 9c 20 03 be b4 3c db 3c 9b 45 70 bc 05 0e e9 3d
       -0.12805408 0.026762344 -0.014665033 0.11379627
