wgan_results/unimodal/all/critic.pth (torch_old, 531977 bytes, 7 tensors)

weight f4 [256, 1]
00000000: 5769 f03a c469 d73a c74a 01bc 9a9a 95ba
00000010: e23f 003b 5f26 8fba 15b1 803e c115 883a
00000020: b949 cfba 9480 343e b769 6abe 1ba7 7b3b
00000030: c3d4 c63a 8657 c7ba 522e c83a 3bdd ca3a
00000040: 4b95 15b9 92e2 f93a 068c 49be e676 02bb
00000050: f005 77be 7c4b a2ba 04c3 6dbe 6599 10be
00000060: 57f0 8839 e21a 9dba c0e0 64be 6770 81ba
00000070: eb3a fbba 5a20 6c3a 9601 9b3a 4b0d 173e
00000080: e15c 033b 28c4 1fbb c6f0 0f3b 1f06 f63a
00000090: fe6e 7a3a d5d3 143e b9f0 8dba d1d6 783e
000000a0: d85f 413a c6af c73a e512 453e b4ae b93a
000000b0: 5ff6 8fba 3f35 b03a 2ff4 8aba 7436 baba
000000c0: b9c5 5c3a 87ca c23a 9272 033b 5631 903a
000000d0: 12e1 daba 1410 b8ba 9990 bc3a 7638 b5ba
000000e0: 0c11 6abe cee2 95ba b12f a93a 4057 0f3b
000000f0: b3a5 23bb 552f 143b 658b 063b 188e f8ba
00000100: cde3 583e 8932 2c3e 51c9 c33a 1366 24be
00000110: ea9e 22be 45cd ef3a 8a1f 083b 418d 1abb
00000120: 1152 9e39 1785 663e 3812 e23a 3f09 ccba
00000130: aaf1 803e ce16 73be f287 aeba b358 023b
00000140: fb5a 84ba 0910 d03a 59d1 0a3b 51da 5b3e
00000150: dfb7 74be c53b e8ba 485e 8f3a 9ae7 f7ba
00000160: ef23 7d3e 42f2 e0ba 6bbe 803e 0d4f cf3a
00000170: 9ede 9839 daa3 10bb 7d35 593e f6a0 6dbe
00000180: ec1d a43a 7370 75be f731 b1ba f286 d7ba
00000190: 9278 9eba 6d96 adbe 0857 393e 2e9e 9a3a
000001a0: 9878 c53a aa54 bcba d305 d23d cedb 94ba
000001b0: 5f29 d33a e9c4 85b9 bb91 363e 7c0f d33a
000001c0: 54ba ec3a 079f 2e3e f3b5 07be e885 723e
000001d0: c962 ba3a 803b c53a 4f9f ed3a c88a 103b
000001e0: ce14 86ba 5df6 03bb 8d86 e6ba 3a3d 8bba
000001f0: f5a9 783e 2fd5 8eba 7a35 8cba 5d8e 87ba
00000200: c6c1 8cba 6d1a 64be 724e b43a 34b0 11be
00000210: 6457 48be 4196 d73a b018 c13a 069a d2ba
00000220: a263 6dbe 5d1d f73a 7458 e03a fa8a feba
00000230: 0e68 d63a c384 4abb ea50 113e 5c0e f5ba
00000240: b1ad 203b 77a7 15bb 0d94 4b3e 7a06 90ba
00000250: 45b1 9f3a e3f1 9eba 68da c5ba d8a5 03bb
00000260: 1b87 f53d c41a 403a 9a2b 13be fdd3 8bba
00000270: ef51 383e 55b1 003b 26fd e33a 80be 873a
00000280: dcb5 c6ba 36fb 4a3e 1165 ecba a571 0fbb
00000290: a69b 4f3b 577e 78be 89fe 55be 284f 79be
000002a0: 3557 42bb 568a ccba dcaf 043b d96e b3ba
000002b0: 58b7 a3ba 92b7 733e 6851 b6ba f3d7 10be
000002c0: a93f 69be e484 5f3e 441f f93a a40a 443b
000002d0: 8657 e23a 8165 fcba a311 153b 7914 b3ba
000002e0: 50d7 edba 5900 e3ba 8649 a83a 5e0b 353e
000002f0: 26a1 193b bd37 c9ba a5ed 0a3b e28d 4f3e
00000300: b7cb 923a f001 133e dbf0 3e3e e35e f83a
00000310: 34a8 ba3a 44de 6fbe c197 6d3e 414e 07bb
00000320: fdef 723a 557e b03a 20e9 2dbe 80f2 d73a
00000330: b937 7bbe 0d9a 0a3b 63ca 9b3a 97e7 733e
00000340: e7e3 88ba fb48 853a 91a6 00ba a437 a93a
00000350: f3ad 933a cb38 253b eb23 7a3e 4045 c73a
00000360: fbf7 013b 964b 13bb f5a6 2c3e ef25 cd3a
00000370: c2e6 51ba e974 24c0 23ef d03a 800b 11bb
00000380: 1858 1d3e 968e c6ba b756 1c3b c72e 663e
00000390: e13b cc3a 45bd ddbd 93d1 8a3a 015f b33a
000003a0: 4fac d43a 88db 563e 5c14 533e 1022 33be
000003b0: 172a cfba c286 05bb 0b4d 833a fc5a baba
000003c0: 9b9f d7bb 1294 ab3a b232 b4ba f78f 83be
000003d0: b972 913a 21ac 343e 2dbc 403b 934e afba
000003e0: 45d7 bfba d1c3 0a3b 8c0a 95ba dc98 94ba
000003f0: aead 4a3e fae0 fb3a ea9f 5d3e 26f7 18bb
0.0018341941 0.0016434719 -0.007891363 -0.0011413873 0.0019569327 -0.001092147 0.25135103 0.001038246
-0.0015814818 0.17627174 -0.2289189 0.0038399163 0.0015169609 -0.0015208579 0.0015272594 0.0015477309
-0.00014265363 0.0019064716 -0.19682321 -0.0019907295 -0.24123359 -0.0012382115 -0.23218924 -0.14121015
0.00026119009 -0.0011986161 -0.2235136 -0.0009875417 -0.0019167339 0.00090075063 0.0011826034 0.14751165
0.0020044374 -0.0024378393 0.002196358 0.0018770135 0.0009553282 0.14533933 -0.0010829187 0.24300696
0.00073766476 0.001523488 0.19245489 0.0014166445 -0.0010983458 0.0013443603 -0.0010601337 -0.0014206902
0.0008421797 0.0014861383 0.0020057303 0.0011001031 -0.0016699156 -0.0014042878 0.0014386355 -0.0013826031
-0.22858065 -0.0011435391 0.001290789 0.0021872073 -0.002497059 0.002261122 0.0020529863 -0.0018963246
0.21180649 0.16816153 0.0014937316 -0.16054563 -0.15880933 0.0018295428 0.0020770752 -0.002358273
0.00030197253 0.22511707 0.0017247861 -0.001556672 0.25184375 -0.23739168 -0.0013315661 0.0019889295
-0.0010097915 0.001587392 0.002118191 0.2147 -0.23898266 -0.0017718008 0.0010938132 -0.0018913627
0.24720739 -0.0017162042 0.25145277 0.0015816406 0.00029157562 -0.002207032 0.2121181 -0.23205933
0.0012521124 -0.23968677 -0.0013518919 -0.0016443415 -0.0012090376 -0.33903828 0.18099606 0.0011796409
0.0015065847 -0.0014368494 0.10255017 -0.0011357011 0.0016110352 -0.00025514446 0.1782903 0.0016102637
0.0018060901 0.17052852 -0.13253002 0.23683894 0.0014220114 0.001504764 0.0018129143 0.0022055376
-0.0010229589 -0.0020135858 -0.0017587707 -0.0010623105 0.24283583 -0.0010897274 -0.001069709 -0.001034211
-0.0010738901 -0.22275706 0.0013756289 -0.14227372 -0.19564587 0.0016447977 0.0014732089 -0.0016067631
-0.23182538 0.0018853355 0.0017116205 -0.001942008 0.0016357915 -0.0030901886 0.14191023 -0.0018696296
0.002451759 -0.0022835413 0.19880696 -0.0010988258 0.0012183568 -0.0012126531 -0.0015094997 -0.0020087864
0.1198866 0.0007328207 -0.14372101 -0.0010668036 0.18000005 0.0019636948 0.001739417 0.0010356456
-0.00151604 0.19822392 -0.0018035491 -0.0021887806 0.0031678467 -0.24266945 -0.20897879 -0.24346602
-0.002965403 -0.0015605192 0.0020246422 -0.0013689651 -0.0012490554 0.23800495 -0.0013909759 -0.14144878
-0.2277819 0.21828038 0.001900651 0.002991357 0.0017268516 -0.0019256325 0.0022746108 -0.0013662718
-0.0018145833 -0.0017318829 0.0012839295 0.17680117 0.0023442 -0.0015351694 0.0021198776 0.20268968
0.0011199628 0.14356208 0.18646567 0.0018949177 0.0014240802 -0.23424631 0.23202421 -0.0020646008
0.00092673284 0.0013465384 -0.16983461 0.0016475469 -0.24532975 0.002114895 0.0011885877 0.23818813
-0.0010443897 0.0010168845 -0.0004907633 0.0012910259 0.0011267051 0.0025210853 0.24427764 0.0015203133
0.0019831646 -0.0022475473 0.16860564 0.0015651564 -0.0008007103 -2.5696356 0.0015940409 -0.0022132099
0.15365636 -0.0015148695 0.0023855397 0.22478782 0.001558181 -0.10827116 0.0010591022 0.001368493
0.0016225668 0.20982182 0.20613235 -0.17493463 -0.001580539 -0.0020374511 0.0010017467 -0.0014217789
-0.0065803058 0.0013090393 -0.0013748019 -0.25695774 0.0011096812 0.17643787 0.0029409037 -0.0013374857
-0.0014636299 0.0021173845 -0.0011370941 -0.001133706 0.19792816 0.0019216829 0.21643034 -0.0023340671

bias f4 [256]
00000000: 1aa2 ed3a 5f67 a1ba 37d0 00bc 2a85 07bb
00000010: 086e 6eba 210b 013b 02f6 c4bf d6eb ed3a
00000020: ae34 a9ba 1169 79bf dbc9 a93f aef1 4c3b
00000030: bf84 f7ba 12fd 8239 5ac5 1a3b 812a 5f39
00000040: 3238 3d38 4b5c 1238 eb89 8c3f 27a7 7c3a
00000050: 0ac8 b73f 59b4 b43a 8b47 ad3f d21a 483f
00000060: 0ea0 5e39 8fe5 0e3a 113c a43f df00 c9ba
00000070: 4360 c4ba 3cca e739 b908 e8ba 5c79 50bf
00000080: bde1 4a3a 4166 29bb a82e b23a 0479 063b
00000090: a820 393a f190 4dbf 339f 493a 9904 babf
000000a0: 1b69 d53a 715f f83a d015 89bf 5cab 27ba
000000b0: a258 7f3a 6979 2b3a 6883 4c3a e628 c139
000000c0: d256 4439 f9a9 1b3b 1f1c 0dbb 8201 05ba
000000d0: 5fb9 6c39 2b37 d3ba 02c3 303b c421 9eba
000000e0: cd6e a93f 8407 873a b707 d6b8 ca23 5f3a
000000f0: 02da 8dba bf8d 863b f2d2 deb6 c002 d43a
00000100: 5f10 99bf 516f 6dbf 38dd d43a 1f7a 623f
00000110: f805 603f 1b07 283a 3049 383a 2e09 94ba
00000120: c0ef 1e3a dada a5bf e3de ab3a 9a58 093a
00000130: 42a2 c5bf fe23 b33f 3fab e4ba 20b8 84ba
00000140: 1360 f0b9 14df 37b8 80d0 663a 3cb3 9bbf
00000150: 1406 b53f 7146 54ba 7695 3eba 3a50 7cba
00000160: e267 bfbf 3788 faba 3b18 c5bf ed9c ffb9
00000170: dd80 5239 41b2 3eba 6f58 99bf bc22 ad3f
00000180: 2a71 14ba a4e0 b53f 34ad 73b7 ad6d 55ba
00000190: 4ccf 1dba 20cc f53f 5342 80bf f034 2dba
000001a0: 1c60 e43a 99c6 b9b8 cc82 17bf 6baf c83a
000001b0: 8ed6 b339 afd4 b2ba f46f 7cbf 3355 a73a
000001c0: 5e6a c439 14e6 70bf b9e5 3c3f 2e7e b2bf
000001d0: 0dfd 6a3a eb3f 0939 ff5f a939 5770 a53a
000001e0: 6296 d7b8 b701 173a dfdd 03bb 13ee f4b9
000001f0: 3ecd b9bf f0db c63a 4acc 8eb9 b801 fe39
00000200: f862 d9ba e77a a33f 167d fab8 a980 493f
00000210: ae99 8b3f 0ee5 c43a 257a 38b9 507e a13a
00000220: cce2 ac3f fe2a 553a 4dc5 803a 6f47 133a
00000230: 2e0b cf39 55bf 33bb 9406 49bf 0331 9aba
00000240: e79e f53a 6962 e9ba 1821 8ebf c152 79ba
00000250: e3d5 d43a b5af b0b9 791c 933a 7201 063a
00000260: 432f 2dbf cbe0 c73a ad6a 4b3f 1148 8339
00000270: 6203 7fbf ceb3 4b3a 996d d13a 9f33 97b9
00000280: 2ad2 e937 c5a8 8dbf 2fe2 faba bdc5 41bb
00000290: dc9e 143b 8796 b93f 4d94 963f 4d86 b93f
000002a0: 5db0 dcba 1427 bf39 b8c6 0dba 99c8 5dba
000002b0: f60f afba 4ddc b3bf 2c86 d03a 266b 483f
000002c0: 8298 a83f d614 9fbf 83eb 1bba b576 ea3a
000002d0: 17c7 9b3a ee0f 203a 5bfc 9a3a cbea 7c3a
000002e0: 050e c6ba 30c5 daba d2c0 d9b9 f833 7abf
000002f0: e359 c13a 0849 3ebb 8384 923a 7648 91bf
00000300: 5c2a 0a3b 7334 4bbf b16e 84bf 72cf db39
00000310: 3342 26b9 728c af3f 1119 adbf 36cc b2ba
00000320: acfa 3aba 627e 013a 63e1 6f3f b7bd 63ba
00000330: a0fa bc3f a933 333b 6564 793a bd13 b4bf
00000340: 8d89 80b9 cf8b ad39 3866 9aba a26a bab9
00000350: aa56 3eba a8bc 1ab9 cda0 bbbf 0a3c 483a
00000360: fa90 743a 143c 6cbb 5815 6ebf d1fd b93a
00000370: f00a bcba 698c 0b3f 9f85 8839 6dd5 f2b9
00000380: 86d6 58bf e7ec 6dba f33b 8a39 b684 a5bf
00000390: 05fc e63a 5704 1f3f ec4e bbba 228a 653a
000003a0: fe1d 8c3a 534f 97bf 4a25 94bf 036b 773f
000003b0: e13f 05bb 44af aeb8 8a5b f339 c812 8ab7
000003c0: d0df 95bb 69bf 233b c433 29ba 16cf c93f
000003d0: 6875 09b9 80a9 79bf c0a8 723b 2795 e139
000003e0: 5ff0 29ba 6087 353b b8c7 493a 3681 8439
000003f0: 4f6c 8dbf 8c71 7bba ff51 9dbf a725 4ebb
0.0018129975 -0.0012314132 -0.007862142 -0.0020678737 -0.00090953754 0.0019690471 -1.5387576 0.001815195
-0.0012909377 -0.97425944 1.3264726 0.0031271982 -0.0018884166 0.00024984084 0.0023616166 0.00021282771
4.5113447e-05 3.4895067e-05 1.0979589 0.0009637945 1.4357922 0.0013786658 1.3537458 0.78165925
0.00021231195 0.0005451077 1.2830831 -0.0015335343 -0.0014982302 0.0004421043 -0.0017702795 -0.8143518
0.0007739326 -0.0025848302 0.0013594227 0.0020518908 0.0007062056 -0.8029929 0.0007691264 -1.4532653
0.0016281934 0.0018949342 -1.0709782 -0.0006396079 0.00097406853 0.0006541224 0.00078015635 0.000368423
0.0001872436 0.0023752435 -0.0021531654 -0.0005073772 0.0002257577 -0.0016114464 0.0026971702 -0.0012064506
1.3236939 0.0010301922 -0.00010205752 0.0008512108 -0.0010822418 0.004106253 -6.640673e-06 0.0016175136
-1.1958121 -0.9274798 0.0016240245 0.8846759 0.8750911 0.000640975 0.0007029949 -0.001129424
0.0006062947 -1.2957413 0.001311269 0.0005239338 -1.5440142 1.3995359 -0.0017446055 -0.0010125674
-0.00045847948 -4.3838358e-05 0.00088048726 -1.2164073 1.414248 -0.0008097655 -0.0007270196 -0.0009624992
-1.4953578 -0.0019114082 -1.539802 -0.0004875431 0.00020075166 -0.00072744867 -1.1980113 1.3526225
-0.0005662615 1.420918 -1.4524256e-05 -0.0008141648 -0.00060199643 1.9202919 -1.002024 -0.00066073146
0.0017423662 -8.858479e-05 -0.59183955 0.0015311068 0.00034301396 -0.0013643707 -0.98608327 0.001276648
0.00037463283 -0.9410107 0.7378803 -1.3944757 0.0008964099 0.0001308915 0.00032305715 0.0012621981
-0.0001028001 0.00057604484 -0.002012126 -0.00046716686 -1.451576 0.0015171748 -0.00027236558 0.00048447936
-0.0016585281 1.2771882 -0.00011944228 0.78711945 1.0906274 0.0015021877 -0.0001759311 0.0012320969
1.3506713 0.00081317115 0.0009824425 0.00056182494 0.00039490446 -0.0027427275 -0.7852566 -0.0011763874
0.0018739373 -0.0017805818 -1.110385 -0.00095109275 0.001623806 -0.00033700248 0.0011223695 0.00051119097
-0.6765024 0.0015249489 0.7945965 0.0002503996 -0.99614537 0.00077706284 0.0015978097 -0.00028839425
2.787363e-05 -1.1067129 -0.0019140894 -0.0029567324 0.0022677695 1.4499062 1.1764008 1.449411
-0.0016837228 0.00036459474 -0.00054083345 -0.00084603723 -0.0013356197 -1.4051605 0.0015909127 0.78288496
1.3171542 -1.2428234 -0.0005947875 0.0017888161 0.0011884895 0.00061058893 0.0011824475 0.0009648024
-0.0015110379 -0.0016690847 -0.00041533128 -0.9773555 0.001475152 -0.002903523 0.0011178408 -1.1350238
0.0021082377 -0.79376906 -1.034628 0.00041925494 -0.00015855655 1.3714736 -1.3523275 -0.0013641182
-0.000713269 0.0004939792 0.9370329 -0.00086876325 1.4763985 0.0027344024 0.0009513556 -1.4068524
-0.00024516546 0.00033101297 -0.0011779731 -0.00035556132 -0.0007260839 -0.00014756864 -1.4658448 0.0007638341
0.00093294645 -0.0036046552 -0.9300132 0.0014190023 -0.0014346521 0.54511124 0.00026039497 -0.00046316852
-0.84702337 -0.0009076134 0.00026366077 -1.2931125 0.0017622715 0.62116 -0.0014290488 0.000875624
0.0010690091 -1.1821083 -1.157388 0.9664766 -0.0020332264 -8.329612e-05 0.00046416774 -1.6459628e-05
-0.0045737997 0.0024985916 -0.0006454552 1.5766323 -0.00013109075 -0.9752426 0.0037026852 0.0004302647
-0.00064826565 0.0027699098 0.0007697302 0.00025273272 -1.1048678 -0.000959181 -1.2290648 -0.0031455548

weight f4 [256, 256]
00000000: d3b8 5a3c 84c7 493c e85a 17bc a68b 46bc
00000010: 4aeb 553c b78e 16bc 7b86 5dbd 0e9c 393c
00000020: 07fd 7abc 7e5b 3bbd 9809 453d c556 413c
00000030: 2b41 413c de7f 49bc 4b0c 7e3c 92dc 4e3c
00000040: 9a96 2fbc 43d7 5b3c 4b68 433d bcb4 4fbc
00000050: d69f 4e3d 7fce 41bc e04f 463d e230 2d3d
00000060: 3bf4 ee3b 3708 48bc 59d8 443d dba3 61bc
00000070: fdbb 82bc 3d11 1a3c 36c9 3c3c ff77 2fbd
00000080: 5062 543c 17d2 7cbc 0fe8 143c 4e1c 843c
00000090: 8aa8 413c e5a7 2ebd a788 3fbc 9014 51bd
000000a0: 1efa 2f3c 39ca 4c3c 7ee2 41bd fdaf 463c
000000b0: 0f5d 40bc 051c 433c 36bd 3fbc 31c3 4abc
000000c0: dca4 2b3c cb76 7d3c 4a92 553c 7f1a 413c
000000d0: e108 62bc 3c62 77bc 1f03 173c 9d06 46bc
000000e0: e0f6 443d 3396 40bc 33dd 453c 8c5c 6d3c
000000f0: ded1 eebb 1595 603c dc13 5f3c 0154 4cbc
00000100: 587c 46bd fbdf 37bd 9667 4b3c 17a7 343d
00000110: e6f0 333d 3d82 593c 7de5 813c 312b 4dbc
00000120: fd90 2b3c 0daf 44bd b01c 0e3c 3222 4bbc
00000130: 942d 5ebd 2d31 4a3d bb71 4fbc f4d2 4e3c
00000140: bddd 44bc 5ab9 483c 4260 563c 7e62 46bd
00000150: 78de 4b3d 09b1 5abc 8daa 3e3c 2c94 81bc
00000160: 9570 57bd 687d 5dbc a1a9 5dbd 5d9d 493c
00000170: 1b37 313c 0294 45bc de7a 46bd 0a3f 463d
00000180: 5ac7 3c3c 55af 4c3d 0433 22bc 541b 53bc
00000190: 27f2 45bc f18e a73d d25a 3dbd 59ad 433c
000001a0: b998 523c 0877 13bc 9bc8 1bbd 6bda 3fbc
000001b0: 8a8c 4d3c b29d 27bc 1f38 3cbd 1b50 503c
000001c0: 3db0 763c 77e4 38bd 1799 2a3d 01ac 49bd
000001d0: 5ed0 653c ae07 4a3c c207 4e3c a1c6 863c
000001e0: b32c 4abc ec4f 57bc c4a9 5dbc cd6e 42bc
000001f0: 66d5 50bd b56b 42bc 9257 45bc 8ba5 3fbc
00000200: 01be 60bc 01f3 443d 831b 413c f88e 2d3d
00000210: b904 433d 7a31 493c 27db 493c 9f71 44bc
00000220: 981f 463d 2b9a 483c df1e 573c ab81 51bc
00000230: ad68 513c c999 71bc b46f 2dbd f348 5bbc
00000240: 5da2 5b3c 525e 56bc 7809 44bd a2e7 1bbc
00000250: b473 593c 7da6 45bc c671 4bbc 3c6f 4ebc
00000260: f46b 27bd 5919 333c fd12 2e3d 53b1 48bc
00000270: adf0 3cbd d0b0 813c 0f23 823c f25a 483c
00000280: 502d 63bc 1cdc 43bd 8255 83bc 057f 53bc
00000290: d763 743c 0d99 503d 404a 463d 1d1d 513d
000002a0: 86d3 7cbc c010 5ebc a81e 513c e5ba 4ebc
000002b0: 81a7 5fbc 32d0 4abd 57bd 43bc 5045 2d3d
000002c0: 92d0 443d 0ae6 45bd adcb 4c3c 238e 773c
000002d0: 4534 583c 28b0 53bc 3e08 583c cd07 48bc
000002e0: 773e 44bc 6e7f 47bc c5f2 433c 4795 3bbd
000002f0: a211 4f3c 4644 82bc fba9 853c 1920 45bd
00000300: fac6 393c 7a03 2ebd d398 3fbd 5754 7e3c
00000310: 1748 473c 4f90 473d ee3a 46bd 8950 5cbc
00000320: 6651 373c c11a 413c 7a97 383d e3da 4a3c
00000330: 1e8d 543d 3f1f 513c 653f 473c 3a01 4bbd
00000340: e35d 43bc a1a6 413c f258 49bc d906 423c
00000350: 922c 3f3c 28bd 503c b7f2 52bd 5441 6c3c
00000360: c4b0 5f3c 467c 5fbc a110 38bd a2c8 4d3c
00000370: 84be 4bbc d71e d33d e8cf 4b3c f85f 61bc
00000380: f0d9 31bd 5aec 4ebc 7040 4a3c 22b6 44bd
00000390: 4b0a 003c 8a19 213d 34fd 3d3c 06e3 573c
000003a0: 50af 553c 4f62 46bd 6ee4 45bd 75c9 3a3d
000003b0: 533d 7ebc 971e 60bc 86b6 433c 6001 33bc
000003c0: be5c 1bbc 7e60 4b3c f50d 44bc da52 643d
000003d0: e9af 403c 406d 3bbd 396b 743c e994 46bc
000003e0: 1636 3bbc 7c8d 513c f11e 3fbc 1bd7 45bc
000003f0: ebc1 43bd 0aab 4e3c d630 46bd 1097 58bc
0.01334973 0.012315635 -0.009237982 -0.012118256 0.013056586 -0.009189299 -0.05408333 0.01132871
-0.0153191155 -0.04574155 0.048104852 0.011800473 0.011795322 -0.012298552 0.015505861 0.01262583
-0.010717059 0.013418022 0.047706883 -0.012677368 0.0504454 -0.011829018 0.04841602 0.042282946
0.007292298 -0.01220899 0.048057888 -0.013771976 -0.01595878 0.009403524 0.011522582 -0.042839047
0.012962893 -0.015430949 0.00908853 0.016126778 0.011819968 -0.042640585 -0.011690295 -0.051045
0.010740785 0.0124993855 -0.04733514 0.01212692 -0.011740937 0.011908536 -0.011702826 -0.012375639
0.010476317 0.015470217 0.013035366 0.011786102 -0.013796062 -0.0150991045 0.009217053 -0.012086538
0.048087 -0.01175456 0.012076664 0.014487397 -0.0072882017 0.013707419 0.013615575 -0.0124712
-0.048458427 -0.04489134 0.0124148335 0.04410466 0.04393091 0.01327568 0.015856499 -0.012522505
0.01047158 -0.048018504 0.008673832 -0.0123982895 -0.054242685 0.049363304 -0.012661393 0.012623537
-0.012015757 0.0122512225 0.013084473 -0.048433773 0.04977271 -0.0133478725 0.011637342 -0.015817724
-0.0525976 -0.013518669 -0.05411685 0.012305585 0.010816361 -0.012059214 -0.04845702 0.048399962
0.0115221385 0.049971897 -0.009899858 -0.0128849335 -0.012081659 0.08181561 -0.04622919 0.011943185
0.012853795 -0.009000547 -0.03803311 -0.01170979 0.012545714 -0.010230469 -0.04595196 0.012714411
0.015056667 -0.045139756 0.041649904 -0.0492363 0.014026729 0.012330933 0.012575092 0.016452136
-0.012339759 -0.013141613 -0.013529245 -0.011867237 -0.050984763 -0.0118665 -0.012044804 -0.011697183
-0.013717175 0.04808331 0.011786344 0.042372674 0.047611926 0.012279863 0.012320316 -0.01198998
0.048369974 0.012243788 0.013129919 -0.012787263 0.012781304 -0.014746138 -0.042342857 -0.013384092
0.01340541 -0.013084011 -0.047860593 -0.009515675 0.013272215 -0.01206362 -0.012417262 -0.0125997625
-0.040874436 0.010931336 0.042498577 -0.012249309 -0.046127964 0.015831381 0.015885858 0.012228714
-0.013865784 -0.047817335 -0.016031984 -0.012908702 0.014916382 0.05092721 0.048410654 0.051053155
-0.0154312905 -0.013553798 0.012763657 -0.012617801 -0.013650776 -0.049514957 -0.011946998 0.04230243
0.04805047 -0.048315085 0.012499732 0.015109572 0.013196056 -0.012920417 0.013185559 -0.012208891
-0.011977783 -0.012176378 0.011959736 -0.04579666 0.012638481 -0.015901696 0.016316405 -0.048126314
0.011338944 -0.042483784 -0.046776604 0.015523038 0.012163184 0.048721608 -0.048396043 -0.013446935
0.0111888405 0.011786164 0.045066334 0.012381288 0.051892392 0.012763797 0.0121611105 -0.049561717
-0.01192424 0.011819513 -0.012289273 0.011842453 0.011668341 0.012740411 -0.051501002 0.014419872
0.013652984 -0.013640469 -0.044937734 0.012560042 -0.012435559 0.103086166 0.012439705 -0.013755791
-0.043420732 -0.012629593 0.012344465 -0.048025258 0.007814954 0.039330997 0.011596013 0.013176685
0.013042286 -0.048433598 -0.04831355 0.04560228 -0.0155175505 -0.013679168 0.011945372 -0.010925621
-0.009482561 0.012413142 -0.011966218 0.055743076 0.01176069 -0.045758486 0.014918142 -0.012120464
-0.011426469 0.01279008 -0.011665092 -0.012075211 -0.047792356 0.012614021 -0.048386417 -0.01321961

bias f4 [256]
00000000: e099 233c d691 70bd 48ac 0d3d 8262 89bd
00000010: 8fd7 81bd b851 3d3d 5334 08bd 5207 75bd
00000020: cec6 84bd ba80 813d 4ad6 823d 53bb 803d
00000030: 528c 7d3d b00d 923d 7cf7 75bd b693 9dbd
00000040: 15e7 74bd 92ae 883d 606d 90bd f416 033d
00000050: 87a9 823d ad59 733d e1d7 83bd 54e0 91bd
00000060: e4e6 7b3d 0aaf 81bd 2bce 933d 54c1 b8bc
00000070: 3a61 753b 0312 813d 136d 733d f66c 7e3d
00000080: 0dc6 71bd c7eb 6dbd 46bb 86bd caa6 3abd
00000090: 860e 843d 0c8d 853d 1a74 0d3c 5eea 7f3d
000000a0: 4538 123c aa8b 893d f029 94bc fe36 8f3d
000000b0: 9bbc 7fbd de6b 80bd c642 a43e cc2a 72bd
000000c0: 0f14 893d 28ec 913d 0f36 d8bc 2e64 803d
000000d0: d634 853d a4b7 893d dc50 ae3c c756 85bd
000000e0: df5a 06bd f3fd 803d 5516 06bd 5994 78bd
000000f0: 5ee9 873d c371 81bd 4112 3c3d 27eb 84bd
00000100: cd94 8ebd 90c3 8fbd 3c27 733d db62 78bd
00000110: 62d7 8cbd 12d2 7f3d ef88 8bbc 7e38 7abd
00000120: 5d9f 7fbd c294 89bd ea5c 813d 1ca2 07bd
00000130: d207 883d 77d6 3bbd 555e 84bd 679a c8bc
00000140: fcf8 80bd c850 90bd 14f1 903d 8a11 7cbd
00000150: 2415 ebbc ab57 8dbd 2a53 5cbb 64ba 843d
00000160: 7c34 793d 8e2f 853d 5707 06bd 39cd 703d
00000170: a601 b03e 1bc0 773d 878e 893d 4535 833d
00000180: 46ee 3c3d efbf 733d d34a 783d 5f19 92bd
00000190: 4885 693d a7b9 6d3d 1ede 83bd b4a0 7f3d
000001a0: 90e1 3b3d 6f7a 81bd 3939 90bd 91ad 793d
000001b0: caad 843d d3cf 393d f9f7 123d f41d 863d
000001c0: 9c2f 88bd 2665 763d cf1b 00bd d8c5 773d
000001d0: 57c7 8bbd 144a 813d 4ca9 51bd b622 823d
000001e0: 2419 883d 6636 433d cb64 54b9 721d 083d
000001f0: 3c5b a03c 7b0e 813d d1bc 043d 60bd 8b3d
00000200: 8e13 793d 30d1 483e 346c 8b3d 8330 be3c
00000210: b2ac 09bd 6e10 c5bc cdb5 7abd f419 03bd
00000220: dbf2 91bd a0bc 843d b79c 72bd 980e 6c3d
00000230: 4cff 8fbd a154 783d be4b 813d b08a 803d
00000240: b5d7 903d ac60 823d f476 8ebd 69b5 82bd
00000250: 9626 81bd bfaa 78bd 93ad 78bd 3f2d 80bd
00000260: ec16 6abd 90f3 91bd d7a0 82bd de2d 80bd
00000270: cb6a 903d fdfe 733d 1634 093d 2ebd 83bd
00000280: 164d c43c a2cb e7bb f1fe 83bd bebc 003d
00000290: 6e07 6cbd 11cc c03c e030 b83c b044 92bd
000002a0: b72c 863d 0c56 8bbd c78c 92bd 878c 8fbd
000002b0: f4a0 86bd 68e1 7fbd 4a98 053d 9eab 75bd
000002c0: be4c 01bd ebb4 85bd 2a00 80bd 0477 87bd
000002d0: c119 6a3d 9eb1 39bd f96d 853d 2c66 91bd
000002e0: fb6e 74bd f9b2 043d 91a3 3cbd b0ea 7fbd
000002f0: a9dc 56bd b2b7 793d 7f66 7aba 06e2 74bd
00000300: f236 0a3d af9f 923d a722 883d c727 683c
00000310: a2b1 91bd 319a 693d 508d 7fbd 55b7 04bd
00000320: b20f 803d 190b 92bd e40e 82bd 6eda 00bd
00000330: 629b 793d 8f68 8d3d c50c 853d 2580 8fbd
00000340: 0f6c 4d3d c1c1 76bd 3764 923d bb46 84bd
00000350: 5790 863d acb2 02bd adb0 783d 0b21 793d
00000360: 6288 00bd 0184 7cbd a439 7a3d 3698 9bbc
00000370: 341b 8ebd e832 abbb 992d 8cbd 4ef2 b13a
00000380: 6d02 803d f39a 803d bc56 7abd 569f 6cbd
00000390: 01b4 93bd 658d a53d 009c 07bd 1959 813d
000003a0: ddc7 793d ad2a 00bd 9f4c 7ebd c6c7 80bd
000003b0: c5b1 763d 7adc 823d 1247 79bd 2dac 0e3c
000003c0: 3548 823d ea3d 84bd be7e 313d b1bf 713d
000003d0: 814f 02bd 7d69 80bd 9ba4 8d3d 5b92 5c3a
000003e0: 1cd8 7f3d 5017 81bc 6f4f b23e f326 89bd
000003f0: 3ac8 8e3d 4aaf 91bd 94cb 823d ffdd 933d
0.009985417 -0.05873283 0.03458813 -0.06708242 -0.06339943 0.04622051 -0.033253025 -0.059821434
-0.064832315 0.06323381 0.06388529 0.06285729 0.061901398 0.07131517 -0.060050473 -0.07694189
-0.05979069 0.06673922 -0.070521116 0.03200431 0.06379991 0.059411693 -0.0643766 -0.07122865
0.06149949 -0.06332214 0.07217058 -0.022553124 0.0037441985 0.063022636 0.059430193 0.062115632
-0.059026767 -0.058086183 -0.06578688 -0.04556922 0.064480826 0.06521043 0.008633638 0.06247937
0.0089245485 0.06716092 -0.018086404 0.06992911 -0.062435728 -0.06270574 0.32082194 -0.059122846
0.06693279 0.07125121 -0.026392965 0.06269108 0.06504218 0.0672448 0.021278791 -0.06510692
-0.032801505 0.06298437 -0.03273614 -0.06068835 0.06636308 -0.063205265 0.045915846 -0.06490164
-0.06961975 -0.070197225 0.05936359 -0.06064115 -0.068770185 0.062456198 -0.017033068 -0.06108903
-0.06240784 -0.067178264 0.0631655 -0.033113584 0.066421166 -0.045858826 -0.06463305 -0.024487687
-0.0629749 -0.07046658 0.07077232 -0.061540164 -0.028696604 -0.06901487 -0.0033618906 0.06480864
0.06084107 0.06503211 -0.032721844 0.058789466 0.34376258 0.06048594 0.06716638 0.06406645
0.046125673 0.059509214 0.060618233 -0.071337454 0.057011873 0.05803838 -0.0643885 0.062409118
0.04586941 -0.063221805 -0.07042164 0.06095654 0.0647846 0.045364212 0.035881016 0.06548682
-0.06649706 0.060155056 -0.03127652 0.060491413 -0.068251304 0.063129574 -0.051186845 0.06354277
0.0664542 0.0476593 -0.00020255444 0.033231206 0.019574754 0.0630159 0.03240663 0.0682323
0.060809664 0.19611049 0.068077475 0.023216492 -0.03361196 -0.024055686 -0.061208535 -0.032007173
-0.07126399 0.0648129 -0.059231486 0.057631105 -0.07031116 0.060627583 0.06313275 0.062764525
0.07072393 0.06366095 -0.06956282 -0.063822575 -0.06306188 -0.06070971 -0.06071241 -0.0625863
-0.057150766 -0.07126534 -0.06378334 -0.062587485 0.07051619 0.059569348 0.03349694 -0.064325675
0.023962539 -0.0070738355 -0.064451106 0.03143 -0.057624273 0.023534806 0.022484243 -0.07142007
0.065514974 -0.068035215 -0.071557574 -0.07009225 -0.06573668 -0.062470824 0.032615937 -0.05997812
-0.031567328 -0.06528648 -0.06250031 -0.06614497 0.057153467 -0.045335405 0.06515116 -0.07099566
-0.05967615 0.032397244 -0.046054427 -0.062479675 -0.05245653 0.0609662 -0.0009552016 -0.059785865
0.033743806 0.071593635 0.066472344 0.01416964 -0.07113959 0.057031814 -0.062390625 -0.0324014
0.06252994 -0.07131023 -0.063504964 -0.03145831 0.0609392 0.069047086 0.06496576 -0.070068635
0.05015188 -0.060243372 0.07148021 -0.06458803 0.065704994 -0.031908676 0.060715366 0.060822528
-0.031380065 -0.061649326 0.061090127 -0.018993478 -0.06938782 -0.0052245744 -0.068446346 0.0013576241
0.06250463 0.06279554 -0.061117873 -0.057769142 -0.072120674 0.080836095 -0.033107758 0.06315822
0.06098162 -0.0312907 -0.06208479 -0.06288104 0.060228128 0.06389709 -0.060858794 0.008708042
0.06361429 -0.06457122 0.04333376 0.0590207 -0.031814102 -0.0627012 0.069161616 0.00084141426
0.062461957 -0.015758187 0.34826228 -0.06696882 0.06971784 -0.07113512 0.06386486 0.07220077

weight f4 [256, 256]
00000000: 889d 23bc 23df 2a3c 4abd 23bc 8846 2b3c
00000010: 4911 2a3c 2d48 46bc de32 1c3c 37d2 293c
00000020: d375 2a3c e012 2abc 92fe 2abc f30c 2bbc
00000030: 8200 2abc 72d1 2ebc fe03 2a3c 41cf 303c
00000040: c8db 293c c61b 2abc 58ba 2c3c c027 1fbc
00000050: 99c7 2abc d458 2bbc fb43 2b3c c5d5 2e3c
00000060: 5dc4 2bbc 020b 2a3c 68c7 2fbc 5274 1e3c
00000070: 43cb 24bc 8352 2abc d215 2abc 4caf 2bbc
00000080: 76f6 293c d449 2a3c 5415 2a3c bd24 463c
00000090: 95c0 2bbc 7c6b 2abc 1f13 1bbc f231 2abc
000000a0: 130d 1bbc a95b 2bbc a62f 1e3c c5c1 2bbc
000000b0: ac39 2a3c 5286 2a3c b03b b0bb 52f7 293c
000000c0: d3b4 2cbc 5cba 2cbc 889c 203c 29c0 2abc
000000d0: b2c9 2abc a9b6 2cbc 65eb 1cbc f843 2a3c
000000e0: 718c 1f3c e34c 2abc 8dbd eb3b c0ab 2a3c
000000f0: fb14 2abc 3719 2a3c bc46 46bc 102b 2a3c
00000100: ce75 2b3c 00e2 2b3c f955 2abc c111 2a3c
00000110: 2a52 2b3c 4253 2abc e0cc 1b3c 09c2 2b3c
00000120: e302 2a3c 5d45 2b3c 571b 2abc 2bf7 1e3c
00000130: bb32 2abc 2d41 463c 1f21 2a3c 40e3 1f3c
00000140: 39a9 2b3c cb10 2c3c ba56 2cbc d4f7 2a3c
00000150: 17f4 e93b 8a57 2b3c 6ec8 223c e88f 2ebc
00000160: 3e10 2abc 2b72 2abc 5bec 1d3c 35f7 2abc
00000170: dc47 c2bb 75e3 2abc f765 2bbc 5e0a 2abc
00000180: 1e4b 46bc 64d4 29bc e109 2abc b321 2f3c
00000190: 4abb 2bbc 92e6 2abc 4661 2a3c a8cd 2bbc
000001a0: f243 46bc f20a 2a3c b20d 2c3c 6c0f 2abc
000001b0: ab5e 2abc 4ad9 45bc 7a24 18bc b943 2bbc
000001c0: 8a14 2a3c 0ad1 2cbc 0734 213c e001 2abc
000001d0: a7ac 2d3c d631 2abc b83a 273c 1c3d 2abc
000001e0: 5178 2ebc 6173 49bc 2e33 233c 9237 1cbc
000001f0: e6fe 04bc 780d 2abc 0553 20bc d549 46bc
00000200: 320f 2abc 95a3 35bb 67b0 2cbc e425 1ebc
00000210: abe2 1b3c 75e8 1d3c f937 2b3c 1853 1f3c
00000220: edbe 2c3c 4441 2abc 4ff7 293c 0f0d 2bbc
00000230: 3797 2c3c e009 2abc 4741 2abc 7d89 2bbc
00000240: 4d86 2bbc f76e 2abc 627e 2b3c e831 2b3c
00000250: d352 2a3c 8809 2a3c cb11 2a3c 3f0b 2a3c
00000260: 247b 2b3c c627 2f3c 35c8 2a3c cc8e 2a3c
00000270: 6a76 2cbc 9efa 29bc b443 1cbc 7010 2a3c
00000280: d37d 1ebc 7d1f 233c d057 2b3c d1d3 1fbc
00000290: f172 2a3c 386b 1ebc 94ea 1dbc 273d 2f3c
000002a0: 4e0e 2abc 973e 2b3c f427 2e3c d559 2c3c
000002b0: 171d 2a3c 9fa2 2b3c 2700 20bc 00b8 2b3c
000002c0: 2ce7 1f3c 0f70 2a3c 2f39 2a3c 7ab0 2d3c
000002d0: af2d 2dbc 59d2 453c 8318 2abc ea8f 2c3c
000002e0: 1717 2a3c 8039 20bc 184b 463c 7d31 2a3c
000002f0: 5111 293c 8c0f 2abc da57 1abc da8f 2b3c
00000300: 00a1 1bbc 29e0 2cbc 56f5 2dbc 3915 24bc
00000310: 5bf2 2d3c ed61 2dbc eeec 2a3c e4ec 1e3c
00000320: 1b2f 2abc 5601 2f3c 4dec 2b3c b462 203c
00000330: f97b 2bbc a65f 2dbc 955a 2abc fd62 2c3c
00000340: 53dc 3dbc 13aa 2b3c 3be4 2cbc 9e43 2a3c
00000350: 8916 2abc 4b5d 1f3c a508 2abc 7a99 2bbc
00000360: ae18 203c 005e 2b3c b0bc 2bbc 097e 1e3c
00000370: e6d9 2b3c 4e3a 233c 8164 2b3c 44df 233c
00000380: 96d0 2abc f7a7 2bbc 59c2 2b3c 4b91 2c3c
00000390: d593 393c e414 47bc c5fc 1e3c bb14 2abc
000003a0: c983 2bbc b312 203c 5610 2b3c 6c33 2a3c
000003b0: f8e9 2bbc 7c80 2bbc 0b15 2a3c 85bb 0abc
000003c0: 3508 2abc 4114 2a3c 8818 40bc bbaf 2bbc
000003d0: 754d 203c e2b6 2a3c ebcc 46bc d480 24bc
000003e0: ed32 2abc 2224 1d3c 96f2 c5bb 771c 2b3c
000003f0: ff8f 2bbc 1bb6 2e3c 2c6b 2cbc bbc1 2ebc
-0.009986289 0.0104291765 -0.0099938605 0.010453828 0.010380098 -0.012102169 0.009533612 0.0103650605
0.010404068 -0.010380477 -0.010436671 -0.010440099 -0.010376098 -0.010670053 0.010376928 0.010791601
0.010367341 -0.010382598 0.010542475 -0.009714067 -0.010423564 -0.01045819 0.0104532195 0.010671084
-0.010483828 0.010378601 -0.0107286945 0.009671288 -0.010058227 -0.010395649 -0.010381179 -0.010478806
0.010373702 0.010393579 0.010381062 0.01209372 -0.010482927 -0.010401603 -0.009465008 -0.010387884
-0.009463566 -0.010458865 0.009654915 -0.01048321 0.010389727 0.010408001 -0.005378209 0.010373907
-0.010541159 -0.010542478 0.009802945 -0.010421791 -0.0104240645 -0.010541596 -0.009577607 0.010392182
0.009738074 -0.010394308 0.007194227 0.010416925 -0.010380979 0.010381988 -0.012101825 0.010386243
0.010465099 0.010490894 -0.010396474 0.010380209 0.010456601 -0.010395827 0.009509295 0.010483273
0.010376665 0.010453549 -0.010382495 0.009702484 -0.010388072 0.0121005 0.010383873 0.0097587705
0.010477358 0.010502051 -0.010518724 0.010435063 0.0071396935 0.010457883 0.0099354815 -0.010654427
-0.010379849 -0.010403196 0.009638871 -0.010434915 -0.0059289765 -0.010430207 -0.010461322 -0.010378448
-0.01210287 -0.010365579 -0.010378332 0.010689187 -0.010481665 -0.010430949 0.010399168 -0.010486044
-0.01210116 0.010378586 0.010501312 -0.010379653 -0.010398547 -0.0120757315 -0.00928604 -0.010453158
0.010380873 -0.010547886 0.009839064 -0.010376424 0.010600246 -0.010387858 0.010206871 -0.010390546
-0.010648803 -0.012295575 0.009960933 -0.009534733 -0.008117413 -0.010379188 -0.009785418 -0.012102564
-0.010379599 -0.002771591 -0.0105401045 -0.0096525885 0.009514491 0.009637942 0.010450357 0.009724401
0.010543567 -0.010391537 0.010373904 -0.010440125 0.010534099 -0.010378331 -0.01039154 -0.0104697915
-0.0104690315 -0.010402433 0.010467144 0.01044891 0.010395723 0.010378249 0.010380219 0.010378658
0.010466371 0.010690635 0.01042371 0.010410022 -0.010526279 -0.010374693 -0.009537626 0.010379896
-0.0096735535 0.009956238 0.010457948 -0.009755091 0.010403381 -0.009669118 -0.009638447 0.010695732
-0.010379387 0.010451934 0.010629643 0.0105194645 0.010382912 0.010475784 -0.009765661 0.010480881
0.0097597055 0.010402693 0.01038961 0.010601157 -0.010569974 0.012074077 -0.010381821 0.010532359
0.010381482 -0.009779334 0.012102865 0.0103877755 0.01031907 -0.010379683 -0.0094203595 0.010471309
-0.009498835 -0.010551491 -0.010617575 -0.0100148255 0.010616864 -0.010582429 0.010432465 0.009700034
-0.010387207 0.010681471 0.01049335 0.009789158 -0.010466569 -0.010581886 -0.010397573 0.0105216475
-0.011588174 0.010477561 -0.010552461 0.010392098 -0.010381349 0.009726833 -0.010378038 -0.010473603
0.009771509 0.010459423 -0.010481998 0.009673604 0.010488963 0.009962631 0.010460974 0.010001961
-0.010425707 -0.010477058 0.010483348 0.010532687 0.01132675 -0.012150977 0.00970382 -0.010380919
-0.010468432 0.009770083 0.0104409065 0.0103882365 -0.010492794 -0.010467645 0.010380994 -0.00846756
-0.010377933 0.0103808055 -0.011724599 -0.010478909 0.009784092 0.010419579 -0.012133817 -0.010040481
-0.010388118 0.009591134 -0.0060408814 0.010443798 -0.010471343 0.0106635345 -0.010523599 -0.010666306

bias f4 [256]
00000000: 954f 063c 8b41 14bb 6932 05ba b316 073c
00000010: a008 ab3b 891e 193d b1ff 083c ddba b3bb
00000020: 0820 a63b 372e adbb bb73 2a3c 2617 acbb
00000030: 2342 acbb 1afe a93b 64c2 fdbb 4e1e 08bc
00000040: 1e1f f03b 2e60 19bc 0f02 0a3c beeb b6bb
00000050: bb65 e03b 8724 56bc bd1e cc3b 56b3 0fbc
00000060: 1daa 8f3b 72fc 2cbc 08f5 acbb 3db7 04bc
00000070: 9411 a7bb bca4 03bc 8c7e 91ba 5309 023c
00000080: 7b94 dfbb 138e afbb 3e67 a73b 944c dfbb
00000090: cd27 4e3b 50d0 a93b e5ad ee3b 22a7 aabb
000000a0: 3c6f 05bc 9e8b 32bb f1c3 2fbb 164f e23a
000000b0: 9c23 433c c266 ef3b 21b5 e7bb f768 8abb
000000c0: 91e6 82bc 67fe 333c e2e8 85bc 6b03 a73b
000000d0: 4542 b8bb 8884 08bc a970 a8bb 4a89 ab3b
000000e0: b8d0 efbb b750 47bb b45f da3b 52c6 57bc
000000f0: e7fd 05bc d278 063c af5f 06bc 5ede 14bc
00000100: 0dee dfbb c9f1 a33b 44af 9cbb 3e3f 20bc
00000110: 197b 0dbc ee5b 00bc b84a 003c bfb2 78bc
00000120: 9667 a93b f26f 3a3c 67a6 093b c739 acbb
00000130: f0aa f23b 356f b13b 85f6 cebb 45fe f4b9
00000140: 42d8 823b 1ace 24bb 9297 1b3d 7487 ae3b
00000150: e2e6 073c 7342 ed3b f6c8 0bbc fc26 a13b
00000160: 9c4c aeba d0bb ae3b 413f 93bc 3dea 97bb
00000170: a582 96bc 0dd3 003c 7548 06bc 6ff4 a83b
00000180: ac43 aa3c 98c9 063c 563e b1bb c8e0 ef3b
00000190: 4e24 aebb 1528 a63b 9c21 9bbb 4465 fcbb
000001a0: 814b aabb 6074 ae3b 523a a8bb 8660 aabb
000001b0: 6058 bebb dea6 b9ba 8f2d 5a3b 9503 aabb
000001c0: feb6 04bc 4ca8 103c 7e9d a43b c76e 063c
000001d0: 3c0c 1f3d 8f30 a83b fbfc ab3b 4036 073c
000001e0: c4e7 b13b 0f22 e7bb 3d86 523b bb36 a8bb
000001f0: 5cef 9ebb cf42 eebb 3560 ac3b 3168 06bc
00000200: 9f50 ba3b 148e a6bb a944 71bb bfb4 49bc
00000210: 0bb0 013c 441a ac3b cc25 db3a 484d 213c
00000220: 942f 08bc 7c20 4eba 5650 03bc 5bb5 03bc
00000230: c3c5 acbb 36e6 aabb d075 aabb 35bb fdba
00000240: e2af 18bd 3bd4 a93b b5db 3bbb b164 0abc
00000250: 9880 b63b 23cd a0ba 446e a2bb 7a0a 4cbb
00000260: ecf6 1d3b 343f ad3b 72f1 d53a e4bc a5bb
00000270: b8e7 a63b 13d7 abbb f7cc 143b 67ce 9bbc
00000280: 3190 aa3b be0b acbb 9be3 febb 7e5c abbb
00000290: af4f af3b a382 ab3b 354f 05bc eb88 aabc
000002a0: dd53 bb3b 5673 053c 8fd6 093c 5497 ff3b
000002b0: c3e4 cfbb 9d81 023c 475c af3b ffc0 513b
000002c0: b505 0abc 134e cabb eee0 e0bb 6490 a83b
000002d0: 7fb3 0bbc d569 dd3b 06ea 2cbc d9ae 133b
000002e0: 446d 37bc 0669 aa3b a212 b53a 97c6 f33b
000002f0: 7eec 5fbc ddf9 033c e46b 00bc ccf2 013c
00000300: e900 cd3b 1afe a8bb 60a2 693c 26a3 b03b
00000310: 86f2 2b3b 3bb7 f5bb e1ba ac3b 9f65 06bc
00000320: 4e37 f9bb 3482 4dbc cdc2 aa3b e6bb 523b
00000330: 162c dabb 4927 eabb 585d f93b 2f50 2c3b
00000340: 844c ab3b 2251 ac3b 6ebe 453c 53c3 fd3a
00000350: d3d1 a9bb 751d 013c 107e 51bc 4749 80bb
00000360: 68b0 2c3c f5f4 a4bb 9c26 ae3b 3fba 0ebd
00000370: 105c 7439 b71f a63b a851 03bc fc48 963c
00000380: 62dd ac3b a1a4 cf3b a510 933b 22dd 1e3c
00000390: 3260 acbb 27d4 2fbb 47c9 06bc db3d be3b
000003a0: 25b9 aa3b 02bb a6bb 27f6 053c a7c4 08bc
000003b0: 29a4 b23b fa13 fa3b 38b8 bab9 ecae a63b
000003c0: 487d cc3b 5402 423c a51f 86bc db3a a63b
000003d0: e76e 26bb ab48 04bc 70b2 afba 8c29 12bc
000003e0: 9491 0d3c 2fb9 c7bb 5c7c a6bb e0f7 fd3b
000003f0: fcb5 f9b9 16cb 00bc fb35 783c 0bb1 aebb
0.008197685 -0.0022622074 -0.0005081059 0.008245158 0.005219534 0.037382636 0.008361743 -0.0054849223
0.0050697364 -0.0052850503 0.010403569 -0.005251783 -0.0052569075 0.005187762 -0.0077441204 -0.008308006
0.007327928 -0.00936131 0.008423342 -0.005582302 0.0068480647 -0.013070232 0.00622925 -0.008770784
0.0043842928 -0.0105582345 -0.0052782334 -0.008100328 -0.005098531 -0.008034881 -0.0011100336 0.007936793
-0.00682312 -0.0053575127 0.005108743 -0.0068145487 0.0031456829 0.0051823035 0.0072839134 -0.005207912
-0.008144196 -0.0027243863 -0.002681967 0.0017266001 0.011910345 0.007305951 -0.007071153 -0.0042239386
-0.015979083 0.010985947 -0.016346399 0.005096843 -0.0056231343 -0.008332379 -0.0051403833 0.005234872
-0.0073185824 -0.00304131 0.0066642407 -0.013169842 -0.008178211 0.008207517 -0.008201524 -0.00908622
-0.006833798 0.0050031883 -0.0047816355 -0.009780703 -0.008635306 -0.007834418 0.007830314 -0.015179335
0.005169819 0.011379229 0.0021003725 -0.005255911 0.0074056312 0.0054148682 -0.0063160085 -0.00046728752
0.003993065 -0.002514726 0.037986346 0.005326206 0.008294793 0.0072405874 -0.0085318 0.0049179774
-0.0013297978 0.0053324476 -0.017974498 -0.0046360777 -0.018372843 0.007862818 -0.008195986 0.005156092
0.020784222 0.008226775 -0.0054090424 0.007320497 -0.0053143864 0.005070696 -0.004734231 -0.0077025015
-0.005196989 0.0053239316 -0.0051339054 -0.005199495 -0.005808875 -0.001416411 0.0033291315 -0.0051884153
-0.008100269 0.008829188 0.0050236573 0.008205122 0.038830027 0.0051327418 0.0052486635 0.00825268
0.00542924 -0.0070536206 0.003212347 -0.0051334775 -0.004850311 -0.007271148 0.005260492 -0.008203552
0.0056858803 -0.005082855 -0.0036814606 -0.01231116 0.007915507 0.0052521545 0.0016719638 0.009845085
-0.008312125 -0.0007863117 -0.008014759 -0.008038844 -0.0052725985 -0.0052154316 -0.0052020326 -0.001935816
-0.03727711 0.0051827705 -0.002866489 -0.008446858 0.005569529 -0.0012268167 -0.0049569923 -0.0031134174
0.0024103476 0.0052870754 0.0016322567 -0.005057918 0.005093541 -0.0052441447 0.0022705176 -0.019019319
0.0052051772 -0.005250423 -0.0077785975 -0.005229532 0.005350075 0.005234079 -0.00813656 -0.02081724
0.0057167844 0.008145174 0.008412971 0.007800022 -0.006344409 0.0079654725 0.0053515765 0.0032005904
-0.008424212 -0.006173858 -0.006862751 0.005144166 -0.008526682 0.006757001 -0.010553842 0.0022534637
-0.011195485 0.005200508 0.0013814757 0.0074394452 -0.013667224 0.0080551775 -0.007838223 0.007931422
0.006256212 -0.0051572444 0.014259905 0.0053905426 0.0026237085 -0.0074986494 0.005271301 -0.008202939
-0.00760547 -0.01254325 0.0052112103 0.0032155453 -0.0066580875 -0.0071457964 0.0076100044 0.002629291
0.005227627 0.005258695 0.012069328 0.0019360579 -0.0051824837 0.007880558 -0.012786403 -0.0039149853
0.010540105 -0.005034084 0.005314661 -0.034845587 0.0002330395 0.0050696987 -0.008015074 0.018345349
0.0052754143 0.006336764 0.004488068 0.009696277 -0.005260491 -0.0026829334 -0.008226699 0.0058057136
0.005210059 -0.005088211 0.008176363 -0.008347667 0.0054516983 0.007631776 -0.00035613938 0.0050867703
0.0062405206 0.011841375 -0.016372511 0.005072934 -0.0025395693 -0.008073966 -0.0013404619 -0.008921038
0.008640666 -0.0060950737 -0.0050807428 0.0077504963 -0.0004762857 -0.007860919 0.015149589 -0.0053311638

weight f4 [1, 256]
00000000: cb80 41bc e3d3 283c 3048 32bb f411 43bc
00000010: 2535 fb3b 328a 6b3c 9efa 42bc 1bcf 01bc
00000020: e7db f53b 796a fcbb 5b32 4c3c 3c29 fbbb
00000030: e44f fbbb c0cf f93b 66f9 413c ab2d 433c
00000040: 5364 38bc 2843 9c3c 6b7d 3ebc 24f1 03bc
00000050: 4175 2dbc 1bfd 543d bf61 113c 968a 2ebc
00000060: 1ecf 2bbc 7637 0abd 286e fcbb 79a0 413c
00000070: c47e f6bb 2c79 423c a95e 88bb f506 983b
00000080: 7927 1bbc ca98 febb 830c f63b 5a30 153c
00000090: 55c6 4dbc 523c f93b de2c 38bc 59ff f9bb
000000a0: 99a3 413c e51e 5c3c cc44 543c 7b10 19bc
000000b0: 6a51 8e3c 453a 213c 0054 423c bc6c e2bb
000000c0: b54d 29bd df0e ab3c 59fa 0d3c 4aff f53b
000000d0: a69f 04bc 5f34 443c 35e1 f7bb 7e14 fb3b
000000e0: 6a5c 383c 37a6 c1bb aac5 28bc a799 b53c
000000f0: 96f7 423c 0cc6 40bc 3d84 433c dd8b fa3c
00000100: dadb 1cbc 3f56 f33b 0326 0c3c e23d 273c
00000110: 9d13 443c b718 3e3c 42ec 3cbc d3a1 5a3d
00000120: e91c f83b 4248 da3c 5774 59bc c9bf fbbb
00000130: 3365 243c 1ce9 003c 5f62 263c 729d b63c
00000140: 08dc 07bc 703f 5a3c 16b9 03bd f0f9 fd3b
00000150: b31c 44bc 416d 36bc 6529 453c 64d1 f03b
00000160: b6be a4bb da52 fe3b 9ce1 3a3b e220 3d3c
00000170: 1b6f cf3c f238 3cbc 6282 423c 14a0 f83b
00000180: e616 91bb c513 42bc 2a89 00bc 19f1 37bc
00000190: 93de fdbb d9b6 f53b c095 263c e904 3d3c
000001a0: 8ed2 f9bb 614e fe3b 158d f7bb bf0c fabb
000001b0: 2a6e 1bbd c6fa 513c 180b 31bc 614c f9bb
000001c0: bdf1 423c 3159 31bc 1da2 f33b d00e 42bc
000001d0: 5e17 17bd 5b75 f73b f9bf fb3b 23e8 43bc
000001e0: ca03 013c 356b 303c 7dcd 43bc 0788 f7bb
000001f0: 2916 503c 5601 343c 10ea fb3b 325b 423c
00000200: 8305 a03b a109 f6bb b74c 393c eb1b c3bb
00000210: 8f4d 3fbc 5811 fc3b 7731 4cbc f4ca 3b3c
00000220: d58d 423c 7467 23bd 7fc7 413c f868 403c
00000230: 63c6 fcbb e6ea fabb f2fc f9bb 00d2 2fbc
00000240: b1b7 103d b9fd f83b 8572 363c 4b6f 433c
00000250: 54be 033c a91a 443c 386d f2bb 6987 543c
00000260: 34a7 9dbc 1841 fc3b 7d0d 4dbc 88ad f5bb
00000270: 1ef9 f53b 4b5d fabb e1bb 13bc 11a2 1a3c
00000280: 3227 fa3b 57c2 fbbb ad14 3c3c fec1 fabb
00000290: 35a3 fe3b b2ea fa3b 5aee 413c 9186 b03c
000002a0: 1ef9 21bc 7a57 3ebc 134e 43bc 7299 3dbc
000002b0: 181c 423c 4cf1 3fbc 0677 fe3b 79c5 4fbc
000002c0: d730 443c 7dad 10bc 9ad6 373c 78d5 f73b
000002d0: bd06 443c 7293 42bc e6a5 5abc 2862 61bc
000002e0: 71d8 7cbc 08d7 f93b 8208 48bc 7068 38bc
000002f0: 2592 cbbb efbf 40bc 5139 3c3c ac27 41bc
00000300: 8a96 26bc 92e6 f7bb 9730 7fbc a8f4 ff3b
00000310: ad03 3fbc 9e39 393c 0540 fc3b a22b 433c
00000320: 3358 3b3c 54da 6cbc 17a2 f93b 46d3 48bc
00000330: 4207 19bc 5d7b 20bc 3be7 3bbc 09bd 60bc
00000340: 8078 fa3b 6fa4 fb3b 559d cc3b 2d85 4bbc
00000350: fdb1 f9bb 95b1 3fbc 66bf 0e3d 01d0 213c
00000360: 914b 583c 77c8 f4bb 8135 fe3b dc91 ee3c
00000370: 081f 7abb 2b32 f53b e37c 3f3c 2ecf a8bc
00000380: 1772 fc3b 0d5f 3ebc e56c 3bbc e71a 383c
00000390: 447d fbbb 51ad 673c aef7 423c ae83 33bc
000003a0: 7ba8 f93b e672 f6bb 8f34 43bc 3c64 a23c
000003b0: f1a5 013c d021 263c 4bb3 a1bb 1705 f63b
000003c0: c388 113c e0a4 c33b 69c8 f5bc 6069 f53b
000003d0: 06f1 313c 7580 413c 15bd c63c cacc 2fbc
000003e0: fca2 2f3c 433e 3c3c 6089 f5bb 97a3 3dbc
000003f0: f52f 3bbb b7be 3e3c c1ff 87bc 4667 febb
-0.011810492 0.010304424 -0.0027203672 -0.011906136 0.0076662474 0.01437621 -0.011900572 -0.007922913
0.007503021 -0.007703122 0.012463178 -0.0076648276 -0.007669436 0.0076236427 0.011839246 0.011912744
-0.011254388 0.019074991 -0.011626582 -0.008053098 -0.010587038 0.051999193 0.008873402 -0.010653159
-0.010486392 -0.033744298 -0.0077035613 0.011818045 -0.007522436 0.01186971 -0.004161675 0.004639501
-0.00946986 -0.0077696787 0.0075088157 0.009105766 -0.012559493 0.0076060677 -0.011241166 -0.0076293168
0.01181879 0.0134351 0.012955856 -0.009342308 0.017372806 0.009840553 0.0118608475 -0.006909935
-0.041333873 0.020881115 0.008665645 0.0075072395 -0.008094704 0.011975377 -0.0075646886 0.007662355
0.011252502 -0.005909707 -0.010301033 0.022167994 0.011899849 -0.011765968 0.0119333835 0.03058427
-0.009573901 0.007426053 0.008553985 0.010207625 0.011967567 0.011602572 -0.011530938 0.053376984
0.0075718057 0.026645783 -0.0132723665 -0.0076827747 0.010033893 0.007868078 0.010155289 0.022291873
-0.008292206 0.013320789 -0.032158934 0.007750742 -0.011969733 -0.011134447 0.012033795 0.00734918
-0.0050276173 0.0077613415 0.0028515821 0.011543484 0.025321534 -0.011488186 0.011871906 0.007587442
-0.0044277785 -0.011845534 -0.007845202 -0.011226916 -0.00774748 0.007498604 0.010167539 0.011536815
-0.007623977 0.0077608083 -0.00755466 -0.007630914 -0.037946858 0.012816137 -0.010805868 -0.007607982
0.011898455 -0.010824488 0.007435097 -0.011844352 -0.03688752 0.0075518317 0.007682797 -0.011957201
0.007874439 0.010767748 -0.011950848 -0.0075540575 0.012700596 0.010986647 0.0076878145 0.011862563
0.0048834695 -0.007508472 0.011309794 -0.005954256 -0.011676206 0.007692497 -0.012462965 0.011461962
0.011874636 -0.039893582 0.011827349 0.0117437765 -0.007714079 -0.0076573966 -0.0076290304 -0.01073122
0.03533143 0.0075986055 0.011135702 0.01192839 0.008040983 0.011969247 -0.007398274 0.012971737
-0.019244768 0.0076981895 -0.012515423 -0.007497493 0.0075065037 -0.007640516 -0.009016962 0.009438054
0.007634067 -0.007683079 0.011479539 -0.00765252 0.0077709206 0.0076573724 0.011836613 0.021548541
-0.009886054 -0.011617536 -0.01192047 -0.011572229 0.011847518 -0.0117152445 0.0077656535 -0.0126813585
0.011974535 -0.008830425 0.011220599 0.0075632893 0.011964497 -0.011875974 -0.013345217 -0.013756312
-0.015432463 0.0076245107 -0.01220906 -0.011255369 -0.00621249 -0.011764511 0.011488275 -0.011789244
-0.010167727 -0.007565328 -0.01557555 0.0078111477 -0.011658591 0.011305241 0.0076980614 0.011912258
0.011434603 -0.01445635 0.0076181996 -0.012257403 -0.009340109 -0.009795037 -0.011468704 -0.0137169445
0.0076437593 0.007679514 0.0062443414 -0.012421888 -0.007620095 -0.011700054 0.0348505 0.009876252
0.01320161 -0.0074701863 0.007757843 0.029122286 -0.0038165469 0.007482787 0.01168749 -0.020606603
0.0077040303 -0.011619342 -0.011439537 0.011236883 -0.007674845 0.014140443 0.011899872 -0.010956688
0.0076189614 -0.007521021 -0.011914386 0.019823186 0.007913099 0.0101398975 -0.0049347035 0.007507931
0.008882704 0.0059705824 -0.03000279 0.0074893683 0.010860687 0.011810412 0.024260083 -0.010729978
0.010720011 0.011489454 -0.007493183 -0.011574647 -0.002856252 0.01164215 -0.016601445 -0.007763776
