wgan_results/unimodal/all/generator.pth (torch_old, 532000 bytes, 7 tensors)

weight f4 [256, 1]
0.20459563 0.26107013 0.013316865 -0.039324585 0.41891629 -0.0007175453 0.32241905 -0.049554642
-0.006557177 0.20591293 -0.09181383 0.0117901275 0.052177925 0.25736424 -0.038830366 -0.31232613
0.2798877 -0.24949652 -0.024751158 -0.00016230671 0.06813701 -0.23388982 -0.001306785 0.4698683
-0.2794864 0.19740884 -0.3348087 0.35190284 0.3604316 -0.36544603 0.3050086 0.16649236
0.38398227 -0.29499617 0.124915615 -0.2663909 -0.02518897 0.07127728 -0.28272387 -0.00035817362
0.43595254 -0.28815496 0.5189382 -0.44592288 0.0901738 0.35247976 0.36557946 0.48454285
0.2568419 -0.3254026 0.6218765 -2.9830631e-05 -0.27312148 -0.35333627 0.059921388 -0.29843974
0.33323666 0.29228282 -0.0010190804 0.0686918 0.32329997 0.2264643 0.07533091 -0.34091142
0.14111973 -0.18012965 0.00071753975 -0.22890449 -0.00078776974 -0.1326626 -0.30088088 -0.15613484
0.48606512 0.19741383 -0.12479847 0.29927891 -0.24394356 0.048340026 -0.3979509 0.25858203
0.25075176 0.18354465 -0.3438596 -0.054539654 0.001066772 -0.015274727 0.07519712 0.00037269222
-0.5203368 -0.055888597 -0.45300114 0.04358668 0.25476515 0.3051814 0.25606743 -0.3801669
0.425655 0.36204854 0.30345508 0.14817666 0.12794444 0.35541707 -0.37532228 0.29045224
0.36816916 0.39211062 0.45606804 -0.40681472 0.08108351 -0.3003093 -0.10293699 0.5582289
-0.34106028 0.00033393092 -0.033854138 0.000286673 0.21929745 -0.0006709815 -0.044029776 -0.34533742
-0.35184035 -0.07847026 -0.2759641 0.43491337 0.0012598507 -0.37013376 -0.000984158 0.05170894
0.34334752 0.4273747 0.0010832271 0.005280524 0.0146851 -0.07108506 0.0002139532 0.015803883
0.33001843 0.23761761 0.5088343 0.0014796249 -0.025526786 -0.38708833 0.45362836 -0.42002875
-0.44075406 -0.0007555769 0.015349539 -0.25196975 0.39296964 0.5396512 -0.00038732067 0.39091384
0.027147993 0.048929207 -0.06618291 -0.107869156 0.0011506616 0.0040283967 0.27015638 -0.3715896
0.18088242 -0.27018303 -0.48860323 0.176115 -0.3657721 -0.18041638 -0.20401657 0.5603878
-0.00043072033 0.34311768 0.46135634 0.3885649 -0.015827661 -0.43176755 0.3841403 0.44756815
0.51188934 0.1579737 0.00055274635 -0.34765887 0.028522734 -0.05790721 -0.35178384 0.19555266
-0.23954071 0.13104592 0.6682556 -0.0148684615 -0.5370738 0.002320545 -0.3356908 0.36188182
-0.39009684 -0.13454668 -0.01336726 -0.029305045 -0.28037962 -0.00080376345 -0.029885212 -0.4863589
-0.0003413925 -0.0015705684 -0.15962823 -0.072527856 0.02740426 0.054339264 0.16037615 -0.61680526
-0.5454185 0.015325668 -0.06658246 -0.00040509953 0.0006302246 0.03688113 0.5168317 0.35858402
-0.00019157707 -0.0016486371 0.3258137 0.27913132 -0.00019046242 -0.2931731 -0.26279864 -0.02914655
-0.2966465 -0.052147344 0.20156835 -0.38090634 -0.3913434 -0.06534095 -0.30679753 -0.309518
0.041146755 -0.432679 -0.14056695 0.44325617 0.048584264 -0.0005983455 -0.24560553 -0.3460249
-0.001392726 -0.43002596 -0.38134807 0.35933837 0.00052359176 0.2301067 0.31149754 -0.18588912
0.26855025 -0.3716536 0.5192334 0.4234783 -0.39631394 -0.0004536976 -0.3083744 -0.45003477
00000000: 8481 513e fcaa 853e fb2e 5a3c d112 21bd
00000010: 327c d63e a619 3cba 1c14 a53e cff9 4abd
00000020: 96dd d6bb d7da 523e e408 bcbd 612b 413c
00000030: 85b8 553d 3fc5 833e 970c 1fbd 36e9 9fbe
00000040: 714d 8f3e 047c 7fbe f1c2 cabc e030 2ab9
00000050: 6b8b 8b3d d080 6fbe 6e48 abba 9492 f03e
00000060: d718 8fbe 8b25 4a3e 0c6c abbe 9c2c b43e
00000070: 7e8a b83e be1b bbbe 162a 9c3e f97c 2a3e
00000080: 5399 c43e bd09 97be c2d3 ff3d 6364 88be
00000090: 1959 cebc d3f9 913d 2fc1 90be 40c9 bbb9
000000a0: 2c35 df3e 0c89 93be 22d9 043f 0150 e4be
000000b0: 0bad b83d 3a78 b43e 3b2d bb3e 0016 f83e
000000c0: c880 833e 2b9b a6be 4c33 1f3f cb3c fab7
000000d0: 94d6 8bbe 7ee8 b4be 2170 753d 18cd 98be
000000e0: ff9d aa3e 18a6 953e aa92 85ba 49ae 8c3d
000000f0: 9387 a53e 42e6 673e 1847 9a3d f18b aebe
00000100: b181 103e e873 38be 4719 3c3a f065 6abe
00000110: 5582 4eba b4d8 07be 0f0d 9abe d0e1 1fbe
00000120: 87dd f83e da26 4a3e 5796 ffbd 163b 993e
00000130: 57cc 79be 3100 463d 38c0 cbbe dd64 843e
00000140: 8962 803e 21f3 3b3e 5e0e b0be f964 5fbd
00000150: eed2 8b3a d942 7abc f300 9a3d e765 c339
00000160: cb34 05bf 71eb 64bd c4ef e7be f287 323d
00000170: 9470 823e bd40 9c3e 451b 833e 3ca5 c2be
00000180: 74ef d93e 6d5e b93e 775e 9b3e 9fbb 173e
00000190: de03 033e 3af9 b53e 3e2a c0be 28b6 943e
000001a0: ab80 bc3e b9c2 c83e c081 e93e 054a d0be
000001b0: 1c0f a63d 24c2 99be a1d0 d2bd 17e8 0e3f
000001c0: 749f aebe 7313 af39 a3aa 0abd 994c 9639
000001d0: 838f 603e cee4 2fba 9158 34bd 11d0 b0be
000001e0: 6b24 b4be 04b5 a0bd 2b4b 8dbe f7ac de3e
000001f0: 9321 a53a 2c82 bdbe ddfe 80ba c1cc 533d
00000200: 3fcb af3e dbd0 da3e 12fb 8d3a 3f08 ad3b
00000210: c699 703c 0b95 91bd a058 6039 2577 813c
00000220: 2df8 a83e 0852 733e f742 023f f9ef c13a
00000230: 8d1d d1bc 7130 c6be fa41 e83e 020e d7be
00000240: 84aa e1be e811 46ba a27c 7b3c 2e02 81be
00000250: 5133 c93e 9526 0a3f 4d11 cbb9 dc25 c83e
00000260: 7865 de3c fe69 483d e88a 87bd 81ea dcbd
00000270: ccd1 963a a400 843b f051 8a3e fe40 bebe
00000280: 3e39 393e 6e55 8abe 342a fabe 7e57 343e
00000290: 7b46 bbbe 12bf 38be b8e9 50be 9375 0f3f
000002a0: 4ed2 e1b9 1fad af3e e636 ec3e fbf1 c63e
000002b0: 03a9 81bc a310 ddbe 0aae c43e a727 e53e
000002c0: 2e0b 033f dcc3 213e 2ee6 103a 5800 b2be
000002d0: 82a8 e93c 1c30 6dbd 031d b4be f53e 483e
000002e0: 294a 75be e730 063e cd12 2b3f d99a 73bc
000002f0: ab7d 09bf 4914 183b aadf abbe 9348 b93e
00000300: c6ba c7be 9bc6 09be 5a02 5bbc 2211 f0bc
00000310: eb8d 8fbe a7b3 52ba d5d1 f4bc 0904 f9be
00000320: edfc b2b9 88db cdba 9575 23be 7c89 94bd
00000330: e67e e03c d992 5e3d a539 243e f3e6 1dbf
00000340: 8ca0 0bbf 8318 7b3c 635c 88bd 8a63 d4b9
00000350: a835 253a ab10 173d 154f 043f 5398 b73e
00000360: 14e2 48b9 1517 d8ba 0ed1 a63e 4dea 8e3e
00000370: deb6 47b9 c91a 96be 8b8d 86be bfc4 eebc
00000380: 0de2 97be 7498 55bd ef67 4e3e 2806 c3be
00000390: 2a5e c8be 7ad1 85bd 9114 9dbe 2579 9ebe
000003a0: 8089 283d 1a88 ddbe c8f0 0fbe 79f2 e23e
000003b0: 4b00 473d 49da 1cba 0480 7bbe 2d2a b1be
000003c0: 218c b6ba 5d2c dcbe 0e40 c3be 33fb b73e
000003d0: a641 093a 17a1 6b3e 9b7c 9f3e b859 3ebe
000003e0: 6b7f 893e 6149 bebe 7bec 043f 26d2 d83e
000003f0: a9e9 cabe 43de edb9 40e3 9dbe f56a e6be

bias f4 [256]
0.28452176 0.1537082 0.59376657 0.3483548 0.06663352 0.00041200485 0.21682559 0.70229304
-0.53674096 0.10227629 0.71214145 0.37513754 -0.36923715 -0.19520845 0.4928751 0.10524088
-0.33060816 -0.19607286 -0.002481874 -0.0015608452 -0.26251313 0.15684116 -0.00060952385 0.3512138
-0.16186307 0.11732336 0.30928323 0.20441455 0.30128855 -0.25655308 0.24455984 -0.17982511
-0.14509733 0.32252213 -0.11580059 0.02414278 0.42786735 -0.25354743 0.7382459 0.00096699566
-0.5415133 0.31691012 0.25786486 -0.017844474 -0.08505806 -0.1262212 -0.2783705 -0.6078595
-0.11722309 0.33525088 0.021794436 0.0004048978 0.2727451 0.3681307 -0.8199441 0.30446926
-0.3618856 0.21615593 0.00078780355 -0.8297141 -0.29232562 0.1651991 -0.46510696 -0.07560368
-0.07674914 -0.102962814 7.598775e-05 -0.010201381 -0.0011587351 0.12825729 0.57407403 0.50039
0.08734988 0.18958396 0.03946147 -0.3007649 0.21861327 0.5766827 0.6426903 0.18169074
0.13500917 -0.12412093 0.39708775 -0.24509838 0.00075618655 -0.4940828 -0.3662477 0.0001429681
-0.09718336 0.49186188 0.52090615 0.48960963 -0.23140307 0.28344938 -0.26407236 0.53164077
-0.1315212 0.25113216 -0.1537771 0.006297814 -0.22235835 0.114887714 0.54265136 -0.20923619
0.26068845 -0.45297354 -0.40115502 0.5926324 -0.106805906 0.046965476 0.45104942 0.002188952
0.21514444 0.001864492 0.26083788 0.0013666613 -0.09055155 -0.0008002257 -0.16328225 0.5973868
-0.088041134 0.09083189 -0.19786228 0.080144875 0.0008350301 -0.29609138 -0.0016869896 -0.7159294
-0.6637825 -0.49852252 -0.27796713 -0.2840283 -0.42889526 0.6333108 0.00012240517 -0.34627703
0.2812258 0.211943 -0.6289252 0.0006318215 -0.42367786 0.60314995 -0.33708006 0.5404187
-0.0773619 -0.0014451474 0.49883217 0.2584814 0.33166224 0.22204213 -0.00103538 -0.42135045
-0.8194148 -0.5028544 -0.3381756 0.64913964 0.0008726565 0.433213 -0.048394285 0.42963076
-0.6428611 0.060250703 0.6044706 -0.22928452 -0.16375361 0.03624576 0.038871147 0.015465815
-5.5872195e-05 -0.027367448 -0.08077955 -0.4497202 -0.47085014 -0.018403346 -0.17232758 -0.5215479
0.0062157437 -0.06570347 -3.2120908e-05 0.43858814 -0.2398987 0.301362 -0.25927773 0.13772413
0.3440586 -0.7925588 0.016541522 0.011099535 -0.042347755 0.63573146 0.35579216 -0.43346766
0.48927468 0.68826306 -0.38495263 0.16708551 0.053844985 0.0013540066 -0.3282793 0.45848227
1.7254662e-05 -0.00017334646 0.026299119 0.8826819 -0.4745855 -0.73604316 0.018609025 -0.07722725
0.06233741 0.48869827 0.43750843 -0.0015145462 -2.1362484e-06 0.55088365 0.033552613 -0.20457064
-0.00015526604 -9.120093e-05 0.13433258 -0.15300909 -0.0014518868 0.26732844 0.2872645 0.23469672
-0.25826266 0.28569305 -0.19939885 0.4561984 0.07217539 0.7663192 -0.2167765 -0.22599341
-0.33889446 0.33136293 -0.02886186 0.07912284 -0.0004521358 -0.00044162426 0.78202754 0.27639815
0.00026099733 0.23387814 0.10589216 -0.58447105 -0.0011254328 0.16381922 -0.37465408 -0.15938954
-0.2731329 0.39520365 0.09482985 0.39261353 0.24957466 -0.0018516928 0.34356466 0.116122626
00000000: d6ac 913e af65 1d3e 1601 183f 8f5b b23e
00000010: 2877 883d 5b02 d839 8707 5e3e 7ac9 333f
00000020: db67 09bf 3b76 d13d e74e 363f 0712 c03e
00000030: a70c bdbe b9e4 47be 205a fc3e 8888 d73d
00000040: 7945 a9be 53c7 48be f0a6 22bb 4695 ccba
00000050: 1f68 86be f89a 203e 74c8 1fba 4cd2 b33e
00000060: 6fbf 25be 3b47 f03d 5f5a 9e3e 0c52 513e
00000070: 7e42 9a3e ed5a 83be e56d 7a3e 1324 38be
00000080: 6594 14be 9f21 a53e dc28 edbd 14c7 c53c
00000090: 6e11 db3e f8d0 81be affd 3c3f fb7d 7d3a
000000a0: 9ea0 0abf 0b42 a23e dd06 843e 932e 92bc
000000b0: ec32 aebd 2140 01be 9486 8ebe ae9c 1bbf
000000c0: a912 f0bd 01a6 ab3e 3f8a b23c 7648 d439
000000d0: 3fa5 8b3e a17b bc3e dbe7 51bf 65e3 9b3e
000000e0: 1249 b9be fb57 5d3e 9a84 4e3a 2568 54bf
000000f0: b4ab 95be f429 293e 8022 eebe 1ad6 9abd
00000100: a72e 9dbd 2bde d2bd 9d5b 9f38 b123 27bc
00000110: b3e0 97ba e155 033e 84f6 123f 8f19 003f
00000120: 7ee4 b23d 4c22 423e 5aa2 213d dbfd 99be
00000130: 28dc 5f3e 7aa1 133f 5a87 243f 230d 3a3e
00000140: d83f 0a3e 1d33 febd 164f cb3e 12fb 7abe
00000150: d23a 463a 6cf8 fcbe d284 bbbe b5e9 1539
00000160: 1208 c7bd 52d5 fb3e 1b5a 053f 1dae fa3e
00000170: edf4 6cbe 4720 913e 7e34 87be 9c19 083f
00000180: 7ead 06be 6594 803e be77 1dbe e55d ce3b
00000190: e8b1 63be 404a eb3d 33eb 0a3f 0342 56be
000001a0: f578 853e 26ec e7be 3164 cdbe c2b6 173f
000001b0: 0ebd dabd df5e 403d f3ef e63e 8574 0f3b
000001c0: d34e 5c3e f861 f43a 8b8c 853e 8b21 b33a
000001d0: 1773 b9bd 3dc6 51ba 7633 27be 57ee 183f
000001e0: e94e b4bd 1206 ba3d 699c 4abe ff22 a43d
000001f0: ece5 5a3a 4a99 97be fa1d ddba 2647 37bf
00000200: a6ed 29bf 583e ffbe b551 8ebe 286c 91be
00000210: 2998 dbbe a820 223f e359 0039 394b b1be
00000220: d4fc 8f3e 9607 593e 3e01 21bf d3a0 253a
00000230: 4eec d8be 0968 1a3f c295 acbe e158 0a3f
00000240: ea6f 9ebd 1a6b bdba ee66 ff3e ad57 843e
00000250: a2cf a93e 035f 633e 96b5 87ba 3fbb d7be
00000260: 2bc5 51bf 11bb 00bf 5a25 adbe 042e 263f
00000270: fdc2 643a 18ce dd3e 1639 46bd 90f8 db3e
00000280: 8c92 24bf 71c9 763d 96be 1a3f 90c9 6abe
00000290: 07af 27be 6f76 143d 5a37 1f3d 5464 7d3c
000002a0: 5058 6ab8 b331 e0bc c06f a5bd ba41 e6be
000002b0: 4513 f1be 9dc2 96bc a476 30be 2a84 05bf
000002c0: 70ad cb3b 8a8f 86bd 90b9 06b8 a08e e03e
000002d0: 01a8 75be 1f4c 9a3e 0dc0 84be 8e07 0d3e
000002e0: 7328 b03e 22e5 4abf 1682 873c d3da 353c
000002f0: d774 2dbd 4cbf 223f 642a b63e 79ef ddbe
00000300: 3682 fa3e 0232 303f 8318 c5be 7718 2b3e
00000310: 8f8c 5c3d ec78 b13a 3914 a8be 30be ea3e
00000320: 1bbe 9037 56c4 35b9 4071 d73c 71f7 613f
00000330: dffc f2be 536d 3cbf f471 983c 5229 9ebd
00000340: 8355 7f3d a936 fa3e 1b01 e03e bd83 c6ba
00000350: 785c 0fb6 b606 0d3f 776e 093d f77a 51be
00000360: e9ce 22b9 2043 bfb8 7b8e 093e 6aae 1cbe
00000370: 3d4d beba 46df 883e 5514 933e 5654 703e
00000380: 013b 84be 5c46 923e 362f 4cbe d692 e93e
00000390: b1d0 933d 7f2d 443f a9fa 5dbe d16a 67be
000003a0: 9383 adbe 67a8 a93e b56f ecbc 280b a23d
000003b0: a40c edb9 ce89 e7b9 f532 483f 0f84 8d3e
000003c0: 78d6 8839 c07d 6f3e fddd d83d e59f 15bf
000003d0: 4283 93ba 3ac0 273e a9d2 bfbe 0337 23be
000003e0: 13d8 8bbe 2258 ca3e 2736 c23d a404 c93e
000003f0: 8090 7f3e 80b4 f2ba b5e7 af3e b3d1 ed3d

weight f4 [256, 256]
-0.10129896 -0.021272793 -0.13365807 0.024376677 0.10757389 -0.00036406692 0.08222772 -0.047707945
-0.00034034738 0.0062353327 -0.046557095 -0.037263583 0.093675524 -0.11285079 -0.053540368 0.090772055
-0.003058549 0.05482511 0.009878867 -0.00032581732 0.0036909156 0.083970755 -0.0008060207 0.053906
-0.08189209 -0.018246813 0.030082542 0.07457418 -0.10881174 -0.072366714 -0.10836449 -0.06042104
0.0030544398 0.07591303 -0.0023751643 -0.17950936 -0.018647049 0.006852985 0.0132123055 0.0017787407
0.015997563 0.01629944 -0.00060002966 -0.22677618 -0.067439035 -0.10499197 -0.07536803 -0.05731024
-0.0166183 0.078174025 0.17016155 0.002142265 0.11530083 0.08933506 -0.031345204 0.07771103
-0.09710124 0.06397154 0.00074018753 0.090889715 0.02331932 -0.015351906 0.02285703 -0.15532306
-0.07020447 0.053878438 -0.0024423702 -0.10542262 0.0039445586 -0.010123596 0.06675083 -0.058063276
0.12137474 -0.07874716 -0.026517803 0.017386813 0.055242173 -0.09907031 -0.0004315754 -0.026981954
0.062093116 -0.034494024 -0.015948774 0.051091664 -0.001176245 -0.023616891 0.10462385 0.0010904523
-0.18714985 -0.016409077 0.048989475 -0.013818784 -0.09914589 -0.101828106 -0.007100078 0.05619338
0.040495057 0.024547838 -0.097307816 0.047981076 -0.042328384 0.14110099 0.049535133 0.0017297898
-0.03055537 -0.037339304 -0.062224414 0.040694326 0.06393519 -0.06074383 -0.019651042 0.10624788
0.13173641 0.0009407686 -0.0074202837 0.0003277602 -0.06429576 0.0005485611 -0.012660278 0.057072245
-0.110744365 -0.039737865 -0.005071715 0.14788218 -0.00013443021 -0.044779304 0.0012788001 -0.039651804
-0.04638339 -0.07447678 0.090176545 -0.00894332 -0.010962684 0.042374402 -0.0024178633 -0.051589463
0.03760655 0.030580806 0.015551028 0.00047203765 0.11002369 -0.0261647 -0.060002387 -0.047891866
-0.13933514 0.0006688133 -0.072861224 0.039905313 -0.0875529 0.13034591 -0.000115273746 0.03087131
0.0048968154 -0.053963717 0.07644684 -0.052148465 0.0010334025 -0.0324794 0.05508482 -0.058729738
-0.010329933 -0.028184436 -0.036794234 -0.08182634 -0.020974671 -0.10831448 -0.11571156 0.25083095
0.0029444548 0.103032395 0.14469014 -0.026338793 0.08815821 -0.23706508 -0.021553004 0.06352474
0.21118023 -0.060224786 0.0012500654 0.03415172 0.07403258 0.017045693 -0.01097749 -0.011354415
0.052049305 0.046430472 0.23728849 0.011556649 -0.13037199 -0.06354884 -0.010663177 0.02099548
0.07862441 0.01632687 0.04596617 -0.006167841 -0.112440586 -0.001415779 0.10904248 0.012337921
-0.00045839965 -0.0014299409 -0.06085762 0.011748093 0.03795123 0.013801467 -0.0057729594 -0.08886486
-0.06631372 0.015161504 -0.011042273 0.0008159719 0.0009599509 -0.032439977 0.15649089 -0.13819169
0.0024199514 0.0008786153 0.026500149 -0.021550566 0.0028207363 -0.00867633 0.057946075 -0.06347543
0.011172107 -0.024272826 -0.10414695 0.06767918 -0.03060912 0.036717188 -0.06998539 -0.01841853
0.102492385 0.03423883 0.02217651 0.1977362 0.036864642 0.003396772 -0.094566315 0.051924497
0.0036227065 0.020143408 -0.02434131 0.022427347 -0.00083742413 -0.02268775 -0.03875411 -0.016871907
-0.1056182 0.08401855 0.16286449 -0.062078685 0.107710555 0.0008893307 0.0012467441 -0.0822853
00000000: d475 cfbd 4844 aebc a9dd 08be 99b1 c73c
00000010: b34f dc3d 3ce0 beb9 0267 a83d 6869 43bd
00000020: a770 b2b9 c351 cc3b a7b2 3ebd b3a1 18bd
00000030: f4d8 bf3d 511e e7bd 254d 5bbd b3e6 b93d
00000040: f071 48bb 4b90 603d f9da 213c 76d2 aab9
00000050: 4ae3 713b dcf8 ab3d 224b 53ba 8acc 5c3d
00000060: 0ab7 a7bd 577a 95bc aa6f f63c 59ba 983d
00000070: b1d8 debd 0035 94bd 34ee ddbd 0d7c 77bd
00000080: ff2c 483b 4a78 9b3d a5a8 1bbb 4dd1 37be
00000090: b2c1 98bc 018f e03b 6d78 583c a224 e93a
000000a0: 520d 833c 6786 853c 4f4b 1dba 0438 68be
000000b0: 7a1d 8abd 0806 d7bd 8e5a 9abd 24be 6abd
000000c0: 1a23 88bc b419 a03d d43e 2e3e 3e65 0c3b
000000d0: d722 ec3d 4df5 b63d d463 00bd f626 9f3d
000000e0: 04dd c6bd 8303 833d 2509 423a 6324 ba3d
000000f0: 2908 bf3c 9086 7bbc ab3e bb3c 020d 1fbe
00000100: 5cc7 8fbd a3af 5c3d 2c10 20bb d1e7 d7bd
00000110: 5b41 813b 70dd 25bc a9b4 883d c2d3 6dbd
00000120: 5293 f83d 3146 a1bd dd3b d9bc ca6e 8e3c
00000130: 9e45 623d 60e5 cabd 1245 e2b9 4209 ddbc
00000140: 5a55 7e3d 9b49 0dbd 01a7 82bc 7e45 513d
00000150: 3c2c 9aba 3678 c1bc 0745 d63d 82ed 8e3a
00000160: 36a4 3fbe 546c 86bc 30a9 483d 2e68 62bc
00000170: 000d cbbd 418b d0bd c5a7 e8bb 082b 663d
00000180: 25de 253d 8c18 c93c 5249 c7bd ce87 443d
00000190: 8760 2dbd c77c 103e 5ae5 4a3d 1dba e23a
000001a0: 414f fabc 19f1 18bd 07df 7ebd 18af 263d
000001b0: 74f0 823d 86ce 78bd 39fb a0bc 7d98 d93d
000001c0: e9e5 063e e99d 763a da25 f3bb 3bd7 ab39
000001d0: 7fad 83bd 50cd 0f3a 0e6d 4fbc 96c4 693d
000001e0: f1cd e2bd 2cc4 22bd a130 a6bb 6d6e 173e
000001f0: d6f5 0cb9 816a 37bd 699d a73a ee69 22bd
00000200: 82fc 3dbd 4887 98bd 7bae b83d 0187 12bc
00000210: d49c 33bc c890 2d3d 0475 1ebb 794f 53bd
00000220: 5309 1a3d 9984 fa3c bdc9 7e3c d27b f739
00000230: 1a54 e13d 5a57 d6bc 10c5 75bd 432a 44bd
00000240: dfad 0ebe 4d53 2f3a 4438 95bd c173 233d
00000250: ef4e b3bd 6679 053e 1fbf f1b8 d4e5 fc3c
00000260: 7775 a03b 0f09 5dbd 2990 9c3d a199 55bd
00000270: 3c73 873a 1f09 05bd 9fa0 613d 988e 70bd
00000280: e13e 29bc 0ce3 e6bc 8db5 16bd 9194 a7bd
00000290: 13d3 abbc fbd3 ddbd 2ffa ecbd ea6c 803e
000002a0: c1f7 403b a602 d33d a729 143e 74c4 d7bc
000002b0: 4b8c b43d 30c1 72be ed8f b0bc 4219 823d
000002c0: a13f 583e 44ae 76bd 3cd9 a33a ade2 0b3d
000002d0: 659e 973d 69a3 8b3c eeda 33bc de07 3abc
000002e0: a731 553d e12d 3e3d c1fb 723e 1958 3d3c
000002f0: 3c80 05be e525 82bd 9bb4 2ebc b6fe ab3c
00000300: d605 a13d eebf 853c 0647 3c3d 9a1b cabb
00000310: 4047 e6bd a991 b9ba aa51 df3d fe24 4a3c
00000320: 5c55 f0b9 db6c bbba d745 79bd 137b 403c
00000330: c072 1b3d 8c1f 623c 182b bdbb c8fe b5bd
00000340: 7dcf 87bd f567 783c a6ea 34bc f2e6 553a
00000350: 37a5 7b3a c8df 04bd 263f 203e 1f82 0dbe
00000360: 0c98 1e3b e052 663a d716 d93c d08a b0bc
00000370: 1adc 383b 2a27 0ebc dd58 6d3d 68ff 81bd
00000380: 370b 373c ced7 c6bc ff4a d5bd 629b 8a3d
00000390: fabf fabc c364 163d 8054 8fbd 75e2 96bc
000003a0: 87e7 d13d 043e 0c3d 83ab b53c 5c7b 4a3e
000003b0: 61ff 163d 619c 5e3b fcab c1bd c8ae 543d
000003c0: ee6a 6d3b ca03 a53c 6d67 c7bc 8eb9 b73c
000003d0: 9586 5bba a9db b9bc a1bc 1ebd f436 8abc
000003e0: 5b4e d8bd eb11 ac3d f3c5 263e 3846 7ebd
000003f0: 5a97 dc3d f921 693a ca69 a33a 3285 a8bd

bias f4 [256]
-0.075433925 0.033451214 0.074151605 0.034968387 -0.1189797 0.08998392 -0.041015536 -0.07193053
-0.02753354 0.018523429 -0.1432703 0.029009707 0.07579691 -0.0203478 0.069988 -0.0030695286
0.079670824 0.10118503 0.030051438 0.09477123 0.058798585 -0.018171934 -0.15273194 0.11640938
-0.014033441 0.085155465 -0.062545985 0.12022382 -0.042047735 -0.0028266641 0.03072302 0.06284688
-0.024107752 -0.05101165 -0.041824292 -0.056171834 0.079430364 0.030565247 0.14511862 0.0805747
0.08767882 0.051957298 0.06973478 -0.027838692 -0.05103144 -0.044426464 0.0030413403 0.025953537
-0.03940092 -0.12117929 0.04559979 -0.013511112 0.015865682 0.07291634 -0.03958801 -0.013435901
-0.11169917 -0.03442825 -0.035063304 -0.0643868 -0.04225222 -0.07894938 -0.1278801 -0.09868675
0.07957535 0.09627474 -0.045398448 -0.05454489 0.0261057 -0.09397109 0.11553322 -0.017468914
-0.045821384 0.07975418 -0.02957304 -0.040175024 0.020356312 0.07821115 -0.10603336 -0.12230446
-0.008159837 0.084193975 -0.07605308 -0.02350448 -0.09805986 0.10759293 -0.046410013 0.11719266
0.005724349 -0.038630635 -0.111369416 0.0153415995 0.05281088 0.052923746 -0.015523739 -0.05382103
0.08182603 0.060713917 -0.016365182 -0.013804608 0.058034196 -0.0060644145 0.050843183 -0.05680984
-0.07546391 0.06826754 -0.01984018 0.04022068 0.12737827 -0.13640933 0.05216721 -0.046671692
-0.11178033 0.018553142 -0.004574034 -0.02237062 -0.037357874 -0.04786809 0.042357966 0.14254631
-0.05056046 -0.10932958 -0.019699767 -0.0095059555 0.12100693 -0.03980111 0.11359353 0.074581616
0.030480834 0.000485417 0.022171551 -0.03748228 -0.0433311 -0.1918896 0.055232357 0.002023935
-0.05470209 0.03028635 -0.07344072 0.0034540626 -0.082789525 -0.06893929 -0.03040019 0.13054308
0.0028331385 0.04486126 0.09736874 0.028140621 0.1682245 -0.04416867 -0.032374304 -0.14694369
-0.09254837 0.065313585 -0.01728016 0.042893313 -0.08248965 0.01634331 -0.095725454 0.13382308
-0.13284199 0.026082698 0.10954992 -0.05253192 -0.10458818 -0.05371817 -0.020937067 0.09286194
-0.089220904 0.15180458 0.032467954 -0.05704267 0.16119978 -0.054135527 0.047687925 0.04752517
0.029448042 0.102339946 0.03513305 -0.13908634 0.05571456 -0.109981194 -0.117876135 -0.025634242
0.15128753 0.08579561 -0.024756826 -0.020188186 0.12999462 -0.075985834 0.097789295 -0.059726227
0.059081744 -0.16546614 0.0152154155 -0.0489862 -0.014477828 -0.042977713 0.07835568 -0.06733418
-0.083527125 0.031402614 0.041753963 0.067962475 -0.00097036536 0.0026753864 0.045143668 0.04784965
0.024867868 -0.064013995 0.07054451 0.05570123 0.10134103 0.060723003 -0.08535697 0.13017848
0.037791573 0.040105723 0.02189569 0.002354986 -0.090813205 -0.023464749 -0.008382687 -0.00047758478
-0.057213955 -0.1197276 -0.025644647 0.11579486 -0.092623465 -0.12288275 0.11345765 -0.05603387
-0.0074932603 -0.01655887 -0.11351365 0.028600657 0.11001556 -0.023918964 0.008633012 0.037075825
-0.09338291 -0.017569043 0.0043112966 0.092577286 -0.11825971 0.048247974 -0.10373256 0.03168487
0.048972435 -0.068282865 -0.12749685 -0.052564368 -0.1823187 -0.028908854 0.048585933 -0.039662864
00000000: 1a7d 9abd 2404 093d ccdc 973d 033b 0f3d
00000010: a1ab f3bd 7d49 b83d e8ff 27bd 5050 93bd
00000020: 058e e1bc 72be 973c 73b5 12be c4a5 ed3c
00000030: 693b 9b3d 6eb0 a6bc de55 8f3d 252a 49bb
00000040: 752a a33d 193a cf3d 6f2e f63c 6b17 c23d
00000050: c9d6 703d 4fdd 94bc c365 1cbe 0b68 ee3d
00000060: 85ec 65bc fd65 ae3d 1c18 80bd e837 f63d
00000070: 3f3a 2cbd 8e3f 39bb d8ae fb3c ddb5 803d
00000080: 9f7d c5bc 98f1 50bd f34f 2bbd 7014 66bd
00000090: 63ac a23d f863 fa3c fa99 143e 5904 a53d
000000a0: f490 b33d 2dd1 543d 1cd1 8e3d f80d e4bc
000000b0: 5806 51bd 86f8 35bd 3951 473b 839c d43c
000000c0: dc62 21bd d92c f8bd d8c6 3a3d b65d 5dbc
000000d0: bff8 813c 2955 953d 0a27 22bd 4122 5cbc
000000e0: 89c2 e4bd a304 0dbd 8a9e 0fbd 3add 83bd
000000f0: aa10 2dbd 36b0 a1bd 00f3 02be 471c cabd
00000100: 67f8 a23d b12b c53d b9f3 39bd 766a 5fbd
00000110: 9fdb d53c ea73 c0bd ae9c ec3d f81a 8fbc
00000120: 34af 3bbd 2956 a33d 2943 f2bc 918e 24bd
00000130: 48c2 a63c 2b2d a03d 0528 d9bd c37a fabd
00000140: d6b0 05bc e46d ac3d b8c1 9bbd 788c c0bc
00000150: 9cd3 c8bd af59 dc3d 6d18 3ebd b502 f03d
00000160: 5293 bb3b 283b 1ebd a615 e4bd 555b 7b3c
00000170: 3950 583d 92c6 583d 4857 7ebc 7173 5cbd
00000180: 6894 a73d 28af 783d 4610 86bc b92c 62bc
00000190: 44b5 6d3d ffb7 c6bb f140 503d 6fb1 68bd
000001a0: d38c 9abd dacf 8b3d e087 a2bc 71be 243d
000001b0: 736f 023e e3ae 0bbe 49ad 553d d12a 3fbd
000001c0: 16ed e4bd c2fc 973c c7e1 95bb 9742 b7bc
000001d0: 9204 19bd 5511 44bd 8c7f 2d3d a9f7 113e
000001e0: 7c18 4fbd 30e8 dfbd 6861 a1bc debe 1bbc
000001f0: 7bd2 f73d 7d06 23bd baa3 e83d 3fbe 983d
00000200: f1b2 f93c 917f fe39 1da1 b53c 0587 19bd
00000210: f47b 31bd b57e 44be 533b 623d ffa3 043b
00000220: 4c0f 60bd 141b f83c 1768 96bd 8e5d 623b
00000230: 8e8d a9bd 0b30 8dbd d209 f9bc 16ad 053e
00000240: 2dac 393b 71c0 373d 4369 c73d 2987 e63c
00000250: 0b43 2c3e 35ea 34bd eb9a 04bd 6878 16be
00000260: 008a bdbd 21c3 853d 1f8f 8dbc e6b0 2f3d
00000270: 55f0 a8bd 68e2 853c b50b c4bd eb08 093e
00000280: bb07 08be 62ab d53c b55b e03d b62b 57bd
00000290: 5432 d6bd 9507 5cbd 3684 abbc 672e be3d
000002a0: 73b9 b6bd a972 1b3e 1efd 043d 93a5 69bd
000002b0: 8e11 253e 37bd 5dbd 6a54 433d c1a9 423d
000002c0: 053d f13c 9b97 d13d ace7 0f3d a66c 0ebe
000002d0: f334 643d d23d e1bd 0b69 f1bd e7fe d1bc
000002e0: 1eeb 1a3e 9cb5 af3d d4ce cabc b261 a5bc
000002f0: 4f1d 053e 769e 9bbd c145 c83d 7da3 74bd
00000300: b3ff 713d f56f 29be 144a 793c c1a5 48bd
00000310: 6934 6dbc 6609 30bd f178 a03d 81e6 89bd
00000320: 4510 abbd 07a0 003d 3406 2b3d e92f 8b3d
00000330: 1e60 7eba 8955 2f3b 91e8 383d fffd 433d
00000340: b3b7 cb3c c519 83bd a479 903d f926 643d
00000350: e38b cf3d afb8 783d a3cf aebd 824d 053e
00000360: 56cb 1a3d e645 243d 975e b33c 1c56 1a3b
00000370: 46fc b9bd 2539 c0bc 8a57 09bc 5864 fab9
00000380: 2e59 6abd be33 f5bd b914 d2bc db25 ed3d
00000390: 5fb1 bdbd f4a9 fbbd 7c5c e83d c583 65bd
000003a0: 068a f5bb 78a6 87bc d879 e8bd ed4b ea3c
000003b0: d74f e13d b4f1 c3bc 7a71 0d3c d2dc 173d
000003c0: 8a3f bfbd f4ec 8fbc c745 8d3b 2999 bd3d
000003d0: 2632 f2bd ab9f 453d bd71 d4bd ffc7 013d
000003e0: 5297 483d e3d7 8bbd 898e 02be bc4d 57bd
000003f0: c1b1 3abe 43d2 ecbc 0b02 473d 8775 22bd

weight f4 [256, 256]
0.06084206 -0.064119466 0.08336604 -0.06645371 0.058713045 -0.0019528179 -0.0063590035 0.05401807
0.044470254 -0.062405106 0.054520637 0.08001042 0.20331112 -0.017563334 -0.040395264 -0.015935712
0.0008509886 -0.05020497 -0.08749621 -0.012096716 0.0121963415 -0.00693275 -0.31140348 0.26385
-0.03267524 0.012046458 0.05746161 -0.062105052 -0.081775226 -0.10149495 0.060586914 -0.056776825
-0.10093682 0.03524066 0.061291415 -0.18814662 -0.07026382 -0.039169773 0.33619678 -0.022738567
0.039002392 0.00616777 0.0074329907 0.04424414 0.060642306 -0.029919792 0.009101759 -0.0058770967
0.06972962 -0.2954197 -0.0054550706 -0.06848687 -0.015970157 0.0525794 -0.0054170266 0.05300769
-0.09102075 0.05752534 -0.0028350654 -0.06958055 -0.06906162 0.048177976 0.01649323 0.051411856
0.0518924 0.013601903 0.047729917 0.08649882 0.066666275 0.06582145 -0.056038134 -0.004958754
0.059463028 -0.052004572 -0.10022478 0.016603097 0.053413045 0.028994882 -0.08033742 0.04627659
-0.016050203 -0.02365223 -0.12420876 0.02358115 0.059961457 -0.06967277 0.059486773 -0.023440557
-0.07021478 0.10257499 0.06037329 0.091429934 -0.024711054 -0.05881235 -0.0008459375 0.06932591
-0.061761715 -0.05552163 0.006013115 -0.07906451 -0.0635358 -0.078168936 -0.050821394 -0.040376715
0.00089571084 -0.0019891723 -0.08051045 0.024244213 0.3815828 0.07217301 0.010041773 0.0757411
-0.016486727 0.05195666 -0.07240579 0.06611852 -0.08510031 -0.009425846 -0.07155696 0.02833247
0.09373914 0.017627427 0.06275583 -0.008260215 0.24196485 -0.041318566 0.009655076 -0.054142874
0.0075689433 -0.072409384 -0.03108356 -0.024122544 0.016876522 -0.012969308 0.0014780877 -0.008920845
0.031830765 -0.058435205 0.05790876 0.08926218 0.054523747 -0.08498116 0.016994204 0.06413933
-0.020341622 0.07432158 -0.04680786 -0.021063266 0.2747391 -0.042636722 -0.017091418 -0.3519427
0.051808845 0.019433854 -0.0025265915 -0.053921398 0.072335385 0.000169249 0.04764869 0.04546403
-0.33623382 0.068639845 0.003184741 -0.08681731 0.058772612 -0.015918788 -0.0029897124 -0.052761234
0.054431297 0.28169245 -0.12506232 -0.0075009647 0.3553178 0.010368267 0.015858183 -0.0663537
0.0012812462 -0.0037717365 0.07369723 -0.28391066 0.0015280658 -0.032693848 0.07051363 0.01743523
0.34460893 0.011168318 0.06188391 0.0075268415 -0.012272464 -0.028363079 0.30010182 0.063631676
0.08081382 -0.33750236 0.006399594 -0.05088064 0.016498914 0.009846424 -0.04687576 0.05254176
0.05531324 0.056529704 -0.035973646 -0.022269389 0.0874453 0.022317927 0.046478074 -0.06504932
-0.008552605 0.03844874 0.028237374 -0.088856004 -0.061232693 -0.018841896 -0.03205936 0.016806139
-0.022051742 -0.064216085 -0.025335545 -0.060214132 0.06591388 -0.0726272 0.016599527 -0.0645945
0.05726099 -0.31189746 -0.102655075 0.0146852685 0.018996676 -0.020696815 -0.057571236 -0.14083879
-0.018998675 0.015716903 0.049060807 0.07887213 -0.057734437 0.013042396 0.030733163 0.014120578
-0.05759577 -0.06027675 0.027501505 -0.062275793 0.060122993 0.07132068 -0.23388976 0.056452964
-0.07337683 0.06187081 -0.33377868 -0.11103492 0.03624143 -0.0014632554 0.032884244 -0.105614305
00000000: 8635 793d 1151 83bd d0bb aa3d e218 88bd
00000010: 177d 703d b2f5 ffba 305f d0bb 0d42 5d3d
00000020: 7126 363d 7f9c 7fbd 0851 5f3d 81dc a33d
00000030: ca30 503e fbe0 8fbc 8175 25bd 9c8b 82bc
00000040: e114 5f3a baa3 4dbd 3731 b3bd 4e31 46bc
00000050: 2ad3 473c 1f2c e3bb 4770 9fbe 5917 873e
00000060: 79d6 05bd 825e 453c dd5c 6b3d de61 7ebd
00000070: c579 a7bd 96dc cfbd fc29 783d d18e 68bd
00000080: f7b7 cebd 8358 103d b50c 7b3d 82a9 40be
00000090: 7ae6 8fbd 7c70 20bd fc21 ac3e 3b46 babc
000000a0: f9c0 1f3d 011b ca3b 7290 f33b 5839 353d
000000b0: 1164 783d 5a1a f5bc 8b1f 153c a994 c0bb
000000c0: 67ce 8e3d 4041 97be 73c0 b2bb d842 8cbd
000000d0: d9d3 82bc 7f5d 573d 5081 b1bb 971e 593d
000000e0: 1669 babd b19f 6b3d 81cc 39bb 3f80 8ebd
000000f0: 2e70 8dbd 4556 453d cf1c 873c 3d95 523d
00000100: 208d 543d 84da 5e3c 7280 433d 4b26 b13d
00000110: 5488 883d 65cd 863d 3e88 65bd 0b7d a2bb
00000120: 818f 733d bf02 55bd a642 cdbd 3803 883c
00000130: a3c7 5a3d ad86 ed3c f287 a4bd 868c 3d3d
00000140: b77b 83bc 52c2 c1bc 2a61 febd 422d c13c
00000150: 259a 753d 99b0 8ebd 67a8 733d 6906 c0bc
00000160: c4cc 8fbd d612 d23d fc49 773d 9e3f bb3d
00000170: d66e cabc 38e5 70bd e8c1 5dba befa 8d3d
00000180: daf9 7cbd a66a 63bd aa09 c53b 93ec a1bd
00000190: 0f1f 82bd 0917 a0bd 182a 50bd 0e62 25bd
000001a0: 23ce 6a3a c65c 02bb aae2 a4bd cd9b c63c
000001b0: d25e c33e 71cf 933d 4086 243c 261e 9b3d
000001c0: 2c0f 87bc 82d0 543d 7d49 94bd 2669 873d
000001d0: 1249 aebd dd6e 1abc 758c 92bd 7f19 e83c
000001e0: 4efa bf3d 6567 903c 2186 803d da55 07bc
000001f0: a2c5 773e a83d 29bd 5330 1e3c ebc4 5dbd
00000200: e604 f83b 5f4b 94bd f3a2 febc a49c c5bc
00000210: a240 8a3c 387d 54bc 65bc c13a bc28 12bc
00000220: fa60 023d c159 6fbd bc31 6d3d 17cf b63d
00000230: 4b54 5f3d 9a0a aebd 6e37 8b3c 7b5b 833d
00000240: 79a3 a6bc ea35 983d 99b9 3fbd df8c acbc
00000250: 9aaa 8c3e d8a3 2ebd 4d03 8cbc d531 b4be
00000260: 8335 543d bf33 9f3c 2c95 25bb afdc 5cbd
00000270: 9324 943d 6f78 3139 462b 433d 7e38 3a3d
00000280: d726 acbe 0c93 8c3d 16b7 503b 46cd b1bd
00000290: 8dbb 703d 1e68 82bc 0def 43bb 2a1c 58bd
000002a0: 5af3 5e3d fe39 903e 5610 00be a7ca f5bb
000002b0: 37ec b53e aadf 293c 05e9 813c 73e4 87bd
000002c0: 7def a73a 3d2f 77bb 93ee 963d bd5c 91be
000002d0: 6149 c83a fce9 05bd 7369 903d 54d4 8e3c
000002e0: 9570 b03e 52fb 363c fc79 7d3d b9a3 f63b
000002f0: 7212 49bc b059 e8bc f2a6 993e 5351 823d
00000300: b781 a53d 1ccd acbe afb3 d13b 3868 50bd
00000310: bb28 873c e552 213c cc00 40bd 0736 573d
00000320: 2390 623d b18b 673d 1a59 13bd 4b6e b6bc
00000330: 8516 b33d 16d4 b63c cb5f 3e3d 9438 85bd
00000340: 3a20 0cbc 6d7c 1d3d 1152 e73c 23fa b5bd
00000350: 22cf 7abd 525a 9abc ad50 03bd 07ad 893c
00000360: dba5 b4bc b983 83bd 7d8c cfbc 18a3 76bd
00000370: dbfd 863d 92bd 94bd bbfb 873c 1f4a 84bd
00000380: 808a 6a3d 06b1 9fbe d33c d2bd 7b9a 703c
00000390: eb9e 9b3c 5e8c a9bc d1cf 6bbd 0b38 10be
000003a0: 1ca3 9bbc bcc0 803c fcf3 483d b687 a13d
000003b0: f27a 6cbd c6af 553c 1dc4 fb3c ff59 673c
000003c0: 8be9 6bbd c1e4 76bd d64a e13c e714 7fbd
000003d0: 8743 763d 9410 923d cc80 6fbe 393b 673d
000003e0: 9746 96bd 3f6c 7d3d 0ae5 aabe 4766 e3bd
000003f0: e571 143d b4ca bfba a1b1 063d 504c d8bd

bias f4 [256]
0.3002449 -0.29392815 -0.32349595 -0.0029399574 -0.010757303 0.33669028 0.054404255 -0.06445381
-0.3175158 0.26673982 0.039323494 0.17666404 -0.04749323 -0.081598625 -0.3448781 0.013524223
0.058099296 0.34769812 -0.051471986 0.3293406 -0.005469096 0.017425109 0.3101403 0.28051957
-0.0039427946 -0.27927354 0.015561262 -0.0051003937 0.0074536167 -0.029358942 -0.2707729 -0.30575135
0.32495093 0.034296773 0.28463283 0.3006012 0.29703537 0.35944006 0.29839367 0.04188195
0.06817937 -0.0062547964 0.30974323 0.33249155 -0.3051584 -0.28460455 -0.00950209 0.06375883
-0.30506292 0.34110585 -0.08333891 -0.090349734 -0.029274927 -0.33682778 -0.06035115 -0.27011347
-0.36804923 0.2994983 -0.3296504 0.30346885 -0.0066892453 -0.06517836 -0.0027026853 -0.31709552
-0.30649152 0.26516235 0.041836906 -0.048661545 -0.034759138 -0.3085374 -0.27115005 -0.063260324
0.3254164 0.2941516 0.3104886 -0.294471 0.25628334 -0.28611237 0.30613762 0.045534663
0.300624 0.33748895 0.2755374 0.03607756 0.32070315 -0.33072335 0.27069464 -0.31118459
-0.010321771 0.29199225 -0.017370533 -0.042960633 0.25501254 0.04217684 -0.05934617 -0.055893335
0.28179666 -0.01868085 0.28049242 0.27113122 -0.2953603 -0.056273717 0.03682121 0.29744112
0.012099024 0.0423775 0.30434096 -0.044262428 -0.029412193 0.16751918 0.2767663 -0.016351301
0.009035942 -0.047389574 0.03071698 0.0041508363 0.32979587 0.30306447 0.019833243 0.0466927
-0.28881955 0.06846096 -0.32000092 0.28093883 0.30045012 -0.27276036 0.04783699 0.29425985
-0.34961823 -0.055375066 0.22138138 -0.06632493 -0.33061168 -0.025810597 0.2565083 -0.27551538
-0.036318865 -0.33341458 0.014374195 0.2958043 0.01218349 0.29677507 0.00737704 -0.000113695656
-0.19522765 -0.33618027 0.07916194 0.30560452 -0.010293931 -0.061459407 0.051643617 -0.26378432
-0.051188905 0.28660423 0.30551657 0.30295938 -0.057982612 0.28237122 -0.24426685 -0.056620672
0.06200839 0.32340604 -0.27586916 -0.32201058 0.07153313 -0.014616322 -0.04896258 0.016804429
0.009774077 -0.11482233 -0.28447685 0.055062886 0.032387745 0.3296701 0.0071942224 -0.25455722
-0.028330756 0.02709828 0.008429731 -0.31109858 -0.07061761 -0.002130908 -0.2619341 0.27396178
0.27147922 -0.0019137204 0.3155669 0.04285564 -0.0050505744 0.28116837 -0.31521538 -0.040808093
-0.089211576 -0.33086446 -0.26467305 -0.31761068 -0.0038517588 0.2507817 -0.32021376 -0.31071523
-0.2816946 -0.2871732 0.3164856 0.049264498 0.34258187 0.29865938 0.32656354 0.3436338
0.29131943 0.34125113 0.27834374 0.3358307 -0.30609348 0.30603594 0.00074791623 -0.037018392
-0.0887645 0.29357603 -0.009813223 0.2818329 0.018195204 0.3122349 -0.014811017 -0.046619352
-0.051204357 0.32644853 0.038425207 -0.35278544 -0.025295451 0.010625389 -0.05889884 -0.005636755
-0.046300057 0.051859718 -0.30203173 0.28954735 0.029515013 0.03667361 -0.0004521126 -0.29517835
-0.23718038 -0.3048547 0.046256147 -0.3455293 0.27306753 -0.035324845 0.025271337 -0.29510266
0.011391157 -0.30470353 0.19941801 -0.27918893 0.29646653 -0.0012959559 0.03489006 -0.3274137
00000000: b3b9 993e c07d 96be 43a1 a5be 4dac 40bb
00000010: 663f 30bc ab62 ac3e ffd6 5e3d 5c00 84bd
00000020: 6e91 a2be 1f92 883e ac11 213d 6be7 343e
00000030: 4388 42bd 2e1d a7bd dd93 b0be b494 5d3c
00000040: 87f9 6d3d 7d05 b23e 4ad4 52bd 559f a83e
00000050: 1a36 b3bb 1abf 8e3c b6ca 9e3e 43a0 8f3e
00000060: 8f32 81bb f1fc 8ebe aaf4 7e3c 3421 a7bb
00000070: 783d f43b 2a82 f0bc bfa2 8abe 718b 9cbe
00000080: f85f a63e c67a 0c3d 65bb 913e 67e8 993e
00000090: 0515 983e 8708 b83e 0ec7 983e 688c 2b3d
000000a0: a0a1 8b3d 09f5 ccbb aa96 9e3e 553c aa3e
000000b0: b93d 9cbe b0b7 91be a7ae 1bbc fd93 823d
000000c0: 3531 9cbe 6da5 ae3e 97ad aabd 4809 b9bd
000000d0: f9d1 efbc b174 acbe c432 77bd 504c 8abe
000000e0: f370 bcbe d757 993e f0c7 a8be 4560 9b3e
000000f0: 7531 dbbb 3b7c 85bd 891f 31bb 585a a2be
00000100: 75ec 9cbe 5cc3 873e 2d5d 2b3d 5451 47bd
00000110: 995f 0ebd 9df8 9dbe 2ed4 8abe a18e 81bd
00000120: fa9c a63e 0a9b 963e 5df8 9e3e e7c4 96be
00000130: 9237 833e 527d 92be 12be 9c3e 8e82 3a3d
00000140: 64eb 993e 5acb ac3e 3d13 8d3e 10c6 133d
00000150: 3433 a43e 9254 a9be 7d98 8a3e 9653 9fbe
00000160: a51c 29bc 0280 953e a64c 8ebc 7df7 2fbd
00000170: 0191 823e 9fc1 2c3d f814 73bd 69f0 64bd
00000180: a747 903e 9508 99bc b49c 8f3e b6d1 8a3e
00000190: 7739 97be 457f 66bd d6d1 163d 344a 983e
000001a0: fc3a 463c 0894 2d3d 94d2 9b3e 854c 35bd
000001b0: d7f1 f0bc 268a 2b3e 50b4 8d3e 2af3 85bc
000001c0: 7d0b 143c 921b 42bd 2da2 fb3c bd03 883b
000001d0: 01db a83e 442b 9b3e 5379 a23c d840 3f3d
000001e0: 28e0 93be 4335 8c3d 29d7 a3be 37d7 8f3e
000001f0: 99d4 993e 3fa7 8bbe b8f0 433d 3aa9 963e
00000200: 2901 b3be f7d0 62bd cdb1 623e 5dd5 87bd
00000210: ef45 a9be bf70 d3bc 0e55 833e 5a10 8dbe
00000220: 17c3 14bd 51b5 aabe be81 6b3c a973 973e
00000230: 439d 473c e7f2 973e 19bb f13b e46f eeb8
00000240: c2e9 47be d21f acbe a81f a23d 3278 9c3e
00000250: e0a7 28bc dcbc 7bbd 4288 533d bd0e 87be
00000260: 75ab 51bd cabd 923e ab6c 9c3e 7e1d 9b3e
00000270: 2d7f 6dbd f692 903e 1721 7abe 14eb 67bd
00000280: 82fc 7d3d 7a95 a53e b93e 8dbe 92de a4be
00000290: f67f 923d 4c79 6fbc fc8c 48bd 71a9 893c
000002a0: 7323 203c f827 ebbd f3a6 91be 9f89 613d
000002b0: 03a9 043d 85ca a83e 83bd eb3b 5355 82be
000002c0: e715 e8bc 36fd dd3c db1c 0a3c 5048 9fbe
000002d0: f79f 90bd b4a6 0bbb 3a1c 86be b844 8c3e
000002e0: 53ff 8a3e cdd5 faba fc91 a13e 6589 2f3d
000002f0: 4a7f a5bb 4df5 8f3e e963 a1be 6326 27bd
00000300: 8fb4 b6bd 1167 a9be 3a83 87be de9d a2be
00000310: ca6d 7cbb 7566 803e 0ff3 a3be 1116 9fbe
00000320: 463a 90be 5e08 93be 670a a23e 92c9 493d
00000330: e466 af3e e2e9 983e 5633 a73e c5f0 af3e
00000340: d227 953e 78b8 ae3e 1283 8e3e 00f2 ab3e
00000350: 49b8 9cbe beb0 9c3e cf0f 443a 99a0 17bd
00000360: 2aca b5bd 994f 963e a4c7 20bc 674c 903e
00000370: 1c0e 953c 41dd 9f3e e8a9 72bc eff3 3ebd
00000380: a9bb 51bd 4324 a73e c063 1d3d 4ba0 b4be
00000390: 6838 cfbc 1d16 2e3c e93f 71bd 87b4 b8bb
000003a0: 21a5 3dbd db6a 543d e7a3 9abe 8d3f 943e
000003b0: 78c9 f13c 1137 163d 8709 edb9 9e21 97be
000003c0: 6adf 72be ea15 9cbe 1677 3d3d 37e9 b0be
000003d0: 82cf 8b3e c9b0 10bd d605 cf3c b217 97be
000003e0: faa1 3a3c 1a02 9cbe 3c34 4c3e daf1 8ebe
000003f0: 76ca 973e 10dd a9ba e1e8 0e3d c5a2 a7be

weight f4 [1, 256]
0.13187954 -0.04385379 -0.0904028 -0.0004842518 0.00012712431 0.09642795 -0.00041521224 0.00035590288
-0.09706815 -0.046204943 -0.0005710777 0.01437844 0.000314266 0.0028244187 -0.13541333 -0.00027022677
-0.00061369705 0.14555259 3.5978588e-05 0.12091115 -0.00047777756 0.020489799 0.09266152 -0.055422544
-0.00010215847 -0.025923943 0.00028964292 0.00036790242 0.0011740269 7.723078e-05 -0.051876534 -0.07846096
0.12916103 0.00016078855 0.084799565 0.054005817 -0.09758825 0.09141909 0.11804609 0.00044814413
0.00053256284 -0.017479489 0.09633484 0.11968301 -0.08270046 0.05750554 0.00017900759 -0.00053623
-0.113325104 0.11620204 0.00042649294 -0.004949613 0.00018726767 -0.12180895 0.0015354282 -0.05836461
-0.11045324 0.07049176 -0.091962084 0.0856214 -0.00044780792 -0.0016001487 -0.00015639127 -0.081172734
-0.12459535 0.048014868 0.00089635694 0.00085810944 -0.0020804326 -0.100764714 -0.027771166 -0.00061406073
0.07655243 0.09713 -0.1227213 -0.14629732 -0.02654337 0.057319466 0.10890894 -3.8743405e-05
-0.1437202 0.13507898 -0.074277215 4.731299e-05 0.07407914 -0.07883444 -0.049285047 -0.12668987
0.0005607763 -0.07258995 0.00037072218 -0.00017437077 -0.034440964 -0.0013302382 0.00010760385 0.00024838245
-0.047189783 -0.00036404413 -0.05562476 -0.061960433 0.13253024 -0.00046942732 0.00016882566 0.0729065
-0.0003581786 0.02532027 -0.13485096 5.929407e-05 -0.00013461479 -0.0120315105 -0.044085696 -0.00022459528
0.00024804362 -0.00052576844 -7.061528e-05 0.0011468376 0.06504231 0.092178084 0.00014588475 -0.0003180958
-0.053309347 -0.0012071044 -0.12960744 -0.07261902 -0.11799691 0.044473294 0.0001630287 -0.095960364
-0.13402888 0.0010076644 0.03301316 -0.067966156 -0.11905408 0.0015184914 0.035092313 0.066920266
0.0005755183 -0.07865141 0.10687199 -0.12687987 -0.0011426538 -0.12524068 -0.025500886 0.00017975464
-0.011690429 -0.14016022 -0.00078363117 0.10166669 5.0839917e-06 0.00057454564 -0.00070311414 0.042286158
-0.0013648814 0.059975926 0.100306764 -0.10469843 0.00089531846 -0.0681678 0.02665629 0.00051792903
-0.0011440391 0.14840464 0.039870888 -0.048447948 -0.027750194 -0.00011240586 -0.06258526 0.00092019193
-0.00046555753 0.00032964625 0.058113113 -0.00039812163 0.00029020128 0.07261443 0.00060674385 0.028023973
0.0011360949 -0.0003439359 -0.00037154893 -0.12509774 -0.00071778975 -0.00013877424 -0.05459494 -0.07485338
0.035937928 -6.50874e-05 0.14856946 -0.0004060251 -0.0004715842 0.05057296 -0.100746535 0.00012249238
0.012494379 -0.06790065 0.028293945 -0.050067987 3.424514e-05 -0.04162477 -0.10675566 -0.13024335
-0.040208213 0.0846708 0.08350827 0.00017497623 0.13995317 0.11441359 0.10182835 0.11880286
-0.06965745 0.1328441 -0.078984894 0.10194229 -0.05855706 -0.11860719 0.0005070203 -0.00049667136
0.06432516 0.13021593 3.3929085e-05 -0.0899522 -9.126939e-05 0.06147665 0.00049149216 -0.017919285
0.00019245005 0.11047458 0.06648093 -0.14983594 0.00022941585 0.00023821213 -0.00057630043 0.00041219612
0.0006155649 0.00055241643 -0.03587495 -0.08420854 0.008196904 -0.00068962754 0.0005612767 0.10179756
-0.03046939 -0.042485144 -6.6997585e-05 -0.13776866 0.021368414 0.00021271847 0.0009674431 -0.068364866
-0.13007306 -0.1462182 -0.020302169 -0.059026774 -0.08921194 8.1990416e-05 0.0003154394 -0.10435195
00000000: 6e0b 073e 08a0 33bd 1a25 b9bd 2de3 fdb9
00000010: ac4c 0539 047c c53d d8b0 d9b9 7a98 ba39
00000020: abcb c6bd 6541 3dbd 60b4 15ba 8c93 6b3c
00000030: 12c4 a439 e219 393b cba9 0abe 39ad 8db9
00000040: 83e0 20ba bd0b 153e b7e7 1638 44a0 f73d
00000050: 387e fab9 39da a73c 53c5 bd3d c002 63bd
00000060: e93d d6b8 735e d4bc 37db 9739 07e3 c039
00000070: cee1 993a f6f6 a138 7d7c 54bd 24b0 a0bd
00000080: ca42 043e 5999 2839 65ab ad3d 3435 5d3d
00000090: 59dc c7bd ef39 bb3d 26c2 f13d e3f4 ea39
000000a0: b09b 0b3a 2531 8fbc 334b c53d 5e1c f53d
000000b0: dc5e a9bd ee8a 6b3d fcb3 3b39 c991 0cba
000000c0: fe16 e8bd 56fb ed3d ea9a df39 5d30 a2bb
000000d0: 485d 4439 f976 f9bd 6c40 c93a bb0f 6fbd
000000e0: 4f35 e2bd fc5d 903d 9e56 bcbd 465a af3d
000000f0: c3c7 eab9 15bc d1ba f6fc 23b9 e43d a6bd
00000100: d92b ffbd 3dab 443d 7ff9 6a3a c0f2 603a
00000110: de57 08bb bb5d cebd 5b80 e3bc ebf8 20ba
00000120: 85c7 9c3d 18ec c63d 4e55 fbbd f7ce 15be
00000130: 7b71 d9bc d1c7 6a3d a60b df3d 6a80 22b8
00000140: 632b 13be 2552 0a3e a71e 98bd f071 4638
00000150: ceb6 973d f373 a1bd 1edf 49bd fdba 01be
00000160: 0f01 133a 0aaa 94bd 7d5d c239 4cd7 36b9
00000170: f811 0dbd 635b aeba 61a9 e138 5439 8239
00000180: 134a 41bd 2ddd beb9 cad6 63bd 39ca 7dbd
00000190: 02b6 073e 781d f6b9 cb06 3139 0150 953d
000001a0: ebc9 bbb9 746c cf3c 5f16 0abe 86b2 7838
000001b0: 6227 0db9 d01f 45bc 3493 34bd 5681 6bb9
000001c0: da0b 8239 b9d3 09ba 4a17 94b8 7c51 963a
000001d0: e734 853d ddc7 bc3d a4f8 1839 18c6 a6b9
000001e0: e75a 5abd b437 9eba d0b7 04be 48b9 94bd
000001f0: 5da8 f1bd a129 363d aff2 2a39 de86 c4bd
00000200: de3e 09be 9b13 843a cf38 073d d731 8bbd
00000210: a0d2 f3bd 1e08 c73a f5bc 0f3d 7e0d 893d
00000220: 61de 163a fe13 a1bd b4df da3d ccec 01be
00000230: 19c5 95ba 183f 00be 3ce7 d0bc 857c 3c39
00000240: 3789 3fbc 2986 0fbe 996c 4dba a036 d03d
00000250: 2897 aa36 1b9d 163a 3151 38ba 4034 2d3d
00000260: d2e5 b2ba 51a9 753d a26d cd3d 216c d6bd
00000270: ceb3 6a3a 8f9b 8bbd 4b5e da3c a1c5 073a
00000280: 95f3 95ba 63f7 173e a84f 233d 5b71 46bd
00000290: 6054 e3bc 70bb ebb8 b32c 80bd 0939 713a
000002a0: 1316 f4b9 5fd4 ac39 0408 6e3d fbba d0b9
000002b0: 2826 9839 e0b6 943d e40d 1f3a 8892 e53c
000002c0: 05e9 943a 4c52 b4b9 74cc c2b9 9f19 00be
000002d0: 0e2a 3cba ed83 11b9 f29e 5fbd bb4c 99bd
000002e0: a633 133d 887f 88b8 9822 183e c4df d4b9
000002f0: f63e f7b9 9825 4f3d 3354 cebd 4c71 0039
00000300: 39b5 4c3c 7f0f 8bbd b4c8 e73c 1714 4dbd
00000310: 70a2 0f38 bc7e 2abd b6a2 dabd 835e 05be
00000320: 5eb1 24bd e267 ad3d 6206 ab3d d379 3739
00000330: e24f 0f3e ac51 ea3d 628b d03d ea4e f33d
00000340: 91a8 8ebd 4908 083e d5c2 a1bd 1fc7 d03d
00000350: 87d9 6fbd 54e8 f2bd 8ee9 043a 0d33 02ba
00000360: e9bc 833d 5357 053e 144f 0e38 dc38 b8bd
00000370: e167 bfb8 f1ce 7b3d 7bd7 003a 77cb 92bc
00000380: 6bcc 4939 7f40 e23d 2727 883d 986e 19be
00000390: 598f 7039 95c8 7939 de12 17ba 071c d839
000003a0: dc5d 213a 0ad0 103a 9df1 12bd 8775 acbd
000003b0: 4f4c 063c 1fc8 34ba a422 133a 3d7b d03d
000003c0: f19a f9bc e704 2ebd 0e81 8cb8 3a13 0dbe
000003d0: d00c af3c 2e0d 5f39 029c 7d3a e102 8cbd
000003e0: df31 05be 39ba 15be bc50 a6bc 0fc6 71bd
000003f0: c0b4 b6bd 45f2 ab38 8f61 a539 7ab6 d5bd
