models_to_plot/gum/critic.pth (torch_old, 70713 bytes, 11 tensors)

weight f4 [64, 1]
0.120579965 0.12602776 0.10837391 0.13303435 -0.08883903 0.13430838 0.16195127 0.15402117
-0.12808776 -0.0613645 0.11528211 0.11995528 0.11437536 -0.13477257 -0.11598055 0.13347478
0.116877615 0.11547799 -0.12468197 0.050178863 0.13423067 -0.11724492 0.13185458 -0.1609768
0.121353924 0.097005896 0.11068756 0.12092262 -0.13274352 0.11724664 0.12012863 -0.1313138
0.17650312 0.11367165 -0.06549064 0.13425788 -0.07945826 0.07814573 0.13246435 0.12946315
-0.117155194 0.1608706 0.1263034 -0.115536064 0.11580299 -0.115052424 -0.11666469 -0.114353955
0.11541239 -0.12469865 0.116237976 0.10916797 0.16007967 -0.12049994 -0.11762997 -0.12464485
-0.1203263 0.124605246 -0.11715243 0.16139491 -0.116266765 -0.119113386 -0.117216855 0.11533146
00000000: a1f2 f63d 6c0d 013e 24f3 dd3d 283a 083e
00000010: 3df1 b5bd 2388 093e 8ed6 253e bab7 1d3e
00000020: 7029 03be 5859 7bbd 0719 ec3d 1dab f53d
00000030: a13d ea3d d201 0abe 3687 edbd 9dad 083e
00000040: 885d ef3d b97f ec3d 4359 ffbd 5a88 4d3d
00000050: c473 093e 1b1e f0bd e304 073e 1ad7 24be
00000060: 6888 f83d 07ab c63d 29b0 e23d 47a6 f73d
00000070: ebed 07be 021f f03d 0006 f63d 2077 06be
00000080: 3cbd 343e afcc e83d f51f 86bd e67a 093e
00000090: 03bb a2bd de0a a03d bca4 073e fd91 043e
000000a0: 10ef efbd 43bb 243e ae55 013e 2c9e ecbd
000000b0: 1e2a ed3d 9ba0 ebbd e6ed eebd 6832 eabd
000000c0: 555d ec3d 0162 ffbd 2d0e ee3d 7593 df3d
000000d0: edeb 233e acc8 f6bd fbe7 f0bd cd45 ffbd
000000e0: a36d f6bd 0931 ff3d 9ded efbd b544 253e
000000f0: 451d eebd b8f1 f3bd 640f f0bd e732 ec3d

bias f4 [64]
-0.23724474 -0.23708779 0.015456064 -0.15107039 0.3685478 -0.15617856 -0.52192354 -0.50405526
0.14452389 0.31184447 -0.2597022 -0.24321693 -0.26098442 0.15814207 0.2588544 -0.15288231
-0.25692302 -0.25972155 0.13547176 -0.25256336 -0.15590063 0.25548038 -0.15318166 0.51563364
-0.2421416 0.15528683 -0.25144377 -0.24227345 0.15031601 -0.25547284 -0.12062788 0.15166749
-0.4503066 -0.26102552 0.26668304 -0.15604776 0.27399147 -0.34565383 -0.14947683 -0.14772336
0.255733 -0.5301351 -0.44396394 0.25931212 -0.25884095 0.42081732 0.2570288 0.26099995
-0.25950935 0.13564701 -0.2583606 -0.40935057 -0.5152595 0.2425001 0.25479588 0.13609919
0.2426228 -0.1352326 0.25573903 -0.51728797 0.08610105 0.24682789 0.25602776 -0.25963527
00000000: 49f0 72be 24c7 72be 6e3b 7d3c 32b2 1abe
00000010: 4cb2 bc3e 46ed 1fbe c89c 05bf c409 01bf
00000020: 12fe 133e 14aa 9f3e b0f7 84be dc0d 79be
00000030: c09f 85be ffef 213e 9088 843e 2e8d 1cbe
00000040: 6a8b 83be 39fa 84be 1cb9 0a3e fc4f 81be
00000050: 6aa4 1fbe 53ce 823e a7db 1cbe 9100 043f
00000060: f8f3 77be 8303 1f3e 3dbd 80be 8816 78be
00000070: 71ec 193e 56cd 82be c00b f7bd b94e 1b3e
00000080: 968e e6be 23a5 85be ae8a 883e fcca 1fbe
00000090: 9c48 8c3e 8af9 b0be 7410 19be cb44 17be
000000a0: 70ef 823e efb6 07bf 3e4f e3be 8fc4 843e
000000b0: cd86 84be 5e75 d73e 4799 833e c9a1 853e
000000c0: 69de 84be 0de7 0a3e d747 84be 6696 d1be
000000d0: 0ce8 03bf f251 783e 9b74 823e 965d 0b3e
000000e0: 1c72 783e 6a7a 0abe 3af0 823e fc6c 04bf
000000f0: bf55 b03d 73c0 7c3e 1216 833e eaee 84be

weight f4 [64, 64]
-0.00856484 -0.012499214 -0.010719435 -0.037619244 0.052311312 -0.03828028 -0.067880504 -0.066181265
0.03477686 0.044882484 -0.002793868 -0.007249118 -0.0022262055 0.03847102 0.003280532 -0.037928957
-0.0040353094 -0.0029013662 0.033048633 -0.039269995 -0.038289666 0.0044245673 -0.036667246 0.06666301
-0.008429108 0.012104545 -0.0014540772 -0.008079522 0.037630275 -0.004426998 -0.030132126 0.036434866
-0.02316365 -0.0019597108 0.039835785 -0.038330145 0.034484673 -0.05000226 -0.037498336 -0.03549057
0.004341462 -0.070366465 -0.06001418 0.002975693 -0.0031788398 0.054008454 0.0038947228 0.002216118
-0.0028863272 0.03307067 -0.0034876722 -0.052732144 -0.06676934 0.0077276737 0.0047353487 0.033095572
0.0075831925 -0.033004336 0.0043395925 -0.06697161 0.025933133 0.0064031533 0.0043445486 -0.0028281643
0.046389434 0.04301497 -0.005652243 0.0016867865 -0.036199033 0.00221687 0.062687986 0.0616182
-0.000875592 -0.026714327 0.05408345 0.04863926 0.05429414 -0.0023221027 -0.053880908 0.0019873697
0.053445686 0.05406352 -0.00089558255 0.023463292 0.0022854395 -0.05314259 0.0009359795 -0.0617956
0.04704956 -0.0059350706 0.053040005 0.04741316 -0.0017988608 0.053141568 0.000759959 -0.0009099444
0.054344773 0.05427008 -0.029113075 0.0023653258 -0.04245723 0.032385446 0.0016962306 0.00086989586
-0.053202797 0.06454195 0.058042243 -0.054003425 0.05390485 -0.054816175 -0.053503774 -0.0542954
0.054043505 -0.00089182955 0.053771455 0.050059587 0.06197978 -0.04784027 -0.052936763 -0.0008928965
-0.048042472 0.0008987277 -0.053204264 0.061982144 0.0017678577 -0.050639853 -0.0532349 0.05406933
-0.04589539 -0.041038897 0.0029994799 -0.004116083 0.041607495 -0.004663142 -0.07021849 -0.06677973
0.0023050248 0.02899335 -0.05687032 -0.049663726 -0.05628578 0.004739885 0.057065077 -0.0044560893
-0.057015743 -0.05694895 0.0021086696 -0.024965037 -0.004753401 0.056829736 -0.0027146356 0.06923073
-0.046619136 0.0043006255 -0.052404836 -0.04727905 0.0042681433 -0.056829356 -0.0016689688 0.0026688843
-0.0476276 -0.055503696 0.03212101 -0.004846687 0.0435012 -0.03655853 -0.0041473685 -0.0024248727
0.056869347 -0.071331896 -0.061684646 0.056957904 -0.0570203 0.059965834 0.05701978 0.056265727
-0.056918595 0.0020978663 -0.05708448 -0.056335367 -0.069114305 0.048087075 0.05667649 0.0020551458
0.048481166 -0.0021086053 0.056870677 -0.06949311 -0.00021592816 0.05350581 0.056901023 -0.05688897
-0.023841888 -0.025849266 -0.011484529 -0.03477825 0.03625754 -0.035319418 -0.054308347 -0.05460233
0.032033056 0.031048927 -0.021827564 -0.02375327 -0.021209063 0.03546344 0.022224406 -0.03500467
-0.022718487 -0.021928918 0.030723251 -0.02565586 -0.035335373 0.02292963 -0.03362435 0.0543868
-0.02399459 0.0077181323 -0.019211836 -0.023891596 0.034700897 -0.022930799 -0.028513096 0.033440743
-0.04151458 -0.020689104 0.027308203 -0.035372432 0.026812773 -0.034928437 -0.034559034 -0.032602806
0.022882674 -0.054016102 -0.047386676 0.021981439 -0.02213994 0.040252946 0.022621458 0.021193868
-0.021907711 0.030744437 -0.022369903 -0.03779119 -0.05472671 0.023808543 0.023108775 0.030784536
0.023782024 -0.030687314 0.02288153 -0.05425453 0.025288532 0.02372677 0.022897488 -0.021857455
00000000: 8b53 0cbc 81c9 4cbc 92a0 2fbc a316 1abd
00000010: 6344 563d c8cb 1cbd ef04 8bbd 0b8a 87bd
00000020: 2e72 0e3d b2d6 373d 5419 37bb 028a edbb
00000030: 88e5 11bb ca93 1d3d 32fe 563b 655b 1bbd
00000040: a13a 84bb d924 3ebb 015e 073d 93d9 20bd
00000050: a0d5 1cbd f6fb 903b 6530 16bd 9e86 883d
00000060: 3e1a 0abc 2452 463c bc96 beba f95f 04bc
00000070: 3422 1a3d 5a10 91bb a6d7 f6bc ba3c 153d
00000080: b2c1 bdbc 7e6e 00bb d92a 233d 1200 1dbd
00000090: cd3f 0d3d 2bcf 4cbd db97 19bd 8f5e 11bd
000000a0: d342 8e3b 4b1c 90bd 6ed1 75bd d803 433b
000000b0: 1554 50bb f837 5d3d 9b3e 7f3b 4a3c 113b
000000c0: 8928 3dbb 1c75 073d 6e91 64bb a9fd 57bd
000000d0: 5dbe 88bd 6d38 fd3b fc2a 9b3b 398f 073d
000000e0: 6e7c f83b 8e2f 07bd 2433 8e3b 6928 89bd
000000f0: b971 d43c 8bd1 d13b b75c 8e3b b958 39bb
00000100: d902 3e3d 7730 303d 7336 b9bb 2a17 dd3a
00000110: 7045 14bd e848 113b 8f62 803d 5e63 7c3d
00000120: fc87 65ba 01d8 dabc 9c86 5d3d f639 473d
00000130: 8863 5e3d 6b2e 18bb 3ab2 5cbd 883e 023b
00000140: dde9 5a3d b671 5d3d 87c5 6aba 1736 c03c
00000150: 50c7 153b 0bac 59bd 855c 753a 621d 7dbd
00000160: 0ab7 403d fb7a c2bb 7a40 593d 4d34 423d
00000170: c1c7 ebba f9aa 593d fc37 473a 5689 6eba
00000180: a098 5e3d 4e4a 5e3d 8b7e eebc 9503 1b3b
00000190: a2e7 2dbd 9aa6 043d 0e54 de3a b909 643a
000001a0: 2deb 59bd 922e 843d b4bd 6d3d b232 5dbd
000001b0: 55cb 5c3d ed86 60bd c626 5bbd da64 5ebd
000001c0: b95c 5d3d abc9 69ba 753f 5c3d 480b 4d3d
000001d0: 83de 7d3d 29f4 43bd 38d4 58bd 4511 6aba
000001e0: 2fc8 44bd 9898 6b3a b7ec 59bd fde0 7d3d
000001f0: 76b7 e73a bc6b 4fbd d70c 5abd cd77 5d3d
00000200: cefc 3bbd 6718 28bd ec92 443b 35e0 86bb
00000210: 9f6c 2a3d 45cd 98bb b6ce 8fbd d0c3 88bd
00000220: e60f 173b 7683 ed3c daf0 68bd 316c 4bbd
00000230: eb8b 66bd 0a51 9b3b 12bd 693d 6304 92bb
00000240: 5789 69bd 4d43 69bd 9b31 0a3b 7a83 ccbc
00000250: 6bc2 9bbb 4cc6 683d 07e8 31bb d7c8 8d3d
00000260: b5f3 3ebd 43ec 8c3b 74a6 56bd ada7 41bd
00000270: c8db 8b3b e6c5 68bd 4dc1 daba 73e8 2e3b
00000280: 2915 43bd d857 63bd 5291 033d f5d0 9ebb
00000290: 502e 323d 66be 15bd a6e6 87bb 9dea 1ebb
000002a0: d5ef 683d 7516 92bd 0aa9 7cbd b14c 693d
000002b0: 1e8e 69bd bc9e 753d 938d 693d e476 663d
000002c0: 7923 69bd 5b7c 093b 6ad1 69bd eabf 66bd
000002d0: cd8b 8dbd f4f6 443d 9b25 683d a0af 063b
000002e0: 3094 463d 8730 0abb 3af1 683d 6752 8ebd
000002f0: c66a 62b9 e928 5b3d 0c11 693d 6904 69bd
00000300: 1050 c3bc d7c1 d3bc 9b29 3cbc a373 0ebd
00000310: c982 143d 18ab 10bd 6e72 5ebd b1a6 5fbd
00000320: 1835 033d 525a fe3c b8cf b2bc 3896 c2bc
00000330: a1be adbc 1d42 113d f50f b63c 0f61 0fbd
00000340: 1f1c babc 46a4 b3bc 54af fb3c 3d2c d2bc
00000350: d3bb 10bd ebd6 bb3c b0b9 09bd b1c4 5e3d
00000360: 4d90 c4bc 63e8 fc3b 2462 9dbc 4fb8 c3bc
00000370: 8722 0e3d 5fd9 bbbc 4c94 e9bc 29f9 083d
00000380: 310b 2abd 327c a9bc 74b5 df3c afe2 10bd
00000390: 76a6 db3c 1f11 0fbd c68d 0dbd 858a 05bd
000003a0: 7274 bb3c fd3f 5dbd 8818 42bd 6b12 b43c
000003b0: d25e b5bc 46e0 243d a350 b93c c39e ad3c
000003c0: cd77 b3bc c2db fb3c 1641 b7bc efca 1abd
000003d0: 1d29 60bd 220a c33c 9d4e bd3c da2f fc3c
000003e0: 85d2 c23c f663 fbbc 0c72 bb3c 003a 5ebd
000003f0: e529 cf3c a55e c23c 8393 bb3c 680e b3bc

bias f4 [64]
0.036432732 -0.027552834 0.02386238 0.03923262 0.031724263 0.030251509 -0.064557336 -0.034473337
0.030444553 0.021550644 -0.031834025 0.027017245 0.020079847 0.02579348 -0.027521236 0.030133856
0.06827078 -0.06877306 -0.032670982 -0.027624942 -0.07022449 0.063849434 0.02701405 -0.06941168
0.064541854 -0.025345875 -0.02279829 0.066526815 0.07364305 0.061907735 0.019542983 -0.057571698
0.026973262 0.02377863 -0.028988216 0.083986335 -0.064612836 -0.027669698 -0.02598763 0.02244317
0.061676946 -0.02118686 0.025091752 0.016320601 -0.02973215 0.021248132 -0.024482636 0.051878955
0.020334467 0.022380227 -0.026402501 0.032937437 -0.029037781 -0.024514992 0.06947791 0.021927861
0.026130812 -0.029077949 0.02238082 0.02012053 0.031561382 0.036829308 0.021143306 -0.045253836
00000000: 7d3a 153d 7bb6 e1bc 0a7b c33c 62b2 203d
00000010: 4df1 013d 03d2 f73c a336 84bd ea33 0dbd
00000020: db66 f93c fa8a b03c 6564 02bd 4553 dd3c
00000030: 7e7e a43c d94c d33c 3774 e1bc 47db f63c
00000040: 8dd1 8b3d e4d8 8cbd 02d2 05bd b44d e2bc
00000050: dbd1 8fbd 7ec3 823d 924c dd3c b627 8ebd
00000060: 852e 843d 27a2 cfbc 7bc3 babc 363f 883d
00000070: 2bd2 963d f792 7d3d 9b18 a03c 4dd0 6bbd
00000080: 08f7 dc3c 67cb c23c b278 edbc 0701 ac3d
00000090: bc53 84bd 90ab e2bc 03e4 d4bc bdda b73c
000000a0: f7a0 7c3d 1190 adbc 388d cd3c c8b2 853c
000000b0: d690 f3bc 9010 ae3c cf8f c8bc 077f 543d
000000c0: 7894 a63c bd56 b73c 0f4a d8bc 68e9 063d
000000d0: a4e0 edbc aad3 c8bc 6f4a 8e3d 0fa2 b33c
000000e0: 4910 d63c e134 eebc fb57 b73c cfd3 a43c
000000f0: 8246 013d 54da 163d ba34 ad3c 165c 39bd

weight f4 [64, 64]
-0.06528895 0.018816216 -0.012672783 -0.047424592 -0.04412407 -0.05656305 0.050054178 0.02822541
-0.039499786 -0.010320563 0.031007579 -0.038705144 -0.01028823 -0.04320464 0.019558879 -0.030744309
-0.06548442 0.06563188 0.037041433 0.019656515 0.06793744 -0.04078304 -0.018636618 0.065696515
-0.06393341 0.014933126 0.011322537 -0.06677599 -0.059846215 -0.026369328 -0.012662597 0.062296256
-0.03056143 -0.012553358 0.033474654 -0.07313316 0.06722278 0.019999387 0.04347761 -0.01278553
-0.024941387 0.009765664 -0.0359106 -0.012733967 0.035555914 -0.011576083 0.04857062 -0.045831222
-0.010618708 -0.012635504 0.017700288 -0.03976418 0.021859793 0.01506395 -0.06643875 -0.010397478
-0.036656752 0.0339995 -0.010870023 -0.010356058 -0.035182506 -0.03576261 -0.0114721395 0.030464642
0.006986238 -0.039153554 0.05518636 0.01880042 0.020963054 0.0070717214 -0.0069787926 -0.037501987
0.00962352 0.04799416 -0.026439136 0.022350091 0.054229397 0.009630556 -0.05094968 0.026411876
0.009892755 -0.009785791 -0.023638744 -0.051527083 -0.009373632 0.007863821 0.053469896 -0.009785684
0.009320747 -0.054894406 -0.05506923 0.0107362615 0.0051954775 0.043096725 0.05325276 -0.011898218
0.02534255 0.05518591 -0.024101047 0.023208512 -0.009306588 -0.051517144 -0.020484198 0.055259958
0.043406583 -0.054600384 0.008980572 0.02507541 -0.02412627 0.054826897 -0.007922525 0.009129497
0.054369375 0.055205334 -0.0539072 0.022564158 -0.046289783 -0.055372942 0.009364004 0.054841198
0.022458183 -0.023969123 0.05497713 0.05425911 0.02446418 0.02211723 0.05477951 -0.0010347349
0.0071803723 -0.040156886 0.05442748 0.01596193 0.018514562 0.0075365254 -0.008900513 -0.033495907
0.013037829 0.04861665 -0.022976598 0.019195069 0.05390249 0.0116543025 -0.051008508 0.022974052
0.012178939 -0.012134529 -0.020193867 -0.05140957 -0.011617535 0.011525243 0.052830163 -0.012155248
0.010871112 -0.054032598 -0.054383177 0.011968643 0.009749661 0.043145865 0.05407818 -0.01280811
0.021918342 0.0544344 -0.020872576 0.022725917 -0.011843929 -0.051407475 -0.017697847 0.054877713
0.04326338 -0.053979352 0.007047759 0.025205728 -0.020686297 0.05453609 -0.008970408 0.010645141
0.054070532 0.054884262 -0.053198192 0.019932745 -0.04819635 -0.05476239 0.011917653 0.054200765
0.019018594 -0.020770218 0.054305695 0.053937986 0.020922426 0.018217547 0.054491732 -0.0035442978
-0.0011197986 -0.043211147 0.047964647 0.01906234 0.020317517 0.019244796 -0.03214464 -0.038110904
0.03898488 0.056978974 -0.022914747 0.02060439 0.04777781 0.034432366 -0.04867548 0.022965781
0.0045776786 -0.004898722 -0.020259881 -0.04875003 -0.0064449767 0.00208087 0.04859906 -0.004893873
0.005338711 -0.04844095 -0.04773188 0.00709954 0.001671472 0.04532044 0.049269468 -0.0072017857
0.02253797 0.04794226 -0.021578966 0.0068593575 -0.0068799015 -0.04891022 -0.023585998 0.04780619
0.04557115 -0.047510467 0.014576069 0.033275362 -0.020639779 0.04782409 -0.029337207 0.04393887
0.047809474 0.047835093 -0.048187226 0.020512398 -0.04855336 -0.047930647 0.0060443655 0.047595482
0.02087479 -0.021469904 0.04765994 0.04778411 0.020687154 0.020323629 0.0478254 0.0034394297
00000000: 37b6 85bd 7724 9a3c 81a1 4fbc 4a40 42bd
00000010: 71bb 34bd a8ae 67bd 9c05 4d3d fa38 e73c
00000020: 87ca 21bd 9417 29bc 9b03 fe3c 4989 1ebd
00000030: f78f 28bc 59f7 30bd f139 a03c 7ddb fbbc
00000040: b21c 86bd 026a 863d c2b8 173d b306 a13c
00000050: c922 8b3d 1e0c 27bd d2ab 98bc e58b 863d
00000060: 85ef 82bd 12aa 743c 2a82 393c dac1 88bd
00000070: 4e21 75bd 7d04 d8bc c876 4fbc 5c2a 7f3d
00000080: f75b fabc 9aac 4dbc b81c 093d d7c6 95bd
00000090: 19ac 893d c1d5 a33c 9415 323d 667a 51bc
000000a0: e151 ccbc 2a00 203c fe16 13bd 21a2 50bc
000000b0: 14a3 113d 9ca9 3dbc fdf1 463d 85b9 3bbd
000000c0: 17fa 2dbc 2505 4fbc 3200 913c c4df 22bd
000000d0: 4f13 b33c c9ce 763c 0a11 88bd 2f5a 2abc
000000e0: 6425 16bd 0f43 0b3d 2e18 32bc 75ac 29bc
000000f0: 881b 10bd d17b 12bd a4f5 3bbc fc90 f93c
00000100: d0ec e43b 7a5f 20bd 180b 623d 5703 9a3c
00000110: b6ba ab3c e6b9 e73b 5bae e4bb af9b 19bd
00000120: f8ab 1d3c 8695 443d e396 d8bc 8a17 b73c
00000130: a51f 5e3d 7bc9 1d3c 9db0 50bd b85d d83c
00000140: 3915 223c 9554 20bc 0aa6 c1bc 100e 53bd
00000150: dd93 19bc 42d7 003c 4003 5b3d 2254 20bc
00000160: 0cb6 183c f5d8 60bd 4690 61bd 25e7 2f3c
00000170: d33e aa3b 3186 303d 911f 5a3d bef0 42bc
00000180: 2e9b cf3c 9f0a 623d 8f6f c5bc c71f be3c
00000190: a97a 18bc a403 53bd 7ace a7bc 4458 623d
000001a0: 1acb 313d a7a4 5fbd 4023 133c f26a cd3c
000001b0: 75a4 c5bc 2b92 603d 7acd 01bc e393 153c
000001c0: 6cb2 5e3d fd1e 623d cccd 5cbd 78d8 b83c
000001d0: 5b9a 3dbd bdce 62bd 7b6b 193c 2aa1 603d
000001e0: 39fa b73c e55a c4bc b32f 613d cd3e 5e3d
000001f0: 1b69 c83c 312f b53c 7b60 603d f19f 87ba
00000200: 5449 eb3b 8c7b 24bd 59ef 5e3d 98c2 823c
00000210: daab 973c f5f4 f63b 75d3 11bc 0133 09bd
00000220: 9e9c 553c 4122 473d 6b39 bcbc fa3e 9d3c
00000230: dbc8 5c3d b0f1 3e3c 4cee 50bd 1434 bc3c
00000240: 2c8a 473c e7cf 46bc 9c6d a5bc d792 52bd
00000250: 7957 3ebc 5fd4 3c3c 7164 583d ce26 47bc
00000260: c01c 323c 4951 5dbd e5c0 5ebd 2118 443c
00000270: 0bbd 1f3c b8b9 303d 1581 5d3d 1bd9 51bc
00000280: 188e b33c 9bf6 5e3d f7fc aabc b42b ba3c
00000290: 0a0d 42bc a590 52bd 13fb 90bc 74c7 603d
000002a0: f134 313d 7419 5dbd e3f0 e63b 3e7c ce3c
000002b0: 4f76 a9bc 3c61 5f3d 9ef8 12bc f568 2e3c
000002c0: 1079 5d3d 52ce 603d 59e6 59bd ff49 a33c
000002d0: 8969 45bd 874e 60bd 4242 433c 9f01 5e3d
000002e0: e2cc 9b3c 4e26 aabc a66f 5e3d 14ee 5c3d
000002f0: 8265 ab3c f73c 953c b932 5f3d 7347 68bb
00000300: 35c6 92ba 2cfe 30bd 9476 443d a028 9c3c
00000310: ec70 a63c 43a7 9d3c 19aa 03bd 2e1a 1cbd
00000320: 9cae 1f3d c962 693d b5b7 bbbc 8aca a83c
00000330: aab2 433d f408 0d3d f15f 47bd bc22 bc3c
00000340: 5a00 963b 7585 a0bb 0df8 a5bc 1dae 47bd
00000350: 6230 d3bb 355f 083b cf0f 473d c85c a0bb
00000360: 5bf0 ae3b 056a 46bd 8182 43bd 42a3 e83b
00000370: 4b15 db3a eda1 393d c8ce 493d f5fc ebbb
00000380: 8da1 b83c 1a5f 443d 5fc6 b0bc 76c4 e03b
00000390: cc70 e1bb 1556 48bd 6c37 c1bc 6cd0 433d
000003a0: d0a8 3a3d 569a 42bd 77d0 6e3c bf4b 083d
000003b0: c114 a9bc 31e3 433d 9554 f0bc 3ff9 333d
000003c0: ded3 433d bbee 433d f85f 45bd 9e09 a83c
000003d0: e3df 46bd ed52 44bd d00f c63b 7bf3 423d
000003e0: 9c01 ab3c a7e1 afbc 1237 433d 45b9 433d
000003f0: 1b78 a93c bd7d a63c 91e4 433d 0e68 613b

bias f4 [64]
-0.057902463 0.06919349 0.081042565 0.052741367 0.08436058 0.07041517 -0.010876866 -0.068399966
0.05235476 0.022522187 0.04777241 0.07694796 0.046827897 -0.027031146 0.07674892 -0.02622255
0.020717073 -0.009960817 -0.049169116 -0.029284792 0.049332406 0.054078907 0.016338095 -0.036006592
-0.023927756 0.019020835 -0.04884287 -0.05803572 -0.06308582 -0.026256438 0.02880319 0.053516086
0.07861067 0.03825469 0.0750226 0.066898756 -0.083188556 0.06683321 -0.07629638 0.04894228
0.037423577 -0.062838554 0.020944323 0.06590207 -0.07338542 0.017706474 -0.08165036 0.023329733
0.07347284 -0.062377598 -0.007296374 0.0058911555 -0.0024217232 0.05002495 0.07598019 -0.021919228
0.020227136 -0.0781282 -0.014920413 -0.01506046 -0.05144786 -0.012330525 -0.07694612 -0.0694947
00000000: 222b 6dbd 51b5 8d3d a5f9 a53d 5507 583d
00000010: 3dc5 ac3d d435 903d e234 32bc 4815 8cbd
00000020: f271 563d 7380 b83c 01ad 433d e496 9d3d
00000030: 9cce 3f3d 6c70 ddbc 8a2e 9d3d acd0 d6bc
00000040: dab6 a93c b232 23bc 8e65 49bd a9e6 efbc
00000050: c710 4a3d d881 5d3d 78d7 853c a67b 13bd
00000060: 2404 c4bc 95d1 9b3c 760f 48bd ddb6 6dbd
00000070: 2333 81bd be17 d7bc abf4 eb3c af33 5b3d
00000080: a2fe a03d f3b0 1c3d 73a5 993d 3702 893d
00000090: c35e aabd dadf 883d 4741 9cbd b377 483d
000000a0: 7749 193d 80b1 80bd 6e93 ab3c aaf7 863d
000000b0: 184b 96bd 2b0d 913c 4e38 a7bd ff1d bf3c
000000c0: ee78 963d a77f 7fbd 6c16 efbb 980a c13b
000000d0: c6b5 1ebb f6e6 4c3d 809b 9b3d f48f b3bc
000000e0: 61b3 a53c ad01 a0bd bf74 74bc 26c0 76bc
000000f0: feba 52bd f805 4abc ed95 9dbd 3d53 8ebd

weight f4 [64, 64]
0.0035292301 -0.056861334 -0.061203174 -0.047939654 -0.061116006 -0.051863384 0.0024802368 -0.0015238884
-0.018875262 -0.013179724 0.0018810215 -0.060554843 -0.018956266 0.0116763385 -0.065728426 0.011768106
-0.00780246 0.00048594753 0.0005770088 0.044610288 -0.016792048 -0.0016989755 0.042273644 0.018108508
-0.003976344 0.033700917 0.018720968 0.020023383 0.021716667 -0.0057247207 0.03609248 -0.064060844
-0.0586379 -0.015176852 -0.05850713 0.0011630893 0.060365003 -0.056696657 0.06518788 -0.01670765
-0.04534883 0.057595413 -0.011329091 -0.056929484 0.0651209 -0.009776695 0.06065854 -0.013689282
-0.0490697 0.05215566 0.0014558886 -0.00930172 0.03093669 0.037504207 -0.06022313 -0.006063541
-0.01129505 0.05969565 0.008851654 -0.033886928 0.046835225 -0.0024953308 0.06349727 0.056834448
-0.03676253 0.021756295 0.025423987 0.030078486 0.029484956 0.040053163 -0.031475384 -0.03472816
0.042378865 0.029737141 0.02330527 0.020757956 0.0363128 -0.041464604 0.020580988 -0.033103283
0.046676558 -0.033166867 -0.010500294 -0.034414437 0.036250107 0.035997756 -0.0016940706 -0.029251294
-0.03290025 0.0021488024 -0.036882807 -0.040958837 -0.04254379 -0.002100262 0.007903074 0.015021716
0.029648324 0.031003507 0.023962557 0.03891496 -0.024050968 0.020621637 -0.020518955 0.03624781
0.037184246 -0.018969608 0.041964043 0.03686808 -0.020979987 0.034534328 -0.024306206 0.028065598
0.03297029 -0.038562242 -0.039320454 0.03471103 0.01478339 -0.019167157 0.022007152 -0.03171971
0.032765273 -0.028047262 -0.038286265 -0.010464051 -0.030482192 0.02582115 -0.0194795 -0.02177188
-0.018979639 0.011552871 0.019222025 0.031748243 0.02672592 0.048308633 -0.028692931 -0.0065872665
0.042528898 0.031952992 0.0122869015 0.012963705 0.033092063 -0.050981373 0.02854907 -0.025971347
0.04426316 -0.02643146 -0.0017399712 -0.036667246 0.035878506 0.019589994 -0.010597522 -0.027173167
-0.02591785 -0.0035384635 -0.036376275 -0.041122172 -0.044601493 0.048901565 0.014528815 0.023406466
0.027084263 0.0328766 0.015369942 0.014860772 -0.014350908 0.0104490295 -0.030297587 0.035856683
0.0536011 -0.010386057 0.045532934 0.046537243 -0.028489433 0.02486736 -0.01710201 0.029703263
0.044775706 -0.044832155 -0.025903309 0.02452687 -0.03400755 -0.035353236 0.011555355 -0.022928037
0.025788035 -0.023616875 -0.028934037 0.015656242 -0.035868455 0.05980341 -0.01446414 -0.011690981
0.0058044945 -0.04495313 -0.0502245 -0.04071475 -0.052369382 -0.050989263 0.011231432 -0.0029567014
-0.025525464 -0.023080537 0.00075357175 -0.047225732 -0.02649952 0.017921966 -0.054701503 0.017692324
-0.020857586 0.0077039604 0.013869079 0.038792554 -0.025031226 -0.00565724 0.03241108 0.023922732
-0.0029892991 0.03440452 0.026670627 0.02618812 0.027474264 -0.031340774 0.03043598 -0.05170094
-0.05264026 -0.024962509 -0.046892866 -0.0017474443 0.047257077 -0.044698983 0.05433316 -0.024933374
-0.045811858 0.045308534 -0.023008391 -0.049847282 0.05415789 -0.016510284 0.048829537 -0.023537625
-0.05053651 0.04953748 0.0057945093 -0.016508931 0.043791752 0.040474094 -0.046624962 -0.0023989799
-0.019564698 0.052059967 0.010923868 -0.031922314 0.042056467 -0.017134238 0.049812775 0.044991136
00000000: a84a 673b 6ee7 68bd 2eb0 7abd 5f5c 44bd
00000010: c754 7abd b36e 54bd 788b 223b 36bd c7ba
00000020: 4ba0 9abc c5ef 57bc 9c8c f63a 5b08 78bd
00000030: 2c4a 9bbc 1d4e 3f3c a09c 86bd 04cf 403c
00000040: c7ab ffbb c6c6 fe39 6842 173a 47b9 363d
00000050: 7a8f 89bc 28b0 deba 2127 2d3d 4b58 943c
00000060: fe4b 82bb f909 0a3d b75c 993c 1408 a43c
00000070: 27e7 b13c 7096 bbbb b5d5 133d 5532 83bd
00000080: 4b2e 70bd 55a8 78bc 2ca5 6fbd cd72 983a
00000090: 4b41 773d c13a 68bd 3981 853d 7bde 88bc
000000a0: b2bf 39bd 2be9 6b3d a79d 39bc e42e 69bd
000000b0: 1b5e 853d 6e2e 20bc 1775 783d 0349 60bc
000000c0: 4ffd 48bd 2ca1 553d 84d3 be3a 3e66 18bc
000000d0: f16e fd3c 039e 193d 87ac 76bd abb0 c6bb
000000e0: e00e 39bc 6d83 743d 8706 113c 05cd 0abd
000000f0: 4bd6 3f3d b488 23bb db0a 823d 3dcb 683d
00000100: 4f94 16bd 423a b23c f745 d03c 2867 f63c
00000110: 6f8a f13c c90e 243d 55ec 00bd 1d3f 0ebd
00000120: 7695 2d3d 4e9b f33c b2ea be3c 970c aa3c
00000130: bbbc 143d cad6 29bd 7699 a83c 4f97 07bd
00000140: eb2f 3f3d fbd9 07bd 6d09 2cbc 27f6 0cbd
00000150: fe7a 143d 6272 133d 940b deba 69a0 efbc
00000160: 6ac2 06bd ecd2 0c3b 6d12 17bd 74c4 27bd
00000170: 6642 2ebd 8da4 09bb e57b 013c a51d 763c
00000180: 0be1 f23c 11fb fd3c 204d c43c 4b65 1f3d
00000190: 8906 c5bc b5ee a83c 5e17 a8bc 9578 143d
000001a0: 824e 183d 2766 9bbc 7de2 2b3d fc02 173d
000001b0: 39de abbc de73 0d3d cf1d c7bc d3e9 e53c
000001c0: db0b 073d 71f3 1dbd 7c0e 21bd 272d 0e3d
000001d0: 0836 723c 7104 9dbc 5848 b43c 87ec 01bd
000001e0: e134 063d 5fc3 e5bc 0fd2 1cbd 6971 2bbc
000001f0: cab5 f9bc e086 d33c 7993 9fbc f15a b2bc
00000200: 307b 9bbc 4148 3d3c 8277 9d3c 720a 023d
00000210: 51f0 da3c 46df 453d 700d ebbc ffd9 d7bb
00000220: c832 2e3d 24e1 023d 004f 493c b865 543c
00000230: 8b8b 073d d8d1 50bd bddf e93c ddc1 d4bc
00000240: 4a4d 353d ca86 d8bc bf0f e4ba 6530 16bd
00000250: 57f5 123d 327b a03c 3ba1 2dbc 439a debc
00000260: ac51 d4bc 91e5 67bb 4aff 14bd b96f 28bd
00000270: 0eb0 36bd 024d 483d 440a 6e3c ebbe bf3c
00000280: d1df dd3c 9da9 063d 36d2 7b3c 987a 733c
00000290: 1220 6bbc 6832 2b3c a532 f8bc 75de 123d
000002a0: d48c 5b3d 482a 2abc be80 3a3d d69d 3e3d
000002b0: ac62 e9bc a2b6 cb3c 8419 8cbc 4254 f33c
000002c0: bb66 373d eca1 37bd 2d33 d4bc 93ec c83c
000002d0: 804b 0bbd 8ece 10bd ac52 3d3c 94d3 bbbc
000002e0: 6e41 d33c 2d78 c1bc 1307 edbc 8541 803c
000002f0: cdea 12bd 6cf4 743d 00fb 6cbc 878b 3fbc
00000300: a133 be3b c620 38bd 35b8 4dbd 82c4 26bd
00000310: 4781 56bd 1eda 50bd 0a04 383c 38c5 41bb
00000320: c71a d1bc 6513 bdbc 588b 453a c56f 41bd
00000330: 8515 d9bc 16d1 923c af0e 60bd 7eef 903c
00000340: 87dd aabc 8171 fc3b 223b 633c f1e4 1e3d
00000350: 490e cdbc 5e60 b9bb 7bc1 043d 9bf9 c33c
00000360: 1ee8 43bb c1eb 0c3d 5c7c da3c 7888 d63c
00000370: b511 e13c 2f5f 00bd e054 f93c 5dc4 53bd
00000380: 509d 57bd 2d7e ccbc bc12 40bd 800a e5ba
00000390: a390 413d 4816 37bd 738c 5e3d 1341 ccbc
000003a0: 37a5 3bbd 7195 393d 187c bcbc aa2c 4cbd
000003b0: aad4 5d3d 9340 87bc 7b01 483d fad1 c0bc
000003c0: 5fff 4ebd d0e7 4a3d dedf bd3b bd3d 87bc
000003d0: fb5e 333d 2ac8 253d d1f9 3ebd 3438 1dbb
000003e0: 2546 a0bc d53c 553d 06fa 323c f9c0 02bd
000003f0: 6743 2c3d 1a5d 8cbc 7b08 4c3d a048 383d

bias f4 [64]
-0.060954195 0.060308274 0.03155147 -0.029686853 -0.025289202 0.021140039 -0.03673583 0.0238194
0.023219962 -0.030352864 -0.03454548 0.02262073 -0.04913799 -0.04631542 0.0036941816 0.025134845
-0.0118372915 -0.023484886 0.029097488 0.03233136 -0.032878928 0.028552309 -0.019073673 0.007841212
-0.010379834 0.027210219 -0.02023468 0.011616133 0.03600853 0.025726916 -0.01801813 0.071850054
-0.019734174 0.029711617 -0.040029854 -0.03583862 -0.024243947 -0.030210106 -0.012727967 -0.034511082
0.008765153 -0.008853853 0.020642562 -0.028097924 0.038947 0.033395067 0.015184524 0.012808404
-0.02533711 0.040504478 0.026637537 0.045962818 0.039165467 -0.012255819 -0.016857788 0.030324765
0.03828194 0.024520723 -0.004983935 -0.00048524674 0.023188759 0.028385557 -0.020702384 0.0027837283
00000000: 1bab 79bd cf05 773d 1d3c 013d d831 f3bc
00000010: 4d2b cfbc e02d ad3c 4f78 16bd e720 c33c
00000020: ca37 be3c 92a6 f8bc 907f 0dbd 1c4f b93c
00000030: eb44 49bd 3db5 3dbd 151a 723b 97e7 cd3c
00000040: 33f1 41bc 6063 c0bc db5d ee3c e36d 043d
00000050: 0eac 06bd 88e6 e93c 6440 9cbc 6d78 003c
00000060: 2e10 2abc f7e7 de3c 33c3 a5bc 9851 3e3c
00000070: ae7d 133d 41c1 d23c c29a 93bc 1f26 933d
00000080: 90a9 a1bc c765 f33c 58f6 23bd 84cb 12bd
00000090: 3e9b c6bc 2f7b f7bc f788 50bc 7e5b 0dbd
000000a0: b79b 0f3c c00f 11bc 971a a93c 9e2d e6bc
000000b0: e486 1f3d 44c9 083d 82c8 783c 57da 513c
000000c0: c58f cfbc 06e8 253d f736 da3c 8243 3c3d
000000d0: f86b 203d a1cc 48bc 5819 8abc a46b f83c
000000e0: 86cd 1c3d afdf c83c 4750 a3bb b768 feb9
000000f0: 5af6 bd3c d488 e83c 0c98 a9bc 366f 363b

weight f4 [64, 64]
-0.06832302 0.039478377 0.031042924 -0.05834181 -0.022898454 0.061196696 -0.06566642 0.015420821
-0.011276314 -0.06089881 -0.061901096 -0.0009125794 -0.06599903 -0.065080576 0.03963809 0.022771882
-0.048532523 0.03222801 0.06390984 0.025166076 -0.062250778 -0.003909013 -0.059311893 0.051410634
-0.04204 0.065163136 0.029655633 0.048388537 0.03132937 0.06196257 -0.05665667 0.025608169
-0.04812213 0.06542979 -0.06535141 -0.05369148 -0.00039435647 -0.065033235 -0.053937502 -0.007278465
0.028846102 0.037286628 0.04233008 -0.06450748 0.06421319 0.05648094 0.02189567 0.046035197
-0.02270214 0.06378754 0.059196237 0.06537636 0.061842892 -0.050098624 -0.04106971 0.06470295
0.063342884 0.03282855 0.008689052 -0.03882223 0.0240893 0.001162125 0.011558983 -0.050420776
-0.00799994 0.060142606 0.06767003 -0.007604847 -0.06683203 -0.011900607 0.012682377 0.060361926
0.0117742345 0.012189043 -0.0034634357 0.061488573 0.012725498 0.012911431 -0.001459521 0.066686705
-0.036234513 -0.007999799 -0.011175165 -0.055093057 0.012356217 0.068743974 0.005188384 -0.0072468664
0.10182269 -0.012508543 -0.08235004 0.032479774 0.07007648 -0.011875894 0.010940766 0.07492525
0.0026696434 -0.012756398 0.012610205 0.012013008 -0.060151644 0.011955679 0.004194418 -0.05998123
-0.07885834 0.0021056472 -0.10233146 0.011253061 -0.012842368 -0.019209389 0.06507125 -0.0007613524
-0.06661106 -0.012841376 -0.01086867 -0.012958245 -0.01653345 -0.02970475 0.09938216 -0.0114902
-0.018048191 0.06582887 -0.07111696 0.007901049 -0.057675157 0.066223 -0.011348577 0.078161895
0.062379226 -0.023166765 -0.016731564 0.060796343 -0.0018689813 -0.06746648 0.068079494 0.015966149
0.055827193 0.06740275 0.06352551 -0.0003323938 0.06845417 0.06864511 -0.061196737 0.0021364093
0.038094416 -0.058038574 -0.06809006 -0.0009394565 0.0682047 0.037278984 0.06594916 -0.064435385
0.05863596 -0.06827849 -0.040023368 -0.040644843 -0.015656915 -0.06767059 0.067010775 -0.008505878
0.0620811 -0.06829512 0.06809579 0.06884451 0.0023003712 0.067472406 0.0638708 -0.026446503
-0.035508573 -0.056390446 -0.05890445 0.067266464 -0.06813874 -0.07080284 0.0048467447 -0.06277415
-0.0022891792 -0.06819275 -0.06776103 -0.06782198 -0.06978493 0.042596206 0.056198366 -0.068042934
-0.073326856 -0.019543933 -0.015104745 0.06179906 -0.0043797777 0.03134757 -0.054825287 0.042215712
0.010916904 -0.062337097 -0.07018675 0.008895041 0.06704152 0.012198662 -0.012527518 -0.061920676
-0.016177207 -0.01280617 0.004941281 -0.06330951 -0.013535553 -0.01377805 0.0039928695 -0.066905014
0.03957203 0.009432963 0.01091743 0.05532247 -0.01321087 -0.070279725 -0.005087479 0.0074908594
-0.10669161 0.012174896 0.08383847 -0.035421256 -0.07183978 0.011946984 -0.011926541 -0.07340278
-0.004756166 0.012337927 -0.012653779 -0.011761687 0.061919197 -0.011570346 -0.003449058 0.061522696
0.08136976 0.0013378388 0.10692806 -0.010944728 0.013094451 0.020614712 -0.065697275 0.0032028824
0.066844665 0.013685952 0.012506507 0.013045907 0.01756058 0.032380134 -0.10361181 0.011264428
0.018741636 -0.068913795 0.07339797 -0.009603783 0.057748664 -0.067708015 0.016119327 -0.079224184
00000000: f1ec 8bbd 14b4 213d bb4d fe3c d2f7 6ebd
00000010: 8a95 bbbc 63a9 7a3d 1e7c 86bd 9ca7 7c3c
00000020: 4ac0 38bc 0871 79bd 018c 7dbd 2b3a 6fba
00000030: 802a 87bd f748 85bd 8d5b 223d 198c ba3c
00000040: 0aca 46bd 8501 043d 2ae3 823d 1629 ce3c
00000050: acfa 7ebd 2d17 80bb 07f1 72bd f593 523d
00000060: 2332 2cbd 4074 853d 5ff0 f23c 0f33 463d
00000070: 3a53 003d 77cc 7d3d d310 68bd 39c8 d13c
00000080: b61b 45bd 0e00 863d f6d6 85bd 99eb 5bbd
00000090: a1c1 ceb9 2530 85bd 92ed 5cbd 3180 eebb
000000a0: a94e ec3c ddb9 183d 4e62 2d3d 7f1c 84bd
000000b0: 3482 833d 8f58 673d 8c5e b33c 678f 3c3d
000000c0: d7f9 b9bc 0ba3 823d c177 723d 0be4 853d
000000d0: f94e 7d3d 3734 4dbd b638 28bd fb82 843d
000000e0: eab9 813d 3b77 063d 875c 0e3c 0f04 1fbd
000000f0: ec56 c53c 7252 983a e361 3d3c 0486 4ebd
00000100: 2e12 03bc 1858 763d 9696 8a3d 1532 f9bb
00000110: 3bdf 88bd c3fa 42bc bfc9 4f3c 113e 773d
00000120: b8e8 403c 8db4 473c cffa 62bb 71db 7b3d
00000130: 9b7e 503c 778a 533c 664d bfba 0a93 883d
00000140: a46a 14bd 9711 03bc 0a18 37bc 42a9 61bd
00000150: bb71 4a3c a4c9 8c3d 5203 aa3b 1f77 edbb
00000160: 6a88 d03d a2f0 4cbc 23a7 a8bd 8309 053d
00000170: 4284 8f3d 1c93 42bc e640 333c 6972 993d
00000180: 2ff5 2e3b 3600 51bc 099b 4e3c 35d2 443c
00000190: 9261 76bd c1e1 433c 5471 893b e1ae 75bd
000001a0: 7b80 a1bd e6fe 093b 2893 d1bd c25e 383c
000001b0: cc68 52bc 025d 9dbc 1344 853d 7f95 47ba
000001c0: 616b 88bd a264 52bc 8212 32bc d24e 54bc
000001d0: 2871 87bc 6057 f3bc e088 cb3d 6441 3cbc
000001e0: cdd9 93bc 49d1 863d c5a5 91bd 6773 013c
000001f0: c93c 6cbd ed9f 873d 62ef 39bc 5813 a03d
00000200: 5c81 7f3d 3ac8 bdbc a210 89bc 9605 793d
00000210: 9bf8 f4ba de2b 8abd 436d 8b3d 71cb 823c
00000220: 0eab 643d 740a 8a3d aa19 823d 2445 aeb9
00000230: b331 8c3d cf95 8c3d 6ea9 7abd 0003 0c3b
00000240: e408 1c3d dbb9 6dbd cd72 8bbd dc45 76ba
00000250: e8ae 8b3d d9b1 183d 5a10 873d b3f6 83bd
00000260: 432c 703d 98d5 8bbd 8bef 23bd 357b 26bd
00000270: ee42 80bc e196 8abd f23c 893d 3d5c 0bbc
00000280: c048 7e3d 50de 8bbd ce75 8b3d 5afe 8c3d
00000290: d3c1 163b f92e 8a3d b2ce 823d 56a6 d8bc
000002a0: 7071 11bd abf9 66bd cb45 71bd 00c3 893d
000002b0: 538c 8bbd 1401 91bd 71d1 9e3b bc8f 80bd
000002c0: 0e06 16bb a4a8 8bbd 4bc6 8abd 40e6 8abd
000002d0: 67eb 8ebd 5c79 2e3d 4230 663d 185a 8bbd
000002e0: 642c 96bd 991a a0bc e479 77bc 0321 7d3d
000002f0: 3d84 8fbb 4f66 003d 7b90 60bd 62ea 2c3d
00000300: d0dc 323c 2f55 7fbd 12be 8fbd 82bc 113c
00000310: 104d 893d e6dc 473c 3840 4dbc 89a0 7dbd
00000320: 1086 84bc f8d0 51bc 78ea a13b 6ba8 81bd
00000330: 39c4 5dbc 55bd 61bc 9ed6 823b 7f05 89bd
00000340: 4816 223d b78c 1a3c 05df 323c d099 623d
00000350: 6872 58bc d1ee 8fbd deb4 a6bb e275 f53b
00000360: 2181 dabd 3779 473c 81b3 ab3d e115 11bd
00000370: bc20 93bd 48bd 433c 8a67 43bc 3254 96bd
00000380: 9dd9 9bbb 0425 4a3c cc51 4fbc 17b4 40bc
00000390: fc9e 7d3d 8c91 3dbc 9709 62bb 39ff 7b3d
000003a0: 30a5 a63d 6c5a af3a 19fd da3d 8451 33bc
000003b0: 1c8a 563c 2fe0 a83c 4b8c 86bd 73e7 513b
000003c0: dbe5 883d 0b3b 603c 18e8 4c3c 80be 553c
000003d0: 35db 8f3c 08a1 043d 6e32 d4bd 6f8e 383c
000003e0: 0f88 993c ad22 8dbd ad51 963d 2f59 1dbc
000003f0: dd89 6c3d 80aa 8abd ae0c 843c 4a40 a2bd

bias f4 [64]
0.042480025 0.009824874 0.0013574759 -0.009444198 0.0028565652 -0.00926594 -0.009295778 -0.009900213
-0.043901887 -0.010077352 0.043926567 -0.0040747165 0.009494985 0.009995936 -0.009246066 0.0027184633
-0.01002176 -0.009271466 0.0061476417 0.009647855 0.043234304 0.009947625 0.04391036 0.009271258
0.043920793 0.043914855 -0.00957361 0.04305541 0.009426325 0.009914736 -0.009270613 -0.009270715
-0.0005753701 -0.011183981 0.04309452 0.0028740906 -0.0028880155 0.0052367616 0.043054387 -0.009495521
0.0430934 0.043068897 -0.043346394 0.04309581 0.04280245 0.042501677 -0.043005858 0.00940002
0.0062938603 0.0015624656 0.043921232 -0.0028400961 0.042457376 -0.0013740117 0.042505093 -0.04309694
0.0015553752 -0.002875992 -0.04212552 0.041601505 0.0019101792 0.0057070255 -0.009447902 0.043091197
00000000: 89ff 2d3d 82f8 203c 55ed b13a d6bb 1abc
00000010: 3635 3b3b 2bd0 17bc 524d 18bc 8134 22bc
00000020: 77d2 33bd 7a1b 25bc 58ec 333d 3385 85bb
00000030: db90 1b3c ffc5 233c d07c 17bc 3f28 323b
00000040: 4f32 24bc 59e7 17bc 2872 c93b 0912 1e3c
00000050: 7416 313d 5dfb 223c 5adb 333d 79e6 173c
00000060: 4ae6 333d 10e0 333d a1da 1cbc df5a 303d
00000070: df70 1a3c 6b71 223c c5e3 17bc 32e4 17bc
00000080: 6fd4 16ba 043d 37bc e183 303d 3d5b 3c3b
00000090: dc44 3dbb 2499 ab3b cc59 303d 1a93 1bbc
000000a0: b482 303d 0369 303d fd8b 31bd 3b85 303d
000000b0: 9f51 2f3d 3d16 2e3d e926 30bd 8b02 1a3c
000000c0: ba3c ce3b a5cb cc3a c0e6 333d e820 3abb
000000d0: c9e7 2d3d 2f18 b4ba d219 2e3d 6b86 30bd
000000e0: bbdd cb3a 247b 3cbb cf8b 2cbd 5766 2a3d
000000f0: fa5e fa3a 0002 bb3b 60cb 1abc 6580 303d

weight f4 [1, 64]
0.2699017 -0.3304777 -0.31544855 0.33772686 0.3057904 0.33188352 0.33197662 0.34479403
-0.27844375 0.32846224 0.27859676 -0.3134687 -0.33848068 -0.32742935 0.3335988 0.30577338
0.33597538 0.33190075 -0.34214482 -0.34111413 0.27416903 -0.33082336 0.27850148 -0.3318955
0.27857134 0.27849093 -0.30537304 0.27292374 -0.33223566 -0.33725068 0.3318988 0.33189765
0.3149951 0.35465598 0.273147 0.3057861 0.3154165 0.30579594 0.27290642 0.3384852
0.27312782 0.27298388 -0.27472886 0.2731376 0.2720167 0.2700079 -0.27263224 -0.33212152
-0.34264642 0.3161713 0.2785746 -0.3057925 0.26980013 0.31514737 0.2700252 -0.27315232
0.31108502 -0.30579048 -0.26914445 0.26605266 0.31651282 0.31268895 0.33768126 0.2731232
00000000: 8e30 8a3e 6034 a9be 7982 a1be 89ea ac3e
00000010: 8f90 9c3e a3ec a93e d7f8 a93e d888 b03e
00000020: 2e90 8ebe 342c a83e 3ca4 8e3e f87e a0be
00000030: 574d adbe d2a4 a7be 76cd aa3e 548e 9c3e
00000040: f704 ac3e e5ee a93e 9b2d afbe 83a6 aebe
00000050: e25f 8c3e ae61 a9be bf97 8e3e 35ee a9be
00000060: e7a0 8e3e 5d96 8e3e db59 9cbe a9bc 8b3e
00000070: cb1a aabe 1fac acbe a4ee a93e 7dee a93e
00000080: 0a47 a13e 7895 b53e ecd9 8b3e ff8f 9c3e
00000090: 467e a13e 4991 9c3e 64ba 8b3e ef4d ad3e
000000a0: 69d7 8b3e 8bc4 8b3e 43a9 8cbe b1d8 8b3e
000000b0: c645 8b3e 7a3e 8a3e 7496 8bbe d50b aabe
000000c0: 5a6f afbe 34e1 a13e 54a1 8e3e d690 9cbe
000000d0: 3e23 8a3e ff5a a13e be40 8a3e 9fda 8bbe
000000e0: 8946 9f3e 9290 9cbe 4dcd 89be 0e38 883e
000000f0: f80d a23e c418 a03e 8fe4 ac3e ced6 8b3e
