models_to_plot/gum/critic.pth (torch_old, 39183 bytes, 12 tensors)

bias f4 [64]
000000 a0 bb 00 00 b4 66 94 3e e7 67 26 ba f0 ba 00 00
       6.7307e-41 0.28984606 -0.000634788 6.706e-41
000010 50 b8 00 00 54 fc 97 3e 51 ae 99 3e 8b cf df 3d
       6.6119e-41 0.296847 0.30015805 0.109282576
000020 65 b0 6b ba 77 b7 0b ba 15 75 02 ba 82 1f 12 39
       -0.00089908234 -0.00053297676 -0.0004976553 0.00013935383
000030 00 db 9a 3e 2e 00 84 3a e3 95 9f 3a 88 bb 00 00
       0.3024521 0.0010070854 0.0012175407 6.7274e-41
000040 9d 86 d9 39 50 bb 00 00 b9 3a de b9 10 d6 79 37
       0.0004148976 6.7195e-41 -0.0004238689 1.4891397e-05
000050 34 28 1e ba f1 a5 ff 39 85 fe 89 3a 30 bc 00 00
       -0.00060332124 0.00048761026 0.0010528123 6.7509e-41
000060 46 66 39 ba ec b5 96 3e a0 16 b9 3e e8 ba 00 00
       -0.000707243 0.2943567 0.36150074 6.705e-41
000070 fc b0 f8 39 77 d9 99 3e 90 fc 50 39 c7 66 0e ba
       0.0004743411 0.30048725 0.00019930513 -0.0005432185
000080 3c 3b d6 39 f1 4d 97 3e 71 5d 9c 3a b1 c6 0f 39
       0.00040861394 0.29551652 0.0011929703 0.00013711561
000090 0e 95 dd 39 44 62 0a ba d8 be 00 00 fb 8b 05 ba
       0.0004226346 -0.0005278925 6.8462e-41 -0.0005094406
0000a0 6d a3 0e ba 6d 48 f2 3e 78 54 94 3e e7 43 9a 3e
       -0.00054412225 0.4732088 0.28970695 0.3012993
0000b0 3d 92 6f 3e a5 53 f4 b9 ce 9b 84 3e 40 b8 00 00
       0.23395629 -0.00046601627 0.2590012 6.6096e-41
0000c0 90 ba 00 00 9c 67 dc 39 08 bf 00 00 e8 bc 00 00
       6.6926e-41 0.00042038865 6.8529e-41 6.7767e-41
0000d0 37 dc 9d 3e 54 b8 96 3e 88 5f 99 3e ad ad 77 b5
       0.30832073 0.29437506 0.29955697 -9.22674e-07
0000e0 b5 e9 80 ba 96 40 0a ba 46 e3 11 ba 47 8d 9b 3e
       -0.0009835275 -0.0005273906 -0.00055651774 0.30381224
0000f0 aa 67 22 bb f1 4b 12 3f f2 da 96 3e 70 b8 00 00
       -0.0024781027 0.5714713 0.29463917 6.6164e-41

weight_orig f4 [64, 1]
000000 2e 69 bd bd 94 6b 4b bd 3b e5 ee 3d fb 17 b1 bd
       -0.09248577 -0.04966314 0.11664816 -0.08647152
000010 cb 35 af bd 46 89 50 bd 7a ef 52 bd 36 cf c7 3d
       -0.08555182 -0.050912164 -0.051497914 0.09756319
000020 03 6f bd 3e c7 e0 b8 3d 86 87 f7 3c 01 9b 6c 3d
       0.36998758 0.09027248 0.03021599 0.05776501
000030 51 9b 54 bd 8e 06 16 3d 04 24 1f 3d d5 eb b1 bd
       -0.051905934 0.036627345 0.038852707 -0.086875595
000040 ab db 73 3d b0 79 b1 bd b2 a5 2d 3d ef 44 60 3d
       0.059535664 -0.08665788 0.042394347 0.05475324
000050 0e 88 89 3d c2 80 6a 3d 00 43 1f 3d 58 f2 b4 bd
       0.067154035 0.0572517 0.038882256 -0.08835286
000060 5b e6 a4 3e aa b6 4e bd 82 0d 66 3d 57 e8 b0 bd
       0.32206997 -0.05046717 0.056165226 -0.08638065
000070 25 cc 79 3d cd 2c 53 bd b4 d7 75 3d 82 3d ac 3d
       0.060985703 -0.051556397 0.060020164 0.08410169
000080 ac bd 2e 3d 91 8f 4f bd 59 d9 25 3d a1 78 6c 3d
       0.042661354 -0.050674025 0.040490482 0.05773223
000090 64 2f 0a 3d 84 30 c2 3d 39 dd bf bd 28 48 48 3e
       0.0337366 0.0948191 -0.09368367 0.19558775
0000a0 c3 61 73 3d 84 5f a8 bd c8 4d 4b bd 8d c4 53 bd
       0.059419405 -0.08221343 -0.049634725 -0.051701117
0000b0 af 9a 83 3d 30 2c 12 3d 2d 8b 7e 3d e4 1c b2 bd
       0.06425988 0.03568667 0.062144447 -0.08696917
0000c0 41 2d b3 bd 1e 3c 13 3d a2 a0 bc bd 99 8d b3 bd
       -0.08748866 0.035946004 -0.09210326 -0.08767242
0000d0 03 d9 73 3d 56 b6 4e bd bb 7e 52 bd b9 a9 a7 3d
       0.05953313 -0.050466858 -0.05139039 0.08186669
0000e0 b4 62 c8 3e 31 08 ce 3d 6b 27 a2 3d a5 99 55 bd
       0.39137805 0.10060156 0.07917675 -0.05214848
0000f0 43 0d c4 3e a4 24 cc bd f8 e7 4e bd 9d 2b ac be
       0.38291368 -0.09967926 -0.05051419 -0.33627024

weight_u f4 [64]
000000 cd 96 c0 3d 61 d5 4e 3d 6b e7 f2 bd b1 10 b4 3d
       0.09403763 0.050496463 -0.11860546 0.08792246
000010 6a 26 b2 3d 0d 09 54 3d 8f 79 56 3d 81 29 cb bd
       0.08698733 0.051766444 0.05236202 -0.099200256
000020 bb 9c c0 be ed fa bb bd cc ae fb bc 5a 93 70 bd
       -0.37619576 -0.0917872 -0.030722998 -0.058734275
000030 94 2c 58 3d ff 8a 18 bd 9c cf 21 bd 19 e8 b4 3d
       0.052776888 -0.037241932 -0.039504632 0.088333316
000040 2c f3 77 bd 0a 74 b4 3d 9a 8f 30 bd 4b 08 64 bd
       -0.06053464 0.08811195 -0.0431057 -0.05567197
000050 d4 d6 8b bd 13 70 6e bd 1d ef 21 bd 9b fb b7 3d
       -0.068280846 -0.05821235 -0.039534677 0.08983537
000060 b0 aa a7 be 9d 2e 52 3d b6 e9 69 bd 41 e0 b3 3d
       -0.32747412 0.051313985 -0.05710765 0.087830074
000070 29 fd 7d bd ea b7 56 3d bb f7 79 bd 5f 21 af bd
       -0.06200901 0.052421488 -0.06102727 -0.08551287
000080 47 ac 31 bd 27 0b 53 3d c2 a1 28 bd 67 70 70 bd
       -0.043377187 0.051524308 -0.04116989 -0.058700945
000090 f8 80 0c bd ab 72 c5 bd 62 15 c3 3d 7a a4 4b be
       -0.03430268 -0.09641012 0.09525563 -0.19886962
0000a0 38 77 77 bd c5 32 ab 3d 15 b7 4e 3d 36 52 57 3d
       -0.06041643 0.08359293 0.05046757 0.052568637
0000b0 ff cf 85 bd 14 a0 14 bd 4a 68 81 bd fb 19 b5 3d
       -0.06533813 -0.036285475 -0.0631872 0.08842846
0000c0 ea 2e b6 3d 92 b4 15 bd e3 ca bf 3d e0 90 b6 3d
       0.08895667 -0.03654916 0.093648694 0.089143515
0000d0 78 f0 77 bd 47 2e 52 3d ec 06 56 3d ed 79 aa bd
       -0.060532063 0.051313665 0.052252695 -0.08324037
0000e0 78 bf cb be 36 7d d1 bd f5 df a4 bd 2d 2f 59 3d
       -0.39794517 -0.1022896 -0.08050529 0.053023506
0000f0 6a 57 c7 be 8c 91 cf 3d bf 60 52 3d 2d 0f af 3e
       -0.3893388 0.10135183 0.051361796 0.34191266

weight f4 [64, 1]
000000 16 46 44 3f f4 10 c8 be fa d3 64 3f ea fa 49 3f
       0.7666944 -0.39075434 0.8938595 0.7889849
000010 78 e3 0d 3e a4 8b ed be 8a 16 27 bf 1c 05 28 3f
       0.13856304 -0.463956 -0.65268767 0.65632796
000020 1a ca 1f 3f 6c f2 d2 3e 7c 23 04 3f 24 74 b0 be
       0.6241776 0.41200578 0.51616645 -0.34463608
000030 c2 8b 5b 3f c8 25 20 3e 3e 06 34 3f 80 a6 d7 bd
       0.8576013 0.15639412 0.70322025 -0.10529804
000040 08 63 4b 3e 58 cb 50 be 70 94 52 3f 90 8f ee 3e
       0.19861996 -0.2039007 0.8225775 0.46593904
000050 1c 86 1f bf a4 92 7a 3f 00 d5 37 3f 78 3e 7a 3e
       -0.6231401 0.97880006 0.7180939 0.24437892
000060 98 21 2e 3e d2 a1 5a bf 14 39 72 bf 84 36 11 bf
       0.17005002 -0.8540317 -0.94618344 -0.5672381
000070 88 c5 30 be 78 1d ae be 20 63 18 bf 9a 1c 49 bf
       -0.17262852 -0.34006858 -0.5952625 -0.7855927
000080 9c 6b 32 bf 98 15 61 3f 90 a0 01 bf 44 5d 7a bf
       -0.6969545 0.87923574 -0.50635624 -0.9779856
000090 32 74 16 bf f4 b9 6d bf 6e 39 46 bf 2c e4 50 bf
       -0.5877105 -0.92861867 -0.7743138 -0.8159816
0000a0 ce 6a 2a bf ee 76 29 bf 84 34 e9 be c0 13 a5 3e
       -0.6656922 -0.661971 -0.4554788 0.3224163
0000b0 96 63 3f 3f cc b6 a1 be 94 05 d1 3e 90 ad 1f 3f
       0.7476133 -0.31584775 0.40824568 0.6237421
0000c0 18 67 4c 3f e0 15 f1 3e 1c 1c cc 3e a0 9d ad be
       0.7984481 0.47087002 0.39865196 -0.3390932
0000d0 ac aa e4 be 86 b1 3e 3f b8 f2 48 3f 64 c7 4f bf
       -0.44661462 0.7448963 0.7849536 -0.8116362
0000e0 9a a0 78 3f ae a6 47 3f c0 5e ab bc ec 40 a8 be
       0.9712006 0.7798871 -0.020919204 -0.3286203
0000f0 34 7a 70 3f d4 68 fe 3e 44 8b fb 3e 60 d3 41 3e
       0.9393647 0.49689353 0.4912969 0.1892829

bias f4 [64]
000000 5e 84 e3 37 6f d5 b6 b7 d1 2d 55 b6 b2 7b 8f 35
       2.7122147e-05 -2.1795478e-05 -3.1766142e-06 1.069033e-06
000010 ef e6 01 3a ca 23 13 b7 88 19 0e b7 36 5a 22 b7
       0.0004955371 -8.770216e-06 -8.469804e-06 -9.676956e-06
000020 cf 78 2c 39 11 b7 a2 36 5f 82 e8 b6 40 53 6d b7
       0.00016448203 4.849288e-06 -6.929316e-06 -1.4145684e-05
000030 cb 55 89 b7 74 63 f9 b6 db 14 8f 36 ca 69 78 b6
       -1.6371623e-05 -7.432356e-06 4.26416e-06 -3.7016457e-06
000040 8a 10 e3 35 3e 09 16 85 83 3d ec 39 83 84 06 38
       1.6917631e-06 -7.0546636e-36 0.00045059258 3.20715e-05
000050 4b 13 2c a5 0c 73 5c a5 9d c1 b9 b6 38 cf 39 b7
       -1.4925159e-16 -1.9120938e-16 -5.535969e-06 -1.1075106e-05
000060 f5 7b 45 b7 44 2e 34 39 cf 81 88 b7 26 93 22 a6
       -1.1770976e-05 0.00017183373 -1.627291e-05 -5.6404464e-16
000070 1f 15 0e b7 1b d2 d1 37 01 d4 82 b7 b1 8e fb b3
       -8.468777e-06 2.501258e-05 -1.559593e-05 -1.1714054e-07
000080 18 91 e4 b7 cb 9f d6 b7 f4 ac a2 36 76 ed 68 b7
       -2.7247283e-05 -2.5585197e-05 4.8481106e-06 -1.3883566e-05
000090 86 96 f9 39 af 02 37 37 d5 c1 61 b7 96 27 0d b6
       0.0004760513 1.0908275e-05 -1.3456175e-05 -2.103368e-06
0000a0 f3 22 44 38 ef 9a 78 b7 3a 26 ea 37 88 ab df b6
       4.676259e-05 -1.4818025e-05 2.7912774e-05 -6.6658868e-06
0000b0 35 c1 32 b7 b3 9c 8f b7 30 69 31 b7 72 f2 ab b7
       -1.0654611e-05 -1.7119897e-05 -1.0574513e-05 -2.0497686e-05
0000c0 c3 2d ec 39 89 eb 3e 37 c5 b7 2d b6 69 0f fc b6
       0.00045047523 1.1379722e-05 -2.5885977e-06 -7.511979e-06
0000d0 2a 04 b9 b6 f8 54 11 b7 67 e4 7a b4 f6 42 d1 b6
       -5.5139144e-06 -8.662457e-06 -2.3366157e-07 -6.2364807e-06
0000e0 00 c5 2d b6 8f 6a 6d b7 8a be cc b6 71 05 1a 38
       -2.5893678e-06 -1.4151111e-05 -6.1018554e-06 3.672153e-05
0000f0 da da 01 38 1e a7 2c b7 dd 8d bc b6 05 0f c2 36
       3.0959818e-05 -1.0290909e-05 -5.6193517e-06 5.783399e-06

weight_orig f4 [64, 64]
000000 2d 6d 72 bd 8b 74 07 be 8d a3 f8 3c fb 6e 25 bd
       -0.05918615 -0.13228051 0.030351425 -0.040389042
000010 a2 95 19 bd d4 a9 0b be 83 23 0b be 0f 0a ae 3d
       -0.037496217 -0.13639003 -0.13587765 0.08498012
000020 ac 2b 37 3d 48 f2 06 3d 10 55 e0 ba 08 2e d8 3c
       0.044719383 0.0329459 -0.0017115194 0.026389137
000030 fc d8 0b be ab 72 80 3d 18 1a 95 3d dd cd 35 bd
       -0.13656992 0.06271871 0.072803676 -0.04438578
000040 26 53 c0 3c 08 c3 26 bd db 3f 60 3c 17 fc cb 3c
       0.023477148 -0.04071334 0.013687099 0.02490048
000050 c5 dc 1e 3d e3 86 d7 3b c1 db 8a 3d f6 3b 30 bd
       0.03878476 0.006577359 0.06780196 -0.043025933
000060 d9 94 23 3d 36 b2 0a be 66 06 be 3d 30 77 30 bd
       0.039936874 -0.13544545 0.09278564 -0.043082416
000070 96 48 30 3c db a6 0a be c6 45 d6 3c 05 ea 38 3d
       0.010759493 -0.13540213 0.026156317 0.045145053
000080 a1 9b 17 3c 45 27 0b be db 32 a4 3d 07 74 d8 3c
       0.009253413 -0.13589199 0.080175124 0.026422514
000090 e4 2f 48 3b bd b7 e9 3c 1f 96 68 bd f3 1e 2a 3d
       0.0030546123 0.028529996 -0.05678379 0.04153342
0000a0 35 48 1d 3d ca 92 3f be b0 a9 06 be 56 b8 0a be
       0.03839894 -0.1870834 -0.13150668 -0.13546881
0000b0 b9 57 cc 3d 36 24 28 3c 1e e4 cf 3d 49 84 33 bd
       0.09977669 0.01026254 0.10150932 -0.04382733
0000c0 b6 9b 3e bd 75 2a 77 3b 38 a6 5f bd 5f 24 31 bd
       -0.046535216 0.0037714515 -0.054601878 -0.043247577
0000d0 63 83 b4 3d af ab 0a be 95 ca 0b be 74 53 45 3d
       0.088141225 -0.13542055 -0.13651498 0.04817529
0000e0 9b f8 4f 3d d1 b2 c2 3c fa 59 19 3d 29 99 0c be
       0.050774198 0.023766907 0.037439324 -0.13730301
0000f0 1c e7 1f 3d 51 43 58 be 49 15 09 be 4b e5 06 3b
       0.039038762 -0.21119429 -0.13387026 0.0020583447
000100 c9 4f 50 3c d4 9b 0f 3c 19 0b c1 3c f7 55 38 3c
       0.012714335 0.00876518 0.023564862 0.011250964
000110 0a 65 33 3c 7f 64 0a 3c 8e 6e 16 3c 7f 96 00 3b
       0.010949383 0.008446812 0.009181632 0.0019620953
000120 c0 18 7b 3d a9 df bc 3b 04 65 8d 3b fc 8f dd ba
       0.0613029 0.005763967 0.0043150205 -0.0016903873
000130 a1 32 1a 3c 2a b9 be bc df 32 be bc 20 38 3e 3c
       0.009411485 -0.023281652 -0.023217617 0.011610061
000140 1b d9 47 bb 86 e5 38 3c 11 8c b2 b8 db 49 01 bb
       -0.0030494395 0.011285191 -8.513791e-05 -0.001972786
000150 8d 30 0b ba d4 e2 f5 bb 58 7e cc bc cf 84 3c 3c
       -0.0005309664 -0.0075038467 -0.02496259 0.011506273
000160 5a a5 46 3d f5 33 08 3c 23 80 b1 bb 52 63 3c 3c
       0.048497535 0.008313169 -0.0054168864 0.011498289
000170 be 8f 03 bb 49 07 18 3c c3 30 d3 ba f7 d1 2a ba
       -0.002007469 0.009279081 -0.0016112555 -0.00065162726
000180 0f 57 02 b9 55 b2 08 3c b6 fb c5 bc 3e 54 eb ba
       -0.00012430198 0.008343299 -0.024167877 -0.0017954183
000190 7e af c0 ba 9d 32 3e 3b 3c 9a 4d 3c 5b bb 45 3c
       -0.0014700738 0.0029021867 0.012548979 0.012068595
0001a0 ff ce 3f 39 e7 60 41 3c 9c 3d 11 3c 45 37 1a 3c
       0.00018292291 0.0118028885 0.0088647865 0.009412591
0001b0 cc d1 83 3b 12 39 0a ba 51 e6 80 3b 60 69 3d 3c
       0.0040228125 -0.00052727864 0.003933706 0.011560768
0001c0 ac fc 40 3c 9e 79 ac ba 02 1c 4b 3c 65 c2 3c 3c
       0.011778992 -0.0013158803 0.012396814 0.011520957
0001d0 e0 b0 ab bb 36 7e 0b 3c 83 78 13 3c 3c b9 0a bb
       -0.005239591 0.008513978 0.0090009 -0.0021167537
0001e0 60 ba 8e 3d 25 37 3d 3c 0d 69 0b 3c 2f 95 1b 3c
       0.06969142 0.011548792 0.008508933 0.009496017
0001f0 b9 a7 83 3d c6 6c 28 3c eb 91 13 3c 6d cd 8d bb
       0.06428475 0.01027984 0.0090069575 -0.004327467
000200 6a 1c cf 3b 35 a0 88 bc 7f 21 30 3c 10 9b e1 3b
       0.006320526 -0.016677955 0.010750174 0.00688494
000210 29 a4 e4 3b 54 33 88 bc 42 e2 88 bc 61 d4 62 3c
       0.006977577 -0.016626038 -0.01670945 0.01384458
000220 e7 0d 14 3c 68 53 8c 3c fe 25 2e 3c 9f 67 84 3c
       0.009036518 0.017129615 0.010629175 0.016162692
000230 5e f4 88 bc dd 09 6c 3c 19 e7 6b 3c 9e 77 dd 3b
       -0.016718086 0.014406648 0.01439836 0.0067586442
000240 4f 31 7a 3c 9f 3a e1 3b 48 96 89 3c 75 9a 84 3c
       0.015270545 0.0068734433 0.016795292 0.016186932
000250 43 68 5a 3c 63 70 5e 3c 41 4b 6d 3c 19 d6 de 3b
       0.013330522 0.0135766 0.014483274 0.006800425
000260 34 7e 19 3c b5 1c 88 bc 1a 4e 3e 3c c4 c9 de 3b
       0.009368468 -0.016615251 0.011615301 0.0067989547
000270 8a 98 47 3c 4c f5 88 bc bd 00 85 3c 00 3f 50 3c
       0.012182364 -0.01671853 0.016235704 0.012710333
000280 32 ae 57 3c d3 22 88 bc b0 4f 6d 3c 3f 5c 83 3c
       0.01316409 -0.016618168 0.014484331 0.016035197
000290 24 2b 3c 3c 8d e1 79 3c f0 0f d1 3b 02 af 80 3c
       0.011484895 0.015251529 0.0063800737 0.01570845
0002a0 e6 76 5a 3c a9 40 85 bc 69 aa 88 bc ce fb 88 bc
       0.013334012 -0.016266184 -0.01668282 -0.016721632
0002b0 97 ac 61 3c 60 5f 85 3c af 08 5d 3c fe 15 de 3b
       0.013774059 0.01628083 0.01349084 0.006777524
0002c0 ab 61 db 3b fe 5a 3b 3c 5e 0a d3 3b ab 99 de 3b
       0.0066949925 0.011435268 0.006440445 0.006793221
0002d0 8c ad 36 3c f0 52 88 bc 59 a4 88 bc 42 c1 58 3c
       0.011149775 -0.01664111 -0.01667993 0.01322967
0002e0 bb a2 12 3c 94 43 6f 3c ed cd 98 3c b5 f8 88 bc
       0.008949931 0.014603514 0.01865288 -0.016720155
0002f0 86 92 12 3c 86 8b 98 bc a2 b1 88 bc ee 80 92 bb
       0.008946067 -0.018621217 -0.016686264 -0.004470936
000300 1c 72 84 3c ef 6d 12 3c 9f e3 d6 3c 1d 6b 5f 3c
       0.016167693 0.008937343 0.026231585 0.013636378
000310 ca df 57 3c 34 8b 11 3c 2c bd 20 3c 0e df 22 3a
       0.013175914 0.008883286 0.009810727 0.00062130473
000320 ad 39 8d 3d da 75 b9 3b a2 04 90 3b fb 6a d5 ba
       0.068957664 0.005659801 0.0043950835 -0.0016282493
000330 99 c8 27 3c 8e 5f dc bc 13 26 d6 bc f2 b8 68 3c
       0.010240697 -0.026901033 -0.026141202 0.014204251
000340 d9 5f 47 bb d9 49 60 3c 63 c3 d4 39 38 2e fe ba
       -0.003042212 0.013689482 0.00040581365 -0.0019392436
000350 4b 75 93 ba 1e ec f5 bb 06 7e ec bc d0 4e 66 3c
       -0.0011250166 -0.007504954 -0.028868686 0.014056876
000360 60 34 5a 3d cc d4 0d 3c b9 61 dd bb fe c2 65 3c
       0.053272605 0.008656692 -0.006756034 0.014023541
000370 e5 5f bc ba 84 fc 24 3c b7 7b c9 ba 14 a5 9c ba
       -0.001437184 0.01006997 -0.0015371953 -0.0011951053
000380 3b a7 5d 39 4f 1e 10 3c e9 c7 df bc ba 9d e0 ba
       0.000211385 0.008796289 -0.027317004 -0.001713685
000390 af 38 be ba b9 38 2e 3b 70 b8 81 3c 04 f9 47 3c
       -0.0014512743 0.0026584102 0.015835017 0.012205366
0003a0 94 54 9b 39 af 79 3e 3c 03 3a 14 3c ce d4 28 3c
       0.0002962692 0.011625691 0.009047034 0.010304643
0003b0 c7 6f 84 3b 79 90 8e b8 5b 24 7f 3b 62 75 67 3c
       0.004041645 -6.797998e-05 0.0038931582 0.014127107
0003c0 2f 64 6d 3c e8 49 a9 ba a9 d3 7e 3c e3 8c 66 3c
       0.014489218 -0.0012915703 0.015553393 0.014071676
0003d0 4e 10 e1 bb c4 58 0f 3c b4 99 1a 3c a0 4b 29 bb
       -0.0068683987 0.008749191 0.00943606 -0.002583243
0003e0 94 f4 95 3d f2 57 42 3c 71 2b 06 3c 65 06 2a 3c
       0.0732204 0.011861788 0.008189068 0.010377501
0003f0 43 17 96 3d 82 d5 2c 3c c2 ce 16 3c bb 53 9e bb
       0.073286556 0.010548951 0.009204568 -0.004831759

weight_u f4 [64]
000000 74 b9 d2 3e a1 33 23 bd dd 50 42 3d 10 e4 33 bd
       0.41157115 -0.03984416 0.0474404 -0.04391867
000010 7f 08 27 be 4b 21 82 bd 61 54 2f bd 6d 21 81 bd
       -0.16311835 -0.063540064 -0.04280508 -0.063052036
000020 43 60 e4 bd 20 7c d2 3e fb 9a 2b bd 88 be 81 bd
       -0.11151173 0.41110325 -0.041895848 -0.06335169
000030 b4 ea 7e bd c4 40 7f bd 73 ef 7e bd 9e 5d 7b bd
       -0.06223555 -0.062317625 -0.062240075 -0.061368577
000040 77 57 66 3d 65 0e 65 be 45 05 27 be 31 22 dc 3b
       0.056235757 -0.22368772 -0.16310604 0.006717943
000050 27 6e f0 3b 53 29 d0 3b 08 0c 3a bd 0a bd 80 bd
       0.00733735 0.0063525825 -0.04542163 -0.06286056
000060 a0 13 4f bd 71 2b e4 bd 75 8d 40 bd 58 d4 a0 bc
       -0.050555825 -0.11141098 -0.047009904 -0.019632503
000070 5b d7 80 bd 9f 1a d3 3e 25 85 7d bd e8 e5 83 bd
       -0.06291076 0.41231248 -0.061894555 -0.064403355
000080 c4 c2 80 bd a7 61 82 bd 35 a9 d2 3e 95 25 7e bd
       -0.062871486 -0.06366282 0.4114472 -0.06204756
000090 33 70 27 be 80 cf be 3b b5 28 31 bd ee 3c 81 bd
       -0.16351394 0.005823076 -0.043251712 -0.063104495
0000a0 72 0e 65 3d 0d 0f 36 bd ce 56 48 3d f2 d6 7e bd
       0.05592198 -0.044447947 0.04891091 -0.062216707
0000b0 bf bf 80 bd ab ae 40 bd be 67 35 bd 0f fa 80 bd
       -0.06286573 -0.047041576 -0.04428839 -0.06297695
0000c0 cd 6b 27 be 9f bf 47 3d cb 75 7e bd fe f7 80 bd
       -0.16349716 0.04876673 -0.062124055 -0.06297301
0000d0 de c3 21 bd e5 ea 80 bd 45 9a d1 3b 04 82 80 bd
       -0.039493434 -0.062948026 0.006396564 -0.062747985
0000e0 cd 7f 1d bd a7 aa 37 bd a5 57 47 3d 23 66 46 3d
       -0.03845196 -0.04484048 0.04866757 0.04843725
0000f0 1f b2 48 3d 6b de 2f bd ff 18 4b 3d fd ae 2b bd
       0.048997995 -0.042936724 0.049584385 -0.04191493

weight_v f4 [64]
000000 89 1c b2 bd d7 8a 62 be f9 f9 60 3c 6b fe 71 bd
       -0.08696849 -0.22123276 0.013731473 -0.059080523
000010 4c 8c 60 bd 36 b0 66 be 3d 1a 69 be 60 97 34 3c
       -0.054821298 -0.22528157 -0.22763915 0.011022419
000020 8f 37 d6 bc 70 16 36 3d 9c 75 9e 3a 23 62 04 3d
       -0.02614954 0.04445499 0.0012089494 0.032320153
000030 08 99 6a be d0 6d e4 3d 72 52 ff 3d 94 7c 84 bd
       -0.2290994 0.111537576 0.12466897 -0.06469074
000040 c6 da fc 3c 82 0d 74 bd 7b c0 ac 3c 0d 88 01 3d
       0.030866038 -0.059583195 0.021087876 0.03162389
000050 c1 a4 69 3d 97 21 69 3b de a9 f3 3d bb 98 81 bd
       0.057041887 0.0035573 0.11897634 -0.06327959
000060 f8 3c 24 bc 64 e5 64 be 05 56 48 bc 07 bb 80 bd
       -0.010024302 -0.2235313 -0.01222754 -0.06285673
000070 b1 d2 c8 3a 74 42 69 be 70 2a 03 3d 68 0b 7d 3d
       0.001532158 -0.22779256 0.032022893 0.061778456
000080 1d cf f9 3b 07 a1 65 be df af 06 3e a3 2e 05 3d
       0.007623567 -0.22424708 0.13153027 0.03251518
000090 a8 c9 ac 3a f1 34 32 3d 28 db a9 bd 36 e0 2c 3d
       0.0013182657 0.04350752 -0.08293754 0.04220601
0000a0 6b 0e 61 3d 89 06 96 be a6 10 62 be 0d b2 69 be
       0.05494539 -0.2930186 -0.22076663 -0.22821827
0000b0 13 1f 4c bb c2 64 a2 3c 3f 8e 97 bb eb e9 82 bd
       -0.0031146451 0.019823436 -0.0046251114 -0.063922726
0000c0 34 b6 8a bd 7b 50 8e 3a 97 08 a3 bd 09 d0 81 bd
       -0.06773034 0.0010857725 -0.07960623 -0.06338508
0000d0 48 f7 5a bc da 34 65 be 63 c1 68 be ac 48 87 3d
       -0.0133646205 -0.22383443 -0.22730021 0.06605658
0000e0 55 25 f1 bc 37 02 a7 3c e9 ee 29 3d bd 8f 6b be
       -0.029436747 0.020386798 0.041487608 -0.2300405
0000f0 66 70 f6 bc 81 73 a6 be 04 78 65 be b6 2f a7 3b
       -0.030082893 -0.32509997 -0.22409064 0.005102123

weight f4 [64, 64]
000000 38 9f fb bd 60 ff 7a bd 54 55 c6 bd 7e 3f a8 3d
       -0.12286228 -0.0612787 -0.09684244 0.08215235
000010 c0 e0 93 3c 54 52 a6 3d 3c a8 cd 3d ca 7a 89 3d
       0.018051505 0.081211716 0.10041854 0.06712873
000020 dc d4 82 3d 00 df 68 bb f0 91 cc 3c 40 23 c9 3c
       0.06388256 -0.003553331 0.024971932 0.024552941
000030 60 38 c4 3b e6 52 f0 3d a8 93 f4 3c 04 59 01 3d
       0.0059881657 0.117345616 0.029855564 0.031579033
000040 b4 15 e4 3d 6c 70 6d bd 42 c2 cd 3d 8e da e3 3d
       0.11136952 -0.057968542 0.10046817 0.111256704
000050 58 25 e9 bd a6 fd b4 bd 00 7f 5d 3c 34 54 ce bd
       -0.11384076 -0.08837442 0.013519049 -0.10074654
000060 9c ae ed 3d 78 2e 6d 3d ac 57 a7 3d f8 05 cc 3c
       0.1160557 0.057905644 0.08171019 0.02490519
000070 20 4d 7f bd c4 fe 30 3d ba ad b0 bd 90 1e d9 bd
       -0.06232941 0.043211713 -0.08626886 -0.106015325
000080 70 ef 83 bd be b7 99 bd 2e 43 c9 bd 6e 78 c8 3d
       -0.064421535 -0.07505749 -0.09827267 0.09788595
000090 2c ed 33 bd e0 c7 ef bc 5a 88 98 bd fc 26 d3 3d
       -0.043927357 -0.029270113 -0.07447882 0.1031017
0000a0 60 52 32 3c 1c c6 5e bd 00 13 d7 3d e6 d8 d4 3d
       0.010883898 -0.05438815 0.10501671 0.103929326
0000b0 a0 d3 22 bd c6 7c ea bd a0 d1 c4 3c 90 0f 02 3d
       -0.039752603 -0.1144958 0.024025738 0.031753123
0000c0 90 8b 02 bd c0 a7 fd 3c 20 eb 6f 3d ac 91 ee 3d
       -0.03187138 0.030963778 0.058573842 0.116488785
0000d0 f2 23 a9 3d 80 bb 3e bc 40 cc 0e 3b ca 91 f9 3d
       0.08258809 -0.011641383 0.0021789223 0.1218601
0000e0 aa 8d be 3d d8 8c f6 bd 1e 8d df bd 18 55 4e 3d
       0.09304364 -0.120385826 -0.10915588 0.05037412
0000f0 f0 1d 40 3c b8 a5 88 3d f0 57 89 3d f8 13 55 bd
       0.011725888 0.06672233 0.06706226 -0.052020997
000100 f4 3f 07 3d d8 cc bd 3c 3e 39 ed bd c0 da ac bb
       0.033019975 0.023168966 -0.11583184 -0.0052751005
000110 60 33 a8 3b a0 94 0e bc 30 b3 33 bd 82 13 e7 3d
       0.0051330775 -0.008702427 -0.04387206 0.11283018
000120 04 17 99 3d c0 b2 ce 3d 20 90 cc bc cc 88 fb bd
       0.07475093 0.100926876 -0.024971068 -0.12281951
000130 70 4c f1 bc ce 5d a5 bd c8 61 ab 3c 76 1d d7 3d
       -0.029455394 -0.080745324 0.02092065 0.10503666
000140 b0 60 ee bc ea 1b c7 bd 18 99 2b 3d 00 ab d6 ba
       -0.029098839 -0.09722121 0.04189405 -0.0016377866
000150 b8 28 b9 bd 1c 37 a0 3d 90 c4 64 3c 3c b9 a9 3d
       -0.090409696 0.07823011 0.01396288 0.08287284
000160 7e c0 d9 bd f8 38 83 bd d8 58 96 3d 4c c3 84 bd
       -0.10632418 -0.0640735 0.07341164 -0.064825624
000170 ea a1 d8 bd 30 f1 75 bd f4 e3 47 bd 5a 6b d9 bd
       -0.10577758 -0.060044467 -0.048801377 -0.10616179
000180 b2 bc fc 3d 6e cf a8 bd 18 1a d7 3c e2 45 98 3d
       0.12340678 -0.08242689 0.02625756 0.07435204
000190 40 23 db 3b d8 db ce 3c 30 a2 77 3d 46 b8 96 3d
       0.0066875517 0.025251314 0.06045741 0.07359366
0001a0 1e 53 d5 bd 32 6d a6 bd 00 d6 25 3b 96 d8 d2 bd
       -0.10416244 -0.08126296 0.0025304556 -0.10295217
0001b0 0c 59 4d 3d 72 c8 af 3d f4 63 3d bd 9c a2 9b bd
       0.05013375 0.08583154 -0.0462379 -0.07599375
0001c0 2c f3 a0 3d 00 f0 4c bd 16 25 fa 3d 32 55 cc bd
       0.07858881 -0.05003357 0.12214105 -0.09977187
0001d0 50 f0 5c bd 18 b6 fe bc 30 c4 ce 3d d0 62 3e 3d
       -0.053940117 -0.031092688 0.100960135 0.046480954
0001e0 ee 36 e7 3d 64 ec 36 bd d0 34 c5 3c 10 d5 6c 3d
       0.11289774 -0.044659033 0.024073035 0.05782038
0001f0 8c 36 28 bd 98 a3 5e bd d8 eb db bd 6a c9 df bd
       -0.041067645 -0.054355234 -0.10738343 -0.109270886
000200 48 6a aa bc 48 a8 85 bd 20 db e3 bb 92 26 b7 3d
       -0.020802632 -0.06526238 -0.006953612 0.089429036
000210 e2 5a d2 bd 60 31 a4 3c b8 6f ed 3d b4 23 ab 3d
       -0.10271241 0.020043075 0.11593574 0.08356419
000220 42 de 9d 3d 12 dd dc 3d 60 90 77 3c ac 64 bf 3d
       0.07708408 0.10784353 0.015110105 0.093453735
000230 36 2b c4 3d 6a e6 f0 3d ae 4e ef 3d 98 0b 9e 3d
       0.09578554 0.11762698 0.11684929 0.07717055
000240 82 20 dd bd 54 74 1e bd d8 5c c7 3d 68 f3 f9 bc
       -0.10797216 -0.038685158 0.097345054 -0.030511573
000250 e4 b0 af bd 80 31 0d bb 08 5d dc bc 68 77 e7 3d
       -0.08578661 -0.0021544397 -0.02689983 0.11302072
000260 e2 89 98 bd 1c e8 c6 bd 80 e1 42 bb c8 0e fb bc
       -0.07448174 -0.0971224 -0.002973646 -0.030646697
000270 18 21 42 3d f8 1b f7 3c 98 77 f2 bc cc 56 25 3d
       0.047394842 0.030164704 -0.029598042 0.04036598
000280 00 c0 0d 3b e0 4a 51 3d 0a b5 f2 bd 00 be 22 bd
       0.0021629333 0.051096797 -0.11850937 -0.03973198
000290 30 37 c6 3d ba 38 e7 3d 90 98 78 bd 40 70 00 bc
       0.09678495 0.112901166 -0.06069237 -0.0078392625
0002a0 9e c2 e5 bd bc b4 75 bd 30 85 01 3d 68 dc 5c 3d
       -0.11218761 -0.059986815 0.031621158 0.053921133
0002b0 1e 5b 84 3d f0 d4 7c bd 58 0f ac 3d 08 3f d9 bd
       0.06462692 -0.06172651 0.08401364 -0.106077254
0002c0 90 18 44 bd f6 7b d3 3d 40 e3 6b bc 88 0b 9e bc
       -0.047874987 0.10326378 -0.014397442 -0.019292608
0002d0 1c e4 cb 3d 20 b6 a2 3c 08 b9 a1 bd 80 61 9d 3d
       0.09955618 0.019862235 -0.0789662 0.07684612
0002e0 7a c5 da 3d 08 1e 80 3c 5c 2a 3d 3d 56 4c e8 bd
       0.10682197 0.01563932 0.046182975 -0.11342685
0002f0 06 51 82 3d 18 1d af bd b8 e8 08 bd e2 be bb 3d
       0.0636311 -0.08550471 -0.033425063 0.091672674
000300 08 2d a1 bd 0c 1f ca bd fc 86 0c bd 94 4a 83 3d
       -0.07869917 -0.09869203 -0.03430842 0.06410709
000310 d8 8e 40 bd 50 86 4f bd 44 d5 25 3d 08 20 e8 bd
       -0.047011226 -0.0506652 0.04048659 -0.113342345
000320 20 88 08 3c 4a e4 cd bd 58 d0 82 3d 98 b9 48 3d
       0.008333236 -0.10053308 0.06387395 0.04900512
000330 94 28 f5 bd f2 70 ea bd 74 37 60 3d 98 8f e7 bc
       -0.1197063 -0.11447324 0.054740384 -0.028266713
000340 60 23 a2 bc ea c7 b0 3d 80 85 03 3b 00 37 c2 bb
       -0.019792259 0.086318806 0.0020068586 -0.0059269667
000350 5c 78 a0 3d d0 25 d0 bc 98 ee ea bc 04 86 dc 3d
       0.07835457 -0.025408655 -0.028678223 0.10767749
000360 58 ef 8e bd d0 c1 af 3d b0 f6 75 bd a0 5f 2c 3c
       -0.06979245 0.08581889 -0.060049713 0.010520846
000370 c0 ce 79 bd 76 af 9f 3d 1a 34 f7 bd 2c 22 78 3d
       -0.060988188 0.077971384 -0.120704845 0.060579464
000380 5e 7f ef bd ce ec 8a 3d 00 3a db 39 40 a7 c3 3b
       -0.11694215 0.06783448 0.00041814148 0.0059708655
000390 60 d3 25 bd 80 33 8e 3b 04 fa 2b bd fc b1 f4 3d
       -0.040484786 0.0043396354 -0.04198648 0.1194801
0003a0 04 c3 5c bd 6c 27 4b 3d 04 2b d6 3d 58 d3 63 3d
       -0.05389692 0.049598143 0.10457423 0.055621475
0003b0 70 aa ae 3c 44 7c 6d 3d d0 99 f8 bd 28 33 5b bd
       0.021321505 0.057979837 -0.121387124 -0.053515583
0003c0 74 36 6b bd 0c 96 f0 bd 8c 62 b0 3d 60 c2 3f 3c
       -0.057424977 -0.11747369 0.08612546 0.011704057
0003d0 6e 2e be bd b0 5b fa bd 90 67 e3 bc aa b2 8c bd
       -0.092861995 -0.12224519 -0.027759343 -0.06870015
0003e0 94 32 77 bd b0 b9 1d bc e0 3c f9 3c 80 a3 14 bb
       -0.06035097 -0.009626791 0.030424535 -0.0022680461
0003f0 48 c5 a3 3d e8 87 69 3d d8 c9 97 bd c6 ca ba bd
       0.07996613 0.057014376 -0.074115455 -0.09120707

weight_orig f4 [1, 64]
000000 ee 81 28 be 55 3f d8 3c eb 31 5a bd 98 c5 e9 3c
       -0.16455814 0.026397387 -0.05327026 0.028536603
000010 1b b2 fb 3d bf 72 1f 3d fe f5 e4 3c 8d 61 1e 3d
       0.1228983 0.03892779 0.02794933 0.03866725
000020 01 12 63 3d e0 33 28 be be 46 e1 3c e0 09 1f 3d
       0.05543709 -0.16426039 0.027499553 0.038827777
000030 a2 9d 1c 3d 1f cb 1c 3d be 9f 1c 3d 09 bd 1a 3d
       0.038236268 0.03827965 0.03823828 0.037777934
000040 53 9f 91 bd fb ac 38 be 4c 54 fb 3d 16 da 67 bd
       -0.07110467 -0.18034737 0.12271938 -0.056604467
000050 e4 0f 33 bd 7c a1 80 bd d5 4f f0 3c ae f7 1d 3d
       -0.043716326 -0.06280801 0.029334942 0.038566284
000060 f9 6d 03 3d c9 0d 63 3d 8e 4d f7 3c 43 f8 8b bd
       0.0320873 0.05543307 0.030188348 -0.068344615
000070 8e 13 1e 3d e3 d2 28 be 3f e0 1b 3d 5d 4f 21 3d
       0.038592868 -0.16486697 0.038055655 0.039382327
000080 63 fe 1d 3d ab b5 1f 3d 50 84 28 be 5d 33 1c 3d
       0.03857268 0.03899161 -0.16456723 0.03813492
000090 6e e7 f8 3d d6 59 67 bd c0 d7 e6 3c 1a 7f 1e 3d
       0.12153517 -0.05648216 0.02817905 0.038695432
0000a0 79 ea 96 bd b6 03 ec 3c c4 67 88 bd 0b 92 1c 3d
       -0.07368941 0.028810363 -0.06660417 0.038225215
0000b0 34 fb 1d 3d 42 76 f7 3c 2b 61 eb 3c b2 38 1e 3d
       0.038569644 0.030207757 0.028732857 0.038628288
0000c0 90 a8 f8 3d 01 98 8d bd 40 5f 1c 3d c1 36 1e 3d
       0.12141526 -0.06913758 0.038176775 0.038626436
0000d0 5e b3 d6 3c 9c 28 1e 3d d9 93 60 bd 27 ba 1d 3d
       0.026208576 0.038612947 -0.0548285 0.038507607
0000e0 39 12 d2 3c be cd ed 3c 0f 42 8e bd 47 54 8f bd
       0.025643455 0.02902877 -0.069461934 -0.069984965
0000f0 e7 ae 92 bd 70 7d e5 3c fd a8 8a bd 04 4c e1 3c
       -0.07162266 0.028013915 -0.06770513 0.027502067

weight_v f4 [64]
000000 32 52 96 be 95 e8 40 3d 5c a5 c2 bd a8 8a 50 3d
       -0.29359585 0.047096808 -0.09504196 0.050913483
000010 f2 87 60 3e 51 3d 8e 3d fb 3f 4c 3d 9b 49 8d 3d
       0.21926859 0.06945289 0.049865704 0.06898805
000020 3a 90 ca 3d 91 0c 96 be 88 f6 48 3d c3 df 8d 3d
       0.0989079 -0.29306462 0.049063236 0.06927445
000030 76 b6 8b 3d 0a df 8b 3d 58 b8 8b 3d bb 09 8a 3d
       0.06821911 0.06829651 0.0682227 0.06740137
000040 e4 e7 01 be 89 be a4 be 43 34 60 3e 32 d4 ce bd
       -0.12686116 -0.32176617 0.21894936 -0.10099067
000050 8b bc 9f bd 08 7f e5 bd 34 60 56 3d 29 eb 8c 3d
       -0.077996336 -0.1120587 0.05233784 0.06880791
000060 5a 7d 6a 3d 76 8c ca 3d c4 9c 5c 3d 03 ba f9 bd
       0.05724845 0.09890072 0.05386044 -0.12193682
000070 07 04 8d 3d 6b 9a 96 be 84 0d 8b 3d 7e e6 8f 3d
       0.06885534 -0.29414687 0.06789687 0.07026385
000080 25 f1 8c 3d 04 79 8e 3d 53 54 96 be a9 57 8b 3d
       0.06881932 0.06956676 -0.2936121 0.06803829
000090 67 0a 5e 3e ca 61 ce bd be ed 4d 3d f7 63 8d 3d
       0.21683656 -0.100772455 0.050275557 0.069038324
0000a0 c8 a0 06 be d0 8a 52 3d fc 5d f3 bd 1f ac 8b 3d
       -0.1314727 0.051401913 -0.118831605 0.06819939
0000b0 4e ee 8c 3d 13 c1 5c 3d d0 f9 51 3d 29 25 8d 3d
       0.068813905 0.053895067 0.05126363 0.06891853
0000c0 52 d2 5d 3e c1 9f fc bd cf 7e 8b 3d 6d 23 8d 3d
       0.21662262 -0.12335158 0.06811296 0.068915226
0000d0 5b 87 3f 3d cf 16 8d 3d f2 56 c8 bd 46 b4 8c 3d
       0.046759944 0.06889116 -0.097822085 0.06870322
0000e0 1e 66 3b 3d 69 23 54 3d 28 cf fd bd 67 b8 ff bd
       0.045751683 0.051791582 -0.123930275 -0.12486344
0000f0 29 da 02 be ce b8 4c 3d d5 63 f7 bd 3c fb 48 3d
       -0.12778534 0.04998093 -0.12079588 0.04906772

weight f4 [1, 64]
000000 32 57 a6 bd 1a 17 e8 3d d0 48 5c 3d 6e 8c 80 3d
       -0.081221 0.11332531 0.053780377 0.06276785
000010 f6 60 ec bd 50 ee 96 3d 38 03 1a 3d 0e 9b e6 bd
       -0.11541931 0.07369673 0.037600726 -0.11260043
000020 90 3b 12 bd 98 bb f2 bc b4 35 0e 3d 94 98 f0 bd
       -0.035701334 -0.029630467 0.034719184 -0.11747852
000030 14 3c c8 bd d8 f2 bc bc 58 9c f7 bc 94 c9 f2 3d
       -0.09777084 -0.023065016 -0.030225918 0.11854854
000040 00 fb 46 bd 2c ad 8a 3d 3e c9 f4 3d 2c 99 e6 bd
       -0.048579216 0.06771311 0.119524464 -0.11259684
000050 2a 7e 9b bd aa 64 8d bd 94 4c cb 3d 4c d2 a4 bd
       -0.07592423 -0.06903966 0.099267155 -0.080479234
000060 6c 18 f9 3d 08 d4 f5 3c e0 43 c0 3b 80 ff 0e bd
       0.12162861 0.030008331 0.0058674663 -0.034911633
000070 98 6a 49 3d 8c b0 7e bd 02 87 be bd 04 b6 2e 3d
       0.04917392 -0.062180087 -0.093030944 0.042654052
000080 80 f4 d9 bb e0 53 70 bd 4c 3e 8e bd 98 75 96 bd
       -0.006651461 -0.05867374 -0.06945476 -0.07346648
000090 a8 b1 fa bd c0 03 f8 bd bc d7 a7 bd 00 c0 00 bb
       -0.122409165 -0.1211009 -0.08195445 -0.001964569
0000a0 32 be fa bd 80 87 f5 bd e0 66 a7 bd d0 9e 18 bc
       -0.12243308 -0.11988735 -0.08173919 -0.009315208
0000b0 74 5e 74 bd 58 1e ef 3c 9c 3b 1b 3d a0 06 f4 bd
       -0.05966039 0.029189274 0.037898645 -0.11915326
0000c0 4e 4a b6 bd d8 cb c3 bd d4 4c 0e bd c8 e7 a1 bc
       -0.08900891 -0.095603645 -0.034741238 -0.019763842
0000d0 c6 10 f8 bd e8 42 f8 bd e0 38 b5 bb 9e 27 9d 3d
       -0.12112574 -0.12122136 -0.0055304617 0.07673572
0000e0 1c 16 27 3d 34 5b ff 3d 04 1c 62 bd f8 f3 0d bd
       0.04079257 0.124685675 -0.0552025 -0.034656495
0000f0 e8 54 45 bd b8 7c 15 bd dc 1d 03 3d 34 d9 58 3d
       -0.048176676 -0.036495894 0.032010898 0.052941516
