models_to_plot/gum/ffjord.pth (torch_old, 84361 bytes, 17 tensors)

weight f4 [64, 1]
000000 f0 d9 1d 3f d4 81 2f bf da 40 d0 bd e4 0c 34 3f
       0.6166067 -0.68557477 -0.101686195 0.7033217
000010 a4 27 03 bf 11 60 73 3f 44 36 ce be 1a f7 4c 3f
       -0.5123236 0.9506846 -0.40275776 0.8006455
000020 e8 b9 3e 3d e1 3d 64 be c7 27 f6 3e af b5 52 3e
       0.046564013 -0.2228923 0.48077223 0.2057712
000030 46 b8 05 3f a6 47 bc be 3b df 35 be 63 05 85 be
       0.52234304 -0.36773413 -0.17760937 -0.25980672
000040 fe e5 6b 3e 45 80 55 3e 2e de 84 3f ea 05 67 3e
       0.23036954 0.20849712 1.0380304 0.2256085
000050 fc d6 e8 be e3 e8 35 bf fa 17 d3 bd 71 42 e3 be
       -0.4547652 -0.7105848 -0.103073075 -0.44386628
000060 40 45 98 be 21 af b1 bd 51 fe 42 3f ff 75 e3 3e
       -0.29740334 -0.08675981 0.76169306 0.4442596
000070 41 09 81 bf a8 65 27 3f a1 ad 3d 3e 71 00 82 3f
       -1.0080949 0.6538949 0.18523265 1.0156385
000080 c1 7f 5f 3f 86 fd 89 bf cb 9b 69 bf a5 74 0a bf
       0.8730431 -1.0780494 -0.91253346 -0.54084235
000090 29 e2 08 3f c4 4a 24 be 4c eb 23 3f 26 8f b3 be
       0.53470093 -0.16044146 0.6403091 -0.3507015
0000a0 08 86 34 3f e7 66 05 bf 54 06 58 3f ab ce 29 be
       0.70517015 -0.5211014 0.84384656 -0.16582744
0000b0 e9 46 e0 be 74 06 29 3f 4e ee 06 bf 70 ee 1b 3f
       -0.438041 0.6602547 -0.52707374 0.609107
0000c0 b7 a4 d3 be 98 2d b0 3d 3e 07 45 bf 24 5e bb be
       -0.41336605 0.08602446 -0.76964176 -0.3659526
0000d0 8b 16 19 3f 75 f5 71 be a3 0d 7f 3f a5 d8 23 3f
       0.5980002 -0.2362879 0.99630183 0.6400245
0000e0 9d 7f 38 3e 48 cc 11 bf fb 61 04 3f a0 d2 1d 3f
       0.1801743 -0.56952333 0.51712006 0.61649513
0000f0 a9 8a c4 be ed 8b 58 3f 86 65 9c 3e 1f df 80 3f
       -0.3838704 0.8458851 0.30546206 1.0068091

bias f4 [64]
000000 c0 4d ca 3c 8d ac 44 bf 73 96 ab 3d c7 1b 34 3f
       0.024695277 -0.7682579 0.08378305 0.70354885
000010 58 e7 cc bf 38 62 84 3e 4b 4e 64 3f 05 b2 0f 3f
       -1.60081 0.25856185 0.89181966 0.5613101
000020 ff 7f fa 3e 5f 2b ce 3d 1f d4 74 3f 87 8c 94 3e
       0.48925778 0.10066866 0.9563617 0.29013464
000030 70 38 93 3f 45 7b 14 3f 15 90 a7 bf 11 c4 36 3f
       1.1501598 0.58000594 -1.3090845 0.71392924
000040 5d 17 5a bf b6 52 76 bf ed cd 13 3f c9 b9 8a be
       -0.851919 -0.96219957 0.5773609 -0.27094868
000050 0e 41 23 3f e6 95 8d bf 0e 17 7d bf f7 f3 5f 3f
       0.6377114 -1.106137 -0.98863304 0.87481636
000060 31 91 46 be 19 2c 53 3f 03 dd 61 3f 9a 68 57 bf
       -0.19391324 0.8248916 0.8822786 -0.84143984
000070 ba 6f b5 be 78 47 ce 3e 57 a3 46 bf 97 9c 9e 3e
       -0.35436803 0.402889 -0.77592987 0.30978844
000080 fd 56 33 3f df ed cb be 38 c1 63 bf 3f a6 f4 be
       0.7005461 -0.3982992 -0.88966703 -0.47783086
000090 aa 8d c2 3f 97 1a 89 be d2 cd 8a 3f da 89 0e 3f
       1.5199482 -0.267781 1.0844061 0.55679095
0000a0 68 ee 05 bf 49 12 ab bf f7 c6 92 3f 34 40 01 3e
       -0.52316904 -1.3364955 1.1466969 0.12622148
0000b0 b2 77 40 3f 2f a2 1e 3f 6b 2a 4c 3e 1b 8d af 3f
       0.7518264 0.6196622 0.19938056 1.3714937
0000c0 50 08 b5 3f 2c 47 45 bf 0d a6 cf bd 4c 74 53 3f
       1.4143162 -0.77061725 -0.101390935 0.8259933
0000d0 10 a3 b1 3f 3e a2 45 3f 83 eb 31 be b3 b3 4a be
       1.3877888 0.77200687 -0.17374997 -0.19795112
0000e0 2f 5b c0 be 4e 55 c1 3d 94 4e c1 3f 00 b9 f1 bf
       -0.37569568 0.09440099 1.5102105 -1.8884583
0000f0 50 7e 23 3f d1 e5 9c 3d 8f 40 89 bf 9c 6e 97 3e
       0.6386461 0.076610215 -1.0722827 0.29576576

weight f4 [64, 1]
000000 97 7e 48 be 27 7f 1d be 5f 0b f3 bf 88 44 9b 3e
       -0.1957954 -0.15380536 -1.8987845 0.30325723
000010 85 26 39 bf 11 eb 74 3d cd 4b 56 3f a5 11 2e 3e
       -0.723244 0.05979449 0.8370941 0.16998918
000020 3f 76 24 3f 39 6b 45 bf 59 ef 81 3e af c5 14 c0
       0.6424293 -0.77116734 0.2537792 -2.3245656
000030 d6 d9 e4 3e f4 d5 73 bf 4a 21 0b bf 98 90 0f 3f
       0.44697446 -0.9524834 -0.5434767 0.5608001
000040 0c e3 bc 3f dc f8 a8 3d d1 f3 1a 3e 4a 06 b1 3f
       1.4756789 0.08250591 0.15132071 1.3830044
000050 c1 50 65 3e cd 66 b5 be fa 8b 55 bf 25 75 9b 3e
       0.22394086 -0.35429993 -0.8341671 0.30362812
000060 c5 85 3c bf a2 41 af be 1a b0 03 3e e6 20 54 3d
       -0.73641616 -0.3422976 0.12860146 0.051789187
000070 0b cc c4 bd fe da a3 3d 21 51 02 40 61 75 97 3d
       -0.096092306 0.08000754 2.0362017 0.07395435
000080 a8 b0 fd 3d 66 da 51 bd d9 8b 4d be a8 3b d8 be
       0.1238721 -0.05123367 -0.20072879 -0.42233014
000090 15 3b 2c 3f 43 d2 59 bf 8a b4 9b 3e a8 05 8f bf
       0.6727765 -0.8508646 0.30411178 -1.1173601
0000a0 4e ef 0b 3f 51 b8 20 bf c3 fa 5f 3e 8f c9 01 40
       0.54662025 -0.62781245 0.21873002 2.0279272
0000b0 f0 c4 01 be aa bd 8b 3e c7 ea 4d 3e 79 2a 33 3f
       -0.12672782 0.2729314 0.20109092 0.69986683
0000c0 b7 36 d8 bd 7d 9b fa 3d 61 49 fc be e7 22 0a 3f
       -0.10557311 0.12236688 -0.49274734 0.53959507
0000d0 88 fc 16 3f 5c 94 88 bf 60 e4 cf bf 6b c0 ae bc
       0.5897908 -1.0670276 -1.624157 -0.021331986
0000e0 17 e4 1a c0 3b 4c f7 bc 64 9d 15 3f 5d ee 04 bf
       -2.4201715 -0.030187717 0.58443284 -0.51926214
0000f0 43 d4 9c bf a5 39 b4 bd 26 f8 c4 3f a6 b3 f4 3c
       -1.2252277 -0.08800057 1.5388229 0.02987082

weight f4 [64, 1]
000000 56 c4 37 be 80 46 25 bd 2f 00 8d 3f 3a 74 59 bd
       -0.1794599 -0.040350437 1.1015681 -0.053089358
000010 ef 55 cb bc 54 c6 29 3c fb 4b af 3f 14 c4 01 bd
       -0.02482125 0.0103622265 1.3695062 -0.031681135
000020 fb 44 69 3d c8 9d 15 3f b2 a2 29 3d 74 29 94 bf
       0.05695055 0.5844388 0.041414924 -1.157515
000030 53 13 26 bd dc 46 57 3f 3c 6d a7 bd 81 65 90 3f
       -0.040545773 0.840925 -0.08175132 1.1280977
000040 f6 72 be 3f 44 5a a1 3d 56 a4 0c bb d8 6a 89 3f
       1.4878833 0.07878545 -0.0021460257 1.0735731
000050 f9 07 23 be 9c e0 fd ba 1f cc 1a 3f 84 4b 97 3f
       -0.1592101 -0.0019369307 0.60467714 1.181992
000060 3f 63 f4 3e 3c 5f 47 bf 79 c0 47 bd 13 b0 7b 3f
       0.4773197 -0.7787969 -0.04876754 0.9831554
000070 a4 01 89 3c 1a dd da bb eb 37 16 3f 21 b7 bc 3b
       0.016724415 -0.0066791894 0.58679074 0.0057591354
000080 c4 26 2a bc 0d ea c2 3b 2f 46 95 bd 37 52 de 3e
       -0.010385219 0.005948311 -0.07288777 0.434221
000090 be 51 6a bc b4 0a 19 3f 71 7f 7a bd ef 36 87 3e
       -0.014301715 0.59781957 -0.061156694 0.26409099
0000a0 36 ee 10 3f 54 24 ce bc 10 74 62 be 2d 9d e3 be
       0.5661348 -0.025163807 -0.22114587 -0.44455853
0000b0 5f e3 17 be e3 28 44 3d 7c b4 9e 3d a4 01 0d be
       -0.14832829 0.047890555 0.077492684 -0.13770157
0000c0 19 56 93 3f bc 1f 60 be 5d a1 7e 3d 50 3c ef 3d
       1.151065 -0.21887106 0.062165607 0.116814256
0000d0 dd f2 c4 bd 3d 1e 78 3f 27 03 d6 bf fb 9b ef bd
       -0.09616635 0.9692114 -1.6719712 -0.11699673
0000e0 b1 ee 1e be 1f e1 86 3e 4f 88 84 bd 21 ac e4 3f
       -0.15520741 0.2634363 -0.06471311 1.786503
0000f0 5b 8e 6a 3f 68 4c af bd 9f 93 86 3f 1d 98 e7 bb
       0.9162347 -0.08559495 1.05138 -0.007067694

bias f4 [64]
000000 9e 32 a1 3e 5c 5d 24 3f e1 0b 91 be 87 95 96 3e
       0.3148393 0.64204955 -0.28329375 0.29410955
000010 46 51 48 3f de 8b 06 3f a7 46 c5 3e 58 31 36 3f
       0.78249013 0.5255717 0.38530466 0.7116904
000020 b6 80 1a 3e ab 17 00 bf ca a3 33 3f 2b d4 00 bf
       0.15088162 -0.50036114 0.701718 -0.5032374
000030 53 21 5b 3f 3c b3 20 bf 18 8c 14 3f 24 a6 61 3f
       0.85597724 -0.6277349 0.58026266 0.88144135
000040 ac c1 84 3f 52 2f 94 3f 6e 24 89 3e f5 dd 06 bf
       1.0371604 1.1576941 0.26785606 -0.5268243
000050 ff e9 28 bf 0d f6 ea 3e d1 d2 bb be 4c ff f4 3c
       -0.6598205 0.45890847 -0.36684278 0.029906891
000060 45 9d 61 be fe a4 df 3e ff db 35 3f 41 d4 d5 3d
       -0.2203265 0.43680567 0.7103881 0.10440875
000070 85 05 53 3e f9 64 02 be e1 24 ff 3e 52 38 fa 3e
       0.20607574 -0.1273383 0.49832824 0.48871094
000080 ac f7 af 3e bb 4a f0 3e 87 1a f1 3e c1 e2 e6 be
       0.34368646 0.46932015 0.4709055 -0.45094875
000090 29 9f 36 3f 5f 63 b7 3e 8e 68 01 3f 66 0d 19 bf
       0.7133661 0.35818002 0.5055016 -0.5978607
0000a0 26 b4 14 bf 9c 2b f6 3e ef 0c 3a 3d 3d 1a 79 be
       -0.58087385 0.48080146 0.04542249 -0.24326415
0000b0 4e 40 3e be 32 b6 23 3d d2 5e 20 3e 49 ba c2 3e
       -0.18579218 0.039968677 0.15661171 0.3803275
0000c0 ff ec 64 3f 61 f3 a1 be 99 cb 44 bf be 5d 20 3f
       0.8942413 -0.31630996 -0.76873165 0.6264304
0000d0 71 71 15 3f ee 3d 81 3f 8a 8f 45 be 9b 66 40 be
       0.5837622 1.0097024 -0.19293037 -0.18789141
0000e0 5b a1 7f bf e4 8d c9 be 57 6b 3f 3f cd 8e 90 3e
       -0.99855584 -0.39366066 0.7477316 0.28233948
0000f0 7b 0a 14 bf 62 fc 04 3f d6 c6 a7 3e ec b1 e1 3e
       -0.5782849 0.51947606 0.32768887 0.44081056

weight f4 [64, 64]
000000 d0 6a 83 bd 59 eb b2 3d a2 6b 36 3e 44 31 fc bd
       -0.06416857 0.08736295 0.17814496 -0.12314084
000010 98 1f 7f 3e cd 7f 78 bd 63 8b d0 bd a2 1b 8b bd
       0.24914396 -0.060668755 -0.10182836 -0.0679238
000020 fd 5a 45 be e8 72 b3 3d b2 21 0c be ce 38 cf 3d
       -0.1927299 0.08762151 -0.13684729 0.101182565
000030 f4 cb 15 be 4e ee 1c 3d 4b 0f 91 3e 7e 29 ce bd
       -0.14628583 0.038313203 0.2833198 -0.10066508
000040 95 f7 3d 3d 0c 97 15 3e c9 56 70 bd 6d 67 ef bd
       0.04637869 0.14608401 -0.058676515 -0.11689649
000050 ae 54 d7 bc 7b 53 e8 3d ba fe 67 3e 05 00 31 bd
       -0.026285496 0.11344048 0.22655764 -0.04321291
000060 e7 30 0b 3e db 06 f3 bd 66 3d c4 bd c4 e9 c6 3c
       0.13592874 -0.11866542 -0.09582023 0.02428139
000070 f9 6b 23 3d 35 a0 d7 bd 59 e2 57 bd f8 4c 32 bd
       0.039897893 -0.10528604 -0.052706096 -0.043530434
000080 66 2f af bd 0e 87 1f 3d 43 23 c4 3d b0 fe 06 3e
       -0.085539624 0.038947158 0.09577038 0.13183093
000090 8d 9a 4d be 31 9f 32 3e 44 6e 03 be 25 f1 9e 3d
       -0.20078488 0.17443539 -0.12835032 0.077608384
0000a0 e2 c0 5d bd e4 50 41 3e 69 e1 cb bd 7f 23 03 be
       -0.054139026 0.18878514 -0.09955103 -0.1280651
0000b0 f9 63 fc b9 07 a8 e9 bd 24 8d 6d 3c 54 39 65 be
       -0.0004813967 -0.11409002 0.014498983 -0.2238515
0000c0 5f 3c ed bd 0f cf c3 3d cb 62 a4 3d ee a9 3b bd
       -0.115837805 0.09560978 0.08026656 -0.045816354
0000d0 37 43 3d be 06 d8 41 bd 31 da b1 bc 21 33 39 bd
       -0.18482672 -0.047325157 -0.021710487 -0.045214776
0000e0 76 c0 37 3e 41 47 8f 3d 62 13 4e be 98 bf fd 3d
       0.17944512 0.069960125 -0.20124581 0.12390059
0000f0 5c 82 60 3d 86 fc 87 bd 14 a5 2a 3d cd 4c 68 bd
       0.05481182 -0.06639962 0.041661337 -0.056713868
000100 6f 54 ec bd 71 6e f2 3d b7 a4 d7 3b 4c 48 dd bc
       -0.11539542 0.11837471 0.006580915 -0.027012013
000110 2e c5 46 3d e5 05 c1 bd 81 a1 06 bf 47 b7 79 3c
       0.04852789 -0.094249524 -0.52590185 0.015241451
000120 85 fd 36 bc 46 a7 1a be 0f 8a 6d 3d 2b 86 81 3e
       -0.011168842 -0.15102872 0.05799299 0.25297675
000130 fd 2d b3 3c 5a b7 aa bd 3d 05 09 3e 00 a8 dd be
       0.021872515 -0.08335753 0.13380904 -0.43292236
000140 12 52 81 3e 3c fa 63 3e 4c 3a 88 bd 64 29 de 3a
       0.25257927 0.22263426 -0.06651744 0.0016949591
000150 81 ac 4b be ed cf 02 bd ac ed 16 bd fb 3b 5a be
       -0.19890024 -0.031936575 -0.036847755 -0.21311943
000160 3f e1 77 3d 50 1f 41 bd 6a b7 a7 bd f2 7f 09 3e
       0.060517546 -0.047149003 -0.0818928 0.13427714
000170 b3 6d db 3d d3 9b e0 bd e6 f3 2c 3e 58 76 8b bc
       0.10714283 -0.10967221 0.16889915 -0.017024204
000180 c2 b3 10 be 3f 66 1c 3e 6f d1 a3 3b 28 8f 0c bd
       -0.14131072 0.15273379 0.0049993317 -0.034316212
000190 4c 7f 20 be 5c e1 8d 3d a2 8b 2b bd ce 58 5c bc
       -0.1567356 0.069277495 -0.04188121 -0.013448907
0001a0 54 a8 37 3c 1c 9d f9 3d 9c 69 c0 bd a2 7b 9c be
       0.011209566 0.12188169 -0.093951434 -0.30563074
0001b0 0f 3f 87 bd f3 84 6a bd 47 cb 12 bc 27 64 eb bd
       -0.06603824 -0.057255697 -0.008959598 -0.11493712
0001c0 87 91 0f bf 69 43 e5 3c 84 39 88 3d 88 fe 3c be
       -0.5608143 0.027986245 0.06651595 -0.18456471
0001d0 da b8 68 bc f2 66 51 be 5b 5a 83 3d 08 92 53 3d
       -0.014204228 -0.20449427 0.06413718 0.051652938
0001e0 e1 b3 43 3e b0 05 cb 3d f4 45 30 be 88 1c 45 3f
       0.19111587 0.09913194 -0.17214185 0.7699666
0001f0 a9 d0 95 bd de 25 52 3b 22 2e 00 3e 4e c4 97 3a
       -0.073151894 0.0032066028 0.12517598 0.0011578889
000200 98 5c 90 3c 2c ca 23 be 77 86 ff 3d c7 19 07 3e
       0.017622277 -0.15995091 0.12476819 0.13193427
000210 21 ee 6a 3c 0e 94 8f 3d 2c bc 0a 3f a5 18 24 3e
       0.014339001 0.07010661 0.5419338 0.16025026
000220 14 63 89 bc 7d 83 c8 3d e4 34 f6 3d 7c 98 b3 bd
       -0.016770877 0.097907044 0.12021807 -0.087693185
000230 a7 4b 05 3e ca d8 55 3d b2 ce 5a 3c 19 9e 07 3f
       0.1301714 0.0522087 0.013354944 0.5297561
000240 79 dd c8 be 5e 48 5b be a6 8a 7c 3c 9b c4 07 be
       -0.3923147 -0.21414325 0.015413916 -0.13258593
000250 f8 4f 4f 3e c3 55 15 be c0 c0 2d bd 1b d6 ea 3d
       0.2024535 -0.14583497 -0.04242015 0.114666186
000260 3f 13 c4 3d 7b ee 06 3e 00 ec 35 3e 50 e0 9b 3a
       0.095739834 0.1317691 0.17765808 0.0011892412
000270 ba 16 45 be 22 39 c1 3d 5f e2 95 be 17 ef 69 ba
       -0.19246951 0.09434725 -0.2927427 -0.0008923872
000280 de 82 f5 3d ce 39 0d be 5a 97 9c bd 41 b2 b8 3c
       0.119878516 -0.13791582 -0.076460555 0.022545936
000290 2f 03 42 3e 49 b6 08 bd a8 95 58 ba 50 1c 4a 3e
       0.18946527 -0.033376966 -0.00082620466 0.19737363
0002a0 fa 29 31 3d 1a cb 19 bd 80 3b f9 3d 10 7e 9b 3d
       0.043252923 -0.03754721 0.12169552 0.07592404
0002b0 c5 05 ff 3d 4d c3 c3 bc 32 81 e3 3b c1 89 0e 3e
       0.12452272 -0.023896838 0.0069428915 0.13919736
0002c0 7c d4 2e 3f c6 60 7a bd 5b ac fd bd 5a bc ea 3d
       0.68292975 -0.061127447 -0.1238639 0.114617065
0002d0 c7 b3 5a 3a b0 32 4b 3e 6a d8 49 bd 2e b8 a5 bc
       0.0008342829 0.19843554 -0.049278654 -0.020229425
0002e0 71 65 2f bb 45 40 95 bd 49 8d 43 3d 8e 5a 51 bf
       -0.0026763345 -0.07287649 0.047742162 -0.817788
0002f0 bb b0 25 3e 85 97 00 3d 9c ca 8f be 26 eb dc 3d
       0.16180699 0.0313945 -0.28084266 0.107870385
000300 d6 de 04 be 14 e6 fb 3d cd 2b 55 bc 0c 08 24 be
       -0.1297563 0.12299743 -0.013010931 -0.16018695
000310 cf e0 b2 bc 7a e7 04 be 19 de 2a bf 42 91 3d bd
       -0.021835713 -0.12978926 -0.66745144 -0.046281107
000320 9a 8e 08 be ca 55 5e be 2f d2 59 3c 46 7b 41 3e
       -0.13335648 -0.21712413 0.013294741 0.18894681
000330 2f a2 d1 bd dc 63 53 be ab 8f bb 3d 7c 2b 04 bf
       -0.10236012 -0.20643562 0.09158262 -0.5162885
000340 23 d9 ad 3e 1b 52 89 3e f9 8a 19 bd 5d 7f f9 3d
       0.33954725 0.26820454 -0.03748605 0.12182496
000350 0f 88 16 be 76 39 bc 3d e1 bd c4 bb 3e d7 6a be
       -0.1470034 0.09190647 -0.0060040806 -0.22933671
000360 00 ab 89 3d f9 9c 27 bd de 6c 09 be c4 dd 34 3e
       0.06722069 -0.040921185 -0.13420436 0.17662722
000370 2c 2b fc 3d 8e 9e 01 be 87 17 6e 3e a8 85 bc bd
       0.12312922 -0.1265814 0.23251162 -0.092051804
000380 21 c5 ef bd 1d 8d da 3d 93 33 95 bc d8 43 db 3d
       -0.11707521 0.106714465 -0.018213069 0.107062995
000390 97 ef f0 bd 37 be 3c 3d b2 05 5d bd 75 a2 11 be
       -0.11764448 0.04607984 -0.05396051 -0.14222129
0003a0 c2 2b ac 3d b2 8d bf bc f2 f5 ee bd f4 ea a2 be
       0.08406784 -0.023382995 -0.11668004 -0.3181988
0003b0 eb ca 9b 3c f6 82 c0 bd ff 9e 95 bd 67 12 0c be
       0.019017657 -0.09399979 -0.07305717 -0.13678895
0003c0 9f 56 38 bf 6d 55 b9 bc 38 c3 a2 3b 34 5b 15 be
       -0.72007173 -0.022623742 0.0049671195 -0.14585572
0003d0 a8 61 d4 bc 05 18 77 be 17 ff ab bd d6 3d a5 bd
       -0.025925472 -0.24130256 -0.08398264 -0.08068435
0003e0 fe 72 31 3d 4d 29 0e bb ee 4d 5e 3c 56 51 61 3f
       0.043322556 -0.0021692098 0.013568385 0.88014734
0003f0 ed 51 33 be ec 67 f5 bd 9d 96 23 3e 02 77 a1 bd
       -0.17511721 -0.11982712 0.15975423 -0.07884027

bias f4 [64]
000000 d5 4e ba be 90 40 f9 bd 77 e0 17 3d 6e 08 88 bd
       -0.3638827 -0.121705174 0.0370793 -0.06642233
000010 8c fd 9e be c5 77 b3 bd 23 6a aa 3d 29 b4 9c be
       -0.31052816 -0.087630786 0.08321025 -0.306062
000020 7b ad b8 3e 00 e1 ab 3e d0 95 be bd 45 6a 57 3e
       0.36069855 0.335701 -0.09305918 0.21036632
000030 6b 32 62 3d 5d bb 81 3d 55 e4 a1 3d aa 8d 31 3d
       0.055223864 0.06334565 0.07904879 0.043347992
000040 a4 0f a4 be 6a 78 18 3c 22 05 89 be 6e 79 b5 be
       -0.32043183 0.009306053 -0.2676173 -0.35444206
000050 67 f1 b1 3e eb 0a 7a 3e d3 fe 07 3e 34 e2 4b 3d
       0.34754488 0.24418227 0.13280801 0.04977627
000060 9f 29 12 be f5 58 3e 3e 51 e8 2f bd 72 d4 bf 3e
       -0.1427369 0.18588622 -0.042946164 0.3746677
000070 16 bd 47 be ad 30 fd 3d f5 7d 01 3d ac 97 8a bd
       -0.19505724 0.123628 0.031614263 -0.0676721
000080 7a 8a 96 3e 73 80 3d bd 76 71 bf be 08 df a2 be
       0.29402524 -0.046265077 -0.3739125 -0.31810784
000090 7e c6 b0 be 2a cf bd be 80 34 08 3e b9 ca b1 3e
       -0.34526438 -0.37072116 0.13301277 0.34724978
0000a0 84 6c f0 bd 4d 38 b5 bd ae 6a b0 be a1 39 9c 3e
       -0.11739448 -0.08848629 -0.3445639 0.30512717
0000b0 35 a5 c2 3e 17 3e 16 3e a2 7a 3d be db ee 9c be
       0.38016668 0.14672123 -0.18503812 -0.30650982
0000c0 8b f6 c6 bc 80 6a ae 3e 21 46 9c 3e a1 47 98 be
       -0.024287483 0.34065628 0.30522254 -0.2974215
0000d0 87 76 15 bc e0 f7 fe 3d 0a a1 68 3e 6d cc 29 3c
       -0.009122497 0.12449622 0.22717682 0.01036368
0000e0 fd 84 4c 3d 8e 58 87 3e 4e 6d 52 3d 78 37 38 3d
       0.049931515 0.2643475 0.051373772 0.044974774
0000f0 3f a9 84 3e f9 af 0f be eb 83 c1 3e 66 c0 9f be
       0.25910375 -0.14031972 0.37795958 -0.31201476

weight f4 [64, 1]
000000 d0 da 30 be a3 0c e2 bd fb 9a a0 be 7a a7 36 3e
       -0.1727097 -0.110375665 -0.3136824 0.17837325
000010 e4 e7 20 be 7f ea e2 3e d9 12 3f bf d8 74 39 be
       -0.15713459 0.4431953 -0.74638134 -0.18110979
000020 61 55 3a 3e 46 44 39 3e 8f f2 01 3f c6 b9 c2 bf
       0.18196632 0.1809245 0.5076074 -1.5212944
000030 02 77 2a 3d 86 de 5c bf f9 bd cb bc 5d 9a d1 3d
       0.0416174 -0.86277044 -0.02487086 0.102345206
000040 6e 8a fa 3e c8 e5 87 be 81 85 38 be 39 0d 47 be
       0.48933738 -0.26542497 -0.18019678 -0.19438638
000050 c4 ec 26 3e 7c 18 e6 3d b3 9b a2 be fa f1 06 3f
       0.16301256 0.11235139 -0.31759414 0.52712977
000060 21 9a 8e be 8b f7 40 3e d9 74 66 3f f8 d7 3b 3e
       -0.27851966 0.1884443 0.90022045 0.18344104
000070 d0 04 62 3f 51 6c 65 bf a4 80 47 3f 9d bd f9 3e
       0.88288593 -0.896184 0.77930665 0.48777476
000080 85 cf 5a 3e 7f ac 9c bd 33 47 3e be 48 b7 14 be
       0.21368225 -0.076500885 -0.18581848 -0.14523041
000090 41 ce 25 be 83 d8 e9 bc 57 5d 8f bf 95 ef 39 3e
       -0.16191961 -0.028545624 -1.120036 0.181578
0000a0 8a 18 f1 be db 4d 4b bf 78 77 25 be 3e f8 46 3e
       -0.47089034 -0.79415673 -0.16158855 0.19430634
0000b0 09 17 2e 3e fb 07 25 bf 97 31 bd be a2 88 77 be
       0.17000975 -0.644653 -0.36951897 -0.24173215
0000c0 13 e0 25 3e c5 03 3c 3e ca e4 25 3e 84 4a 35 be
       0.16198759 0.18360813 0.16200557 -0.17704207
0000d0 24 f1 47 3e 26 3e 25 bf d5 b4 d8 bd 26 cc d1 3e
       0.19525582 -0.64547956 -0.10581366 0.40976065
0000e0 a4 77 63 bf 0f a4 96 3e ff bc cb be cc 22 0b bf
       -0.8885443 0.29422042 -0.3979263 -0.5434997
0000f0 aa 09 55 3e 4f d7 39 3f 4e db 31 3e 5b 87 3c be
       0.20804468 0.7259416 0.17368814 -0.18411009

weight f4 [64, 1]
000000 e4 2b 66 3d ed af e8 bc 5f c0 cd bd c5 ce 91 bd
       0.0561942 -0.0284042 -0.100464575 -0.07119516
000010 9a f9 4a 3d 5b ef 78 3d 66 65 c8 3e b1 20 2d 3d
       0.049554445 0.060775142 0.3913986 0.042267505
000020 0d 99 8a 3d 79 3f 8b 3d d5 d5 71 3f a5 c4 90 3e
       0.06767473 0.06799216 0.94466907 0.28275028
000030 42 e8 a2 bb fd c2 66 3d fc df 51 bc 25 33 54 3d
       -0.004971535 0.0563383 -0.01280975 0.051806588
000040 ee d4 c1 3e fd e8 0f bd 45 9b 81 3d 5b ec 9c 3d
       0.37857765 -0.035134304 0.063284434 0.07662269
000050 cd 4d 70 3d b8 b9 23 3d 44 c1 3c be a3 f2 a3 3e
       0.058667947 0.039972037 -0.184331 0.32021055
000060 36 73 22 3e 39 a4 2c 3e 1a ec 1a 3e 17 55 8f 3d
       0.15864262 0.16859521 0.15129128 0.069986515
000070 47 15 15 3b 6a 9a ad 3e a7 71 d4 3d d6 16 d9 bd
       0.0022748278 0.3390687 0.1037324 -0.10600059
000080 6e e6 a6 3d 61 95 60 bd 44 bf 92 3d 94 7f 1d 3d
       0.0814942 -0.05482996 0.07165387 0.038451746
000090 10 6e 62 3d b3 ab 42 40 bb 79 5d 3d ee 37 76 3d
       0.055280745 3.0417297 0.05407117 0.060111932
0000a0 46 c4 3d 3e d1 89 43 3f ba aa 53 3d 73 16 7c 3d
       0.18531904 0.76382166 0.05167649 0.061544847
0000b0 ba 72 82 3d 9f e4 3d 3d 68 27 ae bd 89 41 ad 3d
       0.063695386 0.04636061 -0.0850361 0.084597655
0000c0 1f 88 82 bd e1 87 89 3d f6 e6 51 3d 97 07 7d 3d
       -0.06373619 0.0671537 0.051245652 0.061774816
0000d0 ad 8c 83 3e 97 d2 97 bd 30 05 b4 3c 31 01 ca 3c
       0.25693265 -0.07413214 0.02197513 0.024658771
0000e0 08 34 99 be d6 48 86 bd 8a 60 71 3b 34 54 7c bd
       -0.2992251 -0.06556861 0.0036831223 -0.06160374
0000f0 17 26 86 3d 0f d3 0e be d1 52 81 3d 21 87 6b 3d
       0.06550234 -0.139477 0.06314624 0.057501916

bias f4 [64]
000000 00 06 e2 3e 8d a0 bc 3e 19 a2 0c 3f 1c 06 d4 3e
       0.44145203 0.3684124 0.5493484 0.4141091
000010 de 6e 95 3e 35 d3 86 3f 44 85 11 bf 48 b2 80 bd
       0.29186147 1.0533205 -0.5684397 -0.062840044
000020 78 c1 09 3f d9 3e 10 3f a8 68 86 be 05 d6 33 40
       0.53810835 0.563459 -0.2625172 2.8099377
000030 61 c9 01 be 8b c9 04 bf 8f ec 50 be 61 8f 9b 3f
       -0.12674476 -0.5187003 -0.2040274 1.2153131
000040 73 4d 2a 40 dc 4f a7 3e 83 fe bc 3e 82 af c7 3e
       2.6609771 0.32678115 0.36912927 0.3900109
000050 36 2f d8 3e 48 34 33 3f 9d fb df be 23 7a 6b 3e
       0.4222352 0.7000165 -0.43746653 0.2299581
000060 79 47 90 3e bd 0e 85 3f e6 11 16 be 55 9c d8 3e
       0.2817953 1.0395123 -0.14655265 0.42306772
000070 88 1d ae 3e 30 38 18 3f 33 ef 87 3e 79 db 73 3f
       0.34006906 0.59460735 0.26549682 0.95256764
000080 89 b1 5d 3e 98 4f a0 be d4 1b 04 3f 67 bd 9e 3e
       0.21649756 -0.31310725 0.5160496 0.31003878
000090 40 7b a4 3e 74 11 e7 3f ad 01 46 3f 45 28 88 3e
       0.32125282 1.8052201 0.7734631 0.26593223
0000a0 73 7c 3a bf 7d c3 1f bf 3c e8 96 3e 78 c9 38 3e
       -0.72846144 -0.62407666 0.29474056 0.18045604
0000b0 e2 4f ce 3e 2a 89 d9 3e eb 86 5d be 35 fc f8 3d
       0.4029532 0.4248746 -0.21633498 0.1215748
0000c0 55 f1 6b 3e a7 85 b5 3e 4d a6 fe 3e 71 71 0c 3f
       0.2304128 0.3545353 0.49736252 0.548606
0000d0 08 d1 9e 3e db 72 71 3e 25 b8 14 3f 40 ea 6b 3f
       0.31018853 0.2357897 0.5809348 0.9215431
0000e0 ab b0 0e be 11 a8 e9 3c 38 67 19 3f 2e ab d6 3d
       -0.13934581 0.028522523 0.59923124 0.10481869
0000f0 ea 87 99 3d 16 8e 68 3e 02 31 f2 3e b9 e1 94 3e
       0.07496627 0.22710451 0.47303015 0.29078463

weight f4 [64, 64]
000000 09 80 3f 3e 89 67 43 3d 02 83 3f bd f1 ae f6 3c
       0.18701185 0.04770616 -0.0467558 0.030112715
000010 7d 0e 3e 3e 60 d7 21 3c 95 c2 2f bd a7 99 25 3e
       0.18560214 0.00987801 -0.042910177 0.16171895
000020 97 77 37 be da a9 4b be 24 3f 22 3c 09 b5 49 3d
       -0.17916714 -0.19889012 0.009902749 0.049244914
000030 de 27 b1 bb 54 07 4a bd 7f 0c 0b 3c 75 40 29 bc
       -0.005406364 -0.049323395 0.008486866 -0.010330309
000040 27 50 67 bd 79 16 08 3d 66 2a 47 3e 17 d4 3a 3e
       -0.056472924 0.033224557 0.19449767 0.18244968
000050 22 37 4a be b1 af 45 be 09 82 32 bd cf e7 18 3d
       -0.19747594 -0.19305302 -0.043581042 0.037330445
000060 08 84 5b 3c 55 df 82 bc 39 03 43 3d 01 e6 34 be
       0.013398178 -0.015975634 0.047610495 -0.17665865
000070 f7 23 1d 3c 84 23 47 bd f4 28 52 3d 05 03 04 3b
       0.009591094 -0.048617855 0.051308587 0.0020143401
000080 8a 48 40 be a1 52 22 3d 36 ff 42 3e 14 bf 37 3e
       -0.18777671 0.039629582 0.19042668 0.17943984
000090 32 81 51 3e 9e ce 89 3e d1 bc f6 3b df 32 42 be
       0.2045944 0.2691545 0.007529833 -0.18964718
0000a0 f0 a3 dd bc 3a c5 be bc 0e 4a 3f 3e 57 d6 3c be
       -0.02705571 -0.023287404 0.18680593 -0.18441139
0000b0 fa 64 37 be 0d 82 cf bc 4c a1 09 3d 12 66 35 3e
       -0.17909613 -0.025330568 0.03360109 0.17714718
0000c0 00 20 14 bd 1a 52 39 be 6a 39 29 be dc 35 43 3e
       -0.03616333 -0.18097726 -0.16525808 0.19063514
0000d0 72 bf 06 3d 90 d1 84 bc 27 c0 1b bd 7b 46 cd bc
       0.03289742 -0.016213208 -0.038025048 -0.025058022
0000e0 8a 2e 0f bd 71 34 4d be 28 d7 1b bd 6d 1d 86 bc
       -0.034956492 -0.20039536 -0.038046986 -0.016371453
0000f0 bf 1c 42 be fd f5 c5 3c 7c f0 32 be 95 8b 51 3e
       -0.18956278 0.024165148 -0.1747455 0.20463403
000100 b2 4b 06 3e 69 ce 8c bd f4 62 e4 bd e0 38 d5 3c
       0.13114813 -0.06875307 -0.11151686 0.026028097
000110 5a a4 9f 3c b5 6c 23 be 95 bd b6 be 57 6a 10 3e
       0.019487549 -0.15959437 -0.35691515 0.14103065
000120 34 cb 9d bd b5 36 3a 3d 28 34 f0 3e d7 9d fd 3e
       -0.077047735 0.04546233 0.46914792 0.49534485
000130 45 ac 4c bc ef 48 ed be 6d 3d 11 3d 9e 13 84 3e
       -0.012492244 -0.46344706 0.03545897 0.25796217
000140 ea bf 05 bf e2 08 d0 bd fb d4 df bc 6a 31 a5 3b
       -0.5224596 -0.10157944 -0.027323237 0.005041291
000150 65 cf 9c ba 61 53 cf bb e8 99 ac 3c bb db 0f 3f
       -0.0011963664 -0.006327078 0.021069482 0.5619466
000160 c6 13 9f be 14 84 85 3d 90 83 f9 3e 44 c4 fe bb
       -0.31069773 0.065193325 0.48733187 -0.0077748615
000170 cf 6a ae 3d 3b c9 09 bf f6 0f d6 3e 51 2c f8 3d
       0.08516466 -0.5382268 0.41809052 0.12117828
000180 21 5d a0 3c 2e 37 c7 bc 85 de ba 3d 35 39 c7 3d
       0.019575657 -0.024318304 0.091244735 0.09727708
000190 05 8f cd 3d ff 41 e4 be 46 4a 03 be 44 26 10 bd
       0.100370444 -0.445816 -0.12821302 -0.035192743
0001a0 39 64 dc be 42 44 03 bf dc 4f c3 3c 9c 0b f1 bd
       -0.43045214 -0.5127603 0.02384179 -0.117697924
0001b0 0a 84 9f bd 58 de 58 be 3f 5e ab bd 58 eb ad 3d
       -0.07788856 -0.21178567 -0.083675854 0.08492154
0001c0 a6 07 0e 3d 90 e7 8a bd cc 55 65 bd 3c 36 43 bd
       0.034675263 -0.06782448 -0.055990025 -0.047659144
0001d0 31 aa e3 3e b7 9c 99 bc 3d e9 df bc b2 2b 0b 3e
       0.44465783 -0.018751485 -0.027332896 0.13590887
0001e0 c0 2d d1 bd e3 13 e5 bd 65 12 25 3d ba 03 50 bd
       -0.10213804 -0.11185434 0.040300746 -0.050784804
0001f0 52 11 9d bd 0e dd cf 3d af 37 a2 bd f0 02 0f 3d
       -0.07669319 0.10149585 -0.07920777 0.03491491
000200 43 08 4a 3d 30 13 05 3e de 05 5e 3d 0a d3 6b 3c
       0.049324285 0.129956 0.054204814 0.014393577
000210 d0 56 b9 bd 61 7c 8b 3e 5e 44 b9 3e f2 e5 5b 3c
       -0.09049761 0.2724333 0.36184973 0.013421522
000220 44 44 05 3e 2f 44 05 3e a9 08 07 bf 6b d5 8e bf
       0.13014323 0.13014291 -0.5274759 -1.115888
000230 8b 7f 58 3d ce 3a 06 3f 27 7c b0 3b c4 2d 89 be
       0.05285601 0.5243348 0.005385894 -0.2679273
000240 43 d6 85 3f 3b 63 00 3d 72 e5 ce bc 7d 8b 09 be
       1.0456012 0.031344634 -0.025255892 -0.13432117
000250 4a 8d bd 3d 37 7a e9 bc e1 5c c3 bd 34 34 d1 be
       0.092554644 -0.02850066 -0.095391996 -0.4086014
000260 37 84 98 3e d0 11 0a bf 52 6d 16 bf 10 b7 ca 3d
       0.29788372 -0.5393343 -0.5876056 0.09898198
000270 c4 ae 24 3d 75 3c 09 3f 46 8f 94 be 65 c1 e5 3d
       0.040205732 0.53607875 -0.2901556 0.11218528
000280 b2 73 f6 3d 81 9f f9 3d 8f cc 57 bd 70 0a b6 bc
       0.12033786 0.12188626 -0.052685317 -0.022221774
000290 23 a7 03 be cf b2 26 3f 96 00 37 bd 16 c5 e6 3d
       -0.12856726 0.6511659 -0.044678293 0.1126806
0002a0 ea 88 0b 3f a2 49 ec 3e 1f 22 ba bd e4 54 bd 3d
       0.5450579 0.46149927 -0.09088539 0.09244707
0002b0 80 fa 8f 3d 81 8f f3 bc 59 b1 94 3d a4 4f e4 bd
       0.07030201 -0.029731514 0.07260389 -0.11148003
0002c0 6c c1 bd bc 59 bb 90 3d 57 94 82 3d a2 26 05 3d
       -0.02316352 0.07066984 0.0637595 0.032507546
0002d0 8d a7 f2 be 49 ea 0a 3e 8e b6 9b bb ad 4c 9e bd
       -0.47393456 0.13565935 -0.004751987 -0.077294685
0002e0 26 61 11 3c 8b 23 a5 bd 02 e0 de bc 8e f1 8b 3c
       0.00887326 -0.0806342 -0.027206425 0.017082956
0002f0 85 cc 32 3d 3d 73 85 3c 92 b8 71 bc ce 04 aa 3d
       0.043652076 0.016290301 -0.014753478 0.08301698
000300 8a 24 90 bd 05 7f 44 bd 8c fc 9e 3c da 16 4c 3d
       -0.07038219 -0.047972698 0.019407533 0.04982648
000310 2f 47 ed 3c 45 ac 1c 3e 1d 25 92 3e 06 f5 bf bd
       0.028964607 0.1530009 0.2854394 -0.093729064
000320 b1 d0 2d bd cb 62 f2 3c 60 96 22 bf f2 a2 4d bf
       -0.04243535 0.029588124 -0.63510704 -0.8032676
000330 f0 cc 5a 3b 6c 89 09 3f f2 56 cd 3d d7 6e 70 be
       0.0033386312 0.53725314 0.10026349 -0.23479782
000340 b6 26 6c 3f 81 32 27 3d 23 39 81 bd 07 12 56 bd
       0.9224657 0.04081965 -0.06309726 -0.052263286
000350 ad a0 4a bc d2 3e 01 3e ab 91 f1 bd 78 d2 0b bf
       -0.01236741 0.1262162 -0.11795362 -0.54618025
000360 d4 ba b4 3e 06 f5 e1 be 83 31 19 bf 0d b2 b0 3d
       0.3529879 -0.4413225 -0.59841174 0.086277105
000370 af a2 6d bd 61 ba 02 3f 02 e5 c2 be fe 6d 1d bd
       -0.058016475 0.5106564 -0.38065344 -0.038434975
000380 58 5a 57 3c 6f 42 ca 3d 7b 1b 31 bd 60 41 dc 3b
       0.013144098 0.098759525 -0.043239098 0.0067216605
000390 21 7b 9d bd e5 29 36 3f e4 77 ca 3d ae fd fc 3d
       -0.076895006 0.71157676 0.098861486 0.12353073
0003a0 05 2e ee 3e 37 28 f4 3e 84 df 0a 3c dc 40 a1 bb
       0.46519485 0.47686931 0.008476142 -0.004921062
0003b0 10 89 f1 bb 53 70 61 3e eb 99 2d 3e dc f7 68 3d
       -0.0073710755 0.22015505 0.16953246 0.056877002
0003c0 22 46 c7 bc 23 b2 a1 3c 22 32 f3 bc 7e cb d4 bd
       -0.024325434 0.019738263 -0.029686991 -0.103903756
0003d0 e7 79 e6 be 9d 1d e5 3d e9 a3 99 3d 5a 72 05 bd
       -0.4501488 0.11187289 0.075019665 -0.032579757
0003e0 f8 39 1c 3e d6 fa fc 3d 85 25 bf 3a af 1f ad 3d
       0.15256488 0.12352531 0.0014583325 0.08453309
0003f0 b0 38 0e 3e a8 fb 02 be 6b 44 a3 3d 89 fb 37 bd
       0.13888812 -0.12791312 0.07972034 -0.044917617

bias f4 [64]
000000 f6 8e 65 be 5a db 21 3c 91 ea b5 3d eb b2 7e 3d
       -0.22417817 0.009878958 0.088826306 0.06218235
000010 51 21 36 bc e7 91 70 3e 00 dd 6c be 6e 71 00 bd
       -0.011116342 0.23493157 -0.2313118 -0.031358175
000020 aa 6a 19 3e 51 b9 2c be 3d fd 29 be 94 13 1c 3d
       0.14982095 -0.16867568 -0.16600509 0.03810461
000030 36 2d 1b bc 05 32 3c 3e 17 41 3d 3e 9c 8a 51 3e
       -0.009471228 0.18378456 0.18481861 0.20463032
000040 5a 62 b2 3d 00 19 ed 3d b1 f3 4e 3e 3b 50 39 be
       0.08710165 0.11577034 0.20210148 -0.18097012
000050 83 46 23 be 30 6b 2f be 82 79 41 3e fc a1 2e be
       -0.15944867 -0.17130733 0.18894008 -0.1705398
000060 db a9 59 3e 55 7e 0a 3e 0d 36 64 bc d0 b9 28 be
       0.21256201 0.13524754 -0.013928902 -0.16477132
000070 0a 01 36 3e 10 f6 3b be 2a 04 23 be c2 67 1a be
       0.17773834 -0.18355584 -0.15919557 -0.15078643
000080 71 72 46 3e 5c 63 df 3c 47 5a 88 3b 0f e7 e6 bd
       0.19379593 0.027269058 0.0041611525 -0.1127454
000090 01 78 21 3e 49 f6 3d 3e 31 85 4b bd 64 d2 df 3c
       0.15768434 0.18550982 -0.049687568 0.027322002
0000a0 19 fb 1f 3e 68 63 03 3d 4b 33 46 3e d5 62 3c be
       0.1562313 0.032077223 0.19355504 -0.18397076
0000b0 88 71 b5 bc e3 c5 fb bd af 25 a8 bd 31 1e 36 3e
       -0.022148862 -0.12293603 -0.082103126 0.17784955
0000c0 1b 35 3a be 3b 89 51 be 75 76 3e be 4e a7 86 3d
       -0.1818432 -0.20462506 -0.18599875 0.065748796
0000d0 76 34 2f 3e 96 9e 21 3e 95 50 94 bd 2e 9b 41 be
       0.17109856 0.15783152 -0.07241932 -0.18906853
0000e0 39 9e 3e 3e 13 85 37 be 84 ae 0c bd d0 b0 34 bd
       0.18615045 -0.17921858 -0.03434612 -0.044113934
0000f0 47 7c 77 bd ae ea 32 be c7 83 27 3e 5a 80 21 be
       -0.060421254 -0.17472336 0.16358863 -0.15771618

weight f4 [64, 1]
000000 8e 7c 85 bd 9a ef d1 bd cc 3a ce bd eb 8e 1a bf
       -0.065178975 -0.102507785 -0.10069808 -0.60374326
000010 d2 3c 98 be b0 cf 9c 3d f5 66 d1 be a1 20 07 bf
       -0.29733902 0.07656801 -0.40898862 -0.5278416
000020 60 0a 59 3d 84 18 60 bd 29 18 81 bd 40 84 b1 3d
       0.05298841 -0.05471088 -0.06303436 0.08667803
000030 c0 2a 4a 3e a0 cb 8d 3d 7a 37 d4 bc bf 29 59 3d
       0.1974287 0.06923604 -0.02590536 0.053018328
000040 ba 90 b9 be 6a 4b c7 be 7f 04 6c 3d 0d 55 61 bd
       -0.3624323 -0.38924724 0.057621475 -0.05501275
000050 ce e0 5c bd a0 25 5c bd 7b 0d 63 3d f8 f7 5c bd
       -0.053925328 -0.05374682 0.055432778 -0.05394742
000060 68 9a 87 3d 47 ea 6f 3e 76 df 04 3d 7b 30 a3 bd
       0.066212475 0.23429213 0.03243967 -0.07968231
000070 f7 bc 61 3d 88 d9 ae bd 09 f9 55 bd b0 7a 54 bd
       0.05511185 -0.085375845 -0.05223945 -0.051874816
000080 2b a5 a4 3e 49 2b 0c bf 39 a0 b9 bd c0 0e c0 be
       0.32157263 -0.5475355 -0.09063763 -0.37511253
000090 58 a2 59 3d cb 90 59 3d dd e7 a2 be af 0e fa 3e
       0.05313334 0.0531166 -0.31817523 0.48839328
0000a0 0b 3f 55 3d db ba 59 be 65 b7 62 3d dc ec 8c 3e
       0.052062076 -0.21262686 0.05535068 0.2752446
0000b0 00 48 9b be 19 0b fb be 3a 95 b5 3e 6c 0b 61 3d
       -0.3032837 -0.49031904 0.35465413 0.054942533
0000c0 4b 46 9f bd 94 9b 7c bd 02 ab 5d bd 46 1c ef 3b
       -0.07777079 -0.06167181 -0.054118164 0.0072970716
0000d0 6d 71 59 3d 1c 42 62 3d 85 37 20 3f 2d b4 5e bd
       0.053086687 0.055238828 0.62584716 -0.054371048
0000e0 09 c4 90 3d 06 dc cb bd d2 ff 40 bf f1 1d 08 bf
       0.07068641 -0.099540755 -0.7539035 -0.53170687
0000f0 65 29 ce 3d 1e 4b 59 bd 88 71 82 3e cf 14 fd 3e
       0.10066489 -0.053050153 0.25477242 0.49429938

weight f4 [64, 1]
000000 96 03 72 3d a1 32 32 3d 14 fe 66 3d d1 8b bc 3c
       0.05908545 0.043505315 0.05639465 0.023015888
000010 5c 60 29 3d 9f 61 88 3d f1 83 76 be da 99 a8 bc
       0.04135166 0.06659245 -0.24073769 -0.020581175
000020 33 b5 29 3d 44 70 3a 3d 8f 89 85 3d 93 1a 02 3e
       0.04143257 0.04551722 0.06520378 0.1270545
000030 95 9d f3 3d be 38 7d 3d 97 19 0d 3e 1f 70 c5 3d
       0.11895291 0.06182169 0.13779293 0.09640526
000040 8a 33 05 3d ae c0 02 3f 14 f5 48 3d 76 06 38 3d
       0.032519855 0.51075256 0.04906185 0.044928037
000050 33 0d 2f 3d ed 47 2c 3d 72 6f 40 3d 61 34 2f 3d
       0.042737197 0.04206078 0.046981283 0.04277456
000060 96 86 71 3d db 22 32 3e 33 53 8a 3d a2 d9 dc 3d
       0.05896624 0.17396109 0.0675415 0.10783698
000070 4b 26 38 3d e5 e0 bd 3d fe 86 25 3d db 3c 24 3d
       0.044958394 0.09271411 0.04041194 0.0400971
000080 f4 28 7a be dc c9 81 3e 8d 29 5e 3e 8f 22 b1 bd
       -0.24429685 0.2534932 0.21695538 -0.0864917
000090 0b c1 27 3d 47 56 2a 3d ce 43 dd 3d 38 6b 5e 3e
       0.040955584 0.041586187 0.10803948 0.21720588
0000a0 1e d5 23 3d 8b 7e b4 3d 0c 2c 39 3d 1d c8 29 3f
       0.039998166 0.08813199 0.045208022 0.66320974
0000b0 76 71 20 3d 62 71 10 3f 20 d3 92 3d bb af 37 3d
       0.039170705 0.5642301 0.07169175 0.044845324
0000c0 28 ea 7e 3d 95 90 84 3d 00 a0 31 3d f9 e6 80 3f
       0.062235028 0.06472889 0.04336548 1.0070487
0000d0 ee ca 2a 3d f5 6e 3a 3d 7e 54 be 3c e4 2e 34 3d
       0.041697435 0.045515973 0.023233648 0.04399003
0000e0 e5 fd 8e 3d 55 de f8 3c a2 f1 03 3e af cf 85 3f
       0.0698202 0.030379454 0.12885144 1.0454005
0000f0 ff 9a 93 3f 34 2f 2c 3d ab ea b0 3e e6 cb 10 3f
       1.1531676 0.042037204 0.34554037 0.56561124

bias f4 [64]
000000 f8 76 c0 bd d0 77 e1 3e 0e 00 ab 3f 84 9f 8d 3f
       -0.093976915 0.44036722 1.3359392 1.1064305
000010 a0 3b 56 3f 8e 11 7f 3e e4 e7 f7 be 4e 88 42 3e
       0.8368473 0.2490904 -0.48419106 0.18997309
000020 07 4e e9 3e 5e 73 a1 3e 06 ba 00 3e 21 72 ab 3f
       0.45567343 0.3153333 0.12570962 1.3394204
000030 7c bf 08 40 54 c8 91 bd e9 a1 12 40 4b 72 3e be
       2.1366873 -0.07118288 2.2911322 -0.18598287
000040 01 63 6f 3f d9 6b 22 bf 4d c8 ad 3e b9 4b d0 3e
       0.9351044 -0.6344581 0.3394188 0.40682772
000050 f3 b7 ea 3e e3 6c fd 3e 80 35 a4 3e c5 18 e7 3e
       0.45843467 0.49497136 0.32072067 0.45136085
000060 4f 7b 28 3e c9 64 61 3f 68 e7 fd 3f 0f 1b 0d bd
       0.16453288 0.8804441 1.9836245 -0.034449633
000070 41 63 cf 3e b9 30 3a 3d c3 7b c9 3e a6 57 e7 3e
       0.40505412 0.04545662 0.39352235 0.45184058
000080 a1 57 1b bf 27 f3 f6 be 79 1c cf 3f 93 60 f3 be
       -0.60680586 -0.48232386 1.6180564 -0.47534618
000090 d1 b1 fe 3e 2f 36 f1 3e d2 78 cd be 41 27 42 3f
       0.49745038 0.4711165 -0.4013124 0.75841147
0000a0 ff 52 dd 3e 71 a4 0f 3f c8 70 d8 3e 34 2e a9 bd
       0.43227383 0.5611029 0.42273545 -0.08260766
0000b0 a5 59 fd 3f 44 4c 1f bf db 7f 51 3f 3c e6 bf 3e
       1.9792982 -0.6222575 0.81835717 0.37480342
0000c0 b0 48 08 be d7 da 9a 3d 3e b4 ec 3e ef 48 ce 3f
       -0.13308978 0.07561272 0.46231264 1.6116008
0000d0 e8 dc e8 3e 27 99 ce 3e e0 b8 79 3f c9 86 da 3e
       0.45481038 0.4035122 0.9754772 0.42680958
0000e0 54 b9 8e 3d 87 2b 6a be 19 36 f9 bd 7c 9b b0 be
       0.06968942 -0.22868167 -0.121685214 -0.34493625
0000f0 32 a2 a7 bd d5 ee c9 3e 21 b2 d2 be e5 86 be be
       -0.08185233 0.39440027 -0.41151527 -0.3721229

weight f4 [1, 64]
000000 d3 c2 c3 3e af ec ca be b0 59 09 3f 44 14 01 3f
       0.38234577 -0.396337 0.5365248 0.5042155
000010 37 41 fc 3e 4d 0a d2 be ed e9 b6 3e 5f 77 b1 3e
       0.49268505 -0.41023484 0.35725346 0.34661385
000020 a8 2f c4 be 32 c4 aa 3e 30 57 ca 3e d0 f5 30 bf
       -0.3831761 0.3335281 0.39519644 -0.6912508
000030 ce 51 56 3f ff 0d b2 be 02 ea 77 3f fd 74 c6 be
       0.83718574 -0.34776303 0.9684144 -0.3876113
000040 e0 41 fa 3e 7b f8 d4 be c3 cd ce be 4a 6b cd 3e
       0.48878384 -0.41595826 -0.4039136 0.40120918
000050 d6 32 cd 3e b6 f4 d8 3e d1 3d c0 be 51 88 cf 3e
       0.40077847 0.423742 -0.37547162 0.4053369
000060 18 a4 d4 be ec 80 e9 be 94 3c 2b 3f ec d4 c7 3e
       -0.41531444 -0.45606172 0.6688931 0.39029634
000070 64 8a d4 be 55 3f c6 3e bc f2 a1 3e fb d0 b0 3e
       -0.41511834 0.38720194 0.31630504 0.3453444
000080 23 33 be be f6 ab db 3e 5b 01 47 bf b8 4e b8 3e
       -0.3714839 0.42904633 -0.77736443 0.35997558
000090 93 bf ce be d6 49 cc be 94 b7 c6 3e 76 f2 f2 be
       -0.40380535 -0.39900082 0.38811934 -0.47450608
0000a0 e6 a0 a4 be 41 bc 0d 3f ff a6 df be f7 91 fe 3e
       -0.32154006 0.5536538 -0.43682095 0.49720737
0000b0 e0 41 42 3f 49 23 f1 3e 41 0e 0f bf da 34 bc be
       0.7588177 0.47097233 -0.55881125 -0.36759073
0000c0 dd 9f d9 3e c9 e2 c4 3e e0 fa dc 3e e6 f3 97 bf
       0.42504779 0.38454273 0.43160152 -1.1871307
0000d0 34 54 c2 be 71 a9 dc be 06 f8 0c bf 0f e3 ce 3e
       -0.37954867 -0.43098024 -0.55065954 0.40407607
0000e0 95 2f d6 be f7 82 cf 3e 92 9f e6 3e 87 f9 12 3f
       -0.41833177 0.40529606 0.45043617 0.57412
0000f0 3b ce 10 3f d4 e5 ac 3e a9 07 e4 be 85 ae b8 3e
       0.5656468 0.33769095 -0.44537094 0.36070648

_e f4 [10000, 1]
000000 b3 13 b2 3e ef 63 c8 bd 92 83 7d 3e 78 fd 90 3f
       0.34780654 -0.09784686 0.24757221 1.1327353
000010 99 a7 a9 be 56 9d a9 3e ef 94 8f be 84 61 44 bd
       -0.3313568 0.3312785 -0.28043315 -0.04794456
000020 10 b2 81 3f 54 bf 00 bb 41 9c fb 3f 5b 15 ec 3f
       1.0132465 -0.001964529 1.965706 1.8444017
000030 41 3d 48 bf 22 3d 62 3f 5d be 5f 3e 9c db 85 3f
       -0.78218466 0.8837453 0.21849962 1.0457644
000040 f3 c5 80 3f 97 26 d6 bf e8 7e 12 bf e1 5e b4 3f
       1.0060409 -1.6730527 -0.57224894 1.4091455
000050 13 50 3d 3f 48 17 a1 bf ac 75 04 40 77 4a e0 be
       0.7395031 -1.258523 2.0696821 -0.43806812
000060 ca fa a9 3f b7 79 d5 3f 72 aa be bf 2c e0 94 3f
       1.327966 1.667777 -1.4895766 1.1630912
000070 99 5a bb bf d4 22 c1 3e 4e 3c 26 3e 75 99 80 3f
       -1.4637023 0.37721884 0.16233942 1.0046831
000080 56 e0 b0 be 6b f3 1a 3f 40 7a 4d 3f 17 6f c7 bf
       -0.34546155 0.60527676 0.80264664 -1.5580777
000090 f8 ed 04 40 7d c0 84 bf 28 47 bb 3f 65 9b b5 be
       2.0770245 -1.0371243 1.463109 -0.3547012
0000a0 07 5e 7f bf 26 4b 3f bf 96 57 83 bd f6 42 09 c0
       -0.9975285 -0.7472404 -0.0641319 -2.144712
0000b0 f7 97 99 bf 70 e0 2b 40 ec b8 5e 3f e8 21 b2 bf
       -1.1999501 2.6855736 0.8700092 -1.3916597
0000c0 53 55 0a bf 33 a7 c2 bf de bd 4a bf 96 c4 0d 40
       -0.54036444 -1.5207275 -0.79195964 2.2151237
0000d0 79 c3 d2 bf 43 06 09 40 bb 67 97 bf fd 08 6e 3d
       -1.6465904 2.1410072 -1.1828531 0.05811404
0000e0 28 7a 8e bf bf 18 bb 3f c1 f3 7a 3d 65 ff 99 bf
       -1.1131029 1.4616927 0.061267618 -1.2031065
0000f0 bc 40 aa 3f 07 e2 2b bd 0e 3d 2f be 20 a5 85 bd
       1.3301005 -0.041963603 -0.17113134 -0.06525636
000100 d2 ea 1e 3e 1f 88 23 3e 36 79 a4 3f d1 cf 08 bf
       0.15519264 0.15969895 1.2849491 -0.534421
000110 fb fd 9b bd 6a a2 40 3e e3 25 58 3f a6 43 1d 3f
       -0.07616802 0.18811956 0.8443281 0.6143135
000120 bd fc f2 3f ca 62 42 3f b4 7e 04 3f b7 40 99 bf
       1.898338 0.7593199 0.51755834 -1.1972874
000130 c0 68 5a 3d eb 03 2d 3f 87 e8 3c 3e 14 98 93 3e
       0.053322554 0.67584103 0.18448077 0.28826964
000140 55 3c b5 be f0 5e f7 be 12 f3 95 be e0 81 eb bf
       -0.35397592 -0.4831462 -0.2928701 -1.839901
000150 c5 f5 a1 3f f3 9a a2 bf 40 61 2b 3f 4e 19 d0 3f
       1.2653128 -1.2703537 0.66945267 1.6257722
000160 b0 0e 06 40 cc c0 c6 3c db 93 d3 be 5d 84 c9 bf
       2.0946465 0.024261855 -0.41323742 -1.5743519
000170 be 6a a3 3f 41 24 70 3d ab 5a 2e 3f dd f3 15 c0
       1.276695 0.058628324 0.681071 -2.3430092
000180 69 48 99 bf 0f ff 8a 3e 5b 55 68 3f c8 eb f6 3b
       -1.1975223 0.2714772 0.9075524 0.0075354315
000190 7b de e8 bf c6 58 27 3f 05 eb aa bd cf 07 01 3e
       -1.8192896 0.6536983 -0.08345608 0.12600635
0001a0 5f 73 8c 3f fe 5b 49 3f 75 3a b8 3f 98 a9 f8 3e
       1.0972708 0.78655994 1.439284 0.4856689
0001b0 a3 71 6e bf 78 21 b0 3f bc 3a 85 3e 0d 63 42 3f
       -0.93142146 1.3760214 0.26021373 0.7593239
0001c0 6f b5 5f 3f 4d 15 d0 bf 46 c4 9b bf bf 98 0a 3c
       0.8738622 -1.62565 -1.2169273 0.008459269
0001d0 da 33 05 3f 9a c7 78 3f 25 5e 7d bf 25 fb 94 bf
       0.52032244 0.9717957 -0.9897178 -1.1639143
0001e0 68 71 88 be c5 57 06 be 60 be 8b 3d 2d 26 f7 3e
       -0.26649022 -0.13119419 0.068234205 0.48271313
0001f0 15 70 ec 3f 48 ef 03 3f 04 75 a7 3e 82 a4 bf 3f
       1.8471705 0.5153699 0.32706463 1.4972079
000200 33 79 f5 3f 3d 4d 91 3f 21 ca 8c bf b0 7d 7f 3f
       1.9177612 1.1351696 -1.0999185 0.9980116
000210 58 63 06 3f 38 4b cc 3d 5e 42 af bf f2 42 d9 bd
       0.52495337 0.09975284 -1.3692129 -0.10608472
000220 ab 9a 14 bf 9b 60 8e bf 2f ef b0 3e 34 25 07 40
       -0.58048505 -1.1123232 0.34557483 2.1116457
000230 95 aa 69 bd 5f 3f 52 bf 86 92 70 bf 1a 05 06 be
       -0.057047445 -0.82127947 -0.9397358 -0.13087884
000240 5f d1 8d 3f cb 94 60 3f 97 ad 5d 3f bb cf 0f be
       1.107952 0.8772704 0.86593 -0.14044087
000250 76 3e 20 3c 05 19 78 3f eb f2 37 be e1 62 21 bf
       0.009780517 0.96913177 -0.1796376 -0.630415
000260 03 72 b4 bf 34 2b 80 bf 41 ef 17 40 20 84 12 bf
       -1.4097294 -1.0013185 2.373978 -0.57232857
000270 5c 5c b5 3f 6d fc f0 3f 66 eb 70 bd 1f 6e 03 bf
       1.4168811 1.8827034 -0.058818243 -0.51339906
000280 fb 28 7a bf f5 49 b9 bf a0 26 24 be b5 1c 3f 3f
       -0.9771878 -1.4475695 -0.1603036 0.7465318
000290 08 d6 64 3e a4 74 35 bf 75 ab d6 bf 4d f6 84 3f
       0.22347271 -0.70881104 -1.6771075 1.0387665
0002a0 a6 e9 48 bf e4 07 29 3e 50 d9 06 3b c3 b3 16 c0
       -0.7848152 0.16506916 0.0020576306 -2.3547218
0002b0 dc 09 cd be 64 4f b0 bf 96 2e 55 bf 7a 99 d3 3e
       -0.40046585 -1.3774228 -0.8327421 0.4132803
0002c0 18 8a c7 bf 2d 9c c6 bf 8d 8c a8 be 3f a1 5d bf
       -1.5589018 -1.5516411 -0.32919732 -0.86574167
0002d0 82 97 ca 3f a8 8f a1 3f af 56 80 3e 5a 00 90 3c
       1.5827487 1.2621965 0.25066134 0.017578293
0002e0 ee d4 c0 bf e1 ca 10 be 57 2d d5 3d 6f 83 6b 3f
       -1.5064981 -0.14139892 0.104090385 0.91997427
0002f0 bc 45 15 3f 6d fb b4 bf 35 3c 82 3e 2d 63 c0 3d
       0.5830953 -1.4139229 0.2543656 0.09393916
000300 54 7b 85 be 25 3e d7 3e b0 84 63 3f 1b 82 4a 3f
       -0.26070654 0.420396 0.8887434 0.79104775
000310 85 56 87 3f 40 d6 6c 3e b4 49 c8 bf 5a ef ce bf
       1.0573279 0.23128605 -1.5647492 -1.6166794
000320 6f 26 84 bf 4e b6 12 40 5d f0 8e 3f 74 c2 b2 3f
       -1.0324229 2.292377 1.1167103 1.3965592
000330 06 bb 69 3f 45 a9 42 be d0 08 1c 40 66 95 bf 3e
       0.91301 -0.19009884 2.4380379 0.3741867
000340 18 82 bd 3c 3a 62 74 bf 81 0c 2c bd 64 a5 15 3f
       0.023133323 -0.9546238 -0.042004112 0.5845549
000350 e2 af 35 bf dd 5a 85 bf 2f 84 7d bf d4 e2 6b bf
       -0.709715 -1.0418354 -0.9902982 -0.9214299
000360 b5 36 03 bf 60 26 b0 bc 7e 83 92 3f 23 a7 38 3f
       -0.5125535 -0.021502674 1.1446378 0.7213003
000370 f3 eb 39 be b2 41 45 3f 44 99 04 be 15 3c b0 3f
       -0.18156414 0.7705337 -0.12949091 1.3768336
000380 86 0f 92 bf fe f3 53 3f d1 44 80 be 03 c7 44 3f
       -1.1410987 0.8279418 -0.25052503 0.7686617
000390 b3 7a 04 3f 3f 48 ff 3e 83 23 e2 bc 51 ba a6 be
       0.51749724 0.49859807 -0.027604824 -0.32564023
0003a0 f5 32 fc 3e 3c 08 2e 3f dd 1d 20 c0 55 db b8 be
       0.49257627 0.67981315 -2.5018227 -0.36104837
0003b0 69 da 47 bf 13 0c 81 3d ff 4d 6d be bd 25 ce 3d
       -0.7806764 0.06301131 -0.23174284 0.10065792
0003c0 40 c6 ab 3f a0 05 06 3f 6b 75 6a 3e 02 69 1b 40
       1.3419876 0.52352333 0.22896354 2.4282842
0003d0 4f d5 ab be 31 ac 0a 3f 34 71 ae 3e 80 bc db be
       -0.3356118 0.54168993 0.34070742 -0.42917252
0003e0 bf bf ab 3e e2 dc c6 3f 7e 0a d2 3e cc 19 03 3e
       0.33544728 1.5536158 0.4102363 0.1280281
0003f0 94 60 0d 40 62 d6 96 3e 8e 86 ab 3f c4 41 a1 3f
       2.2090197 0.29460436 1.3400438 1.2598195
