models_to_plot/gum/generator.pth (torch_old, 81400 bytes, 31 tensors)

weight f4 [64, 5]
-0.13594668 0.032692626 0.23790003 -0.15477772 0.18331651 -0.2235925 -0.055809263 -0.015671637
-0.20991 -0.24145687 -0.24740712 -0.18590342 -0.24019784 0.2842317 0.16160882 -0.16079234
0.22478238 0.1469252 0.21978275 -0.21858281 0.227433 -0.16843787 0.21878353 0.014305372
0.25344798 0.31453556 0.15219787 -0.20621692 0.048396386 0.115922906 0.0018721925 0.08561873
-0.29013833 -0.20659655 -0.0022023374 -0.27325734 -0.07978819 0.15452057 0.13715817 -0.18620609
-0.2192797 0.14365141 -0.034830578 0.19274636 0.009736342 0.027030278 -0.058721792 0.055526275
0.07002222 0.28101894 0.10238995 -0.00025699002 -0.059697762 -0.052927464 0.18104252 0.23059429
-0.1758848 0.06654114 -0.21954207 -0.18389632 0.030309409 0.2937473 0.17746522 0.21251951
-0.18472767 0.23310643 0.023009941 0.05467952 0.08846058 0.13936174 -0.3260237 0.1317779
-0.008829019 -0.13398382 -0.15104488 0.017541992 -0.20998704 0.25531858 -0.12997133 -0.25443393
0.17530298 -0.17052755 -0.069402434 -0.12266711 -0.086797945 -0.19465242 -0.15595691 -0.14315768
-0.075784296 -0.22472112 0.08557356 0.1749547 -0.13084649 -0.08375505 -0.1464274 -0.0789866
-0.012040047 -0.16161773 -0.10538809 -0.19443974 0.2431449 -0.1523559 -0.06742486 0.16999564
-0.06720185 0.04754609 0.030595977 0.30229944 0.22827764 0.05633695 -0.12086406 -0.030865619
-0.2936808 0.16585748 0.13364552 -0.24365965 -0.028640369 -0.06647466 -0.2792605 0.24990691
0.15219459 0.052630085 -0.12994549 -0.072179385 0.20462899 -0.20761903 -0.17076144 0.20846228
0.03896078 -0.24042144 0.26752484 0.12029728 -0.22756776 -0.21265028 0.13890053 0.16689785
0.1967149 -0.096977085 -0.07799507 -0.23109043 -0.028119896 0.18719283 -0.027404197 0.2172015
0.17485583 -0.14657032 -0.22048154 -0.27073184 0.16894113 0.21762931 -0.11225236 0.2194301
-0.29092047 0.11049218 -0.14433664 0.14672045 0.18499067 0.044709086 -0.13932592 -0.40269867
0.058876894 0.06801015 -0.2956789 -0.079412065 0.04313976 -0.24971619 0.17458245 0.26138997
0.081238456 -0.27679223 0.21889767 0.20191734 0.2993127 -0.16299856 -0.28120476 0.21101506
0.047278125 0.22795491 0.16618793 0.2906055 0.092759855 0.13834447 0.19394696 0.19560832
0.21281831 0.14087641 0.16738136 -0.08471146 -0.22699381 -0.12039426 -0.2716351 0.04539848
0.17800353 -0.1963059 0.28058824 -0.20719711 -0.07060818 -0.1558927 0.12218002 -0.0804614
-0.12150619 0.15991639 -0.17448892 0.086650185 -0.02299543 -0.07189203 0.16666268 -0.23703276
-0.046141997 0.05742405 0.15966749 -0.16114946 -0.056194756 0.06715332 0.1771827 -0.10632583
-0.07496965 0.053585295 0.23075113 0.27626762 -0.24561708 -0.2378019 -0.30402178 -0.18214244
0.22244337 0.14188108 0.019975606 0.00509189 0.032923326 0.25276104 -0.064085074 0.102335714
0.05282312 0.10663963 -0.30064702 -0.044003792 0.03231486 0.31503317 -0.14125486 -0.2556612
0.24756987 0.045729063 0.14684413 -0.11452169 0.15833177 0.29761478 -0.055333387 0.0036265221
-0.16300422 0.18892853 0.27918446 0.17014302 0.074602135 0.16668363 0.33243033 -0.035439424
00000000: 9b35 0bbe b4e8 053d 119c 733e 0d7e 1ebe
00000010: 53b7 3b3e 6ff5 64be 4198 64bd ce61 80bc
00000020: a6f2 56be 7840 77be 4b58 7dbe 775d 3ebe
00000030: 6cf6 75be d186 913e c87c 253e bfa6 24be
00000040: 5a2d 663e 8f73 163e bb0e 613e 2cd4 5fbe
00000050: 32e4 683e fa7a 2cbe ca08 603e 1461 6a3c
00000060: efc3 813e ce0a a13e c2d9 1b3e 872a 53be
00000070: 4a3b 463d fd68 ed3d 5b64 f53a df58 af3d
00000080: 038d 94be 0c8e 53be 1755 10bb 63e8 8bbe
00000090: fe67 a3bd a43a 1e3e 3173 0c3e cfac 3ebe
000000a0: dc8a 60be 5b19 133e 82aa 0ebd 4d5f 453e
000000b0: 2e85 1f3c 9a6e dd3c 4386 70bd 856f 633d
000000c0: cf67 8f3d b7e1 8f3e d2b1 d13d 9ebc 86b9
000000d0: a485 74bd 78ca 58bd 3663 393e e920 6c3e
000000e0: 251b 34be b946 883d a3cf 60be 514f 3cbe
000000f0: 704b f83c 0c66 963e 71b9 353e b79e 593e
00000100: 4029 3dbe 74b3 6e3e 587f bc3c a2f7 5f3d
00000110: d22a b53d d8b4 0e3e 94ec a6be c9f0 063e
00000120: 97a7 10bc 0e33 09be 82ab 1abe 39b4 8f3c
00000130: d806 57be 1eb9 823e 3417 05be 2a45 82be
00000140: a082 333e c69e 2ebe dd22 8ebd e538 fbbd
00000150: 1fc3 b1bd f752 47be 2bb3 1fbe ed97 12be
00000160: cc34 9bbd 4b1d 66be 3141 af3d 5327 333e
00000170: 9ffc 05be c587 abbd 10f1 15be bac3 a1bd
00000180: 9e43 45bc 1e7f 25be b6d5 d7bd 361b 47be
00000190: fafa 783e 2f03 1cbe 0c16 8abd 5613 2e3e
000001a0: 20a1 89bd b0bf 423d 6aa4 fa3c fec6 9a3e
000001b0: 9dc1 693e 93c1 663d 9487 f7bd e5d9 fcbc
000001c0: 545d 96be 8bd6 293e 5fda 083e ea81 79be
000001d0: 359f eabc de23 88bd 3bfb 8ebe 99e7 7f3e
000001e0: e6d8 1b3e a592 573d 6e10 05be c9d2 93bd
000001f0: 438a 513e 159a 54be 16dc 2ebe 2377 553e
00000200: 5795 1f3d 0a31 76be 04f9 883e 6c5e f63d
00000210: 8607 69be ffc0 59be f13b 0e3e 45e7 2a3e
00000220: a16f 493e ec9b c6bd e1bb 9fbd f8a2 6cbe
00000230: b25b e6bc 7aaf 3f3e c47e e0bc 126a 5e3e
00000240: 680d 333e 8816 16be eac5 61be 5d9d 8abe
00000250: e7fe 2c3e 38da 5e3e 91e4 e5bd 49b2 603e
00000260: 87f3 94be b949 e23d fccc 13be e33d 163e
00000270: 326e 3d3e e020 373d 74ab 0ebe 852e cebe
00000280: e628 713d e848 8b3d 3a63 97be cba2 a2bd
00000290: 51b3 303d 9ab5 7fbe bec5 323e e8d4 853e
000002a0: 5960 a63d b6b7 8dbe b626 603e 6bc3 4e3e
000002b0: 843f 993e 18e9 26be 12fa 8fbe 5514 583e
000002c0: b5a6 413d 036d 693e 2b2d 2a3e 3eca 943e
000002d0: e1f8 bd3d 2caa 0d3e 089a 463e 8c4d 483e
000002e0: 0bed 593e e841 103e 0566 2b3e 347d adbd
000002f0: 1171 68be 4491 f6bd c113 8bbe c2f3 393d
00000300: 8f46 363e 6a04 49be 43a9 8f3e 7b2b 54be
00000310: 059b 90bd 56a2 1fbe 8539 fa3d f2c8 a4bd
00000320: 3dd8 f8bd 1fc1 233e 39ad 32be a775 b13d
00000330: e960 bcbc 213c 93bd 9fa9 2a3e b7b8 72be
00000340: 64ff 3cbd 7b35 6b3d e07f 233e 5d04 25be
00000350: 792c 66bd ae87 893d 626f 353e 5bc1 d9bd
00000360: b089 99bd 417c 5b3d 064a 6c3e f372 8d3e
00000370: 0b83 7bbe 5782 73be bea8 9bbe 8c83 3abe
00000380: 32c8 633e 4649 113e e2a3 a33c dfd9 a63b
00000390: 9cda 063d e569 813e 093f 83bd 6395 d13d
000003a0: 0e5d 583d e165 da3d 68ee 99be 523d 34bd
000003b0: 965c 043d 074c a13e 1da5 10be 06e6 82be
000003c0: f582 7d3e 664e 3b3d 4f5e 163e 598a eabd
000003d0: b921 223e f760 983e 43a5 62bd f2aa 6d3b
000003e0: 94ea 26be 7b76 413e 44f1 8e3e f939 2e3e
000003f0: 01c9 983d 1daf 2a3e 4f34 aa3e ee28 11bd

bias f4 [64]
2.51813e-06 2.1855258e-06 3.1337147e-06 -2.9502062e-06 -1.3336156e-06 4.773003e-06 9.664977e-07 -1.6677097e-05
4.80712e-06 9.728867e-06 1.6086979e-05 -5.607841e-06 2.9943492e-06 3.4213035e-06 6.2001124e-07 2.4351016e-06
-2.7873957e-06 -6.6454218e-06 1.6996476e-06 2.1592073e-06 3.7477664e-06 -5.798657e-06 -1.8567913e-06 -1.0863096e-06
1.3309852e-05 2.2208353e-06 1.9027963e-06 1.6911853e-06 2.5151767e-06 6.7539764e-07 1.0371851e-06 -1.2780363e-06
5.0805693e-06 2.6713175e-07 -2.8460597e-06 -3.887254e-07 -2.3699167e-06 -1.7241413e-06 -3.8801105e-07 7.6433956e-08
-1.019004e-06 -3.8945614e-06 -6.6421794e-06 -1.9378933e-06 5.3126014e-06 -4.254818e-06 1.3751019e-05 4.4410067e-06
-9.80591e-07 5.0070544e-06 3.368566e-06 1.953606e-06 -4.4104454e-06 8.06485e-06 7.9119445e-06 2.7515566e-06
-3.5565663e-06 2.1036862e-05 6.8490544e-06 -2.2162158e-06 -7.986178e-06 7.5625667e-06 4.382844e-06 2.2158504e-06
00000000: 25fd 2836 0cab 1236 cf4c 5236 28fc 45b6
00000010: affe b2b5 c927 a036 9cb8 8135 cbe5 8bb7
00000020: d94c a136 2a39 2337 86f2 8637 fd2a bcb6
00000030: 87f2 4836 8c99 6536 d96e 2635 ba6a 2336
00000040: 180f 3bb6 bdfb deb6 721f e435 e6e6 1036
00000050: 2382 7b36 1692 c2b6 dd36 f9b5 50cd 91b5
00000060: 614d 5f37 a909 1536 9563 ff35 affc e235
00000070: 68ca 2836 f94c 3535 6935 8b35 fe88 abb5
00000080: c279 aa36 4f6a 8f34 effe 3eb6 03b2 d0b4
00000090: dc0a 1fb6 0b69 e7b5 d54f d0b4 0324 a433
000000a0: b6c4 88b5 07ae 82b6 e3df deb6 c10c 02b6
000000b0: e642 b236 9cc4 8eb6 2db4 6637 f503 9536
000000c0: da9c 83b5 4502 a836 860f 6236 b21a 0336
000000d0: 70fd 93b6 444e 0737 8bbd 0437 62a7 3836
000000e0: 58ad 6eb6 5178 b037 eed0 e536 4cba 14b6
000000f0: 60fc 05b7 f4c1 fd36 5810 9336 05b4 1436

weight f4 [64]
0.88322985 0.98118377 0.88155425 0.89584965 0.904209 0.8808643 0.9324627 1.0242293
0.9488618 1.0000156 1.062199 0.939009 0.84239084 1.0444819 0.9550936 0.99957097
0.8738856 0.94589436 0.9129651 0.9673647 0.87823683 1.0045544 0.9183904 0.95198244
1.096334 1.0134242 0.9971233 0.9396531 0.8886104 0.8357969 0.9435505 0.9495081
0.9502545 0.9307476 0.86878747 0.9853953 1.0118495 0.9178416 0.93529624 0.930961
0.93169606 0.9756395 0.8743235 0.92191654 0.87721264 1.014675 0.9414451 0.93669826
0.94637483 0.99935085 1.0498552 0.93763113 0.9339121 0.89144295 0.9902386 0.96502393
1.0479206 0.9407513 0.95478165 0.972749 0.88502395 0.88688666 0.99996936 0.93480814
00000000: 5a1b 623f dc2e 7b3f 8aad 613f 6756 653f
00000010: 3e7a 673f 5380 613f e0b5 6e3f f219 833f
00000020: 9be8 723f 8300 803f 23f6 873f e562 703f
00000030: eda6 573f 95b1 853f 0481 743f e2e3 7f3f
00000040: f7b6 5f3f 2226 723f 15b8 693f 37a5 773f
00000050: 21d4 603f 3d95 803f a21b 6b3f 1fb5 733f
00000060: ac54 8c3f e2b7 813f 7943 7f3f 1b8d 703f
00000070: f97b 633f c9f6 553f 878c 713f f612 733f
00000080: e143 733f 7a45 6e3f db68 5e3f de42 7c3f
00000090: 4984 813f abf7 6a3f 936f 6f3f 7653 6e3f
000000a0: a283 6e3f 83c3 793f aad3 5f3f b902 6c3f
000000b0: 0291 603f dfe0 813f 8c02 713f 75cb 6f3f
000000c0: 9f45 723f 75d5 7f3f a861 863f 9808 703f
000000d0: dd14 6f3f 9b35 643f 4780 7d3f cf0b 773f
000000e0: 4322 863f 14d5 703f 926c 743f 1406 793f
000000f0: ee90 623f 010b 633f fefd 7f3f 964f 6f3f

bias f4 [64]
-0.035527047 0.14072679 0.0834391 0.01855982 -0.052094627 -0.0361898 0.13965292 -0.20847583
0.059915185 -0.078763455 -0.1462223 -0.013492418 -0.017807607 0.13183475 0.006916563 -0.030658407
-0.06640367 0.13697396 0.036356814 0.21360537 -0.056741904 0.08995674 0.03820709 0.13033865
0.24109548 -0.14912282 0.04879036 0.01306537 -0.035588007 -0.08274967 -0.0039357194 0.05835536
0.18121313 0.0058183093 0.058315296 -0.16583829 -0.039232604 0.1908534 5.7837857e-05 -0.032677654
0.014524062 -0.026497487 0.0429825 -0.13114972 0.02979328 -0.08201382 -0.08207137 0.054253582
0.07424316 -0.11702074 0.006799226 0.11896473 -0.08915576 -0.06875231 -0.18976459 -0.009546917
0.19638513 -0.06961427 -0.002931872 -0.027263526 -0.028961571 -0.024826666 0.19491841 0.059417263
00000000: cf84 11bd af1a 103e 1ee2 aa3d c30a 983c
00000010: 2d61 55bd c13b 14bd 2d01 0f3e b07a 55be
00000020: a069 753d bc4e a1bd 4cbb 15be 4e0f 5dbc
00000030: 42e1 91bc b0ff 063e 56a4 e23b 5727 fbbc
00000040: a6fe 87bd e742 0c3e e2ea 143d 5ebb 5a3e
00000050: 336a 68bd 3d3b b83d 0a7f 1c3d 7f77 053e
00000060: bce1 763e a7b3 18be 67d8 473d 2210 563c
00000070: bbc4 11bd a978 a9bd 35f7 80bb 0806 6f3d
00000080: ef8f 393e 84a7 be3b 05dc 6e3d 83d1 29be
00000090: 5eb2 20bd 136f 433e ed96 7238 01d9 05bd
000000a0: 55f6 6d3c 4211 d9bc 6b0e 303d 1d4c 06be
000000b0: 0911 f43c ddf6 a7bd 0915 a8bd 0139 5e3d
000000c0: cc0c 983d 92a8 efbd 0bcc de3b c8a3 f33d
000000d0: 4c97 b6bd 03ce 8cbd a651 42be ac6a 1cbc
000000e0: 2f19 493e ed91 8ebd a624 40bb c257 dfbc
000000f0: d140 edbc 4b61 cbbc b198 473e 845f 733d

running_mean f4 [64]
0.0004765856 0.0022069712 -0.002211483 -0.0008455316 -0.001577084 -0.00020087979 0.0022266007 -0.0008352707
-0.00094120466 -0.001379236 3.2075484e-05 0.0014069567 -0.00093361613 -0.0012077491 0.001864141 0.00067177863
0.00076638925 0.001174231 0.0014599743 0.0015584889 -0.0014679737 -0.0023488714 -0.0009772656 0.0017594341
0.00030314672 -0.00028774422 0.0017052365 0.001528656 -0.0015796327 -0.001574129 0.0005398621 0.0021118664
0.0011123992 8.5670414e-05 0.0015293577 -0.00237978 -0.0020940586 0.0023242643 0.0007984325 -0.0004184198
0.000122274 0.0010113441 -0.0012461176 -0.0025045807 0.0011350876 -0.00090754114 5.6892928e-05 0.0011669578
0.00012265336 0.0004437309 -0.0020162691 0.0023958061 -0.0016367726 -0.0005846403 -0.0007570531 0.0018777789
0.00086000335 -0.00031356595 -0.0007544518 0.0016447994 -0.0018912338 0.0009040836 0.00089678704 -0.002205374
00000000: 3dde f939 d5a2 103b 87ee 10bb aaa6 5dba
00000010: 28b6 ceba 42a3 52b9 29ec 113b 11f6 5aba
00000020: 2dbb 76ba 7bc7 b4ba ca88 0638 a269 b83a
00000030: ebbd 74ba 564d 9eba 3156 f43a 4d1a 303a
00000040: 83e7 483a a7e8 993a 9c5c bf3a 3646 cc3a
00000050: 0669 c0ba 86ef 19bb 9817 80ba d09c e63a
00000060: aaef 9e39 60dc 96b9 3e82 df3a 2f5d c83a
00000070: ae0b cfba 0153 ceba 8885 0d3a 3d67 0a3b
00000080: eccd 913a f4a9 b338 bb74 c83a 15f6 1bbb
00000090: 793c 09bb af52 183b e64d 513a 5b5f dbb9
000000a0: ad36 0039 148f 843a c554 a3ba e423 24bb
000000b0: 38c7 943a 0ee8 6dba 51a0 6e38 9bf4 983a
000000c0: 839c 0039 8ea4 e839 6223 04bb f502 1d3b
000000d0: fa88 d6ba 8c42 19ba f974 46ba ce1f f63a
000000e0: d971 613a 1c66 a4b9 67c6 45ba 4f96 d73a
000000f0: 47e3 f7ba 0600 6d3a 5c16 6b3a 0988 10bb

running_var f4 [64]
0.13342394 0.156293 0.26025954 0.19514623 0.19123717 0.17895308 0.13324475 0.15777622
0.1065103 0.09102805 0.049827192 0.16908324 0.1993057 0.08495015 0.16375583 0.19031724
0.086544685 0.13933666 0.08227601 0.08134016 0.1195962 0.14973871 0.14731345 0.20471425
0.08994746 0.1743519 0.20099014 0.13359252 0.11442748 0.21985425 0.17692861 0.23814957
0.10287841 0.24534522 0.28385872 0.21094549 0.1494015 0.11987651 0.22336401 0.09355928
0.07802856 0.09329666 0.09064714 0.14851485 0.29244024 0.085817106 0.11975748 0.1883614
0.12304963 0.15367742 0.25147325 0.20045133 0.17337035 0.18324228 0.124397896 0.15179747
0.068204954 0.05023121 0.13265039 0.18721785 0.19684917 0.07831639 0.13084386 0.21585754
00000000: 49a0 083e 460b 203e bd40 853e 6ad4 473e
00000010: add3 433e 7a3f 373e 5071 083e 1790 213e
00000020: 1222 da3d ea6c ba3d 9917 4c3d 2824 2d3e
00000030: cb16 4c3e 58fa ad3d 9caf 273e 86e2 423e
00000040: 573e b13d 45ae 0e3e 5380 a83d ab95 a63d
00000050: daee f43d 1b55 193e 56d9 163e 9da0 513e
00000060: 6036 b83d 4e89 323e 5cd0 4d3e 7acc 083e
00000070: f458 ea3d 7921 613e c62c 353e 7bdd 733e
00000080: eab1 d23d c73b 7b3e ee55 913e 1802 583e
00000090: b5fc 183e d181 f53d 89b9 643e 029c bf3d
000000a0: 70cd 9f3d 5212 bf3d 35a5 b93d 4714 183e
000000b0: baba 953e e1c0 af3d 6943 f53d d0e1 403e
000000c0: 7201 fc3d 9d5d 1d3e 1ac1 803e 1d43 4d3e
000000d0: ff87 313e dda3 3b3e 53c4 fe3d cc70 1b3e
000000e0: 0aaf 8b3d 3ebf 4d3d 81d5 073e 09b6 3f3e
000000f0: d492 493e 5864 a03d effb 053e c209 5d3e

weight f4 [64, 64]
-0.07559051 0.09796145 0.047900222 0.20010234 0.15861632 0.016171517 0.09604868 0.23886518
-0.08579505 -0.1328701 -0.10383796 0.07891233 0.013803908 0.063051574 -0.053491354 0.08324053
-0.041736554 0.19120412 -0.1784761 0.22294962 -0.16839859 0.1619701 0.016423235 0.086066596
0.13465004 -0.12224921 -0.0329726 0.12869987 -0.14836718 0.0071267323 0.01111727 0.04592228
0.13173272 0.05160625 -0.18735248 -0.19714111 0.09350076 -0.11236605 -0.0049178917 -0.023731008
0.10866462 -0.02346586 -0.24466752 0.14658873 -0.10285299 0.05652178 0.18761799 -0.089453876
-0.074073955 0.18563049 -0.19591187 -0.17272262 0.07148247 0.00036238757 -0.15324181 0.030400096
0.10509989 -0.016931234 0.022696786 0.057470687 -0.11745841 -0.21664196 0.04892422 -0.15729426
-0.15468898 -0.17625836 -0.07186551 -0.09226425 0.12641774 -0.123038046 0.12900582 0.019236146
-0.05946174 0.19106825 -0.0006204958 0.15891199 0.16755243 0.050121885 0.07655979 0.15356076
-0.06095486 -0.044792235 0.1745047 -0.038129296 0.14789739 -0.13276918 0.12149303 0.13536173
0.15180124 -0.19757287 0.13701837 0.013109514 0.1463714 -0.024102606 -0.063234575 -0.16232248
0.047141135 0.12286658 0.0066158045 -0.04950434 0.060679317 0.11896589 0.1461459 0.08830577
-0.07036885 0.15667365 -0.06447564 0.11034167 0.0036377895 0.17094505 0.11758266 0.05275164
0.14484414 0.070229866 -0.02562214 0.021996267 0.07689086 0.1755902 -0.15264359 0.02486411
-0.0048886887 -0.015911898 0.08573827 -0.16750029 0.061831616 -0.044086594 0.065153554 0.06637841
-0.1634621 0.14886205 0.06922034 0.1824904 -0.072339766 -0.07758696 -0.042558976 -0.078895845
-0.07338888 -0.046371702 -0.043207508 0.066721804 -0.040414363 -0.081524156 0.17466074 -0.1410463
-0.043246575 -0.098296806 0.01697615 0.2529364 0.10061035 -0.14167584 0.19366293 -0.056333005
0.013522714 -0.18564188 -0.15048309 0.08749728 -0.19596894 -0.08991681 0.10322 0.01690097
0.1335074 0.008886272 0.09603839 0.15573159 -0.0070451177 0.19188379 -0.05667366 -0.17915839
-0.052392554 -0.13250095 0.096441545 0.0074730027 0.08176868 -0.04780207 -0.12454392 -0.062247075
-0.1813177 -0.06930504 0.08894314 0.22689341 0.016383389 -0.03847827 0.12127046 0.10737977
0.034146633 -0.0010657198 0.1498724 0.18681106 -0.21769616 -0.15648784 0.1916662 0.12245094
-0.09307251 -0.1860756 0.02959484 -0.15716667 -0.16838858 -0.15950742 0.06321386 -0.011013149
-0.03874378 0.17747666 -0.056292407 0.20385312 0.20311505 0.07438441 -0.15936378 0.17972928
0.106035225 -0.14953603 -0.14026938 -0.023265854 -0.14680313 -0.076044865 0.1596384 0.106942266
-0.0702052 0.2259797 -0.08802419 0.11955284 0.18872476 0.08089321 0.09842215 -0.17669584
-0.06506636 -0.17745098 -0.097371824 -0.06115817 0.14114527 -0.07844008 0.13538171 -0.20709088
-0.18835387 0.11356422 -0.009848988 0.15926963 -0.061628867 -0.027210716 0.104337476 0.049793027
0.14282338 0.18117703 -0.11335334 -0.21477091 0.065177865 -0.0024237288 0.12106512 -0.20470162
-0.18830322 0.2086738 -0.11605004 0.088140056 0.033320315 -0.112920605 -0.19704601 -0.19339891
00000000: 33cf 9abd 03a0 c83d 0633 443d a1e7 4c3e
00000010: 516c 223e 217a 843c 2cb5 c43d 1399 743e
00000020: 51b5 afbd 190f 08be ffa8 d4bd ca9c a13d
00000030: c929 623c 2f21 813d c019 5bbd 037a aa3d
00000040: f3f3 2abd 03cb 433e 70c2 36be e84c 643e
00000050: ae70 2cbe 7ddb 253e 058a 863c af43 b03d
00000060: b3e1 093e cb5d fabd 470e 07bd e6c9 033e
00000070: 91ed 17be 5d87 e93b 3625 363c 0019 3c3d
00000080: f1e4 063e 1361 533d 54d9 3fbe 5cdf 49be
00000090: 547d bf3d 2c20 e6bd 4426 a1bb 8867 c2bc
000000a0: 8e8b de3d 7a3b c0bc 1f8a 7abe 5b1b 163e
000000b0: 97a4 d2bd 6283 673d ee1e 403e 9833 b7bd
000000c0: 16b4 97bd eb15 3e3e 1f9d 48be 33de 30be
000000d0: 6765 923d d6fe bd39 6ceb 1cbe 9f09 f93c
000000e0: 9c3e d73d 5fb3 8abc 9cee b93c 6266 6b3d
000000f0: 098e f0bd 64d7 5dbe c364 483d bf11 21be
00000100: ca66 1ebe 127d 34be 392e 93bd 0af5 bcbd
00000110: a773 013e 5ffb fbbd 1a1a 043e 1f95 9d3c
00000120: 278e 73bd 65a7 433e c5a8 22ba d3b9 223e
00000130: dd92 2b3e 9b4c 4d3d 61cb 9c3d 083f 1d3e
00000140: ceab 79bd 1078 37bd 5cb1 323e 772d 1cbd
00000150: 6a72 173e a5f4 07be 56d1 f83d 449c 0a3e
00000160: c971 1b3e 8b50 4abe 8b4e 0c3e 49c9 563c
00000170: 62e2 153e d472 c5bc 2181 81bd dd37 26be
00000180: 1017 413d 79a1 fb3d 64c9 d83b 10c5 4abd
00000190: e08a 783d 63a4 f33d 45a7 153e a8d9 b43d
000001a0: 8b1d 90bd 0f6f 203e ce0b 84bd d0fa e13d
000001b0: fb67 6e3b 380c 2f3e 2dcf f03d 1b12 583d
000001c0: 0652 143e add4 8f3d 86e5 d1bc 8431 b43c
000001d0: f578 9d3d ebcd 333e 9a4e 1cbe d1af cb3c
000001e0: 4b31 a0bb ab59 82bc 8c97 af3d 3285 2bbe
000001f0: 2643 7d3d 2594 34bd 3a6f 853d 67f1 873d
00000200: 9c62 27be 4b6f 183e 65c3 8d3d c3de 3a3e
00000210: df26 94bd e9e5 9ebd 5252 2ebd 2594 a1bd
00000220: e94c 96bd 41f0 3dbd 5bfa 30bd 71a5 883d
00000230: 8889 25bd 23f6 a6bd 44da 323e 716e 10be
00000240: 5223 31bd d64f c9bd 9111 8b3c e180 813e
00000250: cd0c ce3d 7913 11be 934f 463e 70bd 66bd
00000260: 608e 5d3c e818 3ebe 3d18 1abe c631 b33d
00000270: 15ac 48be 4e26 b8bd 0265 d33d e773 8a3c
00000280: 2ab6 083e ba97 113c c7af c43d 1a78 1f3e
00000290: bbda e6bb 2f7d 443e a422 68bd 4c75 37be
000002a0: 9399 56bd 54ae 07be 2583 c53d 17e0 f43b
000002b0: 5676 a73d 1acc 43bd e210 ffbd caf6 7ebd
000002c0: 59ab 39be cdef 8dbd d227 b63d bf56 683e
000002d0: 7536 863c 649b 1dbd a65c f83d ede9 db3d
000002e0: 57dd 0b3d 9faf 8bba 2778 193e 664b 3f3e
000002f0: beeb 5ebe 593e 20be 2544 443e 8fc7 fa3d
00000300: cd9c bebd 9a8a 3ebe e170 f23c 4df0 20be
00000310: 0e6e 2cbe ea55 23be 4576 813d 7f70 34bc
00000320: ccb1 1ebd 71bc 353e de92 66bd dfbe 503e
00000330: 64fd 4f3e db56 983d 4230 23be f40a 383e
00000340: ff28 d93d f91f 19be c7a2 0fbe 0898 bebc
00000350: 8f53 16be 69bd 9bbd 4078 233e 8c04 db3d
00000360: bec7 8fbd 3967 673e 0746 b4bd 1fd8 f43d
00000370: 1041 413e 57ab a53d 8d91 c93d c1ef 34be
00000380: 8341 85bd b6b5 35be e16a c7bd fd80 7abd
00000390: 6388 103e 31a5 a0bd 81a1 0a3e a20f 54be
000003a0: d6df 40be 5c94 e83d a65d 21bc 9417 233e
000003b0: 8d6e 7cbd 02e9 debc e3ae d53d c6f3 4b3d
000003c0: 4b40 123e 7986 393e cc25 e8bd e8ec 5bbe
000003d0: f97b 853d 6cd7 1ebb fdf0 f73d 4d9d 51be
000003e0: 8fd2 40be 96ae 553e a5ab edbd c682 b43d
000003f0: e27a 083d eb42 e7bd 6ec6 49be 5d0a 46be

bias f4 [64]
1.04648225e-05 -1.0463219e-05 4.737278e-06 -3.130033e-05 1.4186845e-07 -2.929736e-07 -2.174077e-06 3.6041988e-06
-3.148333e-07 2.8102315e-06 -2.9017713e-06 -2.9002467e-06 3.4877503e-06 -7.1849236e-06 1.4539787e-06 2.5821453e-06
4.4138587e-06 3.4184578e-07 -6.508002e-07 -3.225351e-07 -7.193156e-07 2.732075e-06 -1.2271809e-06 8.633584e-07
1.0395232e-06 1.5170806e-06 -1.7776251e-06 9.077146e-07 -4.132504e-06 -5.6329003e-07 1.9612346e-06 -3.6228582e-07
-2.8091492e-06 4.7772064e-06 -1.9169747e-06 -5.720462e-07 -2.8787093e-07 -3.6812023e-06 3.5019182e-06 -4.892901e-07
-3.6819793e-06 1.0275379e-05 -4.2492134e-06 2.9397386e-06 -1.3680544e-07 -4.1230437e-06 -1.5516167e-06 -1.4818748e-06
4.5726424e-06 3.9053884e-06 1.567119e-06 9.582308e-06 6.9450755e-07 -1.7608658e-06 5.7231277e-06 -2.3120779e-06
-1.1611644e-06 4.153714e-06 -6.8384106e-06 2.22756e-07 -9.3625823e-07 8.855919e-06 1.9542974e-06 -5.9291625e-07
00000000: 1292 2f37 2f8b 2fb7 e8f4 9e36 7948 03b8
00000010: 8154 1834 fc49 9db4 5ce6 11b6 aadf 7136
00000020: 5c06 a9b4 6997 3c36 0dbc 42b6 dca1 42b6
00000030: 180f 6a36 0616 f1b6 5426 c335 eb48 2d36
00000040: c21a 9436 ed86 b734 a6b2 2eb5 e328 adb4
00000050: fe16 41b5 b158 3736 9db5 a4b5 8ac1 6735
00000060: bf85 8b35 7e9e cb35 bc96 eeb5 aca9 7335
00000070: f0a9 8ab6 ff34 17b5 c19d 0336 2f80 c2b4
00000080: d184 3cb6 e44b a036 60a5 00b6 b78e 19b5
00000090: ae8c 9ab4 930a 77b6 7f02 6b36 c257 03b5
000000a0: ec17 77b6 6b64 2c37 7794 8eb6 5348 4536
000000b0: cbe4 12b4 ad58 8ab6 2541 d0b5 d5e4 c6b5
000000c0: b36e 9936 080b 8336 cd55 d235 b3c3 2037
000000d0: 326e 3a35 e356 ecb5 4b09 c036 3229 1bb6
000000e0: 4ed9 9bb5 2260 8b36 8075 e5b6 b42e 6f34
000000f0: 2d53 7bb5 e293 1437 9326 0336 e528 1fb5

weight f4 [64]
0.9780902 1.0622422 0.9741297 0.95944536 0.9651343 0.93269396 0.9731261 0.9145054
0.9865255 1.0116545 0.9422441 0.8963762 0.9114148 0.9250422 0.9260838 0.9246615
0.9598753 0.9717687 0.9683732 0.93371326 1.0437621 0.90448004 0.9141087 0.9154876
0.96473074 0.91628224 0.8344995 1.0356526 0.9714169 0.98743695 0.94134426 0.9271111
0.90707 1.013716 0.9644251 0.8842109 0.9241175 0.9579725 1.0000706 1.0430503
0.904552 1.1121391 1.0253431 1.0135156 0.97016877 0.9087204 0.9772665 0.9126853
0.93978363 0.99438506 0.9411681 1.1537066 1.0087059 0.9337371 0.95746624 1.0012105
0.986604 0.9615691 0.9490663 0.969156 0.9460783 0.9307453 0.972363 0.977228
00000000: 1f64 7a3f 8df7 873f 9060 793f 369e 753f
00000010: 0b13 773f 08c5 6e3f cb1e 793f 071d 6a3f
00000020: ef8c 7c3f e57d 813f e936 713f e978 653f
00000030: 7b52 693f 91cf 6c3f d413 6d3f 9eb6 6c3f
00000040: 63ba 753f d5c5 783f 4ee7 773f d507 6f3f
00000050: ff99 853f 018c 673f 0703 6a3f 655d 6a3f
00000060: 98f8 763f 7991 6a3f c2a1 553f 4490 843f
00000070: c7ae 783f abc8 7c3f f0fb 703f 2757 6d3f
00000080: bd35 683f 72c1 813f 90e4 763f a55b 623f
00000090: f792 6c3f b03d 753f 5002 803f ac82 853f
000000a0: b890 673f 935a 8e3f 713e 833f e1ba 813f
000000b0: fb5c 783f e6a1 683f 232e 7a3f bea5 693f
000000c0: a995 703f 0590 7e3f 65f0 703f a8ac 933f
000000d0: 461d 813f 6509 6f3f 821c 753f aa27 803f
000000e0: 1492 7c3f 6429 763f 02f6 723f 9c1a 783f
000000f0: 3032 723f 5345 6e3f c8ec 783f 9d2b 7a3f

bias f4 [64]
0.09870962 0.16182597 -0.13618222 -0.24611045 -0.03732981 0.18446721 -0.14983295 0.053729262
-0.00024765442 0.18958308 0.24681592 0.13586208 -0.010889664 -0.17163512 0.09542763 0.03633567
0.03867523 -0.02038144 0.01654456 0.024553625 0.21149638 -0.020904478 -0.16392682 -0.0049591823
-0.030004306 0.03106603 -0.07756569 -0.17010221 -0.12985593 -0.018298902 -0.12672281 -0.06923445
-0.12168161 -0.07186623 -0.061795097 0.029802877 0.108598135 0.012331152 0.16966766 0.17491904
0.05549372 -0.26658252 0.076156065 -0.123698525 0.1628694 -0.11296854 0.017959198 -0.0016621894
-0.12327384 0.13737951 0.042971328 0.29369652 -0.06311663 -0.03302014 -0.12219988 -0.008255498
0.21670178 0.039692536 0.054849938 0.10145146 0.03398256 0.04100243 0.009250419 -0.016616555
00000000: 4528 ca3d b5b5 253e 5a73 0bbe 6104 7cbe
00000010: 25e7 18bd f9e4 3c3e cf6d 19be 3713 5c3d
00000020: 9dd7 81b9 1122 423e 50bd 7c3e 6e1f 0b3e
00000030: 906a 32bc 1ec1 2fbe 906f c33d b6d4 143d
00000040: eb69 1e3d faf6 a6bc 7588 873c af24 c93c
00000050: 8292 583e de3f abbc 6fdc 27be a380 a2bb
00000060: 97cb f5bc 307e fe3c c3da 9ebd 462f 2ebe
00000070: f4f8 04be 94e7 95bc a0c3 01be cbca 8dbd
00000080: 3534 f9bd 9a2e 93bd db1c 7dbd 2a25 f43c
00000090: b368 de3d 9a08 4a3c 5cbd 2d3e fa1d 333e
000000a0: 624d 633d 817d 88be b6f7 9b3d a755 fdbd
000000b0: 3cc7 263e 0d5c e7bd 2b1f 933c d2dd d9ba
000000c0: ff76 fcbd 37ad 0c3e b402 303d 645f 963e
000000d0: 4b43 81bd 2040 07bd ee43 fabd 1142 07bc
000000e0: 12e7 5d3e a494 223d 54aa 603d c8c5 cf3d
000000f0: 4c31 0b3d 2af2 273d 128f 173c 711f 88bc

running_mean f4 [64]
0.08052845 0.028484462 0.15018925 -0.19756578 0.08396853 0.07459134 -0.03564839 -0.06876667
0.054335564 -0.01161278 0.028058931 0.022492096 0.024205431 -0.15736817 0.027095335 -0.02893854
0.04924868 0.04268076 -0.07979727 0.07156586 0.100544184 -0.09021726 0.071358964 0.020637726
-0.019574428 -0.07424336 0.07919227 -0.045068797 0.0054068174 -0.0795601 -0.14140822 -0.09691585
0.029839465 0.05811742 0.12659892 0.056748867 -0.05372192 -0.111348875 0.13935973 0.011297651
0.07489318 -0.056252576 -0.12422779 0.12131171 -0.055656735 -0.04573183 0.0958309 -0.057711493
0.024298357 0.089629225 0.06640518 0.10066502 -0.103871115 0.06403773 -0.05064124 0.0005183449
0.07231617 -0.11320115 -0.15668051 0.08640979 -0.07605362 0.10620381 -0.042146523 -0.1385124
00000000: 1aec a43d 3f58 e93c 36cb 193e af4e 4abe
00000010: b1f7 ab3d 58c3 983d 0c04 12bd 8ad5 8cbd
00000020: f88e 5e3d 8843 3ebc d8db e53c 5841 b83c
00000030: 784a c63c 1f25 21be 09f7 dd3c 8410 edbc
00000040: fcb8 493d 05d2 2e3d c06c a3bd 1f91 923d
00000050: 1cea cd3d d4c3 b8bd a624 923d 7310 a93c
00000060: 8d5a a0bc e70c 98bd 8f2f a23d 0f9a 38bd
00000070: ac2b b13b 68f0 a2bd 51cd 10be d17b c6bd
00000080: e571 f43c 880c 6e3d 26a3 013e 8071 683d
00000090: 840b 5cbd e10a e4bd 51b4 0e3e c819 393c
000000a0: 9861 993d 1a69 66bd 246b febd 4672 f83d
000000b0: 51f8 63bd 4d51 3bbd fe42 c43d e362 6cbd
000000c0: 590d c73c 878f b73d 70ff 873d 7629 ce3d
000000d0: 61ba d4bd 3726 833d 306d 4fbd 8ae1 073a
000000e0: 801a 943d 01d6 e7bd db70 20be 9ef7 b03d
000000f0: 00c2 9bbd 6281 d93d d5a1 2cbd 32d6 0dbe

running_var f4 [64]
0.3997232 0.45941222 0.4538289 0.4807492 0.57717824 0.6802351 0.57269233 1.009986
0.7361906 1.1081864 0.45460522 0.5928783 0.6484645 1.333423 0.29123333 0.8978254
0.40912098 1.0743797 0.38402012 0.7734859 0.56278974 0.75195956 0.55891657 0.80594546
0.8459812 0.98334867 0.2684455 1.3147361 0.8076934 0.53246355 0.6490091 0.67898023
0.39157403 0.70101964 0.7360047 0.6222041 0.76207346 0.6154807 1.0121069 1.0017393
0.63773054 0.8247923 0.5455371 0.70333457 0.45476803 1.0186758 1.2926841 0.511356
0.27392724 1.6681588 0.5752405 0.35091183 0.9160323 1.3211569 0.7143737 0.4662178
0.8182366 0.7216451 0.53745925 0.68722826 0.4821652 0.78149694 0.71001846 1.0387588
00000000: 85a8 cc3e 1438 eb3e 435c e83e c224 f63e
00000010: f4c1 133f e323 2e3f f79b 123f 3947 813f
00000020: fd76 3c3f 0dd9 8d3f 04c2 e83e dfc6 173f
00000030: c501 263f 9bad aa3f 891c 953e e3d7 653f
00000040: 4e78 d13e 4685 893f 499e c43e 2c03 463f
00000050: fd12 103f 6c80 403f 2815 0f3f 7152 4e3f
00000060: 3992 583f bdbc 7b3f b071 893e 4649 a83f
00000070: ffc4 4e3f 884f 083f 7625 263f a6d1 2d3f
00000080: 647c c83e 0676 333f ce6a 3c3f c548 1f3f
00000090: 3f17 433f 2590 1d3f b88c 813f fe38 803f
000000a0: 4f42 233f 9725 533f 52a8 0b3f bc0d 343f
000000b0: 5bd7 e83e f863 823f ac76 a53f 3ae8 023f
000000c0: 3140 8c3e 3a86 d53f f642 133f b7aa b33e
000000d0: 1881 6a3f ab1b a93f 32e1 363f 19b4 ee3e
000000e0: f477 513f bcbd 383f ee96 093f 31ee 2f3f
000000f0: 5bde f63e 2f10 483f c5c3 353f 0cf6 843f

weight f4 [64, 64]
0.050810546 -0.26244816 0.12410532 -0.046006076 0.16699803 -0.14858387 -0.1855933 -0.12284842
-0.090069234 -0.09632397 -0.0782292 0.05474721 0.024541669 -0.1767403 0.03743475 -0.11107499
0.031118335 -0.15239295 -0.1667988 0.14454189 0.15151119 0.10073631 -0.056776468 -0.15358382
-0.062148854 0.1604809 0.22020166 -0.17488758 -0.19913787 -0.00018987582 -0.114588246 0.087907635
0.04841186 0.1014877 -0.09860216 0.06780695 -0.11875961 -0.18802948 -0.17892347 0.052652277
-0.03690517 -0.07848163 -0.06474429 0.09223675 0.16063596 0.13049205 -0.038608942 -0.16022412
0.15945657 0.15800002 -0.09154004 -0.24956127 0.086202145 -0.16655508 -0.12598215 -0.14966716
0.004440651 0.15022947 0.21945563 -0.09805148 -0.008416433 -0.13029966 -0.18789536 -0.1682218
-0.06922789 0.07723386 -0.17712668 -0.10746085 -0.030818246 0.12281557 0.13043557 -0.17845924
0.05554128 -0.06718653 0.021154527 0.15639684 -0.14384405 0.18931368 0.23443879 -0.03862138
-0.1108657 0.11248819 0.012568356 -0.14942198 -0.078894295 -0.1548925 0.1474888 -0.010336721
0.14863302 -0.04510485 0.017985437 0.070784 -0.00045577425 0.0024820766 0.12753037 0.0009895778
0.0010879723 0.20427792 -0.16142355 -0.06397588 0.18126614 -0.171044 0.04881121 -0.11612579
0.13013403 -0.09056243 -0.15718356 -0.10052368 0.17447478 0.11340305 -0.20517714 -0.18952686
0.103458814 0.18262888 0.19469714 0.13823153 0.19888332 -0.16350986 0.163657 -0.12022878
-0.06669494 -0.19194497 0.04273506 -0.08084969 -0.029154833 -0.14480697 0.0653548 0.19826987
0.17632551 0.26894867 0.23199894 -0.080469884 0.21920958 0.12589042 -0.2565758 -0.04435812
-0.0053511406 -0.0058386256 -0.1266151 0.17603405 0.036773287 -0.02271343 0.12911706 0.07545007
-0.122833386 -0.13615274 0.11061749 0.061822854 -0.11926699 -0.16695543 -0.1598257 -0.13121097
0.024953661 -0.15624382 -0.19049324 -0.17770518 -0.17000955 -0.03979661 0.042523287 0.07532399
0.00304267 -0.034351546 0.12885901 -0.086383246 0.10135989 -0.1533827 0.018664844 0.028945744
0.011070931 -0.24715246 -0.120462224 0.12596743 -0.087179706 0.120043315 0.1435738 0.1007778
-0.12229914 0.07670582 -0.029304808 0.13392933 -0.099722795 -0.080551915 -0.10266372 -0.16268235
-0.10959573 0.13149084 -0.022456445 -0.057324853 0.114308946 -0.08205454 0.16965018 0.02951244
-0.036162276 0.10046647 0.12379709 -0.046774454 0.074462794 0.16390543 0.120011896 0.173916
0.04636108 -0.10949451 -0.033742752 0.080692485 -0.1224647 -0.2003866 0.08127149 0.015365129
-0.08035549 0.19418359 0.049238555 -0.014961614 0.08079068 0.16508907 0.030779032 -0.15997756
-0.09538978 0.040916037 0.13532129 -0.1815186 0.07809996 -0.03043969 -0.023580216 0.09505961
0.08831774 0.040252138 0.11802497 0.053024046 -0.04508818 0.059767064 -0.064483896 -0.19156532
0.053296037 -0.09120744 -0.18572836 0.0005511593 -0.2119976 0.029856846 0.17795765 -0.1077748
-0.020780353 0.08084616 -0.13730907 0.28809625 -0.16084735 0.07167871 -0.0071592396 -0.06765195
0.26446417 -0.18187241 0.024009718 -0.06592879 0.016440403 0.18401149 -0.11108047 0.06580143
00000000: b81e 503d 9b5f 86be ee2a fe3d de70 3cbd
00000010: 8801 2b3e 5f26 18be 2c0c 3ebe f497 fbbd
00000020: 3876 b8bd 8045 c5bd a136 a0bd 9c3e 603d
00000030: 9c0b c93c 69fb 34be 2e55 193d 497b e3bd
00000040: e1eb fe3c e60c 1cbe 4ecd 2abe ca02 143e
00000050: c025 1b3e d74e ce3d 718e 68bd 1445 1dbe
00000060: cc8f 7ebd 1b55 243e 8b7c 613e bb15 33be
00000070: ccea 4bbe 6719 47b9 3ead eabd eb08 b43d
00000080: 844b 463d c9d8 cf3d eeef c9bd 5fde 8a3d
00000090: 3d38 f3bd cd8a 40be b737 37be eaa9 573d
000000a0: e029 17bd faba a0bd a898 84bd 9fe6 bc3d
000000b0: c17d 243e b59f 053e 6924 1ebd cb11 24be
000000c0: 9548 233e c2ca 213e 5879 bbbd fd8c 7fbe
000000d0: c08a b03d 6a8d 2abe 7701 01be 5942 19be
000000e0: e182 913b c1d5 193e fab8 603e 37cf c8bd
000000f0: 14e5 09bc 466d 05be a467 40be 5642 2cbe
00000100: 5ac7 8dbd c92c 9e3d b260 35be 6f14 dcbd
00000110: 8c76 fcbc bb86 fb3d e790 053e 05be 36be
00000120: 417f 633d 1799 89bd 424c ad3c 7e26 203e
00000130: db4b 13be 72db 413e b910 703e 7431 1ebd
00000140: 8e0d e3bd 3560 e63d 81eb 4d3c 1302 19be
00000150: 5593 a1bd 249c 1ebe 4e07 173e 5a5b 29bc
00000160: 4133 183e ddbf 38bd 3256 933c 34f7 903d
00000170: fcf4 eeb9 56aa 223b 5297 023e b9b4 813a
00000180: 4b9a 8e3a 3b2e 513e 374c 25be c905 83bd
00000190: d59d 393e 2926 2fbe 43ee 473d 5cd3 edbd
000001a0: db41 053e cc78 b9bd baf4 20be 5cdf cdbd
000001b0: 84a9 323e dc3f e83d f519 52be 5413 42be
000001c0: 37e2 d33d 1103 3b3e b05e 473e 918c 0d3e
000001d0: 12a8 4b3e 216f 27be b395 273e 823a f6bd
000001e0: 5b97 88bd 398d 44be f50a 2f3d 8694 a5bd
000001f0: 1ed6 eebc 4748 14be bdd8 853d 4207 4b3e
00000200: ad8e 343e a4b3 893e 2191 6d3e 65cd a4bd
00000210: 7a78 603e 6be9 003e e75d 83be dcb0 35bd
00000220: 9f58 afbb f151 bfbb 64a7 01be 4542 343e
00000230: 969f 163d 8411 babc 4337 043e 9185 9a3d
00000240: 1290 fbbd a06b 0bbe 6c8b e23d f639 7d3d
00000250: 4042 f4bd 5df6 2abe 59a9 23be 2b5c 06be
00000260: 9f6b cc3c 61fe 1fbe a910 43be 59f8 35be
00000270: fc16 2ebe c501 23bd e62c 2e3d 7743 9a3d
00000280: 8867 473b 35b4 0cbd 9ef3 033e b3e9 b0bd
00000290: c695 cf3d 5b10 1dbe 04e7 983c a01f ed3c
000002a0: da62 353c 8915 7dbe e6b4 f6bd 9bfd 003e
000002b0: 468b b2bd 45d9 f53d 0305 133e 9764 ce3d
000002c0: f977 fabd f117 9d3d a310 f0bc c524 093e
000002d0: 773b ccbd 67f8 a4bd 5b41 d2bd 3496 26be
000002e0: ba73 e0bd 89a5 063e 94f6 b7bc 77cd 6abd
000002f0: cf1a ea3d 360c a8bd c7b8 2d3e 13c4 f13c
00000300: e51e 14bd 5dc1 cd3d 5489 fd3d 9296 3fbd
00000310: f37f 983d d3d6 273e ccc8 f53d 0917 323e
00000320: 1ee5 3d3d a83e e0bd d735 0abd 1a42 a53d
00000330: c6ce fabd 2532 4dbe ab71 a63d 06be 7b3c
00000340: 6b91 a4bd 10d8 463e 5eae 493d 8f21 75bc
00000350: 9675 a53d 1c0d 293e 4f24 fc3c 28d1 23be
00000360: b85b c3bd 9397 273d aa91 0a3e 03e0 39be
00000370: dff2 9f3d a85c f9bc 4c2b c1bc 9dae c23d
00000380: eedf b43d 6ddf 243d 13b7 f13d be2f 593d
00000390: 62ae 38bd 4fce 743d 2210 84bd b329 44be
000003a0: f24c 5a3d f7ca babd 932f 3ebe ad7b 103a
000003b0: e615 59be 5896 f43c 883a 363e 09b9 dcbd
000003c0: 8f3b aabc ac92 a53d c09a 0cbe 5a81 933e
000003d0: 2bb5 24be 4acc 923d 0e98 eabb 1b8d 8abd
000003e0: d967 873e c33c 3abe 07b0 c43c ac05 87bd
000003f0: 06ae 863c 826d 3c3e 287e e3bd e6c2 863d

bias f4 [64]
1.7550321e-06 1.6601413e-06 -1.4756717e-05 -1.791662e-06 -2.5761635e-06 7.778592e-06 -6.908937e-06 -2.4866915e-06
1.6060336e-06 6.7939305e-07 -1.1962784e-06 -2.2933323e-06 1.688582e-05 -7.5444865e-07 -2.5176364e-06 2.208625e-06
4.2002926e-06 2.040103e-06 -3.611283e-06 2.8118504e-06 -3.9046754e-06 3.314552e-06 6.1563655e-06 3.275522e-06
-7.1095797e-06 2.2128968e-06 3.9211614e-06 -1.8408525e-07 4.307287e-06 -1.8389954e-06 1.5026393e-05 1.1800159e-05
5.048189e-06 -2.9552862e-06 -1.5991316e-06 2.6568575e-06 8.6994487e-07 -2.3660557e-06 8.083296e-07 -4.7566964e-06
-1.5751779e-08 5.7623497e-06 2.359488e-06 8.704092e-07 -1.1184139e-06 3.0884152e-08 -4.549279e-06 -8.9084057e-07
-1.100347e-05 2.0938876e-06 -2.9491293e-06 1.6377817e-05 -4.6986824e-07 -5.9319206e-07 -1.6435419e-05 -1.6823404e-06
3.5890619e-06 2.6312136e-06 5.961917e-06 5.632792e-06 1.7054327e-06 -3.146446e-06 -2.4065264e-07 3.0668805e-06
00000000: 728e eb35 05d2 de35 9e93 77b7 0a79 f0b5
00000010: 27e2 2cb6 cc80 0237 51d3 e7b6 09e1 26b6
00000020: e58e d735 895f 3635 d08f a0b5 26e7 19b6
00000030: 06a6 8d37 5185 4ab5 aaf4 28b6 e337 1436
00000040: 3df0 8c36 b4e8 0836 5f59 72b6 39b3 3c36
00000050: e804 83b6 926f 5e36 c792 ce36 0ad1 5b36
00000060: d38e eeb6 4781 1436 8592 8336 f8a8 45b4
00000070: 5087 9036 67d3 f6b5 de19 7c37 4cf9 4537
00000080: 9d63 a936 6e53 46b6 bea1 d6b5 774c 3236
00000090: 2886 6935 87c8 1eb6 fdfb 5835 b69b 9fb6
000000a0: 874e 87b2 355a c136 b257 1e36 11a6 6935
000000b0: 691c 96b5 7ca5 0433 02a6 98b6 1922 6fb5
000000c0: 8b9b 38b7 b784 0c36 a8e9 45b6 1863 8937
000000d0: 3342 fcb4 d93b 1fb5 cbde 89b7 c7cc e1b5
000000e0: 9ddb 7036 e893 3036 7a0c c836 5101 bd36
000000f0: 39e6 e435 8827 53b6 0c33 81b4 9bd0 4d36

weight f4 [64]
0.8926553 0.9453566 1.0162666 1.0230701 0.932976 0.881566 0.9858982 0.97761726
0.93056935 1.0450058 1.0004336 0.94017017 0.9877934 1.0650815 0.9821579 1.0212804
1.018854 1.0011221 0.94370884 0.96829224 0.9330473 1.0191826 0.9647738 0.977944
1.0502775 0.94856596 0.9599259 1.0044392 0.92339224 0.92895764 1.0105901 0.97844833
1.022478 0.9574915 0.87325776 1.0360838 0.99175346 1.0148902 0.99773747 1.006234
0.96962273 0.882095 0.9626577 0.95996517 1.0618819 0.9707659 0.94392264 1.0496924
1.0100489 0.93893355 0.9678962 0.96834505 0.97927535 0.982004 0.926357 0.88794243
0.9495907 0.871258 0.92201585 0.9651194 0.99743724 0.9701411 1.0485114 0.9238827
00000000: 0f85 643f e402 723f 0615 823f f6f3 823f
00000010: 84d7 6e3f 4fae 613f d363 7c3f 2045 7a3f
00000020: cb39 6e3f c0c2 853f 350e 803f feae 703f
00000030: 07e0 7c3f 9754 883f b36e 7b3f 51b9 823f
00000040: cf69 823f c524 803f e796 713f 00e2 773f
00000050: 30dc 6e3f 9374 823f 6afb 763f 8a5a 7a3f
00000060: 7e6f 863f 38d5 723f b4bd 753f 7791 803f
00000070: 6f63 6c3f 2bd0 6d3f 045b 813f 977b 7a3f
00000080: 8fe0 823f 2a1e 753f d28d 5f3f 659e 843f
00000090: 8ee3 7d3f ece7 813f b96b 7f3f 47cc 803f
000000a0: 3239 783f fad0 613f bc70 763f 47c0 753f
000000b0: bfeb 873f 1d84 783f eaa4 713f 525c 863f
000000c0: 4849 813f f35d 703f 0cc8 773f 76e5 773f
000000d0: cab1 7a3f 9d64 7b3f bb25 6d3f 3250 633f
000000e0: 6018 733f c40a 5f3f 3b09 6c3f 1112 773f
000000f0: 0c58 7f3f 2b5b 783f 9f35 863f 9483 6c3f

bias f4 [64]
0.064824164 -0.053400073 -0.04731601 -0.016434517 -0.059588537 0.26086718 0.11591299 -0.018941015
-0.21940237 -0.048846766 -0.08551539 -0.031686906 0.089432195 0.11370811 0.047525864 0.0050760955
0.07310303 0.092425875 -0.117812596 0.12557465 -0.096222654 0.22933191 -0.25340867 0.016458794
-0.007406751 -0.08974568 0.20069873 -0.16132766 0.035133366 -0.22204173 -0.024047622 0.07980266
-0.09029727 -0.027292937 -0.16708408 0.054639716 -0.007922037 0.17389742 -0.07714053 0.19278458
-0.106035225 -0.13347787 -0.052235156 0.10522928 0.01233066 0.19933242 0.15166838 0.12007087
-0.16710238 0.029770337 0.028360203 0.07091808 -0.03899359 0.04525554 -0.10475845 0.05965356
-0.1782177 0.034366738 0.11118897 -0.27607346 0.117078975 0.13633248 0.016956633 0.06104631
00000000: 88c2 843d 09ba 5abd 6fce 41bd aea1 86bc
00000010: 1c13 74bd 6290 853e ca63 ed3d 302a 9bbc
00000020: 04ab 60be 8c13 48bd b122 afbd 21ca 01bd
00000030: 3a28 b73d ccdf e83d 7baa 423d 6055 a63b
00000040: 0bb7 953d c749 bd3d bb47 f1bd a496 003e
00000050: 6210 c5bd fcd5 6a3e c8be 81be 98d4 863c
00000060: 55b4 f2bb 95cc b7bd f883 4d3e 1433 25be
00000070: 01e8 0f3d e85e 63be 85ff c4bc 946f a33d
00000080: c6ed b8bd 7095 dfbc 1718 2bbe e5cd 5f3d
00000090: 6ecb 01bc 2a12 323e dbfb 9dbd 5269 453e
000000a0: ff28 d9bd 6cae 08be 88f4 55bd 7382 d73d
000000b0: 8906 4a3c cc1d 4c3e f54e 1b3e b7e7 f53d
000000c0: e31c 2bbe ece0 f33c a853 e83c 803d 913d
000000d0: beb7 1fbd e05d 393d 998b d6bd 4b57 743d
000000e0: b37e 36be 23c4 0c3d 0bb7 e33d 8059 8dbe
000000f0: 1ac7 ef3d be9a 0b3e a3e8 8a3c b20b 7a3d

running_mean f4 [64]
-0.017028825 0.0031800976 0.1618699 0.08301623 0.09263045 0.037670974 0.112740405 0.1798456
0.13620433 0.1318815 0.07222978 -0.0065338705 -0.15189649 -0.17027743 -0.10646726 0.042693328
-0.1287575 -0.08753905 -0.030912694 0.0128954435 -0.047276393 -0.016316911 0.13043097 -0.03504964
0.18470024 0.08634398 0.13494416 0.16370997 0.100145444 -0.019279137 0.16512819 -0.15981078
-0.12110255 0.061685506 -0.025896873 -0.090327 -0.06889651 0.031752147 -0.03235371 0.052366663
-0.11037735 -0.15144868 -0.09413164 0.0004666546 -0.12649664 0.06388264 0.057781722 0.16414537
0.06528003 -0.091905236 0.05560069 0.14556532 0.07702921 0.11539774 0.103461474 0.024845328
0.02363686 0.019165909 -0.09660772 0.048743714 0.019577034 0.0831942 -0.08061111 -0.052403238
00000000: 0980 8bbc 2f69 503b 39c1 253e 6a04 aa3d
00000010: 09b5 bd3d e14c 1a3d 71e4 e63d 7229 383e
00000020: 2679 0b3e f20b 073e 35ed 933d 141a d6bb
00000030: c18a 1bbe 355d 2ebe 820b dabd 33df 2e3d
00000040: 02d9 03be ac47 b3bd 9e3c fdbc 6947 533c
00000050: e4a4 41bd 0bab 85bc b28f 053e 3690 0fbd
00000060: 0f22 3d3e 1dd5 b03d cd2e 0a3e 96a3 273e
00000070: 0e19 cd3d 48ef 9dbc 5d17 293e 70a5 23be
00000080: 9d04 f8bd f1a9 7c3d ae25 d4bc 5dfd b8bd
00000090: 9d19 8dbd 8a0e 023d 5385 04bd 6d7e 563d
000000a0: 850d e2bd 5d15 1bbe 17c8 c0bd 52a9 f439
000000b0: 5688 01be e7d4 823d 87ac 6c3d b915 283e
000000c0: 89b1 853d d038 bcbd 8dbd 633d 130f 153e
000000d0: 7ec1 9d3d a655 ec3d 9ce3 d33d 6e88 cb3c
000000e0: 17a2 c13c d301 9d3c 45da c5bd 7da7 473d
000000f0: 0460 a03c b961 aa3d 7017 a5bd c7a4 56bd

running_var f4 [64]
0.34268078 0.8025911 0.62548417 1.631775 0.7581327 0.3453903 0.9352151 0.46232656
1.5032007 1.0745708 0.79779375 0.6043619 0.23237251 0.9322385 1.4258395 1.0036792
0.19703627 1.607306 0.7122946 0.83915573 1.287339 1.2714593 0.9821229 1.07027
0.78744227 0.69628 0.9089055 2.4372516 1.6517447 0.52167326 0.79836196 0.0961933
1.1900752 0.34621042 0.8261914 0.9624573 0.7309383 1.2911687 0.6565205 1.7089719
0.671718 0.5802953 0.81218135 0.91220903 1.0685691 0.9335262 0.7105089 0.6906393
1.0196255 1.0514051 0.83752334 0.5131537 0.6649315 1.1620106 0.67629117 0.78841627
0.8887514 0.9456513 0.78803474 0.90440184 1.3301729 1.0615706 0.64424586 0.75962996
00000000: db73 af3e 9c76 4d3f bb1f 203f 01de d03f
00000010: fc14 423f ffd6 b03e 426a 6f3f 11b6 ec3e
00000020: e168 c03f 898b 893f 363c 4c3f 76b7 1a3f
00000030: 0ff3 6d3e 2fa7 6e3f e981 b63f 8f78 803f
00000040: e0c3 493e 34bc cd3f f058 363f e9d2 563f
00000050: 86c7 a43f 2ebf a23f 686c 7b3f 9bfe 883f
00000060: d195 493f 683f 323f 08ae 683f eefb 1b40
00000070: 5f6c d33f 618c 053f 7361 4c3f fe00 c53d
00000080: 6254 983f 7e42 b13e 4881 533f 9a63 763f
00000090: c61e 3b3f 0445 a53f ba11 283f 97bf da3f
000000a0: b6f5 2b3f 3c8e 143f 1eeb 4f3f 8886 693f
000000b0: dfc6 883f 93fb 6e3f e9e3 353f bdcd 303f
000000c0: 1783 823f 7194 863f ee67 563f 0a5e 033f
000000d0: f338 2a3f c3bc 943f 6b21 2d3f a6d5 493f
000000e0: 3685 633f 3416 723f a5bc 493f e186 673f
000000f0: 1b43 aa3f 8ce1 873f 4ced 243f 1c77 423f

weight f4 [64, 64]
-0.04093868 -0.07360775 0.10818987 -0.10952424 0.14229268 0.14255011 0.09241233 0.06837409
-0.15414721 0.18975823 0.032488134 0.11064806 -0.122491054 -0.06184214 -0.029772844 -0.19066724
-0.2272 -0.2543489 -0.028261624 -0.043303274 -0.15756151 0.10965178 0.034890156 -0.10887128
-0.046411287 -0.2036838 0.14222446 0.20302433 0.11621781 -0.14970227 0.041051395 -0.06793093
0.0019747438 0.17785358 -0.16871446 0.0778223 0.20045818 -0.09525945 -0.18203333 -0.03425929
-0.021204751 -0.09397746 0.13811375 -0.013604768 0.15491602 -0.034799524 -0.017369453 0.16906959
0.06406766 -0.17005065 0.021782273 -0.04875834 0.13863087 -0.0069805356 0.21001068 0.10428405
-0.055223167 0.057908818 0.08348141 -0.17058472 -0.11545351 -0.05725772 -0.08063203 -0.1810487
0.14083947 -0.02982468 -0.11078933 0.20023169 0.042488784 -0.050901018 -0.154626 0.12622458
-0.03713954 -0.022143494 0.25266606 0.04839868 -0.15532027 0.035756227 0.18483028 -0.13852532
0.078094274 -0.19903712 -0.29279876 0.25360975 -0.18893814 0.015002319 0.20521891 0.14836845
0.11700454 -0.17263128 0.06496685 0.16907768 -0.17522275 0.07836473 0.13758285 -0.14255412
-0.20562315 -0.12307114 -0.050311133 0.004799798 -0.013492114 0.06349554 0.1358917 -0.090079814
-0.06266759 -0.047421485 0.03845256 0.19431186 -0.20095488 -0.03616354 0.18466158 0.035790555
0.13621503 0.08042475 0.015909992 0.2036105 -0.0900729 0.03332111 0.19545466 0.041554406
-0.10385056 -0.21544802 0.027602995 -0.17069285 -0.20030046 -0.08553119 0.14328413 -0.11544594
-0.09251986 -0.22905143 0.20584922 -0.16999076 0.019594966 -0.12457183 0.17674597 0.089487955
-0.16910544 -0.11709452 0.061061043 0.09720112 0.07984056 -0.19078499 -0.09285525 0.06835601
0.09416891 -0.22832562 0.16609766 0.023984304 0.052944478 0.18009715 -0.0068951766 -0.025628963
0.0965373 0.1522343 0.106976435 0.06796983 0.061299585 -0.13177414 -0.08567715 0.011665788
0.07850367 0.042381834 -0.017753499 0.0933182 -0.19601701 -0.03758768 -0.17621629 -0.16317618
-0.049477555 -0.012771873 -0.23523748 0.15235604 -0.14207087 -0.12441907 -0.13984957 0.0847817
0.08440478 -0.022600751 -0.14133589 0.09731576 0.12808695 -0.062058914 -0.037280012 -0.07588788
0.017912563 0.0011222286 -0.15821263 0.13324098 0.026986362 0.01005866 -0.1376679 0.063927725
0.07418569 0.17299928 -0.057853173 -0.014392437 0.06928782 0.1520169 -0.029820967 0.10512096
-0.18415351 0.061337568 0.00081510074 0.16021457 -0.17728108 -0.19894 -0.10442794 -0.20435803
-0.04542101 -0.14281586 0.13849993 -0.1532909 -0.12530313 0.22135928 -0.008070462 0.21753003
0.2096999 0.23193412 -0.10047881 0.19582663 -0.15033576 -0.09646427 0.17812109 0.008869632
-0.16386536 0.20536537 0.12729143 -0.22418667 0.24377373 -0.0969019 0.0057142447 0.10930213
0.054200884 0.13862197 0.16701148 -0.16129696 0.2463984 0.09533744 -0.16415794 0.046262205
0.19419372 0.01269552 -0.10813964 -0.025546784 0.1410249 -0.19621971 -0.05538223 -0.13113253
0.19217637 0.1322879 0.1897341 0.031337462 0.06940385 -0.10995537 0.09897408 -0.054219797
00000000: 51af 27bd a9bf 96bd a792 dd3d 3f4e e0bd
00000010: 2cb5 113e a8f8 113e ad42 bd3d b707 8c3d
00000020: c4d8 1dbe fb4f 423e 4712 053d 739b e23d
00000030: 97dc fabd 2f4e 7dbd 2ee6 f3bc 463e 43be
00000040: 1ea7 68be 053a 82be ec84 e7bc c65e 31bd
00000050: ce57 21be 1d91 e03d fbe8 0e3d e8f7 debd
00000060: c319 3ebd 7c92 50be 4aa3 113e 9ce5 4f3e
00000070: 9a03 ee3d 8d4b 19be 8225 283d 5f1f 8bbd
00000080: b46a 013b 401f 363e 7cc3 2cbe 4c61 9f3d
00000090: e944 4d3e 6317 c3bd f266 3abe 7853 0cbd
000000a0: 96b5 adbc 4177 c0bd b16d 0d3e 88e6 5ebc
000000b0: 4ea2 1e3e f289 0ebd 624a 8ebc 9420 2d3e
000000c0: e835 833d c221 2ebe bd70 b23c d3b6 47bd
000000d0: 40f5 0d3e fabc e4bb 0a0d 573e e092 d53d
000000e0: b031 62bd cc31 6d3d 4df8 aa3d c3ad 2ebe
000000f0: e472 ecbd 1287 6abd 6822 a5bd d564 39be
00000100: 3938 103e e352 f4bc 84e5 e2bd 8909 4d3e
00000110: b808 2e3d 967d 50bd 4756 1ebe 0441 013e
00000120: a11f 18bd 4666 b5bc 725d 813e b23d 463d
00000130: 470c 1fbe 1f75 123d 2644 3d3e 95d9 0dbe
00000140: e4ef 9f3d 63d0 4bbe b8e9 95be 23d9 813e
00000150: 0079 41be 49cc 753c e824 523e e6ed 173e
00000160: 14a0 ef3d 41c6 30be 570d 853d b322 2d3e
00000170: 986d 33be b07d a03d 85e2 0c3e b5f9 11be
00000180: e08e 52be b90c fcbd 0c13 4ebd a047 9d3b
00000190: 070e 5dbc f309 823d 3227 0b3e c47b b8bd
000001a0: de57 80bd 083d 42bd 6e80 1d3d b0f9 463e
000001b0: 1ec7 4dbe 3820 14bd ed17 3d3e 1e99 123d
000001c0: f47b 0b3e bbb5 a43d ac55 823c 457f 503e
000001d0: 2478 b8bd b77b 083d 4425 483e f434 2a3d
000001e0: 9aaf d4bd 689e 5cbe ad1f e23c 1bca 2ebe
000001f0: 901b 4dbe fa2a afbd 13b9 123e ec6e ecbd
00000200: 0d7b bdbd 758c 6abe 23ca 523e 0f12 2ebe
00000210: 9f85 a03c 841f ffbd e5fc 343e 7645 b73d
00000220: fa29 2dbe 40cf efbd 251b 7a3d 6111 c73d
00000230: 7383 a33d 245d 43be e52a bebd 3cfe 8b3d
00000240: a1db c03d 31ce 69be 8115 2a3e bb7a c43c
00000250: 4fdc 583d 636b 383e eff0 e1bb d5f3 d1bc
00000260: 59b5 c53d 4fe3 1b3e 7616 db3d c433 8b3d
00000270: 4615 7b3d cdef 06be 8077 afbd dc21 3f3c
00000280: 88c6 a03d 9398 2d3d c96f 91bc 9d1d bf3d
00000290: afb8 48be 8af5 19bd 0b72 34be a817 27be
000002a0: faa8 4abd 1e41 51bc 18e2 70be 3903 1c3e
000002b0: 077b 11be 6dcf febd ba34 0fbe 07a2 ad3d
000002c0: 6adc ac3d 3625 b9bc 5bba 10be 7c4d c73d
000002d0: 3a29 033e 7d31 7ebd edb2 18bd 1b6b 9bbd
000002e0: 5ebd 923c be17 933a 7e02 22be 5370 083e
000002f0: 8112 dd3c 14cd 243c d0f8 0cbe 8aec 823d
00000300: abee 973d b926 313e 73f7 6cbd 42ce 6bbc
00000310: c6e6 8d3d 51aa 1b3e 1a4b f4bc a849 d73d
00000320: bd92 3cbe 1a3d 7b3d 7cac 553a 4a0f 243e
00000330: 2c89 35be edb6 4bbe 51de d5bd 3b43 51be
00000340: 620b 3abd 523e 12be edd2 0d3e 4af8 1cbe
00000350: 774f 00be 02ac 623e f939 04bc 31c0 5e3e
00000360: 92bb 563e 2380 6d3e d6c7 cdbd c786 483e
00000370: 9ef1 19be 0f8f c5bd 6065 363e ef51 113c
00000380: 52cc 27be 4d4b 523e af58 023e 3191 65be
00000390: d29f 793e 8174 c6bd 8f3e bb3b ccd9 df3d
000003a0: bf01 5e3d ebf2 0d3e 0f05 2b3e 082b 25be
000003b0: dd4f 7c3e 4740 c33d 0519 28be 707d 3d3d
000003c0: b8da 463e df00 503c 5178 ddbd 7d47 d1bc
000003d0: d568 103e d2ed 48be 7ad8 62bd 9b47 06be
000003e0: e2c9 443e 7b76 073e a849 423e b65b 003d
000003f0: 9b23 8e3d 4830 e1bd ecb2 ca3d 9415 5ebd

bias f4 [64]
-1.6809439e-06 1.8381863e-06 6.464743e-07 -1.9566025e-05 1.4183994e-05 9.33554e-07 1.520282e-07 -2.9541552e-06
-6.139016e-07 -1.2339301e-06 -3.6060676e-06 -9.81874e-06 1.6313183e-05 -7.3987354e-07 -8.281474e-06 -6.164707e-06
5.1496477e-07 8.189446e-06 1.146255e-06 -1.2122278e-05 1.6114657e-07 5.794547e-07 2.0233606e-06 2.5400266e-06
-9.223918e-07 -1.6231246e-06 1.2233883e-05 -2.019606e-06 5.299526e-06 -3.5052906e-06 -3.3171627e-06 -2.0769912e-08
4.1091e-06 -5.448867e-06 2.463763e-06 -6.5195463e-06 -9.005295e-06 1.2850708e-05 1.8277365e-06 -1.7227027e-05
-6.089803e-07 -4.871147e-06 3.352212e-07 7.0472956e-06 -1.0609673e-06 -6.2609356e-06 -1.0758378e-05 1.26537e-05
2.9849416e-06 -2.273699e-07 1.8545163e-06 2.812245e-06 1.739961e-05 -4.874795e-05 9.132699e-07 -5.9642152e-06
-4.198991e-06 4.7147864e-06 4.3339596e-06 -2.7635338e-06 -2.2762335e-06 1.4149396e-05 1.0521867e-06 -4.8864933e-07
00000000: cb9c e1b5 9ab7 f635 6089 2d35 b821 a4b7
00000010: caf7 6d37 5899 7a35 323d 2334 0040 46b6
00000020: ffca 24b5 849d a5b5 c5ff 71b6 2bbb 24b7
00000030: 4bd8 8837 b99b 46b5 a9f0 0ab7 6eda ceb6
00000040: 1c3c 0a35 6765 0937 06d9 9935 ca60 4bb7
00000050: a207 2d34 d38b 1b35 12c9 0736 5375 2a36
00000060: 489a 77b5 23da d9b5 2140 4d37 9188 07b6
00000070: 95d2 b136 6f3c 6bb6 6c9c 5eb6 8569 b2b2
00000080: e6e0 8936 69d5 b6b6 2057 2536 7ac2 dab6
00000090: 7315 17b7 5f99 5737 8c50 f535 c282 90b7
000000a0: cf78 23b5 d672 a3b6 73f8 b334 cf77 ec36
000000b0: 8f66 8eb5 0715 d2b6 e27e 34b7 3a4b 5437
000000c0: e850 4836 f622 74b4 b2e8 f835 00ba 3c36
000000d0: 61f5 9137 b676 4cb8 6e27 7535 3820 c8b6
000000e0: 0fe5 8cb6 b533 9e36 6e6c 9136 2675 39b6
000000f0: 65c1 18b6 3163 6d37 dc38 8d35 ba2b 03b5
