wgan_results/mgum/dropout/critic.pth (torch_old, 274067 bytes, 17 tensors)

bias f4 [128]
00000000: 6c82 ad3f 1d5f 89bf 3d75 643f 2ce9 9cbf
00000010: e826 c43f a184 af3f 1bb8 1541 5477 7d3f
00000020: 6197 d03f 7cea 993f dfc1 2fbf 10a7 1541
00000030: 7da7 debe ec8f b23f 524e c53f 8dd2 b73f
00000040: a2ac b4bf 264a d33f cfc6 d93d 15d0 bc3f
00000050: 6d8a c83f db04 123e 1288 bcc0 43a7 f640
00000060: 360b 1641 f589 1541 c1a7 8b3f effc b1bf
00000070: 2410 1741 9fea ae3f adb1 993f f553 63bf
00000080: 20ab 1441 9c9b a83f d3d6 1641 bc3b 463f
00000090: cd0b 1741 9087 f43e 0422 1741 f1db 64bf
000000a0: 6568 c13f 4550 1fbf a602 6dbf b06b a6c0
000000b0: aae7 803f f487 84bf fb8d a2be c71b d4c0
000000c0: 62a4 88bf 2e70 bd3f 457e 963f ab5e 7ebf
000000d0: 5e3e 9dbf 6ba5 9abf 4c93 7d3f 305f bf3f
000000e0: 3f8e 54c0 3140 1341 2e4d a0bf 7505 eb40
000000f0: 5727 9c3f d98b 9ec0 0cf3 d23f 36ca 0741
00000100: bd56 8f3f ad12 84bf 42e8 ef3f 3289 78bf
00000110: bbb8 1841 cdce 1141 fcbe 903f af8f d43e
00000120: ab57 05bf ee0b a83f 2688 b33f 1ba5 a540
00000130: dc8b 9cbf 3703 09bf ec7f a6bf 8f3c 423e
00000140: ef91 1b41 4157 19bf 955b 5f3f 76c3 0041
00000150: b1c5 9cbf 652d 91bf 1ac9 9f3f fabd 093f
00000160: cb86 be3f 1616 c23f 6b01 c5bf f1bc 1541
00000170: b7d4 9bbf 2450 d63f 2160 0f40 1243 14bf
00000180: 6584 99bf 7d06 6c3f 6dd8 6bbf d188 1341
00000190: cf0b bf3f 0322 b13f 21f6 9dbf 87db a33f
000001a0: d1b1 f240 ed5c ca3f 080a 23bf c3de f5be
000001b0: 5f82 02bf 15af 2dbf cb09 c73f 5892 1241
000001c0: ccd7 c03f 6381 1541 002a cc40 8e8d 8c3f
000001d0: 8535 943f 4831 7b3f 3c7c 063f 2def 7cbf
000001e0: 1c32 92bf 9a13 e33e c2ad fd40 a4cd 9ebf
000001f0: 606f 333e cd66 9bbf 98a4 1541 8735 df3f
1.3555427 -1.0732151 0.8924139 -1.2258658 1.5324373 1.371235 9.357448 0.99010205
1.6296197 1.2024684 -0.686552 9.353287 -0.43487158 1.3950171 1.5414526 1.436113
-1.4115183 1.6507003 0.10633623 1.4751002 1.5667244 0.14259665 -5.89161 7.7079177
9.377737 9.346181 1.091057 -1.3905314 9.441441 1.3665351 1.2007347 -0.88799983
9.291779 1.3172488 9.427447 0.774349 9.440381 0.47759676 9.445805 -0.89398104
1.5109984 -0.62231857 -0.92582166 -5.2006454 1.0070698 -1.035399 -0.31748948 -6.628391
-1.0675166 1.479986 1.1757284 -0.993632 -1.2284658 -1.2081732 0.9905288 1.4950924
-3.321182 9.203172 -1.2523553 7.344416 1.2199506 -4.9545712 1.6480422 8.486868
1.1198345 -1.0318199 1.8742754 -0.97084343 9.5451 9.112988 1.1308284 0.41515872
-0.52086896 1.3128641 1.4025924 5.1764045 -1.2230182 -0.5352053 -1.3007789 0.18968414
9.723128 -0.59898764 0.8724912 8.04772 -1.2247831 -1.1341978 1.2483246 0.53805506
1.4884886 1.516299 -1.5391058 9.358628 -1.217429 1.6743207 2.2402422 -0.5791484
-1.1993529 0.921974 -0.92127115 9.220902 1.4925479 1.3838505 -1.2340738 1.280137
7.584206 1.5809609 -0.6368718 -0.48021516 -0.5098018 -0.6784528 1.5549864 9.160728
1.5065856 9.344089 6.380127 1.0980699 1.1578833 0.9812207 0.52533317 -0.98802453
-1.1421542 0.44350892 7.9274607 -1.2406507 0.17522955 -1.2140747 9.352684 1.743821

weight_orig f4 [128, 1]
00000000: 9523 823e de62 993e 201e 07be e61d bb3e
00000010: 41c4 623e 6233 f83d 67b9 b9be e6fa 16be
00000020: e0e5 433e 6dea 31be d444 933e e4f5 b9be
00000030: 070a 853e 5691 543e 0be3 593e 4374 1e3e
00000040: c5ca be3e 6232 353e 8e8c 6d3e 1c08 433e
00000050: 56b7 4f3e 1601 243e 4d4a 9c3e 6a26 99be
00000060: 64fe babe f722 babe 01cc 23be b1f3 c13e
00000070: bcc6 bbbe b811 423e 1156 36be 3b3f 953e
00000080: 9f06 b9be bbb4 013e 6718 bcbe a7a9 e6bd
00000090: 0bad bbbe 2dcf 513e 209d bbbe 9348 7f3e
000000a0: 7a41 523e f73c 933e d76a 8b3e 8f21 0d3f
000000b0: c3e2 213e 842b 933e 727d 593e 8bad af3e
000000c0: 4d41 933e ed62 563e 0d23 31be 2ba7 863e
000000d0: 9d03 a03e 115a a63e 1ef5 163e 3377 343e
000000e0: 09f6 313e 3840 b7be 423f ab3e 4adb 91be
000000f0: 9719 2e3e 0466 843e 3b53 6c3e 76a4 a8be
00000100: dab3 27be 9a0b a03e d23c 553e 3f80 8a3e
00000110: f87b bdbe d5c8 b4be ce43 173e 333a 453e
00000120: 03e6 8b3e 1417 143e dc17 2d3e e51f 0bbf
00000130: 6d03 b23e b85d 713e a1ed ac3e de12 223e
00000140: cdda c1be d233 833e b84d 113e 358b 9fbe
00000150: 746e a03e 5ade 9a3e de02 283e 909a 66bd
00000160: b1f5 3b3e 4695 673e ef8c db3e 7410 babe
00000170: f2fc a63e b5c7 453e c115 f0bd 6ef9 823e
00000180: 5971 ad3e 8f79 c7bd cbcc 6e3e e65c b6be
00000190: 4878 193e 5a71 0f3e dd28 a73e 0796 4b3e
000001a0: 1c53 96be 829f 463e bb3c 903e 42ec 443e
000001b0: 8cf3 773e 3b43 973e 759b 4d3e e73a b6be
000001c0: 0277 273e 5b32 babe 7bd7 2bbf 40da 23be
000001d0: e510 253e 84b7 473e bc9c 5ebd 3600 863e
000001e0: 3d4d 9d3e 674f 4c3e ed13 9dbe 786d b93e
000001f0: eac0 6c3e 03d3 a23e 9fe0 b9be a58f 583e
0.25417772 0.29958242 -0.13195086 0.36546248 0.22145177 0.121191755 -0.36274263 -0.14744148
0.19130659 -0.17374583 0.2876345 -0.36320412 0.25984213 0.20758566 0.21278016 0.15474038
0.37264076 0.17695001 0.23198149 0.19046062 0.20284781 0.16016039 0.30525437 -0.2991212
-0.3652221 -0.363548 -0.1599579 0.37881234 -0.3667506 0.18952072 -0.17806269 0.29149804
-0.36137864 0.126666 -0.36737368 -0.11262827 -0.3665546 0.20489188 -0.36643314 0.24930029
0.2053279 0.2875745 0.2722995 0.5512933 0.15809159 0.28744137 0.2123926 0.3431209
0.28760758 0.20936175 -0.17298527 0.26299414 0.31252757 0.3249059 0.14741942 0.17623596
0.17379011 -0.35791183 0.334467 -0.28487617 0.17001949 0.25859082 0.23078625 -0.32937974
-0.16377202 0.3125885 0.20823982 0.2705097 -0.37008643 -0.35309473 0.14771959 0.19260482
0.27323923 0.14461929 0.16903633 -0.5434554 0.3476824 0.23570907 0.33775046 0.1582751
-0.37862244 0.25625473 0.14189804 -0.31160894 0.3133427 0.30247766 0.16407344 -0.056299746
0.18355443 0.22615537 0.4288096 -0.36340678 0.32614857 0.19314463 -0.11722899 0.25580925
0.3387554 -0.09739982 0.2332031 -0.3561775 0.1498729 0.14008084 0.32648364 0.1988145
-0.29360282 0.19396785 0.28171334 0.1923075 0.24214 0.2954348 0.20078833 -0.35591814
0.16353992 -0.36366543 -0.6712567 -0.16001225 0.16119726 0.195036 -0.054348692 0.26172036
0.3072299 0.19952165 -0.30679265 0.3621633 0.23120466 0.31801614 -0.36304185 0.21148546

weight_u f4 [128]
00000000: ecf6 a6bd 3fca c4bd 1f5a 2d3d bd10 f0bd
00000010: ad77 91bd 9637 1fbd 5d47 ee3d fab3 413d
00000020: d454 7bbd bd42 643d 10f1 bcbd f894 ee3d
00000030: 75af aabd ed5b 88bd 71c5 8bbd c44a 4bbd
00000040: d9c7 f4bd 6078 68bd 5e62 98bd 4f38 7abd
00000050: 343f 85bd a469 52bd 0d84 c8bd b07c c43d
00000060: 51e8 ef3d ccce ee3d 8a25 523d acd5 f8bd
00000070: 5ae9 f03d 32fc 78bd 99ee 693d c37a bfbd
00000080: fe61 ed3d b368 26bd 2152 f13d 7ef7 133d
00000090: 64c8 f03d f096 86bd f8b3 f03d b9c2 a3bd
000000a0: 42e0 86bd fae6 bcbd 4fde b2bd 2c11 35be
000000b0: dbb1 4fbd 97d0 bcbd 4584 8bbd bf63 e1bd
000000c0: 8aec bcbd 9986 89bd f242 633d 81c1 acbd
000000d0: 1f4b cdbd ae6c d5bd 8fac 41bd 3a88 67bd
000000e0: a151 64bd 021b eb3d 7db4 dbbd 3821 bb3d
000000f0: 7c5d 5fbd 09dd a9bd 6099 97bd 025d d83d
00000100: 5028 573d 5f55 cdbd efc9 88bd 54b1 b1bd
00000110: 4f1a f33d f5f0 e73d 8311 42bd 7409 7dbd
00000120: 557c b3bd cffe 3dbd d312 5ebd 277e 323e
00000130: d062 e4bd 34d5 9abd a5dc ddbd 93ef 4fbd
00000140: bdb5 f83d 3254 a8bd 976b 3abd a5b0 cc3d
00000150: 32d4 cdbd 1db1 c6bd b08d 57bd d0ed 933c
00000160: 9825 71bd a38e 94bd a5d6 0cbe 0cb7 ee3d
00000170: a73d d6bd 01bf 7dbd d202 1a3d 4809 a8bd
00000180: a285 debd 9feb ff3c cc2f 99bd 5df7 e93d
00000190: b8e5 44bd 6c08 38bd ff75 d6bd f498 82bd
000001a0: b5dc c03d dfd3 7ebd 5a0d b9bd 75a5 7cbd
000001b0: a30e 9fbd c710 c2bd e1e4 83bd bfcb e93d
000001c0: 41da 56bd 8be2 ee3d c977 5c3e d137 523d
000001d0: 5dc6 53bd 8e1d 80bd 71cd 8e3c 4deb abbd
000001e0: 42d0 c9bd df0f 83bd ba86 c93d f2e5 edbd
000001f0: bcdf 97bd 17e6 d0bd ae79 ee3d b9eb 8abd
-0.08152565 -0.09608888 0.042322274 -0.117219426 -0.071029045 -0.03887137 0.11634705 0.04729078
-0.061360195 0.05572771 -0.092256665 0.11649507 -0.08334247 -0.066581585 -0.06824768 -0.04963185
-0.119521804 -0.056755424 -0.07440637 -0.061088856 -0.06506196 -0.051370278 -0.09790812 0.09594095
0.11714233 0.11660537 0.05130533 -0.1215013 0.11763258 -0.060787387 0.05711231 -0.09349587
0.11590956 -0.040627193 0.11783243 0.0361247 0.117569715 -0.06571758 0.11753076 -0.07996125
-0.065857425 -0.09223743 -0.08733808 -0.17682332 -0.050706726 -0.09219473 -0.06812338 -0.11005353
-0.09224804 -0.067151256 0.055483766 -0.084353454 -0.10024094 -0.1042112 -0.047283705 -0.0565264
-0.05574191 0.11479761 -0.10727785 0.09137195 -0.054532513 -0.08294112 -0.07402301 0.10564615
0.05252868 -0.10026049 -0.06679141 -0.08676401 0.11870252 0.11325256 -0.04737998 -0.061776593
-0.08763949 -0.046385583 -0.05421717 0.17430936 -0.111516595 -0.075601965 -0.108331 -0.050765585
0.12144039 -0.08219184 -0.045512762 0.0999463 -0.10050239 -0.097017504 -0.052625358 0.018057734
-0.058873743 -0.07253768 -0.13753755 0.11656007 -0.10460978 -0.061949734 0.037600346 -0.08204895
-0.10865332 0.031240283 -0.0747982 0.11424134 -0.04807064 -0.044929907 -0.10471725 -0.0637683
0.094170965 -0.062213775 -0.0903575 -0.06168123 -0.077664636 -0.09475856 -0.064401396 0.114158146
-0.052454237 0.116643034 0.2153007 0.051322762 -0.051702846 -0.06255637 0.017431946 -0.083944894
-0.09854175 -0.063995115 0.0984015 -0.11616124 -0.07415721 -0.10200136 0.11644302 -0.06783242

weight f4 [128, 1]
00000000: ebf6 a63d 3eca c43d 1e5a 2dbd bc10 f03d
00000010: ac77 913d 9637 1f3d 5c47 eebd f9b3 41bd
00000020: d354 7b3d bb42 64bd 0ff1 bc3d f794 eebd
00000030: 74af aa3d ed5b 883d 71c5 8b3d c34a 4b3d
00000040: d8c7 f43d 5f78 683d 5d62 983d 4e38 7a3d
00000050: 333f 853d a369 523d 0c84 c83d af7c c4bd
00000060: 50e8 efbd cbce eebd 8925 52bd abd5 f83d
00000070: 59e9 f0bd 31fc 783d 98ee 69bd c27a bf3d
00000080: fd61 edbd b368 263d 2052 f1bd 7df7 13bd
00000090: 62c8 f0bd ef96 863d f6b3 f0bd b8c2 a33d
000000a0: 42e0 863d f9e6 bc3d 4ede b23d 2b11 353e
000000b0: dab1 4f3d 96d0 bc3d 4484 8b3d bd63 e13d
000000c0: 89ec bc3d 9886 893d f142 63bd 80c1 ac3d
000000d0: 1e4b cd3d ad6c d53d 8eac 413d 3988 673d
000000e0: a051 643d 011b ebbd 7cb4 db3d 3721 bbbd
000000f0: 7b5d 5f3d 08dd a93d 5f99 973d 015d d8bd
00000100: 4f28 57bd 5e55 cd3d eec9 883d 54b1 b13d
00000110: 4e1a f3bd f4f0 e7bd 8211 423d 7309 7d3d
00000120: 547c b33d cefe 3d3d d212 5e3d 277e 32be
00000130: ce62 e43d 33d5 9a3d a4dc dd3d 92ef 4f3d
00000140: bcb5 f8bd 3154 a83d 966b 3a3d a4b0 ccbd
00000150: 31d4 cd3d 1cb1 c63d af8d 573d cfed 93bc
00000160: 9725 713d a38e 943d a5d6 0c3e 0bb7 eebd
00000170: a53d d63d 00bf 7d3d d102 1abd 4709 a83d
00000180: a185 de3d 9eeb ffbc cb2f 993d 5cf7 e9bd
00000190: b7e5 443d 6b08 383d fe75 d63d f498 823d
000001a0: b4dc c0bd ddd3 7e3d 590d b93d 74a5 7c3d
000001b0: a30e 9f3d c610 c23d e0e4 833d becb e9bd
000001c0: 40da 563d 8ae2 eebd c877 5cbe d037 52bd
000001d0: 5cc6 533d 8e1d 803d 71cd 8ebc 4deb ab3d
000001e0: 41d0 c93d de0f 833d b986 c9bd f1e5 ed3d
000001f0: bbdf 973d 16e6 d03d ad79 eebd b9eb 8a3d
0.081525646 0.09608887 -0.04232227 0.11721942 0.07102904 0.03887137 -0.116347045 -0.047290776
0.06136019 -0.0557277 0.09225666 -0.116495065 0.08334246 0.066581585 0.06824768 0.049631845
0.1195218 0.05675542 0.07440636 0.061088853 0.06506195 0.051370274 0.09790811 -0.09594094
-0.11714232 -0.116605364 -0.051305328 0.12150129 -0.117632575 0.060787383 -0.057112306 0.09349586
-0.115909554 0.040627193 -0.11783242 -0.036124695 -0.1175697 0.06571757 -0.11753075 0.07996124
0.065857425 0.09223742 0.087338075 0.1768233 0.05070672 0.09219472 0.06812337 0.11005352
0.09224803 0.06715125 -0.055483762 0.08435345 0.10024093 0.10421119 0.0472837 0.056526396
0.055741906 -0.1147976 0.10727784 -0.091371946 0.05453251 0.082941115 0.074023 -0.10564614
-0.052528676 0.10026048 0.0667914 0.08676401 -0.118702516 -0.11325255 0.047379978 0.06177659
0.08763948 0.04638558 0.054217167 -0.17430936 0.11151658 0.07560196 0.108330995 0.05076558
-0.12144038 0.08219183 0.04551276 -0.09994629 0.10050238 0.0970175 0.052625354 -0.018057732
0.05887374 0.07253768 0.13753755 -0.116560064 0.104609765 0.06194973 -0.037600342 0.082048945
0.108653314 -0.03124028 0.07479819 -0.11424133 0.048070636 0.044929903 0.10471724 0.0637683
-0.09417096 0.062213767 0.09035749 0.061681226 0.077664636 0.094758555 0.06440139 -0.11415814
0.052454233 -0.11664303 -0.21530068 -0.05132276 0.051702842 0.06255637 -0.017431946 0.083944894
0.098541744 0.06399511 -0.098401494 0.116161235 0.0741572 0.102001354 -0.116443016 0.06783242

bias f4 [128]
00000000: 3f30 a7bf 7970 c53c fa4f 913c 61f1 7b3d
00000010: d9f3 f73d 3dfd ae3e bfc3 e9b9 6ae6 8dbc
00000020: 1166 a73c e466 a43e bf7f 0f3d 8632 74bf
00000030: f31a ca3c ad7c 403e 87c3 a93e 6903 af3e
00000040: 46e2 9c3e be8f 99bf 5ecd 82bf 2ca5 ab3e
00000050: 4e3c 74bd a9e1 013c ab4b c9bc 4f86 ab3e
00000060: 313d ea3b 7abc 96bf 1287 bc3e 8dd1 a83f
00000070: e7f4 963e 7a2a c2bd 72e9 a23f 5d05 813c
00000080: ffa7 623d 0c92 a33e d6e9 433f c3b8 04be
00000090: d78c 20bf 4224 f33c 0732 383f 7c89 a23e
000000a0: 3d0c b0bf dc95 153c 3069 e23c ba75 c0bf
000000b0: 3069 3b3e f903 9f3e 9b37 953b 9a79 71bf
000000c0: dae4 843d 2aa4 793e 1586 27be 43ee b4bc
000000d0: ca18 493e be2d f4b9 741a 8d3e 3074 713b
000000e0: 663f 9c3d 6992 8b3e 854c c9be 4dcf 66bf
000000f0: a95c af3e 31d4 a53e 10a0 a0bf 9b27 8abf
00000100: a415 a83d fb19 9f3e 5beb 553d a5e7 163e
00000110: 3d9f ab3e b0fb d3bd 2f75 1840 4a52 14be
00000120: 48ed 9b3d c979 f73e 53d4 33bb 2d3a 5b3c
00000130: 220f 0f3c f17f 95bc fd3a 9b3c c1ac 1740
00000140: a6be 1e3d 1f52 b7bd fcaf 3abd 3fbb cebd
00000150: 2353 a83e 7682 1c40 8ace a43e ecca 9e3e
00000160: 9191 863e f5af 96bf 9a95 47bc 6374 63bf
00000170: 8325 a23e 3fd1 7b3c 72a4 df3e 61b8 9e3e
00000180: 42fe c83e 46d2 ae3c 252f 5bbd 1033 ea3e
00000190: 3780 a53e d919 32bd f88d 3abe 5f6e a73e
000001a0: 40ee 9c3e cdea 2cbd 5aa0 ad3e f022 b43e
000001b0: fba0 8bbf f3a5 a33e 2a03 693e a9f0 da3c
000001c0: 4d54 86bf a485 8340 1202 523d 1b05 413f
000001d0: c5b4 a3bf 6ae5 59be 04bd 9e3e 0de8 2f3f
000001e0: b332 043f 5e0d 3b3e 0a13 fe3c 9005 40be
000001f0: e6d0 663e c79e f83d bf79 5ebf 0dde 7d3f
-1.3061599 0.024101483 0.017738331 0.061509494 0.12107057 0.3417758 -0.00044587065 -0.017321784
0.020434411 0.3210975 0.035033938 -0.9538959 0.024671054 0.1879756 0.33156988 0.3418229
0.30641383 -1.1996992 -1.0218923 0.33524454 -0.059627824 0.007927337 -0.024572214 0.33500907
0.007148408 -1.1776268 0.368218 1.318895 0.2948372 -0.09480758 1.2727492 0.015749628
0.055335995 0.31947362 0.7652868 -0.12961106 -0.62714905 0.029680375 0.71951336 0.31745517
-1.3753735 0.009129968 0.027638048 -1.5035927 0.18301845 0.31057718 0.004553748 -0.94326174
0.064889625 0.2437903 -0.16359742 -0.022086268 0.19638363 -0.00046573387 0.27559245 0.0036842935
0.0762928 0.2726014 -0.39316192 -0.90160066 0.34250382 0.32388452 -1.2548847 -1.0793337
0.082072526 0.3107451 0.052226406 0.14736803 0.33519927 -0.1035074 2.3821523 -0.14484516
0.07613617 0.48335102 -0.0027439788 0.013380569 0.008731635 -0.018249484 0.018949026 2.369919
0.038756035 -0.0895121 -0.045577988 -0.10094308 0.32875928 2.4454627 0.32188827 0.31014192
0.26282933 -1.1772448 -0.012181664 -0.8884947 0.31669244 0.015369712 0.4368015 0.31000045
0.39256483 0.0213405 -0.053511757 0.45742083 0.32324383 -0.04348168 -0.1821822 0.32701394
0.3065052 -0.04221611 0.339114 0.35182905 -1.0908502 0.31962547 0.22755113 0.026726084
-1.0494477 4.1100636 0.051271506 0.75398415 -1.2789541 -0.21278921 0.31003582 0.68713456
0.5163986 0.18266818 0.031014938 -0.18752122 0.22540626 0.121396594 -0.8690452 0.9916695

weight_orig f4 [128, 128]
00000000: 2835 823e 0a68 303f 65fb b0bd e50d 4e3f
00000010: 3efc 1c3e a43f 823d fea6 3d3c 8187 cfbd
00000020: 9a42 853d 909c 00be 645f 163f 3570 8c3b
00000030: 745c d63e 6687 ad3d 54e0 0a3e 54e5 a83d
00000040: 169f 3c3f 97ce 9d3d 6aab ad3e 5ee4 f03d
00000050: 7616 0d3e 8677 393e bbb7 813f 9720 e53c
00000060: 752f 063d 734b 463d 93a4 fdbd 63d7 6f3f
00000070: 08f7 5b3d 396c a93d a781 01be 77ff 053f
00000080: 73c4 243d 4751 d63d 15a0 adbb e6ac adbd
00000090: 967e 933c 4ae9 733e a7da 4c3d fe57 103f
000000a0: 6683 f43d 9b5c 013f 00ba 273f 8a37 b93f
000000b0: aca9 b03d f495 283f e6f0 b13e 1ad5 953f
000000c0: ac1a 343f 88a1 1c3e 2442 05be 0c75 143f
000000d0: e5cf 143f becc 203f c605 553e 1f7b de3d
000000e0: 9b97 053f bd42 f2bc dfd7 173f 9ad8 c4bc
000000f0: 1017 0d3e 3f09 643f f9de ea3d 5aa5 a33c
00000100: 85e9 e8bd 2ff7 333f 2514 cdbc df75 053f
00000110: f83e ef3b f9f9 febb 97c3 483e 0e80 573e
00000120: 34e3 cd3e 511f bd3d 0b8d c13d 5109 22bd
00000130: ae86 3a3f cb00 073f e56e 243f fd4b 963e
00000140: 9e12 c73c b0f7 023f 95a0 0d3d c15b 213d
00000150: 4dbb 283f 04da 283f 7a12 8f3d cabd 3f3d
00000160: fbf3 fa3d 303f fa3c 225d 5d3f ce6f cc3c
00000170: 7ca1 293f b0ed d4bb 5486 d2bd 38fe f93e
00000180: 4684 3b3f 1dc8 4a3d 72c7 153f ccd1 1b3c
00000190: 74c9 c13d df21 e53d 3cb6 4d3f 45e7 363e
000001a0: 9c03 553d c0ce d33d 8ce1 fa3e 3c6e b73e
000001b0: e278 aa3e c0a5 003f 72ee f53d 7057 1e3d
000001c0: 2d6d 5e3d 16e2 803c 76a8 89bd b769 febd
000001d0: e573 283d 03fe ec3d 65bc b83c 3455 153f
000001e0: 2c50 323f d676 423e 0c9f a43c 2f18 453f
000001f0: 2bb4 8e3e c3a3 413f 25ce c73b bdbd e93d
00000200: d68d 903e cd1d d53c 9577 263e ed62 b63e
00000210: c0b8 7d3e a4b2 113d 3afd c43d c702 293e
00000220: 64d2 233e e7c8 803e dc1e 973e 6474 e53d
00000230: b28f 903d 5579 1f3e 7632 363e 2861 273e
00000240: b87e 343e b73d 1b3e 5efe d33d 16dd 1e3e
00000250: 1440 1a3e c8cb 323d 620a 673e 12f7 313e
00000260: e47c 103b 29a8 c13d ff89 583e 5d82 803e
00000270: 6608 3f3e 5ff6 763e 9787 7f3e 9b5e f43d
00000280: 97f9 5f3d 9f74 d63a febd 06bd 15ca 0c3e
00000290: cc28 073e a384 253e 9ef3 333e 3d97 a73d
000002a0: 8669 2f3e cc8c 263e 85cd 003e d3e2 1f3f
000002b0: 4ef0 a83d bafb 0a3e 1a8d 183e cd1f 983e
000002c0: 0e55 f03d e39c 323e 8e3a 703e 111b 303e
000002d0: 49fe de3d 4ee1 133e 3c07 1a3e fe61 293e
000002e0: fcf9 f03d a4ad 053d 4c90 5a3e 51a6 083e
000002f0: d064 6f3e 6997 353e 49ce b33d d67c a7bc
00000300: d0a9 5d3e 5310 553e bcf4 723c 2ac0 fc3d
00000310: bd4b 143e c470 bd3d ece3 bb3d 5a2d 593e
00000320: 9a5a 293e 930f 0c3e 797f 183e 5de1 2e3f
00000330: 06ff 243e cf2b 713d 9b58 463e 2a81 5f3e
00000340: 41ac a53e c577 343d 4fce fd3d 920b 423e
00000350: 4a03 093e 99d6 763d f629 e9bb 9221 b83d
00000360: cfc3 0b3e 8da6 353e ffb3 c33e 7684 493e
00000370: 9aa1 153e b724 fd3d a3fe 2a3d af96 253e
00000380: bcbb de3d 641f 073e 7f92 2b3d 1ba3 be3d
00000390: b5b3 6f3e 6509 2d3d b8ae 603e ace9 263e
000003a0: 3a28 c43d b7bd fa3d 5db6 5e3e e178 593d
000003b0: 6c7c 5b3e 27b3 5a3e 42bd 8c3e e6a7 c23d
000003c0: 2578 ce3d dd68 193e 1d7f 5b3f a42b 5f3e
000003d0: aa34 1c3e 42ae 793d 0015 853d 5d6a 663e
000003e0: b037 113e 88ab 0d3e fee4 f03d 576a 333e
000003f0: 66cc 103e abd8 503d 13c3 553d 1c1a 123e
0.2543118 0.6890875 -0.086417 0.8048995 0.15330598 0.06359795 0.011575459 -0.10133267
0.06506844 -0.12559724 0.58739305 0.004285837 0.4186741 0.08473091 0.13562137 0.08246866
0.73680246 0.077054195 0.3391984 0.117623076 0.137781 0.18112001 1.0134195 0.027969642
0.032760102 0.048411798 -0.12384906 0.9368803 0.053702384 0.08272595 -0.12647115 0.52342933
0.04022641 0.10464721 -0.0052986243 -0.084802434 0.018004697 0.23819461 0.05001321 0.56384265
0.11939125 0.5053193 0.6551819 1.4470074 0.08626112 0.6585381 0.34754103 1.1705658
0.703532 0.15295994 -0.13013512 0.579911 0.5812972 0.6281241 0.20802984 0.10863327
0.52184457 -0.029572839 0.5931377 -0.024029065 0.13778329 0.8907661 0.1146831 0.019976307
-0.11372665 0.7029905 -0.02503402 0.5213298 0.0073012076 -0.007781264 0.19605862 0.21044943
0.40212405 0.09234489 0.0945073 -0.039559666 0.72861755 0.52735585 0.6423171 0.2935485
0.02430087 0.5115919 0.03457697 0.039394144 0.659108 0.65957665 0.06985946 0.046811856
0.12253567 0.030547708 0.86470234 0.024955656 0.6626203 -0.006498061 -0.10279527 0.48826766
0.7324871 0.04950725 0.58507454 0.009510469 0.09462252 0.11188101 0.8035619 0.1786166
0.052005395 0.10342169 0.49000204 0.3582629 0.3329535 0.50252914 0.120083705 0.038657606
0.054303337 0.015732806 -0.067215845 -0.12422507 0.04112615 0.115718864 0.022550771 0.58333135
0.6965358 0.18990645 0.02009537 0.76990026 0.27871832 0.75640506 0.0060975724 0.11413143
0.28233212 0.026015187 0.16256554 0.3562235 0.24777508 0.035570756 0.09618612 0.16504966
0.15998226 0.25153276 0.2951573 0.112038404 0.07058658 0.15573628 0.17792687 0.16345656
0.17626464 0.15160261 0.10351251 0.15514025 0.15063506 0.043651372 0.22562554 0.17379406
0.0022047097 0.09455902 0.21146391 0.2509946 0.18655547 0.2411742 0.24954067 0.11932107
0.054681387 0.001636166 -0.032896034 0.13748963 0.13199157 0.16163878 0.17573401 0.08183143
0.17130098 0.16264647 0.125784 0.6245548 0.082489595 0.13572589 0.14897576 0.29711762
0.11734973 0.1744266 0.23459837 0.17197825 0.10888345 0.14441416 0.15041822 0.16541287
0.11766431 0.0326363 0.21344107 0.13344695 0.233783 0.1773354 0.0877958 -0.020445269
0.2164681 0.20807008 0.014828857 0.1234134 0.14482017 0.09250024 0.09174332 0.21208706
0.16538468 0.13677816 0.14892377 0.6831263 0.16112909 0.05887967 0.19369738 0.21826616
0.32357982 0.044059534 0.12392866 0.18949726 0.13380161 0.06026325 -0.007115598 0.08990778
0.13648914 0.17739315 0.38223264 0.19679436 0.14612427 0.123605184 0.041746747 0.16170762
0.10875651 0.13195568 0.041887756 0.09308454 0.23408397 0.042245287 0.2194165 0.16300076
0.09577985 0.122432165 0.21749254 0.053093795 0.21434182 0.21357404 0.27488142 0.0950468
0.100815095 0.14981408 0.85740834 0.21793991 0.15254465 0.0609572 0.06498146 0.22501512
0.141814 0.13834965 0.11762427 0.17521034 0.14140472 0.05098788 0.05218799 0.14267772

weight_u f4 [128]
00000000: 8b83 70bd f86e 24bd d9a9 0fbc 3cc8 cbbb
00000010: f29d 63bd 1803 863c d69e 1cb9 8552 3ebd
00000020: e32c 04bd 5ba1 7c3c d83e b5bb 18b3 2dbd
00000030: b481 09bb bb3a 82bd fe4f 8c3c e712 79bd
00000040: 13c1 9fbd 06ed 56bd ca82 35bd 641b 8c3c
00000050: ec57 76bc bc38 95ba 0c9b c8bb 80e5 923c
00000060: 4454 8d3a b2e4 50bd 6014 a4bd 83d1 a6bb
00000070: 8000 7a3c 54da 60bd 74a8 94bb 0203 02b9
00000080: 3cc5 80bc abbb 7c3c cbc2 11be 665c a6bc
00000090: cf46 d9bc 2ab7 9fbb dada 0bbe 8e63 853c
000000a0: 05a4 82bd e5b5 a6bb 90d1 a8bb 56fe 88bd
000000b0: f219 72bd 8c7b d0b9 5362 25bb 3639 2abd
000000c0: c5eb 2dbc 21c6 9ebd c1c6 9abc 33fa bbbb
000000d0: a230 4ebd d180 2abb ef83 57bd 410a 3639
000000e0: 4b9b d4bc 93eb 563c ba58 16bd 0a56 20bd
000000f0: 794f a4bd 415a 843c acf3 61bd e2e1 41bd
00000100: 3c2a 6ebb 9ff1 813c 6bc1 11bc 839f 50bd
00000110: 0cf1 86bd d8fa 07bd b3f2 e53e b618 8bbc
00000120: 64aa 68bc 7b78 55b9 738d 8439 01d3 14bc
00000130: 7933 8139 75fa 07bd 3c87 babb e33b e53e
00000140: 33c6 dfbb 284c d7bb 890a d9bc 12ab 1bbd
00000150: 8adb 8d3c 6f4d f23e f259 7f3c 61b5 9dbd
00000160: 2f07 5dbd 0cef 55bd 82b2 1938 0c0c 1fbd
00000170: c72e 733c d9f0 d2ba a1a3 d5bd 0118 b5bd
00000180: 4a2d a1bd c8ff 41bb d2c5 5ebc f6d4 c2bd
00000190: 2cb2 893c 2d20 dabc 71cf 83bc 2455 8b3c
000001a0: 72bc 92bd c713 18bd e880 8f3c dc8e abbd
000001b0: 0f3a 49bd fc71 883c e7c2 2abd a00f 2dbd
000001c0: b77e 43bd 3809 903e d5ec 8bbc 0d84 0abe
000001d0: 13bc 69bd b509 cfbc 0cd3 733c 1a91 02be
000001e0: 8066 e5bd a600 15bd fb7d 133a 0d47 b3bb
000001f0: bc38 803a ea26 88bd 29fd 17bd 9c56 1ebe
-0.0587192 -0.04014489 -0.008768522 -0.006218938 -0.05557055 0.016358897 -0.0001493649 -0.046465416
-0.03226937 0.0154193295 -0.005531173 -0.042407125 -0.002098185 -0.06358858 0.017127987 -0.060809042
-0.07800498 -0.052472137 -0.044314183 0.017102905 -0.015035611 -0.0011384706 -0.0061219987 0.0179317
0.0010782559 -0.05099935 -0.08011699 -0.0050908937 0.015258908 -0.054895714 -0.0045366827 -0.00012398887
-0.015719049 0.015425603 -0.14234464 -0.02030773 -0.026523022 -0.00487413 -0.13657704 0.016282823
-0.063789405 -0.0050876015 -0.005151935 -0.06689136 -0.059106775 -0.000397649 -0.0025235608 -0.041558467
-0.010615294 -0.07752634 -0.018893601 -0.005736613 -0.05033935 -0.0026016722 -0.052616056 0.00017360692
-0.025952956 0.013117689 -0.03670571 -0.039144553 -0.08022971 0.016156318 -0.055164024 -0.04733456
-0.0036341092 0.015862284 -0.008896212 -0.050933372 -0.06588945 -0.033198208 0.44911727 -0.016979557
-0.014200781 -0.00020358145 0.0002528239 -0.00908351 0.00024643147 -0.03319784 -0.0056923907 0.44772252
-0.006829047 -0.006570358 -0.026494281 -0.038004942 0.017316598 0.47324702 0.0155854095 -0.07700611
-0.05396193 -0.052229926 3.664429e-05 -0.03882985 0.014842696 -0.0016093507 -0.104316 -0.08842469
-0.07869966 -0.002960192 -0.013596969 -0.09513275 0.016808592 -0.02662667 -0.016090127 0.017008372
-0.07164849 -0.037128236 0.017517522 -0.08376858 -0.049127635 0.016655914 -0.04168978 -0.04225123
-0.047728267 0.28132033 -0.017080704 -0.13526936 -0.057064127 -0.025273183 0.01488186 -0.12750664
-0.11201191 -0.03637757 0.00056263775 -0.0054711164 0.0009782533 -0.06648047 -0.037106667 -0.15462726

weight_v f4 [128]
00000000: 5570 19bd 7d2e 21bd 0c42 01bb 6cc9 55bd
00000010: fe89 cebc 9493 6fbc 39b2 4bbe 0c3f 51bb
00000020: 3feb a2bc d961 c1bb 7001 32bd 0c93 48be
00000030: 35d7 03bd 6d14 e2bc 77eb dbbc 25d6 7fbc
00000040: b257 66bd c9ef 8fbc c43f 16bd 9265 b6bc
00000050: 17d8 b5bc d89c 51bc c11c 82bd 1609 2dbe
00000060: 3e74 4bbe 17e5 4bbe 5888 98bb a46e 63bd
00000070: 3b4b 4bbe 36bb 8fbc 34e5 96bb a555 19bd
00000080: 3e82 47be f45a 81bc 7a9a 47be 643b 5abb
00000090: 128b 48be 8741 f5bc 4a19 4cbe f059 04bd
000000a0: 0bc6 dbbc 6fe4 1dbd 855c 20bd b52e 13be
000000b0: 7b62 8fbc e414 1abd cd03 00bd db44 9fbd
000000c0: 3dea 1bbd 701d 03bd df7e a7bb 657e 09bd
000000d0: f03a 1bbd b51d 3cbd f3ef b0bc 4e18 87bc
000000e0: 6e6f f2bc 5913 41be 69a4 3ebd 9c2f 21be
000000f0: e763 b3bc d8c1 51bd 8355 dfbc 649c 30be
00000100: 4755 77bb 399f 49bd b5e3 87bc 3991 0ebd
00000110: 6719 51be 0c48 41be b14d 8dbc d5ca d5bc
00000120: 615b 00bd 0715 8bbc e554 b6bc 75d0 43bd
00000130: 8dd7 34bd 7a11 18bd 097d 63bd a034 d4bc
00000140: 678c 55be 1e38 09bd b3c4 95bc 940a 34be
00000150: 0605 3bbd 41fb 3abd 1088 18bc f777 a2bb
00000160: bcd9 c7bc ec24 71bc a712 8bbd 5f57 4bbe
00000170: a048 44bd ed12 91bc 8afa 573a 3b73 07bd
00000180: 72d5 51bd d8d1 11bc 727e c2bc 6415 43be
00000190: 6d96 b1bc 4388 95bc 184f 46bd a3af c6bc
000001a0: fc8d 26be cc37 c5bc 5ef2 35bd 5281 debc
000001b0: dea5 05bd ead2 2abd fb7a d9bc b075 47be
000001c0: d180 82bc 5439 4cbe c3c0 5dbd 035f afbb
000001d0: ed07 8ebc f45d 35bc a011 96bb 6dad 1ebd
000001e0: 1869 30bd 45fb 80bc d7f1 2bbe 859d 48bd
000001f0: df64 09bd 06f9 3ebd 2c12 43be 8b39 b4bc
-0.037460644 -0.039350975 -0.0019723205 -0.052194044 -0.025212284 -0.014622588 -0.19892205 -0.0031928448
-0.019887565 -0.005901557 -0.043458402 -0.19587344 -0.03218766 -0.02759763 -0.026845677 -0.015615021
-0.056235977 -0.017570393 -0.036681905 -0.02226523 -0.022197766 -0.012793742 -0.063531406 -0.16897997
-0.19868562 -0.1991161 -0.0046549253 -0.055525437 -0.19852917 -0.017545324 -0.00460496 -0.037435193
-0.19483277 -0.01579044 -0.19492522 -0.003329956 -0.19584301 -0.029938472 -0.19931522 -0.032312334
-0.026827833 -0.03854793 -0.039150734 -0.14373286 -0.017503014 -0.03761758 -0.031253625 -0.07776805
-0.038065184 -0.032010496 -0.0051115598 -0.033567805 -0.037898004 -0.04592677 -0.021598792 -0.016491082
-0.02959415 -0.18855037 -0.046543512 -0.15740818 -0.021898223 -0.051210254 -0.027262455 -0.17247158
-0.0037740038 -0.049224112 -0.016588071 -0.034806464 -0.20419846 -0.1887514 -0.01724896 -0.026097694
-0.031337146 -0.0169778 -0.022257278 -0.047806222 -0.044150878 -0.037126042 -0.055539165 -0.025904
-0.2085434 -0.033500783 -0.01828227 -0.1758216 -0.045659088 -0.04564977 -0.009309784 -0.0049581486
-0.024395816 -0.0147182755 -0.06790667 -0.19857548 -0.047920823 -0.01770922 0.00082389324 -0.033068877
-0.051228948 -0.008900128 -0.023741934 -0.19051129 -0.021678174 -0.018253451 -0.048415273 -0.024253672
-0.162651 -0.024074458 -0.044420592 -0.027161274 -0.032628886 -0.04170505 -0.0265479 -0.19478488
-0.015930565 -0.19943744 -0.05413891 -0.0053519025 -0.017337764 -0.011069763 -0.004579738 -0.03873961
-0.043068975 -0.015744815 -0.16791473 -0.048978347 -0.033543464 -0.046624206 -0.19049901 -0.022000095

weight f4 [128, 128]
00000000: cfd9 0f3c eae3 c23c b586 43bb 09a5 e33c
00000010: 2c6f ad3b 64e5 0f3b 2c86 d139 3646 65bb
00000020: 2239 133b 6716 8ebb f120 a63c 4827 1b39
00000030: 6ad2 6c3c 16b6 3f3b 816d 993b bd97 3a3b
00000040: 9d62 d03c 8f57 2e3b e0dd 3f3c fe10 853b
00000050: f5de 9b3b 6fe6 cc3b 3d4f 0f3d a222 7d3a
00000060: ce3e 943a 7312 db3a 1c1c 8cbb 697c 043d
00000070: 4f03 f33a c52c 3b3b 7f13 8fbb c909 943c
00000080: 1f08 b63a 11c6 6c3b 5bd1 3fb9 84df 3fbb
00000090: eff2 223a f2bb 063c 9951 e23a d377 9f3c
000000a0: 1311 873b 91ea 8e3c 0c4d b93c be9f 4c3d
000000b0: 6c2c 433b 0c40 ba3c f095 443c 2a88 253d
000000c0: bcf9 c63c f40a ad3b a038 93bb 3803 a43c
000000d0: 9667 a43c fda5 b13c d457 eb3b e2ca 753b
000000e0: 0b97 933c 89d2 85ba dfc0 a73c be78 59ba
000000f0: 9fdf 9b3b 05ee fb3c 8bbd 813b f1ca 343a
00000100: 8ba8 80bb 87d2 c63c 1d91 62ba c671 933c
00000110: 3728 8439 b1d8 8cb9 d3cc dd3b 9214 ee3b
00000120: de75 633c 47f0 503b ccd4 553b bc03 b3ba
00000130: 0012 ce3c 1426 953c 9aa9 b53c 820b 263c
00000140: 7cee 5b3a b9b0 903c 8d77 9c3a fc43 b23a
00000150: 4f69 ba3c 3e8b ba3c 3410 1e3b 01d5 d33a
00000160: bc9f 8a3b de3b 8a3a ee8e f43c 8edb 613a
00000170: 9c67 bb3c 383d 6bb9 6295 68bb fb17 8a3c
00000180: 2a2a cf3c 7807 e03a 1379 a53c 7425 ac39
00000190: 8917 563b 0c24 7d3b 3044 e33c 6b11 ca3b
000001a0: 7055 eb3a 3700 6a3b 8e95 8a3c 86a6 4a3c
000001b0: 9455 3c3c 8d20 8e3c 9ed9 873b bfee ae3a
000001c0: 7abb f53a 3663 0e3a f614 18bb 0289 8cbb
000001d0: 6c1a ba3a 83e9 823b b217 4c3a ddfa a43c
000001e0: 31ff c43c 16d7 d63b cdde 353a fdbe d93c
000001f0: 03a8 1d3c e5ed d53c a9bd 5c39 c51d 813b
00000200: 50b3 1f3c 5f72 6b3a d9e8 b73b 357f 493c
00000210: 4127 0c3c ccf6 a03a 35a1 593b 46b8 ba3b
00000220: b3fc b43b 6347 0e3c 79f4 263c 377f 7d3b
00000230: 5eb5 1f3b 042f b03b aa49 c93b e5ea b83b
00000240: 4368 c73b db81 ab3b d234 6a3b 6682 af3b
00000250: a569 aa3b c187 c53a bf3f ff3b c19c c43b
00000260: 97a0 9f38 c1f2 553b 603a ef3b 75f9 0d3c
00000270: 9b0c d33b 696b 083c ec26 0d3c c0fc 863b
00000280: 6e71 f73a 1ded 6c38 47dc 94ba 938a 9b3b
00000290: 4652 953b 72dc b63b 96ce c63b a526 393b
000002a0: bbca c13b 4900 b83b 7d4c 8e3b 8fa3 b03c
000002b0: dea3 3a3b c68b 993b 1789 a83b 5610 283c
000002c0: d4c1 843b f253 c53b 31b3 043c e08e c23b
000002d0: cb5b 763b ff5f a33b d82a aa3b 7721 bb3b
000002e0: ef1c 853b 63af 933a fc76 f13b c4f7 963b
000002f0: 1f3d 043c 5e9e c83b 58a5 463b 7a09 39ba
00000300: a5e3 f43b 7c63 eb3b db34 063a f09d 8b3b
00000310: 95d5 a33b 434a 513b d693 4f3b d9ee ef3b
00000320: 4d19 bb3b 86bc 9a3b 087a a83b 4d34 c13c
00000330: d548 b63b 7538 053b fc20 db3b 62ec f63b
00000340: 3708 373c 9660 c73a 2933 8c3b 9560 d63b
00000350: 7b5e 973b db59 083b 24cc 80b9 a66c 4b3b
00000360: d268 9a3b 18af c83b 7b35 583c e8a1 de3b
00000370: 444f a53b 7bd5 8b3b 59e9 bc3a 62f0 b63b
00000380: 4512 763b e147 953b b38c bd3a b39c 523b
00000390: b468 043c e12a bf3a 8939 f83b e466 b83b
000003a0: e3b5 583b c381 8a3b 550c f63b 4a42 f03a
000003b0: da7b f23b 7e9d f13b 687c 1b3c 4a0d 573b
000003c0: 6b1a 643b e17b a93b d37e f23c e68d f63b
000003d0: ae92 ac3b cfeb 093b c106 133b f68e fe3b
000003e0: f66e a03b a683 9c3b 5611 853b ed36 c63b
000003f0: 6ef8 9f3b b4ba e63a f728 ec3a 1b69 a13b
0.008779957 0.023790319 -0.002983493 0.027788656 0.0052927937 0.0021956796 0.00039963552 -0.0034984476
0.0022464474 -0.0043361667 0.02027938 0.00014796585 0.0144544635 0.0029252819 0.0046822433 0.002847179
0.025437647 0.0026602482 0.011710614 0.0040608635 0.004756803 0.0062530558 0.034987677 0.0009656345
0.0011310221 0.0016713872 -0.004275812 0.03234521 0.0018540415 0.002856062 -0.004366338 0.018071072
0.0013887918 0.00361288 -0.0001829317 -0.0029277513 0.00062160095 0.008223521 0.001726675 0.019466316
0.0041219085 0.017445834 0.022619747 0.04995703 0.0029781116 0.022735618 0.0119986385 0.04041306
0.024289005 0.0052808467 -0.004492834 0.020021066 0.020068925 0.021685595 0.007182101 0.003750496
0.018016359 -0.0010209839 0.02047771 -0.0008295885 0.0047568823 0.030753145 0.003959363 0.00068966957
-0.003926342 0.02427031 -0.00086428394 0.017998587 0.00025206964 -0.00026864329 0.0067688017 0.0072656358
0.013883082 0.0031881498 0.0032628058 -0.0013657729 0.025155067 0.018206634 0.022175599 0.01013458
0.0008389724 0.017662393 0.0011937484 0.0013600583 0.022755293 0.022771474 0.0024118545 0.0016161503
0.0042304676 0.0010546406 0.02985331 0.0008615785 0.022876553 -0.00022434152 -0.003548943 0.016857138
0.02528866 0.001709207 0.020199334 0.000328343 0.0032667837 0.0038626222 0.027742475 0.006166627
0.001795454 0.0035705694 0.016917016 0.012368804 0.011495013 0.017349506 0.004145815 0.0013346298
0.0018747889 0.00054316537 -0.0023205853 -0.0042887935 0.0014198548 0.003995122 0.00077855133 0.020139152
0.024047466 0.006556402 0.0006937802 0.026580328 0.009622577 0.026114414 0.00021051489 0.0039403164
0.009747341 0.0008981581 0.0056124744 0.012298395 0.008554281 0.0012280582 0.003320766 0.0056982366
0.005523288 0.008684012 0.010190123 0.0038680562 0.0024369578 0.0053766984 0.0061428146 0.005643236
0.006085427 0.005233986 0.003573705 0.005356121 0.005200582 0.0015070365 0.0077895815 0.006000132
7.611623e-05 0.0032645913 0.00730066 0.008665432 0.0064407117 0.00832639 0.008615237 0.0041194856
0.0018878409 5.6487614e-05 -0.0011357152 0.004746744 0.004556927 0.0055804783 0.0060671074 0.0028251794
0.00591406 0.0056152684 0.004342614 0.021562366 0.002847902 0.0046858517 0.0051432955 0.010257801
0.0040514264 0.00602197 0.008099363 0.005937442 0.0037591334 0.004985809 0.0051930957 0.0057107764
0.004062287 0.0011267479 0.0073689204 0.0046071727 0.008071213 0.0061223945 0.0030310955 -0.0007058602
0.0074734264 0.0071834903 0.00051195704 0.004260771 0.004999826 0.0031935133 0.003167381 0.007322174
0.005709803 0.004722181 0.0051415004 0.02358451 0.0055628815 0.002032784 0.0066872817 0.0075355032
0.011171392 0.001521128 0.0042785597 0.006542275 0.0046194172 0.002080551 -0.0002456616 0.0031040101
0.0047122026 0.0061243884 0.0131963445 0.006794203 0.0050448496 0.004267392 0.0014412805 0.005582855
0.003754751 0.004555688 0.0014461487 0.0032136857 0.008081604 0.0014584922 0.007575218 0.0056275
0.0033067397 0.0042268946 0.0075087943 0.0018330303 0.007400018 0.007373511 0.00949011 0.0032814317
0.0034805785 0.005172238 0.02960149 0.00752424 0.005266509 0.0021045094 0.0022434446 0.007768507
0.00489604 0.004776436 0.0040609045 0.006049028 0.00488191 0.0017603249 0.001801758 0.0049258596

bias f4 [128]
00000000: 77de b8bd 21ca ab3d 6993 e43e 5333 49be
00000010: 79df 50be 66a2 103d fb75 76be 0ae4 483d
00000020: de22 5b3d 5157 6cbe 4bde 163e 145e d63d
00000030: c4dd 133e d6e4 81bc 2837 6ebe 0c17 81be
00000040: 7762 403e dfa4 883e 9b1b 2e3e 32ff 03bd
00000050: f0bf d73c c6a3 893e 6bf6 eb3d fb19 87be
00000060: fb96 fd3d 8402 d83d ac11 193e 5499 703e
00000070: 613f 4cbe 3ffe 8d3e 82e4 6b3e a5a9 283e
00000080: 0b49 7fbe 5127 393e 9086 013e 75f0 0f3e
00000090: 35ec a43d 31d8 3bbe 47fb 18bd 46b1 1f3e
000000a0: 0987 943e 7e77 b63d c0fb f93d d990 92be
000000b0: 7bc0 7a3e 9f0d 4d3e 2df3 523e 94bd 993d
000000c0: fa69 fc3c 32c6 53be a381 36bc 7a30 b83d
000000d0: 0427 98be b311 e73e d19d 0b3e 601e 163e
000000e0: b08a 563e de46 103e cd3c 283e bb9e 753d
000000f0: 7fd2 783e d2c8 bc3d fb65 70be f7fc 893d
00000100: bb24 8b3e 2006 55bd 486f 68be 8754 5bbe
00000110: 9a9a 78be 9cfb 8fbd 10d6 d13d eaa3 3abe
00000120: 61c4 19bf 26cd 413e 0577 443e 3c3a 8a3e
00000130: 572e 62be 5508 50be 74ce 673d c428 8e3e
00000140: 6293 2a3e caa2 073e 95c9 46be b5c7 a23c
00000150: 2a1e 3d3d 1ed6 023e decd 2bbc dba7 a23e
00000160: 9561 003e bcc8 9e3d 4cda 4ebe 995a 883d
00000170: 8e9c 173e 088b 29bf 46b1 e43d 842d 4ebe
00000180: 8282 103e 31d3 473d 02c3 123e 0b97 193f
00000190: 4895 b13e 5372 493e b13b 1a3e d6a6 f83d
000001a0: 07e5 203e 5d04 b43d bc04 69be e45c 233f
000001b0: 9671 8ebf 4a70 ec3e 4ec7 17be 4624 203d
000001c0: ce6c 413e b99e 123e 645b 683e 90fb 5f3e
000001d0: b29e 623e 7462 a13d 1d3e 4d3d 9c13 2e3e
000001e0: 9266 9ebe 419d 3c3e fbf4 303e 8079 7ebe
000001f0: d521 0e3e c71a 7ebe 2719 9b3e 58b1 9b3d
-0.09026807 0.083881624 0.44643715 -0.19648485 -0.20397748 0.035311125 -0.24068443 0.0490456
0.05350005 -0.23080184 0.14733236 0.10467163 0.14440066 -0.015856188 -0.23263228 -0.25212896
0.18787561 0.26688287 0.17002718 -0.032225795 0.02633664 0.26882762 0.1152161 -0.2638701
0.12382313 0.10547355 0.14948148 0.2349599 -0.19946052 0.27733037 0.23036388 0.16470964
-0.24930207 0.18081404 0.12648988 0.14056571 0.080528654 -0.18344189 -0.03734901 0.15594968
0.29009274 0.0890951 0.122062206 -0.28626135 0.24487488 0.20024727 0.20600577 0.07506862
0.030812252 -0.20681074 -0.011139306 0.08993621 -0.29717267 0.4513069 0.13634421 0.14660025
0.20951343 0.14089534 0.16429444 0.05996583 0.24299048 0.09217991 -0.23476402 0.06737702
0.2717646 -0.052007794 -0.226987 -0.21418963 -0.24277726 -0.070304126 0.10245907 -0.18226591
-0.60065275 0.18925914 0.19186027 0.26997554 -0.2208799 -0.20315678 0.056593373 0.27765477
0.16657785 0.13245693 -0.19412835 0.019870618 0.046171345 0.12776992 -0.010486094 0.3176869
0.12537225 0.07753131 -0.20200461 0.06657905 0.14805815 -0.6622777 0.11166625 -0.2013455
0.14112285 0.048785392 0.14332202 0.599961 0.34684205 0.19672517 0.15061833 0.121411964
0.15712367 0.08789895 -0.22755712 0.63813615 -1.1128414 0.4617942 -0.14822122 0.039097093
0.18889162 0.1431836 0.22691113 0.21873307 0.2213085 0.078801066 0.050108064 0.16999668
-0.3093763 0.18419363 0.17280953 -0.24851036 0.13880093 -0.24814902 0.30292627 0.07602185

weight_orig f4 [128, 128]
00000000: 526f 593e 204d 233e 77dc d43a e1fd b2bb
00000010: a0a5 fa3d 3fcb a03d 78b7 00b9 64db eb3c
00000020: 032f ad3d 7ce8 8d3d 5b34 edbb c77d ac3e
00000030: 7ca4 0cbd 5a9f 6f3e 87ed 193d 1a77 21bb
00000040: 5dc7 8a3e e52b c83e 0d5a 733e ab3e 763d
00000050: e09f c0bc 258a ceba 5b62 ffbc abe6 e43d
00000060: a755 0dbc a605 ab3e 1f35 883e 905c 72be
00000070: ca9a 8f3d 4fd3 e23d e3c6 79be a487 06bc
00000080: 6e3f 263d a117 123d 7ad6 c53e 13cc a33d
00000090: 0ad8 b63d 03a9 383c bb56 d83e 761d 393d
000000a0: 719a a93e 8af5 433c 7d77 1cbc c24f e13e
000000b0: 0e6c 1f3e 8cf3 06bd 60b0 f7ba 07d9 373e
000000c0: d7c9 193c 8fc8 913e 1da9 4e3d d291 113c
000000d0: c575 0d3e 0d24 2238 7ccb 223d 95dd 58bc
000000e0: 54d9 a33d a153 ad3d c198 5d3d b4fe 6b3e
000000f0: 19b1 853e c32c d73d 5b98 ad3e 48ab 5a3e
00000100: b31f 8f3c 3255 6c3d 8cc8 3d3c 75da 7d3e
00000110: 24ea 843e dbdc 083d a193 11be 8ad5 13bd
00000120: 84ad 583c a5d9 e6bd 1c33 82bb 0c7c 783c
00000130: 6a89 08ba 8525 99bc 9963 d8bb bb0b 98bd
00000140: e2ac 0c3d 12e2 113b e58c 7f3c 6fa6 c83d
00000150: edb6 cc3d 1109 c6bd 5b60 303d 14ae 833e
00000160: 0b90 583e 8d63 4d3e edc7 303b 5f00 9d3e
00000170: d717 833d 4f32 acbc a739 0d3e 18eb 913e
00000180: be00 c23d fc01 43bc 6fef 473d f6f1 4c3e
00000190: c52d 813d fc2b e33d 52ae dfb9 7f85 ae3d
000001a0: 411c 473e 9fe8 d9bc 8027 9d3d 7315 5e3e
000001b0: 343c 553e e2ba 9c3d ef9b 623e 1c85 0a3e
000001c0: 1c9a 803e 8ff7 51bf 238c 163c fe2f c73e
000001d0: 9004 a43e 860e 103d a06e 3e3d 24b6 993e
000001e0: 1ed4 723e ecdb 253d 226c 19bb 46d6 983b
000001f0: 1909 1dbd 9eb3 4d3e 11d1 4b3e 884b c33e
00000200: 5c13 6f3e 624e e43d 8067 863d df5a 1c3d
00000210: 5e62 eb3d 3d9e 253d 66dc acb9 5993 a73d
00000220: d5c3 1f3e df0b 383c daf0 0f3d 92bc 383e
00000230: 9597 3ab9 4263 e43d 11f9 a93c 1aad 4c3d
00000240: 75e4 233e 2733 7d3e ca6a 563e 13f5 77bc
00000250: d0e4 573d 86f4 b73b 822d 3d3d af2a 423d
00000260: d643 f83a 3b00 443e aeba 173e fb3a 19be
00000270: 6759 d43c 0fae 0b3e 1d0b bcbd f54f bf3b
00000280: fe2f 3c3d 2181 e53c ebb4 7f3e 1c19 893d
00000290: a5bb 163e f6d4 933d 5cb3 6f3e 28f9 a13a
000002a0: 038b 7d3e 8780 db3c 2a41 d13d 274c a43e
000002b0: 9cd7 bc3d 5e77 7fbc 3daf 9a3b b323 403e
000002c0: 4832 4d3d ebd4 973e dda2 893d bd98 043e
000002d0: 841c eb3d 20b7 db3c f336 8a3d 4ee4 08bb
000002e0: ca39 e43d a23c 073c 3ca3 093e 519f 2f3e
000002f0: 9632 233e 28e7 ec3c 3436 823e 4234 323e
00000300: bc68 bf3c 648d 213c e64b 883d 12bc 383e
00000310: df49 a33d 2334 a23d a084 1dbd f0a0 ba3d
00000320: 749f 003d edd7 89bc eaea 243b 984b 703d
00000330: 17c4 613b 5846 df3d dcd2 183d b372 2bbd
00000340: cf8d 2c3d 5a50 313d 5f59 843c d369 e43d
00000350: 4726 f13c 6f96 1ebd 61c6 bf3b 4d2a 823e
00000360: f092 573e 6c4b 6a3e 617d 993a 2284 303e
00000370: 95f9 2d3b 9e33 5c3c bb26 5a3e 7e2c 383e
00000380: 13ac 433e 8bfe ae3c bfab 443d 82a3 223e
00000390: 58ba 52bc 5ff7 173e 51da 733d f4d4 bc3c
000003a0: b9f1 913d b92d fc3d 1d61 653c 255a 2c3e
000003b0: 4bc4 613e 8040 093d 725a 3d3e 6226 8c3d
000003c0: da44 713e 58a8 7bbe e1e4 b33d f67b af3e
000003d0: f1b3 343e 904f a73c 1edf e9ba ec4b 803e
000003e0: 71e2 793e d13a 083e c9ff 5b3c 3394 e93c
000003f0: e932 afbc cb7c 2b3e 7411 173e c540 833e
0.21233872 0.1594739 0.001624002 -0.0054623936 0.12238622 0.07851266 -0.00012275379 0.028791137
0.084562324 0.069291085 -0.0072389073 0.3368971 -0.034336552 0.23400632 0.03758004 -0.002463764
0.27105227 0.3909599 0.2376482 0.06011836 -0.023513734 -0.0015757723 -0.03117483 0.11176809
-0.008626378 0.33402747 0.26603028 -0.23668122 0.070119455 0.1107546 -0.24392276 -0.00821105
0.040587835 0.035667066 0.38640195 0.079979084 0.08927925 0.011270764 0.4225367 0.04519411
0.33125642 0.011960397 -0.009549973 0.44006163 0.15568563 -0.03294711 -0.0018897168 0.17953883
0.009386501 0.28473327 0.050454248 0.008884864 0.13814457 3.8657385e-05 0.03974484 -0.013236423
0.080004364 0.084632166 0.054100756 0.2304638 0.26111677 0.105065845 0.339053 0.21354401
0.01747117 0.057698436 0.011583459 0.24790366 0.25959885 0.03341375 -0.14216472 -0.03609232
0.013224963 -0.11271981 -0.003973378 0.015166294 -0.00052084646 -0.018694649 -0.00660367 -0.074241124
0.03434456 0.0022259993 0.015597557 0.0979737 0.09995828 -0.09669698 0.04306064 0.2571875
0.21148698 0.20057507 0.0026974634 0.30664346 0.064010315 -0.021020083 0.13791524 0.28499675
0.09472798 -0.011902329 0.048812326 0.20014176 0.06307558 0.11092374 -0.00042663753 0.08521556
0.19444372 -0.02660018 0.0767355 0.2168787 0.20823747 0.076528326 0.22129796 0.1352734
0.25117576 -0.8201837 0.009188685 0.38903803 0.3203473 0.0351701 0.04649222 0.30021775
0.23713729 0.040492937 -0.00234104 0.0046642153 -0.038338754 0.2008805 0.19903971 0.38143563
0.23347229 0.11147763 0.0656271 0.0381726 0.114933714 0.04043411 -0.00032970606 0.08182401
0.15602048 0.011233299 0.035141803 0.18040684 -0.00017794811 0.111517444 0.020748647 0.04996977
0.16005118 0.24726544 0.20939174 -0.015134114 0.052708447 0.0056138663 0.046185978 0.047403987
0.0018941115 0.19140713 0.14817306 -0.14963906 0.025921537 0.13640617 -0.09181807 0.005838389
0.045944206 0.028015675 0.24971358 0.06694242 0.14720018 0.072183535 0.23408264 0.001235758
0.2476006 0.026794685 0.10217507 0.3208935 0.09220812 -0.015592424 0.004720597 0.18763618
0.05009678 0.2965463 0.06720517 0.1294889 0.11480048 0.02682072 0.06748762 -0.0020888033
0.11143835 0.008254202 0.13441175 0.17150618 0.15937266 0.028918818 0.2543198 0.17402747
0.02336537 0.00986037 0.066551015 0.18040493 0.07973074 0.079201005 -0.03845656 0.09112728
0.031402066 -0.016826594 0.0025164434 0.05866584 0.0034449154 0.10902089 0.037310466 -0.041857433
0.042127427 0.04328952 0.016155897 0.11152997 0.029437197 -0.038717683 0.005852506 0.25422898
0.21052146 0.22880334 0.001171034 0.17237905 0.0026546468 0.013440041 0.21303837 0.17985722
0.1910861 0.02136161 0.048015352 0.15882686 -0.012861811 0.14840458 0.059534375 0.023050763
0.07126183 0.123134084 0.014000204 0.16831262 0.22047536 0.033508778 0.18491533 0.068432584
0.23561421 -0.24575937 0.087838896 0.34274262 0.17646767 0.02042368 -0.0017842983 0.25057924
0.24402787 0.13303687 0.013427683 0.02851305 -0.02138658 0.16746823 0.14752752 0.25635353

weight_u f4 [128]
00000000: cb3f 8a3d c3bc 2d3d 4227 e73d 2120 b5bd
00000010: 08c7 a4bd 800b 94bc 8ea5 ddbd 0e69 5bbc
00000020: 6e42 3dbc 76b8 d7bd 1fea 91bc c1bb 3abd
00000030: 0a59 64bd 0856 f13d dc96 f5bd 61f1 dfbd
00000040: a387 93bd 5259 8d3d d807 92bd a36b f13d
00000050: 16cb 8b3d bf58 0e3e 591f 54bd 2fb6 c3bd
00000060: 5985 e73d af38 43bd 786e e73d 2794 b9bd
00000070: 721d b7bd f788 103e 7a72 be3d 57e2 043e
00000080: c00a e0bd 5b98 a43d 96de 5ebd 98bd 043e
00000090: 886d 2dbd b2d4 97bd e2c6 9d3d 5a27 91bd
000000a0: eabb c83d 9d66 02bd f12e a83c 1978 fcbd
000000b0: 3976 db3d 9a4e f83d 9b28 97bd bdea cdbc
000000c0: ffb6 77bc 845f bdbd da35 af3d ee1c ac3d
000000d0: e150 13be a7ec 1a3e b3af ed3d 1429 ba3d
000000e0: e7ea 8ebd c35f b93d 0f30 83bd 9dba a5bb
000000f0: d17f b1bd ff6f 04bd 4394 dcbd fb86 8c3d
00000100: 976f 043e 94ca c73d 8f77 ecbd 9957 9cbd
00000110: d8e7 d1bd e653 203d 7060 18bd d8ad a2bd
00000120: eec2 29bc 3749 6fbd 6c2e e53d c3ff bbbd
00000130: cabb c0bd 0fba a8bd 39eb 803d a352 cdbd
00000140: b38b 81bd f91e 5ebd c076 a0bd c3e1 31bb
00000150: ef4a 973d 8250 6abd 3af3 e03d 6c26 fa3d
00000160: 47b7 cf3d 4238 623c 0839 a2bd 0bbd 3f3d
00000170: 775e 923d 1f65 40bd fc3c e13d e21a ccbd
00000180: 7893 53bd b20a 673d eaf6 6cbd 6d54 173e
00000190: 4b40 253e a1b0 8abd ef39 613d 2d52 76bd
000001a0: 1009 ef3d 0adf 27bd 5049 a3bd 04ae 1e3e
000001b0: 516f 9bbc 2633 0e3e 733c bc3d 4fb9 e53d
000001c0: f4d2 a2bd 6d7e ee3d f4ca b2bd f992 a4bd
000001d0: 21bc afbd a5c3 91bc d2b7 3fbc e28c 83bd
000001e0: cc18 07be dfc0 c13d 78a7 e93d 890b dcbd
000001f0: aaff 4cbd 3a28 edbd b085 e63d 4dc4 18bd
0.06750449 0.042416345 0.11286785 -0.08844019 -0.08045775 -0.01807189 -0.10822593 -0.013391746
-0.011551483 -0.1053323 -0.017811833 -0.045589212 -0.055748977 0.11783987 -0.11991665 -0.10934711
-0.07203605 0.06901802 -0.07130402 0.11788108 0.06825845 0.13901041 -0.051787708 -0.09556233
0.11304731 -0.04766148 0.11300367 -0.09061461 -0.08941163 0.14114748 0.092991784 0.12976967
-0.109395504 0.08036872 -0.054411493 0.1296295 -0.042340785 -0.07413615 0.077039495 -0.07087584
0.09801467 -0.03183614 0.020530196 -0.12327594 0.107159086 0.12124367 -0.07380792 -0.025136346
-0.015119313 -0.09246734 0.08555193 0.084039554 -0.14386322 0.15129338 0.116057776 0.09089866
-0.06978398 0.09051468 -0.06405651 -0.0050576464 -0.08666957 -0.03233337 -0.10770466 0.06861683
0.12933193 0.097554356 -0.115462415 -0.076338954 -0.10249299 0.03914251 -0.037201345 -0.07943314
-0.010361416 -0.058419432 0.11190495 -0.09179642 -0.09410818 -0.08238613 0.06294865 -0.10025527
-0.06325474 -0.054228757 -0.0783515 -0.002714262 0.07387339 -0.057205684 0.10983892 0.1221436
0.10142379 0.013807358 -0.07921034 0.046811145 0.07146924 -0.046971437 0.1099796 -0.09966065
-0.05165431 0.056406684 -0.057852663 0.147783 0.16137807 -0.067719705 0.05498689 -0.060136963
0.116716504 -0.04098419 -0.079729676 0.15496069 -0.018973978 0.13886699 0.09191217 0.112169854
-0.07950392 0.116452076 -0.087301165 -0.08035845 -0.085808046 -0.017793486 -0.011701541 -0.06423356
-0.13193053 0.09460615 0.11408895 -0.10744388 -0.050048508 -0.11579938 0.112559676 -0.037296582

weight_v f4 [128]
00000000: e699 ad3d 75b0 163d 9ba6 283c 32fa f93b
00000010: 3d9d 5a3d 6b1d c83b 9094 33b9 620e 273d
00000020: 162d fd3c f871 d53b bae2 c23b 9334 7f3d
00000030: 10e6 8e39 237b 773d 92b0 6e3b 9639 773d
00000040: d766 9d3d fa90 b63d 6d3b 853d d28e 653b
00000050: f975 7d3c 8a3c 8aba bf8e e23b 4809 103c
00000060: 7cf3 07bb 44c0 9f3d 1da7 9b3d c208 a7bd
00000070: 19fb da3b 88fd 623d d1a9 a0bd 6994 f039
00000080: a81c 603c c44f f23b df07 083e d4b9 a43c
00000090: 3c39 1e3d dd7e e43b 6c32 073e 8a3f d13b
000000a0: d5c5 c93d 522a ec3b a456 c13b 5047 c83d
000000b0: d7e4 753d 29be a7bc 0c45 263b 96d5 8a3d
000000c0: ae40 573c 8e33 aa3d d98a ac3c 29e6 2f3c
000000d0: dc1b 4f3d 98f6 883b 3f5f 5d3d 1b3c e4b8
000000e0: 7f13 c83c 498d 253b c935 223d fbe4 5f3d
000000f0: 57c3 a83d 24be 023c 6f8a c63d e40d 853d
00000100: bac1 983b c6d5 c13b cb69 2b3c f132 4b3d
00000110: d7de 833d 9612 043d dbb5 a6be 5f79 8e3c
00000120: 8419 5c3c 52fd 03bd cfed 58b8 db5f 363c
00000130: e9fd 89b9 8ef5 0a3d ca89 053c 022e a6be
00000140: 96ec 1e3c 65f0 ae3b d9b8 c43c 1bc9 263d
00000150: 65bc 073c 6cbc afbe 8156 b63b 94ab 983d
00000160: 0023 6d3d f2b0 ad3d 6e93 4037 f65f 813d
00000170: 6ceb 9a3b 05e8 0f3b 34a9 d43d be76 ba3d
00000180: 0fc6 ab3d 0583 8a3b f2a5 5f3c 0700 c13d
00000190: c75e c93b f853 dd3c ff17 8a3c 0d62 0e3c
000001a0: 4db5 9a3d 4096 0f3d b1cc 0a3c bc73 a33d
000001b0: 26a1 a43d 1761 c23b 35a4 243d 8296 3a3d
000001c0: 75f7 923d a7fc 0dbf 7d83 b03c b107 0b3e
000001d0: e7dd a73d 90fa c33c 08c8 6e3b 0c62 013e
000001e0: 1c67 ea3d 7c80 0f3d 4db3 8f39 6839 d83b
000001f0: 427b 70bc c5a1 913d b9a6 623d 7585 1f3e
0.084766194 0.036789376 0.010293628 0.0076287026 0.05337261 0.0061070225 -0.00017126114 0.0407852
0.030905288 0.0065138303 0.005947438 0.062305998 0.0002725576 0.060420167 0.0036421162 0.060357653
0.07685631 0.08914371 0.06505475 0.0035027754 0.015470021 -0.0010546606 0.0069139893 0.008791275
-0.0020744493 0.07800344 0.07600234 -0.08155967 0.006682765 0.055417567 -0.0784489 0.0004588694
0.013678707 0.0073947627 0.13284253 0.020108141 0.0386288 0.006973131 0.13202828 0.0063857483
0.098521866 0.0072071934 0.005900221 0.09779227 0.06003269 -0.020476418 0.0025370745 0.067790195
0.013137979 0.083106145 0.021062301 0.010736027 0.05056368 0.004179787 0.054045912 -0.00010883083
0.024423359 0.0025261214 0.039602075 0.054661732 0.08240383 0.007979903 0.09694373 0.0649679
0.004661766 0.0059153764 0.010462235 0.04960913 0.06438988 0.032244287 -0.3256062 0.017391859
0.013433818 -0.032224007 -5.171989e-05 0.011131252 -0.00026319854 0.033925585 0.008150527 -0.32456976
0.009699961 0.005338716 0.024013923 0.040719133 0.008284663 -0.34323442 0.0055645113 0.07454601
0.057894707 0.08481015 1.1478418e-05 0.06317131 0.0047277715 0.0021958363 0.103838354 0.091046795
0.08387386 0.0042270445 0.013650404 0.09423833 0.0061453315 0.027017578 0.016857145 0.008690369
0.07554112 0.0350554 0.008471654 0.07981059 0.08038549 0.005931984 0.040195663 0.04555369
0.07176105 -0.5546364 0.021547073 0.13577153 0.081966214 0.023923188 0.0036435146 0.12635058
0.11445448 0.03503464 0.00027408675 0.0065986402 -0.014677824 0.07110933 0.05533478 0.15578254
