wgan_results/mgum/resnet/generator.pth (torch_old, 402021 bytes, 15 tensors)

model.0.weight f4 [128, 3]
000000 43 ee e4 3e ff 2a a0 3e 9e ab f3 be 90 c6 38 be
       0.4471303 0.31282803 -0.4759187 -0.18044496
000010 9e 98 e4 3d 05 90 95 3e 49 ec c3 be 42 d1 e1 3e
       0.11161922 0.2921144 -0.3826621 0.44104964
000020 09 43 d7 bd bd 7a 37 3e 07 7a ba 3e 41 e8 9a 3e
       -0.10510833 0.17917915 0.36421224 0.3025532
000030 58 64 05 bf 27 5b 26 bd a8 1f 0a bf e5 76 e9 3e
       -0.5210624 -0.040614273 -0.53954554 0.45598522
000040 5b d8 85 ba 63 bf d5 bd c7 38 0c 3f 01 cc 13 3f
       -0.0010211574 -0.10436895 0.54774135 0.5773316
000050 00 14 d2 3e 35 a5 c8 3d 61 08 07 3f 72 83 bf bc
       0.41030884 0.09797136 0.5274716 -0.023378108
000060 df af f7 bd 55 ef 4f 3e 43 7f 96 be 85 7d 18 3e
       -0.120940916 0.20306142 -0.29393968 0.14891632
000070 1d ea f8 be 39 8b e1 bd fc 6b 86 be 8a 8f 8b be
       -0.48616114 -0.11012883 -0.2625426 -0.2725795
000080 39 d0 fe be c8 b7 06 bf 59 85 f7 bd b1 8f 92 be
       -0.49768236 -0.5262418 -0.12085981 -0.28625253
000090 16 e9 02 bf 3f 60 fd 3d 81 89 3a 3d 08 41 16 bf
       -0.5113691 0.12371873 0.04554129 -0.5869298
0000a0 b8 58 68 3e 05 92 f7 be 90 65 20 bd f1 80 08 bf
       0.22690094 -0.48353592 -0.039159358 -0.5332175
0000b0 54 51 05 3c 09 1d 13 bf 36 c0 97 3e a8 ea af be
       0.008137066 -0.5746618 0.29638833 -0.34358716
0000c0 1b a5 02 3f a5 4c a6 3e d3 af 06 3f c4 7e f6 bc
       0.5103318 0.3248035 0.52612036 -0.030089743
0000d0 54 d8 8c be b9 97 82 bd c0 3a c2 3e f9 2c 4a be
       -0.27508795 -0.06376595 0.37935448 -0.19743718
0000e0 05 cb 87 3e b9 d1 c7 bb 40 e5 ac 3d 63 5f 53 3e
       0.2652208 -0.006097999 0.084421635 0.20641856
0000f0 f2 4c 98 be af e4 9d 3d c4 9e d5 3a cd 8e d8 3e
       -0.29746205 0.077096336 0.0016297926 0.42296448
000100 77 0f 44 bd 1e cc 06 3f 86 9c 8d bc ec 2b 19 bf
       -0.04786631 0.5265521 -0.01728655 -0.59832644
000110 74 ee 9c 3d 24 d8 65 3d d4 73 2b be 9d 99 56 be
       0.07662669 0.05611433 -0.16743404 -0.20957036
000120 b1 fa 7b 3e 91 8f cf bd d3 16 76 be 97 b4 5f be
       0.2460735 -0.10134805 -0.24032144 -0.21846233
000130 9b 23 a2 3e 20 cb 18 bc ea 39 97 3e f0 04 9d bc
       0.3166779 -0.0093257725 0.29536372 -0.019167393
000140 36 85 86 be 80 8a d5 3e e6 b7 dc be c4 bc fb be
       -0.26273507 0.4170723 -0.43109053 -0.49167454
000150 c5 8a 02 bf f5 3a 5a be 92 63 0e bf 1e 27 bf 3e
       -0.50992996 -0.21311553 -0.5562068 0.37334532
000160 b2 77 50 be ad 5d 03 bf bc 69 ff bd 83 40 a3 3e
       -0.2035816 -0.5131481 -0.12471339 0.31885156
000170 ae 68 99 3e 00 2d 16 3f 9f 69 18 3f 99 99 77 3e
       0.29962677 0.58662415 0.59536165 0.24179687
000180 72 5a 1e be b3 dd 53 be 7f e6 e2 be 29 85 6a 3d
       -0.1546419 -0.2069004 -0.4431648 0.057255898
000190 54 61 a6 be c7 1b 34 bd 6f 0c 08 3e 8d 0b ce be
       -0.3249613 -0.043971803 0.13285993 -0.40243188
0001a0 4a d5 85 be 52 13 88 be 04 f5 50 be 0f 00 7f be
       -0.2613929 -0.2657724 -0.20405966 -0.24902366
0001b0 c3 34 6d be 59 f3 c7 3e 87 08 71 3e 46 2d 2b be
       -0.23164658 0.39052847 0.23538409 -0.16716489
0001c0 29 f6 0c 3f 74 24 8c be 1e 0b ec be b5 9d d3 bd
       0.5506311 -0.27371562 -0.46102232 -0.103328146
0001d0 5a f6 1a 3f 42 14 95 3c 85 00 ed 3d eb 78 3f 3e
       0.6053215 0.018198136 0.11572365 0.1869847
0001e0 39 bd a0 be ed e3 c4 be da 5b d7 3e 0a ec 73 3d
       -0.31394365 -0.38455144 0.42062265 0.059551276
0001f0 7b 2b a4 be 5f cd 8d 3e e0 3f a7 3e f5 43 06 bf
       -0.32064423 0.27695748 0.3266592 -0.52447444
000200 97 b1 09 bf 66 7b 99 3e 2b 38 f9 3e 71 e2 00 3f
       -0.53786606 0.29976958 0.48675665 0.5034552
000210 fb 4e ee 3e 43 15 b3 3e 14 0e 45 be 92 1f e1 be
       0.46544632 0.3497716 -0.19243652 -0.439694
000220 24 27 15 3f c7 c3 e4 be 02 7f ac 3e 2e f2 0e 3e
       0.5826285 -0.44680616 0.3369065 0.13959572
000230 5d 59 53 be 91 18 c1 3d a5 98 1f 3f d1 ab a7 bd
       -0.20639558 0.09428514 0.6234229 -0.08187068
000240 de 62 a0 3e 3b 51 28 bd 37 7f e2 be b4 65 8c 3e
       0.3132543 -0.041093092 -0.44237682 0.27421343
000250 e2 ce de be 9a 9b 28 be 42 dd a6 bd 3c 96 1b 3f
       -0.43517214 -0.16465607 -0.0814767 0.60776114
000260 6e 24 31 3e cd e9 a4 3e d4 7e 82 be 64 a4 0a 3f
       0.17299053 0.32209626 -0.25487387 0.5415709
000270 61 27 8b 3e 05 ac 4c 3e 7b 20 ba be 24 18 85 3e
       0.2717848 0.19987495 -0.36352906 0.2599498
000280 51 76 06 3f 67 2e 0c bf 36 e3 48 3e fa 6f 75 3d
       0.52524287 -0.54758304 0.19617924 0.059921242
000290 58 94 9d be 92 cd ff be fe 37 73 3e f1 86 d1 bd
       -0.3077724 -0.49961525 0.23751828 -0.10230816
0002a0 9b 4c fa 3e 59 ee 76 be bb 8f b8 be 34 77 88 3e
       0.4888657 -0.2411436 -0.36047158 0.26653445
0002b0 13 72 e6 3e e9 7a 82 3e e6 ac b7 be be 00 42 3e
       0.45008907 0.25484398 -0.358741 0.18945596
0002c0 ff 58 be 3d 05 c5 dd 3e 90 07 0e 3f ac 24 88 bd
       0.092943184 0.43314376 0.5548029 -0.066476196
0002d0 b2 26 82 3c 56 2f f8 be 27 df 61 be 6f 18 f4 be
       0.015887592 -0.48473614 -0.22057782 -0.4767489
0002e0 1b 48 c6 3e 2b 79 e5 bc cf ec 0e 3f 20 67 d9 bd
       0.38726887 -0.028011879 0.5583009 -0.10615373
0002f0 c5 fe 8c bd b2 7f 43 be 0b e1 2c be 60 a2 0e bf
       -0.06884531 -0.1909168 -0.16882722 -0.55716515
000300 25 f6 81 3e 33 10 ae bd 1f 50 13 3f 66 1a 83 3d
       0.25383106 -0.084991835 0.5754413 0.064015195
000310 e9 91 72 be f5 b2 82 3d 5c 22 01 bf a3 71 9c bd
       -0.23688473 0.063817896 -0.50443053 -0.07638862
000320 1b 13 5b 3e 54 db 01 3f b3 f0 86 be 06 4d d2 be
       0.21394007 0.50725293 -0.26355514 -0.4107439
000330 61 63 85 3e 7c 2f 7e be c5 cc bc be fd 48 36 3e
       0.26052383 -0.24822801 -0.36874977 0.1780128
000340 84 22 01 3f af cc ac bd 59 63 cf be 03 ea 02 bf
       0.5044329 -0.08437478 -0.40505484 -0.51138324
000350 a7 fe 98 be 9d 0e 9a be cc 7c 9f be 1b 9b 08 bf
       -0.29881784 -0.30089274 -0.311499 -0.5336167
000360 59 e2 21 be 18 e0 37 be 5d 71 0d 3e 9e 8d b4 3e
       -0.15809001 -0.17956579 0.13812776 0.35264295
000370 70 7d b7 be 78 8f da 3e cd 51 0f 3f 9d 91 b8 bd
       -0.3583789 0.42687583 0.55984193 -0.090121485
000380 f9 bd db 3e da 6b ed 3d 76 26 45 3e 89 f2 5f 3e
       0.42918375 0.11592837 0.19252953 0.21869864
000390 36 21 9f 3e a1 21 ca 3e c6 e4 ee be 86 50 0e 3f
       0.31080025 0.39478782 -0.46658915 0.5559162
0003a0 c5 ce ac be c5 c5 3d 3e 5e 9a 84 3d 1a 80 dc 3e
       -0.33751503 0.18532474 0.06474756 0.43066484
0003b0 ec 42 03 3f 2d 55 df be 74 59 c3 3d d2 11 f0 3e
       0.5127399 -0.4361967 0.09538546 0.46888596
0003c0 c3 ec e4 3e 90 bd 91 be 85 c6 85 be e8 73 7d 3d
       0.44711885 -0.28464937 -0.2612802 0.061878115
0003d0 2c 76 06 3f d1 08 b3 3e a2 b5 b5 be 24 c3 d1 be
       0.52524066 0.34967664 -0.35490137 -0.40969193
0003e0 29 27 00 3f b5 2d f1 3e b5 19 97 be 4b d4 d8 3e
       0.50059754 0.47105184 -0.295118 0.42349467
0003f0 2e b4 9c 3c 8f d1 e7 be a7 5f 09 3f a8 da 27 bf
       0.019128885 -0.45277068 0.5366158 -0.6556802

model.0.bias f4 [128]
000000 12 ef 9c be 92 16 0e bf d2 3a ea be e6 ef 43 be
       -0.30651146 -0.5550319 -0.45748 -0.19134483
000010 2c bc 06 3f 49 46 b1 3e eb d9 0d 3f f1 4e 2e 3e
       0.5263088 0.34623936 0.5541064 0.17022301
000020 d0 e7 e2 3d fe 4c 75 be c8 99 e5 3e 53 5b cf 3c
       0.11079371 -0.23955151 0.44843888 0.025312101
000030 b1 57 de 3e be 2d 60 3e 68 0a e5 3e ad ad dc 3e
       0.43426278 0.2189245 0.44734502 0.43101254
000040 65 e5 15 3e a2 a2 b4 be ad fa 0c 3f f7 b0 50 bd
       0.14638288 -0.3528033 0.5507 -0.050950017
000050 32 a5 26 3e 29 68 29 be 22 f1 72 3e e7 0d 41 be
       0.16273955 -0.1654364 0.23724797 -0.1885296
000060 9e ce f4 be 84 f7 44 be 7d e0 19 3f 5d 60 d7 be
       -0.47813886 -0.19235045 0.60108167 -0.42065707
000070 44 84 07 bf d5 52 13 3f 17 bb 11 3f 01 86 a5 be
       -0.52936196 0.57548267 0.569261 -0.323288
000080 2e e8 04 3f 59 5c f5 be 00 97 94 be df b8 81 3e
       0.5191678 -0.47922018 -0.29021454 0.25336358
000090 5e 65 03 be a3 c2 01 bf 2a 97 2e be 6c 22 05 3f
       -0.12831637 -0.5068762 -0.17049852 0.5200565
0000a0 e8 11 04 3f 09 0d c5 be e3 5d ab 3e 10 d1 17 be
       0.5158982 -0.38486508 0.33470067 -0.14825845
0000b0 45 08 af 3e 77 e8 03 bf fe 83 3b 3e de 8f 75 be
       0.34185997 -0.5152659 0.1831207 -0.23980662
0000c0 df 0b 1a 3f 45 6e 09 3e 76 c7 0c be c0 73 88 be
       0.60174364 0.1342097 -0.13747963 -0.2665081
0000d0 f1 ec 2c 3d d3 42 9e 3e 87 b6 e9 3e 15 f1 a5 bd
       0.042218152 0.30910358 0.4564707 -0.081026234
0000e0 f0 26 b4 3e 2f 8d da 3d 96 bc 8a 3e 88 cb f6 bd
       0.35185957 0.1067146 0.27097005 -0.12050539
0000f0 a7 2c f4 be d3 d5 1a 3f 21 a6 61 3e 77 4a fd 3e
       -0.47690317 0.6048252 0.2203603 0.49470875
000100 86 a3 49 3d 8e 25 00 bf f3 1c 7e be ca 85 a4 3e
       0.049228214 -0.50057304 -0.24815731 0.32133323
000110 2b 8b bf 3e aa 93 fd 3e bf 9c af 3e 00 6c 95 bd
       0.37410864 0.4952672 0.34299275 -0.0729599
000120 d2 04 c7 be 51 99 0e 3f fa 0c c1 3e 2b f8 3b be
       -0.38870865 0.5570269 0.37705213 -0.18356387
000130 e2 bb 91 3e e7 3d d6 3e a8 46 8b 3e cd 5f 95 3e
       0.28463656 0.41844103 0.27202344 0.29174653
000140 07 b6 02 3f 45 07 ac be 11 1c d1 3e 40 eb ce 3e
       0.51059 -0.33599296 0.40841725 0.40413857
000150 8d cf a7 3e 28 55 ff bd 15 33 6e be f3 9e ce 3d
       0.32775536 -0.12467414 -0.23261674 0.10088911
000160 b8 5d 8c 3e a0 7a 87 be 96 ef a0 3c 02 bb bf 3d
       0.27415252 -0.26460743 0.019645493 0.09361841
000170 95 09 a3 3c 03 ae 70 3c f2 19 f4 3e 70 6e d4 3e
       0.01990203 0.014689925 0.47676045 0.41490507
000180 5e 22 06 bf 0d c9 ad be 42 d6 c0 3e 44 5a 7d be
       -0.5239619 -0.33942452 0.37663466 -0.24741465
000190 93 56 b8 bd fa 96 cf be ac d9 ae 3e 93 71 eb bd
       -0.09000888 -0.40544873 0.34150445 -0.11496272
0001a0 3e 8a 71 3e c1 26 f8 3e 30 0f 0a bf 89 c3 3e be
       0.23587891 0.48467067 -0.53929424 -0.18629278
0001b0 53 43 11 bf a3 7d 48 3d 1c 1e dd be 02 bd 9f 3e
       -0.56743354 0.04894794 -0.43187034 0.3119889
0001c0 ad e2 b2 3b 20 2e de 3e 34 0f 01 bf a7 04 04 3f
       0.0054591508 0.43394566 -0.50413823 0.515696
0001d0 60 3b a8 be f4 f2 e0 3e 36 3d 1d 3d 6a 84 01 bf
       -0.328578 0.4393536 0.038388453 -0.5059267
0001e0 f8 89 fd 3e 26 51 15 be 5e 78 08 3e dc 95 30 3e
       0.49519324 -0.14581737 0.13327166 0.17244667
0001f0 85 01 05 be 08 33 fa be 8b 7c 60 be 6f ac c7 be
       -0.12988861 -0.4886706 -0.2192251 -0.38998744

model.2.block.0.weight f4 [128, 128]
000000 0f cb ce bd c2 5e 4c 3c a0 63 2c 3e a8 7e a5 3c
       -0.10097324 0.012473764 0.16834879 0.020201996
000010 fe 52 c7 bc 20 10 f7 bc 84 29 b6 3d 68 07 b4 bc
       -0.024331566 -0.030159056 0.08894637 -0.021976188
000020 ee 78 34 3d 38 48 50 3d db 20 81 bd 30 64 d0 3d
       0.04406064 0.050850123 -0.06305095 0.10175359
000030 dc 28 bc bc d2 75 bb 3d 5e 84 6c 3d 8f 1e c4 ba
       -0.022968702 0.09153332 0.057743423 -0.001496272
000040 ed 50 83 3d 03 a7 90 3d 9c 83 3b 3d ac df 00 3b
       0.0641192 0.07063105 0.04577981 0.0019664569
000050 3e 12 1c 3c d6 06 01 bc 2f 0a 11 3b b0 05 4e 3d
       0.009525834 -0.007875165 0.0022131314 0.050298393
000060 a0 f3 a7 bd a7 14 e2 3d 57 1c 16 3b dc cf be 3d
       -0.08200765 0.11039095 0.0022905075 0.0931699
000070 7c a3 7c 3d 31 78 93 3c 6a 32 31 3b fb cf 21 3d
       0.06167935 0.018001648 0.0027038106 0.039504986
000080 07 fb 0c bd 1a 4a b6 3d 24 1f a8 bc 21 99 fc bc
       -0.034419086 0.089008525 -0.020522662 -0.030834736
000090 3c 03 da 3d ba 4f 9c 3c ba 54 a9 3c b6 7a 86 bd
       0.10645148 0.019080985 0.020670284 -0.06566374
0000a0 b4 ef e2 3b 45 04 0c be 72 b1 c1 3c 63 f7 03 3d
       0.0069255475 -0.13673504 0.023644183 0.03221835
0000b0 99 fb 14 3d 07 d9 20 3c 3c ae ff 3b 94 02 67 bd
       0.036372755 0.009817368 0.007802753 -0.056398943
0000c0 c5 9f 07 3c 6f 5e 8b bc 53 76 cd bc 3f 05 95 bd
       0.008277838 -0.017012803 -0.025080835 -0.07276391
0000d0 d3 9b 3f 3d d0 0e c4 3c 51 fa fd 3b f2 15 e7 3c
       0.046779465 0.023932844 0.0077507873 0.028208707
0000e0 6d f5 b1 3d 29 03 10 bd 24 4d 06 bd 15 6d 3b 3d
       0.086893894 -0.035159264 -0.03278841 0.045758326
0000f0 cd 61 fa 3c b6 65 47 3b 8a 7e 92 3d f4 4e 2d bd
       0.030564213 0.0030425615 0.07153042 -0.042311624
000100 d9 3a 3c 3d 09 c1 ac 3b 15 1d 17 3d c0 82 20 3d
       0.04595456 0.005272035 0.03689297 0.039187193
000110 24 a4 54 bd ab ab 3d bd fb e2 39 bd 37 7b ce 3c
       -0.05191435 -0.046306293 -0.04538248 0.025205238
000120 2f 85 e5 bb c4 9c 8e 3d af 1f 9d 3d 14 88 f4 3d
       -0.007004402 0.069634944 0.07672059 0.11940017
000130 91 6a 42 3d 4b 7f 84 bc 5c e3 51 bd 2e 95 f5 3c
       0.04746491 -0.01617398 -0.051242217 0.029978361
000140 fd ef 2c 3d 93 24 a4 3d d0 9b fb bc 03 71 a2 bd
       0.04222106 0.080147885 -0.030713946 -0.079317115
000150 94 43 3b bd 9a 39 b8 3c aa c0 98 bd 03 72 9d 3d
       -0.045718744 0.022488404 -0.07458623 0.07687762
000160 9d 2b 4e 3d f0 1e 3b 3c f6 9e 85 bd 3a 96 c5 3d
       0.05033456 0.01142095 -0.0652446 0.09647794
000170 14 4d 13 bd ad 80 47 3d 36 29 a7 3d 9d 9b 20 3d
       -0.03596218 0.0487067 0.08162157 0.039210904
000180 da 35 d2 3a 30 0c 6e 3d 3e b0 3e bd bc 51 f1 3d
       0.0016037778 0.05811709 -0.046554796 0.11783168
000190 a4 b8 36 bc a1 35 14 bd 26 44 9d 3a 5b 30 8b bd
       -0.01115242 -0.036183957 0.0011998459 -0.067963324
0001a0 e8 82 0c 3d 75 1e 48 3d 67 fe 70 3d 49 28 78 3d
       0.03430453 0.04885717 0.058836367 0.060585294
0001b0 9e 78 fd 3d 29 d3 a8 bd 85 b5 d7 bc 55 65 d1 3d
       0.123765215 -0.082434006 -0.026331672 0.10224406
0001c0 fe 4e 38 bd 72 ea f2 3c 5b 5f 72 3d 5e fc 44 3d
       -0.044997208 0.029652808 0.05917297 0.04809224
0001d0 2d 0c 2f 3d dd dc 1d bd 1d af a3 bc b4 e5 f9 bc
       0.04273622 -0.03854071 -0.019980961 -0.030505039
0001e0 0c f5 cd 3d 3a 70 29 3d d1 6e 65 3d d8 ff 15 3d
       0.100565046 0.041366793 0.056013886 0.036620945
0001f0 cd 36 54 3d 47 db 9b bd c5 3b c0 3d 95 4b dd 3d
       0.051810075 -0.07610183 0.093864 0.10805432
000200 73 2b c2 bc 03 51 15 3e 0d bd 92 3d 29 ab c6 bd
       -0.023702359 0.14581685 0.07164965 -0.09700615
000210 6d a2 9a bc df d0 82 bd 5f 99 22 3c 59 16 50 bc
       -0.018876279 -0.06387495 0.009924262 -0.012700641
000220 d1 86 eb 3c a0 8d 4d 3d cf 64 0f bd 30 bf 31 3d
       0.028750809 0.050183892 -0.035008248 0.04339522
000230 a7 88 38 3d 24 dc ee 3c b8 37 d6 bd d5 2d 5b 3d
       0.045052197 0.029157706 -0.10459846 0.053510506
000240 56 8c ed bb e0 a1 d4 bd 03 3c 89 3c 11 38 ef 3c
       -0.0072493954 -0.10382438 0.016752249 0.02920154
000250 fd 2f 06 bd 11 06 19 be 06 2f ae bd b2 2b 11 bc
       -0.03276061 -0.1494372 -0.08505063 -0.008860515
000260 63 9f 39 3d 58 ec b0 bc 85 1a 80 bd c1 bd ed bd
       0.04531802 -0.021597072 -0.06255058 -0.11608458
000270 ad 39 93 bd c3 0c 16 3d 68 e4 3d bd fd bb 92 3c
       -0.07188735 0.036633264 -0.046360403 0.017911905
000280 8e dd c1 3d 35 5d ec bd 2c 33 c6 bc c6 d4 c0 3d
       0.09466086 -0.11541215 -0.024194323 0.09415583
000290 94 9b d4 3d 0f 6c 81 3d f2 f9 63 3d 2f 54 ce 3d
       0.10381237 0.06319439 0.05565829 0.100746505
0002a0 a5 ae 31 bd 7d 13 e9 ba 6c 34 8f bd fd c5 8f bc
       -0.043379445 -0.0017782297 -0.069924206 -0.017550463
0002b0 b5 b2 58 3d 8e f9 c7 bc 78 40 ee bc 93 1c 2f bd
       0.052904803 -0.02441099 -0.029083475 -0.04275186
0002c0 ac d1 43 bc 8b 50 b9 bb ea 65 ac 3d 35 af 97 bd
       -0.011951845 -0.0056553534 0.08417876 -0.07406465
0002d0 a2 7f 94 3d 91 1d 8a bd 89 2c eb bc d5 af 01 3e
       0.072509065 -0.067439206 -0.02870776 0.12664731
0002e0 44 0b cb bd 4e 85 95 bd 04 d6 f8 3d 23 d0 51 3a
       -0.09914258 -0.073008165 0.12150195 0.0008003732
0002f0 79 61 14 3c e0 a3 04 3e 14 23 9e bd 48 b3 33 bd
       0.009056442 0.12953138 -0.07721534 -0.043872148
000300 cc 3e 70 bd fd 24 0e be a0 e1 c1 3c 6a 16 ce bd
       -0.058653638 -0.13881297 0.023667157 -0.10062869
000310 32 16 8e 3d 71 0c 1d bd 1c 04 f9 bc a5 cb 40 bd
       0.06937827 -0.038341943 -0.030397467 -0.04706921
000320 1d 34 6a 3d d5 dc ef bd 08 ad cb bd 5c 12 f0 bd
       0.057178605 -0.11712042 -0.099451125 -0.11722252
000330 10 ef 66 3d f5 e1 0c be 1c dd 18 3d 0f a1 31 bc
       0.05638033 -0.13758071 0.03732024 -0.010841622
000340 6b 26 82 bd 87 e5 1b bd 2a e0 c5 bc 06 38 3d be
       -0.06354984 -0.03806069 -0.024154741 -0.18478402
000350 0c c0 7a bd 38 a3 84 3d 4b dc 91 3d 94 b9 15 3b
       -0.061218306 0.06476444 0.07122096 0.002284621
000360 1f e3 b0 3d 9b 37 b2 bd 5b 7f 98 3d 75 f7 41 bc
       0.0863707 -0.08702012 0.07446166 -0.0118387835
000370 56 81 3b 3d f1 61 ba 3d d5 4b 8b bb b9 93 c6 3b
       0.04577764 0.09100712 -0.0042509832 0.0060600904
000380 16 4b d5 bd d8 60 87 3d 5b 54 20 3d 8c 7c 7d 3d
       -0.10414712 0.06610268 0.039142948 0.061886355
000390 17 a9 02 bd bd 2a ae 3d fe 12 44 3d 97 48 27 bd
       -0.031899538 0.085042454 0.047869675 -0.04084071
0003a0 4c 58 83 bd 38 46 77 bd 08 64 7c 3d 7c 3d 26 3d
       -0.06413326 -0.0603697 0.061618835 0.04058598
0003b0 10 bf 53 3c 7a 1d c2 bd bd 4c 11 be cd d5 5c 3d
       0.012923971 -0.094782785 -0.1418943 0.053914834
0003c0 26 16 ab bd 98 0e 48 bd 4f 19 1b bd 8c 84 ad 3d
       -0.08353834 -0.048842043 -0.037865933 0.08472547
0003d0 f9 a8 9a be 5e 27 82 bd f2 fb 61 bd 1d 71 7e 3d
       -0.3020704 -0.06355165 -0.055171914 0.062119592
0003e0 79 de d5 bc 4f be d8 3c 8b 3d 54 bc 02 22 fe 3c
       -0.02610706 0.026457934 -0.012954126 0.031022076
0003f0 af 9f 85 3d d9 c5 e8 bc 40 d4 05 bd 1d 1c fe 3d
       0.06524598 -0.028414654 -0.03267312 0.12407706

model.2.block.0.bias f4 [128]
000000 82 73 b9 3d b9 85 95 bc 7f 85 df bc 70 a8 86 3d
       0.090552345 -0.01825224 -0.027285336 0.06575096
000010 5b 65 e5 bc 40 4c 94 3d a5 c6 4f 3c 60 1e b4 3d
       -0.028002432 0.07241106 0.012681638 0.08794856
000020 98 17 f5 bc c3 a1 2e 3b e3 79 87 3c b9 fd 3f bd
       -0.029918477 0.002664671 0.016537612 -0.04687283
000030 32 ed e3 3a 4c f3 fa 3d f2 79 0d 3d f5 87 0b bd
       0.0017389415 0.122534364 0.034540124 -0.034065206
000040 0e 1e b2 bd 28 7e 52 bc 7a b9 c2 bc 5d 38 d5 bd
       -0.08697139 -0.012847461 -0.023770083 -0.10411141
000050 b0 7c 08 bd 24 74 43 bd 79 b8 a1 bb 05 5f 00 3d
       -0.033322036 -0.047718182 -0.004935321 0.031340618
000060 0f 13 f7 bc 20 4b bd bc 11 47 d6 3d 35 b3 9c 3c
       -0.030160455 -0.023107111 0.104627736 0.019128421
000070 4e b6 82 3d ae c6 65 3c 58 68 df 3c 22 d4 01 bd
       0.06382428 0.01402442 0.027271435 -0.031696446
000080 dc 8b ab 3d 3a 0e b3 bd b6 ee 2f 38 92 6b 82 bc
       0.083762854 -0.08742948 4.194557e-05 -0.015920434
000090 b3 92 71 3d d8 81 bb 3d 74 c0 2f bd 35 91 1c 3d
       0.058977794 0.09155625 -0.042908147 0.038224418
0000a0 4c dc 9c bb e7 6b b5 3c b2 52 32 bd 63 ef 2e bd
       -0.0047870036 0.022146178 -0.043535896 -0.042708766
0000b0 42 b3 a9 3d f1 55 bc 3d c9 66 35 3d 13 83 c8 3d
       0.08286144 0.091960795 0.044287477 0.097906254
0000c0 b5 36 89 3d 84 5a 95 3c f6 e1 e1 bc 05 fe 1a 3d
       0.06699888 0.018231638 -0.027573567 0.03783991
0000d0 4a eb 5a 3c 99 99 c4 bd a8 f8 0c 3d 0b bb c2 3c
       0.013361761 -0.09599609 0.034416825 0.02377083
0000e0 2c 84 d9 3d 89 fc 2e 3d ba 28 6e bd c4 3c d1 3c
       0.10620913 0.042721305 -0.05814431 0.02554167
0000f0 6d 1a df 3d 7b d0 a6 3d 5f 33 8e 3d 35 3b ca bc
       0.10893712 0.08145233 0.06943392 -0.024686435
000100 c5 c8 a1 3d 81 32 00 3d 6e e7 85 bd 47 ea f8 3d
       0.07899622 0.031298164 -0.06538282 0.1215406
000110 2b 24 c3 3c ee 1b 39 3d 0a fa 10 3d 5b 5e 1f bd
       0.023820957 0.04519265 0.035394706 -0.038908344
000120 b0 c2 de bd ba a0 a8 3d 80 2b 96 3d 3e ea 3b bd
       -0.108769774 0.08233781 0.07332516 -0.045877688
000130 7e 8e 85 3d c7 d1 2f 3d cf 6e 64 bd fd 7c 97 3d
       0.06521319 0.04292467 -0.055769738 0.073968865
000140 64 f7 a3 3d 88 99 76 3d ee ad 6f bd a9 70 d8 3d
       0.080061704 0.060205013 -0.05851548 0.10568363
000150 76 aa 7f bd b2 c7 a4 3d 87 89 bb bd cf 5f cd 3d
       -0.062418424 0.08045901 -0.09157091 0.1002804
000160 15 9d 77 bd c9 71 04 3d 65 73 6b bd b9 69 0d 3c
       -0.06045254 0.032335076 -0.057483096 0.008631163
000170 96 ad af 3d ab 62 0d bd 67 44 46 3d 66 8d 49 3d
       0.08578031 -0.034517925 0.048405077 0.049207114
000180 c3 40 ac 3d c5 1c 4d bc 5c df 5c 3d f1 28 13 3c
       0.0841079 -0.012519066 0.05392395 0.008981929
000190 41 43 c3 3d 82 7f 72 bd ea de b8 3d e9 22 ce 3d
       0.09534312 -0.059203632 0.090268925 0.10065252
0001a0 63 2c 89 3d ff db c9 bc b3 db 6e 3d be b8 62 bc
       0.06697919 -0.024641035 0.05831499 -0.013837991
0001b0 81 0a 6a 3d e5 42 8a 3d 03 7c 99 3c 5f c5 b4 bd
       0.057138924 0.0675104 0.018735891 -0.08826708
0001c0 75 10 96 3c c4 d4 59 bd b4 0e bf bc 0f 71 e5 bc
       0.018318394 -0.053181425 -0.02332244 -0.028008012
0001d0 5b 3a ca 3d 88 1c 12 3d 1a c9 57 bd 37 50 d2 3d
       0.09874412 0.03567174 -0.05268202 0.10269206
0001e0 c7 d6 08 3d c8 9c c4 bd 29 4c 45 3c 8b 57 da 3b
       0.033407953 -0.09600216 0.012042084 0.006663268
0001f0 c8 f3 0f 3c 46 95 29 bd 5b 73 a0 bd d4 e9 99 3d
       0.008786149 -0.041402124 -0.07834502 0.07515302

model.2.block.2.weight f4 [128, 128]
000000 88 11 4e 3d 1b 58 86 3d 6d 4f cd 3d 55 bb 60 3c
       0.050309688 0.065597735 0.10024915 0.013716538
000010 89 cf 3f 3d 55 88 9c 3d 80 7b 11 3d 05 de ba bb
       0.04682878 0.07643191 0.03551817 -0.0057027363
000020 3d b0 c5 3c 35 9d 28 bd dc b8 dc bc 43 d2 46 bd
       0.024131889 -0.04116555 -0.026943617 -0.048540365
000030 17 00 06 3d 4c bb d0 bd eb 58 50 3d 63 41 ad 3d
       0.03271493 -0.10191974 0.05086605 0.08459737
000040 e3 82 82 bb af 71 f5 3d 5b 37 1a 3d d9 f1 e7 3c
       -0.003982888 0.11984574 0.037650447 0.028313564
000050 5d 9f a2 3d 0c 1c 14 3d bd ab 8e bc ec 42 54 3d
       0.079405524 0.03615956 -0.017415876 0.051821634
000060 1f 90 a3 3c ab de 8e bd 31 9c 76 bd 08 cc 78 3d
       0.019966183 -0.06976064 -0.06020755 0.060741454
000070 ed d9 00 bc 63 83 03 bb a0 ef 93 3d fa 17 d4 3d
       -0.007864458 -0.0020067326 0.07223439 0.10356136
000080 fd 14 80 bd 68 ce 6e bd 69 ea 51 bc 8b 79 d7 3d
       -0.06254003 -0.058302313 -0.012812235 0.10521229
000090 c5 d7 20 bd 7a a4 3c bd 11 09 01 bd 25 fc 99 3d
       -0.039268274 -0.046055295 -0.031502787 0.07518796
0000a0 17 88 17 bd 11 33 cd 3d 4c a6 2f bd fb ce 10 bd
       -0.03699502 0.10019506 -0.042883202 -0.035353642
0000b0 5e 63 8c bd 13 aa 0a 3d 95 58 81 bc 8c c6 48 3d
       -0.0685489 0.0338536 -0.01578931 0.049017474
0000c0 c2 17 3c 3c 6c bd 0f 3d 89 22 6a bd 11 16 f3 bc
       0.011480274 0.035092756 -0.05716184 -0.029673608
0000d0 9a 3c fc 3b b4 74 1c 3e a6 94 eb bc 67 a0 a7 3d
       0.007697654 0.15278894 -0.028757405 0.08184891
0000e0 d3 44 0d 3d 35 12 5d bb 9d ee d9 3d 16 df ee bc
       0.034489464 -0.0033732776 0.10641215 -0.02915911
0000f0 86 75 b2 bd 8f 57 42 3d ba 81 e0 3c d6 d5 a9 bd
       -0.08713822 0.047446784 0.027405608 -0.08292739
000100 55 ae 2b 3d 88 1e 3c bd fe 27 f6 3c 0d 73 99 bd
       0.041914303 -0.045927554 0.030048367 -0.07492647
000110 3a 42 9b 3d b3 30 e5 bc fe fa 49 3d 8c 33 f4 3d
       0.07580991 -0.027977323 0.04931163 0.11923894
000120 30 65 f5 bc c1 b5 b0 bd bf 4a 89 bc 76 a0 a4 3d
       -0.029955477 -0.08628417 -0.016759275 0.08038418
000130 e7 3e 88 bc b0 6b 86 bd a8 2d 2c 3d af f7 c1 bc
       -0.016631557 -0.065635085 0.04203573 -0.023677675
000140 ec d1 82 3d ef ce cf 3d cc de a9 3d 88 f2 c8 3c
       0.06387696 0.10146891 0.08294448 0.02452971
000150 42 c0 d8 bc a7 31 08 3d d3 bd 02 3e 9b 4c c4 bc
       -0.026458863 0.033250477 0.12767725 -0.02396231
000160 68 96 6a 3b ba e1 ef 3d fa 72 13 3d 18 db 8a bc
       0.0035795216 0.11712976 0.035998322 -0.016950175
000170 65 9e 64 bd 59 54 7c bc b5 a7 1c 3c de 1b ce bd
       -0.05581512 -0.015400969 0.009561469 -0.10063909
000180 3a 1d a7 3d e5 87 55 bd 30 2d b4 3c 49 15 fc b9
       0.081598714 -0.052131552 0.021994203 -0.00048081044
000190 68 9d be 3d b2 d5 f2 ba 9d 61 13 bd e2 1e cb 3c
       0.093073666 -0.0018526821 -0.035981763 0.024795
0001a0 94 5e be bb 47 75 06 3c 38 ee 15 3c c3 46 21 3d
       -0.0058096144 0.008206672 0.009151034 0.039374124
0001b0 33 66 20 bd 9c da b6 3d 40 8a 9e bd 5d 2b 59 bd
       -0.039159965 0.08928415 -0.07741213 -0.05301987
0001c0 32 7c a5 3d d6 b9 86 bb b2 83 0a 3d c6 29 a6 3d
       0.08080329 -0.004111509 0.033817 0.081134364
0001d0 07 fa a8 3a 4f a7 16 3d 57 70 c6 3d 81 00 3b bc
       0.0012891897 0.03678065 0.09689396 -0.011413694
0001e0 bb 63 c2 3d 41 40 8a bd 4b b6 5c bd 4a e6 26 3d
       0.09491678 -0.06750537 -0.053884786 0.040746965
0001f0 52 36 b2 3c 68 99 c4 3d f0 dd 35 3d 6f 0d be bd
       0.021754418 0.095995724 0.04440111 -0.09279906
000200 f4 01 09 bd cb b6 cc bc fe 67 b9 bd 75 49 83 bd
       -0.03344913 -0.024989506 -0.09053038 -0.06410495
000210 6e a9 ee bc 94 7d 26 3c 3c 96 c4 3d 93 8a 76 bd
       -0.029133525 0.010161776 0.095989674 -0.06019075
000220 44 c7 0d bd 23 34 48 be 22 68 0e bd a6 63 91 3d
       -0.034613863 -0.19551139 -0.034767278 0.070990846
000230 bd f4 74 3d c7 9a d4 3c ea da bd 3d 05 b5 cd 3d
       0.059803713 0.02595271 0.0927027 0.10044292
000240 ac d0 6a 3c 2a dd 15 bd a4 a3 39 3d 17 26 a9 3c
       0.014331978 -0.03658787 0.045322075 0.020648045
000250 85 fa dc bc a2 6e 9b bd e6 0b f9 3c ff 2f dd 3c
       -0.026974926 -0.07589461 0.030401181 0.027000425
000260 f4 81 8e 3d ab b2 87 3d f5 e6 4a be d1 ba 37 be
       0.0695838 0.06625875 -0.19814666 -0.17942359
000270 b6 98 13 bd 42 07 64 bd 11 9c aa bd 81 5e b3 3d
       -0.03603431 -0.055670984 -0.083305486 0.087582596
000280 4b 02 33 3d d1 17 ac bd f2 b4 4b bd 6f ca e5 bc
       0.04370336 -0.0840298 -0.04973311 -0.02805063
000290 97 d5 6c be 67 fe 81 bd 10 ef 92 bd 13 5e a7 3d
       -0.23128353 -0.063473515 -0.07174504 0.0817224
0002a0 53 03 99 3d 60 c4 3b 3b 9e c4 28 bd 02 89 62 bd
       0.07471337 0.0028650984 -0.041203134 -0.055306442
0002b0 37 e7 71 3d 9c ae 10 be 97 3a 39 bd c5 bc 01 be
       0.059058394 -0.14129108 -0.04522189 -0.12669666
0002c0 cb da 93 3d 6f e4 b7 3d fc 83 97 bd 21 9d e2 3c
       0.07219466 0.08979117 -0.07398221 0.027662816
0002d0 41 68 8a 3d b3 01 48 bc 24 0b 39 3d 9f 74 11 3d
       0.06758166 -0.012207436 0.04517664 0.03551161
0002e0 a8 74 7e 3d 29 56 79 3d a0 39 91 bc 6f 84 84 bd
       0.06212297 0.060873184 -0.017727673 -0.06470572
0002f0 26 23 19 3c 33 41 86 3d 56 3e bc bb 8a 6f e5 3c
       0.009346759 0.065554045 -0.0057447357 0.028007288
000300 c7 d8 ac 3d e5 16 23 3b 54 dc b2 bd 5b 55 cc bc
       0.084397845 0.0024885472 -0.087334305 -0.024943044
000310 fd d3 71 3c 47 f2 33 3d a2 80 9d bd 21 02 12 bd
       0.014760015 0.043932226 -0.076905504 -0.03564656
000320 c9 97 f5 bd da aa 4d be 61 0c e1 3c e9 c2 cb 3d
       -0.11991841 -0.20084706 0.027471723 0.099492855
000330 04 ac 94 bd 6c e8 7c 3d 7e 5c 81 3c 13 68 a1 3d
       -0.07259372 0.061745092 0.015791174 0.07881179
000340 43 0a ac bd 4d c6 35 bd e3 8f 99 bd cc bd 9e 3d
       -0.08400395 -0.044378567 -0.07498147 0.07751045
000350 ea 4a de 3b a2 71 73 bd 82 3d c6 bb 63 71 74 3b
       0.006783833 -0.05943454 -0.006049813 0.003729903
000360 93 b6 3b bd 3e 26 f1 ba 6b be 10 be 79 b0 84 3d
       -0.045828413 -0.0018398238 -0.14135139 0.06478972
000370 a3 7e 26 be 70 19 b6 bb 94 6e 88 be 61 1d a7 3d
       -0.16259246 -0.0055572316 -0.26646864 0.081599005
000380 e2 69 72 3d e6 c6 23 3d d0 5a 4d 3d f2 cb 74 3d
       0.05918301 0.039984606 0.050135434 0.05976481
000390 ad 9e 2a bd 0b 5d aa bd 0f d7 8c 3d f1 4a ef 3c
       -0.04165523 -0.08318528 0.06876957 0.02921054
0003a0 8b ce 2f 3d 71 db f7 bd e7 6c 9c 3d 43 7c a3 bd
       0.042921584 -0.12102402 0.07637959 -0.079826854
0003b0 93 5b 9f 3d 20 cb 61 bd cb f9 20 bd 94 25 77 bd
       0.07781138 -0.055125356 -0.03930072 -0.06033857
0003c0 96 2b 15 3d c8 ff 2e 3d 2f 0e 14 3d f5 39 10 3d
       0.03641852 0.0427244 0.03614634 0.035211522
0003d0 f7 07 9a 3c 40 ce 7b 3d b0 73 b2 bc 22 67 a2 3c
       0.018802626 0.061475992 -0.02178368 0.019824568
0003e0 42 61 a9 3b 32 1c 6c bd 7e 90 51 bd 23 d6 35 bd
       0.0051690647 -0.057644077 -0.05116319 -0.04439367
0003f0 d0 44 78 3d de bc b2 3d 20 8e b5 bd 6f 81 bc bc
       0.0606125 0.0872743 -0.08864999 -0.023010937

model.2.block.2.bias f4 [128]
000000 7e 2c b7 bc 48 93 a0 bb d9 4e aa 3b ba b5 cd 3d
       -0.022360083 -0.00490037 0.0051973877 0.10044427
000010 e7 bb 7b bd c3 1a a8 bc 02 16 cb 3d d9 76 fa bc
       -0.061458495 -0.020520573 0.09916307 -0.03057425
000020 dc 37 1a 3d ac 2e 69 3c 9f ee bb bc f4 87 4d 3d
       0.037650928 0.014232319 -0.022940932 0.050178483
000030 83 4e 12 3d a3 e2 ce 3d 31 da d4 3d c2 2a f4 bc
       0.035719406 0.10101821 0.10393179 -0.029805545
000040 b8 8a fd 3d ec 89 52 bd 2a 27 96 bc 69 c4 9a 3d
       0.12379974 -0.051401064 -0.018329222 0.075569935
000050 f4 41 d7 3d 7d cb 9a bc 81 6e 6b 3d b7 c5 47 bd
       0.105106264 -0.018895859 0.05747843 -0.04877254
000060 9c d7 9b 3d 6a 88 cd 3b 02 b7 a5 3d 4d 0c aa bb
       0.076094836 0.0062723653 0.080915466 -0.0051894546
000070 82 8e 1d 3d 1e 0f 3b bd b9 39 30 bd 31 b2 ac 3d
       0.038465984 -0.045668714 -0.0430238 0.08432425
000080 57 3c a3 3d 00 d9 2a bd 45 5f 60 3d ee e2 08 bd
       0.07970493 -0.041710854 0.054778356 -0.033419542
000090 83 90 42 bd 59 ed b4 3d 48 17 2e 3d 36 1e e3 3d
       -0.0475011 0.08834333 0.04250267 0.11089747
0000a0 e1 d4 1c bd 21 6c 31 3d 05 f2 a0 3c c9 d7 48 3c
       -0.038288955 0.04331601 0.019646654 0.012258478
0000b0 3b bb 05 3d 00 b7 10 bd c7 3c b4 bc 74 4e 9f 3b
       0.03264926 -0.035330772 -0.022001637 0.0048616473
0000c0 d4 3f b4 3d 1a e7 3b bd b7 77 ba 3d 69 7b 8a bc
       0.08801237 -0.045874692 0.09104865 -0.01690455
0000d0 90 89 98 3d 80 b4 1a 3a ca d8 66 3d 7b 7e 01 3b
       0.07448113 0.00059015304 0.05635909 0.0019759226
0000e0 aa 55 9d 3d 4e 14 e2 3b b8 95 50 bd b2 c6 f8 b9
       0.07682355 0.006899393 -0.050924033 -0.00047450286
0000f0 3b 0f 4d bc d8 0b 5f 3d d1 cb 89 bb 1f 03 11 bd
       -0.012515838 0.054454654 -0.004205205 -0.035403367
000100 f8 3f 9b bc 59 64 5c bd 15 ac 36 bc 31 c3 6c 3d
       -0.018951401 -0.053806636 -0.011149426 0.057803337
000110 ca bf 3c 3d 43 11 50 bd c4 3e ac 3d 4d ec 07 3d
       0.04608134 -0.050797712 0.08410409 0.03318434
000120 d9 b0 ed 3d da 51 0c 3d 4a 7e b6 bc a3 be 91 bd
       0.11605997 0.034257747 -0.022277016 -0.07116439
000130 92 04 05 bd 22 f5 80 bd 4d 08 46 3d 6f dd 1f 3d
       -0.03247506 -0.062967554 0.04834776 0.039029535
000140 7b 2a a1 bc 06 b0 89 3d ef 6b 77 3d 43 8f 7f bd
       -0.019673577 0.06723027 0.060405668 -0.062392484
000150 11 4b b0 3d d7 46 37 bd 8d c9 73 bc e4 54 22 bd
       0.08608068 -0.044745293 -0.014879596 -0.03963174
000160 ec 83 a3 bc 55 84 79 bd 68 fa 49 bd 9f 8a 29 3c
       -0.019960366 -0.060917217 -0.04931107 0.010347991
000170 eb 19 24 3d 40 70 8e bb 7b 4a f4 3c 31 f9 b5 3d
       0.04006378 -0.0043468773 0.029820671 0.0888542
000180 34 bc 2f bd 88 5d aa 3d ce 37 7b 3d e5 d2 35 bd
       -0.042904094 0.08318621 0.061332516 -0.044390578
000190 e4 51 30 bc 9a 91 48 3b 66 ea 0e bc 59 e9 9a 3d
       -0.010761712 0.0030604363 -0.008722877 0.07564039
0001a0 98 56 88 3d 81 a7 a1 3d 33 82 5d bd 65 5d de 3b
       0.066571414 0.07893277 -0.054079246 0.006786036
0001b0 65 6f 6b bd 2e 34 77 3d ba a1 90 3d e0 ad 93 bd
       -0.05747928 0.060352497 0.07062097 -0.072108984
0001c0 10 c6 7d 3b 3f 71 d0 3c c6 e9 8c bc 11 b7 80 3d
       0.003872279 0.025444625 -0.017201316 0.06284917
0001d0 a6 8d 94 3d e9 4f 5a 3d a1 1b b1 3c 9f d9 c5 3d
       0.0725358 0.053298865 0.02161962 0.096606486
0001e0 b3 41 d8 3c 90 cc 55 bd 44 eb 59 bd 92 30 96 3d
       0.026398515 -0.05219704 -0.053202882 0.07333483
0001f0 ef fe cd 3c 3c 62 79 bd 56 79 a1 bd 8a 80 1f 3d
       0.025145976 -0.0608847 -0.07884471 0.038940944

model.4.block.0.weight f4 [128, 128]
000000 15 ca 64 bd c3 32 71 3d 97 46 15 bd 6a 8e 5d 3c
       -0.055856783 0.0588863 -0.036444273 0.013522724
000010 9e 4a 74 3c c0 00 80 3c 92 53 2c bd be 2d 09 bc
       0.014910368 0.015625358 -0.042071886 -0.008372722
000020 a2 c5 91 bc 86 65 ff 3c b7 29 f5 3c 8f ef 82 3d
       -0.017794434 0.03117634 0.029927118 0.063933484
000030 98 fe 7b 3d 77 e2 11 3c 28 af 11 3d 06 5f b0 3d
       0.061522096 0.008904091 0.035567433 0.08611874
000040 d1 13 a5 bc c1 69 37 3c 47 75 c3 3b 0b eb 84 3d
       -0.02015105 0.011194647 0.0059649083 0.064901434
000050 12 ca 89 bd 96 8c ce 3d 3d 65 d8 3b 7c 78 3f 3d
       -0.06727995 0.100854084 0.0066038654 0.046745762
000060 05 fa 1d 3d b4 00 cb 3d cb 2b 77 3c 64 ec 0e 3c
       0.038568515 0.099122435 0.015086125 0.008723352
000070 72 b2 71 3d f2 d0 a1 3d e2 5f 4e bd 3f 40 d1 3d
       0.05900807 0.07901181 -0.05038441 0.10217332
000080 b7 78 d4 3d 0f 0b e7 3a e8 1f 91 3d 7b ab cc 3d
       0.10374587 0.0017627197 0.07086164 0.09993645
000090 2e a4 a3 3d 1f f4 b7 bb 4c 5c b0 3d 92 24 60 3d
       0.07990299 -0.0056138183 0.08611354 0.054722376
0000a0 a3 98 cd bc a9 22 88 3d a6 87 1f bb dc 73 05 bd
       -0.025097197 0.06647236 -0.0024342327 -0.032581195
0000b0 4a da 22 3d 1c 7d 51 3d 30 24 3c 3d b7 59 07 3c
       0.039758958 0.051144704 0.04593295 0.008261136
0000c0 ab 96 84 bc d3 3a ea 3c 4f 37 8b 3c 57 21 20 bd
       -0.016185125 0.028592503 0.016994147 -0.039094295
0000d0 26 ba 8a bb d4 dd 7e bd 3a e0 a4 3c 00 56 b7 bc
       -0.0042336164 -0.06222327 0.02012645 -0.022379875
0000e0 57 41 a3 3d 3a f7 8c 3d 88 02 b1 bd 2b fd 84 bd
       0.07971447 0.06883092 -0.08643061 -0.064936005
0000f0 7d de da 3d cd fe 9e bc c4 31 59 3c f4 4a b4 3b
       0.106869675 -0.019408608 0.013256494 0.005502099
000100 38 6e 53 3d 37 18 d8 3d cc e3 fe 36 8e 3f 0d bb
       0.051618785 0.105514936 7.596309e-06 -0.0021552774
000110 29 6f 83 3c 04 2d 39 3c 1c 64 5e 3d db 04 a7 3c
       0.016044216 0.0113022365 0.05429469 0.020388057
000120 21 31 eb 3d 3d c2 5d bd d5 9b 6e 3d 00 f5 11 3e
       0.1148398 -0.05414032 0.05825408 0.14253616
000130 33 c8 1b 3d 36 85 8e 3b 57 02 fc 3b ed 70 61 3c
       0.03803272 0.004349376 0.0076907086 0.013759834
000140 9b 9d a1 3d 34 11 6c bd 36 b2 9a 3c 10 1a 06 3c
       0.07891389 -0.057633594 0.018883806 0.008184925
000150 8f 7f 57 bd 21 05 cf 3a b0 2e 09 3b d2 7c 5c bb
       -0.052611884 0.0015794375 0.002093237 -0.0033643735
000160 a2 b2 a2 bc 76 57 5a bc e3 90 28 3d ca 6f 4c bd
       -0.01986057 -0.013326516 0.0411538 -0.049911298
000170 de 13 d0 3d a4 5f cb 3d 22 e3 df 3c f0 fa 07 3c
       0.10160039 0.099303514 0.027329985 0.008299574
000180 a0 36 e9 3c 0f b3 ae 3d 49 c4 0e 3d 2e da 18 3d
       0.02846843 0.085302465 0.03485516 0.037317447
000190 01 84 59 bd 64 c4 af 3c 4f 3c 55 3d 33 8b 21 bd
       -0.053104404 0.021455951 0.052059468 -0.03943939
0001a0 f2 38 c0 3d e3 c5 8a bd af bc 0b 3d 95 49 65 bd
       0.093858615 -0.06776025 0.03411549 -0.055978376
0001b0 e9 ad 3d bc 7f a8 d9 bb 9f cd 23 3d c3 ae 87 3c
       -0.011577108 -0.0066424008 0.039991017 0.016562825
0001c0 22 50 56 bd 96 2b 16 3d a0 ca 29 3c da 40 a8 3d
       -0.052322514 0.03666266 0.010363251 0.082154945
0001d0 be 9c 50 bd 24 74 4d 3d 07 88 cf bb 48 78 3a 3d
       -0.05093073 0.05015959 -0.0063333544 0.045524865
0001e0 ea 0d 7c bd 3b 58 c5 3d c9 6d db bb 2f b1 3a 3d
       -0.061536707 0.09635969 -0.006696437 0.04557913
0001f0 e2 d6 a3 bc ad 73 18 3d a8 e3 24 3c f0 e4 0c bd
       -0.019999925 0.037219692 0.010064043 -0.03439802
000200 9d 4f 4f bd cc e5 6f 3d 89 c5 fb 3d 01 30 53 3d
       -0.050613035 0.05856876 0.12293536 0.051559452
000210 f2 a3 02 bd 7b c3 05 3c 0c af 3d 3b 55 87 f0 3b
       -0.03189463 0.008164282 0.0028943447 0.0073403516
000220 81 1b eb bc e1 aa f3 3c f2 be 93 bc d3 90 e2 bc
       -0.028699638 0.029744567 -0.018035386 -0.027656948
000230 a3 57 50 3b a0 c1 33 bd d1 c1 7e 3d b5 94 91 3d
       0.0031790517 -0.043885827 0.062196556 0.07108442
000240 e3 db d3 bc 26 ac c2 bc d1 ba f3 bc 8f 5c d3 3d
       -0.025861686 -0.023763727 -0.029752167 0.103203885
000250 3e 54 53 3c ca 8c d1 3b ed 0b 03 3d b7 b7 0f bd
       0.012898503 0.006394957 0.031993795 -0.035087314
000260 44 6f a9 3d 8c 97 a7 3d 24 9b d8 3d 54 92 97 bd
       0.08273175 0.08183202 0.10576466 -0.07400957
000270 b0 51 c1 3c b5 02 35 3d 99 cf 25 3d af 53 26 bc
       0.023598522 0.044192035 0.040481184 -0.010151788
000280 25 a9 a1 3d ed 8c 7e 3c 27 6e be ba 08 17 f0 3b
       0.0789359 0.015536529 -0.0014528678 0.0073269643
000290 b9 96 75 3d 81 40 7a bd c8 69 79 bd e6 ea a0 3d
       0.059958193 -0.061096672 -0.060891896 0.07857303
0002a0 a6 a4 cd 3d 92 53 5b bd 26 53 4e 3c 07 ad 73 bd
       0.1004117 -0.053546496 0.012593066 -0.059491184
0002b0 ea 36 34 bd 68 f7 ce 3d 97 c0 b7 3d b7 e7 cf 3c
       -0.043997683 0.10105783 0.089722805 0.025379045
0002c0 e6 fa 8a bc 61 d6 43 bd 19 4c 90 3c 7c f5 c6 3c
       -0.01696534 -0.04781187 0.017614411 0.024286978
0002d0 8f a6 f4 3c 9e fe 1c 3d d4 9e 1a bc f5 1e 56 3d
       0.029864578 0.03832876 -0.009437282 0.052275617
0002e0 0f b2 9f 3c 63 3d 2c 3d f6 b2 8c bd cf 53 88 3c
       0.019494085 0.04205073 -0.068700716 0.016641526
0002f0 da 02 db 3d ab cd 45 3d 30 7d 9a 3d a1 44 e1 3c
       0.10693903 0.048291843 0.07543409 0.027498545
000300 d2 4f f4 3c ce 54 a6 3d 39 5b 57 3c f0 eb 68 3c
       0.029823218 0.08121644 0.013144308 0.014216408
000310 bb 98 01 3b 33 ac f8 3c cd 17 44 3d af a7 98 3d
       0.0019774872 0.030355548 0.04787426 0.07453858
000320 4a aa 9d 3d 6a eb 3d 3d c7 3b 0e ba 39 57 50 3d
       0.07698496 0.046367086 -0.00054257776 0.050864432
000330 54 6b 84 bb bc 4c 22 bd b8 ff cd 3a e0 ff c7 bb
       -0.004041115 -0.03962396 0.0015716469 -0.0061035007
000340 e7 97 99 3d 7a 65 5a 3d 45 1a 63 3d 5c a6 81 3d
       0.07499676 0.05331943 0.055444974 0.06330559
000350 e8 09 92 bd ae 2c 0f bb 13 85 6e bd 3d fc f0 3b
       -0.07130796 -0.00218467 -0.05823238 0.007354288
000360 36 da 8e bd 85 76 96 3d 95 39 48 3b c0 c9 c4 3d
       -0.06975214 0.073468246 0.00305519 0.09608793
000370 1e 2d 90 3d 0c d2 56 bd 88 2b c8 3d 5e ea 87 3d
       0.070398554 -0.05244641 0.09773928 0.06636499
000380 5f 95 5e bd c7 ab 7e bd f2 b9 79 3d 06 1c 2a 3d
       -0.05434167 -0.06217554 0.060968347 0.04153063
000390 55 be ae bd 0a 0e 43 3b 88 98 f6 3c 2d 6e 94 3b
       -0.08532397 0.0029763007 0.03010203 0.0045297355
0003a0 c4 c2 80 bc 87 12 0c 3d 0e 55 6e 3c b7 51 57 3d
       -0.015717871 0.034197357 0.014546646 0.052568164
0003b0 77 ee 35 3d 84 c9 a7 3d 86 94 7a bd 08 31 a0 3d
       0.04441687 0.08192733 -0.0611768 0.07821852
0003c0 b1 a2 93 3d b0 20 8f 3d 96 83 c8 bc 7f 87 b8 3d
       0.07208765 0.069886565 -0.024476808 0.09010219
0003d0 fd 7c 60 bd 1d 6e 8b 3d a7 74 c1 3d 52 a0 b5 3d
       -0.054806698 0.06808112 0.09446078 0.08868469
0003e0 da 58 81 bd 79 3e 81 bd 13 f9 e8 3d ce 63 7b bb
       -0.06315775 -0.06310744 0.11375632 -0.0038359049
0003f0 5b 91 1c bd ec 58 a0 bd 13 42 24 3d 1f 35 31 3c
       -0.03822456 -0.078294605 0.040102076 0.010815888

model.4.block.0.bias f4 [128]
000000 cc ad 50 3d 15 dd 6b bd 8c 5a c7 3d 4c b6 63 bd
       0.050946996 -0.057583887 0.09734067 -0.055593774
000010 e4 3d 1c 3d 43 86 63 bd ba 9a b6 bd 50 47 b5 3d
       0.03814496 -0.055547964 -0.089162305 0.088514924
000020 5d 0a d3 3d 7f fc 9f bd 70 4f 03 3d fe 1c a9 38
       0.10304711 -0.07811832 0.03205818 8.063948e-05
000030 a7 84 ca bd 1e bb 9b bc 15 10 07 bd 94 8d 8a 3d
       -0.09888583 -0.019010123 -0.03297432 0.06765285
000040 14 4d 9e 3c 71 33 58 bd df dd 8c 39 d0 78 0d bc
       0.019323863 -0.052783433 0.00026868188 -0.008634761
000050 39 14 ba 3d 1c 23 20 3c 13 dc e0 bc 71 74 83 3d
       0.090858884 0.009773996 -0.02744869 0.06418694
000060 bc c4 49 bd d5 b0 48 3c d1 9a d6 bb 02 7e 84 3b
       -0.049259886 0.012249191 -0.0065492173 0.0040433416
000070 67 ee 75 3d 45 39 48 bb 29 16 4b 3d a7 29 cd 3d
       0.06004181 -0.0030551713 0.04958168 0.1001771
000080 9d e1 1b bd 49 65 87 bd d7 d0 c2 3d 6a 60 db bc
       -0.03805696 -0.066111155 0.09512489 -0.026779372
000090 f0 22 d2 3d 64 14 84 3d 96 ef 4c 3d df 01 85 3d
       0.1026057 0.06449202 0.050033174 0.064944975
0000a0 a0 d6 48 3c 78 b0 0e bd 0d 96 7a 3d 30 99 0e bd
       0.012258202 -0.034836262 0.061178256 -0.03481406
0000b0 6e 07 84 bd 28 ff 8f bd 89 38 2f 3d ea de 9a bc
       -0.064467296 -0.07031089 0.042778526 -0.018905122
0000c0 29 55 6f 3d 20 b0 dd 3c c8 e8 8a 3b e1 86 69 3d
       0.058430824 0.027061522 0.0042391755 0.057013396
0000d0 11 71 e8 bc 67 e4 80 3d 06 2a 2f bd 48 99 7f 3d
       -0.028374227 0.06293564 -0.042764686 0.06240204
0000e0 44 e6 a7 3c df 16 32 bd 43 f3 01 ba d9 af 39 3d
       0.020495541 -0.043478843 -0.00049572083 0.045333717
0000f0 af 6e 98 3d 46 70 73 bd 6a eb c3 3d 18 b5 84 3d
       0.07442986 -0.059433244 0.09566386 0.064798534
000100 d9 09 02 bd 54 a7 41 bc 5e 44 02 bd 0c a5 76 ba
       -0.031747673 -0.011819679 -0.03180348 -0.0009408749
000110 dc 66 7a bd ce 18 df bd cc 7b 52 bc ee 2d aa 3d
       -0.06113325 -0.10893403 -0.012846898 0.08309542
000120 49 1f a8 3d a4 3d 07 3d c0 b0 af 3d 0a fa 5f 3d
       0.08209092 0.03301777 0.08578634 0.054681815
000130 83 b0 93 3d a0 5f e3 3d ca 2e 15 3d 80 99 de 3d
       0.07211401 0.111022234 0.036421575 0.108691216
000140 57 ce 45 bd d4 95 cd 3d 5b 95 4d bc c9 e0 ca 3d
       -0.048292484 0.10038343 -0.012547816 0.099061556
000150 2b b2 d5 3d 84 c2 4e bb ac 17 0d bc fe be 91 bd
       0.104343735 -0.0031549046 -0.008611601 -0.07116507
000160 8d 4a c9 3c 39 28 80 bd c3 46 61 3d 01 10 45 bd
       0.024571681 -0.06257672 0.054999124 -0.048110966
000170 2b 18 a2 bc 33 2b 72 bd 87 6e c4 3b 44 6c 4e bd
       -0.019786915 -0.05912323 0.005994621 -0.05039622
000180 d7 ee a9 ba 61 df ac 3d ef 88 2e bd 89 c2 ab 3d
       -0.0012964857 0.08441044 -0.04261106 0.08386714
000190 c5 e2 74 bd 19 81 6e 3d 12 6f 0d bd 18 5c ed bc
       -0.059786577 0.058228586 -0.034529753 -0.028974578
0001a0 17 42 d9 3c 40 36 ee 3a 45 46 56 3d 71 23 7e 3c
       0.026520772 0.0018174127 0.052313108 0.01551138
0001b0 5d 8f 36 3d c0 2a 08 bd 04 01 11 bd 42 b3 e3 bc
       0.044570316 -0.033243895 -0.03540136 -0.027795438
0001c0 6e e3 ad 3d f0 e4 83 bd 0c 93 b4 3b d9 d6 ad 3d
       0.084906444 -0.06440151 0.0055106934 0.084882446
0001d0 db 0a 39 3d 29 19 b5 bc 2b f0 a9 bd 8e 92 73 bd
       0.04517637 -0.022106724 -0.082977615 -0.059465937
0001e0 2b 59 f9 bc 20 77 51 3c bd 81 49 3d 1a 7a 52 bc
       -0.030438026 0.012784749 0.049195994 -0.012846494
0001f0 7e f7 7a 3d 64 2f 1a bd c1 82 ae bd 66 81 86 3d
       0.061271183 -0.03764285 -0.08521033 0.065676495

model.4.block.2.weight f4 [128, 128]
000000 3d 44 c0 3c 01 9b 89 3d 6c 40 1e 3c 95 fb 99 bd
       0.023470039 0.06719018 0.009658914 -0.075186886
000010 51 08 82 bd 22 9d d0 3d 57 99 95 3b c9 fa af bd
       -0.063492425 0.10186221 0.0045653987 -0.08592755
000020 a4 d3 47 bc 39 2a b2 3d 88 80 66 3d 4a 3e 05 3d
       -0.012196455 0.086994596 0.05627492 0.032530107
000030 ef 1e 90 bc b3 3c e2 3c d7 12 9c 3d 40 d6 1f 3d
       -0.017592875 0.027616834 0.07620781 0.039022684
000040 ee 4e b0 bd 3a d3 8a 3c 87 b0 30 bd d0 61 d9 3a
       -0.08608805 0.016946424 -0.0431371 0.0016584937
000050 10 20 be 3c 99 39 fa 3b 4d b8 b2 3d e7 1d 31 3c
       0.023208648 0.0076362607 0.08726559 0.010810352
000060 4f cf 68 bd 99 8a c6 3d 84 34 09 3c 6f 2f 43 3d
       -0.05683833 0.09694404 0.008374337 0.047652658
000070 9e 23 7e 3d a8 0f 6a 3d 20 eb a7 3d 70 75 db bd
       0.062045686 0.057143837 0.081991434 -0.10715759
000080 ad e2 98 3d 3f ad 3e 3d 90 71 6e bd 3e c9 4d 3d
       0.0746511 0.04655194 -0.05821377 0.050240748
000090 69 9f ae 38 d4 f6 87 3c e9 c8 2d 3c 5b 78 fb 3c
       8.326659e-05 0.016597189 0.010606983 0.030697038
0000a0 4b ed e2 bc 35 6b d1 3d 24 b0 c3 bd ea 56 85 3c
       -0.02770104 0.10225526 -0.095550805 0.016276795
0000b0 09 a2 a3 3d e0 69 47 bc 43 6e c0 3c 6c 23 a9 bd
       0.0798989 -0.012171239 0.023490077 -0.08258709
0000c0 6b 9c 90 bb 8b 5a e8 3b 27 08 33 bd e6 89 0d 3d
       -0.0044131777 0.0070908717 -0.043708947 0.03455534
0000d0 4d 90 b2 3d 02 b2 21 bd 5d d9 2f bd 0f 12 19 3d
       0.087189294 -0.039476402 -0.042931903 0.037370738
0000e0 db 49 19 3b 31 03 93 bd c8 5d 82 bd 4d 34 b2 3c
       0.0023389969 -0.07178343 -0.063655436 0.021753455
0000f0 c8 a9 be 3a 2d ba 96 bd 08 1e 89 3d 51 7d 9a bc
       0.0014546448 -0.07359729 0.06695181 -0.018858584
000100 76 a3 1f 3d 28 7a 83 bd 2f 0e a8 bd 94 7c ec bc
       0.038974248 -0.06419784 -0.0820583 -0.028867997
000110 91 d4 bf 3b 90 61 b1 3d 9d de 51 3e 83 96 cc bd
       0.0058541973 0.08661187 0.20495076 -0.09989645
000120 5e 51 80 bd 5e bf ba bd b9 70 80 3d 78 07 7c 3d
       -0.062655196 -0.09118532 0.062715 0.06153056
000130 dc 8e 15 bd 7c 53 3d bd 4c 96 21 bd 69 56 96 3b
       -0.036513194 -0.046222195 -0.039449975 0.0045879376
000140 7a 99 86 3d 41 df c0 bd 38 f8 3a bd 00 96 a1 bc
       0.06572242 -0.09417582 -0.045646876 -0.019724846
000150 06 e2 82 bd a9 98 76 bd c4 9f 37 3c 26 3f 71 bd
       -0.06390767 -0.06020418 0.011207525 -0.058898114
000160 27 89 c2 bd 05 12 a5 bc 45 2a 5e 3d 7b 55 6c bd
       -0.09498816 -0.020150194 0.05423953 -0.057698708
000170 3e 3a 0a 3d 7a 49 ac bc c7 87 14 bd a0 0d 92 bd
       0.03374695 -0.02103113 -0.0362623 -0.07131505
000180 8f 0d 77 3b 13 81 9a 3d 58 34 c1 bd 0a 73 a0 3d
       0.003769729 0.0754415 -0.09433812 0.07834442
000190 1b 55 da 3d e3 0c 8c bd cb f7 9f bd 4d b5 94 bd
       0.10660764 -0.068383954 -0.07810935 -0.07261143
0001a0 78 85 c2 bd 5b 48 57 bd 52 58 0b bd 7a 41 49 3d
       -0.094981134 -0.052559238 -0.034019776 0.04913471
0001b0 1d 34 cf bc a2 2d 99 3d 97 2e 02 3d 5b 3f 7d 3d
       -0.025293404 0.07479407 0.031782713 0.061828
0001c0 78 43 2f 3d be 9d 30 bd c7 5e 5c 3d 0d 1d c4 bd
       0.042788953 -0.043119185 0.053801324 -0.095758535
0001d0 95 c9 39 3d 14 fb 08 bd b9 a7 83 3c ba 6e 31 3d
       0.04535826 -0.03344257 0.016071187 0.043318488
0001e0 e9 64 26 bd 43 4e 95 3c 3c 21 ca bc 23 8d af 3d
       -0.04062358 0.018225795 -0.02467405 0.085718416
0001f0 b0 ae 71 3d 34 37 b3 bd f5 35 09 bb 5a df ac 3d
       0.059004486 -0.087507635 -0.0020936702 0.084410384
000200 96 15 b0 3d 72 47 86 bc 59 e3 6d 3d 2c 63 8d bd
       0.08597867 -0.01639149 0.058078144 -0.06903681
000210 f0 45 1f bd 0f 82 9f bd 26 49 9c bd 21 34 9a 3d
       -0.038885057 -0.077884786 -0.076311395 0.07529474
000220 71 bb 4b 3c aa c9 9e 3b 6d 84 87 3d 22 cf 34 bc
       0.012434826 0.0048458176 0.06617055 -0.011035712
000230 7b 66 43 3d 59 db 01 bd 6e 08 7f bd a0 24 45 bc
       0.047705155 -0.031703327 -0.0622639 -0.012032658
000240 26 13 f5 3b ed ca 3b bd 2e 9d 60 3d db 94 96 bd
       0.0074790893 -0.045847822 0.0548374 -0.07352611
000250 0e 7f 5b bd e0 ab 88 bc 73 3d 0b be 96 19 96 bd
       -0.053587966 -0.016683519 -0.1359766 -0.07329099
000260 58 ef 70 bd 66 a7 b9 bd 78 6b 49 bd bc 03 c9 3c
       -0.058822006 -0.09065132 -0.049174756 0.024537914
000270 a9 81 ea bc 8d 6f bc bd dc 97 8c 3d 9e 49 c1 3d
       -0.02862628 -0.09200964 0.068649024 0.094378695
000280 6b fa fc bc 40 7c 90 3d 51 27 5d 3d 4a df 89 3d
       -0.030881127 0.07054949 0.053992573 0.06732042
000290 02 b0 d7 3d c2 25 9e 3d c6 63 ac 3d 8c 73 d3 bd
       0.10531618 0.077220455 0.08417468 -0.10324773
0002a0 c9 78 8c 3d a1 03 dc bd bb 6e 1b 3d 07 16 92 3d
       0.068589754 -0.1074288 0.037947398 0.07133108
0002b0 dd cf fc bc 8c 95 5a bd 06 e1 92 bc 72 38 78 bc
       -0.030860836 -0.053365275 -0.017929565 -0.015150176
0002c0 c6 e1 2c 3d 1a 33 9d 3b bd e9 2c bd f6 8f a6 bd
       0.0422075 0.0047973515 -0.042215098 -0.08132927
0002d0 f9 03 68 3d 35 68 00 3d 2b 33 c3 bc 02 61 11 bd
       0.056644414 0.03134938 -0.02382811 -0.035492904
0002e0 fc dd 2d 39 fa da 04 bd b3 13 8e 3d d1 a6 fb 3c
       0.00016581261 -0.032435395 0.06937351 0.030719193
0002f0 3b 0b cd 3c ae 0f 93 bd 91 da 0c 3d cb ce 82 3c
       0.02502977 -0.07180725 0.03438813 0.015967747
000300 8d 12 55 3c 99 32 80 bd ee a4 74 3d b1 4f a8 3c
       0.013004911 -0.06259651 0.0597276 0.020545812
000310 39 82 45 bd 06 20 83 bc 56 78 63 be 99 aa 66 3d
       -0.048219893 -0.01600648 -0.22213873 0.05631504
000320 fd 79 1d bd a9 95 a8 3d 48 f9 07 bc dd 07 ae 3c
       -0.038446415 0.082316704 -0.008299179 0.021243984
000330 5b 51 bd bc b9 e2 00 3d c7 4a 74 bd 85 44 8d bd
       -0.023110082 0.03146622 -0.059641626 -0.06897835
000340 4b 1f 59 3d ba a6 00 bc 8d 85 be bd 0b ee 85 3c
       0.05300836 -0.007852251 -0.093028165 0.01634886
000350 c0 b4 49 bd 4f 5a 59 bd f5 eb 0f bd f2 ef 0f bc
       -0.049244642 -0.05306464 -0.035137136 -0.008785235
000360 58 dc fb bc da 0f ce 3d 7d f5 f0 3b d4 af 93 3d
       -0.030744717 0.10061617 0.0073534832 0.07211271
000370 76 ea 4d bd 1a c9 ac bd a3 3c 4e bd da 4f 4a bd
       -0.050272427 -0.084367946 -0.050350796 -0.04939256
000380 f1 4e 79 3d 0b 2e c9 3d 38 e8 45 bd ce 06 73 bc
       0.0608663 0.09823235 -0.048317164 -0.014833165
000390 63 d1 be 3b 75 fe 90 3c 47 d4 09 3d 47 f4 bf 3d
       0.0058233007 0.01769946 0.03364971 0.09372764
0003a0 69 84 8a bd 64 5c 9b 3d fe f8 57 bd a9 08 89 3c
       -0.067635365 0.075859815 -0.05272769 0.016727762
0003b0 f8 3d 70 3b 56 22 b7 3d 4d 87 90 3c 31 d4 14 bd
       0.003665803 0.08942096 0.017642641 -0.036335174
0003c0 68 00 75 3d d6 a8 4f 3d 6e 85 92 3d 14 b6 82 3d
       0.05981484 0.050698124 0.07154356 0.06382385
0003d0 70 b5 e4 3c 98 fd 1a 3c 7b ca 04 bb 2c 30 92 bd
       0.027918547 0.0094598755 -0.002026229 -0.07138094
0003e0 31 b9 b2 3d 1c 41 c1 bc aa 04 81 3d a0 da 70 bd
       0.08726729 -0.023590617 0.06299718 -0.058802247
0003f0 c1 2c dc 3c 77 80 00 bc 17 04 53 3b 4b fe 1f 3d
       0.02687681 -0.007843128 0.0032198483 0.039060872
