models_to_eval/gum/dropout/critic.pth (torch_old, 74131 bytes, 17 tensors)

bias f4 [64]
0.16334955 0.7756871 0.086710386 -0.39298823 -0.33677468 0.7440623 -0.041997463 -0.04543158
0.057279006 -0.45108244 0.66806364 0.3662456 2.598417 -0.6205741 -7.3022585 -0.44446665
-0.5943056 -0.36251262 -26.279919 0.85686374 0.01557761 -12.956808 -10.1390085 -0.19759922
-9.428541 -14.004018 -30.086952 -8.199664 0.5325526 3.3502915 -29.9347 0.27083266
0.71059716 0.3338466 0.755216 -29.779415 0.7599753 -36.492455 -9.262277 -8.46618
-26.605606 -9.051524 -0.16302729 -0.2903633 -0.41753867 0.07008118 0.06653906 0.7228339
-0.7304913 -0.19173378 -0.4262068 -38.917576 -0.58899754 0.42238945 -0.45101258 -0.09866557
-30.57791 0.6164077 -0.60353136 -12.144899 -0.65469706 -6.8820906 0.08856274 0.0075747864
00000000: 1b45 273e 6e93 463f 3795 b13d c135 c9be
00000010: bb6d acbe de7a 3e3f 8805 2cbd 7716 3abd
00000020: 649d 6a3d 47f4 e6be 3806 2b3f 8b84 bb3e
00000030: 774c 2640 f2dd 1ebf 1aac e9c0 2291 e3be
00000040: 6924 18bf 419b b9be 463d d2c1 6c5b 5b3f
00000050: 3b39 7f3c 164f 4fc1 6139 22c1 7357 4abe
00000060: 4edb 16c1 7510 60c1 14b2 f0c1 d331 03c1
00000070: 5e55 083f 2d6b 5640 447a efc1 94aa 8a3e
00000080: b2e9 353f f1ed aa3e d655 413f 3e3c eec1
00000090: be8d 423f 46f8 11c2 4932 14c1 7975 07c1
000000a0: 48d8 d4c1 0bd3 10c1 a0f0 26be 80aa 94be
000000b0: a1c7 d5be b986 8f3d a145 883d a40b 393f
000000c0: 7a01 3bbf dc55 44be c737 dabe 99ab 1bc2
000000d0: 8bc8 16bf 6e43 d83e 1feb e6be 2d11 cabd
000000e0: 8f9f f4c1 e5cc 1d3f 0881 1abf 8251 42c1
000000f0: 3a9a 27bf 163a dcc0 6260 b53d ea35 f83b

weight_orig f4 [64, 1]
15.482645 -16.489637 16.316944 16.016333 19.205416 -16.094425 14.992425 15.299031
17.73311 15.719388 -13.462472 -3.0455122 -66.408936 20.430807 -0.32582417 16.15188
20.071007 18.85865 0.26854983 -18.262526 15.999059 -0.32796556 0.2389842 19.532316
-0.3337594 -0.3381243 -0.31239918 -0.28915945 -2.5467916 -0.91278356 0.3321797 -2.8556857
0.9492531 -2.601954 -15.815127 -0.3279296 -15.875287 -0.30893132 -0.28321585 -0.28731644
0.31965467 -0.1820129 18.326681 20.172762 16.376968 15.973513 15.430156 15.779805
20.486023 15.322471 19.938286 0.31622657 17.624163 -6.976061 15.566004 15.465668
-0.29053515 -12.071371 19.759037 -0.329334 19.53485 -0.22415696 16.151783 15.787436
00000000: eab8 7741 c7ea 83c1 1a89 8241 7321 8041
00000010: b1a4 9941 62c1 80c1 f9e0 6f41 d5c8 7441
00000020: 69dd 8d41 9d82 7b41 4966 57c1 ace9 42c0
00000030: 60d1 84c2 4b72 a341 6dd2 a6be 0d37 8141
00000040: 6c91 a041 84de 9641 5d7f 893e a719 92c1
00000050: 25fc 7f41 1aeb a7be 46b8 743e 2f42 9c41
00000060: 83e2 aabe a11e adbe c9f2 9fbe b50c 94be
00000070: a2fe 22c0 2fac 69bf 7513 aa3e 8ec3 36c0
00000080: 4002 733f 6a86 26c0 c30a 7dc1 63e6 a7be
00000090: 2d01 7ec1 3f2c 9ebe ab01 91be 241b 93be
000000a0: c7a9 a33e 9761 3abe 0b9d 9241 d161 a141
000000b0: 0804 8341 8293 7f41 ebe1 7641 157a 7c41
000000c0: 60e3 a341 d728 7541 9c81 9f41 73e8 a13e
000000d0: 49fe 8c41 e43b dfc0 5a0e 7941 6073 7741
000000e0: 06c1 94be 5624 41c1 8212 9e41 779e a8be
000000f0: 5f47 9c41 6789 65be da36 8141 5699 7c41

weight_u f4 [64]
0.12520254 -0.13334572 0.13194922 0.12951829 0.15530723 -0.13014978 0.121238306 0.123717725
0.14340124 0.127117 -0.10886613 -0.024627954 -0.537025 0.16521654 -0.002634822 0.1306144
0.16230696 0.15250307 0.0021716652 -0.14768243 0.12937859 -0.0026521387 0.0019325786 0.15795076
-0.0026989912 -0.0027342888 -0.002526259 -0.0023383277 -0.02059498 -0.00738135 0.0026862167 -0.023092896
0.0076762657 -0.02104106 -0.1278912 -0.0026518477 -0.12837769 -0.0024982158 -0.002290264 -0.002323424
0.0025849314 -0.0014718723 0.14820123 0.16312982 0.1324346 0.12917201 0.12477808 0.12760557
0.16566305 0.12390727 0.1612337 0.0025572097 0.14252022 -0.056412876 0.12587664 0.12506525
-0.0023494526 -0.09761681 0.15978417 -0.0026632047 0.15797125 -0.0018126761 0.13061361 0.12766728
00000000: 1835 003e c88b 08be b21d 073e 71a0 043e
00000010: dc08 1f3e fc45 05be ca4b f83d b85f fd3d
00000020: c6d7 123e f52a 023e 35f5 debd 90c0 c9bc
00000030: 787a 09bf 862e 293e faac 2cbb c8bf 053e
00000040: cc33 263e c429 1c3e 7f52 0e3b 103a 17be
00000050: d27b 043e 81cf 2dbb 944e fd3a d8bd 213e
00000060: 8fe1 30bb c131 33bb 988f 25bb a13e 19bb
00000070: ceb6 a8bc 40df f1bb 3d0b 303b 502d bdbc
00000080: 2f89 fb3b 4d5e acbc e9f5 02be 9fca 2dbb
00000090: 7175 03be 1bb9 23bb 4118 16bb 9644 18bb
000000a0: f467 293b d7eb c0ba 10c2 173e 810b 273e
000000b0: f09c 073e ab45 043e a68b ff3d 09ab 023e
000000c0: 93a3 293e 18c3 fd3d 721a 253e dc96 273b
000000d0: d2f0 113e 3011 67bd cee5 003e 1b11 003e
000000e0: 46f9 19bb 52eb c7bd 769e 233e 2989 2ebb
000000f0: 37c3 213e 5197 edba 93bf 053e 36bb 023e

weight f4 [64, 1]
0.12520252 -0.13334571 0.1319492 0.12951826 0.15530722 -0.13014977 0.12123829 0.12371771
0.14340122 0.12711698 -0.10886612 -0.02462795 -0.5370249 0.16521652 -0.0026348217 0.13061439
0.16230693 0.15250306 0.002171665 -0.14768241 0.12937857 -0.0026521382 0.0019325784 0.15795074
-0.002698991 -0.0027342883 -0.0025262586 -0.0023383275 -0.020594979 -0.007381349 0.0026862165 -0.023092892
0.0076762647 -0.021041056 -0.12789118 -0.0026518474 -0.12837768 -0.0024982153 -0.0022902638 -0.0023234237
0.0025849312 -0.0014718722 0.14820121 0.16312979 0.13243459 0.129172 0.12477806 0.12760556
0.16566302 0.12390725 0.16123368 0.0025572095 0.1425202 -0.05641287 0.12587662 0.12506524
-0.002349452 -0.09761679 0.15978415 -0.0026632044 0.15797123 -0.0018126759 0.1306136 0.12766725
00000000: 1735 003e c78b 08be b11d 073e 6fa0 043e
00000010: db08 1f3e fb45 05be c84b f83d b65f fd3d
00000020: c5d7 123e f42a 023e 33f5 debd 8ec0 c9bc
00000030: 777a 09bf 852e 293e f9ac 2cbb c7bf 053e
00000040: ca33 263e c329 1c3e 7e52 0e3b 0f3a 17be
00000050: d17b 043e 7fcf 2dbb 924e fd3a d7bd 213e
00000060: 8ee1 30bb bf31 33bb 968f 25bb a03e 19bb
00000070: cdb6 a8bc 3edf f1bb 3c0b 303b 4e2d bdbc
00000080: 2d89 fb3b 4b5e acbc e8f5 02be 9eca 2dbb
00000090: 7075 03be 19b9 23bb 4018 16bb 9544 18bb
000000a0: f367 293b d6eb c0ba 0fc2 173e 7f0b 273e
000000b0: ef9c 073e aa45 043e a48b ff3d 08ab 023e
000000c0: 91a3 293e 16c3 fd3d 711a 253e db96 273b
000000d0: d1f0 113e 2e11 67bd cde5 003e 1a11 003e
000000e0: 44f9 19bb 50eb c7bd 759e 233e 2889 2ebb
000000f0: 36c3 213e 4f97 edba 92bf 053e 34bb 023e

bias f4 [64]
-0.51133436 1.3655894 0.16572326 0.7779621 2.8556046 -0.75987995 0.51947707 -1.9012619
0.50802326 -1.3167621 -0.80356586 1.7658029 0.4158918 1.769016 0.15186758 -0.42338994
-0.9984695 -0.85193485 0.23395815 0.47380129 1.6165287 1.356046 1.7081361 -0.15964915
0.52297735 0.630496 -0.9085291 1.6417178 -1.166985 0.49751157 0.2735883 0.2819575
1.3101774 0.66859627 1.4600608 -1.140028 1.022325 1.0013391 0.680023 0.48590952
2.4030063 -0.43617207 2.3760824 1.6924752 2.1419857 -0.19829184 1.8941957 -0.38428977
-0.033958007 -0.72298884 1.5383396 1.5145094 -0.60904527 0.09225994 0.36945072 0.22224031
-0.14880705 0.353542 0.821005 -1.2900152 0.54412746 -0.1642383 0.13631375 -0.5775806
00000000: cfe6 02bf a2cb ae3f 5cb3 293e 8628 473f
00000010: 3ac2 3640 7e87 42bf 73fc 043f 8d5c f3bf
00000020: d00d 023f a98b a8bf 7eb6 4dbf d405 e23f
00000030: c5ef d43e 1e6f e23f 2d83 1b3e 91c6 d8be
00000040: b29b 7fbf 6718 5abf ba92 6f3e 1596 f23e
00000050: 6aea ce3f ea92 ad3f 34a4 da3f 117b 23be
00000060: d8e1 053f 3068 213f 5d95 68bf cf23 d23f
00000070: c45f 95bf d6b9 fe3e c413 8c3e bc5c 903e
00000080: e5b3 a73f 2029 2b3f 46e3 ba3f 70ec 91bf
00000090: 8cdb 823f e12b 803f fd15 2e3f 22c9 f83e
000000a0: dbca 1940 f251 dfbe bc11 1840 07a3 d83f
000000b0: 4b16 0940 040d 4bbe 0175 f23f a1c1 c4be
000000c0: 8d17 0bbd cc15 39bf 50e8 c43f 72db c13f
000000d0: 64ea 1bbf c8f2 bc3d a528 bd3e f792 633e
000000e0: e060 18be 7503 b53e 622d 523f 381f a5bf
000000f0: f04b 0b3f 162e 28be d595 0b3e 52dc 13bf

weight_orig f4 [64, 64]
0.15161255 -0.06281496 0.49818125 0.59697324 0.49397913 -2.3601696 0.32350582 0.302739
0.46730497 -0.11249312 2.7805321 22.89786 -30.932869 0.97864383 7.734043 0.8670723
0.48222375 1.1542187 -0.7679135 1.6573327 0.12713331 3.3095093 4.1337137 1.3557004
5.9422483 1.6662269 1.8278426 6.8510017 21.37158 4.874255 2.4518087 9.277156
-2.5581212 24.102522 5.8971076 -1.148588 -1.5831676 0.3741989 5.490453 5.680628
1.6107745 3.352979 -0.23083563 1.0135818 -1.102891 0.2319407 0.43919083 0.4415924
0.19073176 0.4020846 1.2855239 1.73768 0.5309894 36.833744 0.88081235 0.18703575
-1.0337003 13.592353 0.88361704 2.8569138 0.4939153 6.7096124 -0.47899297 0.40540132
-4.059569 -15.943996 -4.509364 -3.1612847 -16.119528 -18.78478 -2.320905 -2.6759002
-9.12331 -4.672049 -18.968298 40.101654 -41.601234 -21.508589 6.463323 -5.338144
-18.470924 -14.174393 -1.7434537 -17.846605 -2.7097766 1.3622601 1.9887866 -16.22952
5.4693155 0.37762812 0.7020207 5.6792417 39.999172 7.166745 3.2782216 18.591345
-1.6216087 41.584553 -5.3093576 -1.8770727 -19.75726 -1.7753962 4.997365 4.293863
2.8070984 2.9303596 -10.386017 -18.554434 -2.15486 -4.143325 -2.698676 -4.04847
-22.29063 -0.8785029 -19.488382 0.28370944 -15.174706 51.455383 -4.558384 -1.1961215
-3.4488347 -16.033579 -18.100485 2.1965134 -17.409 6.418578 -5.783829 -2.5746627
26.24096 25.401838 28.133694 25.478613 39.31792 29.551895 24.711065 24.914686
31.057264 27.44314 30.88412 -54.112934 78.95402 44.267742 -13.231747 30.99834
43.712727 38.845577 -7.1954436 26.347301 26.040688 -10.372227 -11.848286 40.951027
-15.424111 -7.102601 0.85462564 -16.262493 -54.763874 0.40066653 0.9304054 -18.336872
5.3529882 -51.546085 15.429612 -3.3537245 31.60305 -0.81092626 -13.8698845 -16.17793
1.205851 -10.718015 34.75325 43.536037 -204.00974 27.166178 23.132742 27.123104
47.668056 22.545013 44.229748 0.8390313 39.5311 -26.046547 25.766031 22.30566
-4.27189 28.380922 43.346954 -13.979314 41.91498 -17.429064 28.820368 24.760271
26.345112 42.074932 29.252321 28.038652 42.041515 42.76549 26.185186 25.60984
35.122047 26.901306 32.785454 64.30337 -25.440199 47.028976 34.81827 31.636026
45.601997 39.896023 -0.9081445 46.400696 25.737947 16.33996 20.104792 40.215054
32.621162 14.141742 1.064101 32.799885 60.945824 -3.0102298 0.76017445 11.323505
2.6140873 68.35931 38.079216 -1.8601549 38.435642 -0.010620178 29.473768 29.345938
0.5914133 23.550531 36.74525 44.274517 28.481379 26.856941 26.98072 26.967318
47.033024 25.092188 46.356514 0.66526496 41.140957 53.626705 29.299263 23.39915
-1.9595832 28.365442 45.979313 16.882986 43.836483 35.821438 28.194212 24.849958
00000000: 5240 1b3e 21a5 80bd 9d11 ff3e 3dd3 183f
00000010: d5ea fc3e 050d 17c0 8ea2 a53e 9b00 9b3e
00000020: 9942 ef3e cb62 e6bd 3df4 3140 d12e b741
00000030: 8476 f7c1 6788 7a3f 487d f740 73f8 5d3f
00000040: 08e6 f63e 70bd 933f fb95 44bf 7a23 d43f
00000050: 3c2f 023e 00cf 5340 6247 8440 9787 ad3f
00000060: e626 be40 ec46 d53f bff6 e93f 683b db40
00000070: fff8 aa41 e6f9 9b40 6fea 1c40 3b6f 1441
00000080: 42b8 23c0 f7d1 c041 1bb5 bc40 ee04 93bf
00000090: 3ca5 cabf 0097 bf3e cab1 af40 b4c7 b540
000000a0: dc2d ce3f 3597 5640 2d60 6cbe 0cbd 813f
000000b0: 882b 8dbf dd81 6d3e 9fdd e03e 6618 e23e
000000c0: 304f 433e 08de cd3e 0c8c a43f 4c6c de3f
000000d0: ecee 073f c155 1342 eb7c 613f 4d86 3f3e
000000e0: 4b50 84bf 477a 5941 ba34 623f add7 3640
000000f0: 77e2 fc3e 25b5 d640 913e f5be c390 cf3e
00000100: fde7 81c0 9c1a 7fc1 b64c 90c0 7d52 4ac0
00000110: cbf4 80c1 3b47 96c1 b589 14c0 f341 2bc0
00000120: 14f9 11c1 6d81 95c0 13bf 97c1 1868 2042
00000130: aa67 26c2 9711 acc1 8bd3 ce40 13d2 aac0
00000140: 74c4 93c1 50ca 62c1 7e29 dfbf d9c5 8ec1
00000150: fb6c 2dc0 8a5e ae3f 8f90 fe3f 0fd6 81c1
00000160: a204 af40 7958 c13e a1b7 333f 59bc b540
00000170: 27ff 1f42 fa55 e540 62ce 5140 13bb 9441
00000180: e090 cfbf 9556 2642 42e6 a9c0 eb43 f0bf
00000190: de0e 9ec1 2f40 e3bf 6aea 9f40 5367 8940
000001a0: 80a7 3340 038b 3b40 202d 26c1 7b6f 94c1
000001b0: 3ae9 09c0 1e96 84c0 1cb7 2cc0 118d 81c0
000001c0: 3653 b2c1 91e5 60bf 35e8 9bc1 5d42 913e
000001d0: 99cb 72c1 50d2 4d42 48de 91c0 821a 99bf
000001e0: b5b9 5cc0 c544 80c1 cbcd 90c1 ad93 0c40
000001f0: a245 8bc1 fe64 cd40 2115 b9c0 46c7 24c0
00000200: 7ced d141 f736 cb41 ce11 e141 33d4 cb41
00000210: 8d45 1d42 486a ec41 43b0 c541 4751 c741
00000220: 4775 f841 8d8b db41 ae12 f741 a573 58c2
00000230: 75e8 9d42 2b12 3142 3cb5 53c1 9afc f741
00000240: d5d9 2e42 df61 1b42 1341 e6c0 46c7 d241
00000250: 5453 d041 a4f4 25c1 9492 3dc1 dacd 2342
00000260: 29c9 76c1 8248 e3c0 bfc8 5a3f 9619 82c1
00000270: 350e 5bc2 2a24 cd3e 0c2f 6e3f eab1 92c1
00000280: ae4b ab40 312f 4ec2 b1df 7641 6ca3 56c0
00000290: 0cd3 fc41 dd98 4fbf 0ceb 5dc1 676c 81c1
000002a0: 5359 9a3f fd7c 2bc1 5403 0b42 e724 2e42
000002b0: 7e02 4cc3 5554 d941 db0f b941 1efc d841
000002c0: 17ac 3e42 305c b441 43eb 3042 c1ca 563f
000002d0: d91f 1e42 545f d0c1 d520 ce41 fe71 b241
000002e0: 53b3 88c0 210c e341 4863 2d42 45ab 5fc1
000002f0: f1a8 2742 b96e 8bc1 1d90 e641 0915 c641
00000300: cac2 d241 bb4c 2842 c104 ea41 294f e041
00000310: 832a 2842 dd0f 2b42 437b d141 f4e0 cc41
00000320: fa7c 0c42 e035 d741 4e24 0342 539b 8042
00000330: 8785 cbc1 ac1d 3c42 e945 0b42 9516 fd41
00000340: 7268 3642 8795 1f42 287c 68bf 509a 3942
00000350: 51e7 cd41 3db8 8241 9dd6 a041 37dc 2042
00000360: 127c 0242 9344 6241 7634 883f 1533 0342
00000370: 86c8 7342 9ba7 40c0 cb9a 423f 142d 3541
00000380: 354d 2740 f7b7 8842 1e51 1842 8e19 eebf
00000390: 19be 1942 4100 2ebc 47ca eb41 7bc4 ea41
000003a0: dd66 173f 7d67 bc41 23fb 1242 1b19 3142
000003b0: ddd9 e341 04db d641 84d8 d741 11bd d741
000003c0: d121 3c42 cdbc c841 126d 3942 ce4e 2a3f
000003d0: 5790 2442 bf81 5642 e464 ea41 7631 bb41
000003e0: 9fd3 fabf 6dec e241 d1ea 3742 5b10 8741
000003f0: 8f58 2f42 2749 0f42 bf8d e141 b7cc c641

weight_u f4 [64]
8.368053e-05 -0.05037214 0.11807641 0.13021351 -0.22737463 4.8465026e-05 -0.06501482 6.1075654e-05
0.2524501 0.00012549273 6.423314e-05 -0.08663218 0.2568011 -0.033844706 -0.020340163 5.3708467e-05
0.00013527814 0.00020886178 0.13056384 0.2508762 -0.2271985 -0.102561 -0.23963839 1.4019353e-05
0.25322536 -0.031066278 9.350506e-05 -0.053381916 0.0001246835 0.25866282 0.025675124 -0.08483475
-0.051704757 -0.020601526 -0.25384933 2.0089019e-05 -0.05746562 -0.0756967 0.07517402 -0.046042178
-0.05968071 9.854575e-05 -0.046160143 -0.23224762 -0.24826594 8.421819e-05 -0.19860296 -0.00055719004
0.16828488 0.000116878575 -0.07307017 -0.053163167 2.5369149e-05 -0.0014788812 0.07742584 0.021769816
0.18533488 -0.058740128 -0.048104655 9.250594e-05 0.25388914 4.9726426e-05 0.10776621 0.15953502
00000000: a47d af38 0453 4ebd 0bd2 f13d b156 053e
00000010: e5d4 68be ed46 4b38 7d26 85bd be15 8038
00000020: 2441 813e b396 0339 e8b4 8638 366c b1bd
00000030: 6f7b 833e bfa0 0abd 6aa0 a6bc 0745 6138
00000040: 73d9 0d39 e801 5b39 87b2 053e d872 803e
00000050: b9a6 68be 800b d2bd c463 75be aa34 6b37
00000060: c1a6 813e b57e febc 2618 c438 ffa6 5abd
00000070: 79bd 0239 746f 843e a354 d23c d7bd adbd
00000080: 5ec8 53bd 88c4 a8bc 8af8 81be d784 a837
00000090: 1261 6bbd df06 9bbd d6f4 993d b996 3cbd
000000a0: c373 74bd 59aa ce38 6b12 3dbd 52d2 6dbe
000000b0: 6d39 7ebe 4c9e b038 935e 4bbe 6410 12ba
000000c0: df52 2c3e b51c f538 d0a5 95bd 9fc1 59bd
000000d0: d5cf d437 05d7 c1ba 7091 9e3d 9d56 b23c
000000e0: 6dc8 3d3e 7d99 70bd 6309 45bd c0ff c138
000000f0: c2fd 813e 5891 5038 88b4 dc3d 265d 233e

weight_v f4 [64]
0.049481813 0.28798106 0.051286243 0.046381965 0.09849832 0.28928518 0.046300765 0.045638967
0.07042956 0.046933264 0.24699534 0.046479218 0.51095605 0.11807563 -0.0019953996 0.059087664
0.109765805 0.092683785 -0.0005262696 0.30972728 0.04317708 -0.00021526788 -0.0014881593 0.09952552
-0.0027121187 -0.000764339 0.0011991407 -0.00060456054 0.046037544 -0.009131337 0.001822506 0.0967242
0.008289506 0.049588196 0.2682469 0.0015979976 0.27362645 0.002221278 -0.0006756861 -0.0008796398
-0.00046868037 -0.0013399456 0.075789295 0.10922347 0.04181118 0.050991282 0.04928622 0.054800056
0.121559046 0.0350735 0.114271455 0.0005309012 0.09783929 0.1662682 0.05502004 0.03518897
-0.0007760566 0.21777716 0.11155387 -0.0016434331 0.10580985 -0.0020198133 0.057940524 0.040811796
00000000: 71ad 4a3d 4172 933e 8611 523d 04fb 3d3d
00000010: 7db9 c93d 301d 943e dfa5 3d3d edef 3a3d
00000020: 603d 903d 183d 403d 59ec 7c3e fe60 3e3d
00000030: 04ce 023f a3d1 f13d 40c5 02bb e805 723d
00000040: e5cc e03d ffd0 bd3d 5bf5 09ba 9394 9e3e
00000050: 73da 303d 88b9 61b9 570e c3ba 09d4 cb3d
00000060: cdbd 31bb ec5d 48ba 7c2c 9d3a 5f7b 1eba
00000070: dd91 3c3d 9a9b 15bc 27e1 ee3a 5617 c63d
00000080: b5d0 073c fe1c 4b3d a857 893e e773 d13a
00000090: c418 8c3e dc92 113b 8720 31ba a197 66ba
000000a0: 37b9 f5b9 1da1 afba 6b37 9b3d 8eb0 df3d
000000b0: 3342 2b3d 3cdc 503d 59e0 493d 0676 603d
000000c0: f3f3 f83d 3ba9 0f3d 2707 ea3d 2d2c 0b3a
000000d0: f75f c83d 3642 2a3e b25c 613d 4f22 103d
000000e0: 4770 4bba fa00 5f3e 5b76 e43d 7768 d7ba
000000f0: d6b2 d83d d85e 04bb 0b53 6d3d 452a 273d

weight f4 [64, 64]
0.0001241039 -5.1417785e-05 0.00040779103 0.00048865814 0.00040435133 -0.0019319394 0.00026480877 0.0002478099
0.00038251694 -9.208232e-05 0.002276031 0.018743262 -0.025320396 0.0008010783 0.006330775 0.0007097503
0.00039472885 0.0009447967 -0.00062858296 0.0013566255 0.00010406619 0.0027090304 0.003383691 0.0011097215
0.004864084 0.001363906 0.001496198 0.005607953 0.017493911 0.0039898683 0.0020069515 0.0075939046
-0.0020939745 0.01972935 0.004827134 -0.00094018766 -0.001295917 0.0003063041 0.0044942624 0.004649932
0.0013185149 0.002744613 -0.00018895272 0.00082967704 -0.00090278196 0.00018985728 0.00035950384 0.0003614697
0.00015612532 0.00032913018 0.0010522779 0.0014223945 0.00043464647 0.030150613 0.00072099734 0.0001530999
-0.0008461453 0.01112615 0.00072329317 0.002338554 0.0004042991 0.0054922174 -0.00039208427 0.00033184513
-0.003322999 -0.01305111 -0.0036911832 -0.0025876998 -0.013194794 -0.015376462 -0.001899799 -0.0021903836
-0.0074679726 -0.0038243504 -0.015526681 0.032825593 -0.034053087 -0.017606061 0.005290615 -0.0043695886
-0.015119552 -0.011602584 -0.0014271208 -0.014608509 -0.0022181135 0.001115091 0.0016279402 -0.013284829
0.0044769603 0.0003091111 0.00057464576 0.0046487977 0.032741703 0.005866408 0.0026834197 0.015218123
-0.0013273833 0.034039434 -0.0043460256 -0.0015364958 -0.016172493 -0.0014532675 0.0040906407 0.0035147825
0.0022977772 0.002398674 -0.0085015735 -0.015187909 -0.0017638813 -0.003391558 -0.002209027 -0.003313914
-0.01824621 -0.00071910693 -0.0159524 0.00023223307 -0.012421401 0.042119294 -0.0037313087 -0.0009790966
-0.0028230767 -0.013124439 -0.014816325 0.001797977 -0.014250304 0.0052539883 -0.0047344086 -0.0021075148
0.021479787 0.020792918 0.023029104 0.020855762 0.03218406 0.024189986 0.020227479 0.020394154
0.025422221 0.022463845 0.025280492 -0.04429466 0.064628564 0.036235783 -0.010830972 0.025373988
0.03578147 0.03179742 -0.005889899 0.021566836 0.021315854 -0.008490285 -0.009698528 0.033520855
-0.012625554 -0.005813902 0.00069956196 -0.013311819 -0.04482749 0.00032796944 0.00076159224 -0.015009822
0.0043817395 -0.04219354 0.012630057 -0.0027452232 0.025868978 -0.00066379143 -0.011353327 -0.0132426
0.0009870608 -0.008773333 0.028447606 0.03563684 -0.16699412 0.022237135 0.018935528 0.022201875
0.039019145 0.018454436 0.036204685 0.0006867971 0.03235856 -0.02132065 0.02109103 0.018258512
-0.0034967966 0.023231475 0.035482064 -0.011442901 0.03430991 -0.014266727 0.023591187 0.020267757
0.021565042 0.034440838 0.023944767 0.022951307 0.034413483 0.035006102 0.021434134 0.020963179
0.028749488 0.022020321 0.026836846 0.052636135 -0.020824319 0.038496017 0.028500829 0.025895972
0.037327953 0.03265727 -0.0007433703 0.037981734 0.021068042 0.01337523 0.01645697 0.032918416
0.026702365 0.011575858 0.00087103003 0.026848659 0.049887788 -0.0024640523 0.00062224804 0.009268964
0.0021397863 0.055956163 0.031170106 -0.0015226476 0.03146186 -8.693248e-06 0.024126034 0.024021398
0.00048410703 0.019277513 0.030078176 0.03624133 0.023313705 0.021984005 0.022085326 0.022074355
0.038499333 0.02053945 0.03794557 0.000544559 0.033676323 0.043896653 0.023983192 0.019153599
-0.0016040355 0.023218803 0.037636805 0.01381973 0.03588277 0.02932198 0.02307864 0.020341171
00000000: e321 0239 6da9 57b8 c9cc d539 4b19 003a
00000010: 1eff d339 2139 fdba 08d6 8a39 7bec 8139
00000020: 8e8c c839 521c c1b8 7729 153b 788b 993c
00000030: b86c cfbc 74ff 513a 6472 cf3b 890e 3a3a
00000040: 9cf3 ce39 3cac 773a 7dc7 24ba ccd0 b13a
00000050: 1c3e da38 fd89 313b eac0 5d3b 1374 913a
00000060: e562 9f3b 17c5 b23a 131c c43a ebc2 b73b
00000070: 644f 8f3c 71bd 823b 0f87 033b 4ad6 f83b
00000080: 103b 09bb 729f a13c ef2c 9e3b ed76 76ba
00000090: c2db a9ba 7197 a039 9b44 933b 755e 983b
000000a0: 05d2 ac3a f7de 333b 9c21 46b9 af7e 593a
000000b0: aca8 6cba 6d14 4739 ca7b bc39 a483 bd39
000000c0: 92b5 2339 1b8f ac39 96ec 893a a46f ba3a
000000d0: 43e1 e339 6bfe f63c 5001 3d3a 7189 2039
000000e0: dacf 5dba 754a 363c 629b 3d3a 6d42 193b
000000f0: 1bf8 d339 0ff8 b33b a990 cdb9 80fb ad39
00000100: acc6 59bb 53d4 55bc c7e7 71bb 6696 29bb
00000110: fa2e 58bc 8eed 7bbc ad02 f9ba 8a8c 0fbb
00000120: e5b5 f4bb f4a1 7abb 9f63 7ebc 2174 063d
00000130: 407b 0bbd 963a 90bc e55c ad3b c42e 8fbb
00000140: ffb7 77bc c418 3ebc 3a0e bbba 8758 6fbc
00000150: c55d 11bb 3f28 923a 9c60 d53a 9da8 59bc
00000160: 77b3 923b 3110 a239 d3a3 163a f154 983b
00000170: 2a1c 063d ff3a c03b 50dc 2f3b 6f55 793c
00000180: 98fb adba ef6c 0b3d 1b69 8ebb 3e64 c9ba
00000190: 2d7c 84bc 917b beba c80a 863b 4458 663b
000001a0: 4e96 163b 1233 1d3b 2f4a 0bbc b5d6 78bc
000001b0: 0932 e7ba e744 5ebb 53c5 10bb 402e 59bb
000001c0: 1379 95bc 7382 3cba 9cae 82bc 9783 7339
000001d0: 2283 4bbc 4885 2c3d f988 74bb 0855 80ba
000001e0: 5e03 39bb e307 57bc 2cc0 72bc 19aa eb3a
000001f0: 1b7a 69bc a629 ac3b 1923 9bbb 3b1e 0abb
00000200: 61f6 af3c e955 aa3c 88a7 bc3c b4d9 aa3c
00000210: 6fd3 033d 142a c63c 19b4 a53c a411 a73c
00000220: 4342 d03c 1906 b83c 0919 cf3c 516e 35bd
00000230: fb5b 843d f96b 143d 6474 31bc 1cdd cf3c
00000240: 978f 123d 033e 023d 0e00 c1bb efac b03c
00000250: 969e ae3c d61a 0bbc 93e6 1ebc 2a4d 093d
00000260: 69db 4ebc 8b82 bebb cf62 373a d119 5abc
00000270: 089d 37bd 50f3 ab39 97a5 473a c2eb 75bc
00000280: b294 8f3b 22d3 2cbd 4cee 4e3c 34e9 33bb
00000290: 2eeb d33c 4a02 2eba 4e03 3abc 7df7 58bc
000002a0: 4460 813a 07be 0fbc f40a e93c eff7 113d
000002b0: 8200 2bbe a72a b63c ae1e 9b3c b5e0 b53c
000002c0: 8ad2 1f3d c22d 973c 5d4b 143d 2c0a 343a
000002d0: 698a 043d a5a8 aebc 19c7 ac3c e092 953c
000002e0: 832a 65bb ef4f be3c a455 113d 017b 3bbc
000002f0: 8c88 0c3d fdbe 69bc 4e42 c13c 9108 a63c
00000300: 2ca9 b03c d611 0d3d d127 c43c 6104 bc3c
00000310: 27f5 0c3d 8f62 0f3d a396 af3c f9ba ab3c
00000320: 0c84 eb3c f663 b43c f2d8 db3c fd98 573d
00000330: c397 aabc 00ae 1d3d 927a e93c ca23 d43c
00000340: 32e5 183d a1c3 053d bdde 42ba bc92 1b3d
00000350: e396 ac3c c823 5b3c c4d0 863c 76d5 063d
00000360: ebbe da3c aba8 3d3c d655 643a b8f1 db3c
00000370: 2357 4c3d f07b 21bb 5c1e 233a dadc 173c
00000380: a83b 0c3b 4a32 653d 7358 ff3c 9393 c7ba
00000390: 27de 003d 37d9 11b7 f6a3 c53c 86c8 c43c
000003a0: bfcf fd39 e0eb 9d3c 8266 f63c ca71 143d
000003b0: 62fc be3c cd17 b43c 49ec b43c 47d5 b43c
000003c0: 7ab1 1d3d 5942 a83c d06c 1b3d bcc0 0e3a
000003d0: 2ff0 093d facc 333d 6678 c43c 02e8 9c3c
000003e0: 803e d2ba 5c35 be3c 0d29 1a3d 266c 623c
000003f0: d0f9 123d a634 f03c 6b0f bd3c 87a2 a63c

bias f4 [64]
1.8319103 2.4396021 0.5965486 0.25818142 1.9459269 0.22104947 3.5498881 1.7636083
0.076471776 0.3324871 0.52075106 0.9159367 1.1226982 1.0032688 0.70003384 1.0791763
0.99600387 0.89835846 0.43790212 0.3927477 0.45592323 0.7371641 0.38882858 0.40434048
0.22155882 1.0757172 1.216286 1.2542042 1.1001328 0.9574398 0.34947 0.9070705
0.66831803 1.0217416 0.38248566 0.5336891 0.4767664 1.5181751 0.6667003 0.6069001
0.9770807 0.9606617 1.8356484 2.0676973 1.3114723 0.54914105 0.0659167 0.7006586
1.031749 0.8150344 0.5476398 1.0601121 1.0906059 0.4575619 0.96514094 0.5543081
0.5224977 0.42101514 0.9283882 0.8542655 1.3186787 0.8468583 0.7225886 1.0005721
00000000: 097c ea3f 7122 1c40 69b7 183f 5b30 843e
00000010: 2214 f93f cb5a 623e 5e31 6340 ebbd e13f
00000020: 3c9d 9c3d c03b aa3e f14f 053f d47a 6a3f
00000030: 93b4 8f3f 1d6b 803f 6b35 333f 7322 8a3f
00000040: 1cfa 7e3f d2fa 653f b534 e03e 3a16 c93e
00000050: c56e e93e c9b6 3c3f 8a14 c73e b705 cf3e
00000060: 51e0 623e 1ab1 893f 42af 9b3f c389 a03f
00000070: 27d1 8c3f c61a 753f bbed b23e c635 683f
00000080: e416 2b3f 6ec8 823f 29d5 c33e d99f 083f
00000090: ba1a f43e 9053 c23f dfac 2a3f ce5d 1b3f
000000a0: f621 7a3f eded 753f 87f6 ea3f 2755 0440
000000b0: 53de a73f 8294 0c3f 56ff 863d 5d5e 333f
000000c0: 5a10 843f 18a6 503f 1f32 0c3f c1b1 873f
000000d0: f998 8b3f 8e45 ea3e 7a13 773f 23e7 0d3f
000000e0: 69c2 053f 4c8f d73e d9aa 6d3f 25b1 5a3f
000000f0: 77ca a83f b5cb 583f 91fb 383f bf12 803f

weight_orig f4 [64, 64]
2.1765497 2.7929187 -8.325769 -8.626096 14.038846 0.08980166 4.149913 2.3624392
-18.91201 2.668342 -0.73889947 6.065089 -18.447826 0.8278137 2.133103 1.2651086
2.3735614 1.1338332 -9.432003 -17.903671 12.2542715 5.1759396 14.443008 0.08367037
-18.03609 0.58039385 4.747211 1.8641453 2.908379 -18.51246 1.2425457 5.5984306
4.1363254 3.2857282 16.784779 2.03256 4.4268403 4.894286 -2.2085786 -2.5297728
3.5498922 -0.46164018 2.399752 12.043858 15.587798 1.7651587 9.822536 0.6719384
-10.009391 0.9569788 5.1858187 2.8635445 2.290831 0.2988622 -2.0753663 -0.6800091
-8.983215 4.0550766 3.5979784 2.1752763 -18.2371 2.8362277 -4.135074 -6.779269
1.3287698 5.375094 -9.214166 -6.8181863 15.022999 0.703697 4.764054 -0.36227176
-19.198727 2.5110219 -0.77196544 7.732405 -19.706385 2.1355872 2.2654874 0.3746461
1.1753612 1.6766473 -7.1168556 -18.93728 13.447532 6.785242 15.279167 1.0870672
-19.144344 2.4269829 0.10150295 4.360259 5.1954165 -19.788406 -0.31712317 5.909574
5.6194606 -0.15253063 17.044727 1.6836916 4.5713124 5.730062 -5.22044 0.79532826
3.794062 -1.2661644 5.43555 14.058968 17.488485 1.7916976 11.068981 2.1171365
-9.17326 -0.32914048 5.3445826 4.886545 1.9046807 0.9818116 -3.5008423 -0.06659496
-8.389428 3.3891182 3.813873 0.9752352 -20.111668 2.7864034 -3.4468496 -8.452251
1.4231766 3.1504648 -6.1022024 -6.83252 11.759835 2.377318 2.6311114 1.6710228
-15.748041 0.08429087 -1.0664464 5.35963 -15.826773 2.696143 0.66046774 2.883106
-0.5699581 -2.102166 -6.012967 -15.456412 11.996791 4.1032486 15.807323 1.4714516
-15.975541 1.5322053 0.361507 3.8661308 -2.4229689 -16.691212 -2.0676289 2.5580518
2.2028003 -0.17023656 14.837561 0.74687344 1.2533695 4.420849 -4.4464293 -1.4107987
2.3749716 -2.660195 1.6490067 12.606051 16.342112 -0.76650214 9.117608 0.53947246
-7.2164655 -1.822245 4.2231464 3.6212745 1.7155374 1.3570895 -1.513336 0.8079092
-7.601205 2.6191285 1.6291653 -1.1783588 -15.223686 0.71927655 -3.7828834 -6.997201
0.99355286 -0.38562268 -0.97813386 -4.49288 14.143802 -1.9974141 2.0543475 0.6660039
-11.088773 -2.223759 11.127517 16.780193 -11.374795 1.5824068 -2.1566823 -1.4500204
-2.8319156 -13.186777 0.011400625 -11.284176 2.2189853 7.363703 9.877565 0.03611695
-11.283441 0.27372575 -2.9763303 2.5608068 -4.3855653 -11.040535 -2.0609703 2.0790052
0.05042598 1.3635373 14.2857065 1.6475414 3.7258956 1.5179518 -4.0676236 3.8078718
0.7593769 15.66844 2.215913 0.32200098 12.562542 -0.3735637 17.338821 -2.5283325
-3.3242095 -1.7394875 -0.31970108 7.531506 -1.0935943 -1.4295777 -1.1454632 -0.9135043
0.8962566 1.6908288 -1.1697649 -0.97096497 -11.08095 -6.816299 -5.661432 -0.9623947
00000000: 974c 0b40 2ebf 3240 5a36 05c1 7d04 0ac1
00000010: 1d9f 6041 efe9 b73d 16cc 8440 3432 1740
00000020: cc4b 97c1 1ec6 2a40 8428 3dbf 3615 c240
00000030: 2695 93c1 99eb 533f c284 0840 14ef a13f
00000040: 6ee8 1740 7221 913f 7ce9 16c1 b83a 8fc1
00000050: 7f11 4441 4ca1 a540 9016 6741 5f5b ab3d
00000060: ea49 90c1 b194 143f 27e9 9740 509c ee3f
00000070: e222 3a40 8519 94c1 bd0b 9f3f 5826 b340
00000080: c75c 8440 5f49 5240 3a47 8641 7715 0240
00000090: ada8 8d40 fe9d 9c40 5a59 0dc0 cce7 21c0
000000a0: 6f31 6340 1a5c ecbe 8995 1940 a4b3 4041
000000b0: 9f67 7941 b8f0 e13f 1c29 1d41 2804 2c3f
000000c0: 7726 20c1 90fc 743f 3af2 a540 5044 3740
000000d0: fa9c 1240 7704 993e cdd2 04c0 1415 2ebf
000000e0: 40bb 0fc1 30c3 8140 4745 6640 ba37 0b40
000000f0: 95e5 91c1 c184 3540 8752 84c0 c6ef d8c0
00000100: 2115 aa3f c500 ac40 396d 13c1 952e dac0
00000110: 345e 7041 7d25 343f 2173 9840 af7b b9be
00000120: fe96 99c1 95b4 2040 879f 45bf dd6f f740
00000130: ada6 9dc1 76ad 0840 bffd 1040 9dd1 bf3e
00000140: 3c72 963f 619c d63f 48bd e3c0 8d7f 97c1
00000150: 1729 5741 b420 d940 7877 7441 0525 8b3f
00000160: 9e27 99c1 b053 1b40 c7e0 cf3d 3e87 8b40
00000170: da40 a640 a84e 9ec1 f85d a2be 3b1b bd40
00000180: 9fd2 b340 fd30 1cbe 9a5b 8841 3583 d73f
00000190: 3148 9240 ab5c b740 d80d a7c0 a29a 4b3f
000001a0: e9d1 7240 ad11 a2bf 07f0 ad40 88f1 6041
000001b0: 6be8 8b41 5956 e53f 8c1a 3141 2a7f 0740
000001c0: acc5 12c1 1a85 a8be d206 ab40 945e 9c40
000001d0: 94cc f33f 0158 7b3f cd0d 60c0 f062 88bd
000001e0: 193b 06c1 50e7 5840 7f16 7440 04a9 793f
000001f0: b2e4 a0c1 6f54 3240 2f99 5cc0 6c3c 07c1
00000200: a72a b63f 37a1 4940 3e45 c3c0 01a4 dac0
00000210: 4928 3c41 fa25 1840 2164 2840 13e4 d53f
00000220: faf7 7bc1 b1a0 ac3d 5181 88bf 1782 ab40
00000230: 763a 7dc1 9b8d 2c40 6a14 293f cf84 3840
00000240: c6e8 11bf e389 06c0 3a6a c0c0 774d 77c1
00000250: dbf2 3f41 d04d 8340 ccea 7c41 8758 bc3f
00000260: d19b 7fc1 4e1f c43f 7217 b93e b06e 7740
00000270: ec11 1bc0 9a87 85c1 0854 04c0 1fb7 2340
00000280: aefa 0c40 7e52 2ebe a666 6d41 1933 3f3f
00000290: 696e a03f 9877 8d40 2649 8ec0 0d95 b4bf
000002a0: 89ff 1740 a340 2ac0 a712 d33f 63b2 4941
000002b0: a5bc 8241 7c39 44bf b9e1 1141 de1a 0a3f
000002c0: 49ed e6c0 533f e9bf 0424 8740 f6c2 6740
000002d0: bb96 db3f 1cb5 ad3f feb4 c1bf 23d3 4e3f
000002e0: 123d f3c0 cd9f 2740 7d88 d03f 76d4 96bf
000002f0: 3894 73c1 8222 383f c31a 72c0 12e9 dfc0
00000300: 7b59 7e3f 5670 c5be fb66 7abf acc5 8fc0
00000310: 034d 6241 44ab ffbf 6e7a 0340 3b7f 2a3f
00000320: 9d6b 31c1 1152 0ec0 4f0a 3241 d63d 8641
00000330: 29ff 35c1 4e8c ca3f 1507 0ac0 459a b9bf
00000340: 1b3e 35c0 0afd 52c1 b0c9 3a3c fc8b 34c1
00000350: db03 0e40 74a3 eb40 820a 1e41 5eef 133d
00000360: f988 34c1 c825 8c3e 327c 3ec0 42e4 2340
00000370: 8d56 8cc0 08a6 30c1 f0e6 03c0 6c0e 0540
00000380: 798b 4e3d 6488 ae3f 4192 6441 a3e2 d23f
00000390: 1375 6e40 3f4c c23f f929 82c0 2cb4 7340
000003a0: 8666 423f eeb1 7a41 85d1 0d40 50dd a43e
000003b0: 2c00 4941 be43 bfbe e8b5 8a41 33d0 21c0
000003c0: d9bf 54c0 87a7 debf dcaf a3be 1902 f140
000003d0: e6fa 8bbf 67fc b6bf 8a9e 92bf 6bdb 69bf
000003e0: 1371 653f 146d d83f dbba 95bf 2991 78bf
000003f0: 924b 31c1 1f1f dac0 732a b5c0 805f 76bf

weight_u f4 [64]
0.077534586 0.08187879 0.0670586 0.043543994 0.067518026 0.070649914 0.08853546 0.08354761
0.0726956 0.06422822 0.07062891 0.07693286 0.0737804 0.23057108 0.053019553 0.07285304
0.03871446 0.08193804 0.06747767 0.07587095 0.078388385 -0.19172579 0.07159392 -0.1466095
0.0714762 0.06733948 0.07156843 0.077717066 0.058545828 0.074607626 0.027226089 0.07788597
0.06559247 0.061081655 0.042472538 0.07725857 0.2757645 0.092667244 0.073338166 0.07229888
0.27270755 0.0634897 0.08515036 0.08416638 0.15137066 -0.6297616 0.082184546 0.081112206
0.061300233 0.072667316 0.06851421 0.07186958 0.07576176 0.084751755 0.05748062 0.07376631
0.06824705 0.137744 0.068077646 0.08106484 0.07757322 0.049406473 0.068725795 0.14005919
00000000: 74ca 9e3d 11b0 a73d 0556 893d 305b 323d
00000010: e446 8a3d e7b0 903d 1452 b53d 021b ab3d
00000020: 6ee1 943d 168a 833d e4a5 903d fa8e 9d3d
00000030: 2e1a 973d d31a 6c3e 082b 593d fa33 953d
00000040: 0e93 1e3d 22cf a73d bc31 8a3d 3b62 9b3d
00000050: 178a a03d c453 44be d59f 923d cd20 16be
00000060: 1d62 923d 48e9 893d 7892 923d 202a 9f3d
00000070: c0cd 6f3d e2cb 983d 3f09 df3c ae82 9f3d
00000080: 5855 863d c230 7a3d aff7 2d3d be39 9e3d
00000090: 0131 8d3e 53c8 bd3d 5232 963d 6f11 943d
000000a0: 53a0 8b3e e306 823d 5063 ae3d 6c5f ac3d
000000b0: e900 1b3e 0e38 21bf 5f50 a83d 281e a63d
000000c0: f415 7b3d 9ad2 943d 2e51 8c3d 5c30 933d
000000d0: fb28 9b3d 5492 ad3d cc70 6b3d cb12 973d
000000e0: 1cc5 8b3d c30c 0d3e 4b6c 8b3d 5305 a63d
000000f0: b5de 9e3d 715e 4a3d 1cc0 8c3d ad6b 0f3e

weight_v f4 [64]
-0.0007546448 0.022341024 -0.055706445 -0.06233769 -0.07992953 -0.0007114793 0.033790275 0.00029639687
-0.15324177 0.00080683373 0.00047554934 0.052336328 -0.15182826 0.015297904 0.011120539 0.0004987797
0.001996819 0.0006518443 -0.065348424 -0.14552306 -0.1402612 0.058007322 -0.00073042326 -0.00096263073
-0.15123226 0.015660817 0.0009562364 0.025065973 0.0048219315 -0.15500385 -0.010752362 0.04889173
0.023663232 0.009123108 0.7782655 0.0006734263 0.028664235 0.037901282 -0.03561398 0.025020333
0.030503029 0.0012383142 0.02218475 0.3810722 -0.12359564 0.0009963543 -0.12457874 0.0011992095
-0.07017957 0.000343936 0.040672585 0.022954479 -0.0010628952 0.0002758861 -0.041225243 -0.006943001
-0.082164414 0.0345989 0.024777604 -0.0010445057 -0.15174535 0.0016616291 -0.054050688 -0.07248363
00000000: 5bd3 45ba 8604 b73c 712c 64bd ce55 7fbd
00000010: 18b2 a3bd 9182 3aba ac67 0a3d b765 9b39
00000020: 69eb 1cbe b281 533a 2753 f939 9e5e 563d
00000030: de78 1bbe 0fa4 7a3c ec32 363c 8ac0 023a
00000040: 10dd 023b 88e0 2a3a 65d5 85bd ff03 15be
00000050: a2a0 0fbe 1699 6d3d e079 3fba 0e59 7cba
00000060: a1dc 1abe 1d4b 803c f0ab 7a3a 2857 cd3c
00000070: 4b01 9e3b 54b9 1ebe ad2a 30bc b242 483d
00000080: 65d9 c13c 1779 153c 683c 473f e088 303a
00000090: 42d1 ea3c 603e 1b3d f7df 11bd 71f7 cc3c
000000a0: 7de1 f93c ee4e a23a cbbc b53c e51b c33e
000000b0: b61f fdbd 1a98 823a 2323 ffbd cb2e 9d3a
000000c0: 4eba 8fbd 4f52 b439 4c98 263d 080b bc3c
000000d0: d850 8bba cea4 9039 cddb 28bd 1d82 e3bb
000000e0: d145 a8bd 93b7 0d3d 67fa ca3c cce7 88ba
000000f0: 2263 1bbe 05cb d93a 4164 5dbd 4c72 94bd

weight f4 [64, 64]
0.0048903027 0.0062751696 -0.018706458 -0.019381234 0.03154268 0.00020176766 0.009324083 0.005307962
-0.042491775 0.005995269 -0.0016601699 0.013627129 -0.04144884 0.0018599436 0.004792686 0.002842464
0.0053329514 0.0025475125 -0.021191958 -0.040226225 0.027533073 0.011629375 0.032450758 0.00018799178
-0.040523745 0.0013040372 0.010666101 0.004188388 0.0065345876 -0.041594062 0.0027917696 0.012578634
0.009293555 0.0073824213 0.03771228 0.004566785 0.009946288 0.010996552 -0.004962266 -0.0056839297
0.007975948 -0.0010372198 0.005391797 0.027060311 0.03502289 0.0039659836 0.022069415 0.0015097208
-0.022489242 0.0021501537 0.011651572 0.0064338525 0.005147072 0.0006714878 -0.0046629626 -0.0015278542
-0.020183617 0.009111004 0.008083989 0.0048874416 -0.040975377 0.006372477 -0.009290744 -0.015231759
0.0029854989 0.012076838 -0.020702519 -0.015319198 0.033753887 0.0015810765 0.010703945 -0.00081395736
-0.043135975 0.0056418 -0.001734463 0.017373279 -0.044276588 0.004798268 0.0050901296 0.0008417602
0.0026408182 0.003767115 -0.015990254 -0.042548552 0.030214107 0.015245179 0.03432945 0.0024424382
-0.043013785 0.00545298 0.00022805827 0.009796692 0.011673136 -0.044460874 -0.0007125169 0.013277715
0.012625884 -0.000342708 0.03829634 0.0037829424 0.01027089 0.012874385 -0.011729359 0.0017869549
0.008524552 -0.0028448363 0.012212672 0.031587888 0.03929338 0.004025612 0.024869945 0.0047568125
-0.02061061 -0.00073951756 0.012008284 0.01097916 0.004279464 0.0022059483 -0.007865743 -0.0001496265
-0.018849486 0.007614719 0.008569065 0.0021911724 -0.045187183 0.006260531 -0.007744431 -0.01899064
0.0031976136 0.0070785093 -0.013710516 -0.0153514035 0.026422165 0.005341392 0.0059116185 0.0037544777
-0.035382923 0.00018938593 -0.002396107 0.012042093 -0.03555982 0.0060577323 0.0014839483 0.006477804
-0.00128059 -0.0047231764 -0.01351002 -0.03472769 0.026954561 0.009219238 0.03551612 0.0033060785
-0.035894074 0.0034425808 0.0008122391 0.008686478 -0.005443961 -0.037502054 -0.004645578 0.0057474673
0.0049492833 -0.00038248993 0.033337243 0.0016780859 0.0028160883 0.009932826 -0.009990301 -0.0031698025
0.0053361203 -0.0059769643 0.003705012 0.028323457 0.03671769 -0.001722188 0.020485573 0.0012120944
-0.016214058 -0.0040942463 0.009488625 0.008136331 0.003854494 0.003049128 -0.003400185 0.0018152219
-0.017078497 0.0058846953 0.0036604318 -0.0026475533 -0.034204796 0.0016160808 -0.008499436 -0.01572141
0.0022323288 -0.00086642255 -0.0021976852 -0.010094667 0.031778496 -0.0044878186 0.004615737 0.0014963871
-0.024914414 -0.0049963733 0.025001464 0.03770198 -0.025557052 0.003555374 -0.0048456644 -0.0032579266
-0.0063627884 -0.02962824 2.5615087e-05 -0.025353447 0.0049856477 0.016544873 0.022193056 8.114808e-05
-0.025351796 0.0006150109 -0.006687261 0.0057536573 -0.00985355 -0.024806032 -0.0046306173 0.0046711387
0.000113297814 0.0030636152 0.03209733 0.0037017195 0.008371395 0.003410556 -0.009139195 0.008555581
0.0017061788 0.035204075 0.0049787452 0.0007234764 0.0282257 -0.0008393283 0.03895711 -0.0056806933
-0.007468881 -0.0039083054 -0.00071830896 0.016921895 -0.0024571032 -0.0032119956 -0.002573643 -0.0020524745
0.0020137222 0.0037989782 -0.0026282445 -0.002181578 -0.024896836 -0.015314958 -0.012720185 -0.0021623222
00000000: d53e a03b f09f cd3b 493e 99bc 65c5 9ebc
00000010: e632 013d 9891 5339 0ac4 183c 6aee ad3b
00000020: db0b 2ebd f673 c43b 0f9a d9ba 5244 5f3c
00000030: 42c6 29bd 5ac9 f33a f70b 9d3b a248 3a3b
00000040: 0ac0 ae3b 2bf4 263b c29a adbc 41c4 24bd
00000050: 0a8d e13c 2289 3e3c 16eb 043d a91f 4539
00000060: 3afc 25bd 3aec aa3a dfc0 2e3c bf3e 893b
00000070: 1820 d63b 895e 2abd 1ff6 363b 9d16 4e3c
00000080: ff43 183c 3de8 f13b 3178 1a3d f8a4 953b
00000090: c1f5 223c e22a 343c 819a a2bb 4240 babb
000000a0: 8dad 023c 52f3 87ba acad b03b 96ad dd3c
000000b0: 2974 0f3d 15f5 813b ebca b43c d3e1 c53a
000000c0: 5c3b b8bc 98e9 0c3b 3ce6 3e3c 11d3 d23b
000000d0: c5a8 a83b c906 303a c4cb 98bb 4842 c8ba
000000e0: 1d58 a5bc 5246 153c b572 043c d526 a03b
000000f0: ccd5 27bd 36d0 d03b 3438 18bc a18e 79bc
00000100: 5ca8 433b eedd 453c 5498 a9bc 60fd 7abc
00000110: 8441 0a3d 203c cf3a 995f 2f3c c15f 55ba
00000120: 59af 30bd d9de b83b ec56 e3ba 6852 8e3c
00000130: 5e5b 35bd ca3a 9d3b 1acb a63b 92a9 5c3a
00000140: 9411 2d3b b4e1 763b fefd 82bc 6447 2ebd
00000150: 9383 f73c eac6 793c 0a9d 0c3d 5011 203b
00000160: 392f 30bd e9ae b23b ed22 6f39 4e82 203c
00000170: ae40 3f3c 9b1c 36bd 33c8 3aba c68a 593c
00000180: ccdc 4e3c 7dad b3b9 9fdc 1c3d 3eeb 773b
00000190: 3c47 283c 16ef 523c 7f2c 40bc 4238 ea3a
000001a0: 90aa 0b3c 6f70 3abb a917 483c 4d62 013d
000001b0: 18f2 203d 48e9 833b 0ebc cb3c 09df 9b3b
000001c0: 95d7 a8bc 2fdc 41ba 65be 443c efe1 333c
000001d0: bf3a 8c3b ac91 103b 51df 00bc 0fe5 1cb9
000001e0: 3d6a 9abc e584 f93b 4365 0c3c c699 0f3b
000001f0: 3216 39bd 2425 cd3b ffc4 fdbb 4292 9bbc
00000200: 0e8f 513b d7f2 e73b 12a2 60bc 7484 7bbc
00000210: 4c73 d83c d806 af3b 40b6 c13b af0d 763b
00000220: afed 10bd e695 4639 0108 1dbb 334c 453c
00000230: 2ca7 11bd f17f c63b 0b81 c23a c243 d43b
00000240: 78d9 a7ba e0c4 9abb 2259 5dbc 9f3e 0ebd
00000250: d0cf dc3c 490c 173c 5a79 113d cbaa 583b
00000260: aa05 13bd ec9c 613b 71ec 543a bb51 0e3c
00000270: 4163 b2bb c19b 19bd ef39 98bb 4055 bc3b
00000280: 992d a23b ee88 c8b9 a28c 083d 38f3 db3a
00000290: 1f8e 383b 4bbd 223c 5cae 23bc 76bc 4fbb
000002a0: 9fda ae3b 69da c3bb c9cf 723b 9806 e83c
000002b0: 4a65 163d 0abb e1ba 5cd1 a73c 24df 9e3a
000002c0: 58d3 84bc 0729 86bb 2e76 1b3c 3f4e 053c
000002d0: ae9b 7c3b e1d3 473b a3d5 5ebb bdec ed3a
000002e0: 34e8 8bbc 67d4 c03b dbe3 6f3b 9382 2dbb
000002f0: 541a 0cbd acd2 d33a 3841 0bbc 30ca 80bc
00000300: 434c 123b a220 63ba 0a07 10bb 1a64 25bc
00000310: 2b2a 023d 8d0e 93bb 9c3f 973b 6b22 c43a
00000320: 5019 ccbc 9eb8 a3bb dfcf cc3c 646d 1a3d
00000330: 065d d1bc 4701 693b 61c8 9ebb f082 55bb
00000340: f07e d0bb ecb6 f2bc fbdf d637 08b2 cfbc
00000350: a55e a33b 1d89 873c 36ce b53c 0b2e aa38
00000360: 92ae cfbc af38 213a d020 dbbb 2d89 bc3b
00000370: c970 21bc 0536 cbbc 6fbc 97bb 5a10 993b
00000380: 4d9a ed38 efc6 483b 7d78 033d 8c98 723b
00000390: 2d28 093c a283 5f3b 90bc 15bc b52c 0c3c
000003a0: dca1 df3a 2632 103d be24 a33b aea7 3d3a
000003b0: 9539 e73c 5e06 5cba 7e91 1f3d 1c25 babb
000003c0: 84bd f4bb 3e11 80bb e64c 3cba c99f 8a3c
000003d0: 5a07 21bb 5880 52bb 91aa 28bb cf82 06bb
000003e0: a7f8 033b 47f8 783b a03e 2cbb cef8 0ebb
000003f0: 73f4 cbbc 97eb 7abc 5368 50bc bfb5 0dbb

weight_orig f4 [1, 64]
2.1784024 2.5342994 2.0036044 1.4148722 2.2980888 2.269211 2.9203336 2.8199813
2.1252866 1.8879395 2.4529188 2.432695 2.50755 1.7685839 2.0614495 2.2546067
1.6343812 2.4927676 2.1538389 2.2717316 2.189841 1.7125161 2.1737857 1.379664
2.1250489 1.7447236 2.3169606 2.5264306 2.2516649 2.521875 1.0419462 2.0288084
1.988227 2.0236373 1.4211259 2.6135225 1.903842 2.666368 2.132965 2.0895867
1.9576187 2.0888374 2.8732314 2.2697527 1.4228696 2.1294096 1.6635861 2.4584394
2.684201 2.5913758 2.171459 2.2032607 2.6987581 1.9895669 1.5597018 2.117028
1.952377 1.6822548 1.8976929 2.3650987 2.5569346 1.8561991 2.0838323 1.4636023
00000000: f26a 0b40 f631 2240 0e3b 0040 881a b53f
00000010: e313 1340 c13a 1140 bfe6 3a40 937a 3440
00000020: b204 0840 00a8 f13f 9ffc 1c40 46b1 1b40
00000030: b37b 2040 f560 e23f caee 0340 7a4b 1040
00000040: 6733 d13f 8189 1f40 7fd8 0940 0d64 1140
00000050: 5b26 0c40 ba33 db3f 4e1f 0b40 d498 b03f
00000060: cd00 0840 1a53 df3f 1549 1440 0ab1 2140
00000070: 471b 1040 6666 2140 7e5e 853f ffd7 0140
00000080: 397e fe3f 4683 0140 74e7 b53f f443 2740
00000090: 18b1 f33f c6a5 2a40 8082 0840 cabb 0540
000000a0: 4093 fa3f 83af 0540 06e3 3740 a143 1140
000000b0: 9720 b63f 3f48 0840 64f0 d43f 1257 1d40
000000c0: f3c9 2b40 1ad9 2540 2ff9 0a40 3902 0d40
000000d0: 74b8 2c40 21aa fe3f 4fa4 c73f 637d 0740
000000e0: 7de7 f93f 2054 d73f 9ae7 f23f c75d 1740
000000f0: d1a4 2340 ef97 ed3f 825d 0540 5257 bb3f

weight_v f4 [64]
-0.12591366 -0.14648484 -0.11581018 -0.08178092 -0.13283165 -0.1311625 -0.16879797 -0.16299751
-0.12284353 -0.10912464 -0.14178097 -0.140612 -0.1449387 -0.10222578 -0.119153686 -0.13031834
-0.094468735 -0.14408426 -0.124493875 -0.13130818 -0.12657483 -0.09898501 -0.12564681 -0.079745844
-0.12282978 -0.10084663 -0.13392246 -0.14603002 -0.1301483 -0.14576669 -0.06022545 -0.11726699
-0.114921354 -0.1169681 -0.08214238 -0.15106401 -0.11004382 -0.15411852 -0.12328735 -0.120780036
-0.11315217 -0.120736726 -0.16607542 -0.1311938 -0.082243174 -0.12308183 -0.09615681 -0.14210007
-0.1551493 -0.14978391 -0.12551233 -0.1273505 -0.1559907 -0.1149988 -0.090152204 -0.12236617
-0.11284919 -0.09723588 -0.1096884 -0.13670489 -0.14779317 -0.10729002 -0.12044743 -0.084597565
00000000: 83ef 00be 1f00 16be e32d edbd c17c a7bd
00000010: 0505 08be 764f 06be 60d9 2cbe d2e8 26be
00000020: 6395 fbbd bd7c dfbd 082f 11be 98fc 0fbe
00000030: d06a 14be c05b d1bd d906 f4bd 2c72 05be
00000040: d378 c1bd d38a 13be a5f6 febd a775 06be
00000050: d59c 01be a7b8 cabd 8fa9 00be ca51 a3bd
00000060: 2e8e fbbd ae88 cebd f822 09be e588 15be
00000070: 9945 05be dd43 15be f6ae 76bd ad29 f0bd
00000080: e35b ebbd f98c efbd 443a a8bd 86b0 1abe
00000090: a85e e1bd 3fd1 1dbe 147e fcbd 865b f7bd
000000a0: 53bc e7bd d144 f7bd ad0f 2abe ab57 06be
000000b0: 1c6f a8bd 5412 fcbd dded c4bd ae82 11be
000000c0: 75df 1ebe f460 19be 4e86 00be 2b68 02be
000000d0: 07bc 1fbe 7e84 ebbd b8a1 b8bd 1d9b fabd
000000e0: 7a1d e7bd 9b23 c7bd 50a4 e0bd 5efc 0bbe
000000f0: 1857 17be dfba dbbd 24ad f6bd 7d41 adbd

weight f4 [1, 64]
0.12591366 0.14648484 0.11581018 0.08178092 0.13283165 0.1311625 0.16879797 0.16299751
0.12284353 0.10912464 0.14178097 0.140612 0.1449387 0.10222578 0.119153686 0.13031834
0.094468735 0.14408426 0.124493875 0.13130818 0.12657483 0.09898501 0.12564681 0.079745844
0.12282978 0.10084663 0.13392246 0.14603002 0.1301483 0.14576669 0.06022545 0.11726699
0.114921354 0.1169681 0.08214238 0.15106401 0.11004382 0.15411852 0.12328735 0.120780036
0.11315217 0.120736726 0.16607542 0.1311938 0.082243174 0.12308183 0.09615681 0.14210007
0.1551493 0.14978391 0.12551233 0.1273505 0.1559907 0.1149988 0.090152204 0.12236617
0.11284919 0.09723588 0.1096884 0.13670489 0.14779317 0.10729002 0.12044743 0.084597565
00000000: 83ef 003e 1f00 163e e32d ed3d c17c a73d
00000010: 0505 083e 764f 063e 60d9 2c3e d2e8 263e
00000020: 6395 fb3d bd7c df3d 082f 113e 98fc 0f3e
00000030: d06a 143e c05b d13d d906 f43d 2c72 053e
00000040: d378 c13d d38a 133e a5f6 fe3d a775 063e
00000050: d59c 013e a7b8 ca3d 8fa9 003e ca51 a33d
00000060: 2e8e fb3d ae88 ce3d f822 093e e588 153e
00000070: 9945 053e dd43 153e f6ae 763d ad29 f03d
00000080: e35b eb3d f98c ef3d 443a a83d 86b0 1a3e
00000090: a85e e13d 3fd1 1d3e 147e fc3d 865b f73d
000000a0: 53bc e73d d144 f73d ad0f 2a3e ab57 063e
000000b0: 1c6f a83d 5412 fc3d dded c43d ae82 113e
000000c0: 75df 1e3e f460 193e 4e86 003e 2b68 023e
000000d0: 07bc 1f3e 7e84 eb3d b8a1 b83d 1d9b fa3d
000000e0: 7a1d e73d 9b23 c73d 50a4 e03d 5efc 0b3e
000000f0: 1857 173e dfba db3d 24ad f63d 7d41 ad3d
