wgan_results/unimodal/uniform/generator.pth (torch_old, 285490 bytes, 31 tensors)

weight f4 [128, 5]
0.002593227 0.00375369 -0.0032122317 -0.000778801 -0.003429448 -0.03805465 -0.026906488 -0.053318016
-0.052882247 0.12574993 -0.10186961 0.11687078 -0.12536132 0.04282148 -0.0011083744 -0.23398942
0.23995575 0.41604105 0.026010254 0.122759834 0.011426562 0.00061610364 0.012237678 0.017886866
-0.013338641 -0.1654972 -0.061951786 0.065829515 -0.050534826 0.052630294 -0.124659 0.3172984
0.5080732 0.23538709 0.1515609 -0.1687033 0.27911922 0.553404 0.2517716 0.14607377
0.00012523237 0.02158863 -0.0031451825 0.0033575234 -0.0039006758 0.00034748417 0.01357531 -0.005063377
-0.0015467391 0.0015789676 -0.0058473437 -0.005782821 -0.008879051 -0.005521235 0.0032462128 -0.0019049778
-0.0010864424 -1.2306014e-06 -0.0005466805 0.0029933944 -0.00057161035 0.00069603336 -0.0009287328 0.0006735292
-0.00045291908 -0.006777215 -0.010498503 0.006635869 -0.005066917 0.0013329963 -0.23630959 -0.057170134
0.2763113 -0.025921494 0.16247769 0.033055753 -0.01746573 0.012575821 0.0027237611 0.0075842887
-0.013305271 -0.0053559733 0.0012724425 -0.013341644 -0.016119711 -0.103669785 0.15237355 0.056968287
-0.18318315 0.046796907 -0.08154377 -0.044422008 -0.044527393 -0.06618579 0.054813698 0.39539072
-0.27836987 -0.31320772 0.12922247 -0.13650605 -0.00045189337 -0.001126939 0.00030293758 0.001025952
-4.0296876e-05 0.0037622547 0.00820326 -0.0033804877 -0.0082753105 0.0013844782 0.0013657026 -0.0028648202
0.006937441 -0.005227445 -0.0027309633 0.00376492 8.335308e-05 0.0034345533 -0.0028335361 -0.0013463177
-0.100643955 -0.038853884 -0.023789272 -0.05440222 0.026338512 0.0033660873 0.00010339802 -0.0005552439
9.460581e-05 -0.00233613 -0.023790378 0.22791232 0.3046704 0.36420742 0.032249548 0.009053385
-0.00011397978 0.014772713 0.0047280346 0.003090059 0.019784931 0.0065896194 -0.003289909 7.6656725e-05
0.0049587544 0.011139779 -0.005680716 0.020209063 -0.012490769 -0.020599449 -0.60997075 0.45790792
-0.00053676363 0.021050096 0.11530971 -0.0023581989 -0.0054317075 -0.0002592098 0.0019934217 0.0007484514
-0.0022079612 -0.003937564 -0.0029112764 0.0023754027 0.005547201 -0.008581332 -0.013743337 0.002025971
-0.0028087029 0.0037084788 -0.530078 0.3908235 0.071174145 -0.058161337 0.21081135 -0.6219505
0.38613763 0.013375319 0.078046344 0.100581005 -0.49123532 0.32679972 0.01799903 0.17224492
0.14848869 0.121572345 0.014854678 -0.05688399 -0.033676937 -0.01803117 -0.22533919 0.0031945975
0.03143015 -0.007179264 0.0010846978 0.12332106 0.099903785 -0.13918671 0.1785419 -0.004365016
-0.1523947 0.04978047 0.12505442 -0.372824 -0.088741645 -0.13885476 0.020125406 0.023799697
-0.00609569 -0.016784543 0.008505014 -0.0036757363 -0.011715766 -0.0005002964 0.03945282 -0.065489136
-0.047040503 -0.056775115 -0.063872576 0.08408354 -0.10599003 -0.105283864 -0.02933141 -0.058232587
0.052540146 -0.007887441 -0.009035858 0.001022367 0.012006136 -0.01759678 0.20783448 -0.0583461
0.02036759 0.07371717 -0.06380092 0.0023056741 -0.00019687705 0.0027944308 0.0010482124 -0.0021612681
-0.049678646 0.21166778 0.5335873 0.30195934 0.039803617 0.1603383 -0.31745434 -0.31257224
0.12380489 -0.14733009 -0.2478174 -0.0039282353 -0.0657809 -0.11462601 0.07264114 -0.0026974117
00000000: 21f3 293b 7800 763b 4e84 52bb 7328 4cba
00000010: 97c0 60bb 31df 1bbd ff6a dcbc fe63 5abd
00000020: 0e9b 58bd 97c4 003e 04a1 d0bd f359 ef3d
00000030: b85e 00be 9465 2f3d e046 91ba ec9a 6fbe
00000040: f6b6 753e 5503 d53e 7513 d53c 8269 fb3d
00000050: 7a36 3b3c 0482 213a 8b80 483c 7a87 923c
00000060: 518a 5abc 1978 29be 28c1 7dbd a0d1 863d
00000070: 9bfd 4ebd dd92 573d 384d ffbd f074 a23e
00000080: 1611 023f 5009 713e c832 1b3e 8fc0 2cbe
00000090: b7e8 8e3e e2ab 0d3f 35e8 803e 5d94 153e
000000a0: cf50 0339 a3da b03c 681f 4ebb e509 5c3b
000000b0: 7ba2 7fbb 892e b639 fa6a 5e3c afea a5bb
000000c0: f4bb caba 5cf5 ce3a 139b bfbb d27d bdbb
000000d0: 7079 11bc 7aeb b4bb 6abe 543b 73b0 f9ba
000000e0: f566 8eba 242b a5b5 1b4f 0fba d32c 443b
000000f0: 1fd8 15ba 0276 363a 3476 73ba c88f 303a
00000100: c575 edb9 6613 debb ea01 2cbc b471 d93b
00000110: 6108 a6bb efb7 ae3a 24fb 71be 3b2b 6abd
00000120: ad78 8d3e 5059 d4bc 8d60 263e 7865 073d
00000130: 4a14 8fbc d10a 4e3c 2181 323b a085 f83b
00000140: 5afe 59bc 2981 afbb 16c8 a63a e996 5abc
00000150: 7c0d 84bc d350 d4bd d007 1c3e 9457 693d
00000160: 5d94 3bbe 1dae 3f3d 6c00 a7bd daf3 35bd
00000170: 5b62 36bd 6a8c 87bd 5484 603d a770 ca3e
00000180: 7f86 8ebe c35c a0be e552 043e 3ec8 0bbe
00000190: 1aec ecb9 ccb5 93ba 98d3 9e39 3d79 863a
000001a0: 7104 29b8 2990 763b f766 063c 2c8b 5dbb
000001b0: 2b95 07bc 6177 b53a 6001 b33a b5bf 3bbb
000001c0: 7953 e33b fd4a abbb f6f9 32bb e0bc 763b
000001d0: d8cd ae38 3e16 613b d9b2 39bb ed76 b0ba
000001e0: 6b1e cebd 4025 1fbd b8e1 c2bc ddd4 5ebd
000001f0: ddc3 d73c 9399 5c3b 64d7 d838 ca8d 11ba
00000200: 1c67 c638 c219 19bb 0ae4 c2bc d961 693e
00000210: c2fd 9b3e 6579 ba3e 1a18 043d a654 143c
00000220: 6e08 efb8 4009 723c a1ed 9a3b 9682 4a3b
00000230: 0214 a23c bced d73b 849b 57bb c4c2 a038
00000240: 0c7d a23b 9f83 363c 4d25 babb 7a8d a53c
00000250: 15a6 4cbc 2dc0 a8bc 0b27 1cbf e872 ea3e
00000260: 99b5 0cba 4071 ac3c 7f27 ec3d 038c 1abb
00000270: 77fc b1bb 8de6 87b9 11a4 023b b933 443a
00000280: 71b3 10bb ae06 81bb 1dcb 3ebb a5ac 1b3b
00000290: 4bc5 b53b b798 0cbc bc2b 61bc 27c6 043b
000002a0: 3712 38bb f309 733b 31b3 07bf 051a c83e
000002b0: c0c3 913d 953a 6ebd eede 573e 2638 1fbf
000002c0: d5b3 c53e 2724 5b3c c3d6 9f3d 6afd cd3d
000002d0: 3283 fbbe 4b52 a73e b472 933c f960 303e
000002e0: 6b0d 183e ecfa f83d 0961 733c 30ff 68bd
000002f0: d4f0 09bd 1bb6 93bc 51bf 66be 745c 513b
00000300: e7bc 003d 0840 ebbb 6b2c 8e3a c08f fc3d
00000310: 5b9a cc3d f686 0ebe b0d3 363e 6808 8fbb
00000320: 5b0d 1cbe 9be6 4b3d 440e 003e cae2 bebe
00000330: 2ebe b5bd f12f 0ebe 09de a43c 95f7 c23c
00000340: 5bbe c7bb bd7f 89bc 9d58 0b3c 9fe4 70bb
00000350: 7cf3 3fbc 5326 03ba 4899 213d 2b1f 86bd
00000360: 8bad 40bd 068d 68bd a0cf 82bd fe33 ac3d
00000370: 4d11 d9bd 119f d7bd 6d48 f0bc 4b85 6ebd
00000380: 5634 573d 533a 01bc 230b 14bc f200 863a
00000390: 62b5 443c 1f27 90bc 90d2 543e 52fc 6ebd
000003a0: efd9 a63c 07f9 963d 0faa 82bd cb1a 173b
000003b0: c870 4eb9 c522 373b 2c64 893a 10a4 0dbb
000003c0: d67b 4bbd 70bf 583e 2d99 083f 6a9a 9a3e
000003d0: 1e09 233d b92f 243e 6089 a2be 7809 a0be
000003e0: 6b8d fd3d b3dd 16be d8c3 7dbe 6db8 80bb
000003f0: 23b8 86bd 0bc1 eabd e1c4 943d 0fc7 30bb

bias f4 [128]
4.7413327e-08 1.1921052e-06 -1.6856396e-06 3.578167e-05 4.0256853e-07 -7.893398e-06 -4.920259e-06 -5.568328e-05
-8.4230926e-08 -4.498021e-07 4.475205e-08 -2.5758878e-11 -1.6279355e-09 6.323347e-08 4.647981e-05 -1.6257555e-08
5.3872156e-09 -1.50186925e-05 -3.0249038e-07 -3.155258e-05 -1.1024204e-09 -2.6646707e-10 8.830831e-08 1.5801156e-09
-1.2962114e-08 2.4387447e-08 2.396939e-07 1.571465e-08 -4.8196e-07 2.852119e-07 -6.994928e-05 2.5165674e-09
3.7416035e-09 -2.5051806e-08 -0.000121677855 3.3424883e-05 2.876833e-05 -2.0474967e-08 -3.6591664e-06 1.0478835e-05
5.223208e-06 -4.1873903e-07 8.0286654e-08 9.71542e-07 5.4478636e-07 -2.2993348e-07 -4.0934e-06 -1.4615826e-11
5.518854e-06 1.9846253e-05 -1.4201648e-06 7.587927e-12 3.2163844e-05 -3.4940233e-05 1.0998633e-09 1.5200496e-06
5.484325e-09 -2.0973605e-08 1.1370073e-07 -3.9936744e-08 -6.7276043e-09 -3.847347e-06 -1.8563163e-06 -8.166754e-07
9.002226e-07 1.8956899e-06 -1.4346773e-06 1.7195844e-06 -8.13297e-08 2.73266e-07 -6.818953e-10 -9.845239e-07
-6.600263e-05 -6.636161e-07 -1.1194347e-06 3.2605747e-08 7.291315e-06 2.9494138e-05 -4.0990027e-08 1.5347981e-05
3.7952202e-07 2.609927e-06 -6.737723e-09 -8.4187326e-05 2.3093332e-06 -5.956434e-06 8.1566606e-07 4.3993027e-06
-2.9790343e-08 -4.2847105e-07 2.980015e-05 4.98566e-05 1.3235257e-07 3.4593572e-10 5.700117e-10 3.7026634e-06
-6.8360285e-05 -5.807059e-07 -7.026974e-06 1.3503493e-06 6.2198424e-08 -2.0706037e-10 1.8343894e-08 -3.057837e-05
3.04281e-05 1.986662e-07 -2.4288584e-05 2.972292e-05 -9.979416e-07 -5.0578683e-06 -4.142568e-05 -4.27167e-06
-2.4633238e-07 5.7516537e-08 0.00012456901 3.4078632e-05 4.9576556e-07 3.5724726e-10 4.242526e-07 5.496134e-06
3.2747226e-05 -6.143211e-07 4.904748e-06 -6.760749e-09 -9.063584e-08 -2.167896e-05 1.11498375e-05 -4.9949915e-07
00000000: 81a3 4b33 6c00 a035 233e e2b5 4714 1638
00000010: 9920 d834 e36d 04b7 b418 a5b6 778d 69b8
00000020: 71e2 b4b3 547c f1b4 6635 4033 d693 e2ad
00000030: e3bd dfb0 f8ca 8733 51f3 4238 bea6 8bb2
00000040: 731a b931 cbf8 7bb7 f665 a2b4 5357 04b8
00000050: f883 97b0 e87d 92af 02a4 bd33 602b d930
00000060: fbaf 5eb2 907c d132 47af 8034 e1fc 8632
00000070: 0a60 01b5 3a1f 9934 bcb1 92b8 ecef 2c31
00000080: 7e8f 8031 8131 d7b2 4d2d ffb8 b231 0c38
00000090: 8553 f137 eee0 afb2 0090 75b6 41ce 2f37
000000a0: 0443 af36 0ecf e0b4 0e6a ac33 ee65 8235
000000b0: 6f3d 1235 a2e3 76b4 0a5a 89b6 ea8f 80ad
000000c0: 982e b936 817b a637 7e9c beb5 fc7c 052d
000000d0: aae7 0638 ca8c 12b8 002a 9730 8204 cc35
000000e0: a270 bc31 7229 b4b2 a32b f433 ea86 2bb3
000000f0: a228 e7b1 7618 81b6 8b26 f9b5 8239 5bb5
00000100: d3a6 7135 696f fe35 238f c0b5 78cc e635
00000110: 7aa7 aeb3 65b5 9234 1e70 3bb0 fc23 84b5
00000120: e46a 8ab8 5a23 32b5 7c3f 96b5 660a 0c33
00000130: eba7 f436 2e6a f737 030d 30b3 8abf 8037
00000140: 1cc1 cb34 3426 2f36 a381 e7b1 ba8d b0b8
00000150: 0bfa 1a36 61dd c7b6 25f4 5a35 b99d 9336
00000160: a8e5 ffb2 9d08 e6b4 56fb f937 1e1d 5138
00000170: cc1c 0e34 202e be2f 02af 1c30 467b 7836
00000180: a65c 8fb8 cee1 1bb5 3fc9 ebb6 a63d b535
00000190: f291 8533 50aa 63af a692 9d32 4641 00b8
000001a0: d93f ff37 f350 5534 56bf cbb7 7c55 f937
000001b0: 03f1 85b5 c2b6 a9b6 7cc0 2db8 5e55 8fb6
000001c0: aa3f 84b4 1a08 7733 bd9e 0239 a7ef 0e38
000001d0: c014 0535 1566 c42f d5c4 e334 6e6b b836
000001e0: 115a 0938 d3e7 24b5 7793 a436 2d4c e8b1
000001f0: 94a3 c2b3 36db b5b7 3010 3b37 5215 06b5

weight f4 [128]
0.0012780762 -0.07234196 0.16951601 0.8906212 0.0029115204 0.10478332 0.7726209 0.9175566
0.0063101673 -0.010013141 -0.005632069 -0.0014271593 0.0009412159 -0.0044296635 0.3368293 -0.006045784
0.00102589 0.17453296 -0.05281711 0.60106313 0.0012968852 0.001059691 -0.00078790315 0.0015764388
-0.028031085 -0.0011794987 0.4190879 0.0075818766 -0.006142985 0.0071343463 1.1533833 0.002374942
0.0010340767 7.830061e-05 0.9732762 1.0347091 0.72196716 -0.04794177 0.06297582 0.21820353
0.40294665 0.024469089 0.0019823592 -0.0669366 -0.09835933 -0.005443665 -0.13217165 -0.0007374863
0.7506727 0.5671303 0.17959313 -0.0006298152 0.6944047 0.5350351 -0.00074456556 0.19920814
0.0051219743 -0.0029357837 -0.007655982 0.000617495 0.0019410821 0.5042344 -0.057370327 0.010583853
-0.06829786 -0.13514046 0.2635031 0.32070783 -0.0056663086 0.12472237 -0.00042920763 0.010115293
0.8468589 0.058300037 0.05088335 0.006598705 0.301822 0.7058784 0.0026839727 0.48531228
-0.07964066 -0.07416166 0.005258373 1.1356158 0.3562493 0.19938025 0.194491 0.08082572
-0.0034115976 0.004098385 0.5539199 0.83788943 -0.0037122637 0.00030297303 0.0002717921 0.4598555
0.6164234 -0.0118197305 -0.15057018 0.023394946 0.003713851 0.0011105075 -0.0015103414 0.7178677
0.92414117 0.00431957 0.785906 0.5025038 0.080965996 0.11657757 0.74021685 0.45268476
-0.004630925 -0.0011924406 1.1756829 0.5285371 0.51124585 4.7202426e-05 0.024842665 0.15418793
0.37137103 -0.0029833172 0.41402188 0.0026382047 0.0010229336 0.5276179 0.85222757 0.04286593
00000000: 1f85 a73a 0628 94bd 9b95 2d3e c0ff 633f
00000010: 35cf 3e3b a398 d63d 7cca 453f fde4 6a3f
00000020: 85c5 ce3b 280e 24bc 388d b8bb 850f bbba
00000030: eebb 763a b626 91bb e474 ac3e b61b c6bb
00000040: 2877 863a c5b8 323e c156 58bd 46df 193f
00000050: 3ffc a93a 54e5 8a3a 498b 4eba 82a0 ce3a
00000060: 72a1 e5bc 6999 9aba b092 d63e 6471 f83b
00000070: 184b c9bb 3cc7 e93b 10a2 933f eaa4 1b3b
00000080: db89 873a 5235 a438 a128 793f 5971 843f
00000090: d7d2 383f 975e 44bd 77f9 803d bf70 5f3e
000000a0: 064f ce3e 6673 c83c 78ea 013b 0e16 89bd
000000b0: 9e70 c9bd c660 b2bb 0158 07be de53 41ba
000000c0: 162c 403f 742f 113f 43e7 373e 2f1a 25ba
000000d0: 82c4 313f 0ff8 083f f32e 43ba 38fd 4b3e
000000e0: 3cd6 a73b 4766 40bb 08df fabb 63df 213a
000000f0: e86b fe3a 8115 013f 26fd 6abd e667 2d3c
00000100: c0df 8bbd 4362 0abe e1e9 863e d133 a43e
00000110: 71ac b9bb 716e ff3d 4607 e1b9 9dba 253c
00000120: bfcb 583f 05cc 6e3d 0f6b 503d f339 d83b
00000130: 6a88 9a3e 72b4 343f 97e5 2f3b da7a f83e
00000140: a41a a3bd 12e2 97bd 6e4e ac3b dc5b 913f
00000150: 4f66 b63e 562a 4c3e a628 473e f587 a53d
00000160: 1c95 5fbb bf4b 863b b2cd 0d3f ec7f 563f
00000170: 7349 73bb 5ad8 9e39 517f 8e39 2e72 eb3e
00000180: edcd 1d3f 8ba7 41bc 122f 1abe c2a6 bf3c
00000190: 1564 733b 738e 913a a6f6 c5ba 2dc6 373f
000001a0: 8494 6c3f 2e8b 8d3b 2331 493f 17a4 003f
000001b0: 80d1 a53d 39c0 ee3d da7e 3d3f 4cc6 e73e
000001c0: 04bf 97bb ab4b 9cba c77c 963f 354e 073f
000001d0: 02e1 023f 38fb 4538 d882 cb3c 71e3 1d3e
000001e0: 5824 be3e c283 43bb adfa d33e bbe5 2c3b
000001f0: f513 863a f711 073f 962b 5a3f 2f94 2f3d

bias f4 [128]
0.0034948424 -0.035050485 -0.19171795 0.15961668 0.011045753 0.036606684 0.14939003 0.12915337
0.004237801 0.008516262 -0.0033353257 -0.00558452 -0.0024077345 -0.011117103 0.10693765 -0.03416449
0.007585672 0.036473583 -0.05861274 0.30995974 -0.0011139916 0.0054134983 -0.0056699407 -0.0059972005
-0.09230505 0.0017421894 -0.004333692 -0.0031904683 0.005063873 0.010734654 0.30028734 -0.006580009
-0.008846225 -0.0030706467 0.17599183 0.24645051 0.2587 0.015068315 0.08798352 0.03305444
0.057195272 0.028528854 0.015204523 -0.06261531 -0.02876079 -0.01086735 -0.02714342 -0.0070207547
0.06267221 0.26789445 -0.059875008 -0.004929625 0.27457058 0.16670819 -0.0035909074 0.16873127
0.012520249 0.00086458947 0.011749762 0.014741982 -0.010585565 0.31257695 -0.0684357 0.0071902997
-0.028019458 0.044557646 0.23719727 0.15128773 -0.004082761 -0.089786135 -0.0026271956 0.0038458393
0.13319771 0.0034472714 0.09435408 -0.0104339635 0.1704173 0.14517953 0.018556448 0.134616
-0.041133683 0.02376274 0.0024099385 0.26279533 -0.06275204 0.08454388 -0.0052320114 -0.029719204
0.0063374997 0.0093864435 0.14584264 0.20266195 0.00059213396 -0.0004133181 -0.0020218925 -0.0059764436
0.3815265 -0.0073768185 0.024783269 0.013405425 -0.0020869698 -0.0049924073 -0.00022239261 0.325446
0.18916698 -0.00033907167 0.26030064 0.2503601 0.011119136 0.109437086 0.17758979 0.16580741
0.011921322 0.0043250793 0.24662663 -0.042221498 0.27856013 -0.00097382686 -0.00016900343 0.049898997
0.11893877 0.002279779 0.24644205 -0.008941423 0.0012182329 0.29428837 0.04736843 0.07897845
00000000: ba09 653b 1991 0fbd b651 44be 8e72 233e
00000010: 3ff9 343c e4f0 153d b3f9 183e c840 043e
00000020: 40dd 8a3b cb87 0b3c 7b95 5abb 59fe b6bb
00000030: 15cb 1dbb 8224 36bc 2002 db3d 10f0 0bbd
00000040: 3b91 f83b 5365 153d ea13 70bd 0bb3 9e3e
00000050: 5b03 92ba b763 b13b e9ca b9bb 2a84 c4bb
00000060: 6e0a bdbd 2d5a e43a a501 8ebb 2d17 51bb
00000070: d8ee a53b 67e0 2f3c 43bf 993e 1e9d d7bb
00000080: c2ef 10bc e73c 49bb 3437 343e 865d 7c3e
00000090: 5474 843e 18e1 763c b430 b43d 1864 073d
000000a0: 9745 6a3d 58b5 e93c 641c 793c 753c 80bd
000000b0: c09b ebbc f80c 32bc e15b debc 5c0e e6bb
000000c0: 4a5a 803d 7629 893e 7f3f 75bd b188 a1bb
000000d0: 8494 8c3e 8db5 2a3e 6e55 6bbb e4c7 2c3e
000000e0: bb21 4d3c 9ea5 623a 1382 403c 5b88 713c
000000f0: 146f 2dbc 160a a03e 0428 8cbd 9b9c eb3b
00000100: 1089 e5bc 1482 363d d7e3 723e 2ceb 1a3e
00000110: aec8 85bb cbe1 b7bd 072d 2cbb 7a0a 7c3b
00000120: fb64 083e 9eeb 613b b63c c13d 37f3 2abc
00000130: df81 2e3e f1a9 143e b103 983c c7d8 093e
00000140: cb7b 28bd 14aa c23c 0ff0 1d3b 1c8d 863e
00000150: 2484 80bd 5725 ad3d 4b71 abbb b075 f3bc
00000160: cdaa cf3b 99c9 193c c657 153e 9d86 4f3e
00000170: 7039 1b3a 9eb2 d8b9 ba81 04bb 0bd6 c3bb
00000180: 7157 c33e 3db9 f1bb 4806 cb3c 6da2 5b3c
00000190: 8bc5 08bb 5997 a3bb 1032 69b9 dca0 a63e
000001a0: fdb4 413e 6ec5 b1b9 2046 853e 332f 803e
000001b0: 092d 363c 8d20 e03d 19da 353e 6bc9 293e
000001c0: a651 433c 65b9 8d3b b18b 7c3e 73f0 2cbd
000001d0: 6f9f 8e3e 6a48 7fba 8336 31b9 e462 4c3d
000001e0: 2b96 f33d 5868 153b 4e5b 7c3e 0c7f 12bc
000001f0: 1dad 9f3a f7ac 963e 6605 423d 74bf a13d

running_mean f4 [128]
3.7990714e-05 0.00038912852 0.0008098551 -0.0031902548 -8.690677e-05 -0.0009786369 -0.0036843328 -0.004280503
5.6595673e-05 6.6131324e-05 5.038322e-05 -4.260563e-06 5.6805525e-06 -7.883051e-05 -0.0026192393 -3.1565763e-05
-5.20792e-05 -0.00021297096 0.00012991054 0.0026359882 -5.6446024e-06 5.7188205e-05 -4.7076406e-05 -1.3974266e-05
-9.961691e-05 8.323072e-06 -0.0022805582 -8.812096e-05 9.395384e-05 -0.00012981337 -0.0008768599 -1.6851593e-05
9.112455e-06 -5.929561e-05 -0.0011765012 -0.0010881737 -0.0009544103 0.00081398257 -0.0008503231 0.001376598
-0.0009062415 -0.0005335339 0.0001333332 0.0002815219 -0.00017314094 -7.205651e-05 0.00018927749 -1.901115e-05
-0.0040084925 0.001954308 -3.5783614e-05 -9.732292e-06 -0.0011651053 -0.0011239805 1.5884565e-05 0.001789726
-0.00025483026 4.810475e-05 0.0003319217 0.00023034368 5.9920672e-05 0.0024777194 8.69103e-06 2.8415447e-05
0.00030460107 -0.00115413 0.0022065297 -0.0019615018 -3.0968e-05 0.00012402899 1.8104448e-06 -0.000103707935
-0.0006815416 -0.00056683004 -0.0009409228 -6.343743e-05 0.0020996674 -0.0038774519 -0.00019130853 -0.0013990877
0.0003177184 0.0008439518 1.3405793e-05 -0.0036187097 0.00021725486 0.0015455974 0.0013547069 -0.0003233713
-7.960405e-05 4.4822442e-05 0.0020624166 -0.0035159348 4.6830017e-05 6.8566605e-06 -7.6064214e-07 -0.00018553996
0.0024687229 -9.995006e-05 -0.0011259624 -0.00048191164 -3.5125606e-05 -2.3680926e-05 0.00010073881 0.002842958
-0.0008413539 -4.8971647e-06 -0.0045142197 0.002190774 0.00056593976 -0.00072165416 -0.004152979 -0.0012171782
0.00014942417 -5.8982634e-05 -0.0005660569 -0.0034217238 0.0028300206 3.371264e-06 0.00023026612 0.0012242091
-0.00084032037 -1.063766e-05 0.0024346518 2.4797006e-05 5.0944764e-06 0.0027740004 -0.0038298587 -0.0009508405
00000000: 3858 1f38 f203 cc39 754c 543a 9813 51bb
00000010: b841 b6b8 9b45 80ba d974 71bb 7643 8cbb
00000020: 2461 6d38 fcaf 8a38 9252 5338 f5f5 8eb6
00000030: 939b be36 cf51 a5b8 8ba7 2bbb 7b65 04b8
00000040: 9d6f 5ab8 f550 5fb9 9838 0839 8bc0 2c3b
00000050: c466 bdb6 5edd 6f38 e873 45b8 0473 6ab7
00000060: 6ce9 d0b8 52a3 0b37 6b75 15bb 95cd b8b8
00000070: 1509 c538 831e 08b9 12dd 65ba 855c 8db7
00000080: b2e1 1837 2db4 78b8 d434 9aba 0da1 8eba
00000090: 6431 7aba 7261 553a 38e8 5eba f76e b43a
000000a0: d690 6dba dbdc 0bba 5ccf 0b39 3b99 9339
000000b0: 2b8d 35b9 0b1d 97b8 ca78 4639 227a 9fb7
000000c0: ac59 83bb d913 003b 5d16 16b8 e047 23b7
000000d0: 72b6 98ba 8752 93ba d83f 8537 3d95 ea3a
000000e0: bd9a 85b9 15c4 4938 c705 ae39 6988 7139
000000f0: 5553 7b38 3c61 223b b1cf 1137 b55d ee37
00000100: ddb2 9f39 2d46 97ba 6d9b 103b 8a8c 00bb
00000110: a3e3 01b8 c70d 0239 69fe f235 c67d d9b8
00000120: 7ca9 32ba 5297 14ba 43a8 76ba b609 85b8
00000130: 939a 093b d91c 7ebb fe99 48b9 9861 b7ba
00000140: 7193 a639 a63c 5d3a 71e9 6037 e027 6dbb
00000150: e8ce 6339 a595 ca3a 6c90 b13a 298a a9b9
00000160: 19f1 a6b8 bbff 3b38 9c29 073b 996b 66bb
00000170: 596b 4438 4412 e636 ee2e 4cb5 818d 42b9
00000180: 4cca 213b 489c d1b8 0795 93ba 16a9 fcb9
00000190: d553 13b8 67a6 c6b7 bd43 d338 ec50 3a3b
000001a0: 4e8e 5cba 5352 a4b6 05ec 93bb 1793 0f3b
000001b0: 935b 143a 642d 3dba b615 88bb b989 9fba
000001c0: bfae 1c39 1f64 77b8 6f63 14ba 003f 60bb
000001d0: de77 393b e03d 6236 9773 7139 a475 a03a
000001e0: f248 5cba 6778 32b7 ae8e 1f3b 2a03 d037
000001f0: 38f1 aa36 01cc 353b 5efe 7abb d341 79ba

running_var f4 [128]
4.3227577e-05 0.023874953 0.041512534 0.30404928 0.0007837817 0.0412644 0.45398653 0.4994587
0.0004968432 0.00020823008 0.00018774866 1.5568252e-05 3.0661422e-06 0.00022632876 0.16425154 0.0016533867
0.0006379411 0.0737131 0.018144483 0.37101838 2.2150616e-06 0.00015886877 8.894659e-05 3.8686463e-05
0.016090682 1.5793985e-05 0.27886656 0.00032770264 0.00047339237 0.001146435 0.5960556 4.0180938e-05
6.779873e-05 0.00028840764 0.48866022 0.55276585 0.39979732 0.019860007 0.05209745 0.07675133
0.18864657 0.020692214 0.0017861564 0.021105422 0.029511927 0.00059851655 0.05683267 1.868076e-05
0.4269161 0.2637057 0.08463076 1.37175275e-05 0.4462945 0.20367034 9.221684e-06 0.12805624
0.0013260744 9.746236e-05 0.015370198 0.0017461467 0.00018010353 0.30483314 0.019130848 0.00020803622
0.028119192 0.052274708 0.1532273 0.18483184 0.00015279166 0.056642987 6.0038246e-06 0.00069201674
0.2706355 0.015649991 0.039420478 0.0014432428 0.19055769 0.4261153 0.0016380365 0.1926112
0.026700173 0.021790044 7.917465e-05 0.40068957 0.13932347 0.0893894 0.10435254 0.031612758
0.00014849436 0.00015087136 0.33095357 0.36485702 9.690617e-05 2.062813e-06 1.7801162e-06 0.15202005
0.35025704 0.0012001154 0.0528893 0.0064153373 0.00032787985 4.2545496e-05 0.00036101163 0.4219454
0.31961313 4.567574e-05 0.51490295 0.26957795 0.030041946 0.039136037 0.4875256 0.18576613
0.0015535377 0.00015373094 0.39227778 0.25323713 0.34525773 3.8133996e-06 0.0071614236 0.056664914
0.13983537 6.827625e-05 0.28396413 6.4476495e-05 7.027668e-06 0.31746885 0.465953 0.037673302
00000000: 424f 3538 6895 c33c 0c09 2a3d 59ac 9b3e
00000010: b376 4d3a dc04 293d ec70 e83e 0db9 ff3e
00000020: 953e 023a 5658 5a39 66de 4439 9198 8237
00000030: ecc3 4d36 aa52 6d39 8e31 283e 74b6 d83a
00000040: 813b 273a e5f6 963d bda3 943c 1ff6 bd3e
00000050: 78a6 1436 0396 2639 d688 ba38 4643 2238
00000060: 9bd0 833c 537d 8437 99c7 8e3e 81cf ab39
00000070: a631 f839 fa43 963a 1a97 183f f487 2838
00000080: 2a2f 8e38 6b35 9739 ac31 fa3e 1082 0d3f
00000090: 3cb2 cc3e 74b1 a23c 2364 553d cd2f 9d3d
000000a0: 912c 413e b882 a93c 771d ea3a 47e5 ac3c
000000b0: ffc2 f13c c4e5 1c3a 60c9 683d a0b4 9c37
000000c0: bf94 da3e 6f04 873e e452 ad3d 5524 6637
000000d0: b680 e43e f58e 503e d5b6 1a37 2d21 033e
000000e0: accf ad3a b564 cc38 48d3 7b3c f6de e43a
000000f0: 2cda 3c39 1713 9c3e 4cb8 9c3c 4c24 5a39
00000100: 385a e63c 011e 563d 9ee7 1c3e 8f44 3d3e
00000110: b336 2039 7a02 683d 7674 c936 7568 353a
00000120: bc90 8a3e 6934 803c 5e77 213d 312b bd3a
00000130: 8e21 433e c92b da3e 62b3 d63a df3b 453e
00000140: 52ba da3c 0981 b23c 910a a638 2f27 cd3e
00000150: d0aa 0e3e ca11 b73d c9b6 d53d 617c 013d
00000160: 27b5 1b39 3933 1e39 bf72 a93e 8ace ba3e
00000170: 1b3a cb38 dc6e 0a36 54ec ee35 25ab 1b3e
00000180: e454 b33e 314d 9d3a 73a2 583d c037 d23b
00000190: 4ae7 ab39 e172 3238 2946 bd39 3a09 d83e
000001a0: 55a4 a33e f493 3f38 aed0 033f 1f06 8a3e
000001b0: 871a f63c 1c4d 203d f59c f93e 7a39 3e3e
000001c0: 13a0 cb3a d632 2139 a2d8 c83e 4ca8 813e
000001d0: 9fc5 b03e b5e9 7f36 60aa ea3b 7819 683d
000001e0: 0131 0f3e 882f 8f38 bf63 913e 8e37 8738
000001f0: 35cf eb36 478b a23e 6491 ee3e 524f 1a3d

weight f4 [128, 128]
-0.0013896412 -0.0046802484 0.021535046 -0.19433118 0.00075387553 -0.025620867 -0.02226703 -0.09811951
0.00841271 -0.01123665 0.0031970202 -0.00089121005 0.00027313957 0.0014931447 -0.1462612 0.0008968672
-8.527596e-06 -0.07002277 0.009219678 0.030971091 -9.624857e-05 0.0009852719 0.0022494744 -0.00048892776
0.0023518128 0.0027656502 0.075028926 -0.0009348549 -0.0049358215 -0.014207269 -0.25980398 5.3311778e-05
0.0035306823 0.008886095 -0.16890304 -0.19029233 -0.016731078 -0.008969491 -0.010107577 0.015610779
-0.047762785 0.0080940975 -0.0016035589 0.016118558 0.018917961 0.0011896954 -0.016081724 -3.1562162e-05
0.015508329 0.101682246 0.009510511 0.0003685908 -0.12728249 0.04279282 0.00016429997 0.12999077
0.011364226 -0.0019711056 -0.0012957015 0.0012901339 0.0012556053 0.13270001 0.008200341 0.008622303
-0.0024545474 0.006414924 0.136065 0.08171476 0.0012468328 0.004812756 0.0009208544 -0.0038685303
-0.1794121 0.0040923944 -0.035124842 0.00032648063 0.12565255 -0.15246111 -0.000953023 -0.011233462
-0.0029875664 -0.00065690343 0.0051240455 -0.1870997 -0.116497 0.03441165 0.0711349 -0.0112936385
-0.0008905366 0.0062653674 0.09922303 -0.1103265 -0.0017207873 0.0001435396 9.565729e-06 -0.18417211
0.14819138 0.0017486095 0.019114614 -0.006448039 0.00020583482 -0.00015949349 0.00586309 0.14434348
-0.19365333 0.003588726 -0.2307891 0.09920787 0.009391594 -0.06581661 -0.11273953 0.03431379
0.0018144693 0.0005518043 -0.2506444 -0.07749953 0.12888649 8.4490035e-05 -0.0023040748 0.008089802
-0.055546496 0.0038368634 0.13626084 -0.0008813025 -0.0016234302 0.08158487 -0.04041732 -0.03008649
3.3711116e-05 -0.0005078608 0.0009792721 0.0032811458 -0.0001601822 -0.00091359747 0.0029554588 0.0036428382
-0.000109148845 -2.6779466e-05 -9.5342744e-05 1.2663592e-06 6.503529e-07 9.67862e-05 0.0015180933 4.056138e-05
5.4839482e-05 -0.0015891764 0.00013038718 0.0063506663 1.08699126e-07 2.3187015e-07 5.9751164e-06 -1.9333248e-07
-9.14851e-06 -1.9541403e-05 0.00010028851 -0.0001041857 4.9976552e-05 0.0005406536 -0.007802041 -4.3587588e-07
5.456425e-06 9.724181e-05 -0.005765616 -0.0069924816 -0.0057690567 -0.0009077717 0.00052130653 0.000199648
-0.00034130094 -0.0008246376 1.1705735e-05 -0.00031354697 -0.00054326566 -9.823508e-05 0.00038083363 2.3333994e-06
0.002920801 0.006040846 0.0006824285 -1.2294294e-06 -0.0055727176 0.0030617204 -4.204052e-07 0.0032146545
-0.00021648032 -5.5266773e-05 -0.0001918426 -0.00019377847 -5.701027e-05 0.006060988 0.00014925683 -7.942173e-05
-0.00068182114 0.001157811 0.0042697405 -0.00028403933 1.902757e-05 -0.0005306438 -5.70984e-07 -0.000109039654
-0.0039113024 -0.00095846347 -0.0014740754 -0.00011251226 0.0049029766 0.002995235 9.696513e-05 0.0022149654
-0.00048152875 -0.0015116151 -7.5710827e-06 0.0022504006 -0.0012413026 1.8758898e-05 -0.0008014917 -0.0002769441
7.406029e-05 2.8624438e-05 0.0049657193 0.002866582 -2.5027066e-05 -5.9190803e-09 7.1978814e-09 -0.001025328
0.007036875 0.00016217676 0.001199857 -7.389692e-05 4.35561e-05 -1.1921622e-05 -1.1932269e-05 0.007134111
-0.005472574 -2.1207852e-05 0.0035108111 0.005674591 -0.00019492168 -0.0010070509 0.002561045 0.0014997335
-0.00018816027 -3.6461333e-06 -0.0075645014 0.0037530165 0.006153933 -1.990347e-06 -0.000114710114 0.0010120942
-0.00037048614 1.5751566e-05 0.0058259657 -1.7285074e-06 1.6023594e-05 0.006194082 0.003229615 -0.0013927202
00000000: 9f24 b6ba c55c 99bb 446a b03c c1fe 46be
00000010: bb9f 453a dae2 d1bc 5969 b6bc e2f2 c8bd
00000020: 77d5 093c ed19 38bc 1985 513b 18a0 69ba
00000030: 2c34 8f39 9fb5 c33a 7fc5 15be bd1b 6b3a
00000040: bf11 0fb7 1968 8fbd 220e 173c 16b7 fd3c
00000050: 0fd9 c9b8 3d24 813a eb6b 133b 632b 00ba
00000060: df20 1a3b e93f 353b c4a8 993d 0d11 75ba
00000070: acbc a1bb 9bc5 68bc 0705 85be 169b 5f38
00000080: 0563 673b fc96 113c ebf4 2cbe fedb 42be
00000090: 9d0f 89bc c6f4 12bc 409a 25bc 5ac4 7f3c
000000a0: e9a2 43bd 1b9d 043c 822e d2ba 110b 843c
000000b0: d7f9 9a3c 8eef 9b3a d2bd 83bc 9d61 04b8
000000c0: a516 7e3c c83e d03d f9d1 1b3c 6b3f c139
000000d0: 5756 02be 8647 2f3d f047 2c39 4d1c 053e
000000e0: 0531 3a3c aa2d 01bb 87d4 a9ba b619 a93a
000000f0: 1f93 a43a 83e2 073e b95a 063c 8f44 0d3c
00000100: 79dc 20bb 4834 d23b a054 0b3e 115a a73d
00000110: c46c a33a 53b4 9d3b 7e65 713a 2b87 7dbb
00000120: ceb7 37be 7e19 863b 11df 0fbd 7d2b ab39
00000130: 10ab 003e c41e 1cbe 4ad4 79ba 8e0c 38bc
00000140: 0ccb 43bb 0b34 2cba 9ce7 a73b 1097 3fbe
00000150: fb95 eebd 3bf3 0c3d 2daf 913d f408 39bc
00000160: e672 69ba b64d cd3b 7235 cb3d dcf2 e1bd
00000170: 0a8c e1ba 1e83 1639 7e7c 2037 9d97 3cbe
00000180: 7bbf 173e 9931 e53a 4096 9c3c 124a d3bb
00000190: 5dd5 5739 b53d 27b9 2a1f c03b c7ce 133e
000001a0: 0f4d 46be d530 6b3b fa53 6cbe 7f2d cb3d
000001b0: 33df 193c dcca 86bd fce3 e6bd 9e8c 0c3d
000001c0: 7dd3 ed3a f6a6 103a 7654 80be 13b8 9ebd
000001d0: d2fa 033e 3e30 b138 f6ff 16bb 178b 043c
000001e0: b984 63bd e373 7b3b f687 0b3e 3607 67ba
000001f0: 47c9 d4ba f815 a73d a28c 25bd f177 f6bc
00000200: 0965 0d38 f621 05ba eb5a 803a 7e08 573b
00000210: 95f6 27b9 7d7e 6fba 5fb0 413b afbc 6e3b
00000220: d7e6 e4b8 77a4 e0b7 bff2 c7b8 c5f7 a935
00000230: e993 2e35 b2f9 ca38 c2fa c63a 7320 2a38
00000240: 7203 6638 e94b d0ba 8bb8 0839 4019 d03b
00000250: fa6d e933 fbf7 7834 dc7d c836 d496 4fb4
00000260: 8d7c 19b7 d8ec a3b7 fc51 d238 467e dab8
00000270: ea9d 5138 a6ba 0d3a 43a8 ffbb 5302 eab4
00000280: 5516 b736 4dee cb38 7eed bcbb 3021 e5bb
00000290: 5b0a bdbb 87f7 6dba 4aa8 083a 9a58 5139
000002a0: a3f0 b2b9 7e2c 58ba c063 4437 9063 a4b9
000002b0: f169 0eba 8f03 ceb8 a0aa c739 7f97 1c36
000002c0: e96a 3f3b 4af2 c53b 00e5 323a df02 a5b5
000002d0: 589b b6bb 25a7 483b 0db4 e1b4 f4ac 523b
000002e0: fefe 62b9 3fce 67b8 5b29 49b9 0331 4bb9
000002f0: 501e 6fb8 419b c63b d381 1c39 378f a6b8
00000300: 3ebc 32ba b1c1 973a 2ee9 8b3b 1deb 94b9
00000310: 659d 9f37 e71a 0bba b945 19b5 38ac e4b8
00000320: 622a 80bb 6541 7bba c335 c1ba 8ff4 ebb8
00000330: 26a9 a03b b44b 443b c259 cb38 f428 113b
00000340: b275 fcb9 6321 c6ba 1b0b feb6 757b 133b
00000350: 34b3 a2ba 6d5c 9d37 331b 52ba cf32 91b9
00000360: d150 9b38 831e f037 79b7 a23b 44dd 3b3b
00000370: 37f1 d1b7 c860 cbb1 3c51 f731 4c64 86ba
00000380: 9695 e63b fe0d 2a39 8544 9d3a 1bf9 9ab8
00000390: 02b0 3638 fa02 48b7 b530 48b7 43c5 e93b
000003a0: 4753 b3bb 84e7 b1b7 a315 663b ebf1 b93b
000003b0: e463 4cb9 05ff 83ba 35d7 273b b592 c43a
000003c0: e34c 45b9 18b0 74b6 a3df f7bb 2bf5 753b
000003d0: eea6 c93b e791 05b6 8690 f0b8 3fa8 843a
000003e0: cf3d c2b9 3b22 8437 bee7 be3b 10ff e7b5
000003f0: 686a 8637 baf7 ca3b f3a7 533b ef8b b6ba

bias f4 [128]
-4.7735494e-07 4.913635e-07 2.0015284e-08 -1.9625215e-07 1.0313196e-07 2.8194655e-09 -3.983352e-05 -3.3737746e-07
-1.3638298e-08 4.083806e-07 -3.9595354e-09 -5.337523e-07 1.4937234e-07 -8.614358e-08 -1.0775789e-05 -2.6326921e-07
-1.5768053e-06 8.004306e-07 5.867498e-07 3.9463644e-06 3.828382e-05 8.941432e-07 -7.0460044e-07 3.2419816e-06
-5.3098757e-09 9.544911e-08 -5.1107794e-08 5.7320136e-07 -6.0862834e-07 -1.3666387e-08 -2.2436264e-08 1.2551543e-05
2.0275206e-06 1.9501886e-06 5.567798e-09 -6.650798e-09 -7.746432e-08 6.8031525e-08 -8.381881e-09 -9.0449035e-08
1.3759798e-07 3.0268842e-07 6.484555e-08 -6.898964e-09 -1.67735e-08 -1.2077595e-07 -2.6913124e-06 6.1329156e-06
5.6307108e-05 -7.872335e-05 -4.2132736e-08 -7.699678e-09 1.3065643e-07 -2.3462637e-06 6.304058e-06 -3.406535e-06
1.5644101e-08 -9.8297946e-08 -1.0932561e-07 -1.4776822e-08 1.4308951e-05 -1.2593131e-07 -1.6867295e-07 -1.2448471e-08
-1.0333556e-06 -7.4485634e-08 8.791895e-08 -3.791357e-07 3.5434034e-08 3.793858e-07 -4.2995918e-08 -3.1231573e-07
3.4622794e-09 -2.069007e-09 7.878704e-06 5.9069687e-09 1.5927985e-07 -7.743127e-08 2.7988344e-08 2.275673e-07
5.360892e-09 -9.3557624e-08 3.0069128e-08 -3.8576186e-08 9.2500535e-08 2.7870035e-09 5.6277986e-07 1.4462735e-07
4.6084956e-08 -3.784582e-08 -1.187711e-07 -2.553411e-06 -2.98533e-07 -1.1671475e-07 5.045274e-09 -2.404798e-05
1.3770787e-10 -1.7019538e-08 -8.182396e-08 -1.2599136e-07 -8.1556514e-08 5.3335353e-10 1.7309388e-07 -2.1304916e-09
5.2882796e-09 1.7612467e-07 5.0418702e-08 1.8485085e-08 -3.50861e-08 -1.0152892e-07 1.689245e-07 2.4098352e-05
-1.5703137e-07 7.2990666e-08 -4.5185968e-07 1.4427211e-08 9.2395505e-09 -4.01763e-05 7.4875106e-10 6.3683643e-07
-4.9928317e-08 1.6466292e-05 1.5518395e-07 2.9643698e-07 -3.250525e-08 -4.3633836e-08 1.7919406e-08 1.5181447e-06
00000000: 9523 00b5 3ee6 0335 13ee ab32 61b9 52b4
00000010: 6579 dd33 90c0 4131 eb12 27b8 ce20 b5b4
00000020: de4d 6ab2 673f db34 710c 88b1 2e47 0fb5
00000030: 2863 2034 effd b8b3 a9c9 34b7 7257 8db4
00000040: 9ea2 d3b5 2cdd 5635 2481 1d35 036b 8436
00000050: f092 2038 0e05 7035 c623 3db5 d290 5936
00000060: 2972 b6b1 b4f9 cc33 9d81 5bb3 19de 1935
00000070: 9f60 23b5 68c9 6ab2 deb9 c0b2 7794 5237
00000080: 8a10 0836 fcdf 0236 de4e bf31 0a85 e4b1
00000090: 765a a6b3 ba18 9233 e7ff 0fb2 e23c c2b3
000000a0: a5be 1334 2e81 a234 3841 8b33 ee0b edb1
000000b0: 5115 90b2 a4ae 01b4 659c 34b6 58c9 cd36
000000c0: 4c2b 6c38 4718 a5b8 6ff5 34b3 8b47 04b2
000000d0: 914a 0c34 8174 1db6 7287 d336 d39b 64b6
000000e0: be61 8632 de17 d3b3 64c6 eab3 27dd 7db2
000000f0: 7a10 7037 bc37 07b4 781c 35b4 f4dc 55b2
00000100: d4b1 8ab5 e9f4 9fb3 f4cd bc33 048c cbb4
00000110: 2230 1833 63ae cb34 83aa 38b3 59ac a7b4
00000120: 10ed 6d31 5b2e 0eb1 c72e 0437 3ff6 ca31
00000130: 8306 2b34 4a48 a6b3 056b f032 3959 7434
00000140: e832 b831 d9e9 c8b3 5b25 0133 f7ae 25b3
00000150: b5a4 c633 7c85 3f31 f011 1735 dd4a 1b34
00000160: f2ee 4533 eb8b 22b3 1a0f ffb3 445b 2bb6
00000170: 1046 a0b4 9da4 fab3 b35a ad31 a5ba c9b7
00000180: 5269 172f 5c32 92b2 33b7 afb3 3e48 07b4
00000190: 2b24 afb3 6b9b 1230 afdb 3934 0168 12b1
000001a0: 33b4 b531 c81c 3d34 f38b 5833 22c9 9e32
000001b0: 93b1 16b3 1d08 dab3 9d61 3534 d126 ca37
000001c0: 749c 28b4 0bbf 9c33 1f97 f2b4 8cdb 7732
000001d0: f9bb 1e32 f982 28b8 acd0 4d30 11f3 2a35
000001e0: c470 56b3 1821 8a37 a4a0 2634 fd25 9f34
000001f0: e69b 0bb3 e967 3bb3 31ed 9932 0ec3 cb35

weight f4 [128]
0.61697555 0.0054593775 0.00459681 0.00680341 -0.0051524965 0.0071607605 1.0990003 -0.0005982665
-0.0066862646 -0.0015012753 0.0010094 -0.0056157815 0.0048878635 -0.0002596658 1.0801721 -0.0050726943
-0.006111123 -0.002441863 -0.0007983117 1.0013963 0.6020042 0.0045032194 0.0049254396 -0.014254781
-0.0041822456 -0.002941793 0.0034881467 -0.011058754 -0.00015330239 0.0014838615 -0.0001648552 -0.0075077605
-0.009770417 0.00044677575 -0.0021505714 -0.0017877463 0.003598703 0.0061913044 -0.0012803783 0.004877045
0.00062868255 0.0067303902 0.4949072 0.0008370664 0.0018192967 0.0056143715 0.0022094399 1.0182265
0.32355785 1.1974344 -0.008669786 -0.0010794131 -0.00082760886 -0.009173708 -0.008662695 1.1086769
-0.0066700433 0.004657639 0.004858333 0.00074574875 1.1946336 -0.0010686404 0.0024924264 0.0009310625
0.43980125 -0.0015729241 -0.0035479416 0.008355048 -0.003964129 0.006552487 0.0035296008 -0.009042435
0.0002906195 -0.003203245 -0.008424793 0.0029008645 0.0015932913 -0.0015951177 0.0020939903 0.000323052
-0.0042926376 -0.0010131622 -0.0011320412 0.004294669 0.0069196546 -0.0067023607 0.97231567 0.0021581782
0.003466423 0.0061250394 -0.0053441273 0.0044727055 0.3497926 0.0045818193 0.0002674007 1.0398029
-0.00025440607 0.006952299 -0.005787244 0.0044986242 -0.0034944662 -0.0027846394 -0.0025014083 -0.0047180625
0.0033941697 0.003043145 -0.0034931707 -0.0006370842 0.00065807987 0.0023749464 0.0019937248 1.0194505
0.0007528478 0.005409542 -0.004244331 0.0056809788 0.0032873363 1.160262 0.0044930805 0.0005593197
0.0050793015 0.91883224 -0.00612357 0.0010384206 -0.0012077871 0.0054184315 0.0005292516 -0.007412521
00000000: 1cf2 1d3f 94e4 b23b d6a0 963b 24ef de3b
00000010: 46d6 a8bb d0a4 ea3b 0bac 8c3f fcd4 1cba
00000020: 7418 dbbb 71c6 c4ba d84d 843a 9704 b8bb
00000030: 5f2a a03b c123 88b9 1443 8a3f d838 a6bb
00000040: d13f c8bb aa07 20bb cb45 51ba c12d 803f
00000050: f21c 1a3f be8f 933b 9565 a13b e38c 69bc
00000060: 380b 89bb 19cb 40bb 6499 643b c72f 35bc
00000070: ccbf 20b9 217e c23a fbdc 2cb9 a903 f6bb
00000080: 1914 20bc 3a3d ea39 9af0 0cbb d052 eaba
00000090: 38d8 6b3b 6de0 ca3b 5ed2 a7ba 9ecf 9f3b
000000a0: 2cce 243a 9b8a dc3b 7a64 fd3e 936e 5b3a
000000b0: 7875 ee3a c3f8 b73b 40cc 103b 3f55 823f
000000c0: 60a9 a53e 8845 993f b80b 0ebc 187b 8dba
000000d0: e4f3 58ba 524d 16bc faed 0dbc 20e9 8d3f
000000e0: 6190 dabb 1c9f 983b a732 9f3b 5a7e 433a
000000f0: c1e9 983f 9f11 8cba fa57 233b 8c12 743a
00000100: a12d e13e 932a ceba 9584 68bb 9ce3 083c
00000110: 86e5 81bb 3fb6 d63b e050 673b b926 14bc
00000120: 4a5e 9839 89ed 51bb 2508 0abc 6e1c 3e3b
00000130: fcd5 d03a 4513 d1ba 543b 093b 4e5f a939
00000140: 41a9 8cbb 15cc 84ba 0061 94ba 4bba 8c3b
00000150: 45be e23b 7a9f dbbb aee9 783f 3970 0d3b
00000160: ed2c 633b 8eb4 c83b ca1d afbb c68f 923b
00000170: 0418 b33e 1623 963b ea31 8c39 4318 853f
00000180: ce61 85b9 1cd0 e33b eca2 bdbb 3269 933b
00000190: 6a03 65bb 7f7e 36bb abee 23bb fa99 9abb
000001a0: b870 5e3b 806f 473b aeed 64bb ff01 27ba
000001b0: fe82 2c3a fda4 1b3b 27a9 023b 5b7d 823f
000001c0: c35a 453a 8742 b13b 0714 8bbb 8127 ba3b
000001d0: 5a70 573b 7783 943f b13a 933b 4f9f 123a
000001e0: 4570 a63b 9738 6b3f 3aa8 c8bb 9d1b 883a
000001f0: 9c4e 9eba 198d b13b 79bd 0a3a bce4 f2bb

bias f4 [128]
0.13875489 -0.016355133 -0.015979668 -0.022595156 -0.023013616 -0.019450188 0.23368904 -0.009032715
0.00579387 -0.009132354 -0.010402702 -0.016404625 -0.012294718 -0.01272285 0.23015614 -0.012094031
-0.0071680075 0.0075881206 -0.02022507 0.21742575 -0.05695396 -0.006133912 -0.012154175 0.0013645501
-0.015861785 -0.023072092 -0.023961145 0.0024386372 -0.010062026 -0.0078039626 -0.0073617245 -0.012421421
-0.00947789 -0.027407914 -0.014812434 -0.017824216 -0.020883331 -0.015059019 -0.015437802 0.018347355
-0.0004380095 0.0067280214 0.10908325 -0.009206938 -0.015537907 -0.019092064 -0.0050112987 0.21970494
0.065060884 0.24781668 -0.014098834 -0.0050553638 -0.016111346 -0.003714072 -0.006123319 0.23186938
-0.015942669 -0.013115958 -0.022446638 -0.019929243 0.2501657 -0.022446694 -0.01423051 -0.013913899
0.09797936 -0.014552812 -0.016336536 -0.0066944812 -0.025960518 -0.009298325 -0.01934604 0.0019202608
-0.010141679 -0.014186184 -0.0061630765 -0.01769782 -0.013145354 -0.009470751 -0.018736517 -0.014367666
-0.019244518 -0.019325325 -0.015830861 0.019653011 -0.018559188 -0.019967308 0.21128397 -0.017150506
-0.023997318 -0.017726304 -0.0148583 -0.003152616 0.08072288 -0.020295922 -0.008669906 0.22372252
-0.008041133 -0.0123592215 -0.018364016 -0.021217607 -0.0051837345 -0.019630205 -0.019722082 -0.032461036
-0.015649712 -0.021376014 -0.025283907 -0.023760792 -0.01261228 -0.01970195 -0.023206623 0.21826212
-0.009105414 -0.006117411 -0.018234672 -0.02149094 -0.014201397 0.23749933 -0.017387018 -0.017746095
-0.016839107 0.20225608 0.015203303 -0.017951902 -0.016396446 -0.020162553 -0.010617435 0.011968162
00000000: c315 0e3e 33fb 85bc cbe7 82bc 7a19 b9bc
00000010: 0d87 bcbc 0056 9fbc 2e4c 6f3e f4fd 13bc
00000020: 81da bd3b de9f 15bc 1870 2abc fe62 86bc
00000030: c96f 49bc 8073 50bc 0dae 6b3e 0b26 46bc
00000040: 9be1 eabb c5a5 f83b 0caf a5bc dba4 5e3e
00000050: 8e48 69bd fcfe c8bb 4e22 47bc b4da b23a
00000060: 93f0 81bc af01 bdbc 2a4a c4bc 8bd1 1f3b
00000070: 32db 24bc 62b8 ffbb 9f3a f1bb 3783 4bbc
00000080: 2749 1bbc 9086 e0bc daaf 72bc 1704 92bc
00000090: 8513 abbc 1bba 76bc d6ee 7cbc 314d 963c
000000a0: a4a4 e5b9 bc76 dc3b 0a67 df3d b2d8 16bc
000000b0: b592 7ebc f666 9cbc d235 a4bb 55fa 603e
000000c0: a43e 853d a8c3 7d3e ccfe 66bc 77a7 a5bb
000000d0: f1fb 83bc ca67 73bb 1fa6 c8bb 2b6f 6d3e
000000e0: 339a 82bc 51e4 56bc 03e2 b7bc a742 a3bc
000000f0: b815 803e 21e2 b7bc 1627 69bc 1ff7 63bc
00000100: 67a9 c83d eb6e 6ebc 33d4 85bc 615d dbbb
00000110: 27ab d4bc 0058 18bc 967b 9ebc 43b1 fb3a
00000120: 4929 26bc 2b6d 68bc a2f3 c9bb 05fb 90bc
00000130: 9c5f 57bc 352b 1bbc 537d 99bc 5c66 6bbc
00000140: aea6 9dbc 2550 9ebc b9af 81bc 5aff a03c
00000150: 7009 98bc 7b92 a3bc d35a 583e 387f 8cbc
00000160: 0696 c4bc c136 91bc 3a70 73bc 1f9c 4ebb
00000170: 0a52 a53d a243 a6bc 390c 0ebc 8417 653e
00000180: f5be 03bc 557e 4abc 2270 96bc 8cd0 adbc
00000190: 51dc a9bb 86cf a0bc 3490 a1bc ddf5 04bd
000001a0: d333 80bc c01c afbc 3220 cfbc fea5 c2bc
000001b0: bda3 4ebc fc65 a1bc d11b bebc 1b80 5f3e
000001c0: e02e 15bc 9074 c8bb e160 95bc c50d b0bc
000001d0: faac 68bc 0633 733e 386f 8ebc 4260 91bc
000001e0: 2bf2 89bc 381c 4f3e 4617 793c de0f 93bc
000001f0: d751 86bc f02b a5bc c0f4 2dbc 1c16 443c

running_mean f4 [128]
-0.7754713 0.018867705 0.051418323 -0.12854029 -0.049276516 -0.0461844 -1.4168813 0.009468501
0.12985134 -0.030611407 -0.0044555473 0.057661604 -0.015341891 0.013245215 -1.3587022 -0.016228158
-0.03188679 0.116468966 0.012720939 -1.2300838 -1.1073797 -0.03847833 0.08844302 0.044251952
-0.016821885 -0.017553357 0.018190447 0.090711944 -0.051500276 -0.024551567 0.051873267 -0.054189015
-0.04678275 -0.041515063 -0.009606728 0.02714078 0.009665128 -0.033678316 -0.008562555 0.019620838
0.03914138 -0.10342341 -0.507231 -0.0033011637 -0.03402768 0.03797795 -0.016045133 -1.2779187
1.195124 -1.7015005 0.047508486 0.03032415 0.069040075 0.04606393 -0.031461094 -1.5361114
0.065604106 0.05578716 0.048778348 0.00788177 -1.6611229 0.06399126 0.009853307 -0.009403339
-0.4993245 0.04101863 -0.005127311 0.008596906 0.010347382 0.025118684 -0.009031416 0.0029398343
0.027508479 -0.017638044 -0.043292463 0.016030664 0.043570682 0.030924898 -0.035860267 -0.010292057
0.01112685 0.0009165468 -0.026479209 0.009519234 0.025415279 0.0070362813 -1.1437635 -0.039370272
0.011953944 0.045027126 0.016602647 0.026752336 -0.4203785 0.012640572 0.006905972 -1.3350388
-0.011940997 -0.021552214 0.025998456 0.0013440907 0.011117299 0.062834896 -0.06822116 -0.06171588
0.027268887 0.063937195 -0.0076150424 0.01575231 0.012402365 0.007057421 0.023575341 -1.2441465
0.030889738 0.018869303 -0.029899908 0.043315314 0.028534235 -1.7034711 -0.017714236 0.05715896
0.035141867 -1.0194801 0.098816104 -0.03690361 -0.005680151 -0.0014353606 -0.0057036355 -0.07296848
00000000: 4a85 46bf 7290 9a3c 059c 523d 11a0 03be
00000010: 2cd6 49bd da2b 3dbd 5e5c b5bf c621 1b3c
00000020: c0f7 043e c6c4 fabc d7ff 91bb 932e 6c3d
00000030: 8e5c 7bbc 7502 593c f4e9 adbf eaf0 84bc
00000040: b99b 02bd 4887 ee3d 7c6b 503c 6373 9dbf
00000050: 9ebe 8dbf 749b 1dbd 9d21 b53d 8941 353d
00000060: 0dce 89bc 0fcc 8fbc 2204 953c 2fc7 b93d
00000070: f4f1 52bd 5e20 c9bc 1079 543d 4df5 5dbd
00000080: 459f 3fbd b30b 2abd 8a65 1dbc 5756 de3c
00000090: 7c5a 1e3c 46f2 09bd f549 0cbc e1bb a03c
000000a0: b652 203d a7cf d3bd e4d9 01bf 5658 58bb
000000b0: 9c60 0bbd c48e 1b3d 1571 83bc d792 a3bf
000000c0: d3f9 983f c5ca d9bf 4298 423d 5a6a f83c
000000d0: e264 8d3d 88ad 3c3d 59dd 00bd 4c9f c4bf
000000e0: 725b 863d 1481 643d cecb 473d 8a22 013c
000000f0: ad9f d4bf da0d 833d c46f 213c 7610 1abc
00000100: 76a7 ffbe 2703 283d 0103 a8bb 0ada 0c3c
00000110: 1188 293c b3c5 cd3c 81f8 13bc 3caa 403b
00000120: 7659 e13c a97d 90bc 7053 31bd bd52 833c
00000130: 2c77 323d 3656 fd3c 37e2 12bd 04a0 28bc
00000140: 644d 363c 6a44 703a edea d8bc 90f6 1b3c
00000150: b433 d03c 9b90 e63b d866 92bf b942 21bd
00000160: 7ada 433c 5d6e 383d 4602 883c b727 db3c
00000170: da3b d7be 671a 4f3c 7e4b e23b 8de2 aabf
00000180: 2ca4 43bc 458e b0bc b7fa d43c 332c b03a
00000190: 5525 363c 95af 803d 89b7 8bbd cac9 7cbd
000001a0: 0063 df3c 81f1 823d 9b87 f9bb fd0a 813c
000001b0: 4a33 4b3c f041 e73b 1321 c13c 3140 9fbf
000001c0: 7a0c fd3c cc93 9a3c a7f0 f4bc 666b 313d
000001d0: a1c0 e93c 570b dabf 721d 91bc 831f 6a3d
000001e0: ebf0 0f3d 537e 82bf 1960 ca3d 3d28 17bd
000001f0: 8f20 babb b622 bcba 90e5 babb 8070 95bd

running_var f4 [128]
3.3895483 0.0017148706 0.0016741398 0.026391326 0.0023517588 0.004764984 6.703715 0.015722077
0.0043690354 0.017094092 0.00063118036 0.0077315695 0.001133035 0.0078002405 6.150576 0.00016672697
0.00013661757 0.02110329 0.007859547 5.174595 2.2941427 0.010020527 0.0024368477 0.003492057
0.00068383757 0.00041289852 0.0002796319 0.026907338 0.0062889555 0.001416077 0.0043122787 0.00074541295
0.0061587356 0.01383889 0.00035683103 0.0018699215 0.014884549 0.009282441 0.00057023234 0.007733499
0.0074834125 0.050826367 0.93197834 0.00018921967 0.0028164978 0.002041805 0.00824634 5.411439
0.6699832 9.279767 0.0010806579 0.00044700888 0.009058232 0.0037587928 0.0031991287 7.4446774
0.0069070663 0.0038262713 0.0007876112 0.00033037376 9.197142 0.014705808 0.0008296548 0.00018795239
0.6849903 0.0009207305 0.002615851 0.0074239173 0.0042134384 0.01578515 0.004414031 0.001046743
0.0009887774 0.00041387507 0.0007195412 0.00056744984 0.0044642333 0.0065114866 0.006146619 0.010784126
0.0024897577 0.006819694 0.00055421924 0.018931918 0.002283018 0.0008150122 4.4983 0.004251481
0.0004170422 0.0007463499 0.0051429793 0.0003078064 0.5437546 0.0006205806 4.1787884e-05 5.86426
0.000151939 0.00018841356 0.0065096165 0.0013935183 0.029470047 0.001963526 0.0046817195 0.0005141373
0.0003951229 0.001394734 0.001564086 0.003563317 0.0009570703 0.000775478 0.0008558551 5.3699894
0.025624335 0.0012189877 0.007939785 0.0037089903 0.00065344386 9.53156 0.0010812538 0.0033705826
0.0003259096 3.6922548 0.005476812 0.00930679 0.0005994552 0.0009660998 0.000289767 0.02673046
00000000: 5cee 5840 82c5 e03a cf6e db3a 9f32 d83c
00000010: f71f 1a3b 9523 9c3b d584 d640 96cb 803c
00000020: 202a 8f3b e908 8c3c cc75 253a 1b59 fd3b
00000030: 5982 943a 2999 ff3b 85d1 c440 6ed3 2e39
00000040: 0041 0f39 cfe0 ac3c 54c5 003c 4896 a540
00000050: 3cd3 1240 232d 243c 85b3 1f3b ffda 643b
00000060: 9043 333a 4d7a d839 8f9b 9239 c76c dc3c
00000070: 9513 ce3b a99b b93a 044e 8d3b d167 433a
00000080: 38cf c93b 83bc 623c 0d15 bb39 2718 f53a
00000090: 53de 733c 6115 183c a57b 153a 4b69 fd3b
000000a0: 6a37 f53b 4f2f 503d 2296 6e3f 4569 4639
000000b0: fe94 383b cecf 053b a81b 073c 822a ad40
000000c0: 0584 2b3f ed79 1441 dda4 8d3a 845c ea39
000000d0: fb68 143c 1456 763b 79a8 513b cc3a ee40
000000e0: ac54 e23b 2ec2 7a3b b177 4e3a 0436 ad39
000000f0: 7e27 1341 a1f0 703c 317d 593a 1615 4539
00000100: 865b 2f3f 2e5d 713a b26e 2b3b 5544 f33b
00000110: e210 8a3b dc4f 813c 93a3 903b de32 893a
00000120: dd99 813a 5ffd d839 989f 3c3a eac0 143a
00000130: b448 923b 4f5e d53b 9469 c93b e7af 303c
00000140: 342b 233b bd77 df3b 0649 113a 1c17 9b3c
00000150: b09e 153b 8ba6 553a 13f2 8f40 0250 8b3b
00000160: 75a6 da39 b2a6 433a 7086 a83b 1361 a139
00000170: 8033 0b3f 76ae 223a 6645 2f38 05a8 bb40
00000180: d151 1f39 e190 4539 9f4e d53b b7a6 b63a
00000190: 2b6b f13c 80ae 003b 1c69 993b 2cc7 063a
000001a0: 7f28 cf39 82cf b63a 0402 cd3a 8a86 693b
000001b0: e7e3 7a3a 7349 4b3a 775b 603a f4d6 ab40
000001c0: 20ea d13c 71c6 9f3a df15 023c 8812 733b
000001d0: e04b 2b3a 4581 1841 dbb8 8d3a fee4 5c3b
000001e0: d9de aa39 e74d 6c40 d476 b33b 827b 183c
000001f0: c224 1d3a dc41 7d3a deeb 9739 d6f9 da3c
