models_to_plot/mgum/ffjord.pth (torch_old, 84361 bytes, 17 tensors)

weight f4 [64, 1]
00000000: 5d95 27bc c3c8 aa3c c1f0 8bbe 1bf3 4c3c
00000010: a1fa c53c 90d7 f73e 3825 febd f11c b33d
00000020: 06ba 703d 52b1 bc3e ee53 b8bc 18b4 f53a
00000030: 9a7b a83c abc4 e4bd 6f0a 31bd e3b2 b9be
00000040: 66da 873e fa01 f0bd 6a18 a73c b091 42be
00000050: 64a1 b5bc da36 1d3c 6666 b2bd 7fbe d7bf
00000060: 1122 29bd 3918 063c ccfc c4bc 48f1 973e
00000070: e37c 96bc 65b5 04bd f764 8ebe fc56 39bf
00000080: b5ca 97bc a198 0c3e 3a23 bcba 43be c43c
00000090: cdbf 073e 7652 053d 63c6 10bc 7213 8b3e
000000a0: 5383 593e 135a 3fbd 0e0d 91bc 1417 be3d
000000b0: 2c74 2cbf 00d7 ac3d afb2 21be 3b1f 4d3d
000000c0: 63ae b3bd eb43 e93c c9bc 393d 1010 ecbf
000000d0: 791a 1d3c 9466 5bbe 7dc5 603e 4b33 c6be
000000e0: 26e5 bc3c 9c19 703c 9487 67bc c698 843e
000000f0: 991c 5e3d 331a a73e 0245 f73f e684 1cbe
-0.010228482 0.020847684 -0.27332118 0.012509133 0.02416736 0.4840665 -0.12409443 0.087457545
0.058771156 0.36854035 -0.022500958 0.0018745689 0.02056675 -0.11170324 -0.04322284 -0.36269292
0.26533812 -0.11719127 0.020397384 -0.19000888 -0.022171684 0.009595597 -0.08710937 -1.685501
-0.041292254 0.008184486 -0.024046324 0.2967627 -0.018370098 -0.032399554 -0.27811405 -0.7239835
-0.018529275 0.13730098 -0.001435376 0.024016505 0.1325676 0.032549344 -0.008836362 0.27163273
0.21241502 -0.04671676 -0.01770642 0.092817456 -0.67364764 0.084394455 -0.15790819 0.05007861
-0.08773496 0.028474769 0.045346055 -1.8442402 0.009588831 -0.21425849 0.21950336 -0.38711008
0.023058485 0.014654543 -0.014131445 0.25897807 0.05422649 0.32637176 1.9317935 -0.15285072

bias f4 [64]
00000000: c7db 4f3e a0a7 5bbf 6de7 ebbe be11 843f
00000010: 4624 96bf a489 7fbe 2f5f 453f 8c8c 6f3f
00000020: 4ef9 943f 1de0 6abe 61fc 6d3f eec2 f13e
00000030: 44fc 843f 11fd ce3e 94d7 cebf cdb0 7f3e
00000040: 554d 39bf 2f9b 83bf 1ab3 8e3f 85f2 adbb
00000050: 4635 273e 4821 b1bf 77a0 afbf 60d6 8c40
00000060: dee2 5dbf 1cc3 833f 6c75 8a3f 5f51 68c0
00000070: 47d8 7dbf 882e 683f 2515 b6be dfac 2a3e
00000080: 5f3b 6c3f d97b 43bf 0e74 8fbf 652d 21bf
00000090: f449 c33f 1742 febe 7b5f a03f c0cc 043c
000000a0: 7d64 46bf f2cb e9bf c4b4 d33f 970e a63e
000000b0: adad 7e3e c042 9d3f d02c 733d ba38 e43f
000000c0: f45e b03f b9ae 8dbf 2679 5cbf 4741 4b40
000000d0: 76d7 c53f 6f94 7c3f e0d6 17bf 269c 2abe
000000e0: 0f7b 81bf 7fad ccbe a6dd a63f c9bc cfbe
000000f0: 937e 1dbd 9f17 50bd ce76 b63e 4027 303f
0.20298682 -0.8580265 -0.46075 1.0317914 -1.172982 -0.2495485 0.77098364 0.9357383
1.1638582 -0.22937055 0.92963225 0.47219032 1.0389485 0.4042745 -1.6159539 0.24969788
-0.72383624 -1.0281733 1.1148407 -0.0053084516 0.16328916 -1.3838282 -1.3720845 4.401169
-0.86674297 1.0293918 1.0817084 -3.6299665 -0.9915814 0.90696 -0.35563007 0.16667508
0.92278093 -0.7636085 -1.1207292 -0.6295989 1.5256944 -0.49659798 1.2529138 0.008105457
-0.7749708 -1.8265364 1.653954 0.32433006 0.2487094 1.2285995 0.05936891 1.7829812
1.3778977 -1.1068946 -0.8612236 3.1758592 1.5456378 0.9866399 -0.5931225 -0.16661128
-1.011568 -0.39976117 1.3036392 -0.4057372 -0.03845079 -0.050803777 0.35637516 0.6880989

weight f4 [64, 1]
00000000: 9d72 983e 7cc0 c73f f236 8abe 2f12 80be
00000010: 263b a63f c433 713f d950 9b3f f1f9 ca3e
00000020: 908b e83d 0c02 7c3f 60bd 99bf 7b0d b5bf
00000030: 0a02 4abf 2bbf fc3e 4732 b4bd 3211 023f
00000040: fe52 133e b931 2dbd 32b5 2b3d 4f3d e1be
00000050: d4e3 ae3f 5e15 833f eaeb 773e a69f 0e3f
00000060: f39d 813e 8ba6 3dbf 9ea1 b9bf 7a52 1fc0
00000070: 9146 dfbd 1ef6 72bf 455e 96bc fb6d 41bf
00000080: d1fb b0bf 59ad 433f bb53 3c3f 3be6 ac3f
00000090: 963a 2ebf 5622 803f 95fc 51bf 7822 f73e
000000a0: 2c72 83bf 1b6e 53be 6de9 5ebf 86a3 e93e
000000b0: 5295 a93d 2b80 183d d2fe 9a3f c6f8 1b3f
000000c0: f1f6 a23f 4547 4e3f 9bde 82be 4a87 513c
000000d0: b572 15bf 757a 953e c733 84bf f07d 26bf
000000e0: 5b3e 83be b0a7 bb3f 9fe8 a0bf 0fe7 9dbf
000000f0: f5f7 103f 15f4 18bf d84d 7b3f 709a 44bf
0.29774943 1.5605617 -0.26995045 -0.25013873 1.2986801 0.94219613 1.2134048 0.39643815
0.113547444 0.98440623 -1.2010918 -1.4144739 -0.7890936 0.493646 -0.08798652 0.5080749
0.14387128 -0.042283747 0.04192085 -0.43992087 1.3663278 1.0240896 0.24211088 0.55712354
0.25315818 -0.7408225 -1.4502447 -2.489409 -0.10902131 -0.94906795 -0.018355498 -0.7555844
-1.3826848 0.7643638 0.7356526 1.3507761 -0.68058145 1.0010478 -0.82026035 0.48268485
-1.0269217 -0.2064747 -0.8707493 0.4563257 0.08280434 0.037231605 1.2109015 0.60926473
1.273161 0.805775 -0.2556046 0.012788603 -0.58378154 0.2919499 -1.0328301 -0.65035915
-0.2563351 1.4660549 -1.257099 -1.2336138 0.5662835 -0.5974744 0.98165655 -0.7679815

weight f4 [64, 1]
00000000: 3e0f 39be aa29 6fbf b74e 013f 4e91 aebf
00000010: ea88 3ebf 76b3 5d3e 6970 a63f 1eb7 9bbf
00000020: 5c47 b1be 1846 05bf 9a8a bbbe b003 f5be
00000030: b757 edbe 56ca 993e d399 04bf 4176 013f
00000040: 4832 223f 8707 6f3e e3d8 49bf cf8d be3e
00000050: 92be 76be e297 ffbe 4fcd 0a3e c5d6 af3e
00000060: 94b0 0cbe 5db2 99bf d5a7 98bf 6a44 13bf
00000070: 6280 aabf a24f 62be d945 d8be 3178 13bf
00000080: 4490 1cbf f362 9bbf 8b18 91bf 6a49 493d
00000090: c8d4 53be d18d 1c3e ac37 7abf 4e60 06bf
000000a0: e961 1f3f 2c37 27bf 04c0 97bf 3024 e83e
000000b0: ce07 023f d94d c7be cfcc 533f 75d9 92bf
000000c0: 1b09 1ebe bf4e 19bf 3702 f3be 8a7c 443f
000000d0: 9992 91bf 7598 d33e 1fbd d3be e3e2 03bf
000000e0: 3233 3bbf e1cb 113e 7594 8bbe 236f b23e
000000f0: 4b76 ac3e 8cf2 463f 59a7 db3f 04c0 63bf
-0.1807222 -0.9342295 0.50510734 -1.3638093 -0.74427664 0.2165049 1.3003055 -1.2165258
-0.34624755 -0.5206008 -0.36629182 -0.47854376 -0.46355984 0.30037183 -0.5179722 0.50571066
0.63357973 0.23342715 -0.7884657 0.37217566 -0.24096134 -0.49920565 0.13554882 0.34343544
-0.13739234 -1.2007557 -1.1926218 -0.57526267 -1.3320429 -0.2210069 -0.4224079 -0.5760527
-0.6115763 -1.2139572 -1.1335615 0.04914228 -0.20686638 0.15288474 -0.977412 -0.524907
0.62258774 -0.6531856 -1.1855474 0.4534011 0.5079316 -0.3892658 0.8273439 -1.1472613
-0.15433161 -0.5988578 -0.47462627 0.7675253 -1.1372863 0.41327253 -0.41355225 -0.51518077
-0.7312499 0.1423793 -0.272617 0.34850416 0.33684 0.7771385 1.7160445 -0.8896487

bias f4 [64]
00000000: 2ef2 523d 531b 0c3f 1495 603e f2c7 2abb
00000010: 9977 193f 792d 103f 1acc 14bf a9d7 623f
00000020: 2f09 2d3f 6ab4 cfbe d659 393f e200 3fbf
00000030: e889 833f af0b 7abf 46ae 383f 081d a03e
00000040: 262b e93e 9a28 883f 453d 1abf aa51 0cbf
00000050: 636d a3bf 4c33 853e 0ed9 6ebd facb 3f40
00000060: c282 ba3d a85a ea3e f9dd 0d3f 0b3b 963f
00000070: 707b 25bf 9916 11bf f64f 36bf 857c d63e
00000080: 5231 c2be d65f 50be ba72 50be 9710 47bf
00000090: f053 683f ba7e 313f 5cdc 533e 4bb4 2ebf
000000a0: 7074 15bf c180 1d3f 72d0 edbe 95a5 bebe
000000b0: 6d2d 6dbe 36e3 913c cf54 91be 0266 b73e
000000c0: 7de3 613e 4559 46be 59bf a6bf efcf 2840
000000d0: e80d e43e 818d ab3f 637b 1bbf c42a debe
000000e0: efa8 46bf c9cb 4ebf 0da1 523f 059f 8ebf
000000f0: dd9e 70bf 63aa 81bc a211 dd3f b3a3 44bd
0.05150049 0.54729193 0.21931869 -0.0026059118 0.59948117 0.56319386 -0.58123934 0.8861032
0.6759214 -0.40567333 0.72402704 -0.7461072 1.0276461 -0.9767408 0.7214092 0.3127215
0.45540732 1.0637391 -0.6024974 -0.5481211 -1.2767757 0.260157 -0.05831247 2.9968247
0.09106971 0.4577229 0.5541683 1.1736768 -0.64641476 -0.56675106 -0.7121576 0.41891876
-0.37928253 -0.20349059 -0.20356265 -0.7775969 0.9075308 0.69333994 0.20689529 -0.68243855
-0.58380795 0.6152459 -0.46448094 -0.37235704 -0.2316186 0.017808538 -0.28385016 0.35820013
0.22059436 -0.19369991 -1.3027145 2.6376913 0.4454186 1.3402559 -0.6073515 -0.43392003
-0.7760152 -0.807797 0.82276994 -1.1142279 -0.93992406 -0.015828317 1.7271006 -0.04800768

weight f4 [64, 64]
00000000: d001 ffbc 9d2d f7bb 7537 bf3c 2eaa aabd
00000010: 1415 943d c92f 01be fa5a 8d3d b2bf 81bc
00000020: 5d83 08be eb1d e83d 4f68 2e3d 0971 8fbc
00000030: 5c58 743d eb88 69bc b7ef 5a3d ce54 753d
00000040: 443e 54be e8ee 44bc 3d7d 12bc 69e7 07bd
00000050: ede8 e43c 1009 41bd df32 52bd a2ae 333f
00000060: 5b93 8b3c 4504 82bd af63 58bd 6225 a1be
00000070: b0f1 87bd e2dd 8abd f37f 08bd 8442 c6bd
00000080: ca23 5ebd 5eb2 02bc 2429 dc3d e5cf ee3d
00000090: c123 7d3d 19d6 853c b110 b43c f238 9e3d
000000a0: 3277 42be 8c34 85bd c9e6 163d 4526 ebbb
000000b0: ecad f43d 94cf 23bd 9f8c 18bd fc55 e1bd
000000c0: 4b2f 583e 01b1 8bba bcc2 aabd cfb4 1a3f
000000d0: 5a79 2ebd a4a8 d03d eeba 5ebd 1d1b c7bd
000000e0: 353f cfbb c43a 093e 0dc0 bd3c cf72 93bd
000000f0: 7f95 6ebd 7516 18be 537f 6dbd 276f 63bd
00000100: 6f5e 03be 0b6d e43d 8661 063e 5a5f b3bd
00000110: 8c10 bd3d 2624 dcbb d637 7b3d 9d13 09bd
00000120: 2715 eabd 1b3e 0dbe eb09 f5ba 2b99 afbb
00000130: d7d6 2dbd 693c 173d 225b 7e3e 168d fb3d
00000140: bc0c 08be e210 733e 4d24 e0bd d737 6c3c
00000150: 5c40 09bd 6449 fc3c 968b 983d 064b 27bd
00000160: 506f 373e e28c 11be ece2 d5bd c007 d03c
00000170: 8b97 173e e27c 01be f935 4f3d de47 e43d
00000180: 9730 1abe 36c6 d93d 4398 313d cef6 f039
00000190: 31df 77be b094 053e 6a0e d2bd 3de3 5fbb
000001a0: 6177 26bd aa4d 573e a3f1 19be 7ae0 15be
000001b0: 2845 8e3d 8bf6 08be 3171 3c3d 6e5c 4dbe
000001c0: 271a d93c f3ae 073e d2e7 003e 7e51 53bd
000001d0: ea33 aebd af75 683d 82f1 073d 6f6f 163e
000001e0: ed10 0a3d 0890 983d 21b2 7abe d0f4 a73c
000001f0: d8f4 f5bc 00a6 223c 16ea 6ebe 1616 403d
00000200: 9212 89bd 94b3 e9be e95d 2a3d ff44 1c3e
00000210: 86a5 43bd e537 b6bd d2c1 c1bd 9446 d43d
00000220: 0b56 bfbc 824d 02bf 7878 6a3e af49 5c3f
00000230: 16cb 0c3e af45 33be ff1e 1a3d f951 03be
00000240: 13fc 253e 0f22 f9b9 d174 80bd 52d6 353e
00000250: d2e2 e0be b637 35be ac4d 9ebd df82 2abf
00000260: d51e 9a3d fc93 653e 341a b83e 4b67 0a3f
00000270: c42b 0abe 4363 a93e cbb9 2b3e aa99 393e
00000280: 6e08 f93e 96d2 84be 9a88 23be e8f3 10bf
00000290: cdae 383e 3052 99be 478a 023d 85df 29be
000002a0: 7ba4 823e ed30 b03b 8c33 713e a1ee 14be
000002b0: efd6 d9bc fad1 8abd 83bc 06be 479a ce3d
000002c0: 81cc f4bd 57f6 6abe 4f83 29bd dedd e4be
000002d0: dbcb 33bc ea9b a5be e5be 2a3d 168d ae3e
000002e0: 21b0 d8bb 57fa 4bbf 703d 4c3d 9a2c 423d
000002f0: 3657 63be cf46 953d d5a6 02bd e883 413e
00000300: 870d 10be 7183 fd3d ed1c 123e b90c 63be
00000310: e453 c43c bee7 9dbc a141 09bb 139e dbbd
00000320: a470 7abe fdba 19be c0eb 69bd 9aa7 84bd
00000330: 0f25 33be 7bdf 7abd 78b1 423e 7763 a53d
00000340: 4091 0abe 5d39 ba3d 16d8 b2bd 5688 d53d
00000350: 588d 5e3d 1b62 253e 1c93 eb3d 5569 ac3c
00000360: f156 3a3e 4ad1 f8bd 7faa 20be 54a2 373d
00000370: 71df 2b3e 284d 18be f843 a5bc 57fa b83c
00000380: ac6f 0bbe 9c41 963d ba6b f03c ea7e cf3d
00000390: 5be1 47be 7519 e53d d4df f0bd ee80 dbbd
000003a0: fdf4 1c3c 2d78 5e3d 9a21 31be b66d cdbd
000003b0: e51c 233e 67ba 32be ffa2 aa3b bb02 5dbe
000003c0: 8c2a d9bb 1c42 883d c75d 823d 6fb6 363d
000003d0: c243 ccbd 90c9 833d 977d 0bbe 607c 123c
000003e0: e3ab 0e3e 6f63 ee3b ee3f 4dbd 241d a2bd
000003f0: f162 abbd b1aa 13be 5d72 77be d100 29bd
-0.031128794 -0.0075432793 0.023341874 -0.083332404 0.07230583 -0.12615885 0.06902118 -0.015838478
-0.13331361 0.113338314 0.042579945 -0.017509954 0.05965458 -0.014253835 0.053451266 0.05989533
-0.20726877 -0.01201985 -0.008940992 -0.033179674 0.027943099 -0.047127783 -0.051318046 0.70188344
0.017038038 -0.063484706 -0.05282944 -0.31473833 -0.06637895 -0.06780602 -0.033325147 -0.096806556
-0.05423335 -0.007977096 0.107500345 0.116607465 0.061801676 0.016337441 0.021980615 0.07725705
-0.18990782 -0.06504163 0.036841188 -0.007176193 0.119472355 -0.039992884 -0.03724348 -0.11002728
0.21111791 -0.001065761 -0.08337924 0.6043214 -0.0425962 0.10188416 -0.05437749 -0.09721968
-0.0063246735 0.13401324 0.023162866 -0.071996324 -0.05824804 -0.14852317 -0.057982754 -0.055525925
-0.12828992 0.11153611 0.1312314 -0.08758421 0.09231672 -0.0067181764 0.061332546 -0.03346597
-0.11429816 -0.13793223 -0.0018694972 -0.005358835 -0.042441215 0.036922846 0.24839452 0.122827694
-0.13286108 0.23736909 -0.10944424 0.01441761 -0.033508644 0.030796714 0.07448499 -0.040843032
0.17913556 -0.14213899 -0.104436725 0.02539432 0.14803903 -0.12645295 0.05058858 0.1114652
-0.15057598 0.10633509 0.0433581 0.0004596025 -0.24206235 0.13045001 -0.102566555 -0.0034162544
-0.040641192 0.2102572 -0.15033583 -0.14636412 0.06946784 -0.13375299 0.046006385 -0.2005479
0.026501728 0.13250332 0.12588432 -0.05159139 -0.085059956 0.056752857 0.033189304 0.14690946
0.033707548 0.07449347 -0.24482013 0.020502478 -0.030023977 0.009927273 -0.23331484 0.046896063
-0.06692995 -0.4564482 0.041593466 0.15260695 -0.047765277 -0.0889738 -0.094607964 0.10365024
-0.023356458 -0.5089952 0.22897518 0.8604993 0.13749346 -0.17507051 0.037627216 -0.12824239
0.1620944 -0.00047518357 -0.06272281 0.17757538 -0.4392305 -0.17697033 -0.077296585 -0.66605943
0.07525412 0.22419733 0.3595749 0.5406386 -0.13493258 0.33083543 0.16770093 0.18125024
0.48639244 -0.25941914 -0.15970078 -0.5662217 0.18035431 -0.29945517 0.031870153 -0.16589172
0.25516114 0.005376926 0.2355482 -0.14544155 -0.026591746 -0.06778331 -0.13157849 0.1008802
-0.119530685 -0.22945534 -0.04138499 -0.4470052 -0.010973896 -0.32345515 0.041685957 0.34092015
-0.006612793 -0.79678863 0.04986328 0.047405817 -0.22201237 0.07288896 -0.031897385 0.18897974
-0.1406766 0.12378586 0.14268847 -0.22172822 0.023965783 -0.019275542 -0.002094366 -0.1072351
-0.24457031 -0.15012737 -0.057109594 -0.0647728 -0.17494605 -0.061248284 0.19013011 0.08075612
-0.13531971 0.090929724 -0.08732621 0.10426395 0.054334015 0.16150706 0.11502668 0.02104632
0.18197228 -0.12149294 -0.15690039 0.044832543 0.16784455 -0.14873183 -0.020174012 0.022580309
-0.13616818 0.07336733 0.029348243 0.10131629 -0.1951956 0.11186496 -0.11761442 -0.10717951
0.009579894 0.054313827 -0.17297974 -0.10030691 0.15928991 -0.1745392 0.005207419 -0.21583073
-0.0066273864 0.06653234 0.06365543 0.044607576 -0.09973861 0.06434929 -0.13622127 0.008940786
0.13932757 0.007275037 -0.050109796 -0.079157144 -0.08368481 -0.14420582 -0.2416472 -0.041260544

bias f4 [64]
00000000: e399 bbbd e712 62be f824 57bb b6c0 17be
00000010: dae1 c63d 806e f0bd cc63 c8be 853d 94be
00000020: 33ac 7a3e 2113 2c3d 9801 903d 616f 6c3c
00000030: 4219 11bd 5266 e4bd 0350 c9bc 2956 213d
00000040: 76a1 a6be 19e7 803e f72b 713d 5fd3 38be
00000050: 470b 5cbe f5c3 833d 6ed9 063e b64c 7e3e
00000060: b867 46be fe7d 4f3e 4143 303e cd15 9c3e
00000070: 629d 10be 195f 17be 3100 7e3e 1858 efbd
00000080: 509b 193e 7cf4 c7bd 3fda 0fbe 6e54 a8be
00000090: 9c2d 79bd 42a4 35be 9774 c43d beae a23e
000000a0: 6c10 7fbe d31c d5be 042f 93be 5040 ef3d
000000b0: c611 5a3e 5fbd aa3d 3642 b2be 4c53 89be
000000c0: 727b 853d f3de 883e e202 8c3e 7378 cb3b
000000d0: 7ec9 cabd b54b 303e 5da5 3a3e e516 463e
000000e0: 8db7 dfbc 916b 973e 7ce7 9b3b 1011 0b3e
000000f0: ac3b 163e 436b 1dbe ad70 a33e a699 60be
-0.09160211 -0.22077523 -0.0032828432 -0.14819607 0.097110465 -0.11739826 -0.3913864 -0.28953186
0.24479751 0.04201043 0.07031554 0.014430852 -0.03542448 -0.111523286 -0.024574285 0.03938881
-0.3254506 0.25176314 0.05887982 -0.18049382 -0.21488677 0.0643386 0.1316888 0.2483395
-0.19375503 0.20262906 0.17213155 0.30485383 -0.14122537 -0.1478237 0.2480476 -0.116867244
0.15000653 -0.097634286 -0.14048098 -0.32876915 -0.060834512 -0.1773844 0.0959255 0.31773943
-0.24908608 -0.41623554 -0.28746808 0.116821885 0.21295843 0.08336901 -0.3481614 -0.26821363
0.06517686 0.26732597 0.2734595 0.006209427 -0.09901713 0.1721638 0.18227144 0.19344671
-0.027309204 0.29574254 0.0047578197 0.13580728 0.146712 -0.15372948 0.31921902 -0.21933612

weight f4 [64, 1]
00000000: cb1b 0bbf a225 6abe c00c 77bf 13e5 8dbc
00000010: 4baf 59bf fc3c a33f edfb 86bf 87eb acbe
00000020: 5a5c 933e cb99 6f3e 9f68 0c3f 5e89 00bf
00000030: f1e9 ad3e cae7 6abf 5906 a7be 96ef 8f3d
00000040: 22ad 58bf c12c 7ebf 0c11 ed3e 8fa4 48bf
00000050: e34d 923f 35ec 62bf 7e09 d7be 898e 0f3f
00000060: 873c 85be 94f9 813e f63c 673f 300e 313f
00000070: 5f0a 6c3f 8c4b 91bf 4b40 593f 8274 8c3e
00000080: 1077 bf3e 4933 79be dc2e bbbe e346 15bf
00000090: df51 a33e 621d 48bf e758 9abf 650e 273f
000000a0: a85f eebe e2a3 9dbf 4107 57bf 77c9 633e
000000b0: 3707 7abf 755f eebe ac72 70bf c067 00bf
000000c0: b695 0a3f 3994 6c3f 9c0a f03e 1997 39be
000000d0: 44bf bb3d af98 75bf 0257 84be 2e80 8c3e
000000e0: 9eaf 64bf 67e0 7f3f 3f8f 51bf e3db 96bf
000000f0: 25d2 943e b850 963f 6403 1a3f 9fc5 24bf
-0.54339284 -0.22865918 -0.9650383 -0.017321145 -0.850331 1.2752986 -1.0545632 -0.33773443
0.28781396 0.23398511 0.5484714 -0.50209606 0.33967546 -0.9175993 -0.3262203 0.07028119
-0.8463918 -0.9928704 0.46302068 -0.78376096 1.1430019 -0.88641673 -0.4199943 0.56076866
-0.2602274 0.25385725 0.90327394 0.69162273 0.92203325 -1.135118 0.8486373 0.27432638
0.37395525 -0.2433597 -0.36559188 -0.5831129 0.318984 -0.78169835 -1.2058381 0.6525634
-0.46557355 -1.2315638 -0.83995444 0.22244821 -0.9766726 -0.46557203 -0.93924975 -0.5015831
0.5413469 0.9241367 0.46883094 -0.18124045 0.091673404 -0.959361 -0.25847632 0.27441543
-0.8933047 0.99951786 -0.818592 -1.1785854 0.29066578 1.1743383 0.60161424 -0.64364046

weight f4 [64, 1]
00000000: b515 6cbe d2ff b63e c5eb 263f cc75 cb3e
00000010: 6e17 bd3f da28 cc3f bf37 223f 53a3 debd
00000020: 18c4 633e 5e84 4b3f ccc5 183f 60ac 433f
00000030: 5571 123f 93ac d6bd f40f 183f 5ea5 433f
00000040: 9f15 873e 6dfb c93f 44d6 0d3f 213b da3e
00000050: 823b 123f fc81 4d3f 1859 083f 4c61 3e3e
00000060: fb1a df3e 58fa 93be bdec 33be 45da 48be
00000070: fc24 6b3f 2889 663f e56a 8dbd 7eed d43e
00000080: 7955 f93d 717c 45be c2c6 3e3f 1e67 02be
00000090: 0c19 913f 7153 503f e93e 623f 0b93 64bd
000000a0: ab4e 18be e8a3 3f40 34b5 5bbe 4a09 97bd
000000b0: 48d2 933f e557 573f a015 c13f 23a8 123e
000000c0: 9d96 13bd f2ce c9be e181 653c 305d 8c3f
000000d0: e3be f73c 4e7b 993e 5054 803f 8c33 c33f
000000e0: 199a 223f 1df8 663f 7887 063f 635f 803f
000000f0: 4ab3 413f 2ebf 453f 48eb 0e3e d01f a53e
-0.23055156 0.3574205 0.65203506 0.3973831 1.4772775 1.5949967 0.6336631 -0.108709954
0.22242773 0.7949885 0.59676814 0.764349 0.5720418 -0.10482135 0.5939934 0.76424205
0.26383683 1.5779854 0.5540507 0.42623237 0.5712205 0.80276465 0.53260946 0.18591803
0.43575272 -0.28901935 -0.17570777 -0.19614513 0.9185331 0.90053034 -0.06905154 0.41587442
0.12174506 -0.19285752 0.7452203 -0.12734649 1.1335769 0.8137732 0.88377243 -0.055804294
-0.1487376 2.994379 -0.21455842 -0.073748186 1.1548548 0.8411849 1.5084724 0.14321952
-0.036032308 -0.394157 0.014008016 1.0965939 0.030242389 0.29976887 1.002573 1.5250106
0.63516384 0.9022234 0.5255046 1.002911 0.756642 0.7724484 0.1395694 0.32250834

bias f4 [64]
00000000: 9a9c 673f 8353 103f 5477 2c40 979b ba3e
00000010: 1179 3d40 44ba 8040 6ca3 1840 5a0f 10be
00000020: 285c 153f 2152 893f cc3a fabc 2443 8b3f
00000030: ce0c 8a3f 5419 a7be e4ca ca3d a967 bb3f
00000040: c24e 5a3e 5f66 0940 ba71 293f c328 cc3e
00000050: 217e 1040 8396 1740 ae4d a33e 6731 db3e
00000060: 576a 1a3f f48c c93e a0f1 91bd e976 103f
00000070: 6314 9b3d deb2 0340 2a4c e13e d212 803f
00000080: 725e fe3d 264f 8ebc 906c c23f 4de9 3a3f
00000090: 1aec 6d3f 0971 00bf 1a58 be3f a9c6 803e
000000a0: 1813 2bbf 76a4 2e40 a0d0 9a3e 1916 d93e
000000b0: 9e05 0740 ed5b f73e c36c 823f d3ed 633c
000000c0: c541 113f 8a6a d83e 0c6d 613f 859f a13f
000000d0: 8b66 273f f521 c33f a78e 27be 622c 3440
000000e0: e4a8 d83e cde1 f53f b402 6d3f 91e9 fd3f
000000f0: 8641 303e 8f19 bb3f 9a0b 433f e48c 603d
0.9047333 0.5637743 2.6947832 0.3644683 2.9605143 4.0227375 2.3849745 -0.14068356
0.58343744 1.0728189 -0.030545615 1.0879865 1.0785158 -0.3263651 0.099019796 1.464101
0.21319106 2.1468732 0.6618916 0.3987485 2.2576983 2.3685615 0.31895202 0.42811128
0.6031851 0.3936535 -0.071261644 0.5643144 0.07572248 2.0577922 0.4400342 1.0005744
0.12420358 -0.017371725 1.5189381 0.7301224 0.9293839 -0.5017248 1.4870636 0.25151566
-0.6682601 2.728788 0.30237293 0.42399672 2.1097178 0.4831232 1.0189441 0.013911682
0.5674098 0.42268783 0.8805702 1.2626806 0.65390843 1.5244738 -0.16363011 2.815209
0.42316353 1.9209534 0.9258225 1.9836904 0.17212495 1.4617175 0.7618958 0.054821864

weight f4 [64, 64]
00000000: 65d1 b33e c6ee 05be dd53 69bf 3076 cfbd
00000010: ffb4 ba3e 197f d1be 517c e8bd 118c cbbd
00000020: c8db 8b3e 356f 84be 7557 13bd 3b55 1cbf
00000030: a632 c23e bb78 aebd 8ad1 873e 0586 4b3e
00000040: e904 703a c44e 4fbf 9d05 043f 5b9b a4bd
00000050: 6f57 4f3f b83e 51bf 2c1e eabd 52c5 823d
00000060: 6e6a 1dbe 5b4b a23d 8395 5e3d db7d a23d
00000070: ee6c 0a3f 38c4 9fbc 7388 bc3d 565f 2c3e
00000080: e5dc 713d fe1a 7c3d 41f3 763e e168 ecbc
00000090: e06e 263f 4057 a03d 8fad 4cbf 15f8 743c
000000a0: c893 1cbd e752 37bd ac16 ddbc db33 30be
000000b0: 5f7e 40bf e0bf eebe ffa0 eabc ce2e 45bd
000000c0: 5b4a ce3d b4eb 8b3d eb46 da3d de60 9c3e
000000d0: 4be4 bc3e 74c6 3abf afb8 49be 9567 2dbe
000000e0: f33a 32bf 09e1 b63c ee83 35bf 1727 27bf
000000f0: ff28 86be 8822 5d3f 3d52 943d 1b63 713c
00000100: b319 de3e 0d26 3ebe a731 b2bf 91cc d5bd
00000110: eb55 8e3e d5ab fbbe 2d21 95be 0360 233d
00000120: 7c0c bb3d 5069 dcbd 07b8 cf3d 98ad 40bf
00000130: a010 df3e de98 bfbd acc1 433e 2a89 a7bd
00000140: 3c12 fbbd b789 8fbf 568e eb3e 8fec 0ebe
00000150: 4b44 873f 72dc b0bf 8952 d0be 9714 003e
00000160: fa33 a0bd b4ca 033d 6727 d63c 8ce7 da3d
00000170: 884f 0e3f 89a3 1fbc 15c8 313e 79e3 3b3e
00000180: 1a36 2d3e 98bb df3c 9000 c83d 92fd ebb9
00000190: a680 683f e3b8 8cbb 3a5f 92bf 10ab d53d
000001a0: df98 d3bd 8d78 00be 7ed1 03be 7aec 9dbd
000001b0: 4e7d 72bf f7d7 11bf 975a dabd a83a e0bc
000001c0: ff56 dd3d 8968 583d 82d7 463d 3131 253e
000001d0: d034 be3e 5775 72bf 11b1 99be 507e cf3c
000001e0: b692 5dbf 6fc4 8dbc cfdb 6cbf 02f3 68bf
000001f0: d61d 2dbe 423c 983f 3b2c eb3c 86bb babd
00000200: 7445 fc3e 9eea f1bc 4167 cabf 7dc0 07be
00000210: 2e31 8b3e 401f f6be c53e b7be 1fc8 303d
00000220: ee53 a13d 73c8 efbd 598a c03d 9889 53bf
00000230: eca3 f43e f9e1 b7bd 1c88 a23d aff4 b7bd
00000240: 8f51 24bd f5b0 abbf 3794 133f 4f1c 3ebe
00000250: f658 943f e09a cebf 5b17 87be 9939 853c
00000260: c7a1 94bd 2264 f93c 4bce e2bc 5361 f03d
00000270: a5e1 1e3f 1afd acbc 441c 183e 0d12 123e
00000280: c361 1e3e 1fcb 143e 4632 f7bc f735 5dbd
00000290: 6d4b 553f f099 753d f3f2 95bf 233d 113e
000002a0: 2fc3 993d b2d7 fbbd e6e7 f2bd df73 ef3d
000002b0: efee 71bf c679 18bf e1ea 13be 7bb2 06be
000002c0: 72f8 cb3d d53c ce3d 8793 a33d b2cc bc3e
000002d0: e5a0 a83e 8981 5cbf eb88 83be 68f3 883e
000002e0: d80d 71bf 1d5e 02bd a0b5 75bf b3e4 7bbf
000002f0: 8859 03be 651a aa3f 56c0 523a 7717 8d3d
00000300: 54ee c3bc 51a3 f93d 14f6 73bd bb12 0a3e
00000310: 8d11 b5bc 1218 8a3c acfa 403e 6222 063e
00000320: 5e80 43be 3057 edbc 3377 aabd 7040 fa3c
00000330: 7cb5 85bd 0b9a a43d 5ea1 cb3c 7a74 cf3c
00000340: b60d 9d3e 1731 18be 0799 2fbd a799 673e
00000350: 4f66 b63d 6d4f 4bbc 4a19 9ebb 074e 8dbe
00000360: 1c20 b73d 9808 49be 850f 64be cc13 62be
00000370: 59dc 8bbc fa5c ec3d 3bef 56be 17ff 273d
00000380: 3edb 43be 4de6 3d3d 797b 763d 75d0 893e
00000390: a186 55bb 65cd 823e 9953 193d 53ca 28be
000003a0: 5d7b b53d f2ac 873e ef55 743e 9b84 a6bd
000003b0: a019 01be de2d 823d 2852 053e 94de 5e3e
000003c0: bbb3 22be 0775 75be f0c1 8abe 34d0 7cbd
000003d0: 1368 bebc bdf6 96bc f7b8 093d 789c ccbd
000003e0: fa9b 923c 7326 ddbd c5e0 ac3b f085 c4bd
000003f0: ccba 913c d3a3 e1bc 9868 5dbe a7c7 713d
0.35120693 -0.13079366 -0.9114359 -0.10129964 0.36466214 -0.4091728 -0.113518365 -0.09938825
0.27316117 -0.25866094 -0.035972077 -0.6106755 0.37929267 -0.08519121 0.26527053 0.19875343
0.0009156005 -0.8097956 0.51571065 -0.08037444 0.8099279 -0.81736326 -0.11431536 0.06385292
-0.15372631 0.07924529 0.054341804 0.07934161 0.54072464 -0.019502744 0.09205713 0.16833243
0.059048552 0.06154918 0.24116232 -0.028858604 0.6501293 0.078291416 -0.7995233 0.0149517255
-0.038226873 -0.044756796 -0.02698835 -0.17207281 -0.75192827 -0.46630764 -0.028641222 -0.04814034
0.10072776 0.06832066 0.10658058 0.30542654 0.36892924 -0.72959065 -0.19699357 -0.16934045
-0.696212 0.022324102 -0.70904434 -0.6529402 -0.26203153 0.86380816 0.07242248 0.014733101
0.43378982 -0.18569203 -1.3921403 -0.104394086 0.27799925 -0.49154535 -0.29126874 0.039886486
0.091332406 -0.10762274 0.10142522 -0.75264883 0.4356737 -0.09355329 0.19116849 -0.08180459
-0.12259337 -1.1213902 0.4600703 -0.13957427 1.0567716 -1.3817275 -0.4068797 0.12507854
-0.07822414 0.032175735 0.026141835 0.10688695 0.55590105 -0.00974358 0.17361481 0.18348493
0.1691517 0.027311131 0.09765732 -0.00045011617 0.908213 -0.004294501 -1.1435311 0.10433018
-0.10331892 -0.12545986 -0.12872884 -0.0771112 -0.9472245 -0.5697016 -0.1066181 -0.02737172
0.10807609 0.052834067 0.048545368 0.16132046 0.37149668 -0.94710296 -0.30017903 0.025328785
-0.8655199 -0.01730558 -0.925229 -0.909958 -0.16905913 1.1893389 0.028707614 -0.091177985
0.4927174 -0.02953082 -1.581276 -0.13257022 0.2718596 -0.48070717 -0.35790077 0.0431596
0.078773364 -0.117081545 0.09401388 -0.82631826 0.47781312 -0.08978648 0.07936117 -0.089822166
-0.040116843 -1.3413378 0.5764803 -0.18565486 1.1589649 -1.6141014 -0.26385006 0.016262816
-0.07257419 0.030443255 -0.027686259 0.11737313 0.62063056 -0.021116782 0.14854532 0.14264698
0.1546698 0.1453061 -0.03017534 -0.054006543 0.83318216 0.05996126 -1.1714767 0.14183478
0.075079314 -0.12297 -0.11860637 0.116920225 -0.9450521 -0.5956081 -0.14445068 -0.13154022
0.099594966 0.100701965 0.07987123 0.3687492 0.32935253 -0.86135155 -0.25690398 0.26748204
-0.9416175 -0.031828035 -0.9598026 -0.9839584 -0.12827122 1.3289305 0.00080395245 0.06889241
-0.023917355 0.12189353 -0.05956085 0.13483708 -0.022103095 0.01685718 0.18845624 0.13099054
-0.19091937 -0.028972238 -0.08323517 0.030548304 -0.06528756 0.08037194 0.02485722 0.025324095
0.30674523 -0.14862476 -0.042870548 0.22617207 0.089062326 -0.012409073 -0.004824792 -0.27598593
0.08941671 -0.19632185 -0.22271545 -0.22077864 -0.017072843 0.11541171 -0.20989697 0.041014757
-0.19126603 0.04636221 0.060176346 0.26916853 -0.0032581466 0.2554733 0.03743324 -0.1648343
0.0886142 0.26499134 0.23860906 -0.08130761 -0.12607431 0.06356405 0.13019621 0.21764594
-0.15888874 -0.23970424 -0.27101088 -0.061721995 -0.023242986 -0.0184282 0.03362366 -0.099907815
0.017896641 -0.10798349 0.005275818 -0.09595859 0.017789267 -0.027543938 -0.2162193 0.059028294

bias f4 [64]
00000000: 0500 6cbd 27ad ff3d cf0f d63d 3d94 6ebe
00000010: aba0 adbe ac80 0d3e 9def b1be 5ddf 44be
00000020: 1816 7abd 7fc2 fdbd 7695 9f3e 3838 9dbe
00000030: c3a1 a6be 78f6 8c3d d807 31be 7e6e 80be
00000040: d43b c83d 185a 9a3e bde0 9b3e d363 95bc
00000050: 3c0e 3bbe 8643 69be ac45 93bc 209b 64be
00000060: 868b a33e fec5 9a3e adde 76bd 4ade 42be
00000070: 8835 7b3e fcfd 11be 60e0 5abe a6e9 01bc
00000080: 3969 a33e 221f 91bd 16bc b83e 50a1 83be
00000090: 76b2 a3bd c0dd 343e f5cd 40be e012 a7bd
000000a0: f887 193d 72ab 0cbe 20f1 c43d 6b5b 82be
000000b0: 9445 09be 8deb acbe b48a 943e d2ba 4a3d
000000c0: 370c a2bc 9977 373d 0482 00bd 9805 703e
000000d0: 10d0 bb3d e3b9 003e b751 4b3e e396 96bd
000000e0: 5bba 343e ca71 74be 8622 983c 6cfc 76be
000000f0: 921e fabc 1a2c 7dbc ec50 b03e 6528 003e
-0.057617206 0.12484198 0.10452234 -0.23298736 -0.33911642 0.13818616 -0.34753123 -0.19225831
-0.061056226 -0.12390613 0.31168717 -0.30706954 -0.3254529 0.06882948 -0.17288148 -0.250843
0.09777036 0.3014686 0.304449 -0.018236076 -0.18267149 -0.22779664 -0.017977558 -0.223248
0.31942385 0.3022918 -0.060270954 -0.19030109 0.2453214 -0.14257044 -0.21374655 -0.007929241
0.31916216 -0.07086016 0.36080998 -0.2570901 -0.07993023 0.17662716 -0.18828566 -0.08157897
0.037483186 -0.13737276 0.096163034 -0.2546037 -0.13405448 -0.3377346 0.29012072 0.049494572
-0.019781215 0.04479179 -0.031373993 0.23439634 0.09170544 0.1257091 0.1985539 -0.07352998
0.17649214 -0.23871532 0.01857115 -0.24119729 -0.030532155 -0.015452409 0.34436738 0.1251541

weight f4 [64, 1]
00000000: 3f6f 033f 1f69 483d d3e7 c63e 7470 5cbe
00000010: ea12 4bbe df33 d8bc 8163 34bf 5e43 b0be
00000020: fdef 11bf 999d d9be 43dd f93e 4af2 d1bd
00000030: 83fc 82be d0e8 1a3e 816d 17bf a3e0 fcbe
00000040: 8c70 343e e3e3 9bbd c69d e63d f335 b63e
00000050: e9c2 7fbe 266e 8abe f144 e8be 1ff2 84be
00000060: 3859 be3e 5f94 e13d 525d 703f e1b8 c4be
00000070: 1726 ff3e 09be 7cbf a2a5 9fbe b6cc 21bf
00000080: 93e7 0b3f 4c7c 59bf 84de bd3e a13f 1fbf
00000090: c241 12bf 36b6 29bf 46eb d5be 3191 06be
000000a0: 195a 00bf 7530 8cbd 54fb 0fbd f3b9 773e
000000b0: edd1 febe 1cf2 24bf f0a9 ba3e d91a 2cbe
000000c0: 8b11 a1bd 2120 0a3f 1772 1a3f 2b6d e33e
000000d0: 3331 133f dd7c 83be 75d5 b13e d773 123e
000000e0: a37c 653f 69bb 26bf a75b 12bf c7ba 25bf
000000f0: 2a63 5c3e 28db 7a3e 6d97 893e d47e 393f
0.51341623 0.048928376 0.38848743 -0.21527272 -0.19831434 -0.026391922 -0.7046433 -0.34426397
-0.5700682 -0.4250305 0.48801622 -0.10251291 -0.25583276 0.15127873 -0.59151465 -0.49390134
0.17621058 -0.07611825 0.11260562 0.35588035 -0.24976696 -0.27037162 -0.45365098 -0.25965974
0.37177444 0.11014628 0.93892395 -0.384223 0.49833748 -0.9872747 -0.31181055 -0.6320299
0.5465023 -0.84955287 0.37083828 -0.62206465 -0.5713159 -0.66293657 -0.41781062 -0.13141324
-0.5013748 -0.0684518 -0.035151795 0.24192028 -0.49769536 -0.6443193 0.36457777 -0.16807117
-0.07864674 0.53955275 0.6033034 0.44419226 0.5749695 -0.256812 0.34733167 0.14302002
0.89643306 -0.65129715 -0.571711 -0.64738125 0.21522203 0.24497664 0.2687334 0.7245915

weight f4 [64, 1]
00000000: 0b86 313e c3d4 8b3e e47c b13e 2727 2f3d
00000010: e17f c2bd e7da 843e ab4a a6be 4299 10bd
00000020: f7e6 963e fc83 e13e de4b ef3e 87fa 683f
00000030: 5345 293e 735b ac3f df41 2cbe ab31 ea3e
00000040: 5923 d33d 0160 093f 4d75 2b3e a36c 3f3e
00000050: 4f34 423c 7f06 e43d 415f a93e 3b63 13bd
00000060: cdce 493d 2281 2e3d 156f fd3e 80ab ef3e
00000070: f321 89bd f01f 8a3f e111 073e 9c28 e93e
00000080: 10af b6be 4588 413e 76c2 663e bb4d 34be
00000090: 8efc b93e f5a6 9e3e 7280 003e f264 c73d
000000a0: 0fd3 d03e b5af 973f c600 873e 569c 0f40
000000b0: 1c5f d23e fe38 ff3e b890 313e e93d 9c3e
000000c0: c499 003f dec4 d73e 005e 9e3e 99b6 083f
000000d0: e5ed a43f 63eb 2c3f cc5d 573d 6950 833e
000000e0: 34dc a73e b1fa 13bf d4ce c43e 6027 e13e
000000f0: e3db 273e 1f62 a53e 8d5c 023e 405b db3e
0.1733629 0.27310762 0.34665596 0.042761948 -0.09497047 0.2594826 -0.32478842 -0.035302408
0.29473087 0.4404601 0.4673757 0.91007274 0.16530351 1.3465408 -0.16822003 0.4574102
0.103094764 0.53662115 0.16743965 0.18693785 0.011853292 0.111340515 0.33080485 -0.035983305
0.049269486 0.04260362 0.4949881 0.46810532 -0.066959284 1.0790997 0.13190414 0.45538795
-0.35680437 0.18899639 0.22535118 -0.17607777 0.36325496 0.30986753 0.12548998 0.09736051
0.40786025 1.1850497 0.26367778 2.243917 0.41088188 0.4984817 0.17340362 0.30515984
0.5023463 0.42142385 0.3093109 0.5340362 1.28851 0.6754667 0.052579686 0.25647286
0.3278519 -0.578044 0.38439047 0.43975353 0.16392474 0.32301423 0.12730618 0.42843056

bias f4 [64]
00000000: cf91 a63f 5c35 f93f 26fb 0840 55b0 393f
00000010: cf03 913e c912 1240 127f a8be 42d2 ed3e
00000020: 77f9 0640 1b13 203f 2748 2b40 8eca f83f
00000030: f80b e63e 1d27 713f 0a31 003f d9bd 3240
00000040: 0aaf ca3f 382a a5be b609 073f 2f49 e73f
00000050: 7b83 3c3f 380d 4d3f f2c2 0740 3c14 363f
00000060: b653 603e 6a56 2e3f 1316 6040 7cbb c83d
00000070: 9c45 213f 8fe7 3240 3e46 233f 0788 2540
00000080: 2cbc dabe b16f 92be 7254 00bf 00ba b3be
00000090: e860 ee3f 744c 0a40 b660 00be 0221 ae3f
000000a0: 4743 2b40 c688 1f3f f83b 793f bf5a 4c40
000000b0: ae19 003f deff 93be 294b e33d 1ed9 0640
000000c0: 45b8 913e a9ab 2140 4339 0340 d979 a7bd
000000d0: b781 6040 33b5 5a40 8b9e 1b3f ae13 d23f
000000e0: 4da6 f03d 185e 05bf 6198 ec3f abdd 76be
000000f0: d77d b53f de11 e13f 596f 00bf 242a 2340
1.3013247 1.9469409 2.140329 0.72534686 0.28323218 2.2823966 -0.32909447 0.46449476
2.1089761 0.6252915 2.6762788 1.9436815 0.44931006 0.9420031 0.5007483 2.7928374
1.5834668 -0.32258773 0.5274919 1.8069209 0.73638123 0.80098295 2.1212735 0.71124625
0.21906933 0.6810061 3.5013473 0.09801385 0.6299684 2.7953832 0.63779056 2.5864275
-0.4272169 -0.2860084 -0.50128853 -0.35102844 1.8623323 2.1609163 -0.12536892 1.3603823
2.6759813 0.62318075 0.9735713 3.1930387 0.50039184 -0.2890615 0.1109832 2.1070018
0.284609 2.5261023 2.05037 -0.081775375 3.5079172 3.4173095 0.6078879 1.6412256
0.11750469 -0.520967 1.8484002 -0.24107997 1.4179028 1.7583578 -0.50169903 2.549447

weight f4 [1, 64]
00000000: 163c 8b40 cb74 8b40 06db 8c40 4c4b 7a40
00000010: 4a3e 7a40 424a 99c0 8243 7f40 fba6 7d40
00000020: 896d 8fc0 b850 8040 8fdb 8d40 9135 8940
00000030: c276 7a40 50e1 8ac0 66da 7c40 75b3 8dc0
00000040: e69b 8c40 4d1f 81c0 205d 80c0 dc70 8f40
00000050: faf3 7e40 cd65 8040 c11d 8cc0 6817 8040
00000060: 4ea2 80c0 3531 7dc0 f495 ba40 a12b 8040
00000070: 4782 80c0 dcad 8b40 d17c 7a40 af3d 8740
00000080: 1a67 80c0 0da3 8440 b94b 81c0 5310 8040
00000090: a699 8cc0 f3e1 90c0 2f5e 8040 1a95 8cc0
000000a0: 9ac2 91c0 198d 8a40 15b5 89c0 b705 9540
000000b0: d644 8140 36b5 8140 3d2f 7cc0 8233 8fc0
000000c0: ff46 8c40 ff11 8d40 51c8 8f40 32ed 81c0
000000d0: c7bb a1c0 b0fa 9fc0 2b0e 7fc0 d61f 8e40
000000e0: 486e 84c0 3cf2 8340 a8ce 8cc0 4978 8140
000000f0: 15f4 9740 2581 8b40 c0eb 81c0 0b19 8d40
4.3510847 4.358007 4.4017363 3.9108458 3.9100518 -4.7903147 3.9884953 3.9633167
-4.482121 4.0098534 4.4330516 4.287789 3.9134984 -4.340004 3.95083 -4.4281564
4.3940306 -4.035071 -4.011368 4.482527 3.9836411 4.012427 -4.378632 4.002857
-4.0198126 -3.9561284 5.830805 4.005326 -4.015903 4.364973 3.9138682 4.2262797
-4.0125856 4.1449037 -4.0404935 4.0019927 -4.393756 -4.5275817 4.011497 -4.393201
-4.555005 4.329724 -4.3033547 4.6569476 4.039653 4.0533705 -3.9403832 -4.4750376
4.3836665 4.408447 4.4932027 -4.0602045 -5.054172 -4.9993515 -3.9852397 4.441386
-4.138462 4.1233196 -4.4002266 4.0459332 4.748545 4.3595147 -4.060028 4.409307

_e f4 [10000, 1]
00000000: 136a f23e c2a4 ebbe 96c6 0d3f dc91 483f
00000010: 2e76 34c0 5b96 dabf e00c 713f a4d4 fa3e
00000020: 8d5d f1bf 1346 b33f 3878 4f3f f71a 1dc0
00000030: beae 683e 99d0 b9bf 21d2 473f 70c3 b63f
00000040: e724 ec3d 2b80 f7be 796c dd3f 816d afbe
00000050: 8e2e 903e 2d7b 093f 7794 a4bf adbc 0a40
00000060: 452d 21bf 3684 bf3f 84a5 45bf 5540 f9bc
00000070: 9296 9e3e 4517 8dbf 6078 1b3e ca5a e7bd
00000080: bb35 98bf 8b81 edbf f3b1 d2bf 1499 983f
00000090: 3db2 07be 7758 423f 8ba2 bdbe f03c dc3e
000000a0: 939b f73e 05a0 bb3f 57b6 47bf 7360 fabe
000000b0: f1d6 fbbf 90a6 d2bf 8726 88bf 7076 89bf
000000c0: 8e18 75bf c541 343e 6e50 5a3f f79c 2fbe
000000d0: b671 e03f 5b19 b7be d22b 8bbf 00dc fb3f
000000e0: 20d3 f7be 4959 ae3f 0675 8ebf cd4e 883d
000000f0: 1d25 08bd ee77 f7be f5f4 2e3f 7abd 33bf
00000100: 4b09 56bf 78c1 bb3e a22d c03f 6fb8 2abf
00000110: ba3c c5be 0ebe 0abf ce0b 613f 1b51 ec3f
00000120: 9b30 81be 0b19 163f d556 463f bbb6 8abf
00000130: be11 933e a457 b7be 97b3 e83e ef8d 7d3f
00000140: 2031 293f 1499 2a3e 3778 32bf e3e2 013f
00000150: b704 ad3e f9f4 9fbf 2ad6 14be 3b63 eabf
00000160: 744a 7cbf c582 c93e 480a 343f 32ec f13e
00000170: 88d4 143f 611b 8abf d58d 4b3f b884 44bf
00000180: d7eb 403f 5df4 e9bd 853f 043f e71d cdbf
00000190: 2015 953e 67ba 77be 2cd0 88bf acbd c83e
000001a0: 413b a7bf 9066 cd3f 2bda 813f 3648 cb3f
000001b0: 0b5e 233f 6243 8cbe e3c0 e23f 691c 1ec0
000001c0: 560d c1bf 08e6 75bf 50ba ad3f fd92 e3be
000001d0: 5ecb e7be 9b66 cdbf d5da 1d3d b309 10c0
000001e0: fbab 8cbf a718 bcbe b920 373f 6779 b4bf
000001f0: 6920 803e f916 46be 0b8d edbf accc 1d40
00000200: bf2b c7bf c10a bbbf a576 073f d41b 1fbe
00000210: e043 bd3f 04a7 343f ffcd 2f3f c219 8e3f
00000220: 0ee7 33bf 1ef3 f7bd 61fc babe 4572 803f
00000230: a5d9 f53e 540e febe cb4c 213f 2076 b53f
00000240: 8dd8 95bf f2d6 e53f f0c9 01bc d8ac 0dbd
00000250: c56f 9cbf 8d7b 4abf aba4 863f 7e94 863e
00000260: 968e c1be 3b56 8d3e 3429 bd3e 8db1 babe
00000270: 9eac 453e d2a4 af3f 944a 483f 3ed5 913f
00000280: 9d20 bc3f 175e 41bf 8116 0640 4460 92bd
00000290: 49ce d93f e7e8 e5be eb15 353f c35e acbf
000002a0: b761 ff3e 1edb b33f a9a6 08c0 595e 2ebf
000002b0: 0ae7 5e3f 6454 96bd c299 0740 cebd 483c
000002c0: 40bd a33f 2c4a cfbf af3d a53f dfc4 b1be
000002d0: 65fd a1bf 293f aabf 27f2 85be c322 843f
000002e0: 0bb3 f23f 1577 da3e 2d7f 59bf 659c 89bf
000002f0: b4e3 25bf a5c5 e2be dc1b afbf d8df dcbe
00000300: c313 743f 5e2e c3be eefa 9a3f 2968 3940
00000310: db1f 8cbe 6301 0dc0 c1e3 00bf 814f 943f
00000320: 0a76 963f d104 153f 6395 2abe 89f9 bebd
00000330: 77e1 ad3b e48e dabe 7677 e9bf a5ff 9d3f
00000340: 1c08 aabf a2fb dabe 8a4e 4e3f 95ff 39bf
00000350: 4934 813d c1d8 0a3e b967 223e 5285 03bf
00000360: 8628 1cbf de2b 46bf 706d 1f3e ac4f 343f
00000370: f43e cbbf 7e71 c6be ec52 70bf f369 bbbc
00000380: 0d98 1bbe e9d1 0d3f 3d68 87bf e1f8 3c3e
00000390: 2e8c 45be bf01 a83e 3c27 3c3f 05de fa3e
000003a0: 266c 7abf dde9 933e 2df0 f4bd dc0f 843f
000003b0: 5d67 1dbf 047d 1dbf e4a6 eb3f 3860 a13f
000003c0: bc91 803f c846 ad3e 684a 43bf 2f8b 823f
000003d0: adf8 d73f 2435 053f cd33 a53f 5a67 7cbf
000003e0: 12d5 0a3f 3bd4 7abf badc 683f ab15 d23e
000003f0: ec2d 783f 7c3e 843c 15f6 a5be 91e3 1dbe
0.47346553 -0.46024138 0.55381143 0.78347564 -2.819713 -1.7077135 0.9416027 0.48990357
-1.8856674 1.400576 0.81042814 -2.4547708 0.22722909 -1.4516784 0.78055006 1.4278393
0.11530476 -0.48339972 1.7298728 -0.34263232 0.28160518 0.53703576 -1.2857808 2.1677659
-0.629597 1.4962223 -0.7720568 -0.030426184 0.3097425 -1.1022726 0.15182638 -0.112966135
-1.1891397 -1.8555158 -1.6460556 1.1921716 -0.13251586 0.75916237 -0.37038073 0.43015242
0.4836088 1.4658209 -0.78012604 -0.4890171 -1.967497 -1.6457081 -1.0636758 -1.0739269
-0.9574059 0.17603214 0.85278976 -0.17149721 1.7534702 -0.35761532 -1.0872748 1.9676514
-0.48403263 1.3620998 -1.1129463 0.06655655 -0.03323852 -0.48333687 0.68342525 -0.70210993
-0.8360793 0.36671042 1.5013926 -0.66687673 -0.38522893 -0.5419625 0.8790864 1.8462251
-0.25232396 0.5863196 0.77476245 -1.0837015 0.28724474 -0.35809052 0.45449516 0.990447
0.66090584 0.16659957 -0.69714683 0.50736827 0.3379266 -1.2496635 -0.14534822 -1.8311533
-0.98551106 0.39357582 0.7032819 0.47250515 0.58136797 -1.0789605 0.79513294 -0.7676501
0.75359863 -0.11423562 0.51659423 -1.602475 0.2911768 -0.241922 -1.0688529 0.39207208
-1.3064958 1.6046925 1.0144705 1.5881412 0.63815373 -0.2739516 1.7715114 -2.470484
-1.5082195 -0.96054125 1.3572483 -0.4444808 -0.45272344 -1.6046938 0.038538773 -2.250592
-1.0989984 -0.36737558 0.71534306 -1.4099549 0.25024727 -0.19344701 -1.8558668 2.4656172
-1.5560225 -1.4612657 0.5291541 -0.1553796 1.4786339 0.70567346 0.686737 1.1101611
-0.70274436 -0.12106918 -0.36520675 1.0034872 0.48017612 -0.49620306 0.630078 1.4176674
-1.1706711 1.7956221 -0.007921681 -0.034588665 -1.2221609 -0.79094774 1.0519003 0.26285166
-0.37804097 0.2760485 0.36945498 -0.36463585 0.1930413 1.3722174 0.782388 1.1393201
1.4697453 -0.75534195 2.0951235 -0.071472675 1.7016078 -0.44904253 0.7073657 -1.3466419
0.49879238 1.4051244 -2.1351721 -0.68112713 0.8707129 -0.07340315 2.1187596 0.012252284
1.279213 -1.619451 1.2909449 -0.34720513 -1.2655455 -1.3300525 -0.2616131 1.0323108
1.896089 0.42668977 -0.8495968 -1.0750853 -0.6480057 -0.44291416 -1.3680377 -0.4313953
0.95342654 -0.38121313 1.2107828 2.8969824 -0.27368054 -2.2032096 -0.50347525 1.1586763
1.1754773 0.58210474 -0.16658549 -0.09324939 0.0053064185 -0.42687142 -1.8239582 1.2343642
-1.3283725 -0.42770106 0.8058859 -0.7265561 0.06308801 0.13559248 0.1585988 -0.51375306
-0.60999334 -0.77410686 0.15569091 0.7043407 -1.5878587 -0.38758463 -0.9387653 -0.022877669
-0.15194722 0.5539842 -1.0578686 0.18454315 -0.19291756 0.32813832 0.73497367 0.48997512
-0.9782127 0.2888936 -0.119598724 1.031734 -0.61485845 -0.61518884 1.8410306 1.2607489
1.0044475 0.33843064 -0.7628541 1.0198725 1.6872765 0.5203421 1.2906433 -0.985952
0.5423137 -0.9798009 0.909618 0.41032156 0.9694507 0.016143076 -0.32414308 -0.15418841
