models_to_plot/mgum/ffjord.pth (torch_old, 84361 bytes, 17 tensors)

weight f4 [64, 1]
000000 56 80 89 3b 17 b0 b1 3c 5e 20 b5 be 51 fd af 3c
       0.004196207 0.021690411 -0.35376257 0.021483095
000010 25 c7 c0 3c 08 19 48 3f bc e7 f2 bd 69 47 ec 3d
       0.02353246 0.78163195 -0.11860606 0.11537058
000020 be f4 8f 3d 71 8c c2 3e 70 a9 c5 bc 72 f0 6d 3b
       0.07029103 0.37997773 -0.024128646 0.0036306647
000030 98 db b7 3c 96 be e5 bd 39 3a 3b bd 22 6a 02 bf
       0.022443578 -0.11217992 -0.045709822 -0.50943196
000040 63 56 9b 3e 60 9f 17 be f7 86 00 3d 4f 40 5a be
       0.30339345 -0.1480689 0.031378713 -0.21313594
000050 0f 86 c7 bc a1 61 87 3c f3 7f bf bd cd 7e c3 bf
       -0.024355916 0.016526045 -0.09350576 -1.5273072
000060 9f c3 3b bd 46 a6 4c 3c e7 a6 e5 bc 02 97 9c 3e
       -0.045840856 0.012490815 -0.028033687 0.3058396
000070 df d0 fc bc d1 89 0f bd 85 2e 9c be be 63 4e bf
       -0.030861316 -0.03504354 -0.30504242 -0.80620944
000080 aa 53 96 bc aa 7c 1f 3e 3b b8 dc ba 88 37 b7 3c
       -0.018350441 0.155749 -0.0016839573 0.022365347
000090 16 b9 1d 3e d6 65 0b 3d 94 a1 14 bc 82 a1 96 3e
       0.15402636 0.034032665 -0.009071726 0.29420096
0000a0 02 0a 51 3e 51 ea 2d bd 61 96 a3 bc d7 a1 e2 3d
       0.20413974 -0.04245979 -0.019969167 0.11066025
0000b0 a4 00 97 bf e9 03 c2 3d 44 9b 17 be 6e 95 57 3d
       -1.179707 0.09473402 -0.14805323 0.05263274
0000c0 d7 72 c2 bd f1 5d e1 3c 9a 1c f5 3c b1 ea eb bf
       -0.0949456 0.027510615 0.029920865 -1.8430997
0000d0 a2 6d fa 3b 13 7a 54 be 54 b9 54 3e eb b2 cc be
       0.007642464 -0.20749693 0.20773822 -0.39980254
0000e0 91 47 e3 b9 0e 50 6e 3c aa df 84 bc 15 c7 7f 3e
       -0.00043350135 0.014545454 -0.016219933 0.24978288
0000f0 30 2d 4d 3d e2 93 e5 3e d2 f2 49 40 3c c2 3f be
       0.050091922 0.44839388 3.1554456 -0.18726438

bias f4 [64]
000000 ab ef 35 3e 0a 37 5f bf 77 16 1e bf 6f e9 85 3f
       0.17767207 -0.8719336 -0.6175303 1.0461863
000010 47 99 98 bf 0e fa 0e be 63 17 44 3f 71 1a 74 3f
       -1.1921777 -0.13962576 0.76598185 0.95352846
000020 be c3 96 3f 62 d4 61 be 53 61 73 3f 74 aa f6 3e
       1.1778486 -0.22053674 0.9507038 0.4817692
000030 e8 89 86 3f 61 51 ca 3e b5 99 cf bf 56 04 35 3e
       1.0510836 0.39515212 -1.6218783 0.17677435
000040 d7 0e 34 bf 57 a2 85 bf 18 bc 90 3f 1a 4b fa bc
       -0.70335144 -1.0440167 1.1307402 -0.03055339
000050 c1 d1 1c 3e 5c db b2 bf 8c 7e b0 bf cf 9e 90 40
       0.1531439 -1.3973193 -1.3788619 4.519386
000060 5a ab 63 bf f3 9f 85 3f 64 49 8e 3f b1 74 67 c0
       -0.88933337 1.0439438 1.1116147 -3.6164973
000070 31 a6 7f bf fa de 6c 3f 94 cf ca be 90 3d 1c 3e
       -0.9986296 0.92527735 -0.39611495 0.15257859
000080 2b 69 6e 3f 73 35 47 bf b9 fb 91 bf 3c b7 22 bf
       0.93129224 -0.7781593 -1.1404945 -0.63560843
000090 96 da c4 3f 7d b6 03 bf d7 2b a2 3f 70 c7 f4 3c
       1.5379207 -0.5145033 1.2669629 0.029880255
0000a0 60 b3 43 bf 62 5a eb bf ad 70 d6 3f 88 63 d3 3e
       -0.7644558 -1.8386958 1.6753136 0.41286874
0000b0 8e 6c 0c 3e e8 a8 9f 3f aa c8 35 3d e7 92 e5 3f
       0.13713285 1.2473421 0.04438082 1.7935456
0000c0 77 19 af 3f 18 2d 90 bf 29 d5 5b bf ca a6 4d 40
       1.3679646 -1.1263762 -0.8587213 3.213305
0000d0 82 1c c7 3f 33 3f 79 3f 49 05 13 bf 88 d4 36 be
       1.5555575 0.9736206 -0.5742994 -0.17854512
0000e0 85 46 84 bf 3d c2 d0 be 8c d2 a7 3f 39 9d c7 be
       -1.0334021 -0.40773192 1.3111129 -0.3898714
0000f0 50 e1 22 bd ee 58 d4 3b 89 67 68 3f c7 b8 34 3f
       -0.039765656 0.006480328 0.9078298 0.7059445

weight f4 [64, 1]
000000 6d 4b ae 3e 82 80 c9 3f 66 bd 00 bf 12 65 87 be
       0.3404192 1.5742342 -0.50289 -0.26444298
000010 b3 ac a7 3f e3 f3 84 3f 23 44 9e 3f b5 a2 cf 3e
       1.3099579 1.0386928 1.2364544 0.40553823
000020 f1 ab eb 3d 69 ae 84 3f c2 bf 9a bf 92 3f b8 bf
       0.115074046 1.0365726 -1.208977 -1.43944
000030 49 1f 4c bf 9b 13 05 3f 5b 35 99 bd 13 cd cb 3e
       -0.7973524 0.5198304 -0.0748088 0.39804897
000040 c1 79 32 3e fd 0e 60 bd 53 3a 2a 3d f4 3d 02 bf
       0.17429258 -0.054701794 0.04155953 -0.5087578
000050 c8 23 b2 3f ea 76 84 3f 15 7a 7c 3e 31 39 27 3f
       1.391717 1.034879 0.24655946 0.6532164
000060 90 85 79 3e 87 85 40 bf 44 8c b8 bf 04 40 1f c0
       0.24367356 -0.75203747 -1.4417806 -2.4882822
000070 dc ba bf bd 4b 35 74 bf 0c 0a fa bd 11 1c 48 bf
       -0.093618125 -0.9539382 -0.122089475 -0.78167826
000080 93 64 b4 bf 5d 33 46 3f 05 45 3f 3f 70 90 b0 3f
       -1.4093193 0.77422124 0.7471469 1.3794079
000090 67 a6 29 bf 55 a5 80 3f 67 51 55 bf c5 36 0e 3f
       -0.66269535 1.0050455 -0.83327335 0.5555232
0000a0 86 fe 84 bf c4 51 57 be c8 c6 61 bf 38 43 20 3f
       -1.0390174 -0.21027285 -0.8819394 0.6260257
0000b0 58 22 49 3c 76 5a 47 3d 59 01 9c 3f d2 8f 1a 3f
       0.012276255 0.048670255 1.2187911 0.603757
0000c0 1f e0 a5 3f b0 68 51 3f 4d 7b 79 be 71 44 7e bd
       1.2959021 0.81800365 -0.24363442 -0.06207699
0000d0 a9 8f 18 bf 89 e0 93 3e 91 ca 85 bf 18 87 35 bf
       -0.5959421 0.28882244 -1.0452443 -0.7090926
0000e0 b5 41 85 be 63 c1 be 3f a7 78 a3 bf 1c 02 9f bf
       -0.26026693 1.4902767 -1.2771195 -1.2422519
0000f0 49 b3 19 3f 72 bc 07 bf 27 94 ed 3f 02 aa 45 bf
       0.6003919 -0.5302192 1.8560838 -0.77212536

weight f4 [64, 1]
000000 37 21 ad bd a3 93 71 bf 76 0b 23 3f 80 4d af bf
       -0.08453601 -0.943659 0.63689363 -1.3695526
000010 5b e6 40 bf d9 cd fd 3e de 99 a1 3f 61 93 94 bf
       -0.75351495 0.49571112 1.2625082 -1.1607476
000020 82 5a ad be 7d fd 04 bf 82 5c be be 03 cf 02 bf
       -0.33858114 -0.5194929 -0.37179953 -0.51097125
000030 9d 70 f2 be 9c b4 8b 3e ab 71 05 bf f4 f5 50 3f
       -0.47351542 0.27286232 -0.5212657 0.81625295
000040 d5 ce 28 3f 0b 9d 74 3e f6 e8 47 bf 15 eb cb 3e
       0.659406 0.23888032 -0.78089845 0.3982779
000050 e7 84 8d be c7 62 02 bf 54 94 fb 3d 4d 36 df bd
       -0.2764046 -0.5093197 0.12284151 -0.10899029
000060 7a 87 09 be ba e2 9a bf 0d 72 96 bf 5b 23 1d bf
       -0.13430586 -1.2100441 -1.1753556 -0.61382073
000070 b5 24 a9 bf 38 7f 5f be 80 83 b3 be 62 05 c6 be
       -1.3214327 -0.21825874 -0.35061264 -0.38675982
000080 27 31 23 bf 27 43 94 bf 98 2d 92 bf 98 71 83 3c
       -0.63746876 -1.1582993 -1.1420164 0.016045377
000090 b3 6f 40 be 25 8a 23 3e fe 89 7c bf ab 82 fa be
       -0.1879261 0.15970667 -0.9864806 -0.48927817
0000a0 aa a7 17 3f 91 00 22 bf 06 4f 98 bf 54 c0 fe 3e
       0.5924021 -0.63282114 -1.1899116 0.4975611
0000b0 53 8d ba 3f 28 48 c0 be bb c7 47 3f 67 36 90 bf
       1.4574379 -0.3755505 0.7803914 -1.1266602
0000c0 04 52 12 be 55 2a 1b bf c0 16 e7 be e6 4f 82 3f
       -0.14289099 -0.6061147 -0.45134544 1.0180633
0000d0 7b 67 92 bf 38 50 c1 3e 8f 3c e0 be d7 6e f7 be
       -1.143783 0.37756515 -0.43796203 -0.48326752
0000e0 1d 0d 33 bf 58 1d dd 3d f8 ed 96 be 02 42 a1 3e
       -0.69941884 0.107966125 -0.2947843 0.31495672
0000f0 c0 b9 b2 3e 99 73 85 3f 43 f8 1b 40 8f df 4d bf
       0.3490734 1.0425903 2.4370277 -0.8041925

bias f4 [64]
000000 0a 8e a6 3a 36 cd 0d 3f 3e 49 e9 3e d8 9c e9 3b
       0.0012707126 0.5539125 0.45563692 0.007129293
000010 6f 10 1d 3f 8e 15 44 3f a4 35 18 bf 61 84 67 3f
       0.613532 0.7659539 -0.5945685 0.9043637
000020 71 3b 30 3f 86 62 cd be 82 a6 3d 3f a6 82 3f bf
       0.688407 -0.4011423 0.74082196 -0.7480873
000030 69 44 84 3f 93 37 7b bf 7b d3 39 3f f2 61 bf 3e
       1.0333377 -0.98131675 0.7258832 0.37379414
000040 cb 7e e7 3e eb b9 8a 3f 21 a6 15 bf 2c c3 06 bf
       0.45213923 1.0837988 -0.5845662 -0.5264156
000050 22 8a a6 bf f4 ac 8a 3e 1a ae 46 bd 56 19 2e 40
       -1.3010905 0.27085078 -0.04850588 2.7202964
000060 e2 df e5 3d f1 37 ee 3e 8f d9 14 3f 5b 4d 93 3f
       0.11224343 0.46527055 0.5814447 1.1507982
000070 10 33 23 bf 62 90 0c bf 9f b7 2a bf 3a fe f7 3e
       -0.6374979 -0.5490781 -0.66686434 0.48436147
000080 dc d1 c0 be 2b bf 33 be 8b 74 41 be 49 71 47 bf
       -0.3766011 -0.17553394 -0.18892114 -0.77907234
000090 65 ce 6c 3f 17 d4 34 3f b3 52 5d 3e ac f5 28 bf
       0.92502433 0.70636123 0.21613578 -0.65999866
0000a0 3c c6 19 bf 62 f3 20 3f 86 e3 e3 be 73 20 a1 be
       -0.60068107 0.6287137 -0.44509524 -0.3147007
0000b0 54 fd 4c 3e f4 c6 21 3d af 10 98 be 6f a9 bd 3e
       0.20018512 0.039496377 -0.2970023 0.3704333
0000c0 7b e8 56 3e 1e 32 35 be 5e 6f a4 bf 6b d7 30 40
       0.20987122 -0.176949 -1.2846487 2.763148
0000d0 97 1e e7 3e f0 66 a7 3f f5 84 21 bf 58 5b d5 be
       0.45140526 1.3078289 -0.630935 -0.41671252
0000e0 4b 08 3f bf 99 01 50 bf 37 42 53 3f 2a 44 90 bf
       -0.7462203 -0.8125244 0.8252291 -1.1270802
0000f0 39 bb 73 bf d1 77 9d 3d c2 90 39 40 0b 24 22 bb
       -0.95207554 0.07688869 2.8994603 -0.0024740722

weight f4 [64, 64]
000000 8c ff 6b bd be 15 8e bd df aa 49 3d 95 82 a4 bd
       -0.057616755 -0.06937741 0.04923522 -0.08032719
000010 6d b2 3f 3d e3 4c 1c be 8e f5 4a 3d cb f7 ec bc
       0.04680102 -0.15263705 0.049550585 -0.02892675
000020 66 44 13 be 24 83 90 3d fa 11 8c 3d f3 34 3b 3d
       -0.1438156 0.07056263 0.06839366 0.045704793
000030 ac ac 7a 3d d2 80 1c bd ae 73 81 3d d0 75 e4 3d
       0.06119983 -0.03820879 0.06320892 0.111552835
000040 4d 2a 73 be 80 5b 28 3b a7 65 83 bc ba b1 34 3c
       -0.23746605 0.0025689304 -0.016039683 0.011028701
000050 57 5c 94 bb 2d 25 70 bd c7 04 25 bd 08 cd 34 3f
       -0.0045276093 -0.058629204 -0.04028776 0.7062535
000060 b9 f2 be 3c 8c 2f 4f bd a7 71 48 bc 0f 7a 9b be
       0.023309099 -0.050582454 -0.012234128 -0.3036656
000070 a5 c5 70 bd f7 71 13 bc f6 d4 55 bb 7f 04 8d bd
       -0.05878224 -0.008999339 -0.0032628155 -0.06885623
000080 ad 3c 28 3d ed 7d 8e bd 32 34 af 3d 6a bd 02 3d
       0.04107349 -0.06957612 0.08554877 0.03191892
000090 60 28 52 3d d8 ec 43 bd aa b2 0f 3d f6 a2 15 3d
       0.051308036 -0.047833294 0.035082497 0.036532365
0000a0 eb 65 2e be c9 91 5f bd 48 f4 6c 3d c2 12 19 bd
       -0.17031066 -0.05458239 0.057850152 -0.037371404
0000b0 98 a1 25 3e 23 69 51 bd fa 34 91 bd 11 0f f6 bd
       0.16174924 -0.051125657 -0.070901826 -0.120145924
0000c0 1c 4b 4a 3e 18 fb bb bc a9 93 8c bd 92 8d 3e 3f
       0.19755214 -0.02294688 -0.068641014 0.7443477
0000d0 7d 99 26 bd 30 45 ca 3d 31 3f 05 bd 8b 95 7e bd
       -0.04067372 0.09876478 -0.032530967 -0.062154334
0000e0 2b 79 99 3b 68 c4 9f 3d 10 09 0e 3d d8 3b 32 bd
       0.004683634 0.078011334 0.03467661 -0.043514103
0000f0 0e 2c d6 bd e6 5f 44 be 26 20 ce bd bb a4 0f 3c
       -0.104576215 -0.19177207 -0.100647256 0.008767302
000100 3c 54 bc bd eb 97 fb 3d d9 78 d2 3d 08 fe 8f bd
       -0.09195754 0.122848354 0.10276956 -0.070308745
000110 2b 54 a3 3d d5 58 7f 3c 6b a3 b0 3d e1 9d 8d bc
       0.07975038 0.015585144 0.086249195 -0.017287197
000120 bd b1 bc bd 3e bd fa bd ec 8b db 3b fd e2 4e bd
       -0.092135884 -0.12243126 0.0067000296 -0.05050944
000130 e3 5d d2 bc cd 05 78 3d ef b3 65 3e 6d 16 fd 3d
       -0.025679534 0.060552407 0.2243192 0.12357793
000140 04 04 0d be e2 2a 64 3e b7 05 b2 bd f4 4d dd 3c
       -0.13771063 0.22281983 -0.08692496 0.02701471
000150 97 2f 60 3a 01 2d 89 3c 01 a2 61 3d ef 77 b0 bc
       0.00085520133 0.016745092 0.05508614 -0.021541564
000160 2c f6 1c 3e 7a 92 00 be 5f a6 c7 bd 47 70 e2 3b
       0.15328282 -0.12555876 -0.0974853 0.006910357
000170 0b 32 fd 3d f2 8c f4 bd 8d e2 94 3d c6 82 b1 3d
       0.123630606 -0.11940946 0.07269774 0.08667521
000180 c2 c9 58 be 1a e9 bb 3d 28 21 13 3d cf 98 6d 3d
       -0.21170714 0.0917532 0.035920292 0.058007058
000190 e7 31 6c be 78 39 f0 3d 1f 98 b2 bd a0 74 86 bc
       -0.23065911 0.11729711 -0.08720421 -0.016413033
0001a0 5c 65 81 bd 73 9b 3f 3e 7c 36 0c be a4 d2 e7 bd
       -0.06318161 0.18711643 -0.13692659 -0.113194734
0001b0 82 01 7d 3d 0d 8f e4 bd cb dd 96 3d 21 98 35 be
       0.061769016 -0.11160097 0.073665224 -0.17733814
0001c0 3c 32 40 3d fa 9c ef 3d f9 ea c2 3d 62 aa b3 bc
       0.046922907 0.11699863 0.09517474 -0.02193183
0001d0 e6 de 88 bd af d8 8f 3d e7 6c 03 3c b3 bb 0a 3e
       -0.066831395 0.07023751 0.00802157 0.13548164
0001e0 a2 04 3f 3c ca 7e e7 3d 1c 92 65 be b7 42 07 bc
       0.011658819 0.1130348 -0.22419018 -0.008255652
0001f0 c6 c6 17 3c b7 ec 50 3b 23 85 bf be 13 d0 5c 3d
       0.0092637 0.0031879374 -0.37406263 0.053909373
000200 8c f8 96 bd ba 54 ed be f8 97 54 3d 64 7f 11 3e
       -0.07371625 -0.46353704 0.05190274 0.14208752
000210 35 e5 3a bd af e7 c2 bd 38 ad e9 bd a8 c6 b7 3d
       -0.045628745 -0.095168464 -0.11409992 0.089734375
000220 3f 5e 11 bd f5 ec 03 bf f0 b1 66 3e 2b 81 70 3f
       -0.03549027 -0.5153344 0.22528815 0.93947095
000230 54 04 03 3e bf 87 3c be 59 d3 48 3d e0 9e fd bd
       0.1279462 -0.18411158 0.04902968 -0.123838186
000240 90 f3 23 3e 76 63 5f 3c 5c 21 9c bd 0a 25 3a 3e
       0.1601088 0.013634553 -0.0762355 0.18178192
000250 1a 40 f3 be ac 4f 2d be 81 06 87 bd 1f bc 2a bf
       -0.47509843 -0.16924924 -0.065930374 -0.666933
000260 de 8d af 3d 48 06 5d 3e 77 28 b9 3e 5b 64 10 3f
       0.08571981 0.21584427 0.36163685 0.5640313
000270 94 59 f6 bd 12 4f ad 3e 20 3a 30 3e c5 9a 3f 3e
       -0.120288044 0.33849388 0.17209673 0.18711384
000280 0e 87 01 3f 11 1c 83 be f7 0e 1e be 5e 2f 1a bf
       0.505967 -0.2560735 -0.15435396 -0.60228527
000290 05 f8 2b 3e 15 9a 98 be d5 93 c7 3c 7e 1d 2f be
       0.1679383 -0.29805055 0.024362484 -0.17101094
0002a0 ed 42 88 3e bf a8 88 3c 90 00 70 3e fa 43 1c be
       0.2661356 0.016682027 0.23437715 -0.15260306
0002b0 b9 13 ac bc 5a 2a a2 bd 46 d2 0e be fb 95 b6 3d
       -0.021005498 -0.07918234 -0.139474 0.08915325
0002c0 ef 96 0e be fa ea 67 be dd d1 af bc 61 22 e1 be
       -0.13924764 -0.2264823 -0.021462375 -0.43971542
0002d0 20 02 a5 bc ba e8 a6 be 5b 6c 5b 3d 61 3d b2 3e
       -0.020142615 -0.3259943 0.053570133 0.34812453
0002e0 20 44 56 3c 40 f0 56 bf d2 19 2b 3d 2c 29 78 3d
       0.013077766 -0.8396034 0.04177267 0.06058614
0002f0 e6 b4 6f be 89 1d 8c 3d 35 a0 06 bd 9e e7 3f 3e
       -0.23408851 0.06841571 -0.03286763 0.18740699
000300 04 4c c8 bd 2c 36 26 3e e8 13 e1 3d cf 6d 50 be
       -0.09780124 0.16231602 0.10990125 -0.20354389
000310 58 10 aa 3c 46 6d ab bb e8 59 fb 3c a8 71 af bd
       0.020759746 -0.0052315323 0.03068252 -0.085666
000320 6a a0 60 be 4e ea eb bd c3 8a 5c bd cb 27 06 be
       -0.21936193 -0.115192994 -0.05384327 -0.13101117
000330 8b ba 21 be 3d 5d d8 bc 38 eb 2a 3e 6c b2 bd 3d
       -0.15793817 -0.026411647 0.16691291 0.09262547
000340 bc b8 15 be d7 28 98 3d 61 e4 86 bd af c9 b4 3d
       -0.14621252 0.074296646 -0.065865286 0.088275306
000350 2a 4b c8 3d 35 f0 17 3e 7d 6f c1 3d 3c 60 31 3d
       0.097799614 0.14837725 0.09445093 0.043304667
000360 1b e3 22 3e bc d9 e5 bd bf 54 26 be d6 1f c8 3c
       0.15906946 -0.1122317 -0.16243266 0.024429243
000370 63 be 13 3e 37 88 27 be 3d 25 0f ba 3d 2d 02 3c
       0.14428096 -0.16360556 -0.0005460566 0.007945356
000380 63 bb 83 be 3f a5 97 3d ad dc fd 3c 86 15 3f 3e
       -0.25728902 0.07404565 0.030989015 0.18660554
000390 f5 c9 39 be 24 f7 f4 3d 98 db db bd de a6 b7 bd
       -0.18143447 0.11961201 -0.107352436 -0.08967374
0003a0 78 89 a6 bc a4 6a 06 3d f0 92 2c be 05 b1 81 bd
       -0.020329222 0.032816544 -0.16852927 -0.06332592
0003b0 43 50 21 3e 61 d5 1a be 2b 0f 35 3d be 4b 44 be
       0.15753274 -0.1512046 0.04420392 -0.19169518
0003c0 24 b9 91 3c 98 fa 7c 3d 74 8c 08 3d 37 7b a7 3d
       0.017788477 0.061762422 0.03333707 0.08177798
0003d0 1f 26 aa bd 07 10 a8 3d 17 2f 28 be 14 46 1a bc
       -0.08308052 0.08206182 -0.16424213 -0.009416122
0003e0 34 68 e4 3d 5d 73 93 3d 77 92 1c bd 03 d0 e9 bd
       0.11152688 0.07199738 -0.038225617 -0.11416628
0003f0 58 a9 be bc 75 c7 22 be dd 13 e1 be 82 38 1d bd
       -0.023274109 -0.158964 -0.43960467 -0.03838397

bias f4 [64]
000000 ef f6 cf bd cb f0 4b be 96 df 60 bc ad 55 01 be
       -0.10154521 -0.19916074 -0.013725182 -0.12630339
000010 7d 4c 04 3e 13 83 50 be aa cb e3 be 38 16 90 be
       0.12919803 -0.20362501 -0.4449132 -0.28141952
000020 5d 93 3c 3e 87 2d 51 3d dc 78 ae 3d 7a 6b 78 3c
       0.1841559 0.05106881 0.08519146 0.015162343
000030 4c 6c 26 bd c6 e5 03 be 7f cd f6 bc 0e 91 e7 3c
       -0.040630624 -0.1288062 -0.030127285 0.02826741
000040 e5 69 ab be bb e6 8f 3e d4 c1 56 3d 4f 34 48 be
       -0.3347923 0.2810572 0.052430943 -0.19551204
000050 1f b2 5c be 85 94 6d 3d e7 84 04 3e 37 9c 6b 3e
       -0.21552323 0.058002967 0.12941323 0.2300881
000060 19 ca 59 be c9 31 36 3e 6b 4c 36 3e d9 0d 97 3e
       -0.212685 0.17792429 0.17802589 0.29502752
000070 7c 21 17 be b5 2e 51 be 75 29 78 3e c4 0c f0 bd
       -0.14758867 -0.20427974 0.24234565 -0.11721185
000080 73 00 0a 3e e8 b2 cd bd 71 de 0a be 50 4e a4 be
       0.13476734 -0.10043889 -0.13561417 -0.32090998
000090 a2 2b 81 bd 0a 00 32 be a9 11 bd 3d 43 1d 96 3e
       -0.063071504 -0.17382827 0.09231884 0.293192
0000a0 18 68 7c be dc 8e 24 bf e3 42 8b be da 11 e8 3d
       -0.24649084 -0.64280486 -0.27199468 0.1133153
0000b0 da 2a 64 3e b3 01 b5 3d 5f a9 d0 be d7 02 75 be
       0.22281972 0.08838215 -0.4075422 -0.23926865
0000c0 12 96 2f 3d 70 5e 85 3e 3e 33 88 3e e5 58 85 3d
       0.042867728 0.26048613 0.26601595 0.06511096
0000d0 a3 0a db bd 7e 5f 2f 3e ac 5d 43 3e 76 51 56 3e
       -0.10695388 0.17126271 0.19078702 0.20929512
0000e0 b4 a7 c6 bc c7 e3 bc 3e bf 8c 09 3c 58 88 1c 3e
       -0.024249889 0.3689253 0.008395373 0.15286386
0000f0 01 01 18 3e dc 9d 18 be 3c 2d a5 3e 3d 1c 63 be
       0.14844133 -0.14903969 0.32261074 -0.22178741

weight f4 [64, 1]
000000 bd a8 15 bf a1 cb 3e be 64 b7 81 bf 70 4f fc 3c
       -0.584606 -0.18632366 -1.0134091 0.030799598
000010 57 3e 59 bf 7e 8f 98 3f 17 a0 91 bf 30 1d 8e be
       -0.8486075 1.191879 -1.137698 -0.27756643
000020 78 73 33 3e 7d e1 5d 3e 3f e4 07 3f 56 62 07 bf
       0.17524517 0.21668048 0.5308265 -0.52884424
000030 e7 ed b9 3e a7 ad 65 bf 44 07 96 be fd 50 0c 3d
       0.36314318 -0.897181 -0.29302418 0.034256924
000040 70 09 4e bf 22 a7 81 bf ac fd f8 3e b6 a8 34 bf
       -0.8048315 -1.012913 0.48631036 -0.7056993
000050 70 25 94 3f 4f a8 6c bf 0b 60 e6 be e1 56 fd 3e
       1.1573925 -0.9244432 -0.4499515 0.49480346
000060 c0 11 66 be 4d 44 43 3e 30 65 62 3f e4 bc 20 3f
       -0.22467709 0.19069023 0.8843565 0.62788224
000070 1c b5 70 3f 0d 20 99 bf 29 dd 46 3f 15 aa 9d 3e
       0.9402635 -1.1962906 0.77681214 0.30793825
000080 e5 6b a9 3e ef 29 62 be 60 b2 b3 be 3a c5 04 bf
       0.3309013 -0.22086309 -0.35097027 -0.51863444
000090 1c ee af 3e 79 97 40 bf 32 41 9e bf 64 9d 14 3f
       0.3436135 -0.7523113 -1.2363646 0.5805266
0000a0 36 29 da be b0 19 bc bf 65 ed 45 bf 78 62 37 3e
       -0.42609566 -1.4695339 -0.7731536 0.17908657
0000b0 14 1f 7b bf c5 36 f9 be fc 00 83 bf 75 bd dc be
       -0.98094296 -0.48674598 -1.0234675 -0.43113294
0000c0 31 80 f4 3e fa 18 5e 3f de 23 cd 3e c7 2a a0 be
       0.47754052 0.8675686 0.40066427 -0.31282637
0000d0 57 41 9d 3d ce 40 7c bf 8c 46 8f be 76 4d 7f 3e
       0.07678478 -0.98536384 -0.2798351 0.24931893
0000e0 f9 99 6a bf 2b ed 8d 3f cf 98 57 bf 46 65 96 bf
       -0.91641194 1.1088003 -0.8421754 -1.1749656
0000f0 d6 40 85 3e 08 33 9a 3f c5 d1 04 3f 02 38 18 bf
       0.26026028 1.2046824 0.5188258 -0.5946046

weight f4 [64, 1]
000000 b3 47 20 be 38 5e 8d 3e df e8 f9 3e cc 88 b6 3e
       -0.15652351 0.27610946 0.4881048 0.35651243
000010 04 46 b7 3f 91 93 b9 3f aa a2 ec 3e 9f 0a 81 3d
       1.4318242 1.4498159 0.46217853 0.06300854
000020 12 77 9a 3e 0b a2 4a 3f a3 4b 07 3f 31 8a 35 3f
       0.30168968 0.7915351 0.5284979 0.7091399
000030 12 b2 05 3f 1b 4f e9 bd 15 6c 1a 3f 2b 26 3a 3f
       0.5222484 -0.11392041 0.6032117 0.7271449
000040 67 42 75 3e bf 99 e0 3f 9f 7a 06 3f 92 e2 b4 3e
       0.23951112 1.754692 0.52530855 0.3532911
000050 c8 9d cc 3e 20 02 25 3f 54 40 18 3f bf e8 0e 3e
       0.39964128 0.6445637 0.59473157 0.13955973
000060 50 57 58 3f 18 2c 7f be 38 26 36 be 12 ae 36 be
       0.8450823 -0.24919164 -0.17788017 -0.1783984
000070 f3 6c 5e 3f 57 88 df 3e bb a7 8c bd 24 d7 dd 3e
       0.86884993 0.43658707 -0.068679295 0.43328202
000080 e6 1a b3 3d f5 c3 83 bd 67 4f ab 3f 77 34 d5 bd
       0.08745365 -0.0643386 1.3383607 -0.104103975
000090 89 1e 83 3f 5b e3 43 3f 43 f9 3f 3f d6 61 95 bd
       1.0243694 0.7651879 0.7498972 -0.07294051
0000a0 85 10 df bd 71 e9 a7 3f 14 06 5b be fa 8b 10 3e
       -0.10891823 1.3118116 -0.21389037 0.14115897
0000b0 fc 55 68 3f 02 f4 49 3f 48 c0 9f 3f 1a ec 0f 3e
       0.907562 0.7888795 1.2480555 0.1405491
0000c0 d5 78 4c bd f4 1e ba be b5 95 18 3b b6 1f bd 3f
       -0.049919922 -0.3635174 0.0023282592 1.4775302
0000d0 8d c6 67 3d 6e 9d 6d 3e 41 8f 85 3f 4b fc bf 3f
       0.056585837 0.23204586 1.0434343 1.4998869
0000e0 b0 fc 17 3f b9 1f fb 3e 36 2d f6 3e c0 ef 4f 3f
       0.59369946 0.4904764 0.48081368 0.81225204
0000f0 21 35 40 3f 7a c2 2a 3f b2 ee e6 3d 09 92 a6 3e
       0.7508107 0.66703 0.11275996 0.3253329

bias f4 [64]
000000 76 32 6e 3f b9 6f 08 3f bd 82 27 40 2a 10 bf 3e
       0.9304575 0.53295475 2.6173546 0.3731702
000010 5b 5c 46 40 b5 ff 7a 40 59 65 21 40 0e 1d 0e bc
       3.099387 3.921857 2.5218108 -0.008673919
000020 2a 5c 25 3f 26 1e 86 3f ef de 56 3c a0 16 88 3f
       0.64593756 1.047795 0.013114675 1.0631905
000030 e8 d7 86 3f 2f 83 93 be 4a 61 37 3e fe 22 bb 3f
       1.0534639 -0.28811023 0.17908207 1.4620054
000040 98 0a 63 3e 0b 39 18 40 3b 4f 26 3f 20 56 c9 3e
       0.2217201 2.3784816 0.64964646 0.3932352
000050 a8 38 09 40 2f 4b 14 40 99 28 bc 3e 65 82 d3 3e
       2.144083 2.3170888 0.36749724 0.4131042
000060 55 a5 69 3f ef 38 d9 3e db de 8b bd c8 70 0b 3f
       0.912679 0.4242625 -0.06829616 0.54468966
000070 7a 3a 81 3d 9e 13 fd 3f 64 5a db 3e 66 c2 85 3f
       0.06309982 1.9771612 0.428424 1.0449951
000080 94 ba f1 3d 35 58 d6 3d 89 e4 f7 3f 08 ad 32 3f
       0.11803165 0.10466043 1.9366618 0.69795275
000090 24 45 66 3f e8 17 fc be 62 eb bb 3f 99 c7 79 3e
       0.8994925 -0.4923699 1.4681208 0.24392547
0000a0 53 57 1b bf 4a 19 81 40 e8 50 94 3e c4 8c 13 3f
       -0.6068012 4.034337 0.28967977 0.57636666
0000b0 b0 1a 01 40 b4 53 ed 3e 97 dc a5 3f 3c 36 10 3d
       2.0172539 0.46352923 1.2957944 0.035207972
0000c0 a2 f4 0f 3f 7f bb d2 3e 70 18 54 3f 92 95 e2 3f
       0.56232655 0.41158673 0.8284979 1.7701895
0000d0 71 08 28 3f f1 43 ba 3f e6 d3 14 be 9b 27 4d 40
       0.6563788 1.4551984 -0.14533958 3.2055423
0000e0 02 cb d4 3e 54 81 f6 3f 18 06 68 3f 52 37 f3 3f
       0.41561133 1.9258218 0.906343 1.9001257
0000f0 39 04 76 3e 3d 68 b8 3f 92 01 39 3f 45 da 04 3e
       0.24025048 1.4406811 0.7226802 0.12973888

weight f4 [64, 64]
000000 43 80 cd 3e 59 6e 9c bd 64 53 50 bf 90 5c 33 bd
       0.40136918 -0.07638235 -0.81377244 -0.043789446
000010 5e e9 dd 3e 48 d1 fc be fa a6 15 bd fc 89 77 bd
       0.43342108 -0.4937842 -0.036536194 -0.060434327
000020 f3 8d 6c 3e cd b3 a4 be 50 8f c3 bd fb 0c f8 be
       0.23101024 -0.32168427 -0.09548819 -0.48447403
000030 17 79 c6 3e 37 48 b3 bc ec 68 a9 3e df b4 72 3e
       0.3876426 -0.02188502 0.33087862 0.2370181
000040 12 ce 35 3d f5 bd 44 bf 5c 9c f1 3e c9 ac 0e bd
       0.044385977 -0.7685235 0.47189605 -0.03483275
000050 d7 98 3f 3f 79 68 38 bf b0 79 3c bd e0 35 ac 3c
       0.7484259 -0.7203441 -0.046014488 0.021021783
000060 07 4d d7 bd d1 d8 f1 3c 75 a5 e1 3b fa bf 0c 3d
       -0.10512739 0.029522331 0.006886179 0.03436277
000070 3c 0c d4 3e 0a 04 88 3d ae 0d 3c 3d 93 66 6e 3e
       0.41415584 0.066413954 0.045911483 0.23281316
000080 97 08 26 3c 66 ac e5 3d 27 11 9c 3e ef 93 5e 3c
       0.010133884 0.11214523 0.30481836 0.013585075
000090 e4 7e ad 3e 75 ff 00 3e fd c3 31 bf 4a 91 e6 bc
       0.33885872 0.12597449 -0.6943968 -0.028145451
0000a0 15 e0 ca 3c 54 40 36 3d 03 4f 80 3c f6 08 73 be
       0.024765054 0.04449494 0.015662676 -0.23733887
0000b0 42 70 34 bf f0 f2 d2 be 13 8c 68 3d a0 c7 7d ba
       -0.7048379 -0.41200972 0.05677421 -0.00096809305
0000c0 f1 92 5f 3d 62 f3 c3 3c 7e 69 7d 3d 48 a7 af 3e
       0.054583494 0.023919765 0.061868183 0.34307313
0000d0 0b c7 d4 3e b4 e5 eb be 40 ad 85 be f0 21 57 be
       0.41558108 -0.46073687 -0.26108742 -0.2100904
0000e0 28 dd 0f bf 13 59 80 bd 22 b9 f2 be 72 cf 20 bf
       -0.5619683 -0.062669896 -0.4740687 -0.62816536
0000f0 da 2e a7 be c7 61 3b 3f aa 55 df 3c 04 4f a2 3d
       -0.32652932 0.7319607 0.027262527 0.07925227
000100 25 42 ee 3e a9 10 1b be 02 fe 93 bf b0 23 87 bd
       0.4653484 -0.15143074 -1.1561892 -0.06598604
000110 72 b3 b4 3e 58 39 0f bf 61 4d 52 be 5e ca 68 3d
       0.35293156 -0.55946875 -0.2053733 0.056833617
000120 33 28 89 3d cc 3d 21 be 9e c0 68 3d 3b 61 0c bf
       0.066971205 -0.1574623 0.05682432 -0.5483586
000130 47 8f e6 3e be 75 3e bd f2 b0 76 3e 90 71 82 bc
       0.45031187 -0.046499006 0.24090937 -0.015923291
000140 5d fb d2 bd d5 b8 88 bf 04 f9 ef 3e bd 27 f4 bd
       -0.1030185 -1.0681406 0.4686967 -0.11921642
000150 a3 f8 7c 3f 58 b6 97 bf f7 74 ab be a6 9f d9 3d
       0.9881689 -1.1852522 -0.33487675 0.10626154
000160 e7 f8 2f bd 6b 01 95 3b f1 fd 9b 3b 8f da b3 3d
       -0.04296198 0.004547288 0.004760497 0.08781921
000170 fa 15 06 3f 9a a9 82 3d 2f 9c 1a 3e 1d ac 6a 3e
       0.52377284 0.06380005 0.15098642 0.22917219
000180 79 f1 0f 3e 19 23 82 3d cf 10 1c 3e 34 91 46 3c
       0.14056958 0.063543506 0.15240787 0.01211958
000190 fd 13 42 3f f1 99 b2 3c 11 44 86 bf 68 9e ab 3d
       0.7581175 0.02180192 -1.0489522 0.08379823
0001a0 f8 9e 51 bd a4 9f 44 bd 0d b4 de bd 81 02 05 be
       -0.051176995 -0.048003808 -0.10874186 -0.12989236
0001b0 b0 29 62 bf 8b 56 0b bf c3 e3 f1 bc 1c 7e 52 bb
       -0.8834486 -0.5442893 -0.02952755 -0.0032118624
0001c0 93 01 ac 3d e7 42 14 3d c4 f1 05 3d c5 88 55 3e
       0.08398738 0.036196616 0.03270127 0.20852955
0001d0 0a a3 ce 3e a7 4b 4e bf 33 33 ae be ae 03 00 3c
       0.40358764 -0.80584186 -0.34023437 0.007813377
0001e0 bf c5 48 bf ce 39 b8 bd 37 96 51 bf ba 25 5b bf
       -0.78426737 -0.089954 -0.81869835 -0.8560444
0001f0 7a 24 5e be f9 9a 8b 3f 2b 6f 52 3c 33 37 1e bd
       -0.21693602 1.0906669 0.012843887 -0.03862686
000200 0c 6e 09 3f 94 38 b5 3b d5 de ae bf c5 d6 ab bd
       0.53683543 0.0055304263 -1.3661753 -0.083905734
000210 1d b0 b1 3e 4c 36 0b bf cd 55 7f be 07 a1 7b 3d
       0.34704676 -0.54379725 -0.24935074 0.061432865
000220 9f de 52 3d a0 4f 39 be 5f 7a 2b 3d df 83 14 bf
       0.05148184 -0.18096781 0.04186475 -0.5801372
000230 9a 93 01 3f 30 37 0b bd 26 94 15 3e 9a 69 96 3a
       0.5061585 -0.033988178 0.14607295 0.0011475564
000240 e2 3a 99 bc 28 ee a1 bf 77 b8 16 3f e9 02 22 be
       -0.018704835 -1.2650805 0.5887522 -0.15821423
000250 8e 03 89 3f 8b 5a ae bf a4 70 43 be 49 42 35 bb
       1.070421 -1.3621382 -0.19085938 -0.0027657917
000260 0d fc 0a bd 57 4a 57 bb 4a 8d 53 bd 48 e6 bd 3d
       -0.03393178 -0.0032850706 -0.051648416 0.09272438
000270 5d f7 15 3f 3d 97 88 3d 2d d0 f8 3d 65 98 4d 3e
       0.5858057 0.066694714 0.121490814 0.20077665
000280 ee 31 f6 3d a1 89 3c 3e eb b5 33 3d 43 11 0f bd
       0.12021242 0.18411876 0.043874662 -0.03492857
000290 b5 04 3d 3f d1 40 b6 3d 39 25 89 bf f2 17 eb 3d
       0.7383531 0.088990815 -1.0714484 0.114791766
0002a0 25 67 03 3e 98 99 02 bd 07 b6 bf bd e8 14 33 3d
       0.12832315 -0.03188476 -0.09360891 0.04372111
0002b0 be ef 5e bf 13 6f 14 bf 6b 01 53 bd 70 ad c4 bd
       -0.8708457 -0.57981986 -0.051515024 -0.09603393
0002c0 71 b0 8f 3d 4c 68 9e 3d 2c fc 6d 3d 46 91 d6 3e
       0.070160754 0.07734737 0.058101818 0.4190771
0002d0 de 63 c1 3e b7 8b 43 bf f2 8b 9f be 6c 75 71 3e
       0.37771505 -0.7638506 -0.31161457 0.23579949
0002e0 6b 2c 5a bf b9 31 f1 bd 32 ec 5f bf 7b 51 6b bf
       -0.85224026 -0.11777062 -0.8746978 -0.91921204
0002f0 ab 53 42 be 15 ae 9a 3f ce 63 98 bc a9 df fb 3d
       -0.1897723 1.2084376 -0.018602278 0.12298519
000300 90 58 2e bd 35 d9 f6 3d 2d e8 08 bd ea f5 fd 3d
       -0.04256493 0.12053148 -0.033424545 0.1240042
000310 5b 38 8e bd d0 48 81 3d 1f cb 46 3e 55 0c 28 3e
       -0.06944343 0.06312716 0.19413422 0.16410954
000320 0a cc 4a be f4 95 c0 ba fa 3f b0 bd 10 30 20 3d
       -0.19804397 -0.0014693127 -0.086059526 0.039108336
000330 6e 55 85 bd 11 ba a6 3d 42 92 17 3c 27 01 75 3d
       -0.06510435 0.08140958 0.009251179 0.059815552
000340 47 ca 99 3e e8 22 3d be d4 fd 3e bd f6 43 6d 3e
       0.30037138 -0.18470347 -0.046628788 0.23170456
000350 0b e0 86 3d 07 f6 a7 3b 89 3a 8b 3c dc ec 8a be
       0.065857016 0.0051257643 0.016995685 -0.27133834
000360 89 62 33 3e 82 fb 3f be 2f 8f 5d be 7c 17 69 be
       0.17518057 -0.18748286 -0.21636651 -0.22762865
000370 cd 6e c6 bc a8 d8 f6 3d 03 87 5e be 7c fd 34 3d
       -0.024222756 0.12053043 -0.2173119 0.044187054
000380 71 40 3f be 87 43 38 3d f7 0f f3 3d 23 43 89 3e
       -0.18676926 0.044986274 0.118682794 0.26809034
000390 d6 93 29 bc ac 61 6b 3e 78 7d 3a 3d ff db 36 be
       -0.010350188 0.22986478 0.045529813 -0.1785736
0003a0 85 80 a5 3d fd 2b 2c 3e 90 0e 75 3e 56 a0 bd bd
       0.08081154 0.16813655 0.23931336 -0.09259097
0003b0 ed 7e c0 bd ee a5 82 3d cd 4e 0a 3e df ee 56 3e
       -0.09399209 0.06379305 0.13506623 0.2098956
0003c0 81 5e 2a be f6 8b 78 be 01 ec 89 be c5 bc e5 bd
       -0.16637613 -0.24272141 -0.2693787 -0.112176456
0003d0 5d f2 22 bd e6 95 92 bb b5 95 15 3d 74 53 47 3d
       -0.039781917 -0.0044734357 0.036519725 0.04866357
0003e0 96 17 cf 3c a5 92 05 be eb 66 65 3c 3b 4a c4 bd
       0.025279801 -0.13044222 0.014001588 -0.09584471
0003f0 3d 75 d1 3c 64 3b 12 bd 10 c7 65 be 12 d1 88 3d
       0.025568599 -0.03570117 -0.22439218 0.06680502

bias f4 [64]
000000 b7 bb ce bd 52 ae d4 3d 19 e9 a1 3d 1a c2 77 be
       -0.100943975 0.103848115 0.07905788 -0.24195138
000010 49 06 a9 be 1a f9 f5 3d d4 92 ae be 8b 04 2c be
       -0.33012608 0.12010403 -0.34096396 -0.16798608
000020 20 52 31 bd 12 36 0f be 46 58 b0 3e df ed a1 be
       -0.04329121 -0.1398547 0.34442347 -0.31626794
000030 6c f4 9f be f6 b4 85 3d bd a5 45 be 4d 4c 96 be
       -0.31241167 0.06528656 -0.19301505 -0.29355088
000040 3b 80 dc 3d 6a bb 99 3e cf 0d 9c 3e 8c b6 12 bd
       0.107666455 0.30025798 0.30479285 -0.03581862
000050 25 ec 3b be b4 ea 76 be 47 d9 94 3b 7f 91 48 be
       -0.183518 -0.2411297 0.004542503 -0.19586752
000060 a5 f8 a5 3e 14 c9 82 3e 88 26 a4 bc a6 43 57 be
       0.32416263 0.25544035 -0.020037904 -0.210219
000070 be 6e 80 3e 3c 1b 38 be f6 9a 69 be 91 d0 d7 bc
       0.2508449 -0.17979139 -0.22813019 -0.02634457
000080 26 f4 a2 3e 99 d0 98 bd 81 ca b7 3e 6d 03 83 be
       0.31826895 -0.07461662 0.35896686 -0.2558855
000090 50 f0 02 be af f4 16 3e cc ca 4d be 9f 5f 0a bd
       -0.12786984 0.14741777 -0.20096892 -0.033782598
0000a0 50 40 56 3c 4d cf 0e be de b5 8d 3d bb 02 88 be
       0.013076857 -0.13946266 0.06919454 -0.26564583
0000b0 b2 51 10 be d9 53 b2 be cf bf 96 3e 26 1e 26 3d
       -0.14093664 -0.34829596 0.29443213 0.040556096
0000c0 13 3d a9 bc e8 17 ae 3d b6 0a 3b bd 98 15 6e 3e
       -0.020659005 0.085006535 -0.04566451 0.23250425
0000d0 1e 19 e2 3d f1 ed c8 3d 13 f1 58 3e cb a2 0c bd
       0.11039947 0.09811009 0.21185713 -0.03433494
0000e0 53 c5 40 3e ec 80 75 be 22 24 05 bd 89 b0 82 be
       0.18825273 -0.23974961 -0.032505162 -0.2552531
0000f0 d4 3f 27 bd 12 98 f1 3c 61 7d ad 3e 6f 90 26 3e
       -0.040832356 0.029491458 0.3388472 0.16266035

weight f4 [64, 1]
000000 53 66 e2 3e e9 86 4f 3d 95 10 a5 3e db 99 2e be
       0.44218692 0.05066577 0.32239214 -0.17050879
000010 76 a4 37 be 22 2f cf bd b8 ca 2c bf ea 00 a9 be
       -0.1793383 -0.10116412 -0.67496824 -0.3300851
000020 d9 0c f6 be 1e 20 ca be 8c 4b d4 3e a8 a8 2a be
       -0.48056677 -0.39477628 0.41463888 -0.166659
000030 41 ee 56 be 10 c3 0f 3e 88 4b ff be d7 b1 d2 be
       -0.20989324 0.14039254 -0.49862313 -0.41151306
000040 f0 9c 46 3e 7e d1 7c bd 62 a4 d5 3d ab 12 9e 3e
       0.19395804 -0.061723225 0.10431744 0.30873618
000050 9f 19 5a be d8 2a 46 be 66 88 c0 be d3 a9 45 be
       -0.21298836 -0.19352281 -0.37604064 -0.19303064
000060 34 59 9e 3e dd d9 c2 3d ea 4f 77 3f 1d 49 ac be
       0.30927432 0.095142104 0.96606314 -0.3364953
000070 df 16 b5 3e 7b 29 77 bf fa bd 74 be 84 2a 17 bf
       0.35369012 -0.9654767 -0.23900595 -0.5904925
000080 87 21 08 3f 7c 70 4f bf 4c 30 b9 3e ff 33 15 bf
       0.5317616 -0.8103101 0.3616966 -0.58282465
000090 99 65 11 bf ba 49 27 bf 00 af c1 be fc 2a c8 bd
       -0.5679565 -0.6534687 -0.37828827 -0.097738236
0000a0 0a 25 05 bf a4 76 31 bd 9a cf c3 bd f6 11 ba 3e
       -0.5200964 -0.043326035 -0.09561081 0.36341828
0000b0 97 f4 f0 be 8d f9 13 bf bf a9 b8 3e 70 57 2e be
       -0.47061607 -0.5780266 0.36067006 -0.17025542
0000c0 6b 86 3a bd 3e 61 f8 3e 5d 70 02 3f 55 10 d1 3e
       -0.045538347 0.4851169 0.509527 0.40832773
0000d0 d8 2c 09 3f 14 f8 88 be 83 e0 8c 3e 33 41 44 3e
       0.5358405 -0.2675177 0.2751504 0.19165497
0000e0 9f e3 53 3f e8 b5 22 bf 6d f3 11 bf d6 26 11 bf
       0.827692 -0.63558817 -0.57012063 -0.56699884
0000f0 55 dc 4c 3e b0 a4 93 3e a6 bb 84 3e 15 c1 1e 3f
       0.20005925 0.28836584 0.25924414 0.6201337

weight f4 [64, 1]
000000 d8 3d 22 3d a7 cc 5c 3e 99 25 73 3e 68 e0 30 3d
       0.03960976 0.21562444 0.23744811 0.04318276
000010 fb 2d ab bd 45 03 95 3e 8c ea 9f be 9d c0 e5 bc
       -0.083583795 0.29104057 -0.31233633 -0.028045947
000020 0c a5 82 3c 05 03 b1 3e a6 17 30 3e 68 65 8e 3f
       0.015947841 0.34572616 0.17196521 1.1124697
000030 c2 ba 0a 3e f9 6f ca 3f 4f ae e9 bd 70 b0 47 3e
       0.13547805 1.5815421 -0.114102 0.195009
000040 25 1c 16 3e eb fe ff 3e 91 4f 12 3e 02 eb 48 3e
       0.14659174 0.49999174 0.14288165 0.19620898
000050 24 56 10 3c a1 e0 ab 3d 31 f2 6b 3e eb fb 50 bd
       0.0088096 0.08392454 0.23041607 -0.051021498
000060 66 0e 91 3d 52 9d 92 3d 60 a7 a8 3e c9 c9 c6 3e
       0.070828244 0.07158913 0.32940197 0.38825825
000070 18 08 e2 bc 9f da d9 3e 59 ca df 3d 3d e1 d7 3e
       -0.02759175 0.42549607 0.10927267 0.4216403
000080 fd 27 ab be f4 d2 3c 3e ba 51 6c 3e f4 aa 2a be
       -0.33428946 0.18439847 0.23078051 -0.16666776
000090 74 74 87 3e 0c a0 b7 3d f4 55 fa 3d 25 f0 9b 3c
       0.26456034 0.089660734 0.122234255 0.019035408
0000a0 95 82 72 3e 53 46 b8 3f 1d 26 d5 3e 02 38 f0 3f
       0.23682626 1.4396461 0.4163064 1.8767092
0000b0 bc f9 c1 3e f1 da ea 3e 78 88 35 3e 7c 11 29 bd
       0.37885845 0.45870164 0.1772784 -0.04127644
0000c0 9f 42 2c 3f dd 5e 6c 3e 61 93 c3 3d d7 d8 f5 3e
       0.67289156 0.23083062 0.09549595 0.48016998
0000d0 52 a1 8d 3f a2 1d 83 3e 28 29 59 3d f0 b8 46 3e
       1.1064856 0.25608546 0.053017765 0.19406486
0000e0 56 99 90 3e 75 b8 0c bf e9 6b 8b 3e 7b f3 c9 3e
       0.28241986 -0.5496896 0.27230766 0.39443573
0000f0 9f d1 a1 3e 68 c3 74 3e 18 b7 f9 3d 56 e1 6f 3e
       0.3160524 0.23902667 0.121931255 0.23425803

bias f4 [64]
000000 bf 1c 99 3f 67 7e cd 3f 36 f6 d3 3f 7d 95 30 3f
       1.1961898 1.60542 1.6559513 0.689781
000010 8a 7c 93 3e 34 1a 0f 40 eb 8e a3 be a5 a9 e9 3e
       0.28805953 2.2359743 -0.31944975 0.4563724
000020 76 3d c0 3f ea 5c 27 3f 92 53 c8 3f 7e 62 34 40
       1.5018756 0.6537615 1.5650504 2.8185115
000030 56 d7 e3 3e 84 b7 9e 3f 6a 8f 00 3f fb 82 d4 3f
       0.44500226 1.2399755 0.5021883 1.6602472
000040 bb a8 b3 3f 53 7a 9a be e1 57 06 3f 11 5c c1 3f
       1.4035867 -0.3017145 0.5247784 1.5106221
000050 69 11 36 3f ed 0d 3f 3f cc 29 da 3f b7 3b 2e 3f
       0.71120316 0.74630624 1.7044005 0.6805987
000060 ac 3b 80 3e 54 34 2f 3f 9c 24 40 40 5e e6 02 3e
       0.25045526 0.6843922 3.0022345 0.1278319
000070 7d 11 1c 3f 09 cf 2f 40 8b 82 1e 3f 10 95 28 40
       0.60964185 2.7470114 0.6191794 2.634098
000080 61 63 d2 be ea 72 87 be 88 69 f3 be 56 ec aa be
       -0.41091445 -0.2645486 -0.4754145 -0.33383435
000090 4a cb da 3f 94 95 db 3f c0 e7 c3 bd 51 a7 97 3f
       1.7093289 1.7155023 -0.09565687 1.1847936
0000a0 0d 7d 08 40 a2 ef 58 3f 4c d8 85 3f 60 f2 8c 40
       2.1326325 0.8474065 1.0456634 4.404587
0000b0 cf 85 03 3f cd 23 76 be 1d 95 00 3e 3d 2a b9 3f
       0.5137605 -0.24037094 0.12556882 1.4466015
0000c0 78 00 d8 3e 5c 55 06 40 7a 9f a9 3f 1a 35 6e bd
       0.42187858 2.09896 1.3251793 -0.05815611
0000d0 5e 66 42 40 0a 77 2d 40 89 70 18 3f 6a 4b be 3f
       3.037498 2.7103906 0.59546715 1.4866765
0000e0 6e 5b 18 3e b2 e6 00 bf ca 97 db 3f 2e 81 48 be
       0.14878628 -0.50352013 1.7155697 -0.19580528
0000f0 be 28 b7 3f b5 cf d0 3f 58 73 f8 be 02 04 08 40
       1.4309309 1.6313387 -0.485255 2.1252446

weight f4 [1, 64]
000000 82 e9 8a 40 99 0b 8b 40 42 67 8c 40 25 5b 7d 40
       4.3410044 4.3451657 4.3876047 3.958688
000010 a1 51 7d 40 4d ee 98 c0 53 2d 81 40 8f 72 80 40
       3.9581072 -4.7790895 4.0367827 4.013984
000020 7d d6 8e c0 02 e5 81 40 48 78 8d 40 73 52 8c 40
       -4.4636827 4.059205 4.420933 4.3850646
000030 78 88 7d 40 4f b8 8b c0 32 e9 7f 40 61 5c 8d c0
       3.9614544 -4.3662486 3.998608 -4.4175267
000040 aa 41 8c 40 f7 a6 82 c0 e7 e3 81 c0 2d f9 8e 40
       4.3830156 -4.0828815 -4.05907 4.467917
000050 ef 01 81 40 fc eb 81 40 46 ac 8b c0 17 a3 81 40
       4.031486 4.0600567 -4.3647795 4.0511584
000060 5d 28 82 c0 c6 98 80 c0 17 22 bb 40 97 b1 81 40
       -4.067427 -4.018649 5.8479114 4.0529284
000070 92 08 82 c0 00 73 8f 40 5d 8c 7d 40 9f 3b 89 40
       -4.063546 4.482788 3.961692 4.288528
000080 e9 f0 81 c0 08 2e 86 40 70 d8 82 c0 8b 98 81 40
       -4.060658 4.193119 -4.0889206 4.049871
000090 98 4d 8c c0 b1 46 90 c0 f2 e4 81 40 88 41 8c c0
       -4.384472 -4.5086293 4.0591974 -4.3829994
0000a0 4b 3a 91 c0 cb b8 8a 40 cd 7e 89 c0 5d a2 9a 40
       -4.538366 4.3350577 -4.2967286 4.8323197
0000b0 c9 cd 82 40 9b 3a 83 40 99 43 7f c0 32 9c 8e c0
       4.0876203 4.100904 -3.9885008 -4.456567
0000c0 8f b9 8b 40 10 af 8c 40 66 3d 8f 40 f9 73 83 c0
       4.366401 4.39637 4.476245 -4.107907
0000d0 53 12 a1 c0 2f 17 a0 c0 f3 0d 81 c0 10 ca 8d 40
       -5.033487 -5.00283 -4.032953 4.430916
0000e0 66 ff 85 c0 6a 7b 85 40 f1 82 8c c0 ec fd 82 40
       -4.1874266 4.171315 -4.390984 4.0934963
0000f0 ae bc 97 40 8c 30 8b 40 50 74 83 c0 11 b9 8c 40
       4.741782 4.349676 -4.1079483 4.397591

_e f4 [10000, 1]
000000 56 69 62 3f a0 85 87 3d 83 0a c4 bf 91 bd 48 3f
       0.8844198 0.06617284 -1.5315708 0.78414255
000010 a6 16 0b be e9 4e ca 3f 1e 9d fd 3e 84 2f 67 3d
       -0.13582858 1.5805331 0.49533933 0.0564418
000020 a7 44 a2 3f aa d6 2a 3f ce c4 3f 3f 4d e7 0e 3f
       1.2677201 0.667338 0.74909675 0.55821687
000030 a6 e5 56 3d 3b 58 9f 3f ab 99 8c bf ac 65 b6 3f
       0.052465104 1.2448801 -1.0984396 1.4249778
000040 e4 d5 a8 3f 04 e8 d9 3b ca 5a a8 3f 01 1a 4f 3f
       1.3190274 0.006649973 1.3152707 0.80899054
000050 ab 10 24 bf 06 6c 05 be 31 40 77 bf 3e 0b 61 bf
       -0.64087933 -0.13029489 -0.96582323 -0.8790778
000060 ef 46 29 3f fb 59 23 be fc 92 fa bf 77 6a 86 bf
       0.6612386 -0.15952294 -1.9576106 -1.050124
000070 d2 46 0c 3e fe 17 2c bf cb f5 c7 bf c9 21 73 bf
       0.13698891 -0.6722411 -1.5621885 -0.9497343
000080 82 a7 29 bf c7 88 f6 be 26 eb 83 3f 9a 20 6d bf
       -0.6627122 -0.48151228 1.0306137 -0.9262787
000090 19 bf e0 be 92 52 1c bf 79 1b f7 3e 25 8a de 3f
       -0.43895796 -0.6106349 0.48263147 1.7385908
0000a0 11 d3 d1 3e 0c fe 93 bf 1b 77 db 3f 4a 08 be 3c
       0.40981343 -1.1561904 1.7145723 0.023197312
0000b0 b5 1a 4c c0 3f e8 7b 3e b6 db e0 bc e2 cf bb bd
       -3.18913 0.24600314 -0.027448516 -0.0917051
0000c0 95 0b 86 3d c1 e2 63 3c ff a9 2f bf 87 93 d7 be
       0.06545178 0.013909043 -0.6861877 -0.42104742
0000d0 b9 01 db bf bf f1 bf be 44 31 59 3f d9 e3 2d be
       -1.7109901 -0.37489125 0.848408 -0.16981448
0000e0 4f 43 0c 3f 2d 26 e3 3a e5 ed 4f bf 1e 5a 95 bf
       0.54790205 0.0017330103 -0.81222373 -1.1668127
0000f0 04 28 1d 3f d6 73 89 3e af 7c 8a be 3b 4e 97 3e
       0.61389184 0.26846188 -0.2704825 0.29551873
000100 bc ca d8 3f bb e1 0f 3d c6 de 17 bf ef 0b 23 be
       1.693687 0.035127383 -0.593243 -0.15922521
000110 dd b5 f6 bd 0b 4e 61 3e a5 af 44 bf 10 2c 2d bf
       -0.120464064 0.22002427 -0.7683051 -0.6764536
000120 7d 30 7e bf b6 d3 fa 3f b7 18 80 bf 11 10 84 bf
       -0.9929274 1.9595859 -1.0007542 -1.0317403
000130 93 3a d3 bf 43 60 97 3d 01 54 f2 3f 96 8c 88 bf
       -1.650225 0.07391407 1.8931886 -1.0667903
000140 12 4f 53 bf 2a 0d 66 3f 48 13 82 3f 65 02 1c bf
       -0.82542527 0.89863837 1.0162134 -0.60941154
000150 56 33 a2 3e 8d 91 11 3f 9a bc 15 3f 9f 93 50 bf
       0.3167979 0.5686272 0.5849091 -0.8147525
000160 73 9b 8c bf c4 d4 e8 3f c7 d3 a0 bd 4f dc a0 3f
       -1.0984939 1.8189931 -0.07852893 1.2567233
000170 92 d1 31 3f 18 e9 34 bf 0b ed ec 3e 34 0f c4 3e
       0.69460404 -0.7066817 0.462746 0.3829285
000180 0c 8b 09 c0 b6 9c d5 bf ec 16 33 3f dc 10 84 3f
       -2.1491117 -1.6688449 0.6995685 1.0317645
000190 71 e0 da be 4c aa a4 bf e8 a7 f6 be f7 5e 8a be
       -0.4274936 -1.286447 -0.48174977 -0.27025577
0001a0 8c 5c 26 40 d4 c1 51 bf 04 f4 bf 3e 65 e4 93 bf
       2.5993986 -0.81936383 0.37490857 -1.1554075
0001b0 26 09 07 c0 ba e0 b0 be 06 22 43 bf 97 ff 06 bd
       -2.1099334 -0.34546453 -0.7622379 -0.032958593
0001c0 4c 20 8a 3e b6 58 36 3d 98 38 61 3f 24 2b 99 bf
       0.26977766 0.044518195 0.8797698 -1.196629
0001d0 52 73 1b 40 69 8f b5 be 5f d6 e1 3e 02 e7 14 c0
       2.4289136 -0.35460976 0.44108865 -2.3265996
0001e0 04 de 25 3f 37 94 07 3f 73 31 46 be 67 1e 8d 3e
       0.64791894 0.5296053 -0.19354801 0.27562258
0001f0 5f 04 c8 3f b8 ab 2b bf 4d bf 90 3f 87 c3 59 bf
       1.5626334 -0.67058897 1.130838 -0.85063976
000200 87 aa 23 3e 74 c3 39 3f b1 b8 06 40 c8 d2 3b 3f
       0.1598302 0.7256386 2.1050227 0.733685
000210 88 2a 76 be d3 8a 6a bf 33 99 a8 3f 49 f8 73 3f
       -0.24039662 -0.9161808 1.3171753 0.9530073
000220 b0 a8 af be 09 81 13 3e 76 b3 bd 3e 20 02 a5 3f
       -0.34308386 0.14404692 0.3705098 1.2891273
000230 04 b4 4f 3e 97 28 b9 3f 05 e4 c9 3f ca 3e 5f 3f
       0.20283514 1.4465512 1.5772711 0.87205184
000240 46 e4 fd 3f ff 10 21 bf f8 32 a1 3e 94 c3 d9 3c
       1.9835289 -0.6291656 0.314842 0.026582517
000250 28 4c d6 be 70 ca 4b 3f 95 b5 81 3f 69 24 5a 3f
       -0.41854978 0.7960577 1.013354 0.8521181
000260 a5 8c 3a 3f 73 5e 5b be aa 1a b4 be 43 3b 66 be
       0.72870857 -0.21422748 -0.35176593 -0.22483544
000270 b1 68 f2 3e 55 0c 20 3d c5 95 4c 3f 80 16 4a 3f
       0.47345498 0.03907426 0.7991603 0.7894058
000280 27 a8 95 bf df 1a e3 3e a5 5c 07 c0 98 d7 19 3d
       -1.1691941 0.4435644 -2.1150296 0.03755912
000290 4f 92 ad 3e 1c 77 09 bf aa 43 e5 bf 9a c2 0a bf
       0.33900687 -0.5369737 -1.7911274 -0.5420319
0002a0 ff 70 bc be 28 25 a7 3f c9 f1 93 3f 24 23 da bf
       -0.3680496 1.3058214 1.1558162 -1.7041974
0002b0 0c 1f 80 3e bf 30 13 3e 8c 80 40 bf 8e b8 a1 bf
       0.25023687 0.14374064 -0.75196147 -1.2634447
0002c0 fe 14 7e bf 3a 99 8e 3f 01 7a ad be c9 17 bc bf
       -0.9925078 1.1140511 -0.33882144 -1.4694759
0002d0 f4 69 1d 3f 80 a6 32 bf 4a 83 c9 be 16 f0 93 be
       0.61489797 -0.6978531 -0.39357978 -0.2889411
0002e0 68 e7 c7 3f 7e 06 2e 3e 41 be 8e 3f 32 cd 18 40
       1.5617495 0.16994664 1.1151811 2.3875241
0002f0 1e f7 75 be a8 d9 36 3e 57 e2 23 3f 79 bd 8a bf
       -0.24020049 0.17856467 0.6401724 -1.0839072
000300 f4 c9 49 bf 9f a5 cb bf 86 cf 94 bd 11 6b 53 bf
       -0.7882378 -1.5909919 -0.072661445 -0.82585245
000310 6b f2 96 3f ee 19 a5 3d e3 ef 91 bf bb e2 57 3f
       1.179273 0.08061586 -1.1401333 0.8433034
000320 3e a9 a9 bf aa 92 5b bf 8d 18 3b 3f 69 19 c7 3f
       -1.3254774 -0.85770667 0.73084337 1.555463
000330 6b c9 58 bf a0 73 97 3f d5 74 36 3f fc d7 e1 3d
       -0.8468234 1.1832161 0.7127202 0.11027524
000340 48 78 90 be 4a 20 2e bf 93 3b cd bf e2 8f b6 be
       -0.28216767 -0.6801802 -1.6033806 -0.3565665
000350 d8 30 01 40 a4 29 21 bf 98 c3 ad be 70 8f 45 be
       2.0186062 -0.62954164 -0.3393829 -0.19292998
000360 ae ac 8e bf 92 86 01 3f 35 1f bc 3f 59 79 44 bf
       -1.1146448 0.50595963 1.4697024 -0.7674766
000370 39 dd 1e be 00 3b 54 3f b5 87 01 c0 8c d3 50 bf
       -0.15514077 0.82902527 -2.023908 -0.81572795
000380 fa 90 16 c0 87 5c da 3d 80 48 5d 3e 72 00 5a bf
       -2.3525987 0.106621794 0.21609688 -0.8515693
000390 fe 89 2f bf 89 d8 80 bf e8 44 5c 3d d3 88 a2 bf
       -0.68569934 -1.0066081 0.05377665 -1.2698005
0003a0 92 1e 0c be 4a 0a 05 3e 2a 69 cb bf 5c 71 15 bf
       -0.13683537 0.12992206 -1.5891469 -0.583761
0003b0 ea 08 13 3f 02 19 27 3f b7 86 0b bf fd 77 2e bf
       0.57435477 0.65272534 -0.54502434 -0.6815184
0003c0 9b 17 29 bf 3b 73 4a bf ea 1b 3b 3f c3 6a 39 3f
       -0.66051644 -0.7908208 0.7308947 0.7242853
0003d0 be f4 7c bd 14 99 da 3d d4 84 49 3f 3d a1 19 3f
       -0.06175684 0.106737286 0.78718305 0.60011655
0003e0 52 92 17 be be 80 7c 3f 18 9d 04 40 3a 18 4d bf
       -0.1480191 0.98633945 2.0720882 -0.8011509
0003f0 c5 3f db 3e 3d d2 00 40 f3 38 7d be 8b ad 84 3f
       0.4282209 2.012832 -0.24728756 1.0365461
