models_to_eval/gum/base/generator.pth (torch_old, 19709 bytes, 5 tensors)

weight f4 [64, 1]
0	0x3def5f4e	0.116881
1	0xbeaf0eb6	-0.3419091
2	0x3f05af9f	0.522211
3	0x3ebbdc70	0.36691618
4	0x3f05e529	0.52302796
5	0x3f03959f	0.5140018
6	0xbeb21cd5	-0.34787622
7	0x3f488a43	0.7833597
8	0xbe959bc7	-0.2922041
9	0x3d8c22f5	0.06842605
10	0xbf777d40	-0.9667549
11	0x3f66eb02	0.90202343
12	0xbf738b82	-0.9513475
13	0xbe3b484c	-0.18289298
14	0x3f4971eb	0.7868945
15	0x3f459173	0.7717506
16	0xbe445ba4	-0.19175583
17	0xbecbfcd1	-0.3984132
18	0xbf174584	-0.5909045
19	0xbf2238ae	-0.63367736
20	0x3ec903d6	0.3926074
21	0xbecd6b18	-0.4012077
22	0xbee1852f	-0.44046924
23	0x3f01fccf	0.5077638
24	0x3f6b5025	0.91919166
25	0x3eba929d	0.36439982
26	0x3e33227b	0.17493622
27	0xbee2aca9	-0.44272354
28	0xbf59a777	-0.85021156
29	0xbf2c0993	-0.6720211
30	0x3eb6ffc1	0.35742
31	0xbe8338f0	-0.25629377
32	0x3ee7261d	0.45146266
33	0x3f1f2212	0.6216136
34	0x3f66883f	0.90051645
35	0x3f0555d1	0.5208407
36	0x3f0e14ac	0.5550029
37	0x3d30ae05	0.043134708
38	0x3f518619	0.8184524
39	0xbf1608ee	-0.58607376
40	0xbf535c30	-0.8256254
41	0x3f3d24e1	0.738844
42	0x3f612920	0.87953377
43	0x8000bd68	-6.7946e-41
44	0x3f069b1e	0.5258044
45	0xbf48ab89	-0.7838674
46	0xbe825a5c	-0.25459564
47	0x3f4391c3	0.7639429
48	0x3ea57ad5	0.32320276
49	0xbf83e90a	-1.0305493
50	0x3ed38b05	0.41317
51	0xbda54d38	-0.08071369
52	0xbf4ef83e	-0.8084754
53	0x3e8d49a7	0.27595255
54	0xbf480929	-0.7813898
55	0x3f6b026e	0.9180058
56	0x3e7333cc	0.23750228
57	0x3e899141	0.26868632
58	0xbf214fe9	-0.6301256
59	0xbec43dae	-0.38328308
60	0xbb0b6007	-0.0021266954
61	0x3f427721	0.75963026
62	0x3f588ed4	0.8459294
63	0xbcca57ff	-0.024700163

bias f4 [64]
0	0x3eb3d718	0.3512504
1	0x3f4b0f1b	0.79319924
2	0xbe93fb43	-0.28902635
3	0x3dcfad74	0.101405054
4	0xbf566857	-0.8375296
5	0xbf491ea2	-0.78562367
6	0x3e9ba210	0.3039708
7	0xbf34fb1a	-0.7069565
8	0x3e779f0e	0.24181768
9	0x3f51f2e3	0.8201124
10	0xbf2c7682	-0.6736833
11	0x3f3fd047	0.7492718
12	0xbf0cb119	-0.5495773
13	0x3f1e3cbe	0.61811435
14	0x3d2aae94	0.041670397
15	0xbeea96e6	-0.4581825
16	0x3f220d2a	0.63301337
17	0x3eb51fb5	0.35375753
18	0x3f0db398	0.55352163
19	0x3f02637f	0.5093307
20	0x3f2ac9f0	0.6671438
21	0xbeeb8a83	-0.46004114
22	0x3ec6278c	0.38702047
23	0x3f70d8e6	0.9408096
24	0x3e033c3d	0.12815948
25	0x3f89d5a5	1.0768324
26	0x3f87af8d	1.0600449
27	0xbf082c67	-0.5319275
28	0x3d967203	0.07345965
29	0x3ebd936c	0.37026536
30	0xbe3aff79	-0.18261518
31	0xbe945b8b	-0.28976092
32	0xbf38717d	-0.7204817
33	0xbf6de1da	-0.9292275
34	0x3f49cebb	0.7883107
35	0x3f878640	1.0587845
36	0x3e93635b	0.2878674
37	0x3eadabec	0.33920228
38	0x3eb4f85e	0.3534574
39	0xbf1f52ec	-0.62235904
40	0x3efe31a2	0.49647242
41	0x3f243084	0.6413653
42	0xbf4707a8	-0.7774606
43	0xbefa4583	-0.48881158
44	0xbe353525	-0.17696054
45	0xbd257e9f	-0.04040396
46	0xbe9322f4	-0.28737605
47	0xbe88fbfe	-0.26754755
48	0xbe1ad97b	-0.15122025
49	0x3f749a29	0.9554773
50	0x3e0c6c9c	0.13713306
51	0x3f7152cd	0.9426697
52	0xbeffbca2	-0.49948603
53	0x3f6b7efe	0.9199065
54	0xbed2de5e	-0.41185278
55	0x3db45bab	0.08806547
56	0xbeb81de5	-0.35960308
57	0xbed432c4	-0.4144498
58	0x3f10c1e4	0.56545854
59	0x3eada1fd	0.3391265
60	0x3f413454	0.7547047
61	0x3f84972f	1.0358638
62	0x3ea16513	0.31522426
63	0x3f811b71	1.00865

weight f4 [64, 64]
0	0x3d1da845	0.038490552
1	0x3e079c17	0.13243137
2	0x3d9185f4	0.07105628
3	0xbdcffde5	-0.101558484
4	0xbd5d7178	-0.05406329
5	0xbe0c348a	-0.13691917
6	0x3d8dba14	0.06920257
7	0x3dc97a05	0.098377265
8	0xbd9b0457	-0.07569187
9	0x3d882bdc	0.066489905
10	0xbdeea5af	-0.116526954
11	0xbdb91161	-0.09036518
12	0xbc85e3e3	-0.016344016
13	0x3d8719ce	0.06596719
14	0x3e0e41aa	0.13892236
15	0xbc25c519	-0.0101177925
16	0xbd143efa	-0.03619287
17	0xbcaa1e7c	-0.02076649
18	0xbc0b488b	-0.008501182
19	0xbcc0a2ad	-0.02351507
20	0x3e322114	0.17395431
21	0xbe4296dc	-0.19002861
22	0x3cc6db50	0.024274498
23	0x3e42a03b	0.19006436
24	0x3d232c64	0.039837256
25	0x3ca5dbbd	0.020246381
26	0x3a8d0201	0.0010758043
27	0xbe064f07	-0.13116084
28	0xbb57cc0d	-0.003292802
29	0x3c14443e	0.009049473
30	0x3d664020	0.056213498
31	0xbe1b5c57	-0.15171944
32	0xbe206872	-0.15664843
33	0xbdc544f7	-0.096322946
34	0x3ccd95f0	0.02509591
35	0xbd01fc14	-0.03173454
36	0x3d8f9077	0.07009976
37	0x3e2b1e31	0.16710736
38	0x3d13b174	0.036057904
39	0xbe37e796	-0.17959437
40	0xbce8744b	-0.028375765
41	0x3d0d8688	0.034552127
42	0x3de06d46	0.10958342
43	0x8000ba38	-6.6803e-41
44	0x3d89f13a	0.067354634
45	0x3d66085b	0.056160312
46	0xbd960345	-0.07324842
47	0xbd1f2234	-0.038850978
48	0x3d2e6846	0.04257991
49	0x3ca2bda0	0.01986581
50	0x3d802e2c	0.062588066
51	0x3daddd5a	0.08489485
52	0xbc4f0040	-0.012634337
53	0xbcdc3193	-0.026879108
54	0x3c6891d9	0.014194929
55	0x3dcd8193	0.1003448
56	0xbe1b7453	-0.15181093
57	0xbe21d9b2	-0.158057
58	0x3e0bd23c	0.13654417
59	0x3ca3f9af	0.02001652
60	0x3e4ba024	0.19885308
61	0x3d5a9cb2	0.053372093
62	0xbd6c68b0	-0.057717025
63	0x3cd7f3a6	0.026361298
64	0x8000b9c8	-6.6646e-41
65	0x8000b950	-6.6478e-41
66	0x8000b950	-6.6478e-41
67	0x8000ba60	-6.6859e-41
68	0x8000bf60	-6.8652e-41
69	0x8000bba0	-6.7307e-41
70	0x8000b828	-6.6063e-41
71	0x8000ba98	-6.6937e-41
72	0x8000bc00	-6.7442e-41
73	0x8000bf58	-6.8641e-41
74	0x0000b9b0	6.6612e-41
75	0x8000ba98	-6.6937e-41
76	0x0000b7e0	6.5962e-41
77	0x8000b818	-6.604e-41
78	0x8000ba90	-6.6926e-41
79	0x8000b948	-6.6466e-41
80	0x8000b7e8	-6.5973e-41
81	0x8000b900	-6.6365e-41
82	0x8000b8c0	-6.6276e-41
83	0x8000b8c0	-6.6276e-41
84	0x8000b8d8	-6.631e-41
85	0x0000b898	6.622e-41
86	0x8000bae0	-6.7038e-41
87	0x8000ba38	-6.6803e-41
88	0x8000b848	-6.6108e-41
89	0x8000bc08	-6.7453e-41
90	0x8000ba58	-6.6848e-41
91	0x0000bba0	6.7307e-41
92	0x0000b7f0	6.5984e-41
93	0x0000b7b8	6.5906e-41
94	0x8000b8a8	-6.6242e-41
95	0x0000ba50	6.6836e-41
96	0x8000ba28	-6.678e-41
97	0x8000beb8	-6.8417e-41
98	0x8000be90	-6.8361e-41
99	0x8000b998	-6.6578e-41
100	0x8000bde0	-6.8114e-41
101	0x8000ba00	-6.6724e-41
102	0x8000b850	-6.6119e-41
103	0x0000b908	6.6377e-41
104	0x8000b9e8	-6.669e-41
105	0x8000bd90	-6.8002e-41
106	0x8000ba98	-6.6937e-41
107	0x0000ba10	6.6747e-41
108	0x8000bba0	-6.7307e-41
109	0x0000bee0	6.8473e-41
110	0x0000b7e0	6.5962e-41
111	0x0000bb18	6.7117e-41
112	0x8000bc60	-6.7576e-41
113	0x8000bab0	-6.6971e-41
114	0x8000be50	-6.8271e-41
115	0x8000b8d8	-6.631e-41
116	0x0000bb08	6.7094e-41
117	0x8000be90	-6.8361e-41
118	0x0000bae0	6.7038e-41
119	0x8000b890	-6.6209e-41
120	0x8000b820	-6.6052e-41
121	0x8000b9b8	-6.6623e-41
122	0x8000bf30	-6.8585e-41
123	0x8000bc10	-6.7464e-41
124	0x8000b8a8	-6.6242e-41
125	0x8000bb10	-6.7105e-41
126	0x8000bee8	-6.8484e-41
127	0x8000bbf8	-6.743e-41
128	0x3d58f0e3	0.052964102
129	0x3e3e96d7	0.18612228
130	0x3d7aa959	0.06119666
131	0xbd65422d	-0.055971313
132	0xbc030b1d	-0.007998255
133	0x3d43eca1	0.04783309
134	0x3d27fd3c	0.041012987
135	0x3d485c9c	0.048916444
136	0xbdd5c736	-0.10438387
137	0x3dc3d635	0.09562341
138	0xbd9f4662	-0.07777096
139	0x3d1f2dd6	0.038862072
140	0x3dc13e3f	0.094357006
141	0x3e5100c3	0.20410447
142	0xbd9b29f6	-0.07576363
143	0x3c1236b1	0.008924172
144	0x3db410e0	0.08792281
145	0xbd89a7d5	-0.067214645
146	0x3e5081a9	0.20361961
147	0x3dcd48b0	0.1002363
148	0x3de59426	0.11209898
149	0xbe3ddb4c	-0.18540686
150	0x3d9409b4	0.07228413
151	0x3df24fe3	0.118316434
152	0x3cd39553	0.02582804
153	0xbd1a7f46	-0.037719034
154	0x3e2686dc	0.16262382
155	0xbe278245	-0.16358288
156	0xbdc0aab8	-0.09407562
157	0x3ca378b7	0.019955022
158	0x3d6861d3	0.056733917
159	0xbcac7722	-0.0210529
160	0xbda926b1	-0.08259333
161	0xbd1c7418	-0.038196653
162	0xbdaa02bd	-0.083013035
163	0x3c88433d	0.016633624
164	0x3da7f214	0.082004696
165	0x3dc9816e	0.0983914
166	0x3dbf9a4e	0.09355603
167	0xbe2dfd0b	-0.1699106
168	0xbd7625d3	-0.060094666
169	0xbd7ba3bd	-0.06143545
170	0xbd024ee4	-0.031813517
171	0x8000b950	-6.6478e-41
172	0x3dbad788	0.091231406
173	0x3db0943f	0.08622026
174	0xbd2820a6	-0.04104676
175	0x3dd7f4dc	0.1054475
176	0xbd3aebdb	-0.045635086
177	0x3e50747b	0.20356934
178	0x3dddeb05	0.10835842
179	0x3cfa748e	0.030573156
180	0xbdba8e67	-0.09109192
181	0x3dd8ddea	0.10589202
182	0xbcda42b6	-0.026643138
183	0xbd98082b	-0.07423433
184	0xbe2737f2	-0.16329935
185	0xbd8980b0	-0.06713998
186	0x3da5780c	0.08079538
187	0xbd327ae0	-0.043574214
188	0x3e53ceac	0.20684308
189	0xbd173e47	-0.036924627
190	0xbd7f11ce	-0.06227284
191	0x3d1e07e2	0.038581736
192	0x3d01c527	0.03168216
193	0x3d1ece65	0.038771052
194	0x3d165d46	0.036710046
195	0x3a313d95	0.00067611906
196	0x3c160ecf	0.009158804
197	0xbdde63ec	-0.10858902
198	0xbcbf75d7	-0.02337162
199	0x3e30ea68	0.17276919
200	0xbdba6fa0	-0.09103322
201	0x3d298685	0.041388053
202	0xbc6795e1	-0.014134855
203	0xbd0a6163	-0.03378428
204	0x3d879bda	0.06621523
205	0x3d9d0622	0.07667185
206	0xbd5ade20	-0.05343449
207	0xbd8f6fc4	-0.070037395
208	0xbd1407c4	-0.03614022
209	0x3e2b3acc	0.16721648
210	0x3da6b3dc	0.08139774
211	0x3df59083	0.11990454
212	0x3e250d46	0.16118345
213	0xbe22c07a	-0.15893736
214	0x3de23bde	0.11046575
215	0x3d440310	0.047854483
216	0xbdac0591	-0.08399499
217	0x3e4cb302	0.19990161
218	0x3e3ca7bb	0.18423359
219	0xbd7acd94	-0.06123121
220	0xbdbf63f7	-0.09345239
221	0xbdde6c27	-0.10860472
222	0xbd6da154	-0.058015183
223	0xbe2f444f	-0.17115901
224	0xbc1223ec	-0.008919697
225	0xbce9ccc5	-0.028540025
226	0x3d1a098e	0.03760677
227	0x3dc864c3	0.09784844
228	0x3d89ae3c	0.06722686
229	0xbd286251	-0.041109387
230	0xbd7115c4	-0.058858648
231	0xbe098b25	-0.13431986
232	0x3d03ea31	0.032205764
233	0x3dab3c18	0.08361071
234	0x3c3b1de9	0.011420705
235	0x0000bc30	6.7509e-41
236	0x3d40314b	0.04692201
237	0xbdc523c8	-0.09625965
238	0xbe105c44	-0.14097697
239	0x3d9ecfb1	0.07754458
240	0x3cc0503b	0.023475757
241	0xbc1d5ab1	-0.009604142
242	0xbd9acab5	-0.075581945
243	0x3e1f2f3b	0.1554536
244	0xbdd8597d	-0.105639435
245	0x3dacd307	0.08438688
246	0xbdd58ddb	-0.104274474
247	0x3b763cf8	0.0037572961
248	0xbd8cf374	-0.068823725
249	0xbd94837f	-0.072516434
250	0x3d13e9bc	0.03611158
251	0x3c871769	0.016490655
252	0x3d99f21f	0.07516884
253	0x3dd37d15	0.10326592
254	0x3d1f3263	0.038866412
255	0x3d0a78e6	0.033806704

bias f4 [64]
0	0x3da06e01	0.078334816
1	0x8000b910	-6.6388e-41
2	0x3e2dc7ad	0.16970702
3	0x3e0702b6	0.13184628
4	0x3d9d3f75	0.07678119
5	0xbbbd6222	-0.0057795206
6	0xbd57c62a	-0.05267922
7	0xb8a12497	-7.683894e-05
8	0x3c299de6	0.010352587
9	0xbc94311f	-0.018089829
10	0x8000b920	-6.641e-41
11	0x3e11b1df	0.14228009
12	0x8000bb60	-6.7217e-41
13	0x3e301052	0.17193726
14	0x3dbbc386	0.091681525
15	0x80024778	-2.09309e-40
16	0x3e41aeca	0.18914333
17	0x3cec4bde	0.02884477
18	0x800248a0	-2.09724e-40
19	0xbd7b6002	-0.061370857
20	0x8000bd48	-6.7901e-41
21	0x8000bb00	-6.7083e-41
22	0x3d0dbce0	0.034603953
23	0x3e2a14c8	0.1660949
24	0x3e27adef	0.16374944
25	0xbc4c4ca7	-0.012469447
26	0x8000bc38	-6.752e-41
27	0x3a829756	0.0009963315
28	0x8000bd68	-6.7946e-41
29	0x3e29db88	0.16587651
30	0x3d9fd735	0.07804719
31	0x3e0fdb1a	0.14048424
32	0x3e45d9b5	0.1932133
33	0x3c23c9e3	0.009996864
34	0x39858765	0.00025468614
35	0x3d6dc5e5	0.058050055
36	0x8000bf58	-6.8641e-41
37	0x8000bdb0	-6.8047e-41
38	0x3dbea368	0.09308511
39	0x3d010efb	0.031508427
40	0x3daad5ba	0.08341546
41	0x3dcb2285	0.099186935
42	0x3e2f2ceb	0.17106979
43	0x3d759619	0.059957597
44	0x8000b9d8	-6.6668e-41
45	0x3e532ce4	0.20622593
46	0x8000bab0	-6.6971e-41
47	0x3e0db4f3	0.13838558
48	0x3ca3c950	0.019993454
49	0x3dd9d440	0.106361866
50	0x3b8281db	0.003982765
51	0xbd4a0da3	-0.04932941
52	0x3d2b3e53	0.041807484
53	0x8000b890	-6.6209e-41
54	0xbce03c39	-0.027372466
55	0x8000bbe8	-6.7408e-41
56	0x3d8f8a50	0.07008803
57	0xbc707617	-0.014676592
58	0x3bfbffdb	0.0076904125
59	0x3c99b2da	0.01876204
60	0x3cf35955	0.029705683
61	0x3cc55387	0.02408768
62	0x8000b8d8	-6.631e-41
63	0x3e39e0e0	0.18152189

weight f4 [1, 64]
0	0x3d862c2f	0.06551396
1	0x0000bd88	6.7991e-41
2	0x3e001cdf	0.12511013
3	0x3da29700	0.07938957
4	0x3c8cc6c5	0.017184624
5	0x3dee6e57	0.116421394
6	0xbe138b94	-0.14408714
7	0x3db67431	0.089088805
8	0x3d9f8ebd	0.07790897
9	0x3e276547	0.16347228
10	0x0000be38	6.8238e-41
11	0x3d96e9d1	0.07368816
12	0x0000bb70	6.724e-41
13	0x3dad1cec	0.08452782
14	0x3da55aa4	0.08073929
15	0x8000bd68	-6.7946e-41
16	0x3e1269c3	0.14298157
17	0x3d889b92	0.06670298
18	0x8000be78	-6.8327e-41
19	0x3cdba1a9	0.026810484
20	0x0000be60	6.8294e-41
21	0x0000ba80	6.6904e-41
22	0x3deaea96	0.11470525
23	0x3d433000	0.0476532
24	0x3dc9d4f0	0.09855068
25	0xbd175fc3	-0.03695656
26	0x0000bb98	6.7296e-41
27	0x3e0679cf	0.13132404
28	0x0000b7d0	6.594e-41
29	0x3e0f4de7	0.13994561
30	0x3e1fbc89	0.15599264
31	0x3d831df1	0.06402195
32	0x3e279a53	0.16367464
33	0xbdd214f5	-0.102579035
34	0x3d5c3def	0.053770002
35	0x3deaceca	0.11465223
36	0x8000bc90	-6.7643e-41
37	0x8000bf38	-6.8596e-41
38	0x3df45f76	0.1193227
39	0x3cde8b3c	0.027166001
40	0x3d3685df	0.044561263
41	0x3cc6757e	0.024225947
42	0x3dcc3800	0.09971619
43	0x3dee59d4	0.11638227
44	0x0000b846	6.6105e-41
45	0x3e2fa303	0.17152028
46	0x0000b978	6.6534e-41
47	0x3dc8c9cc	0.09804115
48	0x3d1b68c6	0.037941717
49	0x3e02c6be	0.12771127
50	0x3d019ead	0.031645466
51	0xbe3413e9	-0.1758572
52	0x3da15ceb	0.07879051
53	0x8000b7e8	-6.5973e-41
54	0x3df47ad3	0.11937489
55	0x0000b8f0	6.6343e-41
56	0xbdcc53c1	-0.09976912
57	0x3d56892b	0.052376907
58	0xbdb70f6e	-0.0893849
59	0x3cbf8106	0.023376953
60	0x3d36c95a	0.044625618
61	0xbe01b72a	-0.12667528
62	0x8000ba68	-6.687e-41
63	0x3db7999f	0.08964848
