wgan_results/gum/dropout/generator.pth (torch_old, 38123 bytes, 7 tensors)

weight f4 [64, 5]
000000 55 12 34 3e 85 18 6a 3d c6 64 66 bd 1a ed b1 3d
       0.17585118 0.05715229 -0.05624845 0.08687802
000010 5f 0b e9 bc 01 04 74 bc 3f 30 8a bd 4a 3b 96 bd
       -0.028447805 -0.014893533 -0.067474835 -0.07335527
000020 a8 05 61 3d f8 2f b3 3c da a5 bf 3c e0 96 08 3d
       0.054937035 0.02187346 0.023394514 0.03334701
000030 87 f1 8a bc 4b cc 5e 3d cd 7a 41 bc 0f d3 1a 3d
       -0.016960872 0.054394048 -0.011809063 0.037798937
000040 fc f0 68 3d 7e 7f dc bd 88 39 9a bd b5 31 27 bd
       0.056870446 -0.10766505 -0.075305045 -0.04081889
000050 25 5d de 3c 26 ae 46 bc a9 c2 b6 bc 22 5e 9e bc
       0.027144024 -0.012126481 -0.022309618 -0.019331995
000060 0f 7a e4 bc 37 e5 28 3d 31 e7 e5 3c 66 31 16 3c
       -0.027890233 0.04123422 0.028064342 0.009167051
000070 64 2f ff 3c 74 5a 83 3b 3c 51 39 3d 15 10 15 be
       0.031150527 0.0040085856 0.045243487 -0.14556916
000080 ca 8c 76 3c 34 36 76 3d 49 9b b8 3c 9c 28 f3 bc
       0.015048215 0.060110286 0.022534983 -0.02968245
000090 c8 77 cd bc b7 02 28 3c 44 4e 17 bb de 25 8d 3d
       -0.02508153 0.0102545535 -0.0023087421 0.06891988
0000a0 5a 67 16 bc f6 f6 24 bd 81 8a b5 3c 83 1d aa bc
       -0.009179914 -0.040274583 0.02216077 -0.020766025
0000b0 8c 6a 60 bd b9 5c 9c 3c fd 41 64 3c 98 ac 88 3b
       -0.05478911 0.019087182 0.013931748 0.0041709654
0000c0 00 c2 20 3c 6a e4 65 3c 86 f9 14 3d 9c d5 81 bc
       0.009811878 0.014031509 0.036370777 -0.015848927
0000d0 cf 74 6b 3d be bf 9a 3d 2d a4 9b 3a c4 29 cf 3d
       0.057484444 0.07556103 0.001187449 0.10115388
0000e0 24 c8 a9 bc 92 c5 c2 3b 68 5d 5d bd 40 4d df 3b
       -0.020725317 0.0059439624 -0.054044157 0.006814629
0000f0 6d fe 63 3c 8b 52 25 bd 2d 03 66 bd dc c5 a9 3d
       0.01391564 -0.040361922 -0.056155372 0.08289692
000100 2c 36 87 b9 07 47 9e 3d 05 16 fe 3c 4e ba 8c 3d
       -0.00025789568 0.07728391 0.03101636 0.06871472
000110 9b 03 1b bc 88 ac 25 bd 51 af 86 bd 95 e9 9a 3b
       -0.009461309 -0.04044774 -0.06576408 0.004727552
000120 0c 16 18 3d 26 41 ea b9 ce 17 f8 bb af 73 92 bd
       0.0371304 -0.00044680497 -0.007571197 -0.07150971
000130 b3 d5 e9 bd 2a a7 9f bc 86 4e 9b bc 38 7c 3e 3d
       -0.11417713 -0.01948889 -0.018958341 0.046505183
000140 8b 83 61 3b 0d 20 e8 bc c6 cf 64 3a ee 6d 3f 3d
       0.003441068 -0.028335596 0.00087284704 0.046735696
000150 64 fc 4c bd a6 d6 74 bd ee e3 bb b8 43 30 65 bd
       -0.050045386 -0.059775017 -8.95931e-05 -0.05595423
000160 04 80 9b bd 24 79 f8 bd 8d 88 22 3d 7c 8d 3d 3c
       -0.075927764 -0.12132481 0.039681006 0.011569377
000170 e8 fe 82 3b f9 2a 76 3c 3b c2 3a bb 5d 9e b9 3c
       0.0039976723 0.015024894 -0.0028497118 0.022658521
000180 05 cc 53 3d 91 b9 0e 3c 71 16 82 bb ee 14 b8 bc
       0.05170824 0.008711235 -0.0039699604 -0.022470918
000190 95 5d 25 3c 46 b5 e9 3c 44 e8 54 3c 93 17 cc bc
       0.0100931125 0.02852882 0.01299483 -0.024913585
0001a0 bb 7f db bc 4a a9 4f 3b 3d d4 fb 3b 60 4f 00 3d
       -0.026794305 0.0031686598 0.007685213 0.031325698
0001b0 f7 29 e2 bb f4 ea 15 3c bf da 9d 3d fe c9 90 3d
       -0.0069019753 0.0091502555 0.07707738 0.07069777
0001c0 62 2f 54 bd 44 60 e2 bd c6 89 d5 3d cb 96 3e bd
       -0.051803 -0.110535175 0.10426669 -0.046530526
0001d0 ea bb 8f 3d 15 67 6c 3d 9f 8b 2e bd a8 5b 2a bd
       0.07018264 0.057715494 -0.04261362 -0.041591316
0001e0 c2 11 2a bd 9c a9 20 bb ba 64 80 bc 13 69 d3 3b
       -0.04152084 -0.0024515158 -0.01567303 0.006451735
0001f0 78 38 d9 3c 99 a8 b0 37 85 a2 34 3c aa 54 83 bd
       0.026516184 2.1059344e-05 0.011025076 -0.06412633
000200 1a 48 90 bc b3 e1 32 3d cc ab 1a bd 55 26 c5 3d
       -0.017612506 0.043672275 -0.037761495 0.09626452
000210 d1 a6 87 bd f9 5a 76 bd aa 60 4d 3d 9f bc 9e 3d
       -0.066236146 -0.060145352 0.050141014 0.0775082
000220 18 0a 67 3d 71 12 0e bd d3 57 b4 3c af f4 5f bc
       0.05640611 -0.034685556 0.022014534 -0.013669177
000230 b9 65 0c ba 0c 45 db 3c 3d 75 68 bb d7 b5 c6 3b
       -0.0005355734 0.026766323 -0.003547027 0.0060641575
000240 d1 e6 03 3d 71 c6 79 bd 3a 72 7b 3d ba 77 01 3e
       0.032202546 -0.060980264 0.06138823 0.12643328
000250 7e 6a 44 3d ff 6e 01 bd b1 77 ca bd a1 b5 46 3d
       0.04795312 -0.031599995 -0.098861106 0.04851306
000260 a8 fd 0c 3e 01 35 1a be 55 b7 00 be c5 4c b1 bd
       0.13768637 -0.15059282 -0.12569936 -0.08657221
000270 33 1c 93 ba 22 6f a3 3d df f8 05 be ae 53 25 3d
       -0.0011223614 0.07980181 -0.13083218 0.040363006
000280 11 c0 e5 3c d9 05 fa 3a 0c 8d 99 3d ba 6c d0 3d
       0.028045686 0.0019075229 0.07497606 0.10176988
000290 b3 be 5b bd 96 eb 7e bc 2d 54 bc bc 32 3d df 3c
       -0.05364866 -0.015559098 -0.022989357 0.02725086
0002a0 67 23 6e bd 36 98 7f 3d 17 0e a9 3d 06 14 92 3d
       -0.05813923 0.06240102 0.082546405 0.071327254
0002b0 a3 49 9e bd 17 63 8b 3d 7f 11 37 bd b0 c6 a5 3b
       -0.07728889 0.06806009 -0.04469442 0.005059086
0002c0 64 2b 79 bd cd 5f 47 3d b4 ca 1c bc 32 e1 80 bd
       -0.060832396 0.048675347 -0.009569813 -0.062929526
0002d0 02 3a 1a 3d 3d e7 e9 3c 9a 2b 8e 3d a9 4a 2d bd
       0.037652977 0.028552646 0.0694191 -0.04230753
0002e0 3e a4 62 3c 20 cc 76 bc 2e 3c 19 bd 71 26 61 3d
       0.013833104 -0.015063316 -0.037410907 0.0549683
0002f0 8b ed 67 3d a3 ce 51 3d 31 69 dd 3c 9b f1 b9 bc
       0.056623023 0.051222455 0.027027698 -0.022698214
000300 e4 20 62 3c 37 d1 46 3c 12 dc ad bc 37 71 f5 bd
       0.013801787 0.012134842 -0.021223102 -0.11984485
000310 95 40 ef bd 45 fe 77 3d 27 14 bc 3c 0c 1d 35 3b
       -0.1168224 0.060545225 0.022958828 0.0027635721
000320 dd 5a b1 3d 55 e3 ea 3b 70 c1 e4 3c ab 26 3d bd
       0.08659909 0.0071682134 0.02792427 -0.046179455
000330 5d 67 7f 3d 49 15 75 bd 19 f9 60 bd 41 f7 a7 bd
       0.062354434 -0.059834752 -0.054925058 -0.08201457
000340 53 1d e4 3d c4 66 51 bd 47 53 2e bd 12 e3 14 bd
       0.11138406 -0.051123396 -0.04255989 -0.036349364
000350 dd 59 bf 3d be b6 0f bd b6 e6 e2 3c 63 d7 3c bd
       0.09343312 -0.035086386 0.027697902 -0.046103846
000360 f2 99 ee bc 1b b2 97 3d 04 f9 e1 3d 54 0d 61 3d
       -0.029126141 0.07407018 0.11033824 0.05494435
000370 77 f9 b3 3d c5 c5 e2 bd 24 3c 04 3d cc 36 eb 3d
       0.08787816 -0.11072878 0.032283917 0.11485061
000380 24 c5 4d bd 44 ed be 3d 4d 9b 15 3e 56 9e d9 3c
       -0.050236836 0.093225986 0.14610024 0.026564758
000390 70 64 a2 3c ed ff a4 3d e8 0a 47 3d ed c4 89 bc
       0.019823283 0.080566265 0.048594385 -0.016817534
0003a0 a0 74 04 3c c5 93 5c 3d d9 da 69 3d 7d 99 48 3d
       0.008084446 0.05385186 0.057093475 0.048974503
0003b0 48 20 40 3d 83 51 a5 bc fa a2 c3 bd 82 0a 62 3d
       0.046905786 -0.02018047 -0.0955257 0.055185802
0003c0 83 2a aa 3d 3b bf cd bd 5a 39 82 bd 92 ff 6a bd
       0.0830889 -0.1004624 -0.06358595 -0.057372637
0003d0 ce e9 da 3d 82 4c 75 bd 2c 1a 0f 3d 84 29 95 3c
       0.10689126 -0.059887417 0.03493707 0.018208273
0003e0 af 29 96 bb e7 db 8c 3d b7 fb 93 bd b5 b9 77 bd
       -0.004582606 0.068778805 -0.07225745 -0.06047984
0003f0 74 c5 db 3c d2 24 3e bd 00 a1 23 3d 6b ed 27 be
       0.026827551 -0.046421833 0.039948463 -0.16399162

bias f4 [64]
000000 e4 e5 0e be 9d ca 98 bd e0 7a 5f be 6f f9 98 be
       -0.13954884 -0.074605204 -0.21824217 -0.29877803
000010 f4 e3 a8 bd 83 fb 80 be d2 e1 d6 be a8 bc 31 be
       -0.082466036 -0.25191888 -0.41969162 -0.17357123
000020 7f 6e 8c be f1 53 eb bd 38 62 d9 be d1 2c b8 be
       -0.27428052 -0.1149062 -0.42457747 -0.35971692
000030 b1 c8 0c be 20 8f 15 bf d4 12 10 be b5 20 2c be
       -0.13748433 -0.58421516 -0.14069682 -0.16809352
000040 b2 ec a4 be 84 ac 24 bf 79 40 3a be f8 ce 4d be
       -0.32211834 -0.6432574 -0.18188657 -0.20098484
000050 2f 6c f5 bd 2d ff 39 be 89 6c 86 be 88 2a 7b be
       -0.11983525 -0.18163748 -0.2625468 -0.24527943
000060 eb ba 8c be 47 51 f7 be b9 5e 26 be 26 61 b0 be
       -0.27486357 -0.48304197 -0.16247071 -0.34449118
000070 88 f6 41 be cc cc 03 bf 7a 73 37 bf c9 98 95 be
       -0.189417 -0.5148437 -0.7166058 -0.29218128
000080 31 f7 18 bf ff 1d b0 bd 6e d3 88 be ef 19 48 be
       -0.59752184 -0.08599471 -0.26723808 -0.19541143
000090 48 2c cc bd 54 b9 5b be ca cd e8 bd 2f b5 0f be
       -0.099693835 -0.21457416 -0.11367376 -0.1403396
0000a0 76 ab a8 be e8 f4 0c be 0b f8 3e bf 0d 38 37 bf
       -0.32943314 -0.137653 -0.74597234 -0.715699
0000b0 4e 70 4e bf cc c6 11 bf 8d b5 2a be 3a a1 04 bf
       -0.80640113 -0.56943965 -0.16670819 -0.5180851
0000c0 e4 52 f1 bd f4 2c ce be 0a ad c8 be a6 e6 ff bd
       -0.11783388 -0.40268672 -0.39194518 -0.124951646
0000d0 e6 2e fb be 11 10 02 bf 27 2a 03 be 2d 66 7e bf
       -0.49059218 -0.50805765 -0.12809049 -0.9937466
0000e0 6d 3d 57 bd 2d ed ac be 7d 4a 16 be b9 10 fa be
       -0.052548815 -0.337747 -0.14676853 -0.48840883
0000f0 6f a4 e5 be 6b ee 0a bf 0a 43 c0 be f9 88 7b be
       -0.44852015 -0.54270047 -0.37551147 -0.2456397

weight f4 [64, 64]
000000 ca 83 42 be a5 89 81 be 21 41 6d be 20 26 bc bc
       -0.18995586 -0.25300327 -0.23169376 -0.022967398
000010 09 d7 14 3e 28 2e ae 3d 9a c4 d3 3d e4 9f 9a 3d
       0.14535154 0.08504897 0.10340233 0.07550028
000020 88 1e a8 bd d7 c3 dc 3c eb 9e 92 bc 87 30 c3 3c
       -0.082089484 0.026948852 -0.017898044 0.02382685
000030 ed 08 6d be ff 0a ef 3c cc 74 d2 3d 7d dc 39 3d
       -0.23147936 0.029180048 0.102761835 0.04537629
000040 20 72 f7 3d e1 29 f7 3d 9f 4b 10 3c 44 5b ad bd
       0.120823145 0.12068535 0.008807092 -0.08464673
000050 58 93 0e 3d 41 db 2d bc 2c 71 16 be c0 01 5b b9
       0.034808487 -0.010611356 -0.14691609 -0.0002088612
000060 b8 e1 10 3c 4b 57 1d be 90 f4 f3 bd 54 3e d0 bd
       0.008842878 -0.15365331 -0.11911881 -0.10168138
000070 18 be 53 bd 77 6f dd bd ae 8c 00 be 45 cd f5 bc
       -0.05169496 -0.10812276 -0.12553665 -0.030005107
000080 a4 4c 2f 3d 4d c6 ef 3b ff 2d 20 be eb e2 e0 3d
       0.0427977 0.0073173405 -0.15642546 0.10980781
000090 d2 ec 83 3d b3 e7 92 be f5 f0 3c 3c 50 3d 50 3d
       0.06441654 -0.28692397 0.011532058 0.050839722
0000a0 3d 43 f8 bd 19 94 01 be 61 df 27 bd 70 a0 fb 3c
       -0.121222 -0.12654151 -0.040984515 0.030716151
0000b0 d7 84 e9 bc 03 a9 d0 bd 95 d6 bc 3d 8d 89 36 be
       -0.028505726 -0.101884864 0.09220616 -0.17825909
0000c0 0b da 50 bd 45 f9 f2 bc a7 ed c4 bc e6 5d 21 be
       -0.050989192 -0.029659877 -0.024039103 -0.15758476
0000d0 c4 c3 ac bb 7c 64 71 3d 6e 57 2f be d3 61 bb 3d
       -0.0052723605 0.05893372 -0.17123196 0.09149518
0000e0 b4 e5 20 3e ad ff b9 bd 60 6d 80 bd 49 10 d4 3b
       0.15712625 -0.090819694 -0.062708616 0.006471668
0000f0 bb f8 ba 3d 09 c9 c2 3d ac eb 52 bd 96 c9 35 3c
       0.09129473 0.09511001 -0.051494285 0.011095425
000100 e3 4f 8e bd 88 05 c2 ba 83 4d 00 3e 05 cd 07 be
       -0.06948831 -0.0014802674 0.12529568 -0.13261802
000110 f5 ae b6 bd b8 20 86 3d 52 24 22 3d a6 00 91 bc
       -0.08920089 0.06549209 0.03958542 -0.017700505
000120 c3 5f 50 3e 87 a7 31 bd 36 88 42 3e 37 b6 61 3e
       0.2034903 -0.043372657 0.18997273 0.22042166
000130 e3 11 8d bb e6 c7 e9 3e 13 b6 62 3d d9 e9 52 be
       -0.004305111 0.45660323 0.05534942 -0.20597018
000140 e5 a6 03 3e c7 b9 15 3e 62 33 a6 3d 4a 92 6c 3e
       0.12856634 0.1462165 0.08115269 0.2310268
000150 ca 16 34 bd 21 c5 97 bc 67 6b 8d bc 5f 8e e6 bc
       -0.043967046 -0.018526616 -0.017263127 -0.02814406
000160 4d 37 0d 3d 82 19 3c 3e 00 76 14 3e 2e 00 bd 3b
       0.034476567 0.18369105 0.14498138 0.0057678437
000170 14 21 7a 3d 95 82 84 3d c4 bc 41 3c e5 21 bd 3b
       0.061066702 0.06470219 0.01182479 0.005771863
000180 af d4 6f 3d 19 39 0e bd 6a 67 63 3e 7c 60 11 3e
       0.05855244 -0.03472242 0.22207418 0.14196962
000190 94 5a 0b bd e0 53 d8 bd 19 ec 5c 3e de 4f 93 3d
       -0.03402193 -0.10562873 0.21574439 0.07192968
0001a0 6b 8a 53 3e f1 e2 e7 bd 01 15 83 3e d9 69 40 3e
       0.20658271 -0.113225825 0.25601962 0.18790378
0001b0 6f 75 87 3d d7 f8 b9 3d 45 04 8f 3d 4f 94 9f 3e
       0.066141956 0.090806656 0.06983236 0.31167838
0001c0 c9 d5 99 bd 16 b9 21 3e 4e 30 9c 3c dc 02 1e bd
       -0.075114794 0.15793261 0.019066002 -0.038576946
0001d0 2b 26 94 3e dd 7e 9c 3e 47 26 57 3d 31 8a 92 3e
       0.2893537 0.3056554 0.05252674 0.28621057
0001e0 39 3b 68 bc 81 ce 03 be 34 7d 0c bd 86 ce 5a bb
       -0.014174276 -0.12871744 -0.03429909 -0.0033387258
0001f0 13 67 8b 3e 45 75 9d 3e 4f 96 6b 3e fd d2 66 3d
       0.27227077 0.30753532 0.23006557 0.056353558
000200 c0 e9 9d bd 1d 6d 83 3b 26 e9 47 be 3b 7c 9e bd
       -0.077106 0.00401081 -0.19522533 -0.07738539
000210 ec a8 d8 3d 38 1f 66 3b 71 be 6c 3d a9 74 96 3d
       0.10579094 0.0035113823 0.057798807 0.0734647
000220 4d 12 2d be ad 31 13 be e7 2b a1 bd 25 f3 e2 3c
       -0.16901512 -0.14374419 -0.07869702 0.027703831
000230 1e 83 ea bd f5 06 98 bd ac 48 93 3d 4e 3e 59 bd
       -0.1145079 -0.07423202 0.071915954 -0.053037934
000240 6c e5 0d 3e e2 58 a9 bc b6 90 8f be 85 bc cc bc
       0.13857049 -0.020672265 -0.28040093 -0.024992237
000250 2d eb f2 3c ce 02 5f bd ca c7 13 be fa 67 db bb
       0.029653156 -0.054446034 -0.14431682 -0.0066957446
000260 00 ba 83 3c 51 bf 35 be 9c 08 61 be 55 97 48 be
       0.016079903 -0.17748763 -0.2197594 -0.19588979
000270 c0 10 39 bd 3b df 02 be c3 af 67 be 4f c8 20 be
       -0.04518199 -0.12780468 -0.22625642 -0.15701412
000280 26 0b 09 be 47 39 48 3b 7d 50 c1 3d 69 0f 55 3c
       -0.13383159 0.0030551718 0.0943918 0.013004162
000290 5c 78 3f 3d 58 1c ed 3c 8c 4b 9a 3d 4b 43 82 be
       0.046745643 0.02894418 0.07533941 -0.25441965
0002a0 b9 f4 1a bd c1 1e f4 3c bd 63 4f bc 52 44 58 bd
       -0.037831042 0.02979982 -0.012658057 -0.05279953
0002b0 5f 81 20 3d 7b 64 c7 bd 0d ce 60 bb 66 65 85 3d
       0.039185878 -0.09735962 -0.0034302503 0.06513481
0002c0 d5 08 b5 3b 6e 0b 14 be 0c 7a 1b be 1e 69 07 be
       0.0055247345 -0.14457485 -0.15183276 -0.13223693
0002d0 c9 29 d3 bd de 96 6b bd 9e f8 b9 bd f3 b9 48 bd
       -0.10310704 -0.057516925 -0.09080623 -0.04900546
0002e0 bf 10 13 3e 66 2f ec bc d1 5a d3 3d 63 64 d6 3b
       0.14361857 -0.028831195 0.10320056 0.0065427287
0002f0 41 bf 49 3d 43 ee 19 be a3 c4 d1 3d 26 51 71 3b
       0.04925466 -0.15032296 0.102425836 0.003682205
000300 a5 66 38 3c f9 81 6a bd 61 8e 0c be af 8b cd 3d
       0.011254941 -0.057252858 -0.13726188 0.10036408
000310 3a a3 8d 3d a0 6a b5 3c 3c e9 28 be 19 bc c8 bc
       0.069158986 0.02214557 -0.16495222 -0.024503754
000320 c4 f0 83 bb 17 55 2e 3d 92 16 21 be 3b 2b 13 3e
       -0.0040265042 0.042561617 -0.15731266 0.1437196
000330 ff cf 1e bd e4 d8 52 3d 86 70 df 3c 75 0d 31 be
       -0.03877258 0.051476374 0.027275335 -0.1729029
000340 4b 07 5d 3d b2 ab 4d 3d 38 86 3f be 7b 45 41 3c
       0.053962033 0.05021257 -0.18703544 0.011796351
000350 b2 ba 7c bd 81 0e 73 3d a1 59 e7 bd 16 5b 8f bd
       -0.061701484 0.059340004 -0.11296392 -0.06999795
000360 50 0f 07 3e 63 22 2e be 78 7b f4 bc fe c7 91 bd
       0.13189435 -0.17005305 -0.02984403 -0.071182236
000370 b6 d7 90 3d 28 1f e2 bd 20 dd 0e 3e 51 b8 65 3d
       0.070723936 -0.11041099 0.1395154 0.05608398
000380 27 db 17 bd ba 9b 83 bd 78 08 00 bd 2b 42 a1 bd
       -0.037074234 -0.06426187 -0.031258076 -0.07873949
000390 6a 87 46 bd 10 dd 2f be 6d 11 35 3e 35 98 2f be
       -0.048468985 -0.17174172 0.17682429 -0.17147906
0003a0 a0 97 c5 bd 45 77 1a be 69 c7 cf bd 3a 8b 1f be
       -0.09648061 -0.1508456 -0.10145456 -0.15580454
0003b0 70 61 04 be 75 b7 87 3d 4d ac 30 bd 86 41 8a bd
       -0.12927794 0.066267885 -0.04313307 -0.06750779
0003c0 b6 ba 29 3d 55 30 4a 3d 28 a5 04 bd 5c 5c 15 be
       0.041437827 0.0493625 -0.032384068 -0.14586014
0003d0 8f d4 1d be b6 e4 76 be a3 9d 2e bd c5 c6 0f be
       -0.15413116 -0.24110684 -0.042630803 -0.14040668
0003e0 24 49 f3 bd 07 b2 bf bd 77 b1 81 bd af 0e 67 3d
       -0.11879185 -0.09360128 -0.06332677 0.056410488
0003f0 e5 c8 b7 3d 75 ae bd bd 93 8b 7a 3d 68 f0 21 3e
       0.089738645 -0.09261791 0.061168265 0.15814364

bias f4 [64]
000000 c2 fb c4 3b b0 0f 03 bc 69 67 7b 3b 24 08 17 39
       0.006011457 -0.007999346 0.0038361198 0.00014403515
000010 ca 57 b9 bc bd 9d 21 be b2 f0 0d be 91 71 63 bb
       -0.022624869 -0.15782829 -0.13861349 -0.0034705142
000020 df 82 09 3d 25 48 66 bd e8 d5 04 bb 93 2e 40 3c
       0.033572074 -0.056221146 -0.00202691 0.011729854
000030 d7 21 91 3b 85 41 84 3c 71 ed 05 3c 69 45 7a 3c
       0.004429083 0.016144523 0.008174286 0.015275338
000040 f4 6d 08 bc d0 8e ff 3a 3d 70 5c 3b e4 5c 8b bc
       -0.008326996 0.0019497517 0.0033636235 -0.017012067
000050 71 66 07 3c 6b eb 7b bc 6b d7 7c bc b6 9e a2 bc
       0.00826417 -0.015375952 -0.015432219 -0.01985107
000060 70 28 c2 3b c5 c0 7c bc ba 15 fd bc 41 d3 cf 3c
       0.0059252307 -0.015426819 -0.03089415 0.025369288
000070 55 f5 ba 3c 25 43 14 bc 61 26 37 bc ed 9f 85 bc
       0.022822062 -0.009049212 -0.011178584 -0.01631161
000080 8d 72 07 3d 43 00 d4 3c 71 62 3f ba c4 33 cc 3b
       0.03306823 0.025879031 -0.00073007407 0.006231757
000090 3c 43 81 3c 4b 82 0b 3c dd da 75 3b a5 ab 74 bb
       0.01577913 0.008514951 0.0037514486 -0.0037333753
0000a0 06 ba 4d 3c e3 59 34 3c 83 f1 8b bc 64 87 41 bc
       0.0125565585 0.011007759 -0.017082935 -0.011812065
0000b0 ad 75 1e 3d 8e e4 6c 3c 5d 9c 22 bc 8b f3 53 bc
       0.038686443 0.014458789 -0.009924975 -0.012936483
0000c0 f6 a5 76 3c bc 02 70 3b 5e 41 86 3c ac c6 13 ba
       0.015054217 0.0036622724 0.016388591 -0.00056372094
0000d0 c6 83 d7 3c 16 bb 72 3c fb 3a 9a 3c 31 01 0d bd
       0.026307952 0.014815113 0.018826952 -0.034424964
0000e0 98 74 28 3d a4 16 95 3a d3 11 af 3b 3d 58 4d 3c
       0.041126817 0.0011374545 0.005342701 0.012533245
0000f0 80 ea ce bb 89 51 94 bc 67 47 4a bc b9 80 3c bc
       -0.0063145757 -0.018105285 -0.012346125 -0.011505299

weight f4 [64, 64]
000000 93 43 e5 bc 1d 66 6b bb 6f a1 7e bd a6 b3 70 bd
       -0.027986323 -0.0035919019 -0.062165674 -0.058765076
000010 40 49 1a bd ae 7d 0a 3d 86 eb b3 bd 91 54 dd bc
       -0.037667513 0.033811264 -0.08785157 -0.027017863
000020 86 4f cc ba 79 6c b0 bc 1b 0a 12 bd 44 a9 46 bd
       -0.0015587665 -0.021536099 -0.03565417 -0.048501268
000030 c8 f4 0e be ff 86 52 bd f8 12 45 bd 09 86 c7 bd
       -0.13960564 -0.051398274 -0.048113793 -0.09742362
000040 17 f2 c6 bb 34 fd ff ba 1c 42 c5 bd 4c 6c cf bc
       -0.00607134 -0.0019530416 -0.0963175 -0.025320195
000050 43 00 a1 bc ba 31 9c 3c 08 c1 43 bd 46 8b 8e bd
       -0.019653445 0.01906668 -0.04779151 -0.06960158
000060 58 7f d6 bd 9a 3e 65 bd 1c 17 7a bd d6 1c 30 bd
       -0.10473508 -0.055967905 -0.061057195 -0.04299625
000070 65 40 9b 3c 41 63 a3 bd 9d 9f 89 bd 09 35 3e bc
       0.018951604 -0.079779156 -0.06719897 -0.011609324
000080 e0 f4 e0 bc 59 d3 b4 bd 33 21 1d bd 27 50 48 bd
       -0.027460515 -0.08829374 -0.03836174 -0.048904564
000090 95 9e 8c bd 94 e5 e7 bc 2b 89 46 bd 36 19 98 bd
       -0.068661846 -0.028307714 -0.048470657 -0.074266836
0000a0 15 f5 2b bd 39 9f 48 bd af 7e 1b bd 22 e0 84 bd
       -0.041981775 -0.04897997 -0.03796261 -0.064880624
0000b0 cd a2 d2 bc 01 b9 ba bd 57 2f b7 bc f9 1a 09 be
       -0.025712395 -0.09117318 -0.02236144 -0.13389196
0000c0 f3 93 a1 bc 8b 7a 91 bd 53 95 c7 bd f4 8f c6 bc
       -0.019723868 -0.07103451 -0.09745278 -0.024238564
0000d0 93 bb 72 bd 2d c4 25 bd f3 77 3f bd 56 49 55 bb
       -0.059260916 -0.04047029 -0.046745252 -0.0032544932
0000e0 0f 82 67 bd 3e 18 95 bd 0f 64 90 bc e3 b1 0e bc
       -0.056520518 -0.072800145 -0.017625837 -0.008709404
0000f0 22 d3 14 bd 6a d7 72 bd 1e 69 d2 39 81 71 c2 bd
       -0.036334164 -0.059287466 0.0004013264 -0.094943054
000100 4d ec 40 bd 06 b1 c5 bd 4f 30 bc bc f8 90 72 bd
       -0.047100354 -0.09652905 -0.022972254 -0.059220284
000110 36 f2 c2 bd 67 5e 5f 3e 9e f8 8d 3e 37 c7 9d 3c
       -0.09518854 0.21813355 0.27728742 0.019260032
000120 b8 54 14 bd 0a 6a ea bc 1d cf cb bd ef eb 33 bd
       -0.036213607 -0.028615016 -0.09951613 -0.043926176
000130 b1 97 ed bd 48 90 b5 bc 36 09 51 bd 34 5f 8a bd
       -0.116011985 -0.022163525 -0.051034175 -0.0675644
000140 64 6e a4 bc 26 28 01 bd 5c 67 a7 bd f2 3e dd 3c
       -0.02007217 -0.03153243 -0.08174011 0.027007554
000150 49 26 cb bc 11 28 0f bd 7d a1 d3 bb a4 e0 b1 bc
       -0.02479853 -0.03495032 -0.00645846 -0.021713562
000160 93 a9 ae bd ce c5 cf bd a5 29 28 ba 8d ad ba bd
       -0.085284375 -0.1014515 -0.0006414897 -0.091151334
000170 84 12 2b bd d3 eb 6d bd c6 af 17 3c 99 32 71 3b
       -0.041765705 -0.058086228 0.009258216 0.003680384
000180 38 19 b8 bd 89 55 e4 3c 77 cf 50 bd e0 e7 cc bd
       -0.08989185 0.027872818 -0.050979104 -0.10005164
000190 c0 a6 fd bc 44 0a ba bd f3 39 ab bc 53 8d 89 bd
       -0.030963302 -0.09083989 -0.020901656 -0.067164086
0001a0 0d cb 9d bc f5 1c 9d bc e6 e2 48 bd 50 bb f6 bc
       -0.019261861 -0.019178847 -0.049044512 -0.030118614
0001b0 62 b7 f1 ba ee 49 23 bd 11 e6 df bd 69 69 c6 bc
       -0.0018441493 -0.039865427 -0.109325536 -0.024220185
0001c0 fc 2e 6e bd 81 c6 a4 bd 8e 53 89 bd 70 66 35 3d
       -0.058150277 -0.08045674 -0.0670539 0.044287145
0001d0 bf fb 02 bd 05 92 73 bd e7 5b 10 bd 71 6d 41 bd
       -0.031978365 -0.059465427 -0.035243895 -0.047223512
0001e0 4a bb bf bd 35 a0 29 bd 6b 87 cb bd cb 3c b5 bc
       -0.093618944 -0.04141255 -0.09937938 -0.022123715
0001f0 74 da 86 bd 10 c0 31 bd 3f eb 5d bd 0a 5b e3 bc
       -0.065846354 -0.043396056 -0.054179426 -0.027753372
000200 35 21 96 bd ba e0 b0 bd 97 f6 af bd f5 92 c7 bd
       -0.073305525 -0.08636613 -0.08591955 -0.09744827
000210 bc 4d 40 bd 93 39 da 3d 43 c4 1a bb e4 00 90 bd
       -0.046949133 0.10655513 -0.0023615516 -0.0703142
000220 41 d9 9a bd a1 37 b2 bd 4c f3 97 bd 75 d6 99 bd
       -0.07560969 -0.087020166 -0.07419452 -0.075116076
000230 8d 83 d3 bd 80 aa 8d bd 11 73 93 bd c9 5c 8d bd
       -0.10327826 -0.06917286 -0.071996816 -0.06902463
000240 df 9d 7e bd 98 9d c8 bd 7f 3a 9d bd 61 5a 94 bd
       -0.062162276 -0.097956836 -0.07677173 -0.07243801
000250 98 d5 9f bd 35 aa 00 be 10 36 84 bd 2e c5 b3 bd
       -0.07804412 -0.12564929 -0.06455624 -0.087778434
000260 21 ba a7 bd 6f ce 58 bd 31 c4 9d bd c3 1c c8 bd
       -0.08189798 -0.052931245 -0.07703436 -0.09771111
000270 bf 69 8f bd a3 a6 98 bd 6b 8c 03 be 6c d6 91 bd
       -0.07002591 -0.074536584 -0.12846534 -0.07120976
000280 ba 65 bd bd 20 4f e8 bd cc 11 ee bd d7 7c b9 bd
       -0.092479184 -0.11343217 -0.11624488 -0.090570144
000290 0c 4c 98 bd 9f 56 6b bd 8e e6 9c bd d6 78 85 bd
       -0.0743638 -0.057455655 -0.07661162 -0.06517188
0002a0 9c 7c 96 bd 28 1b cc bd ce 3d d0 bd cc 26 c9 bd
       -0.07347986 -0.09966117 -0.10168038 -0.09821853
0002b0 72 69 a7 bd 9e cc 7f bd 96 bc a2 bd 47 cb 28 bd
       -0.08174409 -0.062450998 -0.07946126 -0.041209485
0002c0 af 69 83 bd 4d 06 a4 bd e0 6c c0 bd d1 31 03 be
       -0.06416642 -0.08009014 -0.09395766 -0.12811972
0002d0 69 28 a5 bd 70 bc ae bd fa 0c b1 bd 72 8a 89 bd
       -0.08064348 -0.08532035 -0.08645053 -0.067158595
0002e0 2e 00 a4 bd 7a 89 ae bd 63 38 a5 bd 59 06 d3 bd
       -0.08007847 -0.08522315 -0.080673955 -0.10303945
0002f0 ea 10 c7 bd f1 d5 ac bd 94 27 f7 bd cd ea d0 bd
       -0.09720023 -0.084392436 -0.12068096 -0.10201035
000300 bd 4c b7 bc 8b 59 bb bd f4 7c f1 bd 3e 64 a8 bc
       -0.022375459 -0.09147938 -0.11791411 -0.020555612
000310 e9 18 6f bd bd 9d 05 be df 8a 03 bc 2b 56 d9 bd
       -0.058373366 -0.13048454 -0.008028715 -0.10612138
000320 a9 65 22 bd 16 5a 6e bd f3 53 88 bd f3 b8 8c bd
       -0.039647732 -0.05819138 -0.06656637 -0.06871214
000330 bb d1 24 bd 44 17 92 bd 48 ef b8 bd e7 e2 32 bd
       -0.040239077 -0.07133344 -0.09030014 -0.043673422
000340 f9 11 52 bd a5 d9 44 bd 96 6d 43 bd 00 92 9d bd
       -0.05128667 -0.048059124 -0.04771193 -0.07693863
000350 e3 a3 82 bd 5d fa bb bc 0d 5a cb bd e8 18 23 bd
       -0.06378915 -0.022946531 -0.09929285 -0.039818674
000360 a0 8e 95 bd 32 63 51 bd ed a5 23 bd 89 6d 06 bd
       -0.07302594 -0.05111999 -0.03995316 -0.032819305
000370 f7 82 7d bc ea ae 17 bc 06 13 64 bc b9 29 92 bc
       -0.015473119 -0.009258011 -0.013920551 -0.01784216
000380 f8 6c 5b bd 05 ea ab bc a3 ff ec bc 77 d4 99 bd
       -0.053570718 -0.020985613 -0.02893049 -0.075112276
000390 06 5b 80 bd b8 d6 5f bd dd a1 ad bd 57 77 90 bd
       -0.06267361 -0.05464813 -0.084781386 -0.07054012
0003a0 d0 1f 62 bd 8a 1f d3 bc 3f 1d 67 bd 02 53 88 bd
       -0.05520612 -0.025771875 -0.056424376 -0.066564575
0003b0 64 02 12 bd 4c ba 3b bd 3d c7 25 bd 92 2b 6a bc
       -0.03564681 -0.045831963 -0.04047321 -0.014292615
0003c0 05 ef 89 bd d2 ff 1f bd 35 c8 a2 bd b7 ab aa bc
       -0.067350425 -0.03906233 -0.07948343 -0.020833833
0003d0 38 50 8a bd 5c 2c 52 bd b8 07 9d bd 45 cb 44 bd
       -0.06753582 -0.051311836 -0.07667488 -0.048045415
0003e0 85 40 71 bd 6e 2f bf bd 4c e9 3c bd e9 64 14 bd
       -0.05889942 -0.09335218 -0.046120927 -0.036229048
0003f0 87 6b 85 bd cb b7 89 bd ca 15 41 bd 09 7d 95 bc
       -0.0651465 -0.06724509 -0.04713992 -0.018248098

bias f4 [64]
000000 9a ab bb 3e e5 d5 c5 3e bd a0 aa 3e f8 d3 b4 3e
       0.3665436 0.3863975 0.3332576 0.3531797
000010 34 33 ea 3e 99 75 b3 3e 56 59 c6 3e a4 30 d7 3e
       0.4574219 0.35050657 0.38740033 0.42029297
000020 68 b8 95 bf ad 04 9a bf 66 66 b7 3e 30 a1 cb 3e
       -1.1696901 -1.2032677 0.3582031 0.39771414
000030 b3 02 c4 3e 37 81 9b 3e c6 4e e8 3e 64 0c 87 bf
       0.3828331 0.3037202 0.453726 -1.0550656
000040 14 28 a4 3e ed 66 b2 3e 22 34 dd 3e f0 36 99 bf
       0.32061827 0.3484415 0.43203837 -1.196989
000050 76 47 bb 3e 1f e2 a3 3e ca 7b bc 3e 53 ce c1 3e
       0.36577958 0.32008454 0.36813194 0.37852725
000060 74 81 90 bf 05 a3 9a bf b4 8c 98 3e c0 98 99 3e
       -1.1289506 -1.2081 0.29794848 0.29999352
000070 b7 d8 8c bf 5c 47 97 bf b7 e4 ba 3e 52 ff bf 3e
       -1.1003636 -1.1818652 0.3650262 0.3749948
000080 30 1f d0 3e 5c f3 94 3e c6 6b d8 3e 87 e7 97 bf
       0.40648794 0.29091918 0.42269725 -1.1867532
000090 33 fa c7 3e 1e 81 a3 bf 1f 83 a0 bf 23 2d 9c bf
       0.39058074 -1.2773778 -1.2540015 -1.2201275
0000a0 cf fd ad 3e 94 42 9d bf 71 d0 b9 3e 1b 63 a5 bf
       0.33982703 -1.2285943 0.3629184 -1.292087
0000b0 2b 1d 93 bf 34 d7 8f bf 83 99 9c bf 72 1e b2 3e
       -1.1493276 -1.123755 -1.2234348 0.34788853
0000c0 a2 66 9c bf cf b2 c4 3e 90 36 e4 3e 5c 63 d3 3e
       -1.2218821 0.3841767 0.44572878 0.41286743
0000d0 df af 8c bf ad 0b c1 3e db 07 8e bf 9d ae d4 3e
       -1.0991172 0.3770422 -1.1096147 0.4153947
0000e0 7d b9 a0 bf ad 52 ec 3e 90 02 90 bf 5a a7 99 bf
       -1.2556607 0.46156827 -1.1250782 -1.2004197
0000f0 4a 81 90 bf 97 50 fa 3e 91 49 91 3e 4b 47 a4 bf
       -1.1289456 0.4888961 0.2837644 -1.2834257

weight f4 [1, 64]
000000 70 5f bd 3d ba 21 b1 3d ad 7c e3 3d ba 1c cb 3d
       0.09246719 0.08649011 0.111077644 0.099175885
000010 7c 7a a2 3d b0 ee c5 3d 43 5d c5 3d 16 a6 b0 3d
       0.07933518 0.09664667 0.09636929 0.086254284
000020 58 52 80 bf 70 af 83 bf c1 1c d4 3d 7b da ab 3d
       -1.0025129 -1.0287914 0.10357047 0.08391281
000030 81 de d0 3d fd 1e e6 3d 85 52 a0 3d 94 f7 86 bf
       0.10198689 0.11236379 0.07828239 -1.0544305
000040 27 83 eb 3d 01 9f d4 3d 76 57 ae 3d d7 e7 80 bf
       0.11499625 0.1038189 0.085127756 -1.0070752
000050 c5 90 d8 3d 7f 7d ed 3d e6 8b c3 3d 3e bd bb 3d
       0.105744876 0.11596202 0.09548168 0.091669545
000060 b9 ae 83 bf 84 c8 84 bf c2 a6 c5 3d 94 70 f0 3d
       -1.0287696 -1.0373693 0.09650947 0.117402226
000070 b7 ca 7d bf a6 b1 86 bf 40 20 c7 3d 37 e4 c9 3d
       -0.99137443 -1.0522964 0.09722948 0.09857982
000080 7e 74 a6 3d aa ff c7 3d 90 16 b1 3d 76 f0 85 bf
       0.08127688 0.09765561 0.086468816 -1.0464008
000090 84 50 c7 3d b4 28 79 bf d9 01 79 bf 87 5b 76 bf
       0.09732154 -0.97327733 -0.97268444 -0.9623341
0000a0 4e b9 d9 3d 68 26 8a bf 04 5e c6 3d da b7 7a bf
       0.10631047 -1.0792971 0.09685901 -0.97936785
0000b0 7e b2 86 bf 9d 17 89 bf 79 2c 7d bf 0d da cd 3d
       -1.0523221 -1.0710331 -0.98895985 0.100513555
0000c0 7d 39 80 bf a8 b5 b1 3d 82 4b a3 3d 30 7c 9f 3d
       -1.0017544 0.08677226 0.07973386 0.07787359
0000d0 e4 05 82 bf 32 19 c6 3d cb b6 86 bf c5 05 a5 3d
       -1.0158048 0.096727744 -1.0524534 0.08057741
0000e0 67 85 80 bf c7 88 9a 3d 25 aa 8a bf 16 b4 88 bf
       -1.0040711 0.075456195 -1.0833174 -1.0679958
0000f0 f5 5f 85 bf dd de 8a 3d 2e 52 06 3e 91 56 7a bf
       -1.0419909 0.06780789 0.13117287 -0.9778834
