models_to_eval/mgum/resnet/critic.pth (torch_old, 411035 bytes, 29 tensors)

model.0.bias f4 [128]
0	0xc03a4345	-2.9103558
1	0xc000a8c0	-2.0102997
2	0x408d4441	4.414582
3	0x40579f06	3.369081
4	0xbfaf0ae8	-1.3675203
5	0x405878e2	3.382378
6	0xc002c1ff	-2.0430906
7	0xbf9b2c08	-1.2122812
8	0xc0079a32	-2.1187863
9	0x4088e99a	4.278516
10	0xbfc64569	-1.5489932
11	0x409d8efa	4.923703
12	0xc004fbb7	-2.0778635
13	0x4089ec1a	4.310071
14	0x409b235e	4.8480673
15	0x404ce34c	3.201373
16	0x4082166d	4.0652375
17	0x4085bb3a	4.179105
18	0xc04ebcf2	-3.2302823
19	0x409c17a3	4.8778853
20	0x4020d462	2.5129628
21	0x4094ecb1	4.653893
22	0x40555dd6	3.3338523
23	0x4059c4a4	3.402627
24	0xbfca8f26	-1.5824935
25	0x40952f87	4.6620517
26	0xc045f408	-3.0930195
27	0xc0061687	-2.095125
28	0x404bde98	3.185461
29	0xc010ff8e	-2.2655978
30	0x409735c4	4.725313
31	0xc048c406	-3.1369643
32	0xbe369691	-0.17830874
33	0xbfc7d193	-1.5610832
34	0xc04b35c1	-3.1751559
35	0x409174b4	4.545496
36	0x403499ea	2.8218942
37	0xbf907b8e	-1.1287706
38	0xbfc04973	-1.5022415
39	0x40899652	4.2995996
40	0xbfdbd58e	-1.7174547
41	0x4082ae93	4.0838103
42	0xbfab3c8a	-1.337785
43	0x4095e968	4.684742
44	0x40487c5a	3.1325898
45	0x40861f82	4.191346
46	0x40700be9	3.750727
47	0x407ca354	3.9474688
48	0x4097a9cd	4.7394776
49	0xbf819783	-1.0124363
50	0xbfb48df6	-1.4105823
51	0xc001cba5	-2.0280545
52	0x40552294	3.3302355
53	0x405b1244	3.4229898
54	0x405046c3	3.254319
55	0xbfac4848	-1.3459558
56	0xbfd50731	-1.664282
57	0x40282de7	2.6278017
58	0x40972d60	4.724289
59	0x403c8600	2.9456787
60	0xbfced6e3	-1.6159328
61	0xc0817c3e	-4.0464163
62	0xc08543c8	-4.164524
63	0x409b1963	4.846849
64	0xc016761b	-2.3509586
65	0xbffe87d6	-1.9885204
66	0xbf9bbb9b	-1.2166628
67	0x3f94fb8d	1.1639267
68	0x404d840c	3.2111845
69	0x4063b08a	3.55765
70	0x404145f2	3.0198941
71	0xc0394f1e	-2.895454
72	0x4090838d	4.5160584
73	0xbfd18c61	-1.6370965
74	0x4096e79d	4.715773
75	0x4045a5fe	3.0882564
76	0x40930e32	4.595483
77	0xbfce4ad0	-1.6116581
78	0x40912382	4.5355844
79	0x40061d71	2.095547
80	0x3fa24064	1.26759
81	0x3f396a3e	0.7242774
82	0xc0561324	-3.3449183
83	0xbf9fa39e	-1.2471807
84	0xbfbb3dd5	-1.4628245
85	0x403ce8eb	2.9517162
86	0xc043e330	-3.0607414
87	0xbfaee808	-1.366456
88	0x408bfa30	4.3742905
89	0x407e93cf	3.9777715
90	0x406136f9	3.5189803
91	0x408c6272	4.3870173
92	0xbfc4cfce	-1.5375917
93	0xc0562883	-3.3462226
94	0xbf3953eb	-0.72393674
95	0xbfc8abb8	-1.5677404
96	0xbfcbe6a9	-1.5929767
97	0xc038cd07	-2.8875139
98	0xbfcdaadc	-1.6067767
99	0x402155ef	2.52087
100	0xbfc795f8	-1.5592642
101	0xbfcb31b1	-1.587454
102	0x405eae1e	3.4793773
103	0x4066c55a	3.6057954
104	0x408e3a4d	4.444617
105	0x40889ea4	4.2693653
106	0x4093eb15	4.6224465
107	0x404da62b	3.213267
108	0x40914d16	4.54066
109	0x40934117	4.6016955
110	0xbee3e042	-0.44507033
111	0x407debab	3.967509
112	0x403eb22a	2.9796243
113	0x4051899e	3.2740245
114	0xbf7cb1bd	-0.9870871
115	0x406f2190	3.7364235
116	0xbfc57b4a	-1.542825
117	0xbdab66af	-0.08369195
118	0x403e2c05	2.9714367
119	0xc05c96d9	-3.446707
120	0xc02e6f01	-2.7255251
121	0x408dbb1d	4.429091
122	0x408a8766	4.329028
123	0x4095659c	4.6686535
124	0x4086133d	4.1898484
125	0x407d49da	3.9576325
126	0x408f171b	4.4715705
127	0x408ba593	4.3639617

model.0.weight_orig f4 [128, 1]
0	0x3f98354b	1.1891264
1	0x3fd7311e	1.6811864
2	0xbed2da56	-0.41182202
3	0x3edcbe82	0.43114096
4	0x3fb30508	1.398591
5	0x3e590360	0.21192694
6	0x3fdabfaa	1.7089741
7	0x3f7fa98e	0.99868095
8	0x3fe23be2	1.7674525
9	0xbf0d17f1	-0.55114657
10	0x3fe800df	1.8125266
11	0xbf22643b	-0.6343419
12	0x3fdce966	1.7258728
13	0xbf0e17a8	-0.55504847
14	0xbf1fd849	-0.624394
15	0x3d207da3	0.039182317
16	0xbf060c84	-0.5236285
17	0xbf09cd48	-0.5382886
18	0x3fa97730	1.3239498
19	0xbf20e21d	-0.6284502
20	0xbea61513	-0.32437953
21	0xbf195a3c	-0.5990331
22	0xbee5c8ce	-0.44879764
23	0xbee091f7	-0.43861362
24	0x3fa7d664	1.3112302
25	0xbf19cbb8	-0.60076475
26	0x3fa1e4e8	1.2647982
27	0x40007353	2.0070388
28	0xbedb7de2	-0.42869478
29	0x3f6dfcf7	0.9296412
30	0x3e786c66	0.242601
31	0x3f87c376	1.0606525
32	0xbb234b29	-0.0024916625
33	0x3fa57c69	1.2928592
34	0x3fa64255	1.2988993
35	0xbf15efc2	-0.58568966
36	0xbeba259c	-0.3635682
37	0x3f6f33f5	0.93438655
38	0x3f9f538a	1.2447369
39	0xbf0dca4f	-0.55386823
40	0x3bdda86a	0.0067644613
41	0xbf06a910	-0.5260172
42	0x3f8dc176	1.1074665
43	0xbc1def95	-0.00963964
44	0x3e53f17c	0.20697588
45	0xbe2fc5d3	-0.17165308
46	0xbef74c78	-0.4830053
47	0xbf022971	-0.50844485
48	0xbcb2722f	-0.021782963
49	0x3abb5383	0.0014291856
50	0x3f9584b4	1.1681123
51	0x3fd7f05e	1.6870229
52	0xbedbd27e	-0.4293403
53	0x3ebe941a	0.37222368
54	0xbed66cbe	-0.4187984
55	0x3f8e95f6	1.1139514
56	0x3fc07f28	1.5038805
57	0xbcf5770b	-0.02996399
58	0xbf1bc830	-0.60852337
59	0xbec229da	-0.37922555
60	0x3fab3ce3	1.3377956
61	0x3f81d695	1.014361
62	0x3f33cb47	0.7023205
63	0xbf1fd1d6	-0.6242956
64	0x3fcab5bd	1.5836712
65	0x3feaf21e	1.8355138
66	0x3b781fd5	0.003786077
67	0xbeac8e7f	-0.33702466
68	0xbed3bb90	-0.41354036
69	0xbeea9201	-0.45814517
70	0xbec75ba9	-0.3893712
71	0x3f97b96c	1.1853461
72	0xbf14f38a	-0.5818411
73	0x3f8cccc1	1.0999986
74	0xbf1b7b28	-0.60734797
75	0xbecbcde0	-0.39805508
76	0xbf177434	-0.59161687
77	0x3fab1e88	1.3368692
78	0x3f22bc8f	0.6356897
79	0xbea5afe6	-0.32360762
80	0xbebbfb68	-0.36715245
81	0xbe9710a4	-0.29504883
82	0x3fafa720	1.3722878
83	0x3f83341b	1.0250276
84	0x3f9b226f	1.2119883
85	0xbeb8a2b9	-0.36061648
86	0x3fa07287	1.2534951
87	0x3f90ac78	1.1302633
88	0xbf104374	-0.56352925
89	0x3ebc36b6	0.3676049
90	0xbee85868	-0.4537995
91	0xbe39859b	-0.18117373
92	0x3fb55be2	1.4168665
93	0x3f5717f8	0.8402095
94	0x3b409eaf	0.0029391458
95	0x3fe567f7	1.7922353
96	0x3fa932e5	1.3218657
97	0x3f973b49	1.1814967
98	0x3faa801c	1.3320346
99	0xbe98a668	-0.29814458
100	0x3fa53363	1.2906307
101	0x3fa8215a	1.3135178
102	0xbd1881dd	-0.037233222
103	0xbce2c573	-0.027682042
104	0x3e9cc740	0.30620766
105	0xbdb75f12	-0.0895368
106	0xbf186e0c	-0.5954292
107	0xbedd842d	-0.43264905
108	0xbf15b751	-0.58482844
109	0xbf17c9b0	-0.59292126
110	0x3f86f8cd	1.0544678
111	0x3dd2658c	0.10273275
112	0xbec49545	-0.38395134
113	0x3efa8a1a	0.48933488
114	0x3f877915	1.0583826
115	0x3ed2f59e	0.41203016
116	0x3fa39b7f	1.2781829
117	0xba1ed412	-0.00060588226
118	0xbe7a19f3	-0.24423961
119	0x3fb5279d	1.4152714
120	0x3f8ed88b	1.1159834
121	0xbf120c7b	-0.57050294
122	0xbf0ec3bf	-0.55767435
123	0xbf1a0772	-0.6016761
124	0xbf0a25b2	-0.5396377
125	0xbf028e24	-0.5099814
126	0xbf136e85	-0.57590514
127	0xbf0feb5e	-0.56218517

model.0.weight_u f4 [128]
0	0x3df0a2af	0.117497794
1	0x3e2a1aed	0.16611834
2	0xbd26acdf	-0.040692206
3	0x3d2e7e82	0.042601116
4	0x3e0d8300	0.13819504
5	0x3cab8b7e	0.020940538
6	0x3e2ceab2	0.16886404
7	0x3dca18a8	0.09867984
8	0x3e32d56e	0.1746423
9	0xbd5f1049	-0.05445889
10	0x3e3764f6	0.17909607
11	0xbd805e14	-0.06267944
12	0x3e2ea069	0.17053379
13	0xbd60a490	-0.05484444
14	0xbd7cb574	-0.061696485
15	0x3b7dbade	0.0038716118
16	0xbd53ed23	-0.051739823
17	0xbd59dc12	-0.05318839
18	0x3e05f59b	0.13081972
19	0xbd7e59b7	-0.062097277
20	0xbd0348f5	-0.032052
21	0xbd7271d0	-0.05919057
22	0xbd35a3eb	-0.044345777
23	0xbd3184c0	-0.04333949
24	0x3e04ac22	0.12956288
25	0xbd73253a	-0.059361674
26	0x3dfff2dc	0.124974936
27	0x3e4b1351	0.19831587
28	0xbd2d810f	-0.042359408
29	0x3dbc200e	0.091858014
30	0x3cc45fc6	0.02397145
31	0x3dd6a318	0.104803264
32	0xb981149f	-0.0002462016
33	0x3e02d048	0.12774765
34	0x3e036cbc	0.12834448
35	0xbd6d0b4c	-0.0578721
36	0xbd13254b	-0.035924237
37	0x3dbd15e3	0.0923269
38	0x3dfbe396	0.12299268
39	0xbd602a47	-0.05472782
40	0x3a2f3768	0.00066839764
41	0xbd54e4a2	-0.051975854
42	0x3de01c4a	0.10942896
43	0xba79b0d5	-0.0009524946
44	0x3ca78989	0.020451324
45	0xbc8af1f2	-0.016961072
46	0xbd437c2b	-0.047725838
47	0xbd4dc7f6	-0.050239526
48	0xbb0d0eeb	-0.0021523784
49	0x391413f1	0.00014121809
50	0x3dec620c	0.115421385
51	0x3e2ab21b	0.16669504
52	0xbd2dc3f1	-0.042423192
53	0x3d16a617	0.03677949
54	0xbd297fb2	-0.041381545
55	0x3de16c3f	0.110069744
56	0x3e182a42	0.1485987
57	0xbb420919	-0.0029607473
58	0xbd764919	-0.060128305
59	0xbd197b8e	-0.037471347
60	0x3e075c3f	0.13218783
61	0x3dcd44f7	0.100229196
62	0x3d8e1fb5	0.069396414
63	0xbd7cab41	-0.061686758
64	0x3e203d09	0.15648283
65	0x3e39b864	0.18136746
66	0x39c42340	0.00037410296
67	0xbd08671f	-0.03330147
68	0xbd275ee9	-0.040861998
69	0xbd396c6a	-0.045269407
70	0xbd1d96be	-0.038473837
71	0x3defded9	0.11712427
72	0xbd6b7c8c	-0.057491824
73	0x3dde996b	0.10869106
74	0xbd75cf50	-0.06001216
75	0xbd211a7b	-0.039331894
76	0xbd6f716a	-0.05845777
77	0x3e074440	0.13209629
78	0x3d80a3e6	0.06281261
79	0xbd02f8fb	-0.031975728
80	0xbd1498a9	-0.0362784
81	0xbceed402	-0.029153828
82	0x3e0ad9ad	0.13559599
83	0x3dcf6d8c	0.10128316
84	0x3df5430c	0.11975679
85	0xbd11f378	-0.03563258
86	0x3dfda94e	0.12385808
87	0x3de4b948	0.11168152
88	0xbd641342	-0.05568243
89	0x3d14c78a	0.036323108
90	0xbd37aa28	-0.044840008
91	0xbc92a6d0	-0.017901808
92	0x3e0f5c61	0.14000084
93	0x3daa070c	0.08302125
94	0x3998432e	0.00029041752
95	0x3e35575e	0.17709109
96	0x3e05bf9f	0.13061379
97	0x3def176e	0.11674391
98	0x3e06c705	0.13161857
99	0xbcf15582	-0.029459719
100	0x3e02968e	0.12752745
101	0x3e04e764	0.12978894
102	0xbb711bbd	-0.0036790215
103	0xbb33422d	-0.0027352676
104	0x3cf7dc57	0.030256433
105	0xbc10f3a0	-0.008847147
106	0xbd70fc68	-0.058834463
107	0xbd2f1ac3	-0.04275013
108	0xbd6cb210	-0.057787
109	0xbd6ff890	-0.058586657
110	0x3dd562b2	0.10419215
111	0x3c26508e	0.010151042
112	0xbd1b6531	-0.0379383
113	0x3d460bfb	0.04835127
114	0x3dd62d81	0.10457898
115	0x3d26c270	0.040712774
116	0x3e015420	0.12629747
117	0xb87b1a10	-5.9867336e-05
118	0xbcc5b353	-0.02413336
119	0x3e0f3310	0.13984323
120	0x3de1d582	0.110270515
121	0xbd66e5cd	-0.0563715
122	0xbd61b4a1	-0.0551039
123	0xbd7383a7	-0.059451725
124	0xbd5a67da	-0.053321697
125	0xbd4e672a	-0.050391354
126	0xbd691586	-0.056905292
127	0xbd6387ff	-0.055549618

model.2.block.0.bias f4 [128]
0	0x4043065b	3.047263
1	0x4043fba3	3.0622337
2	0xbf05bc91	-0.52240855
3	0xc00db7b5	-2.2143376
4	0x403b9f35	2.9315922
5	0xbfc82bcd	-1.5638367
6	0xbfc2f79a	-1.5231812
7	0xbfe084fd	-1.7540585
8	0x403c432d	2.9416
9	0xc015a737	-2.338331
10	0xc00443e1	-2.066643
11	0x405a2e0b	3.4090602
12	0xbf962a87	-1.1731728
13	0xc014f718	-2.3275814
14	0x403a1fd2	2.9081922
15	0xc012a0fc	-2.2910757
16	0xbf85c58e	-1.0450914
17	0xbff51f66	-1.9150207
18	0x405ff133	3.4990966
19	0xc022c44f	-2.5432317
20	0xc031cdbe	-2.7781825
21	0x40643381	3.5656435
22	0xbff1dd85	-1.8895727
23	0x404d6342	3.2091832
24	0xbfa2cbaa	-1.2718403
25	0x404ad405	3.1691906
26	0xbfdbe5a3	-1.7179455
27	0x4034d8b2	2.825726
28	0x40522391	3.2834208
29	0x403975fc	2.8978262
30	0xbfbc9d62	-1.473553
31	0x4036ffa1	2.8593524
32	0x403f28b3	2.986859
33	0x404aff85	3.1718457
34	0x40605579	3.5052168
35	0xc008508a	-2.1299157
36	0x403f0cf5	2.9851658
37	0xc00f759c	-2.2415533
38	0xc00e901a	-2.2275453
39	0xbfb67799	-1.4255248
40	0xc01c458d	-2.441745
41	0x406c5035	3.6923954
42	0x4036cdea	2.856318
43	0x404d57d1	3.208485
44	0x405f0bfe	3.485107
45	0xbfa05cd4	-1.2528329
46	0xbfa9aa41	-1.3255082
47	0x402df789	2.7182333
48	0xc0057e2d	-2.0858262
49	0x40460621	3.094124
50	0xbfab04ae	-1.3360803
51	0xbfc25a61	-1.5183831
52	0x403a4860	2.9106674
53	0xc022e0f3	-2.5449798
54	0x40432acf	3.0494878
55	0xc00074fd	-2.0071404
56	0x40515390	3.2707253
57	0x404a43d9	3.160391
58	0x40438ae5	3.0553524
59	0xc019347b	-2.3938282
60	0xbfe7abbf	-1.8099288
61	0x40304a1d	2.7545235
62	0xc00a8aa7	-2.1647127
63	0xbff4c5be	-1.9122846
64	0xbfd2403b	-1.6425852
65	0x403c93c4	2.946519
66	0xc005069a	-2.078528
67	0xc00ddf63	-2.2167594
68	0xbffe9be4	-1.9891324
69	0x405c90b1	3.4463313
70	0xc00bac65	-2.1823971
71	0xbfbc3d8a	-1.470628
72	0xc029fab4	-2.6559267
73	0xc0182888	-2.3774738
74	0xc00c0501	-2.1878054
75	0xbfddd7d3	-1.7331489
76	0x404f16b8	3.2357616
77	0xbfa1fc3d	-1.2655102
78	0xbfe84464	-1.8145871
79	0x4052e376	3.295133
80	0xc01138bb	-2.2690876
81	0x40335986	2.802339
82	0x405199d2	3.2750134
83	0xbfbd00cf	-1.4765872
84	0x401bf92b	2.437083
85	0xc0083031	-2.1279414
86	0x40524d3e	3.2859645
87	0x404fbdbb	3.2459552
88	0x402a5b0f	2.6618078
89	0x403170d7	2.7725122
90	0x404d6a5f	3.2096174
91	0xbfd2c429	-1.6466113
92	0x40365131	2.8487055
93	0xbfe5041b	-1.7891878
94	0xbfaa120a	-1.3286755
95	0xc017a57e	-2.3694758
96	0xc01dbbb6	-2.464582
97	0xbfd313bb	-1.6490396
98	0x404e3256	3.2218223
99	0x404ee849	3.2329276
100	0x40351158	2.8291836
101	0xc0043cb6	-2.0662055
102	0x4049ee64	3.1551752
103	0xc012e076	-2.29495
104	0x40511174	3.2666903
105	0xc00ea129	-2.2285864
106	0x404e156e	3.220058
107	0xbfe5da70	-1.7957287
108	0xbf8f23a6	-1.1182754
109	0xbfe464b0	-1.7843227
110	0x404a029d	3.1564095
111	0xc004b55c	-2.0735693
112	0xc000a8a9	-2.0102942
113	0xc0194f8a	-2.3954797
114	0x4042ff9f	3.0468519
115	0x403e8e22	2.977425
116	0x40436ff7	3.0537088
117	0xbff47c40	-1.9100418
118	0x405137d6	3.269033
119	0x4054073e	3.312942
120	0xc024527b	-2.5675342
121	0x4035c68b	2.840243
122	0xc0001ce0	-2.0017624
123	0x4055dd4a	3.3416314
124	0xbfc4129d	-1.531818
125	0xc003bf49	-2.0585501
126	0xc00f98b6	-2.2436957
127	0x40401e71	3.001858

model.2.block.0.weight_orig f4 [128, 128]
0	0xbdcac44f	-0.09900724
1	0xbc63f0b2	-0.013912367
2	0x3df6a064	0.12042311
3	0x3d2e963e	0.04262375
4	0xb97c8245	-0.00024081122
5	0x3dcbd93e	0.09953545
6	0xbd32a440	-0.043613672
7	0xbd4e279f	-0.050330754
8	0x3d099fe0	0.033599734
9	0x3d01b804	0.03166963
10	0xbcb81788	-0.022472158
11	0xbda74882	-0.08168127
12	0x3cbae8dd	0.022816116
13	0xbda8fcc1	-0.08251334
14	0xbdeb945b	-0.11502906
15	0x3d85e782	0.06538297
16	0x3c64ca44	0.0139642395
17	0xbd6764bf	-0.056492563
18	0xbcb486c1	-0.022036912
19	0xbd6d0a7e	-0.057871334
20	0xbc493802	-0.01228142
21	0xbd10ad87	-0.03532174
22	0x3d5d73c8	0.054065496
23	0xbd8d1ce6	-0.068902776
24	0xbbfc8c67	-0.007707167
25	0xbd864e71	-0.0655793
26	0xbd5997c6	-0.053123258
27	0xbdd8732c	-0.10568842
28	0x395be0dc	0.00020969234
29	0xbc595214	-0.013264198
30	0x3deb302a	0.11483796
31	0x3c72eb8b	0.014826666
32	0x3982b911	0.00024933417
33	0xbd8fd0ae	-0.07022224
34	0xbd40440a	-0.046939887
35	0xbe012d3b	-0.1261491
36	0x3d4fa7d2	0.050697155
37	0x3d25f150	0.040513337
38	0xbc6b3493	-0.014355796
39	0xbddd1457	-0.10794895
40	0x3cd19dee	0.025588002
41	0xbc5f7319	-0.013638281
42	0xbb1e0936	-0.0024114377
43	0x3da4cbcb	0.08046683
44	0x3a1085cc	0.00055131014
45	0x3d7f1435	0.06227513
46	0x3d096f02	0.03355313
47	0xbd7db828	-0.061943203
48	0x3d0abda2	0.033872254
49	0x3c9e39eb	0.019314727
50	0xbc990c9c	-0.01868277
51	0xbbb63b18	-0.0055612437
52	0x3d131354	0.035907105
53	0x3e01c038	0.12670982
54	0xbd636dfa	-0.055524804
55	0x3d550600	0.052007675
56	0xbe06acc8	-0.13151848
57	0x3c957229	0.018242912
58	0xbd5cdbf0	-0.053920686
59	0xbd4f391a	-0.050591566
60	0x3d1240ee	0.035706453
61	0x3cdaba2c	0.026700102
62	0xbd8d8daa	-0.06911786
63	0xbde05df2	-0.10955419
64	0xbdd65532	-0.104654685
65	0xbe1c9205	-0.15290077
66	0x3d47a385	0.04873993
67	0xbd45ced5	-0.048292954
68	0xbc824ec9	-0.015906708
69	0x3c239202	0.009983541
70	0xbc235813	-0.009969729
71	0xba918486	-0.0011102117
72	0x3dc79903	0.097459815
73	0xbd26b224	-0.040697232
74	0x3b760a1a	0.0037542642
75	0xbd1426ed	-0.036169935
76	0x3d4fe286	0.05075314
77	0x3c0de852	0.0086613465
78	0x3d117346	0.035510324
79	0xbb1490f4	-0.0022669407
80	0x3cff51d0	0.03116694
81	0x3c8b68f6	0.017017823
82	0x3c8c7b3c	0.017148606
83	0x3d94ed01	0.072717674
84	0x3d773d82	0.060361393
85	0xbc4376f5	-0.011930217
86	0x3caa1d75	0.020766
87	0x3c8139e3	0.015774673
88	0x3ce671b2	0.028130386
89	0x3c4a4d90	0.012347594
90	0xbc6667b9	-0.014062815
91	0x3dae1318	0.084997356
92	0xbb1173e9	-0.0022194332
93	0x3c3078b8	0.010770969
94	0x3cf8c579	0.0303676
95	0x3d046ac3	0.03232838
96	0xbc6a83d2	-0.014313655
97	0xbd90c379	-0.070685335
98	0xbd77e575	-0.06052156
99	0xbb64294c	-0.0034814654
100	0xbcb64e20	-0.02225405
101	0xbd048532	-0.032353587
102	0x3dc814bf	0.09769582
103	0xbb905c93	-0.004405567
104	0x3dcf9571	0.101359256
105	0x3ca5e20f	0.020249395
106	0xbdc2f86d	-0.0952004
107	0xbdbce7ef	-0.09223925
108	0xbcb17903	-0.021664148
109	0xbd8fdd3a	-0.070246175
110	0x3bf69e24	0.007526176
111	0x3dced9bd	0.10100124
112	0xbc0e6130	-0.0086901635
113	0x3be2627d	0.0069087134
114	0xbc23630d	-0.009972346
115	0x3dfe8b5a	0.12428923
116	0xbcd0142d	-0.025400246
117	0xbaaf2406	-0.0013362176
118	0xbb6043ab	-0.003422002
119	0xbdc3a75d	-0.095534064
120	0xbc3b1259	-0.011417949
121	0xbda546f6	-0.08070175
122	0x3c2ed4a2	0.010670813
123	0x3cae92a2	0.021310154
124	0xbde0296f	-0.10945403
125	0xbb89e776	-0.0042085005
126	0x3cde8cdf	0.027166782
127	0xbd9519c7	-0.07280307
128	0x3c894d44	0.016760476
129	0xb9c73853	-0.00037998203
130	0x3d8456a9	0.064618416
131	0x3d51f4fb	0.051259022
132	0xbb7cc5cd	-0.0038570047
133	0x3dc5027d	0.09619615
134	0xbd7c34de	-0.061573856
135	0xbdb90c70	-0.090355754
136	0x3d4c9484	0.049946323
137	0xbb330de0	-0.0027321503
138	0xbd0e443c	-0.034733042
139	0x3dbc8e76	0.0920686
140	0xbd8c82d9	-0.06860895
141	0x3d08e022	0.033416875
142	0xbdc1c248	-0.09460884
143	0x3d42bad7	0.047541466
144	0x3d3b86e3	0.045782935
145	0x3dceb4b2	0.10093059
146	0x3d9687e5	0.073501386
147	0xbcc89ba6	-0.024488281
148	0x3d870824	0.065933496
149	0x3d26ce5b	0.04072414
150	0xbe23a7f7	-0.15982042
151	0x3cdbf240	0.026848912
152	0x3d2ebd0c	0.042660758
153	0x3dcb871c	0.099378794
154	0xbd88d12b	-0.066805206
155	0xbced9842	-0.029003266
156	0xbdae13bb	-0.08499857
157	0x3c4078f9	0.011747592
158	0x3e401ed1	0.18761756
159	0x3d28394d	0.04107027
160	0x3c15a10d	0.009132636
161	0xbcf447d9	-0.029819416
162	0xbda5d1f8	-0.08096689
163	0xbd4d0687	-0.050055053
164	0x3d001c0b	0.031276744
165	0xbcb31cba	-0.021864284
166	0x3d2d978c	0.042380854
167	0x3ccc8412	0.02496532
168	0x3b640c27	0.0034797282
169	0xbcb2dbc8	-0.021833315
170	0x3d8dab94	0.069174916
171	0x3dac6e66	0.08419494
172	0x3de22dea	0.11043914
173	0x3ce2172f	0.027598945
174	0xbd445040	-0.047928095
175	0xbcd586c7	-0.026065243
176	0x3dd52eb0	0.104092956
177	0x3b679c7d	0.0035341077
178	0xbc78b4cd	-0.015179825
179	0x3d59fb1a	0.053217985
180	0x3aa749be	0.0012763066
181	0x3c96d055	0.018409887
182	0xbd7972f2	-0.060900636
183	0xbd672364	-0.056430236
184	0x3cb064ac	0.02153238
185	0x3dd56880	0.104203224
186	0x3c2e39f0	0.010633931
187	0xbb336230	-0.0027371757
188	0xbd1d162c	-0.038351223
189	0x3cead4bd	0.028665895
190	0xbadfec28	-0.001708393
191	0xbd93eb2d	-0.072225906
192	0x3d529e00	0.05142021
193	0x3c0abe44	0.008468214
194	0x3b267a9c	0.002540267
195	0x3c5867a1	0.013208301
196	0x3bdb0a3e	0.0066845706
197	0x3d8601e6	0.06543331
198	0x3da63ed0	0.08117449
199	0xbdc1b91d	-0.09459136
200	0xbcc0d4ba	-0.023538936
201	0xbd721d78	-0.059110135
202	0xbc35b420	-0.011090308
203	0x3de198ca	0.1101547
204	0x3d5afe87	0.053465392
205	0xbb15e819	-0.0022873937
206	0x3b6c7302	0.0036079292
207	0x3e192854	0.1495679
208	0x3d9f1f3a	0.07769628
209	0xbd8f7619	-0.07004947
210	0x3d90b677	0.070660524
211	0x3d0a1aab	0.03371684
212	0xbcf13990	-0.029446393
213	0x3d8f3ccc	0.06994018
214	0x3d6bd8b5	0.057579715
215	0xbc4fd07d	-0.012683985
216	0xbd965a55	-0.07341448
217	0x3dcee3d5	0.10102049
218	0xbbddb92a	-0.006766458
219	0x3d57e74c	0.052710816
220	0x3d414282	0.047182567
221	0xbc27b094	-0.010234971
222	0x3aa6d8be	0.0012729389
223	0x3db8fefb	0.09033009
224	0xbda4ee66	-0.080532834
225	0xbdc8c908	-0.09803969
226	0x3cf7394c	0.030178688
227	0x3b3c049e	0.0028689275
228	0x3d8e211b	0.06939908
229	0x3ce405d5	0.027834812
230	0xbd428f1d	-0.047499765
231	0x3db4676b	0.08808788
232	0x3db06acb	0.08614119
233	0x3dc303bb	0.09522196
234	0xbdb89767	-0.09013253
235	0xbc973330	-0.018457025
236	0x3d4bac77	0.049725022
237	0xbc8a672b	-0.016894897
238	0x3c0fd638	0.008779101
239	0x3d07c906	0.033150695
240	0x3d27e65f	0.040991183
241	0x3deb0311	0.11475194
242	0x3d894063	0.06701734
243	0x3dafb02c	0.08578524
244	0xbd5b412a	-0.053528942
245	0x3bca4ac6	0.0061734645
246	0x3c5d8d81	0.013522507
247	0xbd942af7	-0.072347574
248	0xbc3a6c0a	-0.011378298
249	0xbd45e698	-0.048315614
250	0xbc748337	-0.014923862
251	0x3d985a01	0.07439042
252	0x3d2850ac	0.04109256
253	0xbccb1832	-0.02479181
254	0x3cd671ef	0.026177375
255	0x3d9f5526	0.07779913

model.2.block.0.weight_u f4 [128]
0	0xbc67f01e	-0.0141563695
1	0xbd455535	-0.048176963
2	0x3dc7bad7	0.09752434
3	0x3dbffd1a	0.09374447
4	0x3b8fbcd6	0.0043865247
5	0x3cd4df3b	0.02598535
6	0x3d4693b5	0.04848071
7	0x3d8bbec0	0.06823492
8	0xbd4796f6	-0.048727952
9	0x3d62f99e	0.055413835
10	0x3cd65a1d	0.026166016
11	0xbd3042db	-0.04303251
12	0x3dc261d8	0.094913185
13	0x3cea99f9	0.028637873
14	0xbc4bffcd	-0.012451124
15	0x3e35f34a	0.17768589
16	0x3d0b5f16	0.034026228
17	0x3e12364a	0.14278522
18	0xbd6af9ec	-0.05736725
19	0x3e83fbf4	0.25778162
20	0x3dd8f601	0.105937965
21	0xbcd64985	-0.026158104
22	0x3d25ca80	0.040476322
23	0xbdad8f65	-0.08474616
24	0x3dfdca66	0.1239212
25	0xbd1dd8e1	-0.03853691
26	0xbd41e5cc	-0.047338292
27	0x3c3b9579	0.011449211
28	0xbd82fce8	-0.06395894
29	0xbd32f2db	-0.043688636
30	0x39f8b1a5	0.00047434602
31	0xbb934251	-0.0044939895
32	0xbd6114e1	-0.054951552
33	0xbdb1bc2e	-0.086784706
34	0xbd198777	-0.037482705
35	0x3d79b5b4	0.0609643
36	0xbd1241ae	-0.03570717
37	0x3e3f4c75	0.1868151
38	0x3db68ea5	0.08913926
39	0x3cb691b9	0.022286283
40	0x3e339361	0.1753669
41	0xbd41c6c1	-0.047308687
42	0xbd4130f5	-0.04716583
43	0xbd3d9182	-0.046281345
44	0xbcd144ed	-0.025545562
45	0x3df6d67f	0.12052631
46	0xbcc86950	-0.02446428
47	0xbbbab764	-0.0056981314
48	0x3d894ac0	0.067037106
49	0xbd0e5230	-0.03474635
50	0x3daadc8c	0.08342847
51	0x3d4c5efc	0.04989527
52	0xbc91e99a	-0.017811585
53	0x3e452a04	0.19254309
54	0x3c1fe1e2	0.0097584445
55	0x3cbbfd16	0.02294783
56	0xbd2f49ea	-0.0427951
57	0xbd5632ac	-0.05229442
58	0xbce0a2a8	-0.02742131
59	0x3e6e9655	0.23299535
60	0x3d4a0aad	0.049326587
61	0xbb8dd744	-0.00432864
62	0x3cdf3265	0.02724571
63	0xbced7ebb	-0.028991094
64	0x3d0e9b5f	0.034816142
65	0xbce8903d	-0.02838909
66	0x3d4cccb7	0.04999992
67	0x3d78d91c	0.060753927
68	0x3d9e582c	0.07731661
69	0xbd09fa2b	-0.033685844
70	0x3e73bf2e	0.23803398
71	0x3d459c43	0.048244726
72	0x3de772de	0.11301206
73	0x3e414d1f	0.18877076
74	0x3d686140	0.05673337
75	0xbc947252	-0.018120918
76	0xbc011854	-0.007879335
77	0x3d8dc93e	0.069231495
78	0x3d82eb46	0.06392531
79	0xbdb6e230	-0.089298606
80	0x3de67cb5	0.11254255
81	0xbcc7ed68	-0.024405196
82	0xbcfb56dc	-0.030681066
83	0x3d457293	0.04820497
84	0xbd23c142	-0.039979227
85	0x3e407f97	0.18798672
86	0xbd3e7f65	-0.04650821
87	0xbdf7be67	-0.12096863
88	0x3c291a4c	0.010321211
89	0x3c23650b	0.009972821
90	0xbd50d484	-0.05098392
91	0x3e40efae	0.1884143
92	0xbd4a30be	-0.04936289
93	0x3d934ebc	0.07192752
94	0x3dcae2d8	0.09906548
95	0x3d11d32c	0.03560178
96	0x3e548712	0.2075465
97	0x3d7318a4	0.05934967
98	0xbceceb73	-0.028920865
99	0xbda36b5f	-0.07979464
100	0x3c6273e9	0.01382158
101	0x3d34affe	0.04411315
102	0xbdbda8d0	-0.09260714
103	0x3d706086	0.058685802
104	0xbd00e24e	-0.03146582
105	0x3d836e31	0.06417502
106	0xbc3b939f	-0.01144877
107	0x3dc90d10	0.098169446
108	0xbb1a8de3	-0.0023583106
109	0xbd3c2653	-0.045934986
110	0xbd913de5	-0.070918836
111	0x3d0fd9f7	0.035119977
112	0x3c2c99d2	0.0105347205
113	0x3e7827d8	0.24233949
114	0x3c1c8347	0.009552783
115	0xbdbc0c92	-0.09182085
116	0xbd46231e	-0.048373334
117	0xbc3cf3e3	-0.0115327565
118	0xbda59848	-0.08085686
119	0xbd128f12	-0.035780974
120	0x3e84fded	0.2597498
121	0xbc8b8b04	-0.017034061
122	0x3e4aa6bb	0.19790165
123	0xbbf3d69f	-0.0074413563
124	0x3cd252db	0.025674274
125	0x3c3e5304	0.011616472
126	0x3d76dc2f	0.060268577
127	0xbd79e394	-0.06100805

model.2.block.0.weight_v f4 [128]
0	0x3e2c3ae9	0.16819347
1	0x3de31418	0.11087817
2	0xbd1b9fb6	-0.03799411
3	0xb7599add	-1.2970265e-05
4	0x3d8cad61	0.06869007
5	0xbc690b83	-0.014223936
6	0x3dcaa101	0.0989399
7	0x3d73f785	0.059562225
8	0x3ddf76e8	0.109113514
9	0xbdb00222	-0.08594157
10	0x3df40adc	0.11916134
11	0xbdd0f988	-0.10203844
12	0x3de0b262	0.10971524
13	0xbdbe31c9	-0.092868395
14	0xbdd0d07f	-0.101960175
15	0xbcaadc87	-0.020857109
16	0xbdaa7100	-0.08322334
17	0xbdab8ca0	-0.083764315
18	0x3e37bac6	0.17942342
19	0xbdd34123	-0.10315158
20	0xbd5e4738	-0.05426714
21	0xbdc92697	-0.098218136
22	0x3daaeb3b	0.08345648
23	0xbd900888	-0.07032877
24	0x3da40853	0.080094
25	0xbdc68324	-0.09692982
26	0x3e32d02b	0.17462222
27	0x3da40cf4	0.08010283
28	0x3da47208	0.08029562
29	0x3e04e154	0.12976581
30	0xbca91f74	-0.02064488
31	0x3db70c15	0.08937851
32	0x3a4dc1ad	0.00078489893
33	0x3da8c05f	0.08239817
34	0x3e3c1314	0.18366653
35	0xbdce9d10	-0.10088551
36	0xbd75f4a3	-0.060047757
37	0x3d5c4a58	0.053781837
38	0x3da13dd5	0.07873122
39	0xbdb93066	-0.090424344
40	0xb9267e62	-0.00015878075
41	0xbdb21781	-0.08695889
42	0x3d8683d7	0.06568115
43	0xbcfb0787	-0.030643238
44	0xbcb78f3a	-0.022407163
45	0xbd0312e7	-0.03200045
46	0xbda17233	-0.0788311
47	0xbda4e11a	-0.08050747
48	0xbd16eddf	-0.036847945
49	0xb9810232	-0.00024606433
50	0x3d9c8d1d	0.07644103
51	0x3dd61c3b	0.10454603
52	0xbd926fac	-0.07150206
53	0xbc0dec7c	-0.008662339
54	0xbd90c61d	-0.07069037
55	0x3d91123c	0.07083556
56	0x3d894f63	0.06704595
57	0xbcb6b130	-0.022301286
58	0xbdc27c18	-0.09496325
59	0xbd7ccc67	-0.06171837
60	0x3d9b1696	0.07572667
61	0x3dd78f5f	0.10525393
62	0x3de68c60	0.11257243
63	0xbdd043c4	-0.10169175
64	0x3d9e0167	0.07715111
65	0x3da89552	0.082316056
66	0xb8e74ef0	-0.000110296416
67	0x3e1c35fd	0.1525497
68	0xbd8d5bb2	-0.06902255
69	0xbd9aaeb2	-0.07552852
70	0xbd8487b9	-0.064711995
71	0x3e2eb6ae	0.17061874
72	0xbdb43f73	-0.088011645
73	0x3d666c32	0.056255527
74	0xbdd40e52	-0.10354294
75	0xbd84afca	-0.064788416
76	0xbdc66a96	-0.096882984
77	0x3da3cc40	0.07997942
78	0xba9b6214	-0.0011854791
79	0x3d8e7f5b	0.06957885
80	0x3e2de7e9	0.16982998
81	0x3cc67324	0.024224825
82	0x3e4507e9	0.19241299
83	0x3d842f7a	0.06454368
84	0x3d9c87e8	0.076431096
85	0xbd06bd97	-0.03289565
86	0x3e32303d	0.17401214
87	0x3d9c9c95	0.07647053
88	0xbda81ede	-0.082090124
89	0xbc5e91a7	-0.013584531
90	0xbda44a5a	-0.08021994
91	0xbd0e6848	-0.03476742
92	0x3d6e30aa	0.05815188
93	0x3db58a22	0.08864237
94	0xb9a29169	-0.00031007387
95	0x3deb0d69	0.11477167
96	0x3db79050	0.08963072
97	0x3e2af9d4	0.16696864
98	0x3da032ea	0.07822211
99	0xbcd7345b	-0.026270082
100	0x3db228b2	0.08699168
101	0x3da45aeb	0.08025154
102	0xbca56769	-0.020190911
103	0xbcd5aab9	-0.026082383
104	0xbc8c54d8	-0.0171303
105	0xbceb8c02	-0.028753284
106	0xbdbd9c4a	-0.092583254
107	0x3da551c5	0.08072237
108	0xbdc1469b	-0.09437295
109	0xbdbb7ba2	-0.091544405
110	0x3d20c2cb	0.03924827
111	0xbcadd07b	-0.021217575
112	0xbd7d41d7	-0.061830368
113	0xbb506945	-0.0031801027
114	0x3d84b5d1	0.06479991
115	0xbbcf34db	-0.0063234395
116	0x3da96ff9	0.0827331
117	0x3a8c4c1a	0.0010703832
118	0xbced83b8	-0.028993472
119	0x3e4b7805	0.19870003
120	0x3e21337b	0.15742294
121	0xbdbc3353	-0.09189477
122	0xbdb9ff61	-0.09081913
123	0xbdc5377e	-0.09629725
124	0xbdb831af	-0.089938514
125	0xbda501d0	-0.08056986
126	0xbdbdf469	-0.09275133
127	0xbdb38ace	-0.08766709

model.2.block.2.bias f4 [128]
0	0xc023c9bc	-2.559188
1	0xc021cf4f	-2.528278
2	0x403608b3	2.844281
3	0x402513e4	2.579339
4	0xbfdf332c	-1.7437491
5	0x402eb9ab	2.7300823
6	0xc02177bf	-2.5229337
7	0xc0279b46	-2.6188521
8	0xc012ce36	-2.293836
9	0x40636949	3.553301
10	0xc0029f95	-2.04099
11	0x405b8dc3	3.4305274
12	0xc013d086	-2.3096023
13	0x4052f534	3.296216
14	0x406073cd	3.507068
15	0x40615512	3.5208173
16	0x404dd836	3.2163215
17	0x405288ab	3.2895916
18	0xc0275dcc	-2.6151
19	0x405de7af	3.4672658
20	0x3f866632	1.0499938
21	0x4051fda7	3.2811067
22	0x4010e930	2.2642326
23	0x4016af95	2.3544667
24	0xc013aee5	-2.3075497
25	0x403dd24a	2.96596
26	0xc013c8e4	-2.3091364
27	0xbff717b7	-1.9304112
28	0x4025c3ed	2.5900834
29	0xc019a85a	-2.4009004
30	0x4053215b	3.2989109
31	0xc00ea06d	-2.2285416
32	0xbf090400	-0.5352173
33	0xc016bbfb	-2.3552234
34	0xc02370c1	-2.553757
35	0x404157e3	3.0209892
36	0x4048e746	3.1391158
37	0xc0035bd5	-2.05248
38	0xc022054e	-2.5315738
39	0x405c258b	3.4397914
40	0xc0345196	-2.8174796
41	0x405b6faa	3.4286904
42	0xc0181cc7	-2.3767564
43	0x40547472	3.3196073
44	0x40236b81	2.5534365
45	0x40656f86	3.5849319
46	0x4077c094	3.871129
47	0x4051805c	3.2734594
48	0x4050b5f6	3.261106
49	0xc04345d1	-3.0511363
50	0xc0207924	-2.5073938
51	0xbffc4988	-1.970994
52	0x40168534	2.35188
53	0x401598b3	2.337445
54	0x4057612e	3.3653064
55	0xc01d8dab	-2.4617717
56	0xc0154bfb	-2.3327625
57	0x4039ad07	2.9011858
58	0x4056c5df	3.355827
59	0x403e0c3f	2.9694974
60	0xc014e471	-2.326443
61	0xc03b0daa	-2.922709
62	0xc0356a33	-2.834607
63	0x4062fe43	3.546769
64	0xc004e5c4	-2.0765238
65	0xc00925b7	-2.142927
66	0xc013cedb	-2.3095005
67	0x3f353b85	0.70793945
68	0x40633107	3.5498674
69	0x4057c8c1	3.371628
70	0x400b5db8	2.1775951
71	0xc04401ea	-3.0626168
72	0x40450e13	3.078984
73	0xc01138bd	-2.269088
74	0x40607794	3.5072985
75	0x3e4d87bb	0.20071308
76	0x40612f83	3.518525
77	0xc00bc073	-2.1836212
78	0x40511f53	3.2675369
79	0x3fac5800	1.3464355
80	0x3f9299a1	1.1453134
81	0x3f8ea420	1.1143837
82	0xbff0ef93	-1.8823112
83	0xc02cf4f0	-2.7024498
84	0xc01230ad	-2.284221
85	0x405bc81c	3.4340887
86	0xc02f7d0f	-2.742008
87	0xbfe715d0	-1.8053532
88	0x4054c64e	3.3246036
89	0x4031acad	2.7761643
90	0x4020bfb2	2.5117002
91	0x405ab698	3.4173946
92	0xc002bfc1	-2.0429537
93	0xc0380ade	-2.8756633
94	0xbfd5cb1a	-1.6702607
95	0xbfeed81e	-1.8659704
96	0xc01073f5	-2.2570775
97	0xc02c69a3	-2.6939476
98	0xc025db4c	-2.5915098
99	0x403dcf10	2.965763
100	0xc01f9e17	-2.494024
101	0xc001c4fe	-2.0276484
102	0x3fa20e32	1.2660582
103	0x40419c5d	3.0251687
104	0x4056c9e3	3.3560722
105	0x405bcf54	3.4345293
106	0x40597fca	3.3984246
107	0x402eda16	2.732061
108	0x40504162	3.2539907
109	0x4032b33d	2.7921898
110	0xc0144e91	-2.3172953
111	0x402c9134	2.6963625
112	0x40226e38	2.5379772
113	0x401f1da1	2.4861834
114	0xc003974b	-2.0561092
115	0x40351f66	2.8300414
116	0xbff67a78	-1.9256124
117	0x40454787	3.0824907
118	0x3f55f415	0.83575565
119	0xc0227cc3	-2.5388649
120	0xc0293255	-2.643697
121	0x40661574	3.5950594
122	0x40591dee	3.3924518
123	0x403baf9d	2.9325936
124	0x4058ea8c	3.3893156
125	0x4018d140	2.3877716
126	0x40601a77	3.5016153
127	0x4066c461	3.605736

model.2.block.2.weight_orig f4 [128, 128]
0	0x3d6fc86f	0.058540758
1	0xbceca3f8	-0.02888678
2	0x3e336704	0.17519766
3	0x3d79217d	0.060822953
4	0xbcfcde26	-0.030867647
5	0xbcfa455d	-0.030550653
6	0x3dc431dd	0.09579823
7	0x3e08bbe6	0.13352928
8	0x3cd695f4	0.02619455
9	0x3daa67e6	0.08320598
10	0xbd80a16d	-0.062807895
11	0x3dcb6324	0.09931019
12	0x3ce2ad8f	0.02767065
13	0xbd20408f	-0.039124068
14	0xbe00a553	-0.12563066
15	0x3dcb0c7b	0.0991449
16	0xbc5787a7	-0.013154901
17	0x3cc5ad6a	0.024130542
18	0xbca2469a	-0.019809056
19	0x3ca97b81	0.020688774
20	0xbd0bf252	-0.03416664
21	0xbd02f1a3	-0.031968724
22	0xbdb7c3e0	-0.08972907
23	0x3c0d05d5	0.0086073475
24	0x3e0da553	0.13832597
25	0x3d3fe446	0.046848558
26	0xbc35cd85	-0.011096363
27	0xbcbf0f83	-0.023322826
28	0x3c56eb7c	0.013117667
29	0x3d75e45c	0.060032234
30	0xbb96e2d5	-0.004604677
31	0xbc8be57d	-0.017077202
32	0x3cd64d53	0.026159918
33	0x3da98459	0.082771964
34	0x3dcc0a43	0.09962895
35	0x3d084132	0.0332653
36	0xbc3ed28d	-0.011646879
37	0x3da9ee6d	0.08297429
38	0x3d5865ee	0.052831583
39	0x3d8ee1ae	0.06976639
40	0xbb232e28	-0.0024899337
41	0x3c8d34cd	0.017237091
42	0xbc0959f7	-0.008383266
43	0x3d5b4762	0.053534873
44	0x3d0e97ef	0.034812864
45	0x3e2053a9	0.15656914
46	0xbcacbd18	-0.02108626
47	0xbca4c368	-0.020112708
48	0xbb6c821a	-0.0036088289
49	0x3d7ed133	0.062211227
50	0x3de06e63	0.109585546
51	0x3c5028ad	0.01270501
52	0x3d9541aa	0.07287915
53	0x3dad88a6	0.08473329
54	0xbbd23974	-0.0064155404
55	0x3c1c8e57	0.009555421
56	0x3e1ef3b4	0.15522653
57	0x3cc2b59e	0.023768242
58	0xbdc57844	-0.096420795
59	0x3cb53f6b	0.022124967
60	0xbd1ea351	-0.03872997
61	0xbd04931c	-0.032366857
62	0xbd0b28a2	-0.033974297
63	0xbc189c2a	-0.009314576
64	0xbd2a1f6a	-0.041533865
65	0xbd9745d5	-0.07386366
66	0xbc1a8cb1	-0.0094329575
67	0x3c1ceaa3	0.009577426
68	0x3c9e47ef	0.01932141
69	0x3dd4c657	0.10389393
70	0x3dc55448	0.09635216
71	0x3d850f78	0.06497091
72	0x3d549c73	0.051907014
73	0x3d3c7dc4	0.046018377
74	0x3d59468a	0.053045787
75	0x3c98cac8	0.018651381
76	0x3d906803	0.07051089
77	0xbc18b963	-0.009321543
78	0x3b99849d	0.004684998
79	0x3d3e6cff	0.046490666
80	0x3e0111ea	0.1260449
81	0x3d05a03d	0.03262352
82	0x3c0aae32	0.008464383
83	0xbc8ea58c	-0.017412923
84	0x3bfea1c6	0.0077707497
85	0xbbd179fe	-0.0063927164
86	0xbc7fdeef	-0.015617116
87	0x3da47e4e	0.08031903
88	0xbcc95294	-0.02457551
89	0xbd309e99	-0.04312
90	0x3dbb0947	0.09132629
91	0x3d32da03	0.043664943
92	0xbc33f299	-0.010983133
93	0xbd29d4ff	-0.041462895
94	0x3dd8394f	0.10557806
95	0xbb06f9e5	-0.0020595726
96	0x3db53ef6	0.088498995
97	0x3b876d7f	0.004132926
98	0xbd8c5395	-0.068518795
99	0x3dc70543	0.097178005
100	0xbd2a1922	-0.041527875
101	0xbc78e46d	-0.01519118
102	0x3d126d39	0.035748694
103	0x3d8cc488	0.06873423
104	0xbbb600e6	-0.0055543063
105	0x3ca8ed4c	0.020620964
106	0x3dc31f74	0.095274836
107	0x3e2609aa	0.16214624
108	0xbc93a346	-0.01802219
109	0xbd37acd2	-0.04484255
110	0x3e09318b	0.13397805
111	0x3cab29b9	0.020893918
112	0x3d1b28ce	0.03788071
113	0x3d649593	0.055806708
114	0xbd7dabb0	-0.061931312
115	0x3dd000d9	0.10156412
116	0x3d7cc62b	0.061712425
117	0x3daf92f3	0.0857295
118	0x3c28de76	0.010306945
119	0xbcdd85d8	-0.02704136
120	0x3d8580bd	0.065186955
121	0xbce68bea	-0.028142888
122	0x3c10ede1	0.008845777
123	0xbcd58242	-0.026063088
124	0x3d01e9ad	0.03171699
125	0xbd40774d	-0.046988774
126	0xbcd0e422	-0.025499407
127	0xbd59ff26	-0.053221844
128	0x3a075401	0.0005162359
129	0x3dcfd304	0.1014767
130	0xbaf03739	-0.0018327005
131	0x3d68432e	0.056704693
132	0xbdbe3fa1	-0.0928948
133	0x3e6afe1e	0.229485
134	0xbd5c5f23	-0.053801667
135	0x3b96d73d	0.004603295
136	0xbc37f2d0	-0.011227325
137	0xbd56a64d	-0.05240469
138	0x3b0e35d8	0.0021699574
139	0xbd8d5d44	-0.06902555
140	0xbd0588dd	-0.032601226
141	0xbc906950	-0.017628342
142	0x3e57209c	0.21008533
143	0x3d0cac8d	0.034344245
144	0x3ccae7ed	0.024768794
145	0x3df2bee9	0.118528195
146	0xbde77bf3	-0.11302938
147	0xbce839d1	-0.028347882
148	0x3c9bbc37	0.019010646
149	0xbce23d3e	-0.027617093
150	0xbdb06907	-0.086137824
151	0xbdad0cff	-0.084497444
152	0x3dcfc63f	0.10145234
153	0xbcee8a9a	-0.029118825
154	0x3d023daf	0.031797107
155	0x3dc39507	0.09549909
156	0x3b8e7665	0.00434761
157	0x3daa4555	0.08314005
158	0x3e4d673f	0.20058917
159	0x3d13178a	0.03591112
160	0xbdd115ff	-0.102092735
161	0x3c36da3c	0.01116043
162	0x3b31fc22	0.002715834
163	0xbcf5d097	-0.03000669
164	0x3a4c949f	0.00078041287
165	0xbd19e6af	-0.037573513
166	0xbd1f6588	-0.038915187
167	0x3db6cfb6	0.089263365
168	0x3c2e830f	0.010651364
169	0xbd7a6ef1	-0.06114096
170	0x3d8cd6bf	0.06876897
171	0x3d90066f	0.07032477
172	0xbce81323	-0.028329438
173	0xbd9e7302	-0.0773678
174	0x3d290ee9	0.041273985
175	0x3d814caf	0.06313454
176	0x3d29ca51	0.04145271
177	0x3d44d80b	0.048057597
178	0x3d4211b3	0.04738016
179	0xbd26f6ea	-0.04076282
180	0x3c99af00	0.018760204
181	0x3cecd996	0.028912347
182	0x3d82b5dd	0.06382344
183	0xbdbebdbc	-0.09313533
184	0x3c72520e	0.014790071
185	0x3e0fb9a0	0.14035654
186	0xbcc0f3f8	-0.023553833
187	0x3d4f8060	0.050659537
188	0xbd27a2a2	-0.040926583
189	0x3da122af	0.078679435
190	0x3df1dbcf	0.11809503
191	0x3c5f6077	0.013633839
192	0x3cb3a93c	0.021931283
193	0x3d40e96a	0.0470976
194	0xbd382db5	-0.044965465
195	0x3c366130	0.01113157
196	0x3d77a133	0.060456466
197	0xbc2dcefd	-0.010608432
198	0x3b1b0a1d	0.002365715
199	0x3d916f21	0.07101274
200	0x3dad2e5e	0.084561095
201	0x3c161b4c	0.0091617815
202	0x3c2b52f7	0.010456792
203	0x3dade18e	0.08490287
204	0x3c8f74ce	0.017511752
205	0xbcb0e66e	-0.021594252
206	0xbb2d2bde	-0.0026423852
207	0xbd8ca5c1	-0.068675525
208	0x3d60513c	0.05476497
209	0x3b935bce	0.004497028
210	0x3d0bdedd	0.034148086
211	0xbd08a3e4	-0.033359423
212	0x3dd50c38	0.10402721
213	0xbc8d4073	-0.017242646
214	0x3e25a04a	0.16174427
215	0x3c95dc46	0.018293511
216	0x3e193eb1	0.14965321
217	0xbc0ff38d	-0.008786094
218	0x3c09a3c1	0.008400858
219	0x3d4252d0	0.047442257
220	0x3d9258d5	0.071458496
221	0x3c997e0d	0.018736864
222	0x3dc6ebaf	0.09712922
223	0x3bc08da1	0.0058762585
224	0xbd240667	-0.04004517
225	0x3c8ac7b8	0.016940936
226	0xbcfebd8d	-0.031096244
227	0x3d06ca07	0.032907512
228	0x3d3d616a	0.04623548
229	0x3b6d6d9c	0.0036228662
230	0xbce55e09	-0.027998941
231	0x3d6c8ff0	0.057754457
232	0xbca2cf61	-0.019874277
233	0x3cf7a210	0.030228645
234	0xbc912da0	-0.017721951
235	0xbbfbbcf3	-0.0076824366
236	0x3de8f244	0.113743335
237	0x3da68ccb	0.08132323
238	0x3cfc3640	0.030787587
239	0xbda4dbfc	-0.08049771
240	0xbbafdd54	-0.0053669605
241	0xbc3e5e10	-0.011619106
242	0x3dfc68c0	0.12324667
243	0x3d30a99a	0.043130495
244	0x3de4d65a	0.11173697
245	0xbd80c6c5	-0.06287912
246	0xbd17656d	-0.03696196
247	0x3d0401d8	0.03222832
248	0x3d68ecb8	0.056866378
249	0x3ddd25d7	0.10798233
250	0xbcf7234f	-0.030168204
251	0xbc5f599c	-0.013632204
252	0xbe03209c	-0.12805408
253	0x3cdb3cb4	0.026762344
254	0xbc70459b	-0.014665033
255	0x3de90e05	0.11379627

model.2.block.2.weight_u f4 [128]
0	0xbe07c959	-0.13260402
1	0x3de5c8ba	0.11219926
2	0xbd50507d	-0.05085801
3	0x3beebd33	0.007285738
4	0x3d07ca0c	0.03315167
5	0x3d3d6be0	0.046245456
6	0x3db4aad7	0.088216476
7	0x3d028a63	0.031870257
8	0x3d183ef5	0.037169416
9	0x3cad16e7	0.021129085
10	0x3e18f8d1	0.14938666
11	0x3aad17d9	0.001320596
12	0x3de98904	0.11403087
13	0x3d225c68	0.039638907
14	0x3ceed67d	0.02915501
15	0x3d634ce9	0.05549327
16	0x3d65bca1	0.056088094
17	0x3d543e5e	0.05181729
18	0x3d0a8880	0.033821583
19	0x3cf3c95b	0.0297591
20	0x3d4d6e52	0.050154038
21	0x3e072474	0.131975
22	0xbdd073d1	-0.1017834
23	0xbc12bcfd	-0.008956191
24	0xbcc49254	-0.023995556
25	0xbd6c6b9a	-0.057719804
26	0x3c00e94a	0.00786812
27	0x3dc765a5	0.09736184
28	0x3c520f2b	0.012820999
29	0xbdc5f53b	-0.096659146
30	0x3c53d7fc	0.012929913
31	0xbea351fb	-0.31898484
32	0xbe239743	-0.1597567
33	0x39784670	0.00023677363
34	0xbbb4bb43	-0.0055154874
35	0xbd3201d6	-0.043458782
36	0x3c788afe	0.015169857
37	0x3d313f34	0.043273166
38	0x3c00ca0d	0.007860673
39	0x3cd65c7d	0.026167149
40	0x3da890ca	0.08230741
41	0x3c5e0853	0.013551789
42	0x3ca4aca7	0.020101858
43	0x3dc5d929	0.09660561
44	0x3d6d8607	0.057989147
45	0xbc5ce1d7	-0.013481579
46	0x3ec4fa58	0.38472247
47	0x3b364c12	0.0027816338
48	0x3d64ed32	0.05589027
49	0xbe093055	-0.13397343
50	0x3c7167c4	0.014734212
51	0x3e00de61	0.12584831
52	0xbc93df66	-0.01805086
53	0x3d6a0c76	0.05714079
54	0x3d3fdc61	0.04684103
55	0x3cc1accc	0.023641966
56	0x3ad6364b	0.0016343085
57	0x3e042ef9	0.12908544
58	0x3c8fc33d	0.017549152
59	0x3d7374be	0.059437506
60	0x3d7e852c	0.06213872
61	0xbe662aa0	-0.22477198
62	0xbe33c8e1	-0.17557098
63	0x3d5680bb	0.05236886
64	0x3dc67814	0.09690872
65	0x3d868200	0.06567764
66	0x3d881b70	0.06645858
67	0xbe0167fe	-0.12637326
68	0x3d823b3c	0.06358954
69	0x3d901f79	0.07037253
70	0xbe62ee67	-0.22161256
71	0x3cded501	0.027201178
72	0x3d7f531f	0.06233513
73	0x3c957245	0.018242965
74	0x3dae710d	0.085176565
75	0xbce1c868	-0.027561381
76	0x3e1a5b7a	0.15073958
77	0x3be8b1f3	0.0071012913
78	0x3e11ee14	0.14250976
79	0xbd182b59	-0.037150715
80	0x3c51c435	0.012803127
81	0x3cf84d25	0.030310223
82	0x3db113f4	0.08646384
83	0x3d187f96	0.03723105
84	0xbbfb117c	-0.0076619964
85	0x3c77bae5	0.015120243
86	0x3ce01228	0.027352408
87	0x3bee506b	0.00727277
88	0x3d9f5d93	0.0778152
89	0x3d3475a7	0.044057515
90	0x3df723e5	0.12067393
91	0x3d0dbac9	0.03460196
92	0x3d57085d	0.05249821
93	0x3da82893	0.08210864
94	0xbe0d1de2	-0.1378093
95	0x3e197953	0.14987688
96	0x3d949a53	0.072559975
97	0x3bc749a4	0.0060817767
98	0x3cf9b249	0.03048052
99	0x3e349a2a	0.17636934
100	0xbd2aa6b3	-0.041662883
101	0x3d1e140e	0.038593344
102	0x3d57184c	0.052513406
103	0x3ce111e4	0.027474351
104	0xbb22ce0e	-0.0024842056
105	0xbc0250ce	-0.007953836
106	0x3ccfa4a5	0.025347063
107	0xbd951514	-0.07279411
108	0x3d95e6a4	0.07319382
109	0xbd001cf6	-0.03127762
110	0x3d7ce8ba	0.061745383
111	0x3c49fb5a	0.012327993
112	0xbd39b7d6	-0.045341335
113	0x3e0879bd	0.1332769
114	0x39fa9518	0.000477948
115	0x3dddbc5f	0.108269446
116	0x3b8496ac	0.004046282
117	0x3d2370bc	0.039902434
118	0xbcef57dd	-0.029216701
119	0xbe761722	-0.24032262
120	0x3ce4d086	0.027931463
121	0xbbc16701	-0.0059021716
122	0x3c299f85	0.010352974
123	0xbb5e7c69	-0.0033948666
124	0xbb286118	-0.0025692638
125	0x3dc3d84c	0.0956274
126	0x3d093a3d	0.033502806
127	0x3c610359	0.013733708

model.2.block.2.weight_v f4 [128]
0	0x3cbf44ab	0.023348173
1	0x3d0a4830	0.03376025
2	0x37dbbd04	2.6194852e-05
3	0xbdfa4d67	-0.122217946
4	0x3d6ffc01	0.05858994
5	0x3e73cdba	0.23808947
6	0xbcadd11e	-0.021217879
7	0xbe26a211	-0.16272761
8	0x3d2253dd	0.03963076
9	0xbc453e9a	-0.012038851
10	0xbdc0b6d3	-0.09409871
11	0x3d2130e9	0.039353285
12	0x3c2c7502	0.010525944
13	0xbe062316	-0.13099322
14	0x3d6e682f	0.058204826
15	0xbddc9010	-0.10769665
16	0x3b8a516a	0.004221131
17	0xbe133485	-0.14375503
18	0x3d0ca262	0.034334548
19	0xbe8f0ed9	-0.27941015
20	0xbe16fd8d	-0.1474516
21	0x3d098ba5	0.03358044
22	0x3aac5f43	0.0013150949
23	0x3af8cc18	0.0018981723
24	0x3c963b7d	0.018338913
25	0x3cc8366e	0.024440017
26	0xbb8acaa2	-0.0042355815
27	0x3e0f8f56	0.14019522
28	0xbb87d5f8	-0.00414538
29	0xbcfea91f	-0.031086503
30	0x3e13e33c	0.14442152
31	0x3db0e215	0.08636872
32	0xbc9ff9f9	-0.019528376
33	0xbd05e95d	-0.032693256
34	0x3c989336	0.018624883
35	0xbd86ffe8	-0.06591779
36	0xbcae8566	-0.021303844
37	0xbdd546e8	-0.10413915
38	0x3becc764	0.0072259177
39	0x3baf551e	0.005350723
40	0xbd445e18	-0.047941297
41	0x3d532e35	0.05155774
42	0x3adcecdc	0.0016855258
43	0xbc7533af	-0.014965936
44	0x3d8ce14b	0.06878909
45	0x3c291acc	0.01032133
46	0x3cefcece	0.029273417
47	0x3deda430	0.11603582
48	0xbda9e780	-0.08296108
49	0x3d7b8e47	0.061414983
50	0x3b045686	0.0020193174
51	0xbc5fd691	-0.013661996
52	0x3d2f2b15	0.042765696
53	0xbe6d6fdc	-0.23187202
54	0x3dfbc482	0.1229334
55	0xbdc7be60	-0.09753108
56	0x3c085fe7	0.008323646
57	0x3ce10c98	0.027471825
58	0x3d8a1023	0.06741359
59	0xbcbd6d69	-0.02312346
60	0xbd578156	-0.05261358
61	0x3dfadd48	0.12249237
62	0xbc93d0b8	-0.01804386
63	0x3c0553ff	0.008137702
64	0x3bf20274	0.0073855463
65	0x3d8e9dae	0.06963669
66	0xbe15da41	-0.14634039
67	0xbd6d5e37	-0.05795118
68	0x3b180db3	0.0023201525
69	0x3d01e2c1	0.03171039
70	0xbe796266	-0.24353942
71	0x3c22f8e9	0.00994704
72	0xbe238eee	-0.15972492
73	0xbd605202	-0.05476571
74	0xb9f62762	-0.0004695012
75	0xbb5355d1	-0.0032247195
76	0x3d71a98e	0.05899959
77	0x3bffaab2	0.007802331
78	0x3d8d2df9	0.06893534
79	0x3cc812ca	0.024423022
80	0x3ba20d19	0.004945409
81	0x3d844c27	0.064598374
82	0x3d7dbf28	0.06194988
83	0x3cabcb25	0.02097089
84	0xbd6a1b2d	-0.057154823
85	0xbddb937d	-0.107214905
86	0xbca12755	-0.019672075
87	0x3d248b99	0.040172193
88	0x3e16f3d3	0.14741449
89	0x3e17fb6f	0.14842008
90	0xbc0663b2	-0.00820248
91	0xbdd95ad7	-0.106130295
92	0x3c1c2f9e	0.009532837
93	0xbdde7933	-0.10862961
94	0x3c461e4e	0.012092186
95	0x3bb60002	0.0055542
96	0xbc635663	-0.013875577
97	0x3c02dc74	0.00798713
98	0x3d88ec74	0.06685725
99	0xbcef34bd	-0.029199952
100	0x3e10fe53	0.14159517
101	0x3c9e7d7d	0.019346947
102	0xbc9a0eb6	-0.018805843
103	0xbaf26fe6	-0.0018496483
104	0x3d9a4a0f	0.07533657
105	0xb9ac5a8f	-0.00032873868
106	0x3d98fb3c	0.07469794
107	0xbca8a0a3	-0.02058441
108	0x3d97c513	0.07410636
109	0x38cfcaaa	9.908278e-05
110	0xbd6535fb	-0.055959683
111	0xbe0f0692	-0.1396735
112	0xbdabb5b5	-0.08384267
113	0xbcc0a943	-0.02351821
114	0x3e13d753	0.14437608
115	0x3d019ecd	0.031645585
116	0xbc7f8cd4	-0.015597541
117	0xbea2aa47	-0.31770536
118	0xbd8a8406	-0.06763463
119	0x3d2e9d1b	0.042630296
120	0xbe83d330	-0.2574706
121	0x3d8f5f6d	0.07000623
122	0xbde3c510	-0.11121571
123	0x3db36b85	0.08760742
124	0x3ca8b968	0.020596221
125	0xbda61855	-0.0811011
126	0x3c2792f4	0.010227907
127	0xbcead807	-0.028667463

model.4.block.0.bias f4 [128]
0	0xc0494a2c	-3.145152
1	0x405a9a26	3.4156585
2	0xc0078fa3	-2.118142
3	0x405bf362	3.43673
4	0xbfec75ab	-1.847341
5	0xc001b5e0	-2.0267258
6	0x40531740	3.298294
7	0xc0309065	-2.7588131
8	0xc045e65b	-3.0921848
9	0x4043903c	3.0556784
10	0xc01c2ef6	-2.4403663
11	0x4028c626	2.637094
12	0x405d6a17	3.4596002
13	0x402898d9	2.634329
14	0x4026886b	2.6020763
15	0x4062a651	3.5414011
16	0xc0511311	-3.2667887
17	0x404fddfe	3.2479243
18	0x40661c82	3.59549
19	0x3f5ea3bd	0.86968595
20	0x4052f37b	3.2961109
21	0x404bff5b	3.1874607
22	0x4039bd2c	2.9021711
23	0xbfe52a3f	-1.7903517
24	0xc03357b5	-2.8022282
25	0x4056ba1e	3.3551097
26	0xc046d99e	-3.1070323
27	0x40427559	3.0384123
28	0x40615f2d	3.521434
29	0x4039df61	2.904259
30	0xc048168f	-3.1263769
31	0x4040691a	3.006415
32	0xc004ee46	-2.077043
33	0x4053766f	3.3041036
34	0xc03c2931	-2.9400141
35	0x404a7a75	3.1637242
36	0x401aa9ed	2.4166214
37	0xc02fd286	-2.7472243
38	0x40395adf	2.8961713
39	0x4049cb85	3.1530468
40	0x405d5bd8	3.4587307
41	0xc055c0ad	-3.339885
42	0xc0360f88	-2.844698
43	0x4036e41b	2.8576725
44	0x405ddfc6	3.466783
45	0x404fcfa0	3.2470474
46	0x3fdd000f	1.7265643
47	0x4052e4ff	3.2952268
48	0xc01776cd	-2.366626
49	0xc02e5bf1	-2.7243617
50	0xc0267232	-2.60072
51	0xc02b6391	-2.677952
52	0xc007dddb	-2.122916
53	0x3fe89901	1.8171693
54	0x4036a67d	2.8539116
55	0x4059250c	3.3928862
56	0xc03d3341	-2.9562533
57	0xc01d28b5	-2.4556096
58	0x402cbe82	2.6991277
59	0xc01b5eb9	-2.4276564
60	0x403104dc	2.7659216
61	0xc03686b8	-2.8519726
62	0x403d79ef	2.9605672
63	0x40532fc2	3.29979
64	0x404d50fa	3.2080674
65	0xc03eecc0	-2.9832
66	0xc03d66a6	-2.9593902
67	0xc01c210d	-2.4395173
68	0xc018df41	-2.3886263
69	0x404c0380	3.1877136
70	0x40501934	3.2515383
71	0xc04c0d0f	-3.188297
72	0x40525b3a	3.286818
73	0x4039e991	2.9048808
74	0x404f0025	3.2343838
75	0xc0124f41	-2.2860873
76	0x405286f4	3.289487
77	0xc0581b53	-3.3766677
78	0xc0281e1e	-2.6268382
79	0xc021e3f1	-2.5295374
80	0xc03978af	-2.897991
81	0x4058cacc	3.3873777
82	0x404f83b3	3.2424133
83	0x40442504	3.0647593
84	0x40470f31	3.1103022
85	0x40679b26	3.6188445
86	0x3f8360ff	1.0263976
87	0x40581412	3.376225
88	0x40327015	2.788091
89	0x3f865755	1.0495402
90	0x40253cb5	2.5818303
91	0x403494d3	2.8215835
92	0xc023bb3f	-2.5583036
93	0xc00a367a	-2.159575
94	0x3f6712e7	0.9026322
95	0x404db9f8	3.2144756
96	0x403fc030	2.9961052
97	0xc03392b5	-2.8058293
98	0x401d4722	2.4574666
99	0xc01421ab	-2.314555
100	0xbff74766	-1.9318664
101	0xc040b336	-3.0109382
102	0xc0094e11	-2.1453898
103	0x4030a994	2.7603502
104	0x404f6bdb	3.240958
105	0xc04393bf	-3.0558927
106	0xc0170e78	-2.360258
107	0xc0237322	-2.5539021
108	0x401cff49	2.4530814
109	0xc032605e	-2.7871318
110	0xc03ea955	-2.9790852
111	0xc030312a	-2.7530007
112	0xc041410b	-3.019595
113	0x40351566	2.829431
114	0x403a3b8f	2.9098852
115	0xc03df5eb	-2.9681346
116	0xc0390afc	-2.8912954
117	0xbfa72455	-1.3057963
118	0xc0096c9d	-2.1472542
119	0x3f8363a4	1.0264783
120	0x404167a3	3.0219505
121	0x403deecc	2.9677
122	0x4051e364	3.2795038
123	0xc008f318	-2.1398373
124	0xbf66c454	-0.9014332
125	0x40511cc0	3.2673798
126	0xc00f9a32	-2.2437863
127	0x402664f8	2.5999126
