wgan_results/mgum/clr/generator.pth (torch_old, 548867 bytes, 19 tensors)

weight f4 [256, 3]
-0.49731162 0.49836573 -0.45948046 -0.3073228 -0.46099356 0.49685585 -0.18459828 0.29529163
-0.14179784 0.2545403 0.47769195 0.34914905 0.522321 -0.61429644 0.19262844 0.20520967
-0.41160682 0.033945363 0.39266017 0.40979132 0.37153316 -0.4222969 -0.072906315 -0.6033698
0.3423878 0.20170002 0.044370163 0.1976131 -0.20411064 -0.39423633 0.040094044 -0.353029
0.585408 0.07675391 -0.06764587 -0.46452639 -0.24531035 -0.5228098 -0.4450901 -0.23856866
0.29243845 0.51111555 -0.1173592 -0.12526138 -0.5563104 -0.50015014 0.1750064 -0.51433414
-0.4165498 0.38376477 -0.2893639 0.28962642 0.33802924 0.17257033 0.32501134 -0.27824274
-0.4912327 -0.30758697 -0.13615102 -0.28174534 -0.31001124 0.18830685 0.39394572 0.11374809
-0.23458242 -0.31034395 0.350657 -0.23090774 0.16908595 -0.30371663 0.059556082 -0.27510753
-0.4645155 0.50517976 -0.4098598 -0.47172463 0.021621475 0.3927711 -0.54158294 0.16229728
-0.5087417 -0.39392492 -0.35343623 -0.3826878 0.2529731 0.14964211 0.033524424 0.4240781
-0.39896068 -0.2092779 0.43750367 0.39914182 0.32541153 -0.42357767 0.24379434 -0.5922693
-0.24943914 0.1625882 0.28315222 0.15503989 0.43281162 -0.38018492 0.2589162 -0.27318138
-0.10588771 0.47868466 0.44173366 -0.19910394 -0.117803834 -0.005091937 -0.46687254 0.06463639
-0.14622967 0.17013836 0.44409436 -0.2769357 -0.44606382 0.49996734 -0.14606194 -0.4410116
-0.45858204 -0.29878044 -0.44105375 -0.5066615 0.08222996 0.03405506 0.24054664 -0.37126228
-0.2674956 0.15024276 0.46817192 0.18379588 -0.4119236 0.44541118 0.121518865 -0.16279776
0.48333585 -0.3619736 -0.22105713 0.21529791 -0.117139585 -0.09446767 0.054092202 -0.22084787
-0.022031968 0.4244205 -0.0051470725 0.34265637 -0.4948947 0.27907327 -0.54277074 -0.40112686
0.07326863 -0.3435448 0.177314 0.40045995 -0.16803882 -0.043461036 0.32241052 0.050771542
-0.47639465 0.19583954 0.3026673 0.19858876 0.12783998 -0.37729624 0.041863047 0.3635324
-0.32354817 0.20095944 0.29874644 0.36017808 0.18003339 0.32952493 0.48732868 0.46642974
-0.49970156 0.5049298 0.04471997 -0.26761797 -0.24243869 -0.3890895 -0.00085139176 0.18171416
-0.0017329864 0.4932111 0.3311136 -0.373243 -0.5541149 0.056078743 -0.27352604 0.14090466
0.5043136 0.34247318 -0.38750052 0.19523963 0.30419222 0.20958318 0.19364548 -0.15192756
-0.2721061 -0.26512164 -0.5813339 0.0888365 0.3236957 0.55356765 -0.56493276 0.16072293
-0.08219807 -0.108630136 0.15582323 0.12729603 0.0036912072 -0.18518451 0.3276271 0.3815537
-0.29543364 -0.3833641 -0.17793137 -0.30040893 0.17535289 0.35042542 0.58205897 0.46303236
-0.44354466 0.3924228 -0.31635156 -0.3051095 -0.135385 0.42822412 -0.5092043 0.43982467
-0.16633888 -0.18647875 -0.44477034 0.5845251 -0.21088894 -0.44168502 -0.2968661 -0.5745363
-0.21586607 0.3396591 -0.2435829 0.47510865 -0.2156001 -0.5601711 0.013940799 -0.21338862
0.3678262 0.21413535 0.4902431 -0.517251 0.1980355 -0.41374093 -0.48041686 -0.3397537
00000000: a19f febe cb29 ff3e 0641 ebbe 6a59 9dbe
00000010: 5907 ecbe e463 fe3e 5507 3dbe 7730 973e
00000020: 7433 11be 1b53 823e 0a94 f43e aac3 b23e
00000030: d4b6 053f 8842 1dbf 6440 453e 7c22 523e
00000040: 21be d2be 4b0a 0b3d c10a c93e 2bd0 d13e
00000050: 9839 be3e 4d37 d8be e84f 95bd 7176 1abf
00000060: 744d af3e 738a 4e3e 7dbd 353d 175b 4a3e
00000070: 6102 51be 58d9 c9be a739 243d 38c0 b4be
00000080: 4cdd 153f 2731 9d3d eb89 8abd 67d6 edbe
00000090: a332 7bbe ddd6 05bf d9e2 e3be 584b 74be
000000a0: 7eba 953e 78d8 023f 055a f0bd 8544 00be
000000b0: 5c6a 0ebf d709 00bf e134 333e 67ab 03bf
000000c0: 0446 d5be d17c c43e 8127 94be ea49 943e
000000d0: 2b12 ad3e 47b6 303e e367 a63e d575 8ebe
000000e0: da82 fbbe 0a7c 9dbe 2c6b 0bbe ed40 90be
000000f0: cbb9 9ebe 83d3 403e 41b3 c93e c2f4 e83d
00000100: 6036 70be 67e5 9ebe 5089 b33e 1473 6cbe
00000110: de24 2d3e bf80 9bbe 14f1 733d e5da 8cbe
00000120: fad4 edbe 7653 013f 25d9 d1be e485 f1be
00000130: 851f b13c 4b19 c93e 2ea5 0abf 4231 263e
00000140: e53c 02bf 87b0 c9be 98f5 b4be a8ef c3be
00000150: b185 813e c83b 193e e850 093d c420 d93e
00000160: 9344 ccbe f24c 56be 7b00 e03e 515c cc3e
00000170: 579c a63e 2cdf d8be 39a5 793e f69e 17bf
00000180: f96c 7fbe 857d 263e 54f9 903e c7c2 1e3e
00000190: 7c99 dd3e 99a7 c2be aa90 843e 6ede 8bbe
000001a0: a8db d8bd 2816 f53e ea2a e23e e7e1 4bbe
000001b0: 2343 f1bd 43da a6bb eb09 efbe 1560 843d
000001c0: 3bbd 15be c038 2e3e 5660 e33e 84ca 8dbe
000001d0: 7a62 e4be b8fb ff3e 4391 15be 46cc e1be
000001e0: 44cb eabe c0f9 98be ccd1 e1be 91b4 01bf
000001f0: 2e68 a83d 527d 0b3d dc51 763e 1716 bebe
00000200: 2ff5 88be 3dd9 193e 3bb4 ef3e fd34 3c3e
00000210: a6e7 d2be ef0c e43e e2de f83d 75b4 26be
00000220: cc77 f73e 9b54 b9be cd5c 62be 0e77 5c3e
00000230: e1e6 efbd 4478 c1bd c98f 5d3d f225 62be
00000240: 637c b4bc a54d d93e c6a8 a8bb a870 af3e
00000250: d762 fdbe b1e2 8e3e 06f3 0abf 8060 cdbe
00000260: dd0d 963d 1be5 afbe cd91 353e 1609 cd3e
00000270: 5e12 2cbe 3304 32bd fe12 a53e d2f5 4f3d
00000280: 00ea f3be 298a 483e 35f7 9a3e da5a 4b3e
00000290: 7ce8 023e f92c c1be 9678 2b3d eb20 ba3e
000002a0: 1ba8 a5be 50c8 4d3e 4bf5 983e 4369 b83e
000002b0: ac5a 383e 7eb7 a83e 2583 f93e e1cf ee3e
000002c0: e2d8 ffbe 1443 013f 4a2c 373d 3905 89be
000002d0: d941 78be bd36 c7be ef2f 5fba 4713 3a3e
000002e0: 6025 e3ba 2a86 fc3e b987 a93e b519 bfbe
000002f0: 79da 0dbf d3b2 653d 9b0b 8cbe 5049 103e
00000300: b21a 013f a558 af3e 7866 c6be e6ec 473e
00000310: 15bf 9b3e f99c 563e 004b 463e e692 1bbe
00000320: 7e51 8bbe 06be 87be 4cd2 14bf e9ef b53d
00000330: 71bb a53e 9cb6 0d3f 6f9f 10bf 8d94 243e
00000340: 7657 a8bd 7a79 debd 2090 1f3e e459 023e
00000350: 2ee8 713b 02a1 3dbe bdbe a73e 025b c33e
00000360: 1443 97be 4d48 c4be a433 36be 33cf 99be
00000370: b58f 333e f66a b33e d101 153f 9412 ed3e
00000380: 4918 e3be a4eb c83e d5f8 a1be 5037 9cbe
00000390: 5ea2 0abe 3140 db3e 375b 02bf b330 e13e
000003a0: bd54 2abe 49f4 3ebe f0b8 e3be 70a3 153f
000003b0: 45f3 57be 8a24 e2be d5fe 97be d014 13bf
000003c0: ff0b 5dbe cce7 ad3e cc6d 79be 7141 f33e
000003d0: 46c6 5cbe 6067 0fbf f367 643c 8c82 5abe
000003e0: b753 bc3e 4c46 5b3e 2501 fb3e 906a 04bf
000003f0: d1c9 4a3e dad5 d3be 33f9 f5be 32f4 adbe

bias f4 [256]
2.1623523e-06 -8.933784e-06 -2.8601223e-06 2.021809e-06 4.9751156e-06 4.805554e-07 -5.311165e-06 8.4396896e-07
-1.241212e-05 3.1551146e-05 8.407438e-06 -2.5967847e-06 1.3664638e-06 -3.5644118e-06 6.2281406e-06 6.764094e-07
-6.0914385e-06 -9.257238e-06 1.642532e-05 -7.777499e-06 -1.8734494e-05 -1.3669028e-07 -4.1643293e-06 -1.0150352e-05
-2.5588329e-06 -2.5123518e-06 -8.447597e-06 2.1289013e-06 2.3489396e-05 5.6644794e-06 1.4503808e-06 6.8604595e-07
-5.140679e-05 -1.8288615e-06 -2.1616943e-06 1.4651016e-05 -4.342758e-06 -2.713668e-05 -5.8802543e-06 1.6864602e-05
-9.536759e-06 4.6902687e-06 3.057175e-07 -3.2029095e-06 -4.648515e-06 7.749172e-06 2.1604504e-07 2.4282697e-06
3.137188e-05 7.1859704e-06 -3.6604547e-06 8.846598e-06 -1.2797071e-06 -2.0257696e-06 -1.1575783e-05 -5.526178e-06
7.609212e-07 1.086459e-05 2.7657343e-06 3.7204702e-06 -6.5265153e-06 -1.1413329e-06 -1.743369e-05 -1.6540487e-05
2.6163647e-07 4.1990953e-07 2.8838393e-05 1.4440858e-06 -2.573672e-06 -1.7618533e-05 1.0056087e-05 2.8187637e-06
-7.111797e-07 -2.6626241e-05 4.1348827e-07 2.58878e-06 -3.950741e-06 1.8774949e-06 1.0098768e-05 1.0938209e-06
-4.052898e-06 -4.2685874e-06 8.513233e-06 -7.4189563e-07 -1.964273e-06 3.1744487e-06 -1.2704775e-06 5.230753e-06
-3.0205226e-06 3.3712145e-06 -8.092637e-06 1.836257e-06 -1.3959394e-05 -3.6253882e-06 -1.8538273e-06 -2.6916176e-05
-2.366978e-06 -1.4844237e-05 1.1621737e-07 -6.315869e-06 -3.789634e-05 -2.2232307e-06 -9.561694e-07 -1.5424603e-05
-7.272569e-06 2.8482095e-06 -5.0992674e-07 1.16384e-05 1.2444536e-05 1.0313037e-05 1.0930312e-05 1.2371112e-06
4.3424478e-07 3.7822933e-06 -4.8385036e-06 3.508628e-06 -6.6672837e-06 2.2507634e-06 -8.207209e-07 5.1077036e-06
-3.0178019e-06 -1.6903817e-06 -3.1111215e-06 3.4163872e-06 4.458895e-07 1.4699447e-05 7.217603e-06 -5.274722e-06
-9.952866e-06 -2.7184642e-06 3.813431e-06 -9.934539e-07 -6.356027e-07 -1.0678567e-07 -8.9350515e-06 -2.2840936e-06
1.4222685e-06 4.7638994e-07 1.6953015e-06 -4.1674411e-07 1.3561613e-06 -6.7177225e-06 7.605731e-07 -7.189191e-06
-9.60012e-06 -7.497933e-05 6.101611e-06 -1.0517634e-07 2.2591512e-05 1.3589689e-05 6.718703e-06 6.7644805e-06
1.0080781e-05 1.7945678e-05 1.5605134e-06 1.0432261e-07 -7.755685e-06 1.1013886e-05 4.962037e-06 2.7183744e-06
-6.3782754e-06 1.1907642e-06 6.40783e-06 -6.411083e-06 1.528142e-06 -1.5834864e-06 -9.346622e-06 6.04792e-06
7.875005e-06 2.3908806e-05 3.2897e-06 -3.948284e-06 -6.7785963e-06 -8.744315e-06 2.7646722e-06 1.4324493e-05
2.8680658e-06 -2.067432e-05 -2.5245973e-07 -6.9651105e-07 2.231619e-07 -4.4010276e-06 4.1821277e-06 1.7332839e-06
2.8993506e-06 -8.2748437e-07 -4.8880306e-06 -2.3108944e-06 -7.461177e-06 3.132781e-05 -4.1008734e-06 2.6156256e-06
0.00012188091 -4.89999e-05 1.3027088e-06 -3.8610424e-06 -7.2502587e-07 7.431446e-06 -5.816773e-07 -4.2572897e-06
-7.628937e-05 -2.9381365e-06 1.7964002e-06 1.5516594e-05 -1.916249e-06 -3.1651978e-06 4.449897e-06 6.2590066e-06
-7.2789436e-07 1.6230213e-06 -7.216731e-07 1.7598117e-06 -2.4117423e-06 4.7399694e-06 1.0043173e-06 8.0941745e-06
-3.4924203e-06 7.4644668e-06 -1.9720687e-07 -1.0904449e-05 2.5943832e-06 3.3175074e-05 2.204214e-06 3.181948e-05
-8.808922e-06 4.9626e-07 2.5430543e-06 2.850793e-06 1.2616776e-05 9.257591e-06 6.47491e-06 1.1064257e-06
7.99099e-06 9.3554877e-07 -3.6611946e-06 4.8017037e-06 4.390551e-07 -3.1692277e-06 1.0326847e-05 1.2706474e-06
9.4494305e-07 -3.2112068e-06 -4.210217e-07 3.650552e-06 -8.65527e-06 6.511224e-06 7.67553e-06 -2.9064179e-06
8.949093e-07 -8.958826e-06 -8.2590566e-07 -5.625397e-07 6.3883376e-06 2.2416652e-06 -1.2683535e-05 -4.315799e-06
00000000: ee1c 1136 4fe2 15b7 87f0 3fb6 6aae 0736
00000010: ebef a636 84ff 0035 8f36 b2b6 1b8d 6235
00000020: a63d 50b7 c955 0438 ac0d 0d37 6c44 2eb6
00000030: 5767 b735 2134 6fb6 52fb d036 8092 3535
00000040: 0f65 ccb6 894f 1bb7 1bc9 8937 1b7c 02b7
00000050: 0528 9db7 23c5 12b4 51bb 8bb6 6e4b 2ab7
00000060: 6ab8 2bb6 e099 28b6 27ba 0db7 3fde 0e36
00000070: 180b c537 8211 be36 b4aa c235 b828 3835
00000080: 9f9d 57b8 3477 f5b5 a011 11b6 a2cd 7537
00000090: 02b8 91b6 94a3 e3b7 004f c5b6 7578 8d37
000000a0: 1100 20b7 1a61 9d36 7e21 a434 91f1 56b6
000000b0: 71fa 9bb6 7102 0237 02fa 6734 5bf5 2236
000000c0: 4d95 0338 041f f136 22a6 75b6 d96b 1437
000000d0: 67c2 abb5 75f2 07b6 9c35 42b7 826d b9b6
000000e0: 1b42 4c35 0f47 3637 f49a 3936 31ad 7936
000000f0: 57fe dab6 e62f 99b5 903e 92b7 6dc0 8ab7
00000100: 0b77 8c34 ed6f e134 fae9 f137 69d2 c135
00000110: 59b7 2cb6 83cb 93b7 91b6 2837 fe29 3d36
00000120: e6e7 3eb5 6b5b dfb7 65fd dd34 e7ba 2d36
00000130: 9b90 84b6 3cfe fb35 e16d 2937 66cf 9235
00000140: 21fe 87b6 e33a 8fb6 0fd4 0e37 ae26 47b5
00000150: f4d1 03b6 9d08 5536 4685 aab5 d383 af36
00000160: 2fb4 4ab6 063d 6236 9cc5 07b7 4f75 f635
00000170: 2433 6ab7 b24b 73b6 05d1 f8b5 0cca e1b7
00000180: 5fd8 1eb6 830b 79b7 2d93 f933 e7ec d3b6
00000190: e3f2 1eb8 d032 15b6 bb55 80b5 1564 81b7
000001a0: e406 f4b6 de23 3f36 e6e1 08b5 8c42 4337
000001b0: e0c8 5037 2806 2d37 5561 3737 d10a a635
000001c0: 2622 e934 4ed3 7d36 6e5a a2b6 c575 6b36
000001d0: 88b7 dfb6 d20b 1736 834f 5cb5 d762 ab36
000001e0: 7185 4ab6 13e1 e2b5 a9c8 50b6 1645 6536
000001f0: 9662 ef34 a59d 7637 bd2e f236 84fd b0b6
00000200: 3cfb 26b7 dc6e 36b6 3fea 7f36 d156 85b5
00000210: 499e 2ab5 0b52 e5b3 c1e7 15b7 6e48 19b6
00000220: c6e4 be35 89c2 ff34 1e8a e335 e0bc dfb4
00000230: 5905 b635 cc68 e1b6 2f2a 4c35 ae3a f1b6
00000240: 3410 21b7 393e 9db8 70bc cc36 4edd e1b3
00000250: e782 bd37 45ff 6337 3871 e136 72fa e236
00000260: a020 2937 0d8a 9637 d572 d135 f607 e033
00000270: 6a1e 02b7 48c8 3837 937f a636 516d 3636
00000280: f804 d6b6 59d2 9f35 d702 d736 c91e d7b6
00000290: 8f1a cd35 2e88 d4b5 70cf 1cb7 3def ca36
000002a0: e41e 0437 c58f c837 9ec4 5c36 807b 84b6
000002b0: b373 e3b6 8cb4 12b7 b588 3936 3b53 7037
000002c0: ff78 4036 c46d adb7 cd89 87b4 e0f7 3ab5
000002d0: 479e 6f34 8aac 93b6 3454 8c36 2ea3 e835
000002e0: 7792 4236 4b20 5eb5 dd03 a4b6 dd14 1bb6
000002f0: 065b fab6 fb65 0338 3c9a 89b6 1b88 2f36
00000300: 519a ff38 3e85 4db8 bcd8 ae35 1a8e 81b6
00000310: 669f 42b5 a35b f936 8f24 1cb5 d7d9 8eb6
00000320: 8bfd 9fb8 cd2c 45b6 d71b f135 a229 8237
00000330: e898 00b6 af69 54b6 5350 9536 7504 d236
00000340: 8564 43b5 96d6 d935 ffb8 41b5 ab32 ec35
00000350: 6bd9 21b6 070c 9f36 14cc 8635 37cc 0737
00000360: 535f 6ab6 4877 fa36 d0bf 53b4 40f2 36b7
00000370: 2a1b 2e36 7725 0b38 1cec 1336 e875 0538
00000380: 08ca 13b7 ba36 0535 57a9 2a36 4050 3f36
00000390: a4ac 5337 0d51 1b37 0e43 d936 7f80 9435
000003a0: 0a11 0637 6c22 7b35 d8b2 75b6 521e a136
000003b0: 46b7 eb34 ebae 54b6 7841 2d37 1d8b aa35
000003c0: fea7 7d35 1d80 57b6 c808 e2b4 01fc 7436
000003d0: 1a36 11b7 fd7a da36 26c6 0037 e10b 43b6
000003e0: b339 7035 dd4d 16b7 ceb3 5db5 6f01 17b5
000003f0: 675b d636 846f 1636 5ecb 54b7 6ed0 90b6

weight f4 [256]
1.0057616 0.9614965 0.94094574 1.015953 1.0059775 1.0029643 0.9909505 0.95682466
0.99548805 1.0481138 1.0107664 1.0150963 0.980005 0.9684147 1.0103865 0.9882902
0.9564077 0.9795458 1.0023277 0.98385286 1.0364634 0.98297477 0.97678214 0.958537
0.9405015 0.9874747 0.98847824 0.9312523 0.9962229 1.0384239 0.99071854 0.9414298
1.0267147 0.9182062 1.0321603 0.98020744 1.0015547 1.0383841 1.0153569 1.0001607
0.98903424 0.9241126 1.0028734 0.9790323 1.0125238 0.9776692 0.941345 0.98737204
0.99214417 0.9901376 0.97083986 0.98508626 0.9646466 1.044926 1.0134557 0.90727484
0.9779301 1.0046732 0.9330734 0.9584529 1.0221703 0.97919303 1.032363 1.0516925
0.98377377 1.0260553 1.0350794 1.0282344 0.97561276 0.92142767 0.9868874 0.9478872
0.9806186 1.0558201 0.99956775 0.99995154 0.9798501 0.97271574 0.98296076 0.9477733
0.96153045 1.0185615 1.0207537 0.9104039 1.0121691 0.93090534 0.9597619 0.96574354
0.97163856 0.98806715 1.040366 1.0003692 0.9614955 0.9890041 0.9698334 1.0093936
0.9866819 1.012339 0.964364 1.017632 1.0193766 1.0028285 0.9961879 1.0005116
1.0307925 0.96600604 0.96781576 0.99513155 1.0006452 0.97968346 0.988119 0.9090486
0.89531875 0.9577403 0.9911277 0.98472863 0.9714489 1.0383734 0.9668002 1.0413901
0.9808449 0.96567714 0.99723315 0.98555386 0.9995073 0.95810795 0.99397814 0.9850217
1.0274168 0.96351814 1.0038408 0.99970955 0.977578 0.8949192 1.0395712 0.9319072
1.0437466 0.9434092 0.96965986 0.9644871 0.98890513 1.013537 0.9647383 1.0118064
1.0240265 1.0251571 0.99392664 1.0020243 1.0569665 1.0301892 0.9514296 1.0612841
1.0109141 1.0357809 0.9272046 0.9357989 1.0137854 0.9689193 0.9895869 0.9675775
0.9472214 0.9387059 0.980509 0.97562534 0.9781213 0.93048495 1.0524204 0.97289306
0.9995558 1.0271227 1.0027592 1.018991 1.0209385 0.965769 0.9748769 1.049937
1.0234468 1.0185714 0.9403145 0.93015605 0.92594564 1.0022482 0.96688306 0.9814461
0.99879366 0.9937213 1.0169547 0.96088976 0.9817493 1.0353352 0.9683065 1.0104854
1.032819 1.0458984 0.93186957 0.9496407 0.9592908 1.0317385 0.9807714 0.96585816
1.0554862 0.92537534 0.96829265 1.015271 1.0071931 0.92919993 0.97018546 0.95448214
0.99305785 1.0158066 0.9605401 0.97718346 1.0141449 0.93740636 1.0495579 0.96878564
0.98215103 1.0181026 1.0519917 0.99355525 0.9946832 1.0208554 1.0745645 1.0089171
0.9617046 0.9992071 1.0057462 0.94117504 0.9805487 0.9573132 1.0346632 1.0065564
1.0436157 0.9562045 0.9877024 0.9479478 0.92507565 0.9700252 1.0771016 0.98395187
0.9483692 0.9788254 0.9092925 0.9815293 1.0186278 0.9904221 0.9845848 0.95600474
0.97331977 0.9812088 0.9719483 0.9752295 0.96760935 0.9622412 0.9846415 0.98786
00000000: ccbc 803f a224 763f d2e1 703f bf0a 823f
00000010: dfc3 803f 2261 803f efae 7d3f 76f2 743f
00000020: 4ed8 7e3f 9828 863f cb60 813f adee 813f
00000030: 9ce1 7a3f 07ea 773f 5854 813f 9600 7d3f
00000040: 23d7 743f 83c3 7a3f 464c 803f c8dd 7b3f
00000050: d5aa 843f 3ca4 7b3f 650e 7a3f ae62 753f
00000060: b5c4 703f 24cb 7c3f e90c 7d3f 8d66 6e3f
00000070: 7708 7f3f 13eb 843f bb9f 7d3f 8b01 713f
00000080: 636b 833f 900f 6b3f d41d 843f e0ee 7a3f
00000090: f232 803f c5e9 843f 37f7 813f 4405 803f
000000a0: 5931 7d3f a592 6c3f 285e 803f dca1 7a3f
000000b0: 619a 813f 8748 7a3f fcfb 703f 6ac4 7c3f
000000c0: 29fd 7d3f a879 7d3f f688 783f 9d2e 7c3f
000000d0: 14f3 763f 23c0 853f ebb8 813f 2a43 683f
000000e0: a159 7a3f 2299 803f e6dd 6e3f 2b5d 753f
000000f0: 7ad6 823f 65ac 7a3f 7924 843f dc9d 863f
00000100: 99d8 7b3f c855 833f 7b7d 843f 2f9d 833f
00000110: c2c1 793f afe2 6b3f a7a4 7c3f bca8 723f
00000120: d209 7b3f 1d25 873f ace3 7f3f d3fc 7f3f
00000130: 75d7 7a3f e603 793f 51a3 7b3f 45a1 723f
00000140: dc26 763f 3960 823f 0fa8 823f 3b10 693f
00000150: c28e 813f d04f 6e3f f5b2 753f f83a 773f
00000160: 4ebd 783f f8f1 7c3f b72a 853f 190c 803f
00000170: 9224 763f 5f2f 7d3f 0047 783f cf33 813f
00000180: 2f97 7c3f 5394 813f 8fe0 763f c441 823f
00000190: ef7a 823f af5c 803f 2c06 7f3f c410 803f
000001a0: 02f1 833f 2c4c 773f c6c2 773f f1c0 7e3f
000001b0: 2415 803f 89cc 7a3f 5ef5 7c3f 69b7 683f
000001c0: 9c33 653f 782e 753f 8cba 7d3f 2d17 7c3f
000001d0: e0b0 783f 6be9 843f 3880 773f 454c 853f
000001e0: a718 7b3f 9e36 773f ac4a 7f3f 424d 7c3f
000001f0: b6df 7f3f 9046 753f 5a75 7e3f 622a 7c3f
00000200: 6582 833f 20a9 763f db7d 803f f7ec 7f3f
00000210: 8d42 7a3f 6d19 653f ab10 853f 7891 6e3f
00000220: 7d99 853f 4483 713f a13b 783f a0e8 763f
00000230: e328 7d3f 95bb 813f 17f9 763f df82 813f
00000240: 4d13 833f 5938 833f fa71 7e3f 5542 803f
00000250: ae4a 873f 3ddd 833f e490 733f 28d8 873f
00000260: a265 813f 7894 843f 485d 6d3f 8490 6f3f
00000270: b8c3 813f 180b 783f 9155 7d3f 29b3 773f
00000280: 1a7d 723f 084f 703f a302 7b3f 95c2 793f
00000290: 2866 7a3f 4334 6e3f b6b5 863f 850f 793f
000002a0: e4e2 7f3f c278 833f 6a5a 803f 4c6e 823f
000002b0: 1dae 823f a33c 773f 8891 793f 5664 863f
000002c0: 4e00 833f 8c60 823f 73b8 703f b51e 6e3f
000002d0: c60a 6d3f ab49 803f a685 773f 0d40 7b3f
000002e0: f1b0 7f3f 8564 7e3f 922b 823f dffc 753f
000002f0: ec53 7b3f dd85 843f efe2 773f 9657 813f
00000300: 6a33 843f 00e0 853f 018f 6e3f a71b 733f
00000310: 1594 753f 0210 843f d613 7b3f 7b42 773f
00000320: 2c1a 873f 66e5 6c3f 07e2 773f 66f4 813f
00000330: b4eb 803f 0ce0 6d3f 135e 783f f158 743f
00000340: 0a39 7e3f f305 823f f5e5 753f b228 7a3f
00000350: 80cf 813f ddf9 6f3f ea57 863f 5602 783f
00000360: 406e 7b3f 3051 823f aaa7 863f a359 7e3f
00000370: 8fa3 7e3f 64ab 823f 548b 893f 3224 813f
00000380: 4632 763f 09cc 7f3f 4bbc 803f d9f0 703f
00000390: 3d05 7b3f 7a12 753f d86f 843f d7d6 803f
000003a0: 3395 853f d1c9 743f 11da 7c3f b5ac 723f
000003b0: c2d1 6c3f 9253 783f 77de 893f 45e4 7b3f
000003c0: 53c8 723f 4d94 7a3f 65c7 683f 8145 7b3f
000003d0: 6562 823f 4e8c 7d3f c00d 7c3f babc 743f
000003e0: 7c2b 793f 8030 7b3f 9bd1 783f a4a8 793f
000003f0: 3fb5 773f 7055 763f 7711 7c3f 65e4 7c3f

bias f4 [256]
-0.04822487 -0.084357664 0.0044550593 -0.15283576 0.043744054 -0.07181527 0.021766072 -0.058587193
-0.007658133 0.1586896 -0.08399914 -0.019821415 0.113741405 0.17955436 0.030749286 -0.041256916
0.0057166587 -0.0087693315 0.13612893 0.02712534 0.09592235 -0.044133805 0.046456132 0.014364352
0.014012925 0.085832514 -0.020404628 -0.08804688 -0.029813917 0.10075877 0.092293225 -9.839046e-05
0.10550424 -0.035599917 0.000799976 -0.06784911 -0.03367704 0.03400186 0.23051679 -0.017891744
-0.04220735 -0.0018632925 0.06052729 -0.059853435 -0.02195133 0.24758716 0.010159463 -0.030801414
0.18558271 -0.031544182 0.018778877 0.057782933 -0.017334014 0.13299954 0.03106904 -0.007997867
0.055764563 0.03559967 0.008130225 0.06616048 0.14421526 0.05469617 0.19417454 0.18709351
-0.06897029 -0.12952662 0.22965315 0.07183125 0.062966935 0.09013564 -0.18165891 0.08310934
-0.002396653 0.103614695 -0.07070786 0.13091424 0.024175487 -0.022530507 0.028140398 -0.01840568
-0.03162115 0.15011783 -0.0067865853 -0.10547867 0.15908208 0.018110843 0.0088717155 0.0065929494
0.022511847 -0.03561906 0.058195252 0.13585408 -0.004253319 0.047606822 -0.018941352 0.09873566
0.023083247 0.056256592 -0.043651342 -0.0069942176 -0.040564973 -0.12905489 0.038010474 0.003880186
0.0533806 0.10404876 0.018550389 0.017266111 0.15303323 -0.032732394 0.13676003 -0.05414897
-0.02066397 0.14150244 0.027955294 0.00603426 -0.051739156 0.12799312 -0.0041618487 0.16934934
0.051156383 0.08191377 -0.04376853 0.08581557 0.13087514 0.029330416 0.036992237 0.014225648
-0.068856135 -0.0019902203 0.21011151 -0.06337767 -0.058622442 -0.14309977 0.17399544 -0.009271065
-0.0015900859 -0.033915635 0.086202964 -0.09736928 0.12630737 -0.029850665 -0.03181994 0.13717164
0.020559257 0.079415895 -0.041491885 0.022626802 0.07863959 -0.07092317 -0.0019264303 0.009619372
0.12180387 0.10432318 -0.032451328 -0.008781506 -0.0043412503 0.13345855 -0.023972873 -0.14720541
-0.029974116 0.02028531 0.0051245946 -0.07269028 0.012453703 0.013954616 0.10411504 -0.07130388
-0.026858937 0.08572157 -0.03730516 -0.07177854 -0.11055721 -0.053105425 0.030269068 -0.122672066
-0.03468626 -0.0059676864 -0.008899356 -0.019525615 -0.04311527 -0.05125878 -0.045578867 0.046980195
0.14078718 -0.008589587 -0.0642225 0.06515534 0.0062602093 0.11090268 -0.0283691 0.024061989
0.21940082 0.1547692 0.061551183 -0.08873405 0.014897662 0.06532189 0.00093687704 -0.09370689
0.08999791 -0.10849468 -0.06780052 -0.051022146 0.09393666 -0.06105488 0.0822385 -0.12509796
-0.072587825 -0.032038193 -0.0437022 -0.036705226 0.00028676423 -0.04740058 -0.06583339 0.029949978
-0.016921924 0.038075946 0.10522944 0.16453043 0.035750758 0.07287761 0.12232554 -0.05703645
0.0057555647 -0.034597803 0.13409674 -0.04639069 0.21381721 -0.015885977 0.0728607 0.05586524
0.08974313 -0.06791054 0.07032477 0.0497084 -0.075473584 0.006926915 0.091833234 0.009336936
-0.0024738167 0.006951108 -0.07727724 0.042557597 0.107997306 0.2107434 0.10324072 0.068566635
-0.035301078 0.07454942 0.05076905 -0.007312131 0.060921952 -0.10562021 0.045422312 0.10479631
00000000: 7187 45bd b6c3 acbd bffb 913b fa80 1cbe
00000010: f72c 333d e213 93bd c34e b23c 20f9 6fbd
00000020: 13f1 fabb 877f 223e be07 acbd 8560 a2bc
00000030: 41f1 e83d 19dd 373e ede5 fb3c 03fd 28bd
00000040: cf52 bb3b 3ead 0fbc 6265 0b3e f635 de3c
00000050: f072 c43d a6c5 34bd c948 3e3d 7658 6b3c
00000060: 7896 653c f5c8 af3d 9b27 a7bc ec51 b4bd
00000070: 513c f4bc 9d5a ce3d 3b04 bd3d fa56 ceb8
00000080: 9b12 d83d 38d1 11bd 7bb5 513a 79f4 8abd
00000090: f0f0 09bd 8945 0b3d 980c 6c3e b591 92bc
000000a0: 9de1 2cbd b939 f4ba 77eb 773d e028 75bd
000000b0: 47d3 b3bc 7d87 7d3e e073 263c 3f53 fcbc
000000c0: 6509 3e3e 7934 01bd 29d6 993c ccad 6c3d
000000d0: 1000 8ebc 0831 083e 8084 fe3c 7c09 03bc
000000e0: 6269 643d f6d0 113d a334 053c 257f 873d
000000f0: 2aad 133e 1709 603d b1d5 463e 7195 3f3e
00000100: 4c40 8dbd a0a2 04be 322a 6b3e 431c 933d
00000110: cff4 803d 0999 b83d cb04 3abe 3b35 aa3d
00000120: 2a11 1dbb f133 d43d 48cf 90bd 620e 063e
00000130: ac0b c63c e691 b8bc b186 e63c 82c7 96bc
00000140: 2e85 01bd 7db8 193e 0162 debb 3305 d8bd
00000150: 6ae6 223e 315d 943c ac5a 113c ab09 d83b
00000160: c46a b83c 4be5 11bd 255e 6e3d 551d 0b3e
00000170: 6d5f 8bbb 5fff 423d e52a 9bbc ec35 ca3d
00000180: 1419 bd3c 506d 663d c0cb 32bd c02f e5bb
00000190: 7527 26bd f726 04be dfb0 1b3d b84a 7e3b
000001a0: 9ea5 5a3d 8417 d53d fcf6 973c a971 8d3c
000001b0: beb4 1c3e 6712 06bd d20a 0c3e 4fcb 5dbd
000001c0: 7c47 a9bc 04e6 103e 8002 e53c 0bbb c53b
000001d0: 70ec 53bd a110 033e 1e60 88bb ea69 2d3e
000001e0: 5b89 513d 68c2 a73d a146 33bd 13c0 af3d
000001f0: 2204 063e 5746 f03c 2c85 173d b112 693c
00000200: 7204 8dbd 5b6e 02bb 7927 573e 27cc 81bd
00000210: 161e 70bd bf88 12be dc2b 323e aae5 17bc
00000220: 6e6a d0ba 1feb 0abd 2e8b b03d 8c69 c7bd
00000230: b856 013e 6289 f4bc a055 02bd b976 0c3e
00000240: e36b a83c cda4 a23d 65f3 29bd d85b b93c
00000250: cb0d a13d 2b40 91bd 4680 fcba 929a 1d3c
00000260: 4f74 f93d 64a7 d53d afeb 04bd 4ee0 0fbc
00000270: 0c41 8ebb 5ca9 083e c262 c4bc 04bd 16be
00000280: 478c f5bc 612d a63c 37ec a73b a4de 94bd
00000290: 9e0a 4c3c e7a1 643c 443a d53d c507 92bd
000002a0: 4607 dcbc ca8e af3d 4ccd 18bd a100 93bd
000002b0: d26b e2bd 1385 59bd d6f6 f73c 7e3b fbbd
000002c0: 2e13 0ebd 958c c3bb 9bce 11bc 2ff4 9fbc
000002d0: a399 30bd baf4 51bd e8b0 3abd 4e6e 403d
000002e0: 842a 103e 57bb 0cbc 1687 83bd 2a70 853d
000002f0: 7122 cd3b f220 e33d 5166 e8bc a61d c53c
00000300: 9caa 603e d17b 1e3e 181d 7c3d 33ba b5bd
00000310: 5315 743c 7cc7 853d c198 753a 66e9 bfbd
00000320: d350 b83d 7532 debd 00db 8abd 99fc 50bd
00000330: dd61 c03d af14 7abd a96c a83d ae19 00be
00000340: eda8 94bd 7b3a 03bd 1401 33bd 3858 16bd
00000350: d858 9639 1c27 42bd a8d3 86bd a859 f53c
00000360: d99f 8abc 86f5 1b3d 8882 d73d aa7a 283e
00000370: 636f 123d db40 953d d085 fa3d 0d9f 69bd
00000380: 2d99 bc3b 6db6 0dbd a850 093e 2a04 3ebd
00000390: e6f2 5a3e 4f23 82bc fe37 953d f3d2 643d
000003a0: 3fcb b73d ae14 8bbd 6f06 903d 099b 4b3d
000003b0: e591 9abd 2dfb e23b 1013 bc3d f3f9 183c
000003c0: c21f 22bb 1fc6 e33b 8843 9ebd e050 2e3d
000003d0: b12d dd3d 1ecd 573e df6f d33d aa6c 8c3d
000003e0: dd97 10bd 5ead 983d 35f3 4f3d 9a9a efbb
000003f0: 4c89 793d 694f d8bd bf0c 3a3d 739f d63d

running_mean f4 [256]
-0.0005874682 -0.0015656628 -0.00043454737 -0.0009000643 0.0015259768 0.0009193009 -0.0005440544 0.00068634
0.00047262493 0.0018428108 -0.001058564 0.0015354874 0.0012419634 -0.002347121 0.001386145 -5.2742893e-05
-0.0007199957 -0.0001715465 0.0025019853 0.00016201558 -0.0020926597 0.0014154912 0.0006874005 -8.715218e-05
-0.0006545545 -0.0022719847 -0.00016500456 0.0004978458 0.00037544305 0.0021151665 -0.0002871135 0.0002669248
-0.0016334235 0.0008931323 0.0012652358 0.0012088096 0.0009820036 -0.00014974222 0.00265049 0.0026402127
0.00041886288 -0.0014477738 0.0017807253 -0.00070245925 -0.0019028957 1.8567487e-06 -0.00049110997 0.00030567855
-0.0005253403 0.0007000525 -0.0010628626 -0.0021557221 -0.0012443876 0.00016995471 0.00015094953 -0.0019854524
-0.0018629815 -0.00021263357 0.002009279 0.0019338067 -0.00013322858 -0.00089199 0.0027735273 7.255679e-05
0.0018928386 -0.00045764822 0.0014305485 -0.00019138072 0.0016687141 0.000781038 0.00023284649 -0.001897552
0.00021820578 -0.0019407024 0.0020930835 0.0021967655 0.00052734785 0.0018047903 -0.0012320641 0.0008322984
-0.00028923826 0.002967234 -0.0006998715 0.0013452966 0.002302159 0.00023956048 0.0010883472 -0.0003424877
0.00097226107 -0.0010134121 -0.0011613442 0.0027897633 0.0014475577 -0.0008795611 -0.00042253372 0.001018342
0.0004875378 -0.00018559677 0.00019840167 -0.0009942969 -9.253873e-06 -0.0011338784 0.0005875951 0.0010552262
-7.419907e-05 0.0011606769 0.0010152132 0.0026503846 -3.8197468e-05 0.00010208133 -0.0006212571 -0.0009039961
0.00071140635 -0.0014974922 0.0013698636 -0.00016101458 0.0014639643 -5.9325976e-05 -4.683596e-05 0.0020126158
-0.00021117143 -0.00024654358 0.00050048647 0.0004462421 0.0012952037 -0.0001048446 -0.000315785 -0.0015573862
-0.000505522 -0.001035465 0.0022903485 -0.0002782954 -0.0023315973 -8.2092876e-05 0.0018242071 -0.002047576
0.001984152 -0.0018380864 0.0014715611 -5.066962e-05 0.0005967971 -0.0007977163 8.176205e-05 -0.000983921
-0.0005798141 -0.00059356296 6.0345556e-05 -0.0023958671 -0.0017317126 -0.00017735978 -0.00093294797 0.0013447105
-0.0017779679 -0.002432603 0.00042588374 0.0014949567 -0.0031077818 -0.0010351465 -0.0012580337 -0.0016380948
-0.00012518419 0.00051493564 0.0013293483 -0.0011913016 -0.0012383612 0.00058475614 -0.0018909783 0.00046367967
0.0017157133 -0.001150964 0.0022395463 0.0012217854 -0.00015072619 0.0006292412 -0.0005580571 -0.00041737925
4.8050017e-05 0.0018770335 -0.002262303 -0.0012616063 -0.0015114276 -0.0002563178 -0.0007690842 -0.0017651427
0.0013251936 0.00019933826 0.0021180534 -0.0014832366 -0.0005910921 -0.0025774366 5.5153097e-05 -0.0005145352
0.0007617269 0.0011256327 -0.00047404497 0.0005099732 0.0008559586 0.0016197005 0.00015001507 -0.0008762876
-0.001212231 0.0008673915 0.001805078 0.00047909885 -0.0020675885 0.0016536753 0.0018190205 -0.0015086157
0.0019567285 0.0010152028 -0.00018627987 0.0010787714 -0.0009868832 0.0011283574 -0.00048513638 -0.0002531832
-0.0014265435 -0.0027945742 -0.003102371 0.0020135706 -0.001008141 -0.0015687007 0.000116742674 -0.0003214676
0.0014005493 0.0015736639 0.0030853916 0.00037237615 -1.18709e-05 0.00036293047 -0.00016652407 -0.00030275696
-0.00029860533 -0.00016456217 -0.0022914738 -0.0012325488 -0.00054636184 0.0006650776 -0.00017170147 0.00010099797
-0.00024901656 0.0016104293 -0.00035709623 0.001205575 0.0018684854 0.002393479 0.00016673053 0.0012926986
-0.0011816546 0.0018993 -0.00015076016 -0.0009843111 8.2792605e-05 -0.0020610266 -3.3385281e-06 -0.0007241559
00000000: 5300 1aba ed36 cdba f6d3 e3b9 4bf2 6bba
00000010: 4903 c83a 3dfd 703a df9e 0eba 7feb 333a
00000020: a5ca f739 788a f13a 84bf 8aba 6842 c93a
00000030: 60c9 a23a 28d2 19bb 4faf b53a 4038 5db8
00000040: 18be 3cba 2ae1 33b9 59f8 233b bae2 2939
00000050: 0125 09bb 0188 b93a ab32 343a 78c5 b6b8
00000060: 6996 2bba 94e5 14bb 1305 2db9 de81 023a
00000070: 1dd7 c439 9b9e 0a3b b987 96b9 0af2 8b39
00000080: 9918 d6ba 1821 6a3a 45d6 a53a eb70 9e3a
00000090: 93b6 803a 1f04 1db9 d8b3 2d3b 6b07 2d3b
000000a0: d39a db39 3ac3 bdba 3a67 e93a 3e25 38ba
000000b0: 966a f9ba 6635 f935 d5bd 00ba 7b43 a039
000000c0: feb6 09ba ba83 373a c04f 8bba 0447 0dbb
000000d0: b81a a3ba df35 3239 3548 1e39 5d1e 02bb
000000e0: 492f f4ba 64f6 5eb9 1cae 033b c977 fd3a
000000f0: 46b3 0bb9 70d4 69ba 11c4 353b a129 9838
00000100: 2019 f83a 81f0 efb9 3e81 bb3a 5fad 48b9
00000110: c1b8 da3a 93be 4c3a 4128 7439 48b7 f8ba
00000120: 2bce 6439 2b5f feba 1d2c 093b 9cf7 0f3b
00000130: b73d 0a3a b78e ec3a 367d a1ba 9a2e 5a3a
00000140: e7a4 97b9 ed75 423b 9577 37ba aa54 b03a
00000150: d2df 163b 8732 7b39 dfa6 8e3a ec8f b3b9
00000160: 56df 7e3a 78d4 84ba 3f38 98ba 76d4 363b
00000170: fabb bd3a 5992 66ba 8487 ddb9 e379 853a
00000180: 379c ff39 c19c 42b9 0b0a 5039 1153 82ba
00000190: 1541 1bb7 a59e 94ba d708 1a3a 844f 8a3a
000001a0: 539b 9bb8 db21 983a e710 853a 13b2 2d3b
000001b0: 3836 20b8 7f14 d638 dcdb 22ba 27fa 6cba
000001c0: ac7d 3a3a 8047 c4ba ff8c b33a 06d6 28b9
000001d0: 7ee2 bf3a c8d4 78b8 bb71 44b8 17e6 033b
000001e0: e66d 5db9 8542 81b9 1433 033a 9af5 e939
000001f0: d3c3 a93a 04e0 dbb8 f28f a5b9 3621 ccba
00000200: 0285 04ba 71b8 87ba ac19 163b 2de8 91b9
00000210: b6cd 18bb 4729 acb8 3c1a ef3a a030 06bb
00000220: 8c08 023b f2eb f0ba 66e1 c03a 1786 54b8
00000230: 6072 1c3a d61d 51ba ab77 ab38 e9f6 80ba
00000240: aafe 17ba 5699 1bba 8c1b 7d38 fb03 1dbb
00000250: a2fa e2ba a7f9 39b9 1491 74ba ff40 b03a
00000260: b40a e9ba 4e6c 1fbb 2649 df39 6cf2 c33a
00000270: edab 4bbb c1ad 87ba 9be4 a4ba 57b5 d6ba
00000280: e043 03b9 bffc 063a 873d ae3a 7325 9cba
00000290: 8250 a2ba 524a 193a b4da f7ba 081a f339
000002a0: c9e1 e03a f1db 96ba 5ac5 123b 5124 a03a
000002b0: 410c 1eb9 aaf3 243a 944a 12ba b2d3 dab9
000002c0: 5089 4938 cb06 f63a 2543 14bb 7c5c a5ba
000002d0: 181b c6ba 6562 86b9 5e9c 49ba 5c5c e7ba
000002e0: 1eb2 ad3a 7505 5139 0acf 0a3b 2969 c2ba
000002f0: 85f3 1aba 36ea 28bb 3054 6738 dfe1 06ba
00000300: a0ae 473a f789 933a 3d89 f8b9 b9af 053a
00000310: 6962 603a 214c d43a 5d4d 1d39 aab6 65ba
00000320: b9e3 9eba a961 633a 5e98 ec3a 8f2f fb39
00000330: 6180 07bb 23c0 d83a 336c ee3a bebc c5ba
00000340: 753c 003b 8e10 853a 1f54 43b9 9065 8d3a
00000350: 4e5a 81ba 64e5 933a e759 feb9 adbd 84b9
00000360: dbfa baba 2d25 37bb 2651 4bbb 1cf6 033b
00000370: 9923 84ba dc9c cdba bfd3 f438 a78a a8b9
00000380: a392 b73a 6643 ce3a 4834 4a3b 7b3b c339
00000390: 2129 47b7 b447 be39 f79c 2eb9 5abb 9eb9
000003a0: 218e 9cb9 528e 2cb9 8d2c 16bb 7a8d a1ba
000003b0: b939 0fba 9a58 2e3a c30a 34b9 dfce d338
000003c0: 708e 82b9 0a15 d33a a538 bbb9 6204 9e3a
000003d0: f7e7 f43a eadb 1c3b 63d4 2e39 c46f a93a
000003e0: c0e1 9aba eff1 f83a 5f15 1eb9 0004 81ba
000003f0: f1a0 ad38 4a12 07bb 7a0b 60b6 48d5 3dba

running_var f4 [256]
0.7071903 0.55581856 0.1414698 0.4139782 0.6877146 0.21269137 0.45923105 0.5471006
0.15998982 0.23657686 0.46991196 0.22664595 0.53037745 0.4042723 0.33881354 0.5452156
0.4047325 0.22757787 0.42534265 0.192221 0.28762245 0.1643554 0.20501466 0.17141151
0.6393062 0.37899724 0.57834834 0.42567238 0.08756847 0.38345066 0.45583606 0.58971447
0.16932365 0.35687378 0.15308228 0.46510115 0.2319146 0.054572247 0.47427306 0.46765712
0.49317944 0.2653171 0.26744956 0.27502325 0.38326892 0.39154667 0.10900829 0.060653865
0.18049113 0.44042242 0.46169174 0.31085482 0.13463694 0.2680263 0.14727858 0.27748796
0.23502153 0.2702949 0.7075463 0.3300437 0.21015002 0.27621022 0.55690885 0.09787899
0.52395326 0.17421752 0.13495348 0.41632676 0.7328398 0.044526048 0.040530022 0.2874185
0.26547816 0.24455224 0.752848 0.3479721 0.46166477 0.25675103 0.5843221 0.61214066
0.22145632 0.5880381 0.18141817 0.5554791 0.4413594 0.3309283 0.25380194 0.31505176
0.55988115 0.3560054 0.27014872 0.5855134 0.2283984 0.6363632 0.6257953 0.09592189
0.31492206 0.1459069 0.20677516 0.22403839 0.0465151 0.67847025 0.057533346 0.5549836
0.21621652 0.3367887 0.3179602 0.5891084 0.14900938 0.28892428 0.13301697 0.17184089
0.37880453 0.30263934 0.29205474 0.6495634 0.598413 0.25387207 0.22974654 0.30755737
0.14367509 0.36680627 0.15352389 0.27019098 0.2838649 0.053608622 0.29007256 0.24814838
0.4187466 0.15432473 0.36027393 0.0943413 0.52937263 0.24029958 0.23780677 0.70831925
0.45704296 0.36484858 0.3978922 0.06516118 0.69562316 0.6182284 0.40652823 0.4135765
0.2748141 0.01845972 0.57515115 0.38914213 0.20488138 0.13013756 0.1321014 0.27092478
0.218593 0.40562147 0.26583463 0.47766235 0.66830945 0.23994699 0.14616321 0.36446053
0.029722633 0.18317781 0.236924 0.4614879 0.21963891 0.63651264 0.23538463 0.14748138
0.19655351 0.09150059 0.3681445 0.14994848 0.22517022 0.18676686 0.41729742 0.23985611
0.17161402 0.32408983 0.35996965 0.18510385 0.54393345 0.081054166 0.11825118 0.37537056
0.20760232 0.30134398 0.46703488 0.26312798 0.29142344 0.4590715 0.22776277 0.20025612
0.027006492 0.13409957 0.33629107 0.36892638 0.48590606 0.3225369 0.51792425 0.19921584
0.08639611 0.36021617 0.21727918 0.32941487 0.29030982 0.51434475 0.2723282 0.16069521
0.27179155 0.34005666 0.11155573 0.43273944 0.41176653 0.19437955 0.46788743 0.31707904
0.57414687 0.53411466 0.6435721 0.31044003 0.5128247 0.17157707 0.1419054 0.035869483
0.22125232 0.70763594 0.69477266 0.18831025 0.060367156 0.10927655 0.1411057 0.67041224
0.59714645 0.5628784 0.3542044 0.12289543 0.25629783 0.81566787 0.4175952 0.36146525
0.42635596 0.36296356 0.3145586 0.26866987 0.32947654 0.38050362 0.20232245 0.43700996
0.12471094 0.26167443 0.6857427 0.23741019 0.05390471 0.6406664 0.2838203 0.56730014
00000000: 6c0a 353f 204a 0e3f 76dd 103e f3f4 d33e
00000010: 100e 303f c4cb 593e 5520 eb3e c90e 0c3f
00000020: 5fd4 233e 3441 723e 4d98 f03e e015 683e
00000030: d1c6 073f c7fc ce3e f878 ad3e 4093 0b3f
00000040: 1939 cf3e 2c0a 693e 83c6 d93e 95d5 443e
00000050: 4043 933e c84c 283e 5def 513e 8086 2f3e
00000060: 92a9 233f ed0b c23e a30e 143f bbf1 d93e
00000070: 1957 b33d a553 c43e 5863 e93e 87f7 163f
00000080: 2e63 2d3e 29b8 b63e 9ac1 1c3e bd21 ee3e
00000090: 057b 6d3e 2687 5f3d ebd3 f23e c170 ef3e
000000a0: 0482 fc3e a5d7 873e 26ef 883e d9cf 8c3e
000000b0: d33b c43e ce78 c83e bd3f df3d 3070 783d
000000c0: abd2 383e 0c7f e13e dc62 ec3e 5d28 9f3e
000000d0: 44de 093e be3a 893e 32d0 163e e712 8e3e
000000e0: 7ca9 703e 1864 8a3e c121 353f 7dfb a83e
000000f0: 9131 573e 6d6b 8d3e 9491 0e3f c874 c83d
00000100: cd21 063f 1466 323e 3f31 0a3e c828 d53e
00000110: 649b 3b3f f260 363d cf02 263d 8528 933e
00000120: c1ec 873e e76b 7a3e a6ba 403f 6629 b23e
00000130: 535f ec3e df74 833e 2296 153f 40b5 1c3f
00000140: 72c5 623e aa89 163f afc5 393e e133 0e3f
00000150: dcf9 e13e 6f6f a93e 54f2 813e 774e a13e
00000160: 5f54 0f3f 5746 b63e ef50 8a3e 35e4 153f
00000170: 45e1 693e b3e8 223f 1f34 203f b272 c43d
00000180: 773d a13e 9e68 153e debc 533e 526a 653e
00000190: 9e86 3e3d 3ab0 2d3f 16a8 6b3d 6813 0e3f
000001a0: dd67 5d3e 926f ac3e aecb a23e cfcf 163f
000001b0: ea95 183e e2ed 933e 9a35 083e 0ff7 2f3e
000001c0: abf2 c13e 8bf3 9a3e 3388 953e c949 263f
000001d0: 9831 193f 85fb 813e ad42 6b3e 2978 9d3e
000001e0: 901f 133e 08ce bb3e 5e35 1d3e 7956 8a3e
000001f0: bd56 913e b794 5b3d 6484 943e 9c1a 7e3e
00000200: f465 d63e 4d07 1e3e d375 b83e 0336 c13d
00000210: f784 073f 1811 763e 9e83 733e 6954 353f
00000220: 8901 ea3e 6fcd ba3e 87b8 cb3e 3a73 853d
00000230: 5c14 323f 3744 1e3f 7824 d03e 4dc0 d33e
00000240: 6fb4 8c3e d738 973c 1b3d 133f a33d c73e
00000250: 6dcc 513e c842 053e 9745 073e a7b6 8a3e
00000260: d8d6 5f3e 9ead cf3e 7a1b 883e 2990 f43e
00000270: 5416 2b3f aab4 753e cfab 153e 929a ba3e
00000280: e17c f33c f792 3b3e 349c 723e 2448 ec3e
00000290: 06e9 603e 7ef2 223f ab08 713e 5c05 173e
000002a0: 5345 493e a964 bb3d 707d bc3e 188c 193e
000002b0: 0693 663e d03f 3f3e 02a8 d53e d79c 753e
000002c0: 96bb 2f3e 1aef a53e f14d b83e dd8b 3d3e
000002d0: 393f 0b3f baff a53d ad2d f23d 9230 c03e
000002e0: b495 543e c249 9a3e 321f ef3e b6b8 863e
000002f0: 7435 953e 6b0b eb3e a53a 693e f10f 4d3e
00000300: b83c dd3c 6651 093e 582e ac3e ebe3 bc3e
00000310: aec8 f83e 8e23 a53e af96 043f 3dff 4b3e
00000320: 72f0 b03d 416e b83e 6f7e 5e3e 11a9 a83e
00000330: 7da3 943e 19ac 033f 9a6e 8b3e 498d 243e
00000340: 4328 8b3e e81b ae3e 5577 e43d 0690 dd3e
00000350: 10d3 d23e 6f0b 473e f18e ef3e 2f58 a23e
00000360: 4afb 123f bdbb 083f 24c1 243f fff1 9e3e
00000370: 7b48 033f e6b1 2f3e a64f 113e e1eb 123d
00000380: f88f 623e a127 353f 9fdc 313f 67d4 403e
00000390: 8d43 773d 62cc df3d 037e 103e 23a0 2b3f
000003a0: 97de 183f cc18 103f 475a b53e 99b0 fb3d
000003b0: 7839 833e 9ccf 503f 0acf d53e f911 b93e
000003c0: 544b da3e 5cd6 b93e d30d a13e 198f 893e
000003d0: 26b1 a83e 5fd1 c23e 9e2d 4f3e c5bf df3e
000003e0: 7368 ff3d 31fa 853e d58c 2f3f a81b 733e
000003f0: 2fcb 5c3d b702 243f e550 913e 953a 113f

weight f4 [256, 256]
0.055143785 -0.0024752526 -0.041248128 -0.07736169 -0.067074515 -0.04754057 -0.023494797 0.099936
0.060240895 -0.0249394 0.006746741 0.06183024 -0.012117309 0.041381575 0.012437508 0.09338414
0.031261683 0.05387039 -0.039122928 0.025456272 -4.851513e-05 -0.02743526 0.042201724 -0.003860526
0.044206604 0.07187429 0.030226238 -0.039157 -0.026696384 -0.04869908 0.047011055 0.03159796
0.02201025 -0.021211382 -0.037925124 0.016842276 0.04351276 0.0037224146 -0.046505645 0.021473385
0.051485613 0.017547889 -0.05582841 -0.01912559 0.009263903 0.058676526 0.013836933 0.041010883
-0.002707099 0.0020996197 0.022855565 0.043107916 -0.055332925 -0.06945441 0.061824504 -0.0196531
-0.04055486 0.022139333 0.0017970913 0.055565406 0.047066 0.07530428 0.03406894 0.013857389
-0.026162112 -0.06959401 -0.0426483 0.04810982 0.033435896 0.0047114543 0.04047291 -0.049186323
-0.033154648 0.037663534 0.010621992 -0.06933356 0.055692796 -0.009503231 0.010813002 0.0062150224
-0.03768776 -0.015820375 0.07640233 0.06496323 -0.059015557 0.038223572 0.040216044 0.04294239
0.04754889 0.0096793175 -0.023733126 -0.0889154 0.060492948 0.038649533 0.054684326 -0.051591963
0.062813714 0.04174211 0.025099646 0.08397879 -0.0009988718 -0.04306706 -0.027842911 0.0668217
0.025369965 -0.02518501 0.052494552 0.007061336 -0.013464519 0.08440779 -0.025738176 0.041160524
0.04932606 0.023194127 -0.08279284 -0.022700405 0.031000903 0.035909183 0.028568393 -0.003998229
0.0070891837 0.027958183 0.0024221195 -0.028838942 0.03886794 0.015162042 0.053474672 0.07290792
-0.018808788 0.046651073 -0.022042356 0.0063041653 -0.018912047 0.009495043 -0.018633526 0.059158593
-0.029931605 0.0070361476 0.06143506 0.024355786 -0.017750768 0.06281606 0.046290867 -0.011064567
-0.05999862 -0.027955813 0.055837817 -0.020570789 -0.050896354 0.022538232 0.04028587 -0.018074106
0.0051029213 -0.045160744 0.016709954 0.030677138 -0.016986145 0.008055525 0.060416766 0.059313636
0.079345845 0.02445269 -0.048451103 -0.029192777 -0.020633386 -0.012842167 -0.0437469 -0.067355715
-0.08543319 0.015632618 -0.0060439548 -0.055927448 -0.06379402 -0.026009452 0.024221187 -0.06304808
0.025307296 0.043865517 0.012197181 0.07109311 0.022898352 0.02024002 0.004304299 -0.018553808
0.07222382 -0.0007635179 -0.005471168 0.0822091 -0.058475327 -0.017696789 0.024713561 -0.013364238
0.006228563 0.014707512 0.0396774 0.029354887 0.050820176 -0.025685089 -0.0013560026 0.03839472
0.030113675 0.043846317 -0.086025625 -0.0027971996 -0.03591159 -0.025760027 0.021703426 -0.058531106
-0.034697376 0.058972593 -0.017808236 0.04227842 0.053776585 0.071518265 -0.01870518 -0.021435622
-0.016030924 -0.010822251 -0.047600333 -0.008045091 0.081889376 -0.04400979 -0.06565072 -0.0053419233
-0.026435154 0.05157679 -0.08507958 0.044861246 0.03608903 9.64925e-05 -0.0029608165 0.008144491
0.029580941 0.057804834 -0.04435274 0.014653357 0.0011841883 0.0024025822 0.019890875 -0.014403171
0.028138034 -0.03506857 0.06321533 -0.039204676 -0.03617578 -0.07005416 0.027456824 0.008902699
-0.014113885 0.006069777 -0.008265114 -0.079717405 -0.03780941 0.0074316994 0.01231734 0.043040793
00000000: 73de 613d d937 22bb ccf3 28bd ce6f 9ebd
00000010: 5d5e 89bd e7b9 42bd 2978 c0bc 3fab cc3d
00000020: 28bf 763d b64d ccbc c413 dd3b b541 7d3d
00000030: ad87 46bc ba7f 293d b1c6 4b3c 2f40 bf3d
00000040: 400c 003d 33a7 5c3d 5d3f 20bd ac89 d03c
00000050: b97c 4bb8 e9bf e0bc b7db 2c3d e100 7dbb
00000060: fc11 353d d432 933d 049d f73c 1763 20bd
00000070: 60b2 dabc b078 47bd aa8e 403d dd6c 013d
00000080: d74e b43c 7ec3 adbc 6057 1bbd d0f8 893c
00000090: 703a 323d c1f3 733b b47c 3ebd f4e8 af3c
000000a0: 94e2 523d 97c0 8f3c 55ac 64bd 45ad 9cbc
000000b0: a0c7 173c cc56 703d 4eb4 623c 07fb 273d
000000c0: 9669 31bb c699 093b 983b bb3c ed91 303d
000000d0: c7a4 62bd 1d3e 8ebd b13b 7d3d 8aff a0bc
000000e0: da1c 26bd 8c5d b53c 618c eb3a 8d98 633d
000000f0: 47c8 403d 2139 9a3d df8b 0b3d 1a0a 633c
00000100: ed51 d6bc 4e87 8ebd fcaf 2ebd cd0e 453d
00000110: 14f4 083d 8b62 9a3b ecc6 253d 9977 49bd
00000120: 2bcd 07bd 1445 1a3d dd07 2e3c c1fe 8dbd
00000130: 211e 643d 71b3 1bbc 0429 313c 63a7 cb3b
00000140: 7b5e 1abd bb99 81bc d378 9c3d 710b 853d
00000150: 4cba 71bd 5290 1c3d 94b9 243d 5ce4 2f3d
00000160: a0c2 423d 0096 1e3c f96b c2bc 4719 b6bd
00000170: 74c7 773d f94e 1e3d acfc 5f3d 1852 53bd
00000180: 7aa4 803d c6f9 2a3d c69d cd3c 12fd ab3d
00000190: 93ec 82ba 1667 30bd d116 e4bc d1d9 883d
000001a0: acd4 cf3c cb50 cebc 8704 573d c862 e73b
000001b0: 499a 5cbc fedd ac3d ded8 d2bc f097 283d
000001c0: 1f0a 4a3d 9c01 be3c 4b8f a9bd 33f6 b9bc
000001d0: 9bf5 fd3c 8215 133d 4308 ea3c 9303 83bb
000001e0: 624c e83b 8f08 e53c 6cbc 1e3b a53f ecbc
000001f0: fd33 1f3d 376a 783c 4208 5b3d bf50 953d
00000200: e314 9abc 3215 3f3d 2c92 b4bc 2c93 ce3b
00000210: 70ed 9abc 1991 1b3c 56a5 98bc 4850 723d
00000220: 2033 f5bc 7c8f e63b 54a3 7b3d c985 c73c
00000230: 0f6a 91bc b5a5 803d 7e9b 3d3d 2848 35bc
00000240: 1dc1 75bd 9703 e5bc 32b6 643d 1284 a8bc
00000250: b278 50bd 19a2 b83c cc02 253d 2610 94bc
00000260: 6836 a73b 79fa 38bd 50e3 883c 9f4e fb3c
00000270: 8726 8bbc 52fb 033c 9277 773d dbf2 723d
00000280: 1380 a23d 0251 c83c aa74 46bd b125 efbc
00000290: 5907 a9bc f467 52bc f32f 33bd cbf1 89bd
000002a0: 99f7 aebd fa0f 803c 5e0c c6bb 2e14 65bd
000002b0: 70a6 82bd c611 d5bc 836b c63c 5a1f 81bd
000002c0: 3f51 cf3c 54ac 333d afd6 473c 4499 913d
000002d0: 5395 bb3c 66ce a53c 140b 8d3b 28fe 97bc
000002e0: 15ea 933d d226 48ba 7c47 b3bb 3f5d a83d
000002f0: d383 6fbd dbf8 90bc 1874 ca3c adf5 5abc
00000300: f918 cc3b c7f7 703c c584 223d a979 f03c
00000310: d128 503d 8969 d2bc e6bb b1ba c843 1d3d
00000320: f4b0 f63c 3298 333d 342e b0bd 3951 37bb
00000330: 0818 13bd b106 d3bc 62cb b13c 50be 6fbd
00000340: d61e 0ebd 3f8d 713d 94e2 91bc 232c 2d3d
00000350: d644 5c3d 2b78 923d 9b3b 99bc c299 afbc
00000360: 4953 83bc d04f 31bc 91f8 42bd 8fcf 03bc
00000370: 9eb5 a73d 9c43 34bd e273 86bd 4d0b afbb
00000380: 898e d8bc 2f42 533d 343e aebd 6dc0 373d
00000390: 17d2 133d 045c ca38 420a 42bb 7970 053c
000003a0: bb53 f23c c3c4 6c3d 38ab 35bd a214 703c
000003b0: c436 9b3a a474 1d3b 30f2 a23c 47fb 6bbc
000003c0: bc81 e63c 10a4 0fbd 0a77 813d 1595 20bd
000003d0: 0e2d 14bd 8e78 8fbd 22ed e03c a0dc 113c
000003e0: ed3d 67bc fbe4 c63b 676a 07bc e142 a3bd
000003f0: 0ade 1abd 9d85 f33b abce 493c 8b4b 303d
