wgan_results/gum/resnet/critic.pth (torch_old, 400996 bytes, 15 tensors)

model.0.weight f4 [128, 1]
000000 10 9b a5 3d dd 19 87 3d 87 a6 82 3d 6c a2 83 3d
       0.080862164 0.0659673 0.06379419 0.06427464
000010 55 fe a5 3d 34 fa a5 3d b6 a8 82 3d 5e 9d a6 3d
       0.081051506 0.08104363 0.06379835 0.08135484
000020 cd 5f a6 3d d2 c7 85 3d 57 eb 80 3d a9 f3 a6 3d
       0.08123741 0.06532253 0.062948875 0.08151943
000030 ae 64 a6 3d 3c 68 82 3d e7 ea a6 3d bc c9 83 3d
       0.08124672 0.063675374 0.08150273 0.06434962
000040 75 83 a6 3d 71 1d a6 3d 2a 72 a6 3d ee 38 83 3d
       0.08130542 0.08111084 0.08127244 0.06407343
000050 2a 54 a5 3d 55 08 a6 3d 66 b5 a6 3d c0 92 83 3d
       0.08072694 0.08107058 0.08140068 0.06424475
000060 5f b2 81 3d 53 49 a6 3d c2 30 a6 3d 2d 11 a6 3d
       0.0633285 0.08119454 0.081147686 0.08108745
000070 9f e6 81 3d 84 38 a6 3d fb 25 a6 3d 92 e6 a7 3d
       0.063428156 0.08116248 0.08112713 0.08198275
000080 cc a3 a5 3d 19 1d a7 3d 87 3b 81 3d 60 26 a6 3d
       0.080878824 0.08159847 0.06310182 0.08112788
000090 bd c0 a5 3d 92 ec 82 3d de fe a5 3d 5a 39 a6 3d
       0.080934025 0.063927785 0.08105253 0.08116408
0000a0 86 ff a5 3d 63 12 85 3d 4d 2c a6 3d ff 88 a6 3d
       0.08105378 0.064976476 0.081139185 0.08131599
0000b0 97 38 a7 3d 41 2c 83 3d a4 a7 81 3d f3 6b a6 3d
       0.081650905 0.06404925 0.06330803 0.081260584
0000c0 ba 61 a6 3d 78 a8 a5 3d b3 66 a6 3d 64 6f a8 3d
       0.081241086 0.080887735 0.08125057 0.08224371
0000d0 53 64 a5 3d 4f bb a6 3d ac f5 a5 3d 51 19 a6 3d
       0.08075776 0.08141195 0.08103499 0.081102975
0000e0 ad bf a5 3d f8 f4 a5 3d 79 3a a6 3d d7 cd 82 3d
       0.080932 0.08103365 0.081166215 0.06386917
0000f0 9d 1f a6 3d ec db a5 3d d0 64 a6 3d 39 64 a5 3d
       0.081114985 0.080985874 0.08124697 0.080757566
000100 28 03 a6 3d 8f fc a6 3d 90 27 81 3d 76 65 a6 3d
       0.08106071 0.081536405 0.06306374 0.08124821
000110 58 27 a7 3d 9f 64 a6 3d 4d 6a a6 3d 2a 1a 84 3d
       0.08161801 0.08124661 0.08125744 0.06450303
000120 87 70 a9 3d e4 dc a5 3d d4 2a a9 3d cc d9 a6 3d
       0.08273416 0.08098772 0.08260122 0.0814701
000130 88 98 84 3d 3e 20 a6 3d 8c 83 a6 3d 7e 98 a5 3d
       0.064744055 0.081116185 0.08130559 0.08085726
000140 e9 e1 81 3d 5e 5e a6 3d 9e 82 82 3d 7d 6b a5 3d
       0.06341917 0.08123468 0.063725695 0.080771424
000150 af a4 82 3d e6 08 a6 3d 2e 23 81 3d 7f 0a a6 3d
       0.06379067 0.08107166 0.06305538 0.08107471
000160 b9 d4 81 3d 07 13 81 3d b4 6e a6 3d d2 c4 82 3d
       0.06339402 0.06302457 0.08126584 0.06385197
000170 b3 24 81 3d 2d 96 a6 3d 2a 53 a6 3d 50 ee 83 3d
       0.06305828 0.081341125 0.08121331 0.06441939
000180 b7 3c a6 3d 7c d1 a5 3d 75 c7 a6 3d 2b 56 a7 3d
       0.08117049 0.080965966 0.08143512 0.08170732
000190 5a 91 a5 3d f7 06 a6 3d 7f 24 a6 3d 3a f2 a5 3d
       0.08084364 0.08106797 0.0811243 0.08102842
0001a0 f5 1b 84 3d 78 e6 a6 3d f6 4a a6 3d e6 b1 a5 3d
       0.06450645 0.08149427 0.081197664 0.08090572
0001b0 a3 0e a6 3d 4a 51 a6 3d 5f 38 a6 3d ae f3 a5 3d
       0.081082605 0.081209734 0.08116221 0.08103119
0001c0 ee ab 81 3d f2 e2 a5 3d 62 04 83 3d f1 b4 a5 3d
       0.06331621 0.08099927 0.0639732 0.080911525
0001d0 10 b3 a6 3d 65 fc a5 3d 52 3f a6 3d 69 81 a7 3d
       0.08139622 0.08104781 0.08117546 0.0817898
0001e0 ba b3 a5 3d 11 30 84 3d 11 9c 81 3d 6f 12 81 3d
       0.08090921 0.064544804 0.063285954 0.06302344
0001f0 e0 70 a6 3d 4f 66 a6 3d a2 ec a5 3d 36 1e a6 3d
       0.08126998 0.081249826 0.08101775 0.08111231

model.0.bias f4 [128]
000000 50 30 01 80 78 b7 00 00 b4 23 01 00 78 b7 00 00
       -1.09167e-40 6.5816e-41 1.04643e-40 6.5816e-41
000010 50 30 01 80 22 4a 01 80 78 b7 00 00 b2 84 00 00
       -1.09167e-40 -1.1843e-40 6.5816e-41 4.7602e-41
000020 b2 84 00 00 78 b7 00 00 50 30 01 80 50 30 01 80
       4.7602e-41 6.5816e-41 -1.09167e-40 -1.09167e-40
000030 22 4a 01 80 50 30 01 80 50 30 01 80 78 b7 00 00
       -1.1843e-40 -1.09167e-40 -1.09167e-40 6.5816e-41
000040 22 4a 01 80 22 4a 01 80 22 4a 01 80 50 30 01 80
       -1.1843e-40 -1.1843e-40 -1.1843e-40 -1.09167e-40
000050 e4 2b 01 80 22 4a 01 80 50 30 01 80 b4 23 01 00
       -1.0758e-40 -1.1843e-40 -1.09167e-40 1.04643e-40
000060 b4 23 01 00 b2 84 00 00 22 4a 01 80 50 30 01 80
       1.04643e-40 4.7602e-41 -1.1843e-40 -1.09167e-40
000070 78 b7 00 00 50 30 01 80 50 30 01 80 22 4a 01 80
       6.5816e-41 -1.09167e-40 -1.09167e-40 -1.1843e-40
000080 22 4a 01 80 50 30 01 80 78 b7 00 00 50 30 01 80
       -1.1843e-40 -1.09167e-40 6.5816e-41 -1.09167e-40
000090 50 30 01 80 78 b7 00 00 50 30 01 80 50 30 01 80
       -1.09167e-40 6.5816e-41 -1.09167e-40 -1.09167e-40
0000a0 50 30 01 80 78 b7 00 00 22 4a 01 80 22 4a 01 80
       -1.09167e-40 6.5816e-41 -1.1843e-40 -1.1843e-40
0000b0 50 30 01 80 b4 23 01 00 50 30 01 80 78 b7 00 00
       -1.09167e-40 1.04643e-40 -1.09167e-40 6.5816e-41
0000c0 b2 84 00 00 50 30 01 80 50 30 01 80 22 4a 01 80
       4.7602e-41 -1.09167e-40 -1.09167e-40 -1.1843e-40
0000d0 22 4a 01 80 22 4a 01 80 22 4a 01 80 50 30 01 80
       -1.1843e-40 -1.1843e-40 -1.1843e-40 -1.09167e-40
0000e0 50 30 01 80 50 30 01 80 50 30 01 80 78 b7 00 00
       -1.09167e-40 -1.09167e-40 -1.09167e-40 6.5816e-41
0000f0 22 4a 01 80 22 4a 01 80 22 4a 01 80 50 30 01 80
       -1.1843e-40 -1.1843e-40 -1.1843e-40 -1.09167e-40
000100 50 30 01 80 22 4a 01 80 50 30 01 80 22 4a 01 80
       -1.09167e-40 -1.1843e-40 -1.09167e-40 -1.1843e-40
000110 50 30 01 80 22 4a 01 80 50 30 01 80 50 30 01 80
       -1.09167e-40 -1.1843e-40 -1.09167e-40 -1.09167e-40
000120 50 30 01 80 22 4a 01 80 22 4a 01 80 b2 84 00 00
       -1.09167e-40 -1.1843e-40 -1.1843e-40 4.7602e-41
000130 78 b7 00 00 22 4a 01 80 50 30 01 80 50 30 01 80
       6.5816e-41 -1.1843e-40 -1.09167e-40 -1.09167e-40
000140 50 30 01 80 22 4a 01 80 b4 23 01 00 22 4a 01 80
       -1.09167e-40 -1.1843e-40 1.04643e-40 -1.1843e-40
000150 78 b7 00 00 22 4a 01 80 78 b7 00 00 22 4a 01 80
       6.5816e-41 -1.1843e-40 6.5816e-41 -1.1843e-40
000160 50 30 01 80 50 30 01 80 50 30 01 80 50 30 01 80
       -1.09167e-40 -1.09167e-40 -1.09167e-40 -1.09167e-40
000170 b4 23 01 00 22 4a 01 80 22 4a 01 80 78 b7 00 00
       1.04643e-40 -1.1843e-40 -1.1843e-40 6.5816e-41
000180 22 4a 01 80 b2 84 00 00 22 4a 01 80 22 4a 01 80
       -1.1843e-40 4.7602e-41 -1.1843e-40 -1.1843e-40
000190 22 4a 01 80 50 30 01 80 22 4a 01 80 50 30 01 80
       -1.1843e-40 -1.09167e-40 -1.1843e-40 -1.09167e-40
0001a0 50 30 01 80 ec a4 00 00 22 4a 01 80 22 4a 01 80
       -1.09167e-40 5.9163e-41 -1.1843e-40 -1.1843e-40
0001b0 22 4a 01 80 22 4a 01 80 22 4a 01 80 50 30 01 80
       -1.1843e-40 -1.1843e-40 -1.1843e-40 -1.09167e-40
0001c0 b4 23 01 00 50 30 01 80 50 30 01 80 50 30 01 80
       1.04643e-40 -1.09167e-40 -1.09167e-40 -1.09167e-40
0001d0 22 4a 01 80 50 30 01 80 50 30 01 80 50 30 01 80
       -1.1843e-40 -1.09167e-40 -1.09167e-40 -1.09167e-40
0001e0 22 4a 01 80 50 30 01 80 78 b7 00 00 78 b7 00 00
       -1.1843e-40 -1.09167e-40 6.5816e-41 6.5816e-41
0001f0 50 30 01 80 22 4a 01 80 50 30 01 80 50 30 01 80
       -1.09167e-40 -1.1843e-40 -1.09167e-40 -1.09167e-40

model.2.block.0.weight f4 [128, 128]
000000 c3 bf 3d 3c 81 d6 33 3c 5d c4 31 3c df 36 32 3c
       0.011581364 0.010976435 0.010850039 0.01087734
000010 92 da 3d 3c e9 dd 3d 3c 72 c5 31 3c a4 13 3e 3c
       0.011587756 0.011588552 0.010850297 0.011601362
000020 26 ff 3d 3c 1d 3b 33 3c e7 f3 30 3c 2b 27 3e 3c
       0.011596477 0.010939387 0.010800338 0.011606018
000030 c0 ff 3d 3c f1 a7 31 3c a2 2d 3e 3c 9c 50 32 3c
       0.01159662 0.010843263 0.011607559 0.010883477
000040 8e 00 3e 3c ad e8 3d 3c 03 05 3e 3c 25 08 32 3c
       0.011596812 0.011591119 0.011597875 0.0108662
000050 e1 a7 3d 3c 51 da 3d 3c 93 14 3e 3c e8 32 32 3c
       0.01157567 0.011587695 0.011601585 0.010876395
000060 c6 5b 31 3c 25 f7 3d 3c 77 ea 3d 3c 66 e5 3d 3c
       0.010825103 0.011594568 0.011591545 0.011590337
000070 53 6c 31 3c d2 e8 3d 3c bc ec 3d 3c 3c 72 3e 3c
       0.010829049 0.011591153 0.011592086 0.011623915
000080 15 c2 3d 3c 8e 3b 3e 3c dc 1a 31 3c 64 ed 3d 3c
       0.011581917 0.011610879 0.010809626 0.011592243
000090 d6 c9 3d 3c 6e e5 31 3c 99 e0 3d 3c 24 f0 3d 3c
       0.011583766 0.010857923 0.011589193 0.0115928985
0000a0 4c e1 3d 3c d5 e3 32 3c 4c ec 3d 3c 2b 03 3e 3c
       0.0115893595 0.010918577 0.011591982 0.011597435
0000b0 e4 41 3e 3c 6a 0a 32 3c 19 55 31 3c e1 02 3e 3c
       0.011612389 0.010866741 0.0108235115 0.011597366
0000c0 5b fe 3d 3c d9 c3 3d 3c 76 fa 3d 3c 43 91 3e 3c
       0.011596288 0.011582338 0.011595359 0.011631313
0000d0 94 ac 3d 3c e1 14 3e 3c 52 dc 3d 3c 7a e9 3d 3c
       0.01157679 0.011601658 0.011588173 0.01159131
0000e0 2b cb 3d 3c 0b dc 3d 3c ba eb 3d 3c 2d d6 31 3c
       0.011584084 0.011588107 0.011591846 0.010854286
0000f0 bd e3 3d 3c b3 d4 3d 3c a3 f5 3d 3c 2b ad 3d 3c
       0.011589942 0.011586356 0.011594209 0.011576931
000100 ce da 3d 3c 6e 2b 3e 3c d5 11 31 3c bd f7 3d 3c
       0.011587812 0.011607034 0.010807474 0.01159471
000110 77 3d 3e 3c 62 f8 3d 3c 42 fc 3d 3c 64 74 32 3c
       0.011611334 0.011594864 0.0115957875 0.0108920075
000120 c1 df 3e 3c 7e d4 3d 3c 4e cb 3e 3c 7e 25 3e 3c
       0.011650027 0.011586307 0.011645151 0.0116056185
000130 95 c2 32 3c b3 ea 3d 3c 8b 0a 3e 3c 38 c0 3d 3c
       0.01091065 0.011591601 0.011599193 0.011581473
000140 5d 70 31 3c 1f fd 3d 3c bb bb 31 3c 3d af 3d 3c
       0.010830012 0.011595993 0.010847981 0.011577425
000150 79 c4 31 3c ec e0 3d 3c ce 11 31 3c 07 e3 3d 3c
       0.010850065 0.01158927 0.010807468 0.011589772
000160 14 6a 31 3c 6c 09 31 3c f5 02 3e 3c f6 d1 31 3c
       0.010828514 0.010805469 0.011597385 0.010853281
000170 ae 10 31 3c 0f 0f 3e 3c 84 fb 3d 3c 6d 5b 32 3c
       0.010807199 0.01160027 0.0115956105 0.010886055
000180 f6 eb 3d 3c 20 d0 3d 3c f3 0f 3e 3c 60 45 3e 3c
       0.011591902 0.011585265 0.011600482 0.01161322
000190 ae bc 3d 3c ef e1 3d 3c 83 ec 3d 3c a2 da 3d 3c
       0.011580629 0.011589511 0.011592033 0.011587771
0001a0 0e 89 32 3c 6f 22 3e 3c 8e f0 3d 3c 2d c7 3d 3c
       0.010896934 0.011604889 0.011592997 0.011583132
0001b0 36 de 3d 3c 9c ef 3d 3c ad f0 3d 3c 7f d5 3d 3c
       0.011588624 0.011592772 0.011593026 0.011586546
0001c0 89 57 31 3c 68 d4 3d 3c 5e f0 31 3c 6f c7 3d 3c
       0.010824093 0.011586286 0.010860531 0.011583193
0001d0 0b 18 3e 3c 62 de 3d 3c db eb 3d 3c 90 5a 3e 3c
       0.011602412 0.011588665 0.011591877 0.0116182715
0001e0 d9 c7 3d 3c 61 7d 32 3c 28 52 31 3c 3f 09 31 3c
       0.011583292 0.0108941505 0.01082281 0.010805427
0001f0 47 fc 3d 3c f5 fa 3d 3c fd d8 3d 3c f6 e4 3d 3c
       0.011595792 0.011595477 0.011587379 0.011590233
000200 b0 7b 71 3b ae ab 53 3b ec 79 4e 3b 76 9b 4f 3b
       0.0036847405 0.0032298374 0.0031505777 0.0031678355
000210 ab c3 71 3b 6b d0 71 3b d2 7a 4e 3b 33 5f 72 3b
       0.003689031 0.0036897908 0.0031506312 0.0036983013
000220 c9 24 72 3b 12 29 52 3b f2 6f 4c 3b 90 9c 72 3b
       0.0036948195 0.0032067937 0.0031194654 0.0037019588
000230 9e 2a 72 3b 4f 31 4e 3b c4 a5 72 3b 31 d5 4f 3b
       0.0036951671 0.0031462496 0.0037025074 0.0031712765
000240 eb 33 72 3b 2a f5 71 3b 7b 3e 72 3b aa 26 4f 3b
       0.0036957215 0.003691981 0.003696351 0.003160874
000250 c1 43 71 3b f0 c7 71 3b fc 6e 72 3b 75 90 4f 3b
       0.0036814066 0.0036892854 0.0036992421 0.0031671796
000260 1b 71 4d 3b a0 0d 72 3b 5c f5 71 3b e2 e1 71 3b
       0.0031347934 0.003693439 0.0036919927 0.0036908318
000270 53 9c 4d 3b 1c f7 71 3b a4 f8 71 3b 78 69 73 3b
       0.0031373694 0.003692097 0.0036921883 0.0037141722
000280 64 85 71 3b 79 cf 72 3b 8c d3 4c 3b b9 fc 71 3b
       0.0036853189 0.0037049933 0.0031254021 0.0036924316
000290 e4 a3 71 3b 5b d0 4e 3b e7 d8 71 3b 03 07 72 3b
       0.0036871368 0.0031557295 0.0036902966 0.003693045
0002a0 0a da 71 3b 42 52 51 3b d0 f6 71 3b 88 3a 72 3b
       0.0036903643 0.0031939899 0.0036920793 0.0036961157
0002b0 83 e5 72 3b 0b 2b 4f 3b 9e 60 4d 3b bb 35 72 3b
       0.003706307 0.003161135 0.0031338106 0.0036958295
0002c0 87 27 72 3b aa 87 71 3b 2b 20 72 3b 3a ae 73 3b
       0.003694983 0.0036854544 0.0036945443 0.0037182705
0002d0 29 4b 71 3b dc 6a 72 3b 33 d1 71 3b b1 eb 71 3b
       0.003681848 0.0036989963 0.0036898374 0.0036914165
0002e0 01 9f 71 3b 6f ce 71 3b ee f5 71 3b 23 ad 4e 3b
       0.0036868455 0.0036896726 0.0036920267 0.0031536303
0002f0 6d e8 71 3b 29 b4 71 3b ad 13 72 3b c6 51 71 3b
       0.0036912218 0.0036881065 0.0036937997 0.0036822422
000300 9a ce 71 3b 47 a1 72 3b 01 bb 4c 3b a1 15 72 3b
       0.0036896826 0.0037022398 0.0031239393 0.0036939161
000310 ac d2 72 3b c7 18 72 3b e9 26 72 3b 9c 35 50 3b
       0.003705184 0.0036941038 0.0036949462 0.0031770235
000320 84 61 74 3b 00 b8 71 3b 56 24 74 3b 14 99 72 3b
       0.003728957 0.0036883354 0.0037253103 0.0037017511
000330 b5 e7 50 3b 33 f4 71 3b 7c 4b 72 3b 79 7c 71 3b
       0.003187639 0.0036919236 0.0036971262 0.0036847873
000340 da a7 4d 3b 4a 23 72 3b 74 5f 4e 3b a5 51 71 3b
       0.0031380565 0.0036947303 0.003149 0.0036822346
000350 d9 75 4e 3b b4 da 71 3b 91 b9 4c 3b 0a dd 71 3b
       0.0031503348 0.003690404 0.0031238536 0.0036905431
000360 39 97 4d 3b 3f a4 4c 3b 3e 38 72 3b 59 a1 4e 3b
       0.0031370653 0.0031225828 0.0036959792 0.0031529276
000370 0d b4 4c 3b 02 62 72 3b 1a 1c 72 3b 2a f4 4f 3b
       0.0031235248 0.0036984687 0.003694302 0.0031731226
000380 1d fd 71 3b 26 ab 71 3b 69 5d 72 3b 48 ef 72 3b
       0.003692455 0.0036875694 0.0036981946 0.0037068892
000390 d5 77 71 3b fa d6 71 3b 8f f3 71 3b 0f d0 71 3b
       0.0036845107 0.0036901818 0.0036918854 0.0036897694
0003a0 5e 51 50 3b a9 8b 72 3b cc 06 72 3b 8e 94 71 3b
       0.003178678 0.0037009513 0.003693032 0.0036862227
0003b0 d5 d6 71 3b e8 01 72 3b 8e 01 72 3b 3e ba 71 3b
       0.0036901732 0.0036927406 0.0036927196 0.003688469
0003c0 bb 6b 4d 3b 17 bc 71 3b e3 e6 4e 3b 8f 94 71 3b
       0.003134473 0.0036885792 0.0031570725 0.003686223
0003d0 d8 6a 72 3b 22 d4 71 3b ea fa 71 3b 56 1d 73 3b
       0.0036989953 0.0036900123 0.0036923238 0.0037096343
0003e0 dc 8f 71 3b 38 4f 50 3b 14 53 4d 3b d3 a1 4c 3b
       0.0036859429 0.00317855 0.0031330036 0.0031224384
0003f0 d5 28 72 3b ec 21 72 3b 0a c5 71 3b c5 e3 71 3b
       0.0036950607 0.0036946489 0.0036891126 0.0036909443

model.2.block.0.bias f4 [128]
000000 92 17 02 80 9e 05 02 00 92 17 02 80 78 75 00 80
       -1.92126e-40 1.85686e-40 -1.92126e-40 -4.214e-41
000010 78 75 00 80 c0 ba 01 00 78 75 00 80 34 0c 01 80
       -4.214e-41 1.58829e-40 -4.214e-41 -9.6213e-41
000020 f2 e8 00 00 78 75 00 80 92 17 02 80 28 ee 01 00
       8.3565e-41 -4.214e-41 -1.92126e-40 1.7727e-40
000030 28 ee 01 00 34 0c 01 80 78 75 00 80 28 ee 01 00
       1.7727e-40 -9.6213e-41 -4.214e-41 1.7727e-40
000040 aa a2 01 00 92 17 02 80 78 75 00 80 c0 ba 01 00
       1.50188e-40 -1.92126e-40 -4.214e-41 1.58829e-40
000050 74 58 00 00 78 75 00 80 28 ee 01 00 78 75 00 80
       3.1731e-41 -4.214e-41 1.7727e-40 -4.214e-41
000060 78 75 00 80 92 17 02 00 28 ee 01 00 28 ee 01 00
       -4.214e-41 1.92126e-40 1.7727e-40 1.7727e-40
000070 28 ee 01 00 28 ee 01 00 92 17 02 00 74 58 00 00
       1.7727e-40 1.7727e-40 1.92126e-40 3.1731e-41
000080 78 75 00 80 28 ee 01 00 ec 02 01 00 28 ee 01 00
       -4.214e-41 1.7727e-40 9.2884e-41 1.7727e-40
000090 28 ee 01 00 92 17 02 00 c0 ba 01 00 28 ee 01 00
       1.7727e-40 1.92126e-40 1.58829e-40 1.7727e-40
0000a0 78 75 00 80 78 75 00 80 c0 ba 01 00 92 17 02 80
       -4.214e-41 -4.214e-41 1.58829e-40 -1.92126e-40
0000b0 bc 37 01 00 28 ee 01 00 92 17 02 00 28 ee 01 00
       1.11829e-40 1.7727e-40 1.92126e-40 1.7727e-40
0000c0 34 0c 01 80 78 75 00 80 74 58 00 00 74 58 00 00
       -9.6213e-41 -4.214e-41 3.1731e-41 3.1731e-41
0000d0 ec 02 01 00 c0 ba 01 00 74 58 00 00 92 17 02 80
       9.2884e-41 1.58829e-40 3.1731e-41 -1.92126e-40
0000e0 28 ee 01 00 9e 05 02 00 92 17 02 80 78 75 00 80
       1.7727e-40 1.85686e-40 -1.92126e-40 -4.214e-41
0000f0 9e 05 02 00 28 ee 01 00 c0 ba 01 00 28 ee 01 00
       1.85686e-40 1.7727e-40 1.58829e-40 1.7727e-40
000100 78 75 00 80 28 ee 01 00 34 0c 01 80 28 ee 01 00
       -4.214e-41 1.7727e-40 -9.6213e-41 1.7727e-40
000110 34 0c 01 80 28 ee 01 00 28 ee 01 00 aa a2 01 00
       -9.6213e-41 1.7727e-40 1.7727e-40 1.50188e-40
000120 34 0c 01 80 34 0c 01 80 78 75 00 80 92 17 02 00
       -9.6213e-41 -9.6213e-41 -4.214e-41 1.92126e-40
000130 28 ee 01 00 92 17 02 80 34 0c 01 80 c0 ba 01 00
       1.7727e-40 -1.92126e-40 -9.6213e-41 1.58829e-40
000140 92 17 02 00 28 ee 01 00 4e 28 00 00 28 ee 01 00
       1.92126e-40 1.7727e-40 1.4459e-41 1.7727e-40
000150 34 0c 01 80 34 0c 01 80 92 17 02 00 aa a2 01 00
       -9.6213e-41 -9.6213e-41 1.92126e-40 1.50188e-40
000160 aa a2 01 00 34 0c 01 80 78 75 00 80 28 ee 01 00
       1.50188e-40 -9.6213e-41 -4.214e-41 1.7727e-40
000170 4e 28 00 00 34 0c 01 80 34 0c 01 00 34 0c 01 80
       1.4459e-41 -9.6213e-41 9.6213e-41 -9.6213e-41
000180 78 75 00 80 28 ee 01 00 c0 ba 01 00 92 17 02 00
       -4.214e-41 1.7727e-40 1.58829e-40 1.92126e-40
000190 28 ee 01 00 9e 05 02 00 c0 ba 01 00 92 17 02 80
       1.7727e-40 1.85686e-40 1.58829e-40 -1.92126e-40
0001a0 f2 e8 00 00 74 58 00 00 aa a2 01 00 34 0c 01 80
       8.3565e-41 3.1731e-41 1.50188e-40 -9.6213e-41
0001b0 28 ee 01 00 92 17 02 80 34 0c 01 80 aa a2 01 00
       1.7727e-40 -1.92126e-40 -9.6213e-41 1.50188e-40
0001c0 34 0c 01 80 92 17 02 00 74 58 00 00 34 0c 01 80
       -9.6213e-41 1.92126e-40 3.1731e-41 -9.6213e-41
0001d0 74 58 00 00 34 0c 01 80 92 17 02 00 9e 05 02 00
       3.1731e-41 -9.6213e-41 1.92126e-40 1.85686e-40
0001e0 78 75 00 80 28 ee 01 00 92 17 02 80 28 ee 01 00
       -4.214e-41 1.7727e-40 -1.92126e-40 1.7727e-40
0001f0 c0 ba 01 00 34 0c 01 80 92 17 02 00 34 0c 01 80
       1.58829e-40 -9.6213e-41 1.92126e-40 -9.6213e-41

model.2.block.2.weight f4 [128, 128]
000000 82 8e 45 3c a9 00 79 3b 2a 61 3a 3c 20 6e 82 3b
       0.012057902 0.0037994778 0.011375705 0.003980413
000010 51 0b 3d 3c f3 e8 3a 3c 6a 53 43 3c f1 57 82 3b
       0.011538343 0.0114080785 0.011921743 0.0039777686
000020 37 de d8 38 64 df 81 3b 76 8d 45 3c fa 1c 79 3b
       0.00010341073 0.003963398 0.012057653 0.0038011656
000030 36 0c 79 3b ae 21 82 3b ae 4e 43 3c 47 aa 3b 3c
       0.0038001663 0.0039713 0.011920614 0.0114541715
000040 2a 1a 79 3b 47 92 45 3c 47 34 d2 3b bd 0b 3c 3c
       0.003800998 0.012058801 0.0064149234 0.011477408
000050 b3 dd 99 b8 4f 76 d9 3b b7 1a 79 3b 52 e3 7b 3b
       -7.336903e-05 0.006636418 0.0038010308 0.0038435054
000060 45 d1 81 3b 22 e5 81 3b c7 a1 3a 3c 23 1c 79 3b
       0.0039617145 0.0039640823 0.01139111 0.0038011156
000070 72 29 3d 3c 02 50 79 3b 25 d8 81 3b f3 95 25 b9
       0.011545526 0.0038042073 0.003962534 -0.00015791487
000080 f3 3f 3d 3c c8 0d 79 3b 31 3f 3b 3c d0 e8 3c 3c
       0.011550891 0.00380026 0.01142864 0.011530116
000090 3d 49 3d 3c 3d e2 81 3b 2c a4 3b 3c 18 1e 79 3b
       0.011553106 0.0039637373 0.011452716 0.0038012322
0000a0 5c 60 82 3b 73 e0 82 38 2e 45 3d 3c 7b 67 45 3c
       0.003978772 6.24069e-05 0.011552138 0.012048597
0000b0 0f 69 5a 3b 5c 24 79 3b 3a 23 82 3b 84 12 39 3c
       0.003332678 0.0038016057 0.0039714845 0.011295918
0000c0 ca 22 82 3b 01 d9 f9 b8 a4 da 58 39 0f 7e 63 b9
       0.0039714323 -0.000119136654 0.00020680815 -0.00021695367
0000d0 5e 76 d9 3b 3b 70 45 3c 6e 88 65 b9 e2 91 45 3c
       0.006636425 0.012050684 -0.00021889966 0.012058707
0000e0 91 56 3d 3c f4 16 79 3b 85 2e 3a 3c 2e 22 79 3b
       0.011556284 0.0038008066 0.01136363 0.0038014757
0000f0 7e 1f 79 3b 4f 1a 79 3b 94 a0 37 3c c9 06 79 3b
       0.0038013156 0.0038010066 0.011207718 0.003799843
000100 1d d8 db 3a e8 1d 79 3b e3 1e 82 3b 8f f3 38 3c
       0.0016772781 0.003801221 0.003970967 0.011288538
000110 25 e3 81 3b 0d fe 78 3b d8 1e 79 3b 65 22 79 3b
       0.0039638453 0.0037993223 0.003801277 0.0038014886
000120 6b 8e c2 39 8b 67 81 3b d6 8e 22 3a 5d e7 81 3b
       0.00037108673 0.003949111 0.0006201094 0.003964348
000130 c2 1d 79 3b 00 23 3c 3c d7 0f 82 3b bd 57 3d 3c
       0.0038012122 0.011482954 0.0039691734 0.011556563
000140 13 25 82 3b 6e 9e 39 3c a9 f4 09 b8 9a 14 79 3b
       0.0039717047 0.0113292765 -3.2891203e-05 0.0038006664
000150 77 23 82 3b ba 1f 82 3b 11 d7 81 3b 33 1e 79 3b
       0.003971513 0.0039710673 0.0039624055 0.0038012385
000160 6e 18 79 3b ac 2f d2 3b 00 d8 39 3c 06 d2 39 3c
       0.0038008946 0.0064143743 0.011343002 0.011341577
000170 90 8d 63 b9 df cd 81 3b ec 7b d9 3b fc e0 81 3b
       -0.00021701143 0.0039613093 0.006637087 0.003963588
000180 8b 27 3d 3c 01 1e 79 3b 29 12 3b 3c f7 e8 81 3b
       0.011545072 0.0038012268 0.011417904 0.003964539
000190 45 0b 79 3b b5 54 3d 3c 7f 1e 3d 3c 5a 29 3d 3c
       0.0038001102 0.01155584 0.011542915 0.0115455035
0001a0 76 50 ac b8 8d df 65 38 40 0e 79 3b 89 33 3a 3c
       -8.216586e-05 5.4806053e-05 0.0038002878 0.011364826
0001b0 9d 27 3d 3c 89 97 3b 3c 23 1b 3d 3c 2f 18 79 3b
       0.011545089 0.011449703 0.011542114 0.00380088
0001c0 1f 05 d2 3b b1 1e 82 3b 18 71 7b b7 3c 61 3f 3c
       0.006409302 0.003970944 -1.49870975e-05 0.011680897
0001d0 36 60 b4 b8 dd 25 82 3b bc e9 81 3b fa 51 3d 3c
       -8.6009895e-05 0.003971799 0.003964631 0.011555189
0001e0 2e 33 89 b8 5b 3d 3c 3c 2d 58 3d 3c 51 2e 3d 3c
       -6.542202e-05 0.011489238 0.011556667 0.011546687
0001f0 7d 66 e1 3b 19 d7 43 3c c5 1d 82 3b 01 cd 39 3c
       0.0068786726 0.011953139 0.003970834 0.011340381
000200 da 06 81 bb 66 ab a3 3a 7e cf da 3a b1 da ae 3a
       -0.0039375843 0.0012486994 0.0016693918 0.0013340322
000210 39 41 0a 3b 39 4e 4a 3b e7 b6 78 bb 7b a9 ae 3a
       0.0021096005 0.0030869378 -0.0037950815 0.0013325656
000220 3b ab 0a 38 fb a7 ad 3a 99 05 81 bb b0 d4 a3 3a
       3.3061235e-05 0.0013248915 -0.003937435 0.0012499299
000230 f0 c5 a3 3a 90 2f ae 3a 48 c1 75 bb 92 69 ed 3a
       0.0012494903 0.0013289321 -0.0037499238 0.0018113127
000240 2c d9 a3 3a 77 0c 81 bb 94 fb a7 38 ca c6 f3 3a
       0.0012500635 -0.0039382535 8.0100406e-05 0.0018598672
000250 de a9 c2 b8 c1 65 25 b7 39 d4 a3 3a c4 b8 a4 3a
       -9.282281e-05 -9.858458e-06 0.001249916 0.0012567271
000260 18 81 ad 3a 57 b0 ad 3a e7 a8 4c 3b 9e da a3 3a
       0.0013237325 0.0013251406 0.0031228603 0.0012501066
000270 22 8c 29 3b d2 26 a4 3a ae 90 ad 3a ba d1 47 b9
       0.002587088 0.0012523776 0.001324197 -0.00019056248
000280 44 34 11 3b 02 c5 a3 3a 32 51 47 3b de dc 06 3b
       0.0022156397 0.0012494626 0.0030413386 0.0020578424
000290 49 e2 13 3b 37 b1 ad 3a 6c f8 42 3b 14 d2 a3 3a
       0.0022565296 0.0013251667 0.0029750122 0.0012498521
0002a0 ab c2 ae 3a 6e af 5f b5 63 84 25 3b f2 b3 80 bb
       0.0013333162 -8.332926e-07 0.002525591 -0.003927701
0002b0 5e 75 86 3a 9b da a3 3a 31 3a ae 3a d4 e6 55 3b
       0.0010258367 0.0012501063 0.0013292489 0.0032638805
0002c0 6f 34 ae 3a d8 9e 20 b9 7c 8a 91 38 69 4d 87 b8
       0.0013290773 -0.00015317963 6.9399335e-05 -6.4517204e-05
0002d0 67 12 27 b7 54 c4 80 bb ec 6b 83 b8 71 09 81 bb
       -9.95826e-06 -0.003929654 -6.266669e-05 -0.003937893
0002e0 3e a1 1d 3b 53 d9 a3 3a ea 97 d8 3a 7d e2 a3 3a
       0.0024052407 0.0012500681 0.0016524766 0.0012503412
0002f0 e4 db a3 3a 56 dc a3 3a df f7 c3 3a 1b bc a3 3a
       0.0012501446 0.0012501578 0.0014951191 0.0012491973
000300 5a d8 f2 39 cc de a3 3a 2b 31 ae 3a 6e 64 56 3b
       0.0004631903 0.0012502312 0.00132898 0.003271367
000310 a2 b7 ad 3a e1 b3 a3 3a 30 dc a3 3a 2f e4 a3 3a
       0.0013253579 0.0012489521 0.0012501534 0.0012503917
000320 cb ca 1d 39 ad 90 ac 3a b5 96 c1 39 f8 ae ad 3a
       0.00015048233 0.0013165675 0.00036924114 0.0013250997
000330 0f d9 a3 3a fa 18 3d 3b 07 08 ae 3a b3 0a 19 3b
       0.0012500602 0.0028853999 0.0013277539 0.0023352324
000340 50 3f ae 3a 68 52 53 3b b6 e6 5c b8 6b d9 a3 3a
       0.0013294015 0.0032245163 -5.2666954e-05 0.0012500709
000350 65 41 ae 3a 2e 32 ae 3a c4 8b ad 3a 9f d8 a3 3a
       0.0013294636 0.0013290101 0.0013240506 0.0012500471
000360 a0 d2 a3 3a d0 52 a8 38 e6 23 52 3b a4 36 52 3b
       0.0012498684 8.026289e-05 0.0032064854 0.0032076025
000370 b9 3d 2c b8 df 77 ad 3a 72 21 2d b7 9e a5 ad 3a
       -4.106548e-05 0.0013234577 -1.0319391e-05 0.001324821
000380 5a d8 29 3b 0b d6 a3 3a 69 f1 48 3b aa bb ad 3a
       0.002591631 0.0012499703 0.003066147 0.0013254781
000390 11 c8 a3 3a 34 29 16 3b 4b de 0e 3b 9b 87 27 3b
       0.0012495538 0.0022912743 0.0021799977 0.0025563005
0003a0 d8 42 d8 b8 ca 21 ae 37 14 b8 a3 3a 8f d3 4f 3b
       -0.00010312133 2.075815e-05 0.0012490773 0.0031711792
0003b0 07 57 0d 3b 9c 31 ec 3a 1b 13 0c 3b 15 d6 a3 3a
       0.0021566765 0.0018020156 0.0021373692 0.0012499715
0003c0 f7 29 ae 38 9b 2f ae 3a 05 39 5e 38 cc a1 64 bb
       8.304783e-05 0.0013289334 5.2982028e-05 -0.0034886478
0003d0 86 9f 24 b9 c3 44 ae 3a cd b7 ad 3a 0a a4 15 3b
       -0.00015699686 0.0013295639 0.001325363 0.002283337
0003e0 11 78 98 38 cf e7 f8 3a 0e f1 19 3b 20 5d 26 3b
       7.270289e-05 0.0018989983 0.0023489627 0.0025385097
0003f0 69 dd 01 b9 a4 08 7d bb 93 2c ae 3a 09 79 52 3b
       -0.0001238488 -0.0038609887 0.0013288431 0.00321156

model.2.block.2.bias f4 [128]
000000 a6 92 00 00 a6 ab 00 00 90 ad 00 00 90 ad 00 00
       5.2608e-41 6.1576e-41 6.2262e-41 6.2262e-41
000010 a6 92 00 00 98 72 01 80 90 ad 00 00 98 72 01 80
       5.2608e-41 -1.32944e-40 6.2262e-41 -1.32944e-40
000020 a6 92 00 00 90 ad 00 00 90 ad 00 00 98 72 01 80
       5.2608e-41 6.2262e-41 6.2262e-41 -1.32944e-40
000030 a6 92 00 00 a6 ab 00 00 a6 92 00 00 90 ad 00 00
       5.2608e-41 6.1576e-41 5.2608e-41 6.2262e-41
000040 a6 92 00 00 a6 92 00 00 a6 92 00 00 a6 ab 00 00
       5.2608e-41 5.2608e-41 5.2608e-41 6.1576e-41
000050 f8 27 01 80 a6 92 00 00 a6 92 00 00 a6 ab 00 00
       -1.06174e-40 5.2608e-41 5.2608e-41 6.1576e-41
000060 90 ad 00 00 a6 92 00 00 a6 92 00 00 a6 92 00 00
       6.2262e-41 5.2608e-41 5.2608e-41 5.2608e-41
000070 a6 ab 00 00 a6 92 00 00 a6 92 00 00 a6 92 00 00
       6.1576e-41 5.2608e-41 5.2608e-41 5.2608e-41
000080 a6 92 00 00 a6 92 00 00 90 ad 00 00 a6 92 00 00
       5.2608e-41 5.2608e-41 6.2262e-41 5.2608e-41
000090 2a a9 01 80 90 ad 00 00 a6 92 00 00 a6 92 00 00
       -1.5252e-40 6.2262e-41 5.2608e-41 5.2608e-41
0000a0 98 72 01 80 a6 ab 00 00 a6 92 00 00 a6 92 00 00
       -1.32944e-40 6.1576e-41 5.2608e-41 5.2608e-41
0000b0 98 72 01 80 90 ad 00 00 a6 ab 00 00 a6 92 00 00
       -1.32944e-40 6.2262e-41 6.1576e-41 5.2608e-41
0000c0 2a a9 01 80 a6 92 00 00 a6 92 00 00 a6 92 00 00
       -1.5252e-40 5.2608e-41 5.2608e-41 5.2608e-41
0000d0 a6 92 00 00 a6 92 00 00 a6 92 00 00 2a a9 01 80
       5.2608e-41 5.2608e-41 5.2608e-41 -1.5252e-40
0000e0 a6 92 00 00 a6 92 00 00 a6 92 00 00 90 ad 00 00
       5.2608e-41 5.2608e-41 5.2608e-41 6.2262e-41
0000f0 a6 92 00 00 98 72 01 80 a6 92 00 00 a6 92 00 00
       5.2608e-41 -1.32944e-40 5.2608e-41 5.2608e-41
000100 98 72 01 80 a6 92 00 00 90 ad 00 00 a6 92 00 00
       -1.32944e-40 5.2608e-41 6.2262e-41 5.2608e-41
000110 98 72 01 80 a6 92 00 00 a6 92 00 00 90 ad 00 00
       -1.32944e-40 5.2608e-41 5.2608e-41 6.2262e-41
000120 a6 92 00 00 a6 92 00 00 a6 92 00 00 a6 92 00 00
       5.2608e-41 5.2608e-41 5.2608e-41 5.2608e-41
000130 90 ad 00 00 a6 92 00 00 a6 92 00 00 a6 92 00 00
       6.2262e-41 5.2608e-41 5.2608e-41 5.2608e-41
000140 90 ad 00 00 a6 92 00 00 90 ad 00 00 98 72 01 80
       6.2262e-41 5.2608e-41 6.2262e-41 -1.32944e-40
000150 90 ad 00 00 a6 92 00 00 90 ad 00 00 a6 92 00 00
       6.2262e-41 5.2608e-41 6.2262e-41 5.2608e-41
000160 90 ad 00 00 90 ad 00 00 a6 92 00 00 90 ad 00 00
       6.2262e-41 6.2262e-41 5.2608e-41 6.2262e-41
000170 90 ad 00 00 a6 92 00 00 a6 92 00 00 90 ad 00 00
       6.2262e-41 5.2608e-41 5.2608e-41 6.2262e-41
000180 a6 92 00 00 98 72 01 80 98 72 01 80 a6 92 00 00
       5.2608e-41 -1.32944e-40 -1.32944e-40 5.2608e-41
000190 a6 92 00 00 a6 92 00 00 a6 92 00 00 a6 92 00 00
       5.2608e-41 5.2608e-41 5.2608e-41 5.2608e-41
0001a0 90 ad 00 00 2a a9 01 80 90 ad 00 00 a6 92 00 00
       6.2262e-41 -1.5252e-40 6.2262e-41 5.2608e-41
0001b0 a6 92 00 00 a6 92 00 00 a6 92 00 00 a6 92 00 00
       5.2608e-41 5.2608e-41 5.2608e-41 5.2608e-41
0001c0 a6 ab 00 00 a6 92 00 00 90 ad 00 00 98 72 01 80
       6.1576e-41 5.2608e-41 6.2262e-41 -1.32944e-40
0001d0 a6 92 00 00 2a a9 01 80 a6 92 00 00 a6 92 00 00
       5.2608e-41 -1.5252e-40 5.2608e-41 5.2608e-41
0001e0 a6 92 00 00 a6 ab 00 00 90 ad 00 00 90 ad 00 00
       5.2608e-41 6.1576e-41 6.2262e-41 6.2262e-41
0001f0 a6 92 00 00 a6 92 00 00 a6 92 00 00 a6 92 00 00
       5.2608e-41 5.2608e-41 5.2608e-41 5.2608e-41

model.4.block.0.weight f4 [128, 128]
000000 74 df 30 38 62 b4 95 37 f6 a5 91 37 4e 6b 9c 37
       4.2169777e-05 1.7846181e-05 1.7362629e-05 1.8646617e-05
000010 da f9 2d 38 b7 8d 30 38 59 7a 91 37 bd 96 2f 38
       4.1479107e-05 4.2093652e-05 1.734232e-05 4.1863637e-05
000020 1e d4 2f 38 de ec 98 37 e0 82 7f 37 a9 9e 2c 38
       4.19208e-05 1.8230112e-05 1.5229656e-05 4.115576e-05
000030 dc 3b 2f 38 c2 ef 8f 37 e6 37 2f 38 c6 22 96 37
       4.1779e-05 1.7158574e-05 4.177531e-05 1.7897586e-05
000040 9a 83 2a 38 2a 6a 30 38 4f f0 2f 38 76 cf 97 37
       4.0653722e-05 4.2060543e-05 4.1947056e-05 1.809721e-05
000050 42 b1 31 38 dd 8f 2c 38 71 3f 2d 38 8f e5 99 37
       4.2365173e-05 4.114198e-05 4.13055e-05 1.8345918e-05
000060 d1 39 7f 37 61 63 2f 38 85 04 2e 38 dd ff 2f 38
       1.5212646e-05 4.1815805e-05 4.1489042e-05 4.1961543e-05
000070 f4 c4 88 37 64 29 2c 38 a4 08 30 38 b3 0d 29 38
       1.6304177e-05 4.1046544e-05 4.1969717e-05 4.03055e-05
000080 d2 b7 30 38 8b 95 2e 38 62 c6 82 37 b1 1b 30 38
       4.2132866e-05 4.1624106e-05 1.5589587e-05 4.198746e-05
000090 3b 41 30 38 c5 ae 94 37 2e 21 30 38 09 fd 2f 38
       4.202242e-05 1.7724358e-05 4.199257e-05 4.195891e-05
0000a0 5d 5d 30 38 c0 be 9f 37 8d 7d 2f 38 cd 1f 2b 38
       4.204862e-05 1.9043102e-05 4.184018e-05 4.0799194e-05
0000b0 cd f9 2d 38 ce 66 8d 37 be 7d 7e 37 6d fd 2f 38
       4.147906e-05 1.6856382e-05 1.5168856e-05 4.1959272e-05
0000c0 fa 3b 2f 38 03 d1 30 38 7d 43 2d 38 04 be 1b 38
       4.177911e-05 4.2156327e-05 4.1309268e-05 3.7131846e-05
0000d0 f2 96 30 38 64 59 2c 38 8d 8a 30 38 f3 39 30 38
       4.210225e-05 4.1091247e-05 4.2090705e-05 4.201564e-05
0000e0 24 7d 30 38 06 9d 30 38 19 1b 2d 38 4a 7d 93 37
       4.2078216e-05 4.210791e-05 4.127165e-05 1.7582108e-05
0000f0 1a 84 2d 38 63 75 30 38 ed eb 2a 38 6c 1e 31 38
       4.1369443e-05 4.2070995e-05 4.075088e-05 4.222842e-05
000100 3a a6 2d 38 e7 96 2c 38 0e de 81 37 04 0b 2c 38
       4.1401225e-05 4.1148534e-05 1.54814e-05 4.1018255e-05
000110 53 7e 2e 38 ca 0c 2c 38 28 52 2d 38 fe 5d 91 37
       4.160248e-05 4.1019906e-05 4.1322928e-05 1.7329116e-05
000120 b7 16 19 38 10 65 30 38 10 9a 19 38 29 26 2f 38
       3.6499197e-05 4.205579e-05 3.6621524e-05 4.175879e-05
000130 bc 43 81 37 94 21 30 38 44 a5 2f 38 09 01 31 38
       1.540954e-05 4.1992942e-05 4.1877167e-05 4.2201053e-05
000140 59 42 81 37 97 30 2f 38 e1 36 87 37 32 e8 30 38
       1.5408894e-05 4.1768504e-05 1.6118809e-05 4.217792e-05
000150 ec 15 92 37 bb a4 2f 38 a2 bd 81 37 65 18 30 38
       1.7414764e-05 4.187667e-05 1.5466303e-05 4.198439e-05
000160 a8 b7 80 37 45 1d 81 37 55 ac 2f 38 bd 34 93 37
       1.534431e-05 1.5391628e-05 4.1883748e-05 1.7548324e-05
000170 5e e2 81 37 85 89 2f 38 e8 1c 30 38 de ec 9f 37
       1.5483409e-05 4.1851326e-05 4.198859e-05 1.9064577e-05
000180 72 51 2c 38 3a 6e 30 38 0a 67 22 38 49 5f 2a 38
       4.1083847e-05 4.2064326e-05 3.8719772e-05 4.06199e-05
000190 9b bb 30 38 76 5c 30 38 6b 37 30 38 04 7a 30 38
       4.213639e-05 4.204778e-05 4.2013282e-05 4.2075306e-05
0001a0 2d 2d 7d 37 46 21 2c 38 f2 43 2c 38 de c4 30 38
       1.5090493e-05 4.1038984e-05 4.1071275e-05 4.2145017e-05
0001b0 ea 87 2e 38 6e 3e 2b 38 ab 6e 2f 38 63 05 2e 38
       4.1611413e-05 4.082772e-05 4.182632e-05 4.148985e-05
0001c0 87 bd 7e 37 32 db 2f 38 9f ed 95 37 89 90 30 38
       1.5183708e-05 4.1927393e-05 1.7872835e-05 4.209628e-05
0001d0 6a f3 2d 38 19 40 30 38 56 57 2c 38 87 17 2e 38
       4.147311e-05 4.2021366e-05 4.1089334e-05 4.1506744e-05
0001e0 5f 9e 30 38 a6 69 92 37 35 9e 7d 37 76 da 80 37
       4.2109164e-05 1.7453753e-05 1.5116811e-05 1.5360518e-05
0001f0 a1 04 2c 38 ec 43 2d 38 59 7a 30 38 16 96 2e 38
       4.1012307e-05 4.130967e-05 4.2075615e-05 4.162461e-05
000200 64 90 62 b7 87 31 9f 37 53 74 a1 37 a8 98 9a 37
       -1.3504268e-05 1.897734e-05 1.9246863e-05 1.8429317e-05
000210 da b6 65 b7 7d c5 62 b7 93 70 a1 37 bf c4 63 b7
       -1.3692037e-05 -1.3516631e-05 1.9245117e-05 -1.3576063e-05
000220 59 80 63 b7 e1 16 9d 37 44 95 ac 37 02 29 67 b7
       -1.3560138e-05 1.8726512e-05 2.0573505e-05 -1.3778221e-05
000230 8e 3b 64 b7 4d 71 a2 37 06 2c 64 b7 36 9d 9e 37
       -1.3603725e-05 1.9364665e-05 -1.3600109e-05 1.8908275e-05
000240 dc 7d 69 b7 11 03 63 b7 a6 7f 63 b7 fb 95 9d 37
       -1.3917186e-05 -1.3530968e-05 -1.3559975e-05 1.8785699e-05
000250 34 7e 61 b7 d8 19 67 b7 4d 46 66 b7 19 3e 9c 37
       -1.3440429e-05 -1.377469e-05 -1.37254365e-05 1.8625566e-05
000260 87 9d ac 37 40 21 64 b7 5e a0 65 b7 76 62 63 b7
       2.0577352e-05 -1.3597601e-05 -1.3686802e-05 -1.3553179e-05
000270 cd ca a6 37 33 a4 67 b7 c1 31 63 b7 41 e2 6a b7
       1.9883179e-05 -1.3806904e-05 -1.3541839e-05 -1.4000166e-05
000280 ad b2 62 b7 78 e1 64 b7 d4 b5 aa 37 01 58 63 b7
       -1.3512251e-05 -1.3642355e-05 2.035025e-05 -1.3550744e-05
000290 80 2a 63 b7 af 75 9f 37 94 26 63 b7 50 58 63 b7
       -1.354015e-05 1.9009078e-05 -1.35392365e-05 -1.3550816e-05
0002a0 16 03 63 b7 84 bf 98 37 bb 04 64 b7 fe b0 68 b7
       -1.3530973e-05 1.8208993e-05 -1.359096e-05 -1.3869487e-05
0002b0 6c 6f 65 b7 ae 13 a4 37 a5 d6 ac 37 62 66 63 b7
       -1.3675406e-05 1.9559488e-05 2.060395e-05 -1.3554092e-05
0002c0 21 44 64 b7 74 76 62 b7 f9 81 66 b7 40 eb 78 b7
       -1.36057215e-05 -1.3498229e-05 -1.373933e-05 -1.4836725e-05
0002d0 e7 bf 62 b7 6f 4d 67 b7 24 e5 62 b7 38 12 63 b7
       -1.35153305e-05 -1.3786702e-05 -1.3524001e-05 -1.3534496e-05
0002e0 09 d4 62 b7 ea c9 62 b7 25 8c 66 b7 31 39 a0 37
       -1.3520018e-05 -1.35176615e-05 -1.3741698e-05 1.9100118e-05
0002f0 b3 41 66 b7 6a f0 62 b7 f5 e7 68 b7 92 25 62 b7
       -1.3724365e-05 -1.35266255e-05 -1.3882284e-05 -1.3479397e-05
000300 33 06 66 b7 66 08 67 b7 4b 2a ab 37 f3 d0 67 b7
       -1.3710512e-05 -1.3770628e-05 2.0404483e-05 -1.3817323e-05
000310 8b d4 64 b7 d6 db 67 b7 5b 42 66 b7 e8 b6 a1 37
       -1.36393455e-05 -1.38198575e-05 -1.3724518e-05 1.9277868e-05
000320 21 11 7c b7 97 ee 62 b7 bf 84 7b b7 17 17 64 b7
       -1.5024359e-05 -1.3526201e-05 -1.4991673e-05 -1.3595235e-05
000330 8f d4 ab 37 70 3a 63 b7 cb ba 63 b7 8a 56 62 b7
       2.0483769e-05 -1.354386e-05 -1.35737455e-05 -1.3490799e-05
000340 44 8c ab 37 db 36 64 b7 4f de a7 37 5a 67 62 b7
       2.0450105e-05 -1.3602631e-05 2.0011472e-05 -1.3494713e-05
000350 6c 19 a1 37 2b d9 63 b7 60 3e ab 37 9c 2e 63 b7
       1.9204534e-05 -1.3580818e-05 2.0413834e-05 -1.35411065e-05
000360 ec d9 ab 37 13 a7 ab 37 9d e0 63 b7 9b 71 a0 37
       2.0486266e-05 2.0462589e-05 -1.3582551e-05 1.9126388e-05
000370 da 3f ab 37 cf d0 63 b7 0b 64 63 b7 60 80 98 37
       2.0414522e-05 -1.3578871e-05 -1.3553547e-05 1.8179591e-05
000380 5b 63 67 b7 2a 06 63 b7 17 2d 72 b7 7c 7f 69 b7
       -1.3791806e-05 -1.353169e-05 -1.4434822e-05 -1.39175645e-05
000390 fd 8e 62 b7 8c 27 63 b7 55 46 63 b7 51 f5 62 b7
       -1.3503942e-05 -1.3539462e-05 -1.354663e-05 -1.3527767e-05
0003a0 b8 76 ad 37 55 ae 67 b7 03 7a 67 b7 4b 8d 62 b7
       2.067849e-05 -1.3809263e-05 -1.3797081e-05 -1.3503547e-05
0003b0 51 26 65 b7 05 b7 68 b7 79 0c 64 b7 69 a2 65 b7
       -1.3658385e-05 -1.387089e-05 -1.3592763e-05 -1.3687278e-05
0003c0 ac c2 ac 37 d6 9b 63 b7 8a b5 9e 37 9f c8 62 b7
       2.0594649e-05 -1.3566538e-05 1.8919603e-05 -1.35173605e-05
0003d0 b2 73 65 b7 5f 26 63 b7 a5 60 67 b7 b3 62 65 b7
       -1.3676401e-05 -1.3539188e-05 -1.3791175e-05 -1.3672444e-05
0003e0 34 da 62 b7 59 1d a1 37 f9 15 ad 37 4a c3 ab 37
       -1.3521454e-05 1.9206362e-05 2.0633439e-05 2.0475727e-05
0003f0 a7 d5 67 b7 94 67 66 b7 67 02 63 b7 7d 20 65 b7
       -1.3818418e-05 -1.37331845e-05 -1.3530814e-05 -1.3657028e-05

model.4.block.0.bias f4 [128]
000000 bc 37 01 00 60 94 00 00 c0 ba 01 80 f2 e8 00 00
       1.11829e-40 5.3227e-41 -1.58829e-40 8.3565e-41
000010 c0 ba 01 80 48 48 01 80 c0 ba 01 80 60 94 00 00
       -1.58829e-40 -1.17765e-40 -1.58829e-40 5.3227e-41
000020 c0 ba 01 80 76 2e 01 00 60 94 00 00 ee a7 01 00
       -1.58829e-40 1.08503e-40 5.3227e-41 1.52077e-40
000030 28 ee 01 80 60 94 00 00 76 2e 01 00 60 94 00 00
       -1.7727e-40 5.3227e-41 1.08503e-40 5.3227e-41
000040 f2 e8 00 00 c0 ba 01 80 28 ee 01 80 76 e1 00 00
       8.3565e-41 -1.58829e-40 -1.7727e-40 8.088e-41
000050 9e 05 02 80 60 94 00 00 54 aa 00 00 ee a7 01 00
       -1.85686e-40 5.3227e-41 6.1102e-41 1.52077e-40
000060 76 e1 00 00 10 be 01 80 ec 79 01 00 b0 f1 01 00
       8.088e-41 -1.60017e-40 1.35573e-40 1.78537e-40
000070 28 ee 01 80 76 2e 01 00 9e 05 02 80 92 17 02 00
       -1.7727e-40 1.08503e-40 -1.85686e-40 1.92126e-40
000080 c6 68 01 00 60 94 00 00 54 aa 00 80 c0 ba 01 80
       1.29421e-40 5.3227e-41 -6.1102e-41 -1.58829e-40
000090 c0 ba 01 80 28 ee 01 80 76 2e 01 00 c0 ba 01 80
       -1.58829e-40 -1.7727e-40 1.08503e-40 -1.58829e-40
0000a0 b0 f1 01 00 b0 f1 01 80 76 2e 01 00 88 06 00 00
       1.78537e-40 -1.78537e-40 1.08503e-40 2.343e-42
0000b0 c0 ba 01 80 60 94 00 00 88 06 00 00 98 f4 01 00
       -1.58829e-40 5.3227e-41 2.343e-42 1.79579e-40
0000c0 76 2e 01 00 88 06 00 00 54 aa 00 80 c0 ba 01 80
       1.08503e-40 2.343e-42 -6.1102e-41 -1.58829e-40
0000d0 bc 37 01 00 92 17 02 00 20 a7 01 00 76 e1 00 00
       1.11829e-40 1.92126e-40 1.51789e-40 8.088e-41
0000e0 48 48 01 80 88 06 00 00 88 06 00 00 bc 8b 00 00
       -1.17765e-40 2.343e-42 2.343e-42 5.0127e-41
0000f0 92 17 02 00 88 06 00 00 ee a7 01 00 88 06 00 00
       1.92126e-40 2.343e-42 1.52077e-40 2.343e-42
000100 88 06 00 00 76 2e 01 00 60 94 00 00 88 06 00 00
       2.343e-42 1.08503e-40 5.3227e-41 2.343e-42
000110 60 94 00 00 92 17 02 00 60 94 00 00 60 94 00 00
       5.3227e-41 1.92126e-40 5.3227e-41 5.3227e-41
000120 92 17 02 00 28 ee 01 80 76 e1 00 00 92 17 02 00
       1.92126e-40 -1.7727e-40 8.088e-41 1.92126e-40
000130 f2 e8 00 00 9e 05 02 80 ee a7 01 00 28 ee 01 80
       8.3565e-41 -1.85686e-40 1.52077e-40 -1.7727e-40
000140 88 06 00 00 bc 37 01 00 ac 24 01 00 92 17 02 00
       2.343e-42 1.11829e-40 1.04991e-40 1.92126e-40
000150 ee a7 01 00 22 89 00 80 76 2e 01 80 f2 e8 00 00
       1.52077e-40 -4.9194e-41 -1.08503e-40 8.3565e-41
000160 76 2e 01 00 9e 05 02 80 c4 31 01 00 34 33 00 00
       1.08503e-40 -1.85686e-40 1.09688e-40 1.8368e-41
000170 88 06 00 00 9e 05 02 80 76 e1 00 00 9e 05 02 80
       2.343e-42 -1.85686e-40 8.088e-41 -1.85686e-40
000180 92 17 02 00 60 94 00 00 ee a7 01 00 ac 24 01 00
       1.92126e-40 5.3227e-41 1.52077e-40 1.04991e-40
000190 88 06 00 00 98 5c 01 80 76 e1 00 00 f2 e8 00 00
       2.343e-42 -1.25052e-40 8.088e-41 8.3565e-41
0001a0 94 2d 01 80 c6 68 01 00 76 e1 00 00 92 17 02 00
       -1.08186e-40 1.29421e-40 8.088e-41 1.92126e-40
0001b0 5e 30 00 80 f2 e8 00 00 f2 e8 00 00 ee a7 01 00
       -1.7351e-41 8.3565e-41 8.3565e-41 1.52077e-40
0001c0 88 06 00 00 92 17 02 00 20 a7 01 00 ac 46 01 80
       2.343e-42 1.92126e-40 1.51789e-40 -1.17188e-40
0001d0 60 94 00 00 c0 ba 01 80 ac 24 01 00 ee a7 01 00
       5.3227e-41 -1.58829e-40 1.04991e-40 1.52077e-40
0001e0 ee a7 01 00 76 e1 00 00 ee a7 01 00 76 2e 01 00
       1.52077e-40 8.088e-41 1.52077e-40 1.08503e-40
0001f0 f2 e8 00 00 88 06 00 00 ec 79 01 00 9e 05 02 80
       8.3565e-41 2.343e-42 1.35573e-40 -1.85686e-40

model.4.block.2.weight f4 [128, 128]
000000 56 55 d1 b8 dc 2c 8d 36 b0 78 36 39 5f 7c 8e 36
       -9.981792e-05 4.20735e-06 0.00017401832 4.2464085e-06
000010 da fe 3f 3c bc 47 a2 3b 81 4b d3 38 61 97 b1 38
       0.011718476 0.004952399 0.00010075328 8.468214e-05
000020 94 fe 3f 3c 0a d2 47 3c 3c 40 7e 39 b4 2a 3f 3c
       0.011718411 0.012196073 0.00024247257 0.011667896
000030 c2 86 a7 b7 5c a2 cd b8 b8 ac 2f b9 9d 7b 3c 38
       -1.9970703e-05 -9.8054035e-05 -0.00016753643 4.4937817e-05
000040 96 a3 ba 38 cc ff 3f 3c 9a ac 4f 3b 7f 2e a7 b8
       8.8996414e-05 0.011718702 0.0031688572 -7.971841e-05
000050 6d c8 04 b9 69 70 ab 3b d3 1b b5 3b b1 ff 3f 3c
       -0.00012663165 0.005231906 0.0055269985 0.011718676
000060 3e 0f 1a b8 22 a2 49 3c 5f 23 bb 39 d1 49 43 3c
       -3.6730657e-05 0.012306722 0.00035693773 0.011919455
000070 69 68 6f 39 39 8b 56 b7 b3 d9 13 39 94 08 40 3c
       0.00022831712 -1.2787809e-05 0.00014100112 0.011720795
000080 50 88 a2 38 68 56 b9 b8 92 d9 98 3b b3 01 40 3c
       7.750152e-05 -8.837582e-05 0.0046646083 0.011719155
000090 bc 00 40 3c 3a 18 40 3c 39 08 b9 37 fa 24 0c b9
       0.011718925 0.011724526 2.2057548e-05 -0.00013365215
0000a0 f5 09 4f 3c 9d ae 4d 3c dd 4d 6c b9 0d 9c 83 b6
       0.012636651 0.012553838 -0.0002253572 -3.922271e-06
0000b0 5f d3 8e 3b 54 9d 69 b7 f1 93 80 b9 f9 db f6 3b
       0.0043586935 -1.3924513e-05 -0.00024524287 0.007533547
0000c0 07 e9 f9 3b 9a ea 38 38 ad 42 a2 3b 86 4c 8e 3b
       0.007626656 4.408751e-05 0.004951796 0.0043426184
0000d0 1b dc a5 b8 97 05 40 3c 71 06 40 3c 01 a5 b4 39
       -7.908811e-05 0.011720083 0.011720286 0.00034455213
0000e0 47 bb 40 3b 11 c1 d5 b5 c5 d2 94 b9 bc d6 31 b7
       0.00294085 -1.5925926e-06 -0.00028385795 -1.0600019e-05
0000f0 e1 06 40 3c 5d 05 24 39 3c 00 40 3c 21 76 d6 38
       0.01172039 0.00015642257 0.011718806 0.000102263184
000100 f1 05 98 38 34 d6 b7 b6 6f 27 e3 39 22 d0 04 36
       7.2490315e-05 -5.4787615e-06 0.00043326194 1.9790682e-06
000110 16 e5 03 b9 3c 9a 4e 3c b3 76 ab 3b ee 59 f2 b8
       -0.00012578475 0.0126100145 0.005232656 -0.0001155621
000120 91 dc f6 3b 18 6d 88 b8 2a 83 01 3a c7 11 53 3c
       0.007533618 -6.505306e-05 0.00049405044 0.012882656
000130 c7 e5 96 b8 13 4a 5c 36 7c 01 40 3c cd 55 48 3c
       -7.195357e-05 3.2825671e-06 0.011719104 0.012227488
000140 93 2c e5 38 bd 08 11 b9 52 0e 91 3b c2 4d b2 3b
       0.000109278735 -0.00013831533 0.004426756 0.0054413984
000150 f0 01 40 3c f4 15 99 3b 38 b6 97 3b 2f 5c 9f 38
       0.011719212 0.0046718065 0.0046298765 7.598881e-05
000160 0f c0 23 39 ec 45 16 39 14 d0 52 3b 41 ca 01 37
       0.00015616439 0.00014331163 0.0032167481 7.73609e-06
000170 83 de 7d b9 d6 ff f9 3b 6a ca 84 b7 de e6 f9 3b
       -0.00024210852 0.007629375 -1.5829883e-05 0.0076263985
000180 64 d2 f9 3b 8a 9e ab 3b 30 00 40 3c 97 56 51 3c
       0.0076239575 0.005237405 0.011718795 0.012776992
000190 27 f9 35 38 6e 1c 8e 3b d6 46 95 b8 36 32 39 38
       4.3385804e-05 0.004336885 -7.118068e-05 4.41542e-05
0001a0 54 36 a8 3b b0 ca 11 38 9a 36 ad 37 98 6f 53 3c
       0.0051334295 3.475946e-05 2.0648633e-05 0.012905024
0001b0 a9 91 8a 38 5b a9 4a 39 21 f3 8b 38 2c 01 40 3c
       6.607484e-05 0.00019327311 6.673323e-05 0.011719029
0001c0 c6 23 7f 38 df 06 40 3c 8c 07 40 3c 72 2f 02 3a
       6.0830054e-05 0.011720388 0.011720549 0.00049661763
0001d0 65 a4 47 3c 81 aa fa b7 5c b5 b2 3b ca ff 3f 3c
       0.012185191 -2.988172e-05 0.0054537486 0.0117187
0001e0 71 ff 3f 3c ff 25 ac b8 e2 01 40 3c 69 55 e4 38
       0.011718617 -8.2086764e-05 0.011719199 0.00010887796
0001f0 0c f1 c5 b7 39 93 38 39 3a be cb b8 5e dd 4b 3c
       -2.3596476e-05 0.00017602452 -9.715227e-05 0.012442915
000200 de 4b c1 b7 76 86 a0 b6 f6 4a cb b8 41 9e 9c 36
       -2.3042721e-05 -4.784025e-06 -9.693757e-05 4.6675855e-06
000210 98 48 7f bb 9b b7 8d 37 7e 58 7b b8 ea 66 55 b8
       -0.0038953181 1.6894008e-05 -5.9925478e-05 -5.0879004e-05
000220 8f 3e 7f bb e8 38 8d bb b6 4d 68 b8 1b 34 7c bb
       -0.00389472 -0.0043097623 -5.5385484e-05 -0.0038483206
000230 7a 46 38 38 99 93 25 39 49 5a f3 38 b4 22 c7 b8
       4.3934655e-05 0.0001579061 0.0001160396 -9.4955234e-05
000240 5e f1 bd 38 2c 3f 7f bb 16 0f 4c 39 13 48 ec 37
       9.0571804e-05 -0.0038947565 0.00019460576 2.8166955e-05
000250 34 dc f4 b8 4d 6d 76 b8 a7 33 1b b9 60 47 7f bb
       -0.00011675843 -5.8752765e-05 -0.00014801194 -0.0038952455
000260 e6 97 10 38 e4 4b 9f 3a aa fc 9b 37 a2 f7 8a 3a
       3.4473742e-05 0.0012153354 1.8595096e-05 0.0010602365
000270 34 56 35 b8 65 6e 11 38 46 cd 3b 38 cd 5f 7f bb
       -4.3234046e-05 3.4673507e-05 4.477545e-05 -0.0038967014
000280 27 a0 dd 34 2d 85 fd 36 d6 01 85 3a b0 4e 7f bb
       4.1280984e-07 7.5554913e-06 0.0010147642 -0.0038956814
000290 15 46 7f bb 1b 91 7f bb fd b2 19 b9 17 56 4a b8
       -0.0038951684 -0.0038996402 -0.00014657895 -4.824073e-05
0002a0 d8 7e c8 3a 64 42 ba 3a 3a dd bc b8 ef b6 0c b9
       0.0015296591 0.001421046 -9.005745e-05 -0.00013419589
0002b0 0a 32 75 3a 02 b7 4b 38 42 7e e7 38 c0 56 89 ba
       0.00093534647 4.856941e-05 0.00011038456 -0.0010478124
0002c0 d3 7e 8f ba c5 e3 87 38 c0 ea 8c 37 1a 21 71 3a
       -0.0010947831 6.479727e-05 1.6798615e-05 0.0009198353
0002d0 84 be 4a 38 d0 57 7f bb fe 58 7f bb 4b b2 87 37
       4.8337984e-05 -0.0038962252 -0.0038962956 1.6176278e-05
0002e0 96 2c c1 39 75 6e 57 b6 c0 3a 96 38 e4 e7 57 38
       0.00036845048 -3.210179e-06 7.1635004e-05 5.147596e-05
0002f0 49 5a 7f bb 24 a7 f9 38 aa 53 7f bb ad 50 81 b8
       -0.0038963726 0.000119043776 -0.003895978 -6.1662264e-05
000300 ee 5b 44 b8 0d 71 a3 b5 8b c6 13 38 84 60 1a b7
       -4.6815658e-05 -1.2177348e-06 3.523244e-05 -9.201587e-06
000310 29 73 cb 38 20 c7 c3 3a 0b 32 77 b8 3d 11 31 37
       9.7012446e-05 0.0014936663 -5.8935995e-05 1.0554036e-05
000320 cc 60 89 ba 6b 01 98 38 8d 56 7e 38 c4 48 10 3b
       -0.0010481118 7.248189e-05 6.0638926e-05 0.0022016028
000330 eb 8c 9c 38 92 39 b1 37 74 4e 7f bb f0 2b 8e bb
       7.464908e-05 2.1126853e-05 -0.0038956674 -0.004338734
000340 5c 9b 19 39 13 ca da 38 b5 92 01 39 13 62 9d 3a
       0.00014649093 0.00010432689 0.00012357051 0.0012007378
000350 96 4e 7f bb d9 7e 85 3a 45 a1 82 3a b5 bc 0b 39
       -0.0038956753 0.0010184898 0.0009966275 0.00013326372
000360 08 af 3e b8 46 4d 83 37 ee 6a 49 39 15 b8 0c b7
       -4.546254e-05 1.56524e-05 0.00019208688 -8.38751e-06
000370 96 79 bf 38 74 a9 8f ba 1a 73 1a 38 1b 79 8f ba
       9.130237e-05 -0.0010960535 3.6823658e-05 -0.0010946126
000380 19 f3 8e ba 5e 9a 7d b8 a3 4b 7f bb aa ce ec 3a
       -0.0010906189 -6.0463666e-05 -0.0038954995 0.0018066962
000390 04 c1 56 b8 e5 d5 71 3a 7e d2 05 38 43 17 7d b8
       -5.1201336e-05 0.0009225293 3.1905707e-05 -6.0341565e-05
0003a0 28 14 01 b8 4d f7 c3 38 30 44 03 b9 68 c9 1c 3b
       -3.077477e-05 9.344388e-05 -0.00012518535 0.0023923758
0003b0 85 bd b4 b7 c7 53 61 b8 54 58 30 b8 14 48 7f bb
       -2.1545924e-05 -5.3722204e-05 -4.2043932e-05 -0.0038952874
0003c0 99 fa b7 b8 bb 5b 7f bb b0 5a 7f bb 90 37 c6 38
       -8.7727974e-05 -0.0038964588 -0.0038963966 9.451725e-05
0003d0 5e 0d 8d bb 4e 1d 86 38 9a b0 08 b9 6a 49 7f bb
       -0.004304572 6.395076e-05 -0.0001303576 -0.003895367
0003e0 1e 49 7f bb 58 9e 94 38 bb 4a 7f bb 29 bd 20 39
       -0.0038953493 7.086684e-05 -0.0038954455 0.00015329257
0003f0 71 a7 c4 b7 d9 48 97 38 6f 01 13 38 8e 00 95 bb
       -2.3442992e-05 7.21381e-05 3.5048866e-05 -0.0045471853
