wgan_results/gum/resnet/generator.pth (torch_old, 429765 bytes, 55 tensors)

model.0.weight f4 [128, 1]
0.03604819 -0.018039508 0.025925128 0.032565076 0.017087482 -0.023519514 0.018418195 -0.0006673465
-0.022035867 0.03259501 0.025769766 -0.00922119 0.025824953 -0.016311698 -0.025756424 0.030455358
-0.020013804 -0.010439103 0.010363256 0.018827185 0.021286659 0.021806868 0.030509708 -0.014864451
-0.022827601 0.01671345 0.014480606 -0.024301095 0.019253967 0.023958247 -0.027829578 -0.015732327
0.021224888 0.023668397 -0.0062455386 0.019848937 0.022560073 0.017997513 0.026802815 0.016842974
0.015883766 -0.020647505 -0.008769774 -0.016895344 -0.024688557 0.023128627 0.0140861 -0.017147431
-0.010837515 0.023533694 -0.018269671 0.019772734 0.022498587 0.016314339 0.01713933 0.025265675
-0.02646955 -0.026281947 -0.026963174 -0.015036512 0.008726084 0.026937906 0.01850694 0.033102702
-0.020511005 -0.026831914 -0.014350796 0.017779835 0.01909582 0.014266553 0.012145345 0.02538926
-0.025905829 0.020941623 -0.014080754 0.027911594 0.02044567 -0.0029499864 0.018698473 0.030638004
-0.019348929 0.01642542 -0.029236931 -0.012742956 0.0121442005 0.023731014 0.023140725 -0.014069944
-0.018022776 0.024966558 -0.019050987 -0.023839416 0.01474485 -0.017707389 0.021264516 0.017642716
-0.0056085056 -0.01859444 -0.014656534 0.025997164 0.011527915 -0.009509817 -0.01974632 0.0206656
0.023724057 0.023635779 0.023124151 0.018353725 -0.012948373 0.019295365 -0.011682968 0.020504989
0.019224716 -0.021418763 -0.020653691 0.0061525246 -0.02152705 -0.023365233 -0.015859347 -0.0178769
-0.02157684 0.025276259 -0.01864403 0.016280437 0.004606636 -0.028146809 -0.021723691 -0.011755703
00000000: 44a7 133d 97c7 93bc ef60 d43c f562 053d
00000010: 0cfb 8b3c ffab c0bc c1e1 963c def0 2eba
00000020: 9084 b4bc 5882 053d 1e1b d33c 7914 17bc
00000030: da8e d33c 1ca0 85bc 23ff d2bc 847d f93c
00000040: fdf3 a3bc c508 2bbc a5ca 293c 783b 9a3c
00000050: 5c61 ae3c 51a4 b23c 7fef f93c 078a 73bc
00000060: f300 bbbc a5ea 883c 1040 6d3c 1713 c7bc
00000070: 7fba 9d3c 1644 c43c dbfa e3bc 15e1 80bc
00000080: d1df ad3c 3ae4 c13c 60a7 ccbb 3d9a a23c
00000090: e7cf b83c 856f 933c 9491 db3c 47fa 893c
000000a0: ac1e 823c f524 a9bc 19af 0fbc 1b68 8abc
000000b0: a83f cabc 3f78 bd3c 63c9 663c c578 8cbc
000000c0: d58f 31bc bcc9 c03c 47aa 95bc 6efa a13c
000000d0: f54e b83c a6a5 853c c867 8c3c f6f9 ce3c
000000e0: abd6 d8bc 3d4d d7bc e0e1 dcbc b45b 76bc
000000f0: d9f7 0e3c e2ac dc3c de9b 973c b396 073d
00000100: b206 a8bc 9ace dbbc 9a1f 6bbc 04a7 913c
00000110: d66e 9c3c 43be 693c 45fd 463c 23fd cf3c
00000120: 7638 d4bc c48d ab3c f6b2 66bc dba6 e43c
00000130: ad7d a73c 8f54 41bb 8a2d 993c 8dfc fa3c
00000140: a581 9ebc 9a8e 863c 4a82 efbc d5c7 50bc
00000150: 78f8 463c 8b67 c23c 9e91 bd3c 9f85 66bc
00000160: 80a4 93bc ab86 cc3c d110 9cbc e14a c3bc
00000170: 6294 713c 160f 91bc ec32 ae3c 7587 903c
00000180: 8ec7 b7bb 5e53 98bc f621 70bc 01f8 d43c
00000190: 94df 3c3c 10cf 1bbc 09c3 a1bc e84a a93c
000001a0: f458 c23c d29f c13c dc6e bd3c 8d5a 963c
000001b0: 6a25 54bc 5011 9e3c eb69 3fbc 14fa a73c
000001c0: 277d 9d3c 6776 afbc ee31 a9bc 1e9b c93b
000001d0: 7f59 b0bc 7268 bfbc 76eb 81bc 9472 92bc
000001e0: eac1 b0bc 2810 cf3c 5dbb 98bc 8d5e 853c
000001f0: 43f3 963b 2394 e6bc e2f5 b1bc fe9a 40bc

model.0.bias f4 [128]
1.7004444e-05 -1.1724603e-05 5.481023e-06 -4.975063e-06 -9.483978e-06 3.5603757e-06 -3.3094775e-06 3.7990027e-08
-2.1844911e-05 5.6228187e-06 -2.1758684e-05 -3.2438562e-05 -4.210225e-05 -4.4767592e-05 -4.5389397e-06 -2.1219672e-05
1.4797598e-06 -4.1134877e-05 1.8277506e-05 8.309314e-06 6.5540867e-06 -3.3764868e-06 3.0329034e-06 8.601636e-05
7.523873e-05 2.3163477e-05 -1.4925862e-05 3.7662016e-05 3.244907e-05 2.111097e-05 -4.351546e-05 -5.069374e-05
-1.32690375e-05 1.8245666e-05 1.9233143e-05 -4.249795e-06 -2.5755038e-05 5.0037956e-06 4.164265e-05 1.3388868e-05
-2.018102e-05 6.728195e-06 5.2914536e-05 -2.1220745e-05 2.4417724e-05 -9.0259655e-06 6.943929e-05 -1.677087e-05
2.462112e-05 -6.401467e-05 5.9453723e-05 -1.7009198e-06 1.9020568e-05 -2.4322486e-05 -1.2508062e-06 1.7393213e-05
-5.608634e-06 -7.719625e-05 6.244227e-06 -6.730021e-05 3.0764347e-06 -1.9111512e-05 1.0525656e-05 -3.8776703e-05
5.289495e-05 -2.4685398e-05 -8.653487e-06 3.5238823e-05 -3.5780704e-06 9.003884e-06 -0.000106067906 -4.428201e-06
7.5422427e-06 -1.6763672e-05 -1.7514516e-05 -4.594442e-06 -2.0638361e-05 6.646651e-06 -4.6092987e-07 4.938217e-05
2.3102153e-05 -1.6475842e-05 2.8713295e-05 -3.717004e-05 1.7183444e-05 -3.2832573e-05 -3.860158e-05 -1.2215901e-05
-1.7534443e-05 -2.0390133e-05 -1.372963e-05 1.307823e-05 -1.7109414e-06 9.253841e-05 -9.136259e-06 -2.7525126e-05
-3.704374e-05 4.0771818e-05 2.2038254e-05 -3.169984e-05 -3.1432723e-05 1.3358026e-06 -1.0676183e-05 -2.4196182e-05
5.2567366e-06 -8.073073e-07 -1.2070893e-05 -2.740997e-05 0.00012531148 2.567316e-05 -4.7278226e-07 -1.3947417e-05
-1.8768202e-05 -3.7446007e-06 9.339013e-06 -3.8283302e-05 2.7705055e-05 -8.238744e-05 -2.7403674e-05 1.2720015e-05
-3.6015175e-05 -7.4208805e-07 -1.2695834e-06 -9.103972e-06 -2.136218e-05 -1.0790766e-05 -3.336696e-05 -1.4314813e-05
00000000: c4a4 8e37 c9b4 44b7 a1e9 b736 77ef a6b6
00000010: 601d 1fb7 caee 6e36 6418 5eb6 7a2a 2333
00000020: 973f b7b7 a5ab bc36 6b86 b6b7 a40e 08b8
00000030: f296 30b8 d6c4 3bb8 324d 98b6 e600 b2b7
00000040: 299c c635 3d88 2cb8 a552 9937 3b68 0b37
00000050: 2deb db36 9a97 62b6 e288 4b36 ae63 b438
00000060: 7cc9 9d38 304f c237 176a 7ab7 48f7 1d38
00000070: ec19 0838 7617 b137 5f84 36b8 fd9f 54b8
00000080: 159e 5eb7 450e 9937 dc56 a137 7699 8eb6
00000090: 860c d8b7 47e6 a736 74a9 2e38 c0a0 6037
000000a0: 694a a9b7 c1c2 e136 8df0 5d38 3403 b2b7
000000b0: aad4 cc37 3a6e 17b7 ef9f 9138 2baf 8cb7
000000c0: 7489 ce37 9d3f 86b8 f35d 7938 294b e4b5
000000d0: 5c8e 9f37 2408 ccb7 60e1 a7b5 a4e7 9137
000000e0: cd31 bcb6 6ce4 a1b8 8085 d136 8623 8db8
000000f0: bf74 4e36 a951 a0b7 5997 3037 2ba4 22b8
00000100: 85db 5d38 7d13 cfb7 722e 11b7 66cd 1338
00000110: c81e 70b6 630f 1737 c670 deb8 f595 94b6
00000120: 5f13 fd36 b69f 8cb7 23ec 92b7 f529 9ab6
00000130: 8b20 adb7 4c06 df36 b875 f7b4 b41f 4f38
00000140: 7fcb c137 9a35 8ab7 55dd f037 07e7 1bb8
00000150: 2a25 9037 b5b5 09b8 22e8 21b8 e5f2 4cb7
00000160: ee16 93b7 7a0b abb7 5058 66b7 926a 5b37
00000170: 80a3 e5b5 2e11 c238 ef47 19b7 c2e5 e6b7
00000180: 6a5f 1bb8 6802 2b38 cade b837 72f5 04b8
00000190: a1d6 03b8 d449 b335 db1d 33b7 e8f8 cab7
000001a0: 0663 b036 bcb5 58b5 1784 4ab7 76ee e5b7
000001b0: 0b66 0339 b15c d737 b3d2 fdb4 b3ff 69b7
000001c0: 6870 9db7 c04b 7bb6 c1ae 1c37 6292 20b8
000001d0: 2768 e837 6cc7 acb8 f1e0 e5b7 0c68 5537
000001e0: 000f 17b8 e733 47b5 8e66 aab5 43bd 18b7
000001f0: ef32 b3b7 fd09 35b7 80f3 0bb8 a729 70b7

model.1.weight f4 [128]
0.61416984 0.34713164 0.3282976 0.5263548 0.17950888 0.20853755 0.17761134 -0.0008399252
0.42776263 0.56453496 0.45090094 0.2234592 0.32209197 0.41364038 0.5092399 0.53690284
0.24470818 0.25317055 0.22968839 0.27274302 0.23570386 0.30824152 0.43836546 0.31445295
0.31918558 0.38958937 0.2180472 0.47139347 0.3461107 0.42173898 0.5317674 0.41468185
0.36241183 0.4756933 0.17039762 0.31348705 0.46913323 0.32675794 0.45204744 0.20633359
0.15646346 0.34288368 0.21773438 0.255924 0.61051077 0.4342587 0.17807126 0.2693256
0.32838607 0.7151659 0.25939518 0.48657757 0.21411596 0.26746053 0.47177362 0.32506844
0.36633933 0.6054034 0.47118804 0.4100116 0.105390444 0.4824769 0.2913852 0.60732484
0.6991165 0.46121576 0.23369767 0.46549398 0.25821987 0.22225739 0.17436975 0.43370625
0.3991056 0.33900008 0.3130042 0.5699796 0.23402466 0.03410591 0.3140121 0.36892876
0.34212965 0.22458677 0.53888804 0.28012356 0.5006239 0.38867024 0.5153217 0.42627662
0.44687903 0.4650668 0.48314512 0.35007104 0.3743912 0.6107835 0.40275902 0.4182177
0.30519298 0.4870083 0.55038303 0.6075806 0.31180534 0.035970088 0.23851979 0.22597842
0.32751057 0.3002987 0.43604267 0.19862835 0.14977601 0.52179044 0.24902615 0.3958892
0.24477376 0.42099756 0.26551837 0.29982895 0.4950188 0.450745 0.3954079 0.41761371
0.39046305 0.4863585 0.36449796 0.21909846 0.33239785 0.44367307 0.32658812 0.24621008
00000000: 3c3a 1d3f 3dbb b13e 9f16 a83e 30bf 063f
00000010: 2dd1 373e de8a 553e bfdf 353e 6d2e 5cba
00000020: b403 db3e 5d85 103f 7ddc e63e 7dd2 643e
00000030: 3de9 a43e acc8 d33e 8c5d 023f 7772 093f
00000040: c894 7a3e 929f 813e 6f33 6b3e f9a4 8b3e
00000050: 5a5c 713e d5d1 9d3e 7071 e03e faff a03e
00000060: 4b6c a33e 4278 c73e c447 5f3e 7c5a f13e
00000070: 6c35 b13e 2cee d73e e921 083f 2e51 d43e
00000080: 0b8e b93e 128e f33e b77c 2e3e 6081 a03e
00000090: 3b32 f03e d14c a73e c372 e73e 1d49 533e
000000a0: f537 203e 738e af3e c3f5 5e3e 7808 833e
000000b0: 6f4a 1c3f 2857 de3e 5058 363e 0ce5 893e
000000c0: 3822 a83e 1d15 373f 72cf 843e b220 f93e
000000d0: 3741 5b3e 96f0 883e 508c f13e 5f6f a63e
000000e0: d490 bb3e b8fb 1a3f 8f3f f13e 0aed d13e
000000f0: f2d6 d73d 3607 f73e 7130 953e a479 1b3f
00000100: 4df9 323f 7924 ec3e 714e 6f3e 3a55 ee3e
00000110: 6535 843e 7197 633e fc8d 323e bf0e de3e
00000120: 9257 cc3e 6b91 ad3e 1642 a03e 2fea 113f
00000130: 29a4 6f3e a4b2 0b3d 32c6 a03e 3be4 bc3e
00000140: 9e2b af3e 13fa 653e 91f4 093f 5b6c 8f3e
00000150: e328 003f c9ff c63e 1fec 033f ee40 da3e
00000160: 54cd e43e 3c1d ee3e cc5e f73e 833c b33e
00000170: 34b0 bf3e 4f5c 1c3f 6e36 ce3e a120 d63e
00000180: 4142 9c3e 2759 f93e e7e5 0c3f 678a 1b3f
00000190: f3a4 9f3e 5f55 133d 883e 743e e366 673e
000001a0: 77af a73e c0c0 993e fc40 df3e 3b65 4b3e
000001b0: e25e 193e 0f94 053f b600 7f3e fdb1 ca3e
000001c0: f9a5 7a3e fe8c d73e 06f2 873e 2e83 993e
000001d0: 1b73 fd3e 0cc8 e63e e772 ca3e 77d1 d53e
000001e0: c6ea c73e fb03 f93e 7a9f ba3e 595b 603e
000001f0: 0d30 aa3e 1e29 e33e 8f36 a73e 7f1e 7c3e

model.1.bias f4 [128]
-0.0008341155 0.028693976 -0.022280997 0.043805793 -0.004723182 0.01265291 -0.02041184 -0.00079537265
0.014529369 -0.03755628 0.001147724 0.011248356 -0.028027553 0.032608673 0.030393649 -0.011593054
-0.008364543 0.015563389 -0.004433481 -0.02229198 -0.009011253 -0.024356889 0.071192354 0.015479931
0.025002697 -0.032590266 -0.034581978 0.0011493536 -0.032392815 -0.014103266 -0.02968286 0.020763526
-0.027618255 -0.03490831 0.010869128 -0.025234077 -0.015405431 -0.01954716 -0.03995216 -0.015647443
-0.014453263 0.052990742 0.02962429 0.02071297 0.10473771 -0.01714676 -0.027023643 0.015265429
0.025459513 -0.0009830276 0.02021257 0.0130722765 -0.020902032 -0.02103538 0.0021684188 -0.004572583
0.03159242 0.04146993 0.017701944 -0.026464123 -0.011299336 0.010351241 -0.024412112 0.056007955
0.0695921 0.043300964 -0.00854348 -0.039079092 -0.030986922 -0.0172852 -0.026162472 -0.032059234
0.029355338 -0.028152872 0.02552655 -0.025188958 -0.010770315 -0.0037601087 -0.021587664 -0.034723856
0.027335163 -0.018005013 -0.026381683 0.019877536 0.0054765646 -0.028274925 -0.033945244 0.031166345
0.077442676 -0.02599031 0.035631787 -0.0050027845 -0.026871936 0.105747655 -0.015345085 0.007798191
-0.0044304314 0.012698025 0.042168804 -0.0394039 -0.005132636 0.0015518903 0.016520623 0.0006501992
-0.025469517 -0.007780864 -0.030876929 -0.016025146 -0.018263934 -0.058002274 0.023587415 -0.0312275
-0.019096939 0.07327259 0.008385553 -0.0083694225 0.021924822 0.027672699 0.017809879 0.04571891
0.020134088 -0.034695175 0.024459539 -0.016060773 -0.0054584797 0.06700403 0.009903312 -0.04245836
00000000: 8ba8 5aba a10f eb3c a386 b6bc b46d 333d
00000010: ecc4 9abb 274e 4f3c bb36 a7bc 8e80 50ba
00000020: 970c 6e3c 9dd4 19bd 3a6f 963a 064b 383c
00000030: 0a9a e5bc ac90 053d 1afc f83c cbf0 3dbc
00000040: 700b 09bc 96fd 7e3c bc46 91bb ac9d b6bc
00000050: efa3 13bc 1988 c7bc 4ccd 913d 899f 7d3c
00000060: 75d2 cc3c 5f7d 05bd d5a5 0dbd e8a5 963a
00000070: 54ae 04bd 6311 67bc 7829 f3bc 4518 aa3c
00000080: ae3f e2bc 04fc 0ebd 6d14 323c b2b7 cebc
00000090: 1067 7cbc 5e21 a0bc e0a4 23bd 112f 80bc
000000a0: 61cd 6cbc d20c 593d a4ae f23c 3fae a93c
000000b0: b980 d63d 5d77 8cbc b060 ddbc da1b 7a3c
000000c0: 7890 d03c efd8 80ba d594 a53c 1a2d 563c
000000d0: bd3a abbc 6452 acbc 081c 0e3b 9bd5 95bb
000000e0: 0e67 013d 60dc 293d ab03 913c 4acb d8bc
000000f0: da20 39bc 4098 293c e9fb c7bc 9968 653d
00000100: 4e86 8e3d 5a5c 313d f4f9 0bbc 6611 20bd
00000110: 49d8 fdbc b199 8dbc ae52 d6bc 8b50 03bd
00000120: 9b7a f03c daa0 e6bc 0e1d d13c 1359 cebc
00000130: fa75 30bc 286c 76bb 9dd8 b0bc 9a3a 0ebd
00000140: feed df3c 407f 93bc 661e d8bc 37d6 a23c
00000150: c174 b33b d1a0 e7bc 2b0a 0bbd 9050 ff3c
00000160: 449a 9e3d a1e9 d4bc a3f2 113d 66ee a3bb
00000170: 8922 dcbc 3a92 d83d f469 7bbc f887 ff3b
00000180: 272d 91bb 610b 503c 32b9 2c3d fc65 21bd
00000190: ac2f a8bb cc68 cb3a 4256 873c 2172 2a3a
000001a0: 73a5 d0bc 9ef6 febb 9df1 fcbc 2b47 83bc
000001b0: 3f9e 95bc cb93 6dbd 653a c13c d0d0 ffbc
000001c0: 2f71 9cbc f10f 963d 8f63 093c e71f 09bc
000001d0: af9b b33c dbb1 e23c 06e6 913c c043 3b3d
000001e0: 3ef0 a43c 871c 0ebd 5f5f c83c e291 83bc
000001f0: 0cdd b2bb 6939 893d 8041 223c d1e8 2dbd

model.1.running_mean f4 [128]
4.670365e-05 -2.6516505e-05 1.641961e-05 1.8920222e-05 3.3427536e-06 -9.848728e-06 -3.6038489e-06 -3.6547613e-07
-3.0212119e-05 1.9688503e-05 -1.39109015e-05 -3.653426e-05 -3.2628806e-05 -6.0998904e-05 -1.32123005e-05 3.7662235e-06
-1.2965304e-05 -4.385248e-05 2.5808406e-05 2.44946e-05 2.107333e-05 6.03087e-06 3.1972308e-05 7.01986e-05
6.804833e-05 4.8190348e-05 -4.014553e-06 3.4074194e-05 4.2146316e-05 3.1877986e-05 -4.9391267e-05 -6.984172e-05
6.0558395e-06 4.166917e-05 1.2649999e-05 9.628888e-06 -9.960488e-06 2.1456515e-05 6.419174e-05 2.1106354e-05
-2.629894e-05 -2.7202889e-06 4.1979074e-05 -4.1202627e-05 5.9003773e-06 -1.1403575e-06 8.228125e-05 -2.483367e-05
2.3682258e-05 -6.454391e-05 6.710059e-05 1.2721857e-05 3.674568e-05 -1.4080708e-05 -3.3105136e-06 3.139112e-05
-3.0077741e-05 -0.00010650023 -6.5328823e-06 -8.21092e-05 1.1042914e-05 -1.3997163e-06 2.1912163e-05 -1.8138759e-05
5.572288e-05 -4.6361485e-05 -1.5279424e-05 5.7316327e-05 9.92377e-06 1.6234068e-05 -0.00011594621 4.328613e-06
-6.49947e-06 2.2703084e-06 -3.0339606e-05 2.299173e-05 -1.068358e-05 5.7097222e-06 9.214605e-06 5.8029942e-05
1.867035e-05 -1.4639788e-05 7.904082e-06 -3.1938274e-05 3.0215755e-05 -2.5411986e-05 -3.7981896e-05 -1.919958e-05
-9.054975e-06 -1.114979e-05 -2.0835927e-05 -6.3000975e-06 1.2921583e-06 8.742869e-05 1.5930345e-06 -2.1431557e-05
-3.7237376e-05 3.613358e-05 1.1020124e-05 -1.4966128e-05 -2.7377811e-05 -6.8189156e-06 -1.2968619e-05 -9.020276e-06
1.563227e-05 1.5550126e-05 -7.714504e-06 -2.4373185e-05 9.852392e-05 3.5541078e-05 -4.1612757e-06 3.1845968e-06
-1.583324e-06 -1.1838874e-05 3.4757322e-06 -4.9072543e-05 2.4186842e-05 -9.867859e-05 -3.5529705e-05 1.2405688e-05
-4.395173e-05 -4.5070215e-06 -1.0586038e-05 -6.418339e-06 -9.904821e-06 -2.4938954e-05 -4.3858443e-05 -1.1424533e-05
00000000: aae3 4338 c36f deb7 d8bc 8937 deb6 9e37
00000010: 1254 6036 f73b 25b7 a7d9 71b6 a836 c4b4
00000020: 0870 fdb7 bd28 a537 de62 69b7 5d3c 19b8
00000030: eada 08b8 13d9 7fb8 66aa 5db7 3abf 7c36
00000040: 8f85 59b7 3eee 37b8 217f d837 c179 cd37
00000050: a2c6 b037 c75c ca36 011a 0638 9637 9338
00000060: 2bb5 8e38 fe1f 4a38 bfb4 86b6 e3ea 0e38
00000070: 43c6 3038 bab4 0538 7829 4fb8 fd77 92b8
00000080: 4433 cb36 eec5 2e38 553b 5437 c28b 2137
00000090: f81b 27b7 84fd b337 ae9e 8638 8d0d b137
000000a0: 8b9c dcb7 358e 36b6 b012 3038 fcd0 2cb8
000000b0: dbfb c536 630e 99b5 698e ac38 e651 d0b7
000000c0: 43a9 c637 bf5b 87b8 5bb8 8c38 f66f 5537
000000d0: 601f 1a38 2e3c 6cb7 312a 5eb6 f5a9 0338
000000e0: 754f fcb7 e058 dfb8 0835 dbb6 0b32 acb8
000000f0: f444 3937 e3dd bbb5 03d0 b737 b028 98b7
00000100: fdb7 6938 4474 42b8 502c 80b7 f066 7038
00000110: 457e 2637 652e 8837 2628 f3b8 813e 9136
00000120: 0616 dab6 9a5b 1836 cf81 feb7 5dde c037
00000130: a03d 33b7 2496 bf36 6d98 1a37 2d65 7338
00000140: 459e 9c37 699d 75b7 c69b 0437 76f5 05b8
00000150: d777 fd37 d32b d5b7 c04e 1fb8 c90e a1b7
00000160: d2ea 17b7 fc0f 3bb7 d0c8 aeb7 6d65 d3b6
00000170: 396e ad35 ec59 b738 40d0 d535 ebc7 b3b7
00000180: 542f 1cb8 238e 1738 12e3 3837 0817 7bb7
00000190: 67a9 e5b7 0ace e4b6 cb93 59b7 ca55 17b7
000001a0: 0b22 8337 a471 8237 8b6d 01b7 0475 ccb7
000001b0: a09e ce38 f111 1538 16a1 8bb6 f5b6 5536
000001c0: 9982 d4b5 949f 46b7 a040 6936 3ed3 4db8
000001d0: d9e4 ca37 aaf1 ceb8 bb05 15b8 0622 5037
000001e0: d058 38b8 053b 97b6 b09a 31b7 1d5d d7b6
000001f0: e22c 26b7 ff33 d1b7 a5f4 37b8 ffab 3fb7

model.1.running_var f4 [128]
0.0012695258 0.0003200715 0.00066087086 0.0010432437 0.00028733473 0.00054502394 0.00033146443 4.2684994e-07
0.00047733643 0.0010424918 0.0006493659 8.357035e-05 0.0006516298 0.0002621031 0.0006523727 0.0009059089
0.00039097533 0.000106809646 0.00010682896 0.00034793612 0.00044248605 0.00046576658 0.00091572804 0.00021533125
0.0005122619 0.00027390308 0.00020566366 0.0005787126 0.0003606112 0.0005606116 0.00076192647 0.000243233
0.00044420513 0.00054711185 3.8573133e-05 0.0003846109 0.00049950933 0.0003189472 0.0007021578 0.00027602803
0.00024554494 0.00041713283 7.6604694e-05 0.00028103977 0.0005994159 0.00052509044 0.00019311019 0.00028705393
0.000115980205 0.00054101873 0.00032775544 0.00038494504 0.00049399515 0.00025941228 0.0002901322 0.00062312966
0.00068470155 0.00067984656 0.000714579 0.00022036872 7.375531e-05 0.0007100628 0.0003341463 0.0010759603
0.0004102654 0.0007083476 0.0002018009 0.00030851632 0.000359808 0.00019864993 0.00014318591 0.00063013576
0.00065977697 0.00042815474 0.0001931173 0.0007652669 0.00040866144 8.482623e-06 0.00034140144 0.0009179036
0.00036871087 0.00026522815 0.0008404594 0.00015895264 0.00014470656 0.0005502904 0.00052210654 0.00019466013
0.00031723542 0.000613491 0.0003561057 0.0005543682 0.00021282157 0.00030769035 0.00044565473 0.00030420368
3.0725852e-05 0.00033872013 0.00021081258 0.0006616821 0.0001304849 8.901288e-05 0.00038367105 0.00041696645
0.0005506672 0.00054450583 0.0005214324 0.00032798006 0.00016312962 0.00036427914 0.00013470724 0.0004108321
0.00036091363 0.00044835245 0.00041964612 3.678694e-05 0.00045501385 0.0005368684 0.0002467517 0.00031391336
0.00045822564 0.00062823016 0.00033978515 0.0002588592 2.0628886e-05 0.0007789589 0.00046203306 0.00013654218
00000000: 3866 a63a 45cf a739 4b3e 2d3a 73bd 883a
00000010: 6aa5 9639 f0df 0e3a 67c8 ad39 cf29 e534
00000020: 0343 fa39 38a4 883a 353a 2a3a 7d42 af38
00000030: 23d2 2a3a e26a 8939 fe03 2b3a 847a 6d3a
00000040: d2fb cc39 fefe df38 5c09 e038 326b b639
00000050: 79fd e739 2232 f439 780d 703a 8bca 6139
00000060: 5049 063a a69a 8f39 6ba7 5739 bfb4 173a
00000070: 6a10 bd39 02f6 123a 05bc 473a 5c0c 7f39
00000080: 34e4 e839 0e6c 0f3a 96c9 2138 9aa5 c939
00000090: 81f1 023a 5e38 a739 0311 383a dbb7 9039
000000a0: 7cbc 8039 9fb2 da39 d5a6 a038 8558 9339
000000b0: 1f22 1d3a 39a6 093a 9f7d 4a39 ba7f 9639
000000c0: 663a f338 27d3 0d3a 97d6 ab39 73d2 c939
000000d0: 747f 013a ba01 8839 e21c 9839 8659 233a
000000e0: 8b7d 333a bb37 323a 9652 3b3a c712 6739
000000f0: 15ad 9a38 8223 3a3a 5b30 af39 3d07 8d3a
00000100: e418 d739 67b0 393a 849a 5339 5cc0 a139
00000110: 9da4 bc39 af4c 5039 2d24 1639 b22f 253a
00000120: e2f4 2c3a f579 e039 887f 4a39 319c 483a
00000130: 9c41 d639 9750 0e37 20fe b239 789f 703a
00000140: 894f c139 520e 8b39 4752 5c3a 86ac 2639
00000150: 5fbc 1739 5d41 103a fadd 083a ae1d 4c39
00000160: 9e52 a639 afd2 203a b3b3 ba39 0553 113a
00000170: db28 5f39 8051 a139 c4a6 e939 877d 9f39
00000180: a2df 0038 3f96 b139 920d 5d39 bc74 2d3a
00000190: c6d2 0839 6dac ba38 7527 c939 4a9c da39
000001a0: a65a 103a 2bbd 0e3a bcb0 083a bdf4 ab39
000001b0: c60d 2b39 b8fc be39 3340 0d39 f364 d739
000001c0: 0239 bd39 d910 eb39 f303 dc39 ad4b 1a38
000001d0: ed8e ee39 a1bc 0c3a 745e 8139 bd94 a439
000001e0: 013e f039 d0af 243a 3125 b239 7eb7 8739
000001f0: 320c ad37 0c33 4c3a 073d f239 c32c 0f39

model.3.block.0.weight f4 [128, 128]
-0.008166587 -0.006970154 0.000577575 0.0003742376 0.0003115356 -0.0035668411 -0.00019038752 9.467982e-10
-0.00787023 -0.0014128886 -0.008065969 -0.003380034 -0.0028753437 -0.007848776 -0.008703769 -0.0060508894
-0.0068061575 -0.004228075 -0.00039608663 0.0014217161 -0.0003210514 0.0006962425 0.0043737814 -0.0050375112
-0.006301975 0.002693344 0.00055522885 -0.011170363 -0.0010730922 0.003539872 -0.014703909 -0.006857059
0.00063692813 7.569686e-05 -0.003289554 0.0016571938 0.0032006337 0.0011333729 -0.0018286799 0.0007202427
0.00034557833 -0.006792567 -0.004197607 -0.005185122 -0.013469066 0.0030722502 -0.0006878311 -0.004386834
-0.006378594 0.008076326 -0.0051119663 0.0030392609 -0.00066934107 0.00073421083 0.0030937686 0.0006961159
-0.007436159 -0.010947483 -0.008426136 -0.011292351 0.0002486578 -0.0028477 -0.0020532338 0.014750111
-0.014666832 -0.009608551 -0.0063992343 -0.005132841 0.00023822498 0.0010220184 -7.001033e-05 -0.0004548137
-0.0075265025 -0.0023287174 -0.0063556544 0.004154181 -0.0003265161 -0.00018775961 -0.002180558 -0.003066564
-0.006770329 -0.00041200282 -0.014774577 -0.005164533 -0.0045088273 -0.0018021096 0.004547308 -0.007840417
-0.009575318 -0.0027756256 -0.008915682 -0.008957007 0.0008150815 -0.013252432 0.004067109 -0.0067798663
-0.007321078 -0.010035219 -0.010394531 -0.005424286 -0.0028398081 -0.0009488452 -0.0045767487 -0.00064855494
-0.00054153445 -0.00023918883 0.0034515362 0.00067233335 -0.00402796 0.0015141476 -0.00527662 0.00029809543
0.000722305 -0.008596862 -0.0045510647 -0.00018911964 -0.00864578 -0.007806884 -0.0064510047 -0.008817197
-0.0064297095 3.857431e-05 -0.006465568 0.0015478105 -0.0011177777 -0.009237629 -0.0060810293 -0.008344748
0.002906765 -0.026555648 -0.010429881 -0.027125763 0.012312746 -0.009323363 -0.009561859 5.5433184e-06
-0.030254822 -0.047520913 -0.034564804 -0.013247081 -0.0060732802 -0.025659103 -0.007025331 -0.05201763
-0.019588765 -0.007824413 0.028012443 0.02126122 0.014284864 0.02271196 -0.008193638 -0.023824012
-0.021940337 0.023783345 0.0064498526 -0.026394445 -0.025093764 0.015855312 -0.050799184 -0.024433281
0.012461905 -0.021059388 -0.004202521 -0.024089992 -0.0149285635 0.024759822 0.014011346 0.02295362
-0.012796605 0.0025885117 -0.0117920935 -0.010329901 -0.0266722 -0.012941898 0.0046022185 -0.012283652
-0.026002895 0.0027264797 -0.01631643 -0.01424549 -0.015318708 -0.027411541 0.04266942 0.00082713075
-0.004921588 -0.022292275 -0.024203446 -0.014092863 0.0010083971 -0.0015569741 0.01450273 0.029878922
-0.0031077284 -0.03265602 -0.022749098 -0.03140862 -0.030093314 -0.022771457 0.0028138573 -0.005714707
-0.0006256634 -0.032449726 -0.014754856 -0.013231142 -0.023423096 0.0003922494 -0.02927171 -0.039787043
-0.00020155248 0.009418621 -0.021204587 -0.0034031353 -0.023064125 -0.02126512 -0.008765634 -0.023505708
-0.0040277606 0.0273329 -0.013245224 -0.029042182 -0.0435065 -0.023808751 -0.037726805 0.010547444
-0.017762879 -0.043700524 -0.016476138 -0.012060974 0.024724307 -0.002275141 -0.006262252 -0.004930251
-0.029834976 -0.008469902 -0.045294017 -0.01776043 -0.0124808205 0.023451308 -0.021262208 -0.010761557
-0.00088396086 -0.02809073 -0.020616226 -0.013123677 -0.03550824 -0.029985169 -0.025264764 -0.016503528
-0.024544004 -0.0429321 -0.0060593146 0.031874694 0.02666627 -0.014954885 -0.018014016 -0.035497744
00000000: 26cd 05bc e465 e4bb 6768 173a 5235 c439
00000010: 9a55 a339 aac1 69bb c3a2 47b9 8020 8230
00000020: 23f2 00bc ad30 b9ba 2027 04bc 8f83 5dbb
00000030: 4370 3cbb 2798 00bc 419a 0ebc 8a46 c6bb
00000040: 3006 dfbb aa8b 8abb d9a9 cfb9 e058 ba3a
00000050: ca52 a8b9 0b84 363a f051 8f3b b511 a5bb
00000060: cc80 cebb d082 303b c78c 113a e603 37bc
00000070: 00a7 8cba 32fd 673b aae8 70bc 2eb1 e0bb
00000080: 86f7 263a 71bf 9e38 8f95 57bb 3236 d93a
00000090: b9c1 513b af8d 943a 51b0 efba abce 3c3a
000000a0: bd2e b539 2f94 debb 148c 89bb f5e7 a9bb
000000b0: 5bad 5cbc ce57 493b 904f 34ba 6ebf 8fbb
000000c0: 8603 d1bb 9152 043c 4882 a7bb 562e 473b
000000d0: b876 2fba 0e78 403a d3c0 4a3b 8c7b 363a
000000e0: 06ab f3bb 125d 33bc c70d 0abc 8e03 39bc
000000f0: 495e 8239 7aa0 3abb 8c8f 06bb 73aa 713c
00000100: 274d 70bc 2f6d 1dbc abb0 d1bb 6431 a8bb
00000110: 08cc 7939 3ff5 853a 82d2 92b8 1074 eeb9
00000120: e1a0 f6bb 659d 18bb 1843 d0bb cc1f 883b
00000130: 4030 abb9 56e1 44b9 b1e7 0ebb 68f8 48bb
00000140: a3d9 ddbb 1502 d8b9 1111 72bc 3e3b a9bb
00000150: c9be 93bb c434 ecba 9601 953b 1875 00bc
00000160: cbe1 1cbc 45e7 35bb 1513 12bc 69c0 12bc
00000170: 32ab 553a bb20 59bc 6245 853b a429 debb
00000180: a7e5 efbb c26a 24bc d34d 2abc 35be b1bb
00000190: 131c 3abb ecbb 78ba 8df8 95bb c903 2aba
000001a0: c3f5 0dba c3ce 7ab9 2b33 623b 873f 303a
000001b0: fafc 83bb 5d76 c63a 7fe7 acbb b149 9c39
000001c0: 1159 3d3a dad9 0cbc 1921 95bb 6b4e 46b9
000001d0: 08a7 0dbc e4d0 ffbb f362 d3bb 0176 10bc
000001e0: 50b0 d2bb daca 2138 1edd d3bb e7df ca3a
000001f0: 6582 92ba 6d59 17bc 5f43 c7bb 69b8 08bc
00000200: 6d7f 3e3b 3b8b d9bc 17e2 2abc d936 debc
00000210: 66bb 493c 05c1 18bc 58a9 1cbc be00 ba36
00000220: f6d8 f7bc 4aa5 42bd d393 0dbd 490a 59bc
00000230: 5e02 c7bb 0a33 d2bc bf34 e6bb 7010 55bd
00000240: 9e78 a0bc f731 00bc 5a7a e53c 032c ae3c
00000250: 100b 6a3c 6f0e ba3c 9c3e 06bc 932a c3bc
00000260: 39bc b3bc 4ad5 c23c 4959 d33b 2a39 d8bc
00000270: 7091 cdbc 00e3 813c ce12 50bd 4e28 c8bc
00000280: 052d 4c3c bd84 acbc 4db5 89bb 6058 c5bc
00000290: ef96 74bc 1cd5 ca3c d88f 653c 3b09 bc3c
000002a0: daa8 51bc 05a4 293b a033 41bc bf3e 29bc
000002b0: a87f dabc 410a 54bc 35ce 963b 5f41 49bc
000002c0: 0604 d5bc bdae 323b 09aa 85bc ea65 69bc
000002d0: 51fb 7abc 2b8e e0bc 21c6 2e3d ced3 583a
000002e0: 4645 a1bb 4a9e b6bc 4e46 c6bc c0e5 66bc
000002f0: 312c 843a 6213 ccba dc9c 6d3c a4c4 f43c
00000300: 08ab 4bbb 52c2 05bd 515c babc 53a6 00bd
00000310: 4186 f6bc 358b babc b168 383b 7042 bbbb
00000320: 8f03 24ba 01ea 04bd 5abe 71bc 6fc7 58bc
00000330: cbe1 bfbc d3a6 cd39 3acb efbc bdf7 22bd
00000340: d557 53b9 8f50 1a3c 3eb5 adbc 2307 5fbb
00000350: faf0 bcbc 3034 aebc bc9d 0fbc 0b8f c0bc
00000360: 4efb 83bb 3fe9 df3c 7f02 59bc dfe9 edbc
00000370: df33 32bd 920a c3bc 6c87 1abd 30cf 2c3c
00000380: 7583 91bc 52ff 32bd f7f8 86bc 649b 45bc
00000390: a18a ca3c 881a 15bb 9433 cdbb f18d a1bb
000003a0: 7b68 f4bc 58c5 0abc 3886 39bd 527e 91bc
000003b0: 5b7c 4cbc f51c c03c 152e aebc 3e51 30bc
000003c0: 9cb9 67ba 881e e6bc 5ce3 a8bc b104 57bc
000003d0: 1771 11bd 75a3 f5bc 0df8 cebc 6832 87bc
000003e0: 8210 c9bc 92d9 2fbd 378d c6bb 0a8f 023d
000003f0: 3973 da3c 5505 75bc 2192 93bc 1566 11bd

model.3.block.0.bias f4 [128]
1.092112e-07 4.7463863e-07 7.619071e-07 -1.424525e-08 -2.7798792e-06 7.1661907e-07 -8.099324e-06 5.0341185e-07
1.2126985e-05 3.6484898e-06 1.1352205e-06 1.4241916e-06 1.7535316e-07 9.904986e-08 6.3700595e-06 -1.6834163e-06
-3.9991746e-06 -4.6786838e-07 -3.6344848e-06 -7.939922e-07 6.2937446e-09 2.465606e-06 -2.4325236e-06 -3.1918732e-06
-5.00829e-07 2.0033704e-07 1.22359725e-05 7.465768e-07 1.261773e-06 8.651199e-06 -2.917444e-06 2.0657571e-06
-1.0596417e-06 7.400086e-07 1.1123351e-07 3.9037204e-07 -4.2051793e-06 1.4767927e-06 5.253015e-07 2.135947e-05
-6.1420315e-07 -8.949713e-06 3.4566835e-07 -1.4225873e-06 -2.0737389e-06 2.4198e-41 2.1117758e-06 2.0460953e-09
1.0092478e-05 -2.107487e-06 4.2794395e-07 1.0861829e-06 -1.0934247e-06 6.195814e-06 -2.053481e-06 3.7675425e-06
4.6651353e-06 3.2419125e-06 -3.0257947e-06 3.945953e-07 5.9779927e-07 -1.204173e-06 1.5047898e-06 3.1321144e-07
2.2190711e-06 -7.4957555e-08 -6.028838e-07 -1.5117638e-07 2.3137416e-06 -1.7873491e-07 -2.5810098e-06 -3.012e-06
-1.5298454e-05 2.1691443e-10 -1.410967e-07 -1.0381697e-06 -2.570705e-07 -3.7213987e-08 4.1154354e-07 -1.5001742e-08
-2.0302973e-06 -3.8378285e-12 -1.0221563e-06 -1.7262917e-06 5.0661565e-06 7.0594415e-06 -3.6892752e-06 2.6717678e-06
2.8640147e-06 2.189581e-06 -6.2658717e-07 -3.4997143e-07 6.598961e-06 -1.4400503e-06 1.2295427e-06 5.5433875e-06
2.2991846e-06 -6.2110564e-07 -9.7248285e-06 1.414911e-05 4.72e-42 -1.8689489e-06 -6.2364074e-06 7.026193e-23
2.2452152e-06 6.186167e-07 -5.001691e-06 -7.392638e-07 -2.9196344e-06 3.810684e-06 -4.4382937e-06 -7.0630705e-07
2.2470483e-06 6.4237156e-06 -1.2751165e-06 1.2757798e-06 -8.315423e-07 5.7108596e-06 6.3115e-07 -1.32484e-40
-1.2278305e-06 1.441014e-07 -2.6746546e-08 -8.860886e-07 2.2424985e-07 2.2117345e-06 1.9256554e-07 1.5410385e-06
00000000: 7e87 ea33 d6d1 fe34 db85 4c35 46bb 74b2
00000010: f68d 3ab6 b05d 4035 55e2 07b7 3322 0735
00000020: 0175 4b37 94d8 7436 e15d 9835 da26 bf35
00000030: b648 3c34 3db5 d433 65be d536 bef1 e1b5
00000040: a630 86b6 572f fbb4 f9e7 73b6 bb22 55b5
00000050: 5d40 d831 ca76 2536 703e 23b6 f733 56b6
00000060: b570 06b5 3a1c 5734 1a49 4d37 5e68 4835
00000070: 315a a935 9e24 1137 4ec9 43b6 70a1 0a36
00000080: 0339 8eb5 01a5 4635 45df ee33 5394 d134
00000090: 371a 8db6 3636 c635 7202 0d35 1d2d b337
000000a0: b8df 24b5 ba26 16b7 4c94 b934 baef beb5
000000b0: 902a 0bb6 7443 0000 08b8 0d36 4a9b 0c31
000000c0: dd52 2937 5a6e 0db6 2bc0 e534 f6c8 9135
000000d0: c9c1 92b5 a3e5 cf36 89ce 09b6 e3d5 7c36
000000e0: 3589 9c36 a28f 5936 c20e 4bb6 c4d8 d334
000000f0: 7478 2035 129f a1b5 2ff8 c935 7427 a834
00000100: 5aeb 1436 5af8 a0b3 dcd5 21b5 0c53 22b4
00000110: c745 1b36 47ea 3fb4 6935 2db6 c421 4ab6
00000120: 2e55 80b7 fc7f 6e2f 5e80 17b4 3d57 8bb5
00000130: 8003 8ab4 36d5 1fb3 1df2 dc34 2edd 80b2
00000140: 3e40 08b6 1608 87ac 0631 89b5 eeb2 e7b5
00000150: f4fd a936 24e0 ec36 4495 77b6 9f4c 3336
00000160: 6633 4036 b7f0 1236 be32 28b5 b5e3 bbb4
00000170: a56c dd36 c047 c1b5 c406 a535 5601 ba36
00000180: b14b 1a36 0eba 26b5 d227 23b7 f761 6d37
00000190: 280d 0000 98d8 fab5 5542 d1b6 07e2 a91a
000001a0: 81ac 1636 040f 2635 33d4 a7b6 d271 46b5
000001b0: f0ee 43b6 0dbb 7f36 a7ec 94b6 0d99 3db5
000001c0: ffcb 1636 4c8b d736 ab24 abb5 763b ab35
000001d0: 2737 5fb5 e99f bf36 4c6c 2935 5071 0180
000001e0: efcb a4b5 4bba 1a34 47c0 e5b2 8cdb 6db5
000001f0: 54c9 7034 4f6d 1436 03c4 4e34 aed5 ce35

model.3.block.1.weight f4 [128]
0.045226354 0.35990077 0.37895605 0.081183195 0.35290682 0.06438712 0.33193856 0.1557305
0.42456743 0.3758325 0.21545306 0.24500129 0.10575975 0.018745769 0.39879438 0.26588318
0.36065376 0.28244174 0.20415284 0.3689165 0.1440818 0.1859496 0.40644974 0.21851176
0.23909831 0.21590862 0.41973373 0.20855898 0.33809084 0.3490861 0.16692246 0.24821569
0.48747644 0.15179805 0.3503356 0.23764415 0.26988128 0.3126967 0.18173648 0.5315759
0.14627382 0.45959446 0.09102025 0.31322846 0.3088728 -1.54872e-40 0.23395313 0.44062826
0.54681045 0.41076672 0.17395264 0.3400387 0.34537855 0.30193612 0.39128503 0.35420913
0.32314873 0.18562016 0.24423437 0.29396588 0.25963345 0.2601833 0.35686845 0.24923079
0.27675766 0.06518284 0.29526702 0.04482132 0.33601883 0.3798518 0.48947996 0.2524929
0.5113276 0.0030005283 0.09701466 0.222435 0.1270605 0.30216563 0.39327666 0.0038796368
0.17442305 -1.29742e-07 0.42850137 0.34277523 0.47639343 0.42172712 0.44377118 0.35251954
0.35267487 0.2748469 0.20430689 0.078955136 0.33047998 0.21103093 0.2476549 0.39042675
0.3169064 0.3147293 0.43775058 0.5788924 -1.51508e-40 0.19135714 0.4667067 -1.8237407e-16
0.2075361 0.2728428 0.28944865 0.31487077 0.31983745 0.29400548 0.4780393 0.26868835
0.25527668 0.39072442 0.31722474 0.1895053 0.40806383 0.36912507 0.32703206 -1.85955e-40
0.4007367 0.24431345 0.07339672 0.18757562 0.06830723 0.26480877 0.4565149 0.21028501
00000000: 453f 393d ea44 b83e 8706 c23e 6043 a63d
00000010: 34b0 b43e 65dd 833d daf3 a93e d177 1f3e
00000020: e760 d93e 1e6d c03e ba9f 5c3e 9ee1 7a3e
00000030: 9198 d83d ba90 993c c72e cc3e d721 883e
00000040: 9ca7 b83e 349c 903e 710d 513e a0e2 bc3e
00000050: 2e8a 133e 9269 3e3e 2e1a d03e 8cc1 5f3e
00000060: 30d6 743e 2617 5d3e 57e7 d63e 7c90 553e
00000070: 3e1a ad3e 6abb b23e b9ed 2a3e 412c 7e3e
00000080: 8396 f93e f370 1b3e 305f b33e fd58 733e
00000090: e12d 8a3e c819 a03e 2119 3a3e 5c15 083f
000000a0: cec8 153e f74f eb3e d368 ba3d 7b5f a03e
000000b0: 9324 9e3e b8af 0180 6991 6f3e 079a e13e
000000c0: c5fb 0b3f 0450 d23e a420 323e 8d19 ae3e
000000d0: 75d5 b03e 5f97 9a3e 8356 c83e e65a b53e
000000e0: c073 a53e 3613 3e3e 9318 7a3e b282 963e
000000f0: adee 843e bf36 853e 76b7 b63e 5b36 7f3e
00000100: 2eb3 8d3e 957e 853d 3d2d 973e 8f96 373d
00000110: a90a ac3e ef7b c23e 1e9d fa3e c046 813e
00000120: 5ee6 023f 83a4 443b 9faf c63d 00c6 633e
00000130: 261c 023e 74b5 9a3e 8f5b c93e 8141 7e3b
00000140: f59b 323e 364f 0bb4 8864 db3e 3c80 af3e
00000150: d7e9 f33e 9eec d73e fa35 e33e 717d b43e
00000160: cd91 b43e bcb8 8c3e d335 513e 3bb3 a13d
00000170: ac34 a93e 7e18 583e 3f99 7d3e 04e6 c73e
00000180: 8e41 a23e 3324 a13e d820 e03e 4b32 143f
00000190: 58a6 0180 20f3 433e 2ef4 ee3e 5343 52a5
000001a0: 5884 543e 0db2 8b3e 9d32 943e be36 a13e
000001b0: bcc1 a33e e387 963e 91c1 f43e 8591 893e
000001c0: a0b3 823e 080d c83e 486b a23e ad0d 423e
000001d0: beed d03e f6fd bc3e bf70 a73e 5e06 0280
000001e0: 5c2d cd3e 4e2d 7a3e 0551 963d d313 403e
000001f0: a9e4 8b3d 0495 873e 52bc e93e f454 573e

model.3.block.1.bias f4 [128]
0.00018978649 0.002492059 -0.029278371 0.015550591 0.006774696 0.008514542 -0.029739674 -0.019031862
0.11298486 -0.029881855 0.04000632 -0.0040826118 -0.010818656 0.011718976 -0.039835185 0.062152077
0.110695526 0.05724992 0.07018262 -0.0063444064 -0.04085849 -0.031563368 -0.0056832135 0.07978416
0.06796386 -0.016438542 -0.036557868 0.027497035 0.05004397 0.011861736 0.058958758 -4.523058e-05
0.013278603 -0.024699925 0.04315521 -0.012944952 0.08003985 0.040541384 0.05025128 0.027955841
-0.05614196 -0.09562751 -0.044032563 0.07286774 0.010407032 -5.449292e-38 0.08465152 -0.021332711
0.035912372 0.012892726 0.00320285 -0.039276276 0.0070529385 -0.028534956 0.063692115 -0.04677595
0.03703928 0.0046000984 0.051525727 -0.038355514 0.037783116 0.08029032 0.09350911 0.054880593
-0.016971141 0.00053923513 0.06557558 -0.025673902 0.023836618 -0.0035553542 0.157391 0.021165013
0.03077627 -0.006410419 0.016189251 -0.02710157 0.0004055065 0.09084012 0.026957674 -0.0014934394
-0.0313974 2.6783422e-05 -0.0165649 0.0074526444 -0.08106743 -0.01087678 0.0936587 -0.026734654
0.10983896 -0.029798998 -0.004122994 -0.04166847 0.019813264 -0.0136003075 0.048116982 0.00077691005
-0.044207692 0.023636952 -0.025508799 -0.0118420385 -7.6174943e-38 0.09930466 0.0006291181 -1.2107503e-15
0.04526731 -0.018566767 -0.050493352 0.029233545 -0.03738198 0.0007267978 -0.02451077 0.038080193
0.0078821555 0.0017064719 0.00018036213 -0.013734815 0.0019926843 0.01238829 0.047544353 -5.3969766e-38
-0.07744624 0.034450337 -0.027066378 0.016043607 0.018045407 -9.255824e-05 0.009656204 -0.006851228
00000000: 6c01 4739 d051 233b 32d9 efbc e8c7 7e3c
00000010: 45fe dd3b 9480 0b3c 9ea0 f3bc b5e8 9bbc
00000020: 9b64 e73d cbca f4bc abdd 233d 6ec7 85bb
00000030: bb40 31bc f300 403c 382a 23bd 2d93 7e3d
00000040: 56b4 e23d e47e 6a3d e8bb 8f3d bde4 cfbb
00000050: 3b5b 27bd 9748 01bd 403a babb e165 a33d
00000060: a330 8b3d 1faa 86bc b4bd 15bd 7641 e13c
00000070: e8fa 4c3d ba57 423c bd7e 713d f7b5 3db8
00000080: 7f8e 593c 7f57 cabc 84c3 303d 1017 54bc
00000090: efeb a33d b90e 263d 49d4 4d3d a603 e53c
000000a0: 1df5 65bd 5bd8 c3bd 7d5b 34bd af3b 953d
000000b0: 4282 2a3c 0658 9481 c75d ad3d f0c1 aebc
000000c0: da18 133d 033c 533c e8e6 513b 29e0 20bd
000000d0: 561c e73b 24c2 e9bc 0371 823d 2398 3fbd
000000e0: 80b6 173d 6cbc 963b a40c 533d ac1a 1dbd
000000f0: 78c2 1a3d 406f a43d b481 bf3d 79ca 603d
00000100: 1007 8bbc 755b 0d3a 7d4c 863d 1352 d2bc
00000110: 0345 c33c f200 69bb 1b2b 213e 4062 ad3c
00000120: 841e fc3c 7e0e d2bb 529f 843c 1d04 debc
00000130: 299a d439 630a ba3d 57d6 dc3c 83bf c3ba
00000140: 8f9a 00bd f6ac e037 1db3 87bc 5035 f43b
00000150: ae06 a6bd 8634 32bc 22d0 bf3d a202 dbbc
00000160: 40f3 e03d 071d f4bc 2e1a 87bb 8fac 2abd
00000170: 6d4f a23c d3d3 5ebc 5016 453d 8da9 4b3a
00000180: 2013 35bd 48a2 c13c d4f7 d0bc 1c05 42bc
00000190: 305e cf81 3e60 cb3d 67eb 243a cd7c aea6
000001a0: 376a 393d 5519 98bc 1ed2 4ebd 307b ef3c
000001b0: d91d 19bd 9386 3e3a cfca c8bc faf9 1b3d
000001c0: 2824 013c b2ab df3a 971f 3d39 fd07 61bc
000001d0: b297 023b 41f8 4a3c debd 423d 70eb 9281
000001e0: 229c 9ebd cc1b 0d3d 4fba ddbc e26d 833c
000001f0: f6d3 933c d41b c2b8 0e35 1e3c 4480 e0bb

model.3.block.1.running_mean f4 [128]
-0.071949415 -0.23869413 0.112668514 -0.02490166 0.22343893 -0.082267836 0.15007944 0.040561125
-0.3271199 0.17771521 -0.16474372 -0.015903238 0.016594622 -0.024836272 0.21213408 -0.049558595
-0.32466772 -0.108692355 -0.14827955 0.09585348 0.0030264815 -0.16340382 0.1478591 -0.18266387
-0.1563369 0.078187026 0.22127078 -0.11801731 0.034769215 0.26672018 -0.06625392 0.13483338
0.15820287 -0.041875403 -0.24987212 0.089936145 -0.17048682 -0.30340606 0.076083735 -0.29848242
-0.07404437 0.17818972 -0.054600917 -0.17428139 0.11666583 -2.53004e-40 -0.16686396 0.17611183
0.17328574 -0.283312 -0.10881939 0.16383585 0.14179592 -0.25897962 -0.18667753 0.15003048
-0.22620031 -0.19934341 0.03308005 0.21093155 0.11762806 0.08987517 -0.33910692 0.032996625
-0.21554272 -0.08204708 -0.15956436 -0.060468215 0.13710263 -0.3401628 -0.25260335 -0.18019837
-0.36067182 -0.005151894 -0.046752375 0.08599804 -0.047235962 -0.042035498 0.14236026 -0.006977466
0.01968154 -4.7421336e-06 0.2550916 -0.17121959 0.17643175 -0.2689164 -0.29210347 0.12861118
-0.17799258 0.12698446 0.07917962 -0.029727148 -0.2166838 0.099908985 -0.25945392 -0.19689126
0.25091076 0.020860542 -0.29746035 0.32170665 -6.38795e-40 -0.1782863 0.18215992 -1.4030495e-15
-0.03450286 0.08938141 0.09632739 -0.20684133 -0.22303861 0.12523812 0.17054933 0.015189111
0.1120122 0.12392111 -0.22645313 -0.17143464 0.13803315 0.21978201 -0.1642784 2.39486e-40
0.16937573 -0.0033814693 -0.02999742 0.0076003787 -0.044273093 0.10916246 0.1663472 -0.17728515
00000000: 375a 93bd 3c6c 74be c0be e63d 91fe cbbc
00000010: 2dcd 643e 0a7c a8bd 6dae 193e 6c23 263d
00000020: 427c a7be fafa 353e 94b2 28be 8247 82bc
00000030: 72f1 873c 7075 cbbc ad39 593e f4fd 4abd
00000040: d93a a6be 199a debd 98d6 17be d44e c43d
00000050: ef57 463b 5553 27be 6068 173e 3d0c 3bbe
00000060: c816 20be 8520 a03d cf94 623e 0fb3 f1bd
00000070: 2a6a 0e3d 8c8f 883e 23b0 87bd c311 0a3e
00000080: efff 213e 8b85 2bbd 7ade 7fbe 7130 b83d
00000090: 1994 2ebe 0a58 9bbe cad1 9b3d b0d2 98be
000000a0: 93a4 97bd 5e77 363e 36a5 5fbd d276 32be
000000b0: 7fee ee3d 46c1 0280 63de 2abe a956 343e
000000c0: d171 313e 450e 91be b3dc debd 96c4 273e
000000d0: f332 113e fa98 84be 6528 3fbe 97a1 193e
000000e0: 0ea1 67be ae20 4cbe f27e 073d 71fe 573e
000000f0: fbe6 f03d 7910 b83d 6c9f adbe 7827 073d
00000100: 3bb7 5cbe 4d08 a8bd d764 23be 85ad 77bd
00000110: a264 0c3e d229 aebe 3a55 81be ec85 38be
00000120: faa9 b8be 38d1 a8bb 6b7f 3fbd be1f b03d
00000130: 7f7a 41bd 6a2d 2cbd e3c6 113e 3aa3 e4bb
00000140: 2e3b a13c 9e1e 9fb6 5e9b 823e 3054 2fbe
00000150: 86aa 343e 69af 89be 968e 95be a6b2 033e
00000160: b043 36be 3708 023e ed28 a23d 5986 f3bc
00000170: 5ce2 5dbe 159d cc3d 25d7 84be dd9d 49be
00000180: 6077 803e bae3 aa3c b94c 98be bcb6 a43e
00000190: b3f4 0680 af90 36be 2188 3a3e 6433 caa6
000001a0: df52 0dbd 9a0d b73d 4b47 c53d 37ce 53be
000001b0: 3c64 64be 6c3e 003e 7ca4 2e3e c0db 783c
000001c0: a766 e53d 5aca fd3d 54e3 67be 908c 2fbe
000001d0: 9058 0d3e 890e 613e 9938 28be 979b 0200
000001e0: d570 2d3e a49b 5dbb 26bd f5bc 990c f93b
000001f0: b457 35bd 9190 df3d ec56 2a3e 3d8a 35be

model.3.block.1.running_var f4 [128]
0.01160199 0.045572847 0.035850767 0.010302436 0.05611786 0.014597034 0.019377269 0.010514345
0.06058672 0.048499625 0.032203406 0.021795256 0.013257211 0.002620527 0.03981556 0.045335624
0.05796095 0.036073558 0.039572805 0.03119042 0.0072348192 0.028857337 0.05368407 0.031981207
0.03048502 0.019377217 0.037929103 0.0394707 0.03138792 0.041353796 0.025303325 0.023757813
0.05131265 0.013370435 0.035136435 0.02216443 0.03394845 0.05501627 0.019231064 0.051450945
0.016602464 0.036226034 0.013026667 0.04102179 0.028384322 6e-45 0.044754423 0.0638487
0.04475867 0.05993905 0.017486153 0.03160291 0.0400575 0.042874638 0.08285126 0.03467154
0.058939848 0.049271747 0.04139702 0.03309243 0.03332656 0.033355463 0.0639162 0.022699885
0.06029707 0.012368317 0.03376006 0.004971818 0.028727246 0.06477153 0.10572555 0.04136998
0.07280851 1.7559161e-05 0.012845882 0.023821564 0.014538756 0.05255284 0.042678036 0.00041081166
0.0063262447 1.6833725e-11 0.045292225 0.03868403 0.042795632 0.04646228 0.050755866 0.04050501
0.049726747 0.014105881 0.017566647 0.0059308326 0.03526593 0.024924763 0.037546717 0.059151534
0.03948343 0.029970242 0.05378785 0.057815723 6e-45 0.028834714 0.041712604 2.470029e-30
0.039706957 0.025982188 0.014470995 0.044160552 0.04926376 0.03274656 0.03371824 0.0422515
0.015809588 0.03742576 0.07839612 0.050531514 0.039121002 0.040397506 0.051081754 6e-45
0.034311004 0.034632288 0.013936793 0.024245406 0.013328961 0.02235701 0.047541536 0.029737292
00000000: 4616 3e3c 98aa 3a3d 41d8 123d 8ccb 283c
00000010: d7db 653d 6628 6f3c 14bd 9e3c 5c44 2c3c
00000020: c829 783d 8ba7 463d b8e7 033d f78b b23c
00000030: c634 593c 26bd 2b3b a415 233d d9b1 393d
00000040: 7668 6d3d dec1 133d 1817 223d 0d83 ff3c
00000050: 1012 ed3b 3966 ec3c d4e3 5b3d bafe 023d
00000060: b8bb f93c f8bc 9e3c 8c5b 1b3d 07ac 213d
00000070: 9f90 003d 9962 293d eb48 cf3c bf9f c23c
00000080: 372d 523d ab0f 5b3c 39eb 0f3d 2e92 b53c
00000090: 880d 0b3d be58 613d 778a 9d3c 3abe 523d
000000a0: e401 883c c061 143d cd6d 553c 7706 283d
000000b0: 3d86 e83c 0400 0000 6a50 373d 1bc3 823d
000000c0: de54 373d a682 753d 1f3f 8f3c 0e72 013d
000000d0: 5513 243d 519d 2f3d ecad a93d bf03 0e3d
000000e0: e96a 713d 2cd1 493d ec8f 293d ee8b 073d
000000f0: 6e81 083d bd9f 083d 7fe6 823d 1cf5 b93c
00000100: 0ffa 763d 7ba4 4a3c fd47 0a3d a2ea a23b
00000110: 6755 eb3c f0a6 843d a386 d83d 9173 293d
00000120: a11c 953d 034c 9337 8977 523c 7125 c33c
00000130: f633 6e3c a641 573d 2acf 2e3d 3562 d739
00000140: 634c cf3b 2e12 942d 5784 393d 2573 1e3d
00000150: 794a 2f3d 3b4f 3e3d 62e5 4f3d 95e8 253d
00000160: 46ae 4b3d 5a1c 673c eee7 8f3c 6e57 c23b
00000170: 0273 103d 042f cc3c 96ca 193d e148 723d
00000180: 61b9 213d 2784 f53c a650 5c3d 2ed0 6c3d
00000190: 0400 0000 c736 ec3c d6da 2a3d 7f64 480e
000001a0: c3a3 223d 99d8 d43c c117 6d3c b2e1 343d
000001b0: ccc8 493d 4221 063d 231c 0a3d e90f 2d3d
000001c0: 1c83 813c c14b 193d 258e a03d 22fa 4e3d
000001d0: 583d 203d db77 253d 1a3b 513d 0400 0000
000001e0: b289 0c3d 96da 0d3d 2657 643c 4d9e c63c
000001f0: b761 5a3c 0c26 b73c eaba 423d 9f9b f33c

model.3.block.3.weight f4 [128, 128]
0.001777038 0.06046904 0.051995747 -0.006438648 0.018918892 -0.009692209 0.0008102594 -0.021119703
-0.06262403 -0.07179596 0.060960885 -0.030288175 0.022440333 -0.0071924035 -0.030671496 -0.061757375
0.034311038 0.017641628 -0.076035686 -0.004250318 -0.01195158 0.036193583 0.060882967 0.0150089525
-0.033556998 -0.006240177 -0.0022217396 -0.067260444 0.061493956 -0.045707215 0.011569986 -0.009654297
0.016452631 -0.025514208 0.057148688 -0.010450795 -0.04738225 0.017979905 0.009726378 -0.04692285
0.025449667 -0.04543305 0.00558971 -0.06751912 0.00011875128 -1.297493e-39 -0.06771044 -0.0017103343
0.051167972 0.066858 -0.055949885 0.00021720541 -0.0053241816 -0.034905054 -0.07905423 -0.0006050885
0.040449567 0.04948013 -0.05402646 0.0037957442 0.027910506 -0.026796136 -0.012923744 0.014433979
0.018130563 0.0002011275 -0.048583318 -0.0013702834 0.0077023986 0.06686595 -0.09650893 0.030488685
0.035108972 0.00029571416 -0.012415973 0.019677583 0.006727414 -0.040640414 -0.030978592 -0.002208021
0.017451363 -1.6027144e-07 -0.022020001 -0.010244115 -0.057022866 0.026152855 -0.008481944 -0.074854136
-0.0734504 -0.016867537 0.017828796 0.017768718 0.03498739 -0.013162201 -0.0100248745 -0.004804194
-0.008611109 -0.024101198 0.07256586 -0.027357357 -7.47792e-40 0.022391738 -0.024570674 5.938595e-17
-0.039915923 -0.044261582 0.009819592 0.04240816 0.005514283 -0.038973358 -0.021214873 -0.037520096
0.015764289 0.004348999 0.08111902 0.039561585 0.015247817 -0.0049860245 -0.06392845 9.22845e-40
0.08452222 0.0033875203 -0.027726285 0.010896695 -0.01477025 -0.02442101 0.005520721 0.04987458
-0.0027493692 -0.005305433 0.017124292 -0.004125052 -0.010425936 -0.0029461794 0.011452574 -0.0058107874
0.0013207997 -0.023105973 -0.007008056 -0.0010118961 -0.00386792 -0.0010432237 -0.02712638 -0.009684795
0.017281756 -0.012698763 0.0022692499 -0.0161559 -0.0049008415 -0.00061039766 0.021138359 -0.00021201516
0.0037418497 -0.008942536 -0.0141425375 -0.007379327 -0.012104531 -0.01800766 -0.008354901 -0.0150931915
0.0048510176 -0.0033642964 0.007906314 -0.011828358 0.004317613 -0.0051473025 -0.0037181322 -0.0006807421
-0.0012465972 -0.026094494 0.002553593 0.008488999 -0.015714502 4.00418e-40 0.0012482391 -0.015444075
0.018776637 -0.0018588054 0.0022384606 -0.019697396 0.013359122 0.0016688373 0.003919391 -0.020524578
-0.009647095 -0.0010557718 -0.010248656 -0.028903851 -0.013018354 -0.003765415 0.009437379 0.004851356
-0.007476556 -0.003270408 0.005445652 -0.0012708311 -0.014946794 0.0074911187 0.008120626 -0.011591994
0.00024007571 -0.00026381444 -0.0029814413 -0.0015572305 -0.00832324 -0.012845713 -0.020195674 -0.00017011324
-0.007051903 -8.724219e-08 -0.03609521 0.008304466 -0.028352153 -0.0045913192 -0.0013100065 -0.018792156
0.007978473 -0.014111354 -0.008224406 -0.0037992494 -0.0072576003 -0.010459095 0.008063664 0.010768914
-0.026914837 -0.01021321 0.002483875 -0.022706293 -4.80388e-40 0.00033477406 -0.012021874 3.6988533e-17
-0.008889954 -0.012718807 -0.016948089 -0.012905116 -0.005986171 -0.014002767 0.020621486 -0.0069827903
-0.0026611902 -0.017471299 -0.0107879 -0.0046385117 -0.01774172 -0.005822399 0.00039381656 -6.45284e-40
-0.005081911 -0.008523573 -0.0017100808 -0.006244148 -0.0029998608 -0.01207417 -0.0008651375 -0.005807073
00000000: 80eb e83a 62ae 773d 7ef9 543d 4bfb d2bb
00000010: cbfb 9a3c 12cc 1ebc 9667 543a 3a03 adbc
00000020: 0741 80bd c309 93bd 1fb2 793d e81e f8bc
00000030: cad4 b73c 41ae ebbb ca42 fbbc 4df5 7cbd
00000040: bb89 0c3d 2d85 903c 99b8 9bbd 4046 8bbb
00000050: 8fd0 43bc b93f 143d 6b60 793d 1ce8 753c
00000060: 1073 09bd 667a ccbb 9b9a 11bb d8bf 89bd
00000070: 16e1 7b3d 7d37 3bbd 0a90 3d3c 0e2d 1ebc
00000080: abc7 863c 2c03 d1bc be14 6a3d d039 2bbc
00000090: e413 42bd 984a 933c 635b 1f3c 2d32 40bd
000000a0: d27b d03c 0118 3abd e329 b73b 7747 8abd
000000b0: 1c0a f938 e220 0e80 c5ab 8abd 4c2d e0ba
000000c0: 8295 513d d9ec 883d b52b 65bd a2c1 6339
000000d0: 7976 aebb 9af8 0ebd 2fe7 a1bd cd9e 1eba
000000e0: 72ae 253d adab 4a3d d94a 5dbd 05c2 783b
000000f0: 93a4 e43c 9283 dbbc 1cbe 53bc 7f7c 6c3c
00000100: 8c86 943c c1e5 5239 4dff 46bd 159b b3ba
00000110: 6764 fc3b 04f1 883d 79a6 c5bd 68c3 f93c
00000120: 6dce 0f3d 150a 9b39 5d6c 4bbc e232 a13c
00000130: a471 dc3b 9076 26bd d1c6 fdbc 72b4 10bb
00000140: 29f6 8e3c 1417 2cb4 4a63 b4bc efd6 27bc
00000150: cf90 69bd 833e d63c daf7 0abc 204d 99bd
00000160: 2a6d 96bd ca2d 8abc b20d 923c b48f 913c
00000170: f04e 0f3d 46a6 57bc 5f3f 24bc 806c 9dbb
00000180: 9c15 0dbc e06f c5bc 699d 943d 891c e0bc
00000190: 8a24 0880 e16e b73c 7048 c9bc 47ef 8824
000001a0: e17e 23bd a24b 35bd 5be2 203c 2eb4 2d3d
000001b0: 29b1 b43b 87a2 1fbd d0ca adbc acae 19bd
000001c0: 1c24 813c 0c82 8e3b bb21 a63d 540b 223d
000001d0: fbd1 793c ce61 a3bb ebec 82bd 840c 0a00
000001e0: fc19 ad3d 2901 5e3b 3c22 e3bc 0d88 323c
000001f0: ebfe 71bc 920e c8bc 2ae7 b43b 4a49 4c3d
00000200: c32e 34bb 33d9 adbb 3e48 8c3c 722b 87bb
00000210: 8cd1 2abc b014 41bb 94a3 3b3c 6b68 bebb
00000220: af1e ad3a bd48 bdbc d6a3 e5bb 99a1 84ba
00000230: ee7c 7dbb c7bc 88ba 2438 debc f9ac 1ebc
00000240: 7892 8d3c 790e 50bc b2b7 143b 6159 84bc
00000250: 3d97 a0bb 1803 20ba 5a2a ad3c 6350 5eb9
00000260: d239 753b b783 12bc 1ab6 67bc 48ce f1bb
00000270: 1552 46bc cd84 93bc ffe2 08bc 6f49 77bc
00000280: 49f5 9e3b 877b 5cbb 7c89 013c bbcb 41bc
00000290: c37a 8d3b b4aa a8bb e8ab 73bb d473 32ba
000002a0: dc64 a3ba 1fc4 d5bc 2e5a 273b 7115 0b3c
000002b0: b3bb 80bc 345c 0400 f49b a33a 2509 7dbc
000002c0: 76d1 993c 29a3 f3ba 23b3 123b 6f5c a1bc
000002d0: 38e0 5a3c e3bc da3a 3c6e 803b 2923 a8bc
000002e0: d90e 1ebc d361 8aba fbe9 27bc c5c7 ecbc
000002f0: ef4a 55bc 2ec5 76bb 3d9f 1a3c 20f8 9e3b
00000300: e6fd f4bb 5754 56bb 7171 b23b 0492 a6ba
00000310: 66e3 74bc 0f78 f53b 600c 053c 59ec 3dbc
00000320: d5bc 7b39 9350 8ab9 4964 43bb fc1b ccba
00000330: 335e 08bc d376 52bc 6671 a5bc 6d60 32b9
00000340: a613 e7bb e759 bbb3 92d8 13bd 740f 083c
00000350: c642 e8bc c772 96bb 86b4 abba 02f2 99bc
00000360: 24b8 023c 4f33 67bc a9bf 06bc d4fc 78bb
00000370: 2ad1 edbb a05c 2bbc 751d 043c 1970 303c
00000380: 817c dcbc 4f55 27bc 82c8 223b 8c02 babc
00000390: 203b 0580 9d84 af39 65f7 44bc 5a94 2a24
000003a0: 2ba7 11bc 8b62 50bc b8d6 8abc fb6f 53bc
000003b0: a427 c4bb dd6b 65bc 64ee a83c e4cf e4bb
000003c0: 5d67 2ebb f81f 8fbc bbbf 30bc a8fe 97bb
000003d0: 1557 91bc d3c9 bebb 2a79 ce39 ca06 0780
000003e0: 2986 a6bb 75a6 0bbc ca24 e0ba b69b ccbb
000003f0: 5099 44bb bdd2 45bc 65ca 62ba 4249 bebb
