models_to_eval/mgum/dropout/generator.pth (torch_old, 146417 bytes, 19 tensors)

weight f4 [128, 3]
00000000: 43c7 46be dc15 70bd bab5 fc3d e491 94bd
00000010: 89cc db3b 6655 643e 43e9 03bd e043 683d
00000020: a591 8a3e e2b2 b8bd 867e 84bd c09e 303e
00000030: a66f ffbd 3406 133c ec63 433e c357 85bc
00000040: be94 893d 6fff 7cbe d771 8bbe 2a3a 6a3c
00000050: 5eea aabd cc4a 18bd f904 8c3d 5b24 c2be
00000060: 821b 18be be8f 5e3d 6440 41be 4ad4 64bd
00000070: 921a 29bd d7b7 5a3e b52d 393e faf3 3ebd
00000080: 366b 07be 2117 afbe 2b0b d93c 6c93 94bb
00000090: 3ff8 18be 6299 e1bc 73cd 67be cd25 36bb
000000a0: 5855 36bd 1b1f e0be 5615 73bd 8e51 043d
000000b0: 0b05 9ebe c933 71bc f6d5 ed3d a690 343e
000000c0: b8cb 3dbe 11ae 153d 7709 133e ced0 65be
000000d0: b596 76bd 7ca7 553e 93b2 283e 3eee a23d
000000e0: 8b90 b33d 46d6 113e 87cb 6dbd 9af8 edbd
000000f0: 9ddd 163d e6c0 433c d3c4 893e b027 84be
00000100: bacc 403a dd95 ff3d 3542 02bd c188 19bd
00000110: b691 993e 7f62 873d b058 12bc bc39 84be
00000120: 80da a7bd a428 7a3c 7aef 86be b7ca 333d
00000130: 8bbf 253d ac0b a23e 0ddb a63c a091 64bd
00000140: 1a52 823e 1ec2 86bd 5edd ea3c 0c05 a5be
00000150: a31c b93b 69ec 0dbe fcc2 37be 7c08 283c
00000160: c774 0dbc 1469 99be 7f43 a83d f84a af3d
00000170: 19aa 41be b0ff d13d b7c1 353d 91f8 3fbe
00000180: 3644 81be 3b9a fdbc 3826 cebd 47d7 43be
00000190: bca0 14be 090e 033e ebd5 653c 458d cbbd
000001a0: 57ae 4e3e cd78 b7be 8c73 6abd 9798 053e
000001b0: f58d 9b3d 4132 c43d 84e7 2b3e 16f9 1c3d
000001c0: 66d2 1bbd 47a1 b4be fdb1 37be 8a8e 183e
000001d0: 78c3 1a3e 3b63 a13d 94a7 e93b adb7 4abe
000001e0: 2a37 9b3d 59b9 fa3c 584f 8ebe 3fc3 a8be
000001f0: f4e3 bcbd b3f3 a5bc 8c1a d13d 2ba3 f03a
00000200: 4a36 54be 9da7 373e e0d5 0abd c783 9ebc
00000210: c722 72be 5802 c33c cd81 963d e907 8ebd
00000220: 2d33 e63c 2d7b 813e 32d0 cabe 2df9 0e3e
00000230: 674c f03d 2b9b 4f3e d942 233c fb8b 0bbe
00000240: 11e4 0bbe b9a7 643c 056a 973e 3b1c f5bd
00000250: 9503 6bbd 3514 a23e 99ea e53d a913 37be
00000260: 2153 24be 8c95 10be 3c3e 5ebd c410 7b3e
00000270: 3189 503e 272c 27bd a3bf dabd 7c19 05be
00000280: e4c0 fcbc c6c2 cd3d 35ad 81bd a913 a13d
00000290: fcb1 a9be 552c 85be 01d5 8abd bda5 943d
000002a0: 3505 073e 816d 1e3b 9a74 2bbe 29bd 823d
000002b0: 60f2 2b3d 6704 19be 16b3 71bc 1403 9f3c
000002c0: eb85 c4be ee1e aebe 36f6 8a3d 6b3a 073e
000002d0: b899 063e e450 ab3d 8fdb 87be bc40 a4be
000002e0: b083 c8b7 20d4 0cbc 4400 7e3d 4af8 c1bd
000002f0: b64a 813e 50bd 36be 0e62 41bd 53de af3d
00000300: 6acd 97be 772c afbd 9c40 fc3c a7ee 20bd
00000310: 6820 afbd dc5d 41be 5c5b dcbd fdee 6639
00000320: 437a 93be 97da 92bd b57b 913d 4f5a a4be
00000330: 19e6 69bd d0f8 7abc afe3 9a3e 75a1 d1bc
00000340: 8866 bebc fb03 dabe 44aa 95be 5572 06be
00000350: d94e f83d 96ce c5be 19af 18bd 2bb5 4fbd
00000360: 948e b53d cf50 82bd 0380 bb3d af5a e1bd
00000370: c94a d5bb 74d9 9a3e 150e f7bc 7529 62be
00000380: b52d d33d de50 fcbd 5fae 1ebd eaff 373e
00000390: bda7 2fb9 2ad2 84bd b814 58be 8234 afbd
000003a0: c082 3dbd db75 473e 01d3 46bd c735 953c
000003b0: 9171 b63e e3d5 073e 9349 73bd dd9f 3ebe
000003c0: 690b 77bd 8f63 b33c 102b 403e 2708 f9bd
000003d0: 79b4 923d 1c6e 6f3e 07d0 6e3d 9d38 6fbe
000003e0: e48f 8d3d 1f31 0b3e ca41 1f3d 50f3 55be
000003f0: b989 c3bd 89dc 3abd 0862 873e fbad 22be
-0.1941195 -0.058614597 0.12339349 -0.07254389 0.006707732 0.22298202 -0.032204878 0.056705356
0.27064243 -0.09018494 -0.06469445 0.17248058 -0.12472467 0.008973647 0.19081086 -0.0162772
0.067178234 -0.24706815 -0.2723529 0.014296094 -0.08345483 -0.037180707 0.06836886 -0.37918362
-0.14854243 0.054336302 -0.1887222 -0.055866517 -0.041285105 0.21359192 0.18083842 -0.046619393
-0.13224491 -0.34197333 0.026494583 -0.0045341756 -0.14938448 -0.027538959 -0.22636966 -0.0027793527
-0.044514984 -0.43773732 -0.05934652 0.03230434 -0.30863222 -0.014721819 0.116130754 0.17633304
-0.18534744 0.036542956 0.1435908 -0.22442934 -0.06020232 0.20864671 0.1647437 0.07955597
0.08767804 0.14241895 -0.058055427 -0.116196826 0.03683244 0.011947846 0.26907977 -0.2581153
0.00073547254 0.12479756 -0.03180142 -0.037483934 0.2999398 0.066105835 -0.008932278 -0.25825298
-0.081959724 0.015268479 -0.2635458 0.043894496 0.040465873 0.3164953 0.020368123 -0.05580294
0.25453264 -0.06579994 0.02867001 -0.32230413 0.0056491657 -0.13859715 -0.17945474 0.010255929
-0.008633799 -0.2996298 0.08215999 0.08559221 -0.18912543 0.10253847 0.044374194 -0.18747164
-0.25247353 -0.030957332 -0.100658834 -0.1912509 -0.1451444 0.12798323 0.014028053 -0.099390544
0.20183693 -0.3583435 -0.0572391 0.1304649 0.075954355 0.09579898 0.16787535 0.038323484
-0.03804245 -0.35279295 -0.17938991 0.14898124 0.15113628 0.07880255 0.0071305726 -0.19796629
0.07578881 0.030605959 -0.2779491 -0.3296146 -0.09223166 -0.020257806 0.102101415 0.0018359175
-0.20723835 0.17935033 -0.033895373 -0.019349946 -0.23646079 0.023804829 0.07348976 -0.069351025
0.028100574 0.25289288 -0.39611965 0.1396224 0.117333226 0.20274036 0.009964668 -0.13627617
-0.13661219 0.013956004 0.29573074 -0.11968275 -0.057376463 0.31656042 0.112263866 -0.17878594
-0.16047336 -0.14119548 -0.05425857 0.24518114 0.20364834 -0.04081359 -0.10681083 -0.12998003
-0.030853696 0.10046916 -0.06331865 0.07865078 -0.33143604 -0.26010385 -0.067789085 0.072581746
0.1318558 0.0024174156 -0.16743699 0.06383736 0.041979194 -0.14943086 -0.01475217 0.019410647
-0.3838342 -0.34007972 0.06785242 0.13205878 0.13144577 0.08365038 -0.26534697 -0.32080638
-2.390318e-05 -0.008595496 0.062011972 -0.094711855 0.25252312 -0.17845654 -0.047212653 0.08587327
-0.29648906 -0.08553403 0.030792527 -0.039290097 -0.08551103 -0.18883461 -0.10759613 0.0002202354
-0.28804216 -0.07170599 0.07103673 -0.3210015 -0.057104204 -0.015318111 0.30251834 -0.025589684
-0.02324225 -0.42581162 -0.29231465 -0.13129552 0.12124414 -0.38634175 -0.03727636 -0.050709885
0.08865085 -0.06363069 0.09155276 -0.11003625 -0.006509159 0.3024403 -0.030158082 -0.22086127
0.10311452 -0.12320112 -0.038740512 0.17968717 -0.00016751788 -0.06485398 -0.21101654 -0.08554937
-0.04626727 0.19478552 -0.048541073 0.01821412 0.3563352 0.13265185 -0.059396338 -0.1861567
-0.060313616 0.02189806 0.18766427 -0.12159758 0.07163329 0.23381847 0.05830386 -0.2336144
0.069122106 0.13592957 0.0388811 -0.20893598 -0.09547753 -0.045620475 0.2644198 -0.15886681

bias f4 [128]
00000000: 0f30 a339 7a89 dc38 ee89 183a 8612 a3b7
00000010: 3213 ac37 5aaf b8b9 63fd 7939 ed33 9c38
00000020: c476 e7b9 7393 d6b7 ef36 4ab9 3e01 3cb8
00000030: 5aaf e138 74af 0f39 2f0e ffb8 2d93 9fb5
00000040: bc1b a939 d171 60b9 23ad 0739 5f4e 0639
00000050: cda2 3cb8 ac3d c438 2d1b 3cb8 e869 8739
00000060: 71b4 1538 6696 6838 82d8 60b8 59e8 9d37
00000070: e41b abb9 e295 eeb9 5140 68b7 a653 5bb7
00000080: e8d3 64b9 446d 05b9 27ae 30b8 f1a2 5438
00000090: 8d8d a1b8 b1d8 9739 91ee 5ab7 c967 aeb9
000000a0: 8e6c bdb9 50eb 2eb9 e864 ff38 0adc bab7
000000b0: 424f 6137 9d71 3db9 ffec 80b6 fb13 5139
000000c0: bc7e 7739 91d3 1ab8 0b89 61b8 7fe4 c9b8
000000d0: db0d 6237 35ad adb8 2134 d338 00c2 e9b6
000000e0: 07e0 9237 b0ee b938 242a f837 143f 7537
000000f0: e5a5 09b9 5c55 dcb8 c4bc 8b35 b79a feb7
00000100: 160d 0039 0979 9139 f20e 5338 587b 8e39
00000110: 3dd2 04b9 ace5 5939 42ab 41b7 b3ad 5ab8
00000120: 353e 5a3a 326c 0739 5b98 9fb8 3e4f 1c38
00000130: 1687 b938 a665 dc38 1285 15b8 14f7 ef38
00000140: 78a4 b339 c5fb dcb8 cb0b 4636 62ad 9839
00000150: b5af 3738 0b31 12b8 63f0 d537 38f6 7239
00000160: 97ef 4338 ad04 0d36 2e5a 8338 07a5 d0b7
00000170: 5b25 3fb7 3c18 3f39 7d0d 26ba cf8c a239
00000180: 0057 c037 25ee 4a39 0937 2eba 9f90 d637
00000190: 5340 9338 b8ac fab7 d2d7 e5b7 ffdb bfb9
000001a0: 358f 4ab9 529e 9238 003a 7139 f36f 07ba
000001b0: a3ae 9bb7 ef93 3338 62a4 a2b8 126b 24b9
000001c0: e2a3 adb8 95f3 93b7 393c 0e38 b75a 77b9
000001d0: 85bc 053a 95d9 1cb9 9a60 e7b8 c5b4 4a38
000001e0: 4ff2 2539 d8fc 6f38 fad9 b139 7201 ff38
000001f0: 9d27 86b8 3d45 9eb7 cca1 ef36 868c 0439
0.0003112559 0.000105160245 0.0005818893 -1.943974e-05 2.0512936e-05 -0.00035225862 0.00023840884 7.4483316e-05
-0.0004414824 -2.557945e-05 -0.00019284686 -4.482385e-05 0.00010761498 0.00013702904 -0.000121619894 -1.1889257e-06
0.00032254856 -0.00021404705 0.00012939102 0.00012808431 -4.4974313e-05 9.3574956e-05 -4.4848002e-05 0.00025828113
3.5692417e-05 5.545318e-05 -5.36074e-05 1.8824054e-05 -0.00032636442 -0.0004550657 -1.3843252e-05 -1.3072893e-05
-0.00021822716 -0.00012724573 -4.2123862e-05 5.069649e-05 -7.703444e-05 0.00028962412 -1.3049358e-05 -0.00033265192
-0.0003612977 -0.00016681594 0.00012178143 -2.2275392e-05 1.3429499e-05 -0.00018066769 -3.8422872e-06 0.00019939237
0.00023602968 -3.6913498e-05 -5.377181e-05 -9.6269876e-05 1.3473876e-05 -8.281545e-05 0.00010070974 -6.9665257e-06
1.7508877e-05 8.8659464e-05 2.9583527e-05 1.46178245e-05 -0.00013127139 -0.00010506317 1.0411245e-06 -3.0351204e-05
0.00012211906 0.00027746733 5.032024e-05 0.0002717625 -0.00012666821 0.00020780292 -1.15435705e-05 -5.213702e-05
0.00083253096 0.00012914909 -7.610089e-05 3.72671e-05 8.846649e-05 0.00010509351 -3.56483e-05 0.0001144243
0.0003426408 -0.00010537313 2.9511164e-06 0.0002912088 4.379424e-05 -3.4854787e-05 2.5503517e-05 0.00023170642
4.671476e-05 2.101336e-06 6.263364e-05 -2.4872379e-05 -1.1393185e-05 0.00018224207 -0.00063344074 0.00031003958
2.2928696e-05 0.00019352937 -0.0006645774 2.5578132e-05 7.0214875e-05 -2.988275e-05 -2.7399426e-05 -0.0003659427
-0.0001931757 6.991312e-05 0.00023005158 -0.0005166523 -1.8558761e-05 4.28147e-05 -7.755381e-05 -0.00015680146
-8.2798084e-05 -1.7637192e-05 3.3911525e-05 -0.0002358955 0.0005101639 -0.00014958375 -0.00011032932 4.8328908e-05
0.00015825893 5.721752e-05 0.00033922476 0.00012159617 -6.3969965e-05 -1.886731e-05 7.1415907e-06 0.0001264085

weight f4 [128]
00000000: 7af3 373f b490 743f fecd 5e3f cbbb 2d3f
00000010: 78d1 183f f364 773f 7429 3b3f 7d0c 3c3f
00000020: ba7c 943f 0bbd 4c3f 1f32 653f aff8 4e3f
00000030: ca47 8c3f 6d76 803f 0554 673f 58ac 143f
00000040: fc27 893f 982e 5e3f 9b55 3a3f c399 0b3f
00000050: ed24 1d3f 656b 1a3f c46b 123f 8118 443f
00000060: 83e5 823f 30b2 253f 33e2 223f 6f6d 9b3f
00000070: 9952 a53f 0738 843f c1c9 643f 4942 5a3f
00000080: c793 703f 914d 6b3f d27b 163f cacb 543f
00000090: 0b68 053f 2e34 593f 9e1a 383f bff3 413f
000000a0: 9956 8e3f e7f2 4e3f 0b34 863f 0525 3e3f
000000b0: 51df 4e3f 36b2 633f 8408 563f 16d6 5e3f
000000c0: 734c 713f 8de9 4f3f 87a5 383f 1900 3b3f
000000d0: c850 523f 02b7 523f 6048 6b3f 351a 2e3f
000000e0: 0e2a 573f f593 633f f476 843f 1790 513f
000000f0: e2f7 593f 071c 523f 524c 553f 3a03 dd3e
00000100: 05ae 523f 677d 4c3f b4f7 8e3f ef85 8d3f
00000110: 236d 5d3f 7958 6b3f 16b0 5b3f 4b3e 2e3f
00000120: e93f 543f 4b43 2c3f 3222 4b3f 4dc5 343f
00000130: 30b5 483f e3ad 703f ae8e 353f 77ad 273f
00000140: f0d4 673f 0821 4d3f 4bba a33e 9b71 583f
00000150: 619f 413f f622 093f e752 933f ec6c 503f
00000160: 3040 503f a7a7 633f e06d 4c3f f785 333f
00000170: 41c2 413f 2ec7 723f 1a26 2e3f 6784 8f3f
00000180: 0e46 323f d96b 6e3f 1efe 8e3f 9c23 803f
00000190: bff3 763f 4b30 313f 45c3 6f3f 4070 903f
000001a0: 24de 5f3f f4b6 843f 430d a03f 39fb 773f
000001b0: c601 ad3e 0d7f 2a3f 74c2 603f efd8 983f
000001c0: 4758 8d3f 357c 073f bfc4 4a3f 584b 433f
000001d0: cee4 4b3f 17e7 183f 7278 843f 213f 693f
000001e0: 4030 543f f8e7 223f 2ddd 493f 897b 3b3f
000001f0: 5291 5f3f e5ec 8a3f 1b47 0b3f 0ebe 7c3f
0.7185589 0.955333 0.8703307 0.67864674 0.59694624 0.9663841 0.7311013 0.73456556
1.1600564 0.79975957 0.89529604 0.8084821 1.0959408 1.0036141 0.9036258 0.58075476
1.0715327 0.86789846 0.72786874 0.54531497 0.6138447 0.6032012 0.5719569 0.7659989
1.0226291 0.6472502 0.636264 1.2142771 1.2915832 1.0329598 0.8937035 0.85257393
0.9397549 0.9191523 0.58782685 0.8312346 0.5211188 0.84845245 0.71915615 0.7576255
1.1120178 0.8083939 1.0484632 0.7427524 0.80809504 0.88943803 0.83606744 0.8704542
0.9425728 0.81215745 0.72127575 0.73047024 0.8215451 0.823105 0.9190731 0.6800874
0.84048545 0.8889764 1.0348802 0.8186049 0.85143864 0.82074016 0.8331958 0.43166524
0.8229678 0.7987885 1.1169343 1.1056498 0.86494654 0.91931874 0.8581556 0.680638
0.8291002 0.6729018 0.7934905 0.7061356 0.7840147 0.9401533 0.70920837 0.6549906
0.9055929 0.80128527 0.31978068 0.8454835 0.7563382 0.5356897 1.1509675 0.814162
0.8134794 0.8892769 0.79855156 0.7012629 0.7568703 0.94835174 0.6802689 1.1212281
0.69638145 0.9313331 1.11713 1.0010867 0.9646568 0.69214314 0.9365733 1.1284256
0.87448335 1.0368333 1.2504047 0.9686771 0.33790416 0.66600114 0.8779671 1.1941203
1.1042565 0.529239 0.7920646 0.7628684 0.79646003 0.59727615 1.0349257 0.9111195
0.82886124 0.63635206 0.7885311 0.73235375 0.87331116 1.0853544 0.54405373 0.987275

bias f4 [128]
00000000: 6818 70be 569e 05bf 3b98 16bf 2475 3cbf
00000010: 1851 9cbe 1fbd fdbd 3a41 27be 5531 343e
00000020: dbcc e6bd ea80 15bf 01b2 fa3e b9bf 50bd
00000030: c009 6d3c e888 bc3e e2d8 723e bc44 1cbf
00000040: 8110 dcbe ce08 1abe 6552 14bf 2d84 ca3e
00000050: 6a44 d7be dc9f e1bd 6fbf 68be 921e de3e
00000060: cb9b a33e e0c9 a4be 63de 68be a5cf 30bd
00000070: 01b7 4c3e 1395 f0bd 67d7 c83e 3aea d73e
00000080: 52ef 1e3d 6f42 0cbf 248c 2bbe 1914 733d
00000090: b897 2ebf 5c66 d83e 1308 9dbe 2d9e f13e
000000a0: af83 0c3e 3de8 f4bc 74bc 133f 309b e5be
000000b0: cae2 5d3d d83d 24bf 6488 13bd 3ab7 ba3e
000000c0: c67e 18bf 85a9 3abf 9e02 ec3e a0d5 1dbf
000000d0: aa93 153f 122d 23bf e387 92be 86ef f0be
000000e0: 08ea af3e c360 0f3f d2bf 3b3e 5eb1 56be
000000f0: 8a4b bd3e 45fe 11be 418d 92bc 19ad 09bf
00000100: 33fa dbbd 2499 21be 1207 eabd 613b 3b3d
00000110: fe73 2bbf d748 b6bd 6117 bf3c c847 3dbe
00000120: 8c4c 0e3f a56a 0cbf fc04 1abf b16d 37bf
00000130: e119 7dbe 5129 30bf 634f 38bf b0b0 b13e
00000140: bfa8 00bf 8204 1ebf 30da e7be 3cf0 b43d
00000150: c15e 33bf 4973 17bf 86e9 2e3d 449c b93c
00000160: 61ef 123f bf0e a3bd f6bc 153f d83a e33e
00000170: 1f74 aabe 5873 d63e 0e27 d23e 1ad5 b73a
00000180: b516 27bf 745c 8a3e e5f7 b13e 4ce1 be3e
00000190: 127b 8e3d ce42 39bd 7bf7 44be ad5a 39bd
000001a0: c177 7b3e bcb3 333e 386c 9d3d 9b43 0f3f
000001b0: e1a8 c6be 3b84 edbe afb2 14bf aaba 953d
000001c0: fa35 bf3e e09b fcbe a61a babe e98c 21bf
000001d0: cf4e c63e fd72 c23e 06b1 12be 4377 34bf
000001e0: 9153 34bf d3f2 6abe 6c05 ee3e 9072 68be
000001f0: 5b1f fcbe cac4 603d f350 1dbf b063 893c
-0.2344681 -0.52194726 -0.58826035 -0.7361624 -0.3053062 -0.123895876 -0.16333476 0.17596944
-0.11269542 -0.5839983 0.4896393 -0.05096409 0.014467657 0.368232 0.23715547 -0.6104238
-0.4298134 -0.15042421 -0.57938224 0.39553967 -0.42044383 -0.11016819 -0.22729276 0.43382698
0.31954798 -0.32185268 -0.22741084 -0.043166775 0.19991685 -0.11747184 0.3922684 0.42170888
0.038802452 -0.5478887 -0.16752678 0.05934534 -0.68200254 0.42265594 -0.30670223 0.4719099
0.13722108 -0.029895896 0.5770943 -0.4484496 0.05417136 -0.64156866 -0.036018744 0.36467916
-0.5956844 -0.72914916 0.46095747 -0.6165409 0.5842844 -0.63740647 -0.28619298 -0.47057742
0.3435824 0.5600702 0.18334892 -0.20966098 0.36971694 -0.14257152 -0.01788962 -0.5377975
-0.10741081 -0.15781075 -0.1142713 0.045710925 -0.66973865 -0.08900612 0.023326578 -0.18484414
0.5558555 -0.54850227 -0.60163856 -0.7165175 -0.24716903 -0.68813044 -0.71996135 0.34705114
-0.50257486 -0.6172563 -0.4528365 0.088348836 -0.7006646 -0.59160286 0.042703174 0.022657521
0.57396513 -0.07961797 0.58491457 0.44380832 -0.33291718 0.41884875 0.4104542 0.0014025301
-0.65269023 0.2702366 0.3475944 0.37281263 0.069570675 -0.045229726 -0.19235031 -0.04525249
0.24557401 0.17549032 0.07686657 0.5596253 -0.3880072 -0.46389946 -0.5808515 0.07310994
0.37345868 -0.49337673 -0.36348456 -0.63105637 0.38732 0.37978354 -0.14325342 -0.7049448
-0.7044001 -0.22944193 0.46488512 -0.22699952 -0.49242672 0.054875173 -0.61451644 0.016771168

running_mean f4 [128]
00000000: 80ba a9b9 d52a 04ba d42b 85b7 cb90 17ba
00000010: fafb 17ba e75c 6f39 c954 31b8 93e1 683a
00000020: 767d e7b8 fe6f 19ba 86f6 2239 9292 04ba
00000030: 9d31 8939 5165 7e3a 9de2 e539 61c9 52b9
00000040: 62cd b5b9 d4d4 8bba 0e41 3139 4af2 ec39
00000050: 1b8e f2b9 0fc2 12ba 528e 3aba b8cc 4c3a
00000060: 7b94 fa39 f597 eeb9 5d1b 20ba 0104 3c3a
00000070: 72ba d5b9 f8c1 6439 0d39 333a 5eef 003a
00000080: 90bf b9b9 6b26 48ba f01f 17ba c938 43ba
00000090: 7839 e2b8 ec79 793a c7cf a6b9 8dba 7b39
000000a0: 5308 9b39 7d7a 40ba 2038 4e3a 4729 5939
000000b0: 8768 ddb9 bd1d 43ba 122e 1aba 6f70 623a
000000c0: 9a58 03ba 2921 67ba 465e a239 7a10 67ba
000000d0: a48e 0c3a 861b 1bba 9c8d 653a 2e3e 2bba
000000e0: 40f3 cf39 a08b ff39 5215 5f3a f4b2 49ba
000000f0: 3697 123a da1c 0eba a153 2dba 484a 0aba
00000100: 084a f7b9 ee39 133a 46bd 1e3a bb60 533a
00000110: 906e 65ba 35a3 7b3a 1d4d 5aba c61b 13ba
00000120: 8033 ea39 f3c2 26ba 313c 28ba 7d2a 07ba
00000130: eb50 d639 6b1c adb9 67f3 51ba 35c1 303a
00000140: f3e5 f7b8 0ee4 27ba a456 d0b9 9320 893a
00000150: 50bc 36ba 129a 43ba 69ba f139 79dc a7b9
00000160: 1c1c 8a39 79ee 673a 9700 fa39 4f73 113a
00000170: bf0e e7b9 d0d7 4d3a 74cd b5b9 c2ea 843a
00000180: 4869 4eba 3324 b93a e41f 8eb7 9258 513a
00000190: 6c0e 8138 f212 a4b9 7bd3 6dba a2b7 183a
000001a0: 940c 523a 9e65 353a 121f b83a e748 4f39
000001b0: 2b04 b8b9 e6cf 11ba 0bde 23ba 8657 9839
000001c0: b431 233a 6124 3aba ab39 47ba 7fa9 6cba
000001d0: 8738 9a39 e504 9f39 bc44 7f3a 242a 2fba
000001e0: b099 1cba a90f 87b9 eda5 3b3a b480 463a
000001f0: ee20 09ba 20b4 273a 2f96 28ba 45fb fd39
-0.00032373145 -0.0005041783 -1.5875245e-05 -0.00057817687 -0.00057977403 0.00022827425 -4.227905e-05 0.0008883711
-0.00011038307 -0.0005853175 0.00015541361 -0.0005057241 0.0002616764 0.00097044284 0.00043847124 -0.0002010218
-0.00034676032 -0.0010668286 0.0001690427 0.00045193947 -0.00046263714 -0.0005598375 -0.00071165443 0.0007812488
0.00047794342 -0.00045508114 -0.0006107593 0.00071722275 -0.00040765438 0.00021816033 0.00068368093 0.0004918481
-0.00035428675 -0.0007635119 -0.0005764952 -0.00074471213 -0.00010787224 0.0009516764 -0.00031816793 0.00024006721
0.00029570106 -0.0007342471 0.00078666396 0.0002071011 -0.00042230284 -0.0007443091 -0.0005881499 0.000863797
-0.0005010456 -0.0008816892 0.00030969287 -0.0008814406 0.0005361831 -0.0005916882 0.0008756758 -0.0006532398
0.00039663352 0.0004874142 0.0008509952 -0.00076942076 0.000559199 -0.00054211693 -0.0006611888 -0.0005275351
-0.0004716667 0.0005616237 0.00060554256 0.0008063425 -0.0008752132 0.000959921 -0.0008327531 -0.00056117435
0.00044670328 -0.0006361447 -0.00064176606 -0.00051561726 0.0004087755 -0.00033018304 -0.0008008987 0.0006742657
-0.00011820709 -0.0006404527 -0.00039737404 0.0010461978 -0.000697081 -0.0007461618 0.00046105988 -0.00032016987
0.00026342354 0.0008847486 0.00047684155 0.00055484934 -0.0004407074 0.0007852288 -0.00034676085 0.0010140764
-0.00078739645 0.0014125168 -1.694257e-05 0.0007985915 6.1538856e-05 -0.00031294633 -0.00090723456 0.0005825703
0.00080127385 0.0006919744 0.0014047346 0.00019768217 -0.0003509832 -0.00055622903 -0.00062510435 0.0002905691
0.0006225363 -0.0007100758 -0.0007599841 -0.00090279424 0.00029415285 0.0003033049 0.000973772 -0.00066819997
-0.0005973829 -0.00025760874 0.0007158209 0.0007572279 -0.0005231042 0.0006397385 -0.00064310705 0.0004844313

running_var f4 [128]
00000000: 87f3 663d 87e5 603d 7747 9e3d 6d86 2c3d
00000010: dcb2 543d 9212 863d 8548 a53d 7b94 183e
00000020: 5196 753d 4f79 4e3d b28e 553d 67dd ee3d
00000030: 250f 973d 7119 453e a33c cb3d 3767 363d
00000040: da8e 653d 41e4 c73d bebd 273d 3940 173d
00000050: 52ab 963d 1eee a73d d650 bc3d 596e 913d
00000060: dc7c 9b3d fd2b d33d 483d 8b3d 1611 de3d
00000070: 3c9c 513d 50fe b73d b971 4c3d 6a67 433d
00000080: f766 983d d03b 983d 0ed0 4f3d d318 183e
00000090: 6ad6 2f3d 2ac2 013e cfc9 9c3d 7cda 393d
000000a0: facf ab3d a23b f03d c938 5a3d 8a53 093d
000000b0: 6b93 7b3d f933 8e3d 21eb 403e 879f 743d
000000c0: 3336 d93d ad2c f13d fce0 8e3d 2df3 a93d
000000d0: 2c3e 5e3d b8ff e43c b858 f43d 29b2 9e3d
000000e0: bcc6 393d 0acc e63c afb6 163e 610c 0c3e
000000f0: 6d08 c23d 84d0 d13d a728 9c3d 27b0 293d
00000100: 7dd4 c43d 2d8e 353d d289 c03d f745 e63d
00000110: 5427 c23d 0d28 3a3e a32c f13d c836 1c3e
00000120: 5559 a43c 670c d43d 075d 773d 3ebd 483d
00000130: 23d7 463d 4506 423d 995e 043e 266b 633d
00000140: 7fb7 203d d231 983d d1d9 7f3d 9f4f 823d
00000150: 45fb a53d 5661 be3d bd28 c33d d0d5 803d
00000160: f312 983d b716 e43d 49e4 1e3d 43db 383d
00000170: a43d 763d b1f1 af3d 4a31 0d3d 6d9c 473e
00000180: 3ed1 b13d 8ffa 9c3e 8dc0 8a3d 66f2 ab3d
00000190: a74e cb3d 06f9 0f3d aaaf da3d a54b 803e
000001a0: bac5 353e d6fc b23d 2cbd 673e 8cfb 3d3d
000001b0: a806 b13c ab99 9f3d 0bff 4f3d 8d60 fa3d
000001c0: 96f8 023e 7ac0 8c3d f9e8 c43d 5b2b 8f3d
000001d0: 84fe d43c cdc5 753d b0d6 133e 81cd dc3d
000001e0: bac8 923d 181e 3b3d a3ab 613d cbab bf3d
000001f0: d6d2 873d 6e69 133e 14d8 c13d b142 893d
0.05638459 0.054906394 0.077284746 0.042120386 0.051928386 0.06546511 0.08070473 0.14900391
0.059957806 0.050408658 0.052138038 0.11663323 0.073759355 0.19247986 0.09923675 0.044532027
0.056044437 0.09760333 0.040952437 0.036926482 0.073568955 0.08199714 0.09195106 0.07101125
0.075921744 0.103111245 0.06798798 0.10843103 0.051174387 0.08984053 0.049913142 0.047706045
0.07441514 0.07433283 0.050735526 0.1485322 0.04292909 0.12671724 0.076556794 0.04537438
0.08389278 0.11730124 0.05327681 0.033526935 0.061419886 0.06943507 0.18839695 0.05972245
0.10606041 0.11776099 0.06976506 0.08298335 0.05425851 0.027953967 0.11930984 0.07748825
0.045355543 0.028173465 0.14718126 0.13676597 0.09474263 0.10244849 0.07624941 0.041427758
0.096108414 0.044325043 0.09401287 0.112438135 0.094801575 0.1817934 0.11776092 0.15255272
0.020062128 0.10353928 0.060391452 0.0490086 0.048545014 0.04736926 0.12926711 0.055522107
0.039237496 0.074313775 0.062463585 0.06362843 0.081045665 0.09295909 0.095292546 0.062907815
0.07425489 0.11137145 0.03879193 0.04513098 0.06011738 0.08591021 0.034470834 0.19493265
0.08682488 0.3065991 0.067750074 0.08395843 0.09927111 0.035149597 0.106780365 0.25057712
0.17751208 0.08739631 0.22630757 0.046382472 0.02160962 0.07792982 0.050780337 0.12225447
0.1279014 0.068726495 0.096147485 0.06990691 0.026000269 0.06000309 0.14437366 0.10781384
0.07167192 0.045682997 0.055095326 0.09358939 0.06632011 0.14395687 0.09465042 0.067021735

weight f4 [128, 128]
00000000: decd 213e 24ba edbd 1a18 28be a9e2 34be
00000010: 0a57 1dbd 1d7c 97bc e851 223e 7fe7 38bd
00000020: da54 af3a 3381 46be 1d4d 2b3d ff06 1d3e
00000030: 8a37 94bd 210c b73b 44ff ae3d 13bb 993c
00000040: 141c 19bd bd42 573d f6a9 3cbe df61 26be
00000050: 02df 6ebd 0d01 333e 1358 70bd 23f1 9dbd
00000060: 54c3 52bc 70e0 1ebe 398d c0bd 262b 973c
00000070: 2869 d23d 92de 9b3c 839d bebd 16db 37be
00000080: 097b d33b 948b 32be dea3 5e3c 7b86 433e
00000090: 28a4 1cbd c069 ebbc 7554 05ba 6446 adbd
000000a0: 3278 31bd 58bf c03d 1a78 f8bd b1e6 743d
000000b0: 6e12 82bd 7270 12be 30be 243e 1e11 23be
000000c0: a3f7 2cbe 5973 b6bd 9edb c2bc cbfa 34be
000000d0: 7656 2cbe a38d 8dbd b8d3 ff3c 2e43 253e
000000e0: 74ac 73bc d875 80bd d702 12be a5d0 083e
000000f0: 8b26 fabd 7418 fd3d b23e bfbd 3f63 4ebb
00000100: b714 d73b a135 203d feb6 903b a274 873d
00000110: ce24 25be 5db9 023e 1871 0f3e 7308 873d
00000120: 457f 65bd a189 afbd 78d0 3ebe e056 94bd
00000130: 058b a03d 9b7d 1fbe fdc1 0ebe e049 43bd
00000140: b05f 5cbe 18bd ccbd af2d 983c ee68 9ebd
00000150: ef21 e6bd 90c2 44bd 0342 cdbd 9b77 d43c
00000160: 90eb 99bd 0459 243d 482c 96bd d7b4 34bd
00000170: 03e2 aa3d b8f1 24be b2ef 533d a799 4c3d
00000180: ca01 17be 9212 e0bd 9bd9 c1bc 2912 13be
00000190: 7883 793d 3fdd 913c bb4f 373d b675 b7bb
000001a0: 98bf 66bc 99c5 bebd a082 a33d 1455 fabd
000001b0: 28b3 7cbd 5080 b6bd 523c bebd ac96 97bd
000001c0: cd43 3d3d a169 99bd 03ce b93d 1bdb 80be
000001d0: a9e9 08be 92eb 1fbe 353d 90bd d3bf 5fbe
000001e0: 2a12 50be ce9f 113e a73c 2fbe 4024 ad3c
000001f0: 4cea 32be 85a4 913c 999f cdbb 985e 07bd
00000200: 2088 003d a2cc 823d a375 013d f1ab b33c
00000210: ad47 b23c 16a5 813e 250f b13c 80c2 f03d
00000220: 7b14 eb3d f6e2 3e3d 4d47 653e 0da1 fb3d
00000230: f9ab 813e 2a90 ad3d 9303 b93d 809d 8b3c
00000240: 3597 a93d a3a6 5f3d e946 51bd 5ff4 123c
00000250: 16c4 733c 9722 8f3c 4e47 c23c 47e5 4dbd
00000260: 645a 523e d671 783d 823a e33c 5818 973e
00000270: 45e3 943e a287 673e 9094 773d 427b f03d
00000280: 2be6 223e 5c92 ed3d 1e92 113d 31f4 543c
00000290: c436 62bb 3d62 f83d 9014 d63d 910b 7b3d
000002a0: a63d 7d3e 26f3 3e3d 9673 5d3e 8d39 0b3e
000002b0: 2a27 63bc df11 323d 1c75 a8bc 0d1c 06bd
000002c0: a3c6 373d de1f 3c3d 598b 163d 2a6f b13c
000002d0: b88f ffbc e0ac 143d 0187 2f3e 5062 833c
000002e0: cb1f 7dbd 8db8 be3c 0ac7 bd3d 155e 04bd
000002f0: 4389 223e 158d 9c3d f9e9 88bd 285c 893b
00000300: ff70 e73d ed8c fc3d 8ab6 303e 8973 d03d
00000310: 332f 273d 892a aa3e 4f57 f73d 54ed 183d
00000320: 6469 e3bd 2cf0 353c 8f01 4e3d 5151 9d3c
00000330: f37c e83d 04a4 b13c 9aa6 423c 4bfd e13d
00000340: 9bca 233d f96e 183d 387c 2ebd 775a 3d3e
00000350: 6f91 5e3c 85bb b9bc d377 813e c6a7 94bc
00000360: 9dce 5eba fa1e 6c3e 17a6 a33d 2e5a f1bb
00000370: ba7a ca3d 407c 693d 2356 4e3d 91d4 923e
00000380: 22f3 9b3c caf3 803e c759 343e 9eac 123e
00000390: 281e 683d 8e13 683d a1a5 7c3d 281c b73e
000003a0: 7b04 133c 2c77 7c3e 1fd3 6e3e 7f28 bc3d
000003b0: 2ee4 f2bc 594e 163d 3376 3a3d 0f24 bc3e
000003c0: 4aac 8b3e 765a 9b3b e1b7 5c3d eb6d 323c
000003d0: 1507 09be 4ba3 a73d fcf9 163e a9d2 363d
000003e0: a51e f23c eadd 263c 38fe cb3d bbdc 163d
000003f0: e9a0 b23d 2a7d 403e 43ea 9cbb 3520 803e
0.15801188 -0.11607769 -0.16415444 -0.17664589 -0.038413085 -0.018491799 0.15851557 -0.045142647
0.0013376728 -0.19385223 0.041821588 0.153347 -0.07237156 0.0055861627 0.08544782 0.018765962
-0.037380293 0.05255388 -0.1842421 -0.16248272 -0.058318146 0.1748087 -0.058677744 -0.07712009
-0.012863953 -0.15515304 -0.09401936 0.018453192 0.10273963 0.019027028 -0.09307387 -0.17954668
0.006453876 -0.17436057 0.013588874 0.19094269 -0.03824249 -0.028736949 -0.00050861324 -0.084606916
-0.043327518 0.09411496 -0.121322826 0.059790317 -0.063511714 -0.14300707 0.16088176 -0.15924498
-0.16891341 -0.089087196 -0.023786362 -0.17673795 -0.16829857 -0.06911781 0.031228885 0.16138908
-0.014872659 -0.06272477 -0.14258896 0.13360842 -0.12214383 0.1235818 -0.0933813 -0.003149226
0.0065637487 0.039113645 0.0044163456 0.06614043 -0.16127321 0.12766023 0.14007986 0.065934084
-0.056029577 -0.085711725 -0.18634212 -0.072431326 0.07839016 -0.15575258 -0.13941188 -0.047677875
-0.21520877 -0.09997004 0.018576471 -0.077348575 -0.11236941 -0.04803711 -0.10022356 0.025935939
-0.07515633 0.040123954 -0.07332665 -0.044117775 0.083438896 -0.16107833 0.051742263 0.04995122
-0.14746776 -0.10941042 -0.023663333 -0.14362396 0.060916394 0.017805694 0.04475377 -0.005598749
-0.014083765 -0.093150325 0.07983899 -0.122232586 -0.061694294 -0.089111924 -0.09288849 -0.07401785
0.046207238 -0.0749085 0.09072497 -0.25167164 -0.13370384 -0.15617207 -0.07042924 -0.21850519
-0.20319429 0.14221117 -0.17112981 0.02113545 -0.1747219 0.017778644 -0.006275129 -0.033049196
0.03137982 0.06386687 0.031606328 0.021932574 0.021762693 0.25321263 0.021613667 0.11755848
0.11478516 0.046603166 0.2239048 0.122865774 0.25326517 0.08474763 0.09033885 0.017042875
0.082807936 0.054602277 -0.051093016 0.008969395 0.0148782935 0.017472548 0.023715641 -0.050267484
0.20542294 0.060655437 0.02773786 0.2951076 0.29079643 0.22610334 0.060444415 0.117422596
0.15908115 0.116001815 0.03553974 0.012997673 -0.0034517506 0.121281125 0.10453141 0.061290327
0.24730548 0.046618603 0.21626124 0.13596173 -0.013864318 0.043474074 -0.020563655 -0.032741595
0.04486717 0.04592883 0.036753986 0.021659452 -0.03119646 0.03629768 0.17141344 0.01603809
-0.0617979 0.02328136 0.09266479 -0.032316286 0.15872674 0.07644097 -0.06685252 0.004191894
0.11300849 0.12331567 0.17257133 0.101782866 0.040816497 0.33235577 0.120772 0.03733571
-0.11104086 0.011104625 0.050294455 0.019203814 0.11351957 0.021684654 0.011880541 0.1103464
0.03998814 0.037215207 -0.042598933 0.18491541 0.013584479 -0.022672424 0.2528673 -0.018146407
-0.00084994157 0.23058692 0.079906635 -0.0073654866 0.098866895 0.05700326 0.050375115 0.286778
0.019036833 0.25185996 0.17612372 0.1432366 0.056669384 0.056659274 0.061681394 0.3576367
0.008973236 0.24654835 0.23322724 0.091874115 -0.02964982 0.036695812 0.04552288 0.3674626
0.27279884 0.0047410084 0.053886298 0.010890464 -0.13381608 0.081854425 0.14743799 0.044634495
0.029555628 0.010184744 0.09960598 0.0368316 0.087220974 0.18797746 -0.0047886684 0.25024572

bias f4 [128]
00000000: 4079 84b7 e8ad 9e37 5ba6 d235 41a2 9037
00000010: be5f 1b39 5943 aa37 f89c 2238 90a1 c738
00000020: 16ac b6b7 d5b1 6538 00c1 aab7 8dbe 23b4
00000030: fe98 ee36 45c9 c037 3b3a 4c37 9a99 b736
00000040: 77c1 2b38 9e3a a637 3a27 dbb7 eb19 1eb7
00000050: 8faa 8eb7 665e fe37 c5bd aab6 f8fd 8e38
00000060: 7f8f 1f38 e133 9c38 aae7 ea37 61b5 8b37
00000070: f6df 30b6 b756 f436 8d23 1736 f6c7 d735
00000080: 8849 ddb7 4433 65b7 135d f938 40cf 10b9
00000090: a526 1a37 fdad 83b5 8788 93b8 7ac6 d1b6
000000a0: 5e0b 6cb7 aeba 35b6 47bf 31b7 2814 8fb8
000000b0: 30d5 e6b7 08b9 4937 4bf6 2cb8 43f2 b138
000000c0: 7483 99b6 fb17 8637 896d dbb6 775f 6339
000000d0: ef74 1eb9 3688 6437 ef8d 82b8 4415 72b7
000000e0: 390c 4db7 81f3 c6b8 db5a 83b7 56c7 eab8
000000f0: 01af edb6 2d5d 8eb8 39a1 f537 c696 2037
00000100: e4d1 16b7 0b16 3f36 c7e4 81b7 b6a2 ccb6
00000110: 0c66 61b7 e675 e837 99e1 01b8 3a0f c538
00000120: 16c2 57b7 4721 cf35 9460 8336 7739 59b8
00000130: 7432 d737 3305 8ab7 e6f6 1cb7 3bcb 1eb5
00000140: 9bb3 9d38 412d 3638 cd7f e937 c573 0fb8
00000150: 9994 92b7 1e39 0db7 7ff6 d7b7 48ca eab8
00000160: 0175 a036 51b9 97b7 374c 0238 446d 28b6
00000170: 4975 2135 bce8 0eb8 94b6 9fb9 ed7b 49b5
00000180: a18f 1bb5 c88e 0438 b52b 9c38 ce92 0437
00000190: caa2 6eb8 3f30 ea37 8c89 f1b6 967c 0438
000001a0: a362 45b8 fd14 33b7 8ad1 7e38 52ce c7b8
000001b0: 78af 0338 4284 6eb6 74d3 99b6 bb2f 9fb5
000001c0: 6596 1f38 90d8 2139 f3fe 2f36 ec68 aab7
000001d0: 891f 65b5 fbb9 3835 477f 29b7 534d e237
000001e0: b170 9cb7 8752 3437 dd6d 03b9 daba 2035
000001f0: a981 8cb9 b68b 11b7 cc01 37b8 b8d2 f237
-1.5792088e-05 1.891605e-05 1.5694635e-06 1.7241693e-05 0.00014817619 2.029694e-05 3.877e-05 9.519153e-05
-2.1776224e-05 5.4763474e-05 -2.0355452e-05 -1.524988e-07 7.1107634e-06 2.2981907e-05 1.2172905e-05 5.4717066e-06
4.0949755e-05 1.9816038e-05 -2.61251e-05 -9.423568e-06 -1.7007142e-05 3.0323117e-05 -5.088487e-06 6.818393e-05
3.8042195e-05 7.448323e-05 2.800285e-05 1.6654552e-05 -2.6356406e-06 7.2818616e-06 2.2521447e-06 1.6076945e-06
-2.6379494e-05 -1.36614e-05 0.00011890582 -0.00013810117 9.188113e-06 -9.810898e-07 -7.0349364e-05 -6.251791e-06
-1.4069343e-05 -2.7079764e-06 -1.0594557e-05 -6.822526e-05 -2.751741e-05 1.20236145e-05 -4.1237374e-05 8.4851425e-05
-4.5750585e-06 1.5985212e-05 -6.53946e-06 0.0002168397 -0.00015111615 1.3621573e-05 -6.22532e-05 -1.4429275e-05
-1.2221798e-05 -9.486732e-05 -1.5658725e-05 -0.00011195119 -7.0835235e-06 -6.788443e-05 2.9281351e-05 9.571848e-06
-8.989566e-06 2.8474049e-06 -1.5484531e-05 -6.098616e-06 -1.3434805e-05 2.7711456e-05 -3.09661e-05 9.396528e-05
-1.2860188e-05 1.5432387e-06 3.9153474e-06 -5.179035e-05 2.5653491e-05 -1.6453303e-05 -9.35581e-06 -5.9155326e-07
7.5197975e-05 4.3434327e-05 2.7835276e-05 -3.4201676e-05 -1.7473752e-05 -8.4175535e-06 -2.5744781e-05 -0.00011195667
4.7819926e-06 -1.8086897e-05 3.1065396e-05 -2.5097552e-06 6.0147846e-07 -3.407219e-05 -0.00030462875 -7.505867e-07
-5.795101e-07 3.1604228e-05 7.446801e-05 7.901994e-06 -5.689523e-05 2.791744e-05 -7.1983723e-06 3.1587282e-05
-4.7060323e-05 -1.0674118e-05 6.0753468e-05 -9.5274896e-05 3.1396252e-05 -3.5541748e-06 -4.5843717e-06 -1.1860315e-06
3.804862e-05 0.00015434832 2.6225432e-06 -2.0314437e-05 -8.535504e-07 6.881598e-07 -1.0102819e-05 2.6977306e-05
-1.8649125e-05 1.0748051e-05 -0.00012534061 5.987655e-07 -0.00026799485 -8.6752025e-06 -4.3632273e-05 2.8946772e-05

weight f4 [128]
00000000: b38f 7c3f e21a 4e3f 2629 ee3e a650 403f
00000010: ba06 6f3f fa8d 7a3f a770 573f 4f73 8f3f
00000020: 1032 5b3f 0f6e 803f e877 453f cc3f 2d3f
00000030: 7e87 333f a88d 543f a4dc 5c3f 27bf 553f
00000040: 3b6b 7b3f 04eb 5c3f e8ad 453f d820 413f
00000050: f772 363f 4563 893f 4abf 373f f799 7b3f
00000060: 1bcc 743f 81c4 4e3f 7e66 823f 618b 233f
00000070: 3b5c 043f 135e 103f 0a88 8d3f 5572 fc3e
00000080: d36d 733f ea85 603f 29ef 8b3f 076f 7f3f
00000090: 451a 3f3f e659 6c3f 73e2 6c3f 195d 633f
000000a0: 0f0d 663f c469 4e3f 7341 4c3f 0de9 953f
000000b0: 4f0b 733f 69a6 2f3f 4795 5d3f ddf9 843f
000000c0: cfdb 173f 9f86 333f 1ccd 433f bbff 7b3f
000000d0: 4d85 7c3f bec8 373f ec40 813f 495e 633f
000000e0: 43d1 0a3f dc33 903f cb77 2c3f 2eff 883f
000000f0: 3173 8a3f a94a 1f3f 65c5 783f dfe9 1a3f
00000100: 5d31 363f 032a 773f 66ec 4b3f 729e 283f
00000110: 48e9 453f 5fc0 5c3f 7f81 283f 79dd 7c3f
00000120: 1b6b e93e 92ae 303f d927 b63e 9ca6 833f
00000130: 0961 6c3f f2d1 253f 05bf 0f3f a514 273f
00000140: 47b1 5a3f cc8e 4b3f 0bbd 4f3f ba46 453f
00000150: 3156 8c3f 4ff5 0b3f 8e5c 883f 9300 873f
00000160: a197 f93e cd19 593f 122e 703f b3e1 493f
00000170: 1b7d 563f 45d6 5f3f 4d66 6f3f 43bc b03e
00000180: d210 123f 93c9 523f 2ec0 393f 6fa1 0b3f
00000190: f173 833f fac1 783f 5e53 7e3f 3c16 543f
000001a0: e318 2a3f 0f70 063f fd8b 703f 7065 8a3f
000001b0: 5645 0a3f 59cd 3e3f 99fa 063f 52e0 8d3f
000001c0: 8a8d 6f3f 898c a23f 1cfd ca3e 62f7 4e3f
000001d0: 8064 c93e 8889 5b3f d68f fd3e 83b8 583f
000001e0: 8531 3a3f 11bb 243f 7dbc 703f 383b d33e
000001f0: 0901 8c3f 194e 703f b66c 563f 0f4a 323f
0.9865677 0.8050977 0.4651577 0.7512306 0.9336964 0.9787289 0.8415627 1.1207064
0.85623264 1.0033587 0.7713609 0.6767547 0.7012862 0.8302865 0.8627417 0.834948
0.98210496 0.86296105 0.77218485 0.7544074 0.7126917 1.073342 0.7177626 0.98281807
0.9562394 0.8076859 1.0187528 0.6388455 0.5170323 0.56393546 1.1057141 0.49305978
0.95089453 0.87704337 1.0932361 0.9977879 0.7464946 0.92324674 0.92533034 0.8881393
0.89863676 0.80630136 0.7978737 1.1711746 0.9493913 0.68613297 0.86555904 1.0388752
0.59319776 0.7012729 0.7648485 0.9843709 0.986409 0.71790683 1.0097938 0.8881574
0.5422556 1.1265826 0.6737029 1.0702875 1.0816404 0.622233 0.971762 0.6051311
0.7116907 0.9654848 0.7965759 0.6586677 0.77309084 0.86231035 0.65822595 0.9877544
0.45589527 0.69016373 0.35577276 1.028522 0.92335564 0.64773476 0.5615085 0.65265876
0.85426754 0.79514766 0.8114783 0.77061045 1.0963804 0.54671186 1.0653245 1.054705
0.48748496 0.84804994 0.938203 0.78860015 0.83784646 0.87436324 0.93515474 0.34518632
0.57056916 0.8233883 0.7255887 0.54543203 1.0269758 0.97170985 0.9934596 0.82846427
0.66444224 0.5251474 0.93963605 1.0812206 0.5401205 0.74532086 0.5272613 1.1084082
0.93575346 1.2699138 0.39646232 0.80846226 0.39334488 0.8575673 0.495238 0.8465654
0.7273181 0.6434794 0.9403761 0.41256118 1.0937816 0.9386917 0.8375963 0.69644254

bias f4 [128]
00000000: 428c 8fbe 0d67 4dbe 859c 1bbe 35bf a5be
00000010: cd90 a8be f23f 1dbe 2851 4cbe 86ab 89bd
00000020: 0624 5dbe 188d 7bbe d5f1 84be be28 80be
00000030: 93ed 60be 0f11 06be f427 b9be 7025 c3be
00000040: 015d 80be 8962 56be f180 69be 55fc 8bbe
00000050: 4a6a 6dbe fec7 71bd ee73 62be 0a60 5bbe
00000060: b896 86be 209e 28be 09aa 9ebd eaef 84be
00000070: b1b7 67be 9a42 59bf 416e 87be 494d 93be
00000080: eb6a d9be dbf3 48be 7362 a7bd 0df6 07be
00000090: d18b bebe f993 06be db10 6dbe 045f 45be
000000a0: 7567 5dbe d06f e4be 359c 82be e544 11be
000000b0: e522 65be deca 28be a338 20be dd4e f7bd
000000c0: 2020 69bf c3dc d4be ef2a b6be 7390 30be
000000d0: cc9b 79be 1e0f dfbe 864c 8dbe c134 4ebe
000000e0: 1655 4cbf 3010 55be 3312 76be 6a54 98be
000000f0: e984 90bd 0c3c 08bf 5c36 11be da50 47be
00000100: f9c4 55be 3bc3 40be d684 2fbe 3539 47be
00000110: 8743 6ebe 35c9 c5be 23e9 45be d651 0fbe
00000120: 7b85 2dbf ed1a e2be ba53 24be 1aca 06be
00000130: 41aa b1be 547d d0be c011 60bf e79d 42be
00000140: 1cce 16be 80dc 4abe 736c 35be 218f 0cbd
00000150: 40ac 68be 1431 0abf a621 69be 92fc 6dbd
00000160: 7083 afbe b80e 74bd d9a3 b7be a78a 6dbe
00000170: a188 70be 59b4 81be cc0b 803c a39d 19be
00000180: 0602 75be b6d5 6fbe 6a7b 44be 4cde 17be
00000190: 4244 64bd 048d 9abe ac0c d9be 1808 29be
000001a0: 3224 95be 4c71 39bf 6959 50be 6915 b1bd
000001b0: 03ad 8cbe aa63 73be e47a 4bbf 8adf 9dbe
000001c0: e30b 3abe fe18 22be 77d1 48be 4c2b 40be
000001d0: f00a 7dbe 5705 48be e6f8 11bf 16bf 2ebe
000001e0: 9e5a 20be 301b 82be bfa7 a6be b82e 0bbf
000001f0: 8373 d0bd 7739 9dbe 622a 7abe e6ae 09bf
-0.28036696 -0.20058842 -0.15196426 -0.32372442 -0.32922974 -0.15356424 -0.19952834 -0.067221686
-0.21595773 -0.24565542 -0.25965753 -0.25031084 -0.21965627 -0.13092445 -0.36163294 -0.381145
-0.25070956 -0.20936026 -0.22803093 -0.27340952 -0.23185077 -0.059028618 -0.22114536 -0.21423355
-0.26286864 -0.1646657 -0.077472754 -0.2596429 -0.22628666 -0.8486725 -0.26451305 -0.287699
-0.42464384 -0.19624273 -0.081730746 -0.13277455 -0.37216046 -0.13142385 -0.23150961 -0.19274527
-0.21621497 -0.44616556 -0.25509802 -0.14186437 -0.22376592 -0.16483638 -0.15646605 -0.12075589
-0.91064644 -0.41574678 -0.3557963 -0.17242603 -0.24375838 -0.4356622 -0.27597445 -0.20137312
-0.7981733 -0.20806956 -0.2403038 -0.29751903 -0.070566006 -0.53216624 -0.14180893 -0.19464436
-0.2087592 -0.18824475 -0.17140517 -0.19455417 -0.23267947 -0.3863007 -0.19327216 -0.13996062
-0.677818 -0.44161168 -0.16047564 -0.13163033 -0.34700206 -0.40720618 -0.87527084 -0.19005547
-0.14727062 -0.19810677 -0.17717151 -0.034316186 -0.22721958 -0.5398114 -0.22766742 -0.058102198
-0.34279966 -0.05958435 -0.35867193 -0.23197423 -0.2348962 -0.25332907 0.015630625 -0.1500154
-0.23926553 -0.23421368 -0.19187704 -0.14830893 -0.05572916 -0.3018571 -0.4239248 -0.16506994
-0.29129177 -0.724385 -0.20346607 -0.08646662 -0.27475747 -0.23768488 -0.7948439 -0.3083461
-0.18168597 -0.15829846 -0.19611154 -0.18766516 -0.24711204 -0.19533287 -0.57020414 -0.17065081
-0.15659568 -0.25411367 -0.32549855 -0.5436816 -0.10178282 -0.30707905 -0.2443023 -0.537825

running_mean f4 [128]
00000000: 40ed c0bf 45cc 8940 fee3 b6be b495 e13f
00000010: 5b16 e8bf cf43 acc0 af14 9940 6385 56c0
00000020: 9c84 9840 4029 f6bf b22c 2cc0 e910 8e40
00000030: 1516 7e40 8ab1 8b40 5f01 d73f d13d 4740
00000040: 334e 1c3f 1172 9d40 c2a2 9140 4d25 10c0
00000050: 50c0 8f40 b499 8ec0 4153 9740 90c8 23c0
00000060: e4fd 3740 b673 9a40 44fe 98c0 20cd 8840
00000070: af79 3340 f8b6 6240 670c 2fc0 a83a cabe
00000080: 1c14 0d3f 6e8b 9740 a00e a8c0 f429 8ac0
00000090: 95c5 c7bd e3db 31c0 fe49 9b40 9207 9c40
000000a0: 1ee1 9240 5e0c 613f 1c81 9e40 b319 39c0
000000b0: 3008 87c0 d606 7c40 184d 1ec0 e43e 95c0
000000c0: 8b44 4a40 229b bfbf bd96 29c0 70a1 96c0
000000d0: 4bc5 42c0 ccd4 22c0 2f1b 10c0 4ae0 8f40
000000e0: fabd 3a40 731c 44c0 11b5 8c40 d9bf 29c0
000000f0: a715 86c0 a115 6340 f5df 2cc0 63f0 24bf
00000100: 9553 8540 2949 4cc0 c2ef 9240 fe49 7240
00000110: 9ad6 9c40 b6c3 3fc0 ac6f 8840 82b0 29c0
00000120: 2c90 1240 1d36 ccbe 3197 2140 d1ba 62c0
00000130: 0edb f03f 6bee 96bf aac8 3840 dcf1 6540
00000140: cb40 a3bf c65a 8940 4476 8e40 b3eb 2bc0
00000150: ced8 da3e fa12 0b3f 94ef 5ec0 5b9d 9bc0
00000160: 7d15 f43e 528e 41c0 1b47 fc3f a93e 9140
00000170: c2d5 19c0 1ed1 e43f 67c9 49c0 c82f 0940
00000180: f3b4 2f40 2dce 2ec0 fa46 f3be dbd8 29bf
00000190: fc0d 89c0 071a 02c0 5032 ff3f 9062 8e40
000001a0: 40fa ffbf 5591 0e40 8046 31c0 fc6f 93c0
000001b0: ceb3 cc3f a4ca 9640 468b 3b40 b1d5 5a3f
000001c0: a4d5 53c0 a07f 31c0 036b 2b40 ae8f 9c40
000001d0: 6036 5a40 c683 a140 9525 5140 397b 8440
000001e0: fbe8 73be 3470 69bf 5baf 0dc0 27c8 c53e
000001f0: f31f 9dc0 ad2d 21c0 fccf 9240 613c 8340
-1.5072403 4.3061852 -0.3572082 1.7623811 -1.8131822 -5.3832774 4.783775 -3.3518913
4.7661877 -1.9231339 -2.690228 4.439564 3.9700978 4.3654222 1.6797293 3.113148
0.6105682 4.920174 4.551118 -2.2522767 4.4922256 -4.4562626 4.728913 -2.5591164
2.8748713 4.826625 -4.7810383 4.2750397 2.804302 3.5424175 -2.735132 -0.39497876
0.5510881 4.73577 -5.2517853 -4.317621 -0.09754483 -2.7790458 4.8527822 4.875924
4.58998 0.87909496 4.9532604 -2.8921936 -4.2197495 3.9379172 -2.4734554 -4.663927
3.1604335 -1.4969218 -2.6498253 -4.7072067 -3.0432918 -2.544238 -2.2516592 4.496129
2.9178452 -3.0642364 4.397103 -2.6523345 -4.190143 3.5481951 -2.7011693 -0.644293
4.166453 -3.1919653 4.5917673 3.7857661 4.9011965 -2.9963202 4.263632 -2.6513982
2.2900496 -0.39885035 2.524853 -3.5426524 1.881685 -1.1791509 2.8872476 3.592887
-1.2754148 4.2923307 4.4519367 -2.686261 0.42743534 0.5432583 -3.4833727 -4.8629584
0.47672644 -3.0243115 1.97092 4.538899 -2.4036717 1.7876318 -3.1529176 2.1435413
2.7454193 -2.731334 -0.47515088 -0.6634652 -4.282957 -2.0328386 1.9937229 4.4495316
-1.9998245 2.2276204 -2.769928 -4.60742 1.5992372 4.7122364 2.9303756 0.8548232
-3.3099146 -2.7734146 2.6784065 4.892539 3.4095688 5.0473356 3.2679188 4.140042
-0.23819344 -0.91186833 -2.2138278 0.38629267 -4.91015 -2.5184128 4.5878887 4.1011205

running_var f4 [128]
00000000: fa3c 4840 e5d5 c141 6579 c03f ccb2 d440
00000010: 83ce 2940 82c6 f341 9197 d541 2dc3 ca40
00000020: 5c7c d441 8ead 7640 8349 c240 b175 b041
00000030: 8c04 b241 5aa0 c741 84eb b840 a11a 7e41
00000040: 9ab4 e940 8979 cd41 fde2 bb41 d76d 2c40
00000050: 9294 d541 1bd4 8341 8294 c641 79c8 8140
00000060: b7eb fd40 7a61 cb41 b6b0 ac41 46e9 9e41
00000070: b8cc 7741 89ae 2741 3903 b340 7465 4040
00000080: 06af 1f41 91cc c541 75e9 aa41 b532 6141
00000090: 7701 8d40 c81e a540 715f cd41 7223 cd41
000000a0: 0a6b c641 811b 1041 3db7 c141 68e6 bd40
000000b0: 287b 2f41 f932 a541 50fa 9240 d2c9 ad41
000000c0: 8300 1041 d83f 4c40 053a 9c40 62ff 8941
000000d0: fff4 fa40 2853 1141 824c a340 3298 ba41
000000e0: feba fa40 b961 c640 36ee af41 4115 ad40
000000f0: e39a 7e41 4603 5441 0ca8 a840 c933 1240
00000100: 3ebc ae41 bd17 cd40 eb39 b641 dfd3 a441
00000110: d5c9 d841 fb61 b440 e65c a441 3583 a940
00000120: 7946 9640 3d56 2740 0e1c d640 eb9e 3241
00000130: 1909 0741 ef36 1940 940e c840 a467 a541
00000140: 04fc 0940 3f9d b641 b2e8 cc41 7a2a 6c40
00000150: a1dd e240 c3f4 1140 1a8c 0341 0dbb c541
00000160: 04e3 9c3f d4a8 3e41 7572 d540 302c bc41
00000170: cbe7 a240 cdd8 cb40 f3c8 af40 2d56 eb40
00000180: 5a91 4b41 29b7 8640 a6c3 8c3f 1b32 ca3f
00000190: f4ac a441 85db 7e40 bda7 0a41 f102 d141
000001a0: 446b b03f cd1a a140 483a a740 777d b441
000001b0: 3052 de3f f560 c641 3a40 ff40 ce11 2c41
000001c0: fa2d 2e41 7136 b840 1710 2b41 ba97 d241
000001d0: ccdd 1a41 29aa d041 c14b 2841 43ab b341
000001e0: 96f9 6540 4236 fa3f 51ad 5540 9abb bf3f
000001f0: 5c14 ab41 e20a a940 1b49 ca41 e0ae 5441
3.1287217 24.22944 1.5037047 6.646826 2.6532295 30.471928 26.699007 6.336325
26.560722 3.854343 6.0714736 22.057467 22.25222 24.953297 5.7787495 15.881501
7.303296 25.684343 23.485834 2.694204 26.697544 16.478567 24.822514 4.0557218
7.935024 25.422596 21.586285 19.863903 15.48748 10.480111 5.5941434 3.0061922
9.98023 24.724886 21.363993 14.07488 4.406429 5.1600075 25.671602 25.642307
24.802265 9.006715 24.214472 5.934376 10.967567 20.649889 4.5930557 21.723545
9.000125 3.1913967 4.8820825 17.249699 7.8424067 9.082802 5.1030893 23.324314
7.835326 6.199429 21.991314 5.4088445 15.912814 13.250799 5.2705135 2.2844107
21.841915 6.4091477 22.77828 20.603453 27.09855 5.6369605 20.54536 5.2972665
4.6961026 2.6146386 6.6909246 11.163798 8.439721 2.3939779 6.2517796 20.675606
2.1560068 22.82678 25.61362 3.6900926 7.0895543 2.280564 8.2217045 24.716333
1.225678 11.916218 6.670222 23.521576 5.090795 6.370215 5.49328 7.3542695
12.722986 4.2098584 1.0997207 1.5796541 20.58445 3.9821484 8.665952 26.126436
1.3782735 5.0345216 5.2258644 22.561262 1.7368832 24.797342 7.97659 10.754347
10.886225 5.7566457 10.691428 26.324085 9.67915 26.083086 10.518495 22.458624
3.5933585 1.9547808 3.3387034 1.4979126 21.384941 5.2825785 25.285696 13.292694

weight f4 [128, 128]
00000000: ea45 0dbe 1028 39bd 6fba cfbd af65 b03b
00000010: d9fe 22be 2c85 7dbe f6b4 19bd 6390 91be
00000020: a805 6f3b e068 7dbe be0c 353d 6e6b 34bd
00000030: 322b 49bd 1d9c 11bd 6f9a a5bb 6d84 6fbd
00000040: f0eb 15bd 6720 5cbd 07ca f1bc 8242 46be
00000050: 3b3b acbc eb4e 99bd d2da 0dbd 249e 6dbe
00000060: f6fb 56bc dfd9 45bd fadd 71be c5d6 21bd
00000070: 3238 90bc e872 483e 1fd4 67be 53cf 25bd
00000080: e12c 2dbd 3cd8 89bc 447a 4abe e055 1ebe
00000090: 3fce f3bb a93f 06be 2d5c 4bbd 3500 38bd
000000a0: a164 8dbd c633 0fbd a0c8 47bd 8a30 7cbe
000000b0: 3518 47be c551 65bd cb2b 2ebe dca0 29be
000000c0: 4005 243e 19da 2fbd 6b5b 4dbe 5d89 04be
000000d0: c03f 08be 5442 48bc f98f 56bd 4fcb babc
000000e0: 92d6 e13d 2261 78be 1ee0 99bb 4f3e 9ebe
000000f0: c5a9 2fbe b955 983c 151d 99be 9ad1 82bd
00000100: 9de5 91bd 16e9 84be 5d5e 3fbd 8276 38bd
00000110: e6b5 33bd 6634 28be 7dd5 c3bc 201b 7cbe
00000120: 3db2 bf3d e67f 973d e487 8fbd 983f 1abe
00000130: f5b3 833c 3904 35bd acaa 4d3e 4db9 79bd
00000140: 6a3c 0dbd 6596 97bc bacd 38bd 7961 8dbc
00000150: 9be2 293d 8bc8 483d 3478 58be 038b 3fbe
00000160: 6b0f d4bc 537d 57bd 0551 9dbc 07eb 84bd
00000170: f4c6 e3bd b679 243c 48ec 6abe 3435 cdbc
00000180: 9660 0fbd acd5 71be e5f4 83bd bb8d 74bc
00000190: 7eac 1ebe 7709 2fbe c9bf 49bd de51 29bd
000001a0: e6c1 20be c66f fd3d 2bfd 14be 1aec 47be
000001b0: cc83 68bd a155 a2bb 575c eb3d bf26 c3bc
000001c0: ecfd c9bd 3221 37be 471b 37bd 1662 83bd
000001d0: fa89 e3bc 7f56 8abc bd73 fa3d 3a42 63bd
000001e0: ad1e 1bbc 58ff 9dbc fbd3 0ebe a040 edbb
000001f0: 5ac1 f0bd e3b4 09be 4601 46bd 438d b7bc
00000200: fdaa 0fbe e6ba cdbd aaf6 16bc 43da 71bc
00000210: c6ee 19be 9f1b 1fbe b9a6 3fbe ad44 fcbd
00000220: 2b1f efbd 3480 cebd c49c 283e 0f40 7dbd
00000230: d675 b3bd a492 b2bd c21c 85bc 088b f2bd
00000240: 582f 00bd c451 0ebe 5e29 f4bd add7 e53b
00000250: 6951 c4bd 3184 16be aca9 9bbd bb30 0fbe
00000260: 8789 babc d969 aabd 92cf 3fbe f1c4 70bd
00000270: 5a1a 32bd 38cd 4cbd 0d9d e1bd 6309 313c
00000280: 6c8b 80bc 3525 e3bd 4969 edbd ad35 edbd
00000290: 6223 99bb 24d9 ebbd b031 15be 7408 bbbd
000002a0: 6c77 2cbe 8d15 78bd b558 d8bd c993 4ebe
000002b0: 24f8 17bd 811d fdbd ba58 d1bd 106c 26be
000002c0: d7ae c83b 7089 c6bd fd60 2a3d ff81 cdbd
000002d0: 87d8 56be 6944 683c 0201 41be 97f1 0ebe
000002e0: 2b8f b83c 889c 43be e625 fcbc c858 7cbe
000002f0: 1297 45be b00a 21be b8eb babd 2326 803d
00000300: 06a4 bebd 06e9 63bc 811a 0fbe e8e0 babd
00000310: b8d4 18be 5bfb bebd 35f6 a5bd ac50 a1bd
00000320: ee87 fb3c 3ffa 0fbe 479c 8ebd a685 20be
00000330: f182 a73c 21f9 06bc 5619 4c3c 3bfe cfbd
00000340: ce2f fdbd bdca 12be 8adc e6bd 8332 91bd
00000350: 17af 71bd b845 103e 3f22 3dbe f4ce 45be
00000360: 755b a53c 69d2 c2b9 e330 dfbc 0ac9 92bd
00000370: a20e 6dbd b29a 8bbb 1a15 9d3d 28eb c53a
00000380: 2ff9 e6bc 3245 44bd 8889 51bc c070 363d
00000390: bdcb d4bd 3092 47be 1c48 28bc 4554 4fbe
000003a0: b9eb ef3d ed4f afbb 30f0 56be b591 0fbe
000003b0: f910 afbd 703b bbbd 2f3f b8bc f032 1dbd
000003c0: 516a 20bd f00c 0ebe 1fab 39bd c959 d4bd
000003d0: 0010 5c3b c3db 20be e5a1 c5bd b1ad ecbd
000003e0: d9e2 e23d 6c03 18bd 3da1 25be 87bb a4bc
000003f0: 1a61 2abe bd32 44be 5c6d d9bd e822 e6bd
-0.13796201 -0.045204222 -0.10142981 0.0053832154 -0.15917529 -0.24757832 -0.037526093 -0.2843047
0.0036471877 -0.24747038 0.044201605 -0.044047765 -0.04911346 -0.03554927 -0.0050538103 -0.0584759
-0.03660196 -0.05374184 -0.02951528 -0.19361308 -0.021024337 -0.074857555 -0.03463251 -0.23204857
-0.013121596 -0.04830348 -0.23619834 -0.03951146 -0.017604921 0.19575083 -0.22639512 -0.040480923
-0.042279128 -0.016826741 -0.19773203 -0.15462446 -0.007440358 -0.13110222 -0.049648453 -0.044922072
-0.06903959 -0.034961484 -0.048775315 -0.24627891 -0.19442828 -0.055986185 -0.17008893 -0.16565269
0.16017628 -0.042932604 -0.20054404 -0.12943025 -0.13305569 -0.012222845 -0.052383397 -0.022802023
0.11027254 -0.24255803 -0.0046959063 -0.30906913 -0.17154606 0.018595563 -0.29905 -0.063876346
-0.071238734 -0.2595908 -0.04672085 -0.045034893 -0.043874644 -0.16426238 -0.02390551 -0.24619722
0.09360168 0.073974416 -0.07008341 -0.15063322 0.016077021 -0.04419348 0.20084637 -0.060967732
-0.034481443 -0.01850433 -0.04511807 -0.017258393 0.041475873 0.049019378 -0.21139604 -0.18705373
-0.025886258 -0.052609753 -0.019203672 -0.064901404 -0.11121932 0.010038784 -0.22941697 -0.025049783
-0.03500422 -0.23616666 -0.06443194 -0.014926369 -0.15495488 -0.17093454 -0.049255166 -0.04133784
-0.15698966 0.12374835 -0.14549701 -0.1952366 -0.056766316 -0.0049540554 0.11492222 -0.023822187
-0.09862885 -0.17883757 -0.044703748 -0.06415193 -0.027775753 -0.016886948 0.122291066 -0.05548308
-0.009467763 -0.019286796 -0.13948052 -0.00724037 -0.11755629 -0.13447909 -0.04834106 -0.022406226
-0.1403007 -0.10045414 -0.009214083 -0.01476151 -0.15032491 -0.1553788 -0.18715943 -0.12317786
-0.11675867 -0.100830466 0.16466051 -0.06182867 -0.0876271 -0.08719376 -0.016249064 -0.11842924
-0.03129515 -0.13898379 -0.11921953 0.007014236 -0.0958584 -0.14698865 -0.07600722 -0.13983433
-0.022770656 -0.0832097 -0.18731526 -0.058781568 -0.043482162 -0.0500004 -0.11016283 0.010805461
-0.015691482 -0.11091081 -0.11592347 -0.115825035 -0.0046734074 -0.11516026 -0.14569736 -0.09132472
-0.16842431 -0.060567427 -0.105637945 -0.20173563 -0.03710188 -0.12359143 -0.102220014 -0.1625216
0.006124358 -0.09694183 0.0415964 -0.100345604 -0.20981036 0.0141764665 -0.1884804 -0.13959347
0.022529205 -0.1910268 -0.03077979 -0.24643242 -0.1929591 -0.15726733 -0.09126991 0.06257274
-0.09308629 -0.013910538 -0.13974954 -0.09124929 -0.14924896 -0.09325286 -0.08103601 -0.07876715
0.030704465 -0.14060305 -0.06963401 -0.15675983 0.02044818 -0.008238108 0.012457212 -0.101559125
-0.12362634 -0.14335151 -0.11272533 -0.070897125 -0.05900487 0.14089096 -0.18470095 -0.19317228
0.020185212 -0.0003715933 -0.02724499 -0.071672514 -0.057875283 -0.0042603845 0.076700404 0.0015099989
-0.028194992 -0.047917552 -0.012789138 0.04454112 -0.103904225 -0.1948936 -0.010271098 -0.2024699
0.117148824 -0.005350104 -0.20990062 -0.14020427 -0.08548159 -0.09142196 -0.022491066 -0.038378656
-0.03916389 -0.13872123 -0.04532921 -0.10368688 0.0033578873 -0.15708832 -0.096500196 -0.115565665
0.11078424 -0.03711264 -0.16174789 -0.020108951 -0.16638604 -0.1915998 -0.10616562 -0.112371266
