wgan_results/mgum/base/critic.pth (torch_old, 202696 bytes, 9 tensors)

weight f4 [128, 1]
-0.0024673129 -0.00080125185 -0.0020169201 0.0013921044 -0.00010911409 -0.00075149606 0.00036668353 -0.0041542277
-0.0023094746 -0.0023381936 -0.00040728424 0.012240503 0.011866433 -0.0030050965 -0.0028539603 -0.0021322959
-0.004331094 -0.003716741 -0.0038922853 -0.00019543918 -0.0073741716 -0.0045195543 -0.0029916326 0.01152837
-0.0006227643 -0.0029449454 0.00023247587 0.0014726741 0.001097397 -0.0019967991 0.00997425 -0.002925771
-0.0047454857 -0.0009448262 0.012072192 -0.0034208873 -0.01940896 0.00024041362 -0.0031837896 -0.0031312117
0.004465046 -0.00033184476 -0.0022998452 0.014234237 0.008148581 -0.0062380475 -0.0008354683 0.002334633
-0.0016774904 0.0010003323 0.012337734 -0.0035439197 -0.003874984 -0.003561716 -0.0024322367 -0.0013261375
-0.00065593404 -0.0011235438 -0.0009517591 0.00026674542 -0.0002762193 0.004004408 -0.00025067793 -0.0026731135
-0.004528018 -0.0031832475 -0.005900764 0.0064107757 -0.003051513 -0.0041972026 0.011830249 -0.0019249478
-0.002153931 -0.002106711 -0.0034059626 -0.0020605621 -0.0018880356 -0.004104986 -0.004873711 -0.003835114
-0.0056102728 -0.0026052822 -0.0016104268 -0.002086259 -0.00076537713 -0.000458852 -0.0027574897 -0.0024089334
0.0013651632 -0.003921612 -0.030340975 -0.0029673928 -0.0019990061 -0.0052090376 0.011769295 -0.0043169726
-0.0009454942 -0.006674334 -0.0028054693 -0.00039526375 -0.0034822384 -0.0055126236 -0.0012293954 -0.0039175167
-0.00017670945 -0.007200359 -0.0020119594 -0.0026553802 0.012368154 -0.0029335865 -0.00051018735 -0.0021687853
0.0002554589 -0.0029836586 -0.0006893516 -0.004559022 -0.0012186988 7.3832257e-07 0.010410737 0.000102808175
2.4677338e-05 -0.0018959363 0.013925585 2.3260634e-05 -0.0020180647 -0.00021896137 -0.006084971 0.00070620276
00000000: a4b2 21bb 1a0b 52ba 4e2e 04bb 4677 b63a
00000010: 2ed4 e4b8 0c00 45ba 6e3f c039 3020 88bb
00000020: 8e5a 17bb 613c 19bb c488 d5b9 648c 483c
00000030: 6d6b 423c 27f1 44bb 8209 3bbb fdbd 0bbb
00000040: daeb 8dbb 9194 73bb b615 7fbb ceee 4cb9
00000050: 09a3 f1bb c518 94bb 440f 44bb 7de1 3c3c
00000060: 0141 23ba fcff 40bb c4c4 7339 be06 c13a
00000070: 88d6 8f3a bbdc 02bb 096b 233c 4bbe 3fbb
00000080: 0580 9bbb 37ae 77ba 71ca 453c f730 60bb
00000090: 8aff 9ebc 8a17 7c39 20a7 50bb 0435 4dbb
000000a0: 854f 923b 73fb adb9 00b9 16bb b836 693c
000000b0: a081 053c 8968 ccbb 5403 5bba a400 193b
000000c0: 3ddf dbba 951d 833a 3524 4a3c 1b41 68bb
000000d0: 72f3 7dbb ae6b 69bb 2966 1fbb cad1 adba
000000e0: fdf2 2bba e043 93ba 797f 79ba f7d9 8b39
000000f0: 87d1 90b9 6937 833b 6c6d 83b9 672f 2fbb
00000100: c55f 94bb 089e 50bb 325b c1bb 7c11 d23b
00000110: e5fb 47bb b088 89bb a9d3 413c 884e fcba
00000120: f728 0dbb bf10 0abb 9236 5fbb 7f0a 07bb
00000130: f677 f7ba 1e83 86bb a7b3 9fbb 8956 7bbb
00000140: 61d6 b7bb 62bd 2abb f514 d3ba 9eb9 08bb
00000150: 97a3 48ba 1392 f0b9 00b7 34bb 32df 1dbb
00000160: 47ef b23a de80 80bb a38d f8bc 9778 42bb
00000170: c201 03bb 93b0 aabb 00d4 403c 6475 8dbb
00000180: 0bdb 77ba 5fb4 dabb f7db 37bb 673b cfb9
00000190: 4436 64bb 3da3 b4bb aa23 a1ba 835e 80bb
000001a0: 154b 39b9 fdf0 ebbb 14db 03bb e305 2ebb
000001b0: cca3 4a3c 6a41 40bb 18be 05ba 2e22 0ebb
000001c0: 1def 8539 7c89 43bb 9ab5 34ba d963 95bb
000001d0: bfbc 9fba 2431 4635 cc91 2a3c b89a d738
000001e0: 2e02 cf37 1181 f8ba 2328 643c d51f c337
000001f0: 8241 04bb ff98 65b9 7064 c7bb 7720 393a

bias f4 [128]
-6.094041e-06 0.0022180122 -0.0020107338 -0.0008748455 -3.6471723e-05 -0.00085541606 0.0006173138 0.00012006046
-0.0013126917 -0.0057294117 -0.00020880256 -0.07187357 -0.07141294 -0.0002986798 0.00020124046 -0.00026443662
-0.0017199304 -0.0028599831 4.1674535e-05 -8.07541e-06 0.73080957 -0.0011544449 0.0009547672 -0.06871604
-0.0006639914 0.0024909198 0.0021056856 0.000688091 0.00019198094 0.0012505683 -0.03784591 -0.001098047
0.49989942 0.00094898965 -0.0726533 -0.0005294251 0.11473787 2.290744e-05 -0.0026611376 -0.00034682435
0.36493137 -0.000297534 -0.0025452867 -0.049882077 0.18299028 0.8234988 0.0008349575 0.2577949
-0.0041668997 0.00068075786 -0.07253366 -0.0030274326 0.0034114898 -0.0017806478 -3.5482135e-05 -0.0020592173
0.9641403 0.00135554 1.5370377e-05 0.40939087 7.2173425e-05 0.23217295 -0.00011950538 -0.0029594088
-0.001423936 -0.00018226623 -0.00042620781 -0.02385067 0.00013143654 1.0129114 -0.07047524 0.00018490636
-3.6370013e-06 0.0024123706 -0.00030231767 0.0010701633 5.861467e-05 0.0006965581 -8.288522e-05 -0.0008850173
-0.0009830709 0.75674224 -0.004753963 -1.2686865e-05 0.002646797 -7.00843e-05 0.0011888975 -1.1939725e-06
0.22919339 -0.0008408349 0.18129791 -0.0018813602 -2.538853e-05 0.50869775 -0.0698828 -0.00080924196
0.0027373482 -0.0009637549 0.0016662383 -0.00013514831 -0.00066534244 0.70785797 4.618965e-05 -0.00091860327
-0.00017954422 -0.00025485436 -0.0027557109 -0.0025513042 -0.072713934 -0.00032644442 -0.0005237856 6.9334725e-05
0.00036900459 -0.0061700167 0.00054576027 0.6478563 -0.003270971 -0.0030965072 -0.04363306 0.16260211
0.00015471665 0.00014903067 -0.053322606 -0.0002602742 0.0020021868 7.827932e-08 0.2632474 -0.00033280143
00000000: 6a7b ccb6 125c 113b 84c6 03bb e355 65ba
00000010: 37f9 18b8 003e 60ba 3ad3 213a f8c8 fb38
00000020: a00e acba cabd bbbb 03f2 5ab9 7332 93bd
00000030: f340 92bd 2098 9cb9 1304 5339 15a4 8ab9
00000040: 4a6f e1ba 8e6e 3bbb b1cb 2e38 9f7b 07b7
00000050: 5616 3b3f be50 97ba 5849 7a3a ffba 8cbd
00000060: b50f 2eba b33e 233b 8bff 093b 0161 343a
00000070: 7e4e 4939 1cea a33a 5004 1bbd 58ec 8fba
00000080: d1f2 ff3e 9ec5 783a 41cb 94bd 1ec9 0aba
00000090: b0fb ea3d 5a29 c037 7b66 2ebb fad5 b5b9
000000a0: 49d8 ba3e 56fe 9bb9 d3ce 26bb 2651 4cbd
000000b0: ce61 3b3e d1d0 523f 0de1 5a3a b1fd 833e
000000c0: 7d8a 88bb e374 323a 878c 94bd e467 46bb
000000d0: 4d93 5f3b a064 e9ba a7d2 14b8 eff3 06bb
000000e0: e6d1 763f 60ac b13a a2ef 8037 ae9b d13e
000000f0: d05b 9738 bfbe 6d3e f69e fab8 a4f2 41bb
00000100: 5da3 baba b81e 3fb9 a574 dfb9 7b62 c3bc
00000110: 3ad2 0939 15a7 813f 5355 90bd 6ce3 4139
00000120: 3513 74b6 dd18 1e3b 6480 9eb9 b944 8c3a
00000130: 06d9 7538 3999 363a aad2 adb8 8100 68ba
00000140: 63da 80ba dcb9 413f 22c7 9bbb acd9 54b7
00000150: e375 2d3b 39fa 92b8 c8d4 9b3a 9540 a0b5
00000160: acb1 6a3e 7a6b 5cba 29a6 393e f997 f6ba
00000170: 74f9 d4b7 043a 023f b71e 8fbd 4f23 54ba
00000180: 1565 333b 7fa4 7cba ae65 da3a 99b6 0db9
00000190: 606a 2eba 2e36 353f c2bb 4138 6cce 70ba
000001a0: 0944 3cb9 f99d 85b9 2899 34bb c833 27bb
000001b0: 0beb 94bd a126 abb9 a84e 09ba cc67 9138
000001c0: f576 c139 da2d cabb 5a11 0f3a e9d9 253f
000001d0: c95d 56bb c5ee 4abb 94b8 32bd 2b81 263e
000001e0: 6f3b 2239 1e45 1c39 ce68 5abd 6975 88b9
000001f0: 1f37 033b 831a a833 5dc8 863e da7b aeb9

weight f4 [128, 128]
-0.00040354882 -0.0017986589 -0.0017824039 -0.0012747311 7.2237955e-05 -0.001035266 0.0003598356 -0.00050355867
-0.0024183644 8.252133e-06 -8.790725e-05 -0.02273757 -0.018506577 -0.002758152 -0.0017870445 -0.002056901
0.0033653916 -0.0019683489 -0.00074359064 -0.00044515147 0.080709495 -0.0023514642 0.0027374104 -0.01918919
-0.0006358516 0.003001405 -0.0021325431 -0.0015488404 -0.00047355646 -0.002446621 -0.010832719 -0.0028821488
-0.00025119062 -0.0018794006 -0.018149007 -0.0006454248 -0.102190755 -0.00021001135 0.0014120542 -0.0019784926
-0.060633678 0.0003424264 -0.0021206287 -0.0137240365 -0.030101597 0.055741426 -0.0008063765 -0.030743254
-0.0019147063 -0.00050254393 -0.022766618 0.0026403272 0.0027685931 0.0031951726 -0.00026233253 0.0010226574
0.06322326 -0.0021185274 5.7257832e-05 -0.00808444 0.00018771818 0.020899462 -0.00033783502 0.00027229812
0.0016695799 0.00034201032 0.0033871948 -0.07562095 0.0027199492 0.057544407 -0.022764549 0.00070199027
-0.00013306188 0.0026375828 0.000271759 0.0018261122 -0.00018335177 -0.0007392666 0.00012925308 0.0032764915
0.0016918739 0.06556995 -0.0010697707 -0.00042413126 -0.0019178493 -0.0005777028 0.0023499348 -0.000559893
0.08323788 -0.0030206824 -0.10887518 -0.0019843655 2.9243769e-05 0.025973696 -0.021489467 0.002275599
-0.0028816282 0.0029596188 -0.0026270363 -0.0004600193 -0.0014395578 0.057113342 1.1334669e-05 0.0027255693
-0.00031826537 0.0037525413 -0.00096345175 0.00209641 -0.017531404 -0.0028428643 0.00031229845 -0.00022380814
0.00031523377 -0.0010465161 -0.0019444429 0.07992631 -0.0021240364 -0.0017364611 -0.0115885 0.11491176
0.00039648864 -0.00034411298 -0.014440042 -0.0010482187 -0.0022030203 -0.00042896927 -0.1476577 -0.00023239273
-9.378965e-05 0.0011999141 -0.00047099421 0.0017346081 4.408216e-05 -0.0008053473 0.00023672568 1.4999346e-05
-0.0019542463 -0.0010647502 0.000102949016 0.010045092 0.0051048785 0.00038828826 -8.609447e-05 0.00038556638
0.0030588098 0.000379342 -9.726417e-05 -7.886555e-05 -0.020754 0.00014613109 0.0022885099 0.008107428
0.00066695915 0.0018544964 0.0006742305 0.0015014593 0.0012609868 0.00044238102 0.00060144207 -0.0015892381
0.008172666 0.0011501154 0.0045553045 8.8183615e-06 -0.06542245 -0.00014585398 0.00010123108 -9.451192e-05
0.064210065 0.00033249988 0.0003485034 0.0018174886 0.014683312 0.029135186 -0.00044559577 0.09510194
-0.0023116115 0.0007206237 0.0099889375 0.00079363456 0.0022613744 0.0029754045 9.6518386e-05 0.00090019987
0.060802482 0.00056979264 4.3597123e-05 0.13041227 -1.712023e-05 0.027286248 0.00041593512 -0.000513977
-0.0003456825 -3.110886e-05 -0.0008847629 -0.018752731 0.002374958 0.054926172 0.006870814 2.43691e-05
0.00010847255 0.0016815301 -3.4541158e-06 0.0014985264 2.9049117e-05 -0.00043078628 9.555275e-05 0.0028409509
0.00026071104 0.059456635 -0.001130258 -2.5456458e-05 0.0010772136 0.00036733266 0.0016093085 1.2268972e-06
0.08087307 0.0005813059 -0.100323066 6.667456e-05 -9.088926e-05 0.0028060458 0.008574238 0.0014949888
-0.0007342755 -0.00026368615 -0.00014323322 0.00017576767 -0.00030488597 0.053181108 -4.5181873e-06 0.002170114
0.00013095961 -0.0009890428 -0.0012969007 -0.0001337881 0.0036791458 -0.0016158093 0.00053904974 -0.00010289821
5.4200715e-05 -0.0017783233 0.001074341 0.047580708 -0.0010132396 -0.00035240783 0.0009996179 0.029005725
0.00020250014 -0.0001148231 0.0017525202 0.00016592836 -0.0019702974 -0.00010105821 -0.06612524 0.0006840388
00000000: 6893 d3b9 fac0 ebba 8d9f e9ba e114 a7ba
00000010: 757e 9738 c3b1 87ba 51a8 bc39 4001 04ba
00000020: 6c7d 1ebb a472 0a37 d85a b8b8 2444 babc
00000030: 1b9b 97bc 1dc2 34bb 433b eaba 13cd 06bb
00000040: e78d 5c3b 6aff 00bb 86ed 42ba 3863 e9b9
00000050: 054b a53d 061b 1abb 2066 333b a632 9dbc
00000060: 47af 26ba 38b3 443b 23c2 0bbb 7602 cbba
00000070: ac47 f8b9 7d57 20bb b77b 31bc 6fe2 3cbb
00000080: 3cb2 83b9 3856 f6ba 3aad 94bc ba31 29ba
00000090: 6349 d1bd 7e36 5cb9 ad14 b93a 99a9 01bb
000000a0: 055b 78bd b287 b339 3ffa 0abb c8da 60bc
000000b0: a097 f6bc 1f51 643d 0363 53ba 47d9 fbbc
000000c0: e2f6 faba 27bd 03ba 0f81 babc 5709 2d3b
000000d0: 4971 353b 1a66 513b ad89 89b9 b00a 863a
000000e0: 327b 813d fed6 0abb 2128 7038 9974 04bc
000000f0: 37d6 4439 5935 ab3c 731f b1b9 3cc3 8e39
00000100: ced5 da3a d94f b339 b3fb 5d3b 28df 9abd
00000110: 2d41 323b afb3 6b3d b87c babc c505 383a
00000120: 8786 0bb9 4cdb 2c3b e07a 8e39 285a ef3a
00000130: 1e42 40b9 57cb 41ba 1c88 0739 68ba 563b
00000140: dec1 dd3a 8a49 863d 8c37 8cba ef5d deb9
00000150: 5860 fbba fb70 17ba 5d01 1a3b c8c5 12ba
00000160: 9f78 aa3d a4f6 45bb f3f9 debd 210c 02bb
00000170: 8450 f537 cac6 d43c ae0a b0bc 3722 153b
00000180: b3d9 3cbb 2af6 413b 5b2a 2cbb bf2e f1b9
00000190: 8baf bcba aeef 693d 082a 3e37 779f 323b
000001a0: dbdc a6b9 32ed 753b 2790 7cba ec63 093b
000001b0: 059e 8fbc 594f 3abb fdbb a339 0aae 6ab9
000001c0: f645 a539 412b 89ba addc feba 68b0 a33d
000001d0: 6b33 0bbb f799 e3ba b1dd 3dbc db56 eb3d
000001e0: cedf cf39 106a b4b9 ed95 6cbc 6264 89ba
000001f0: 8c60 10bb 48e7 e0b9 9533 17be 73ae 73b9
00000200: efb0 c4b8 7046 9d3a c6ef f6b9 ca5b e33a
00000210: dce4 3838 f11d 53ba 9139 7839 b3a5 7b37
00000220: d012 00bb 178f 8bba 55e6 d738 2b94 243c
00000230: d346 a73b 2b93 cb39 9e8d b4b8 d825 ca39
00000240: 5076 483b 6ce2 c639 4efa cbb8 9f64 a5b8
00000250: 4b04 aabc c43a 1939 d3fa 153b 05d5 043c
00000260: dfd6 2e3a 9312 f33a d8be 303a 9dcc c43a
00000270: b247 a53a 60ef e739 18aa 1d3a fb4d d0ba
00000280: a5e6 053c 78bf 963a aa44 953b 93f2 1337
00000290: 35fc 85bd 61f0 18b9 064c d438 b334 c6b8
000002a0: 9180 833d 6153 ae39 56b7 b639 cc38 ee3a
000002b0: 4692 703c eaac ee3c da9e e9b9 cec4 c23d
000002c0: 687e 17bb 3de8 3c3a a4a8 233c ea0b 503a
000002d0: 9133 143b 01ff 423b ea69 ca38 64fb 6b3a
000002e0: 060c 793d 235e 153a 0edc 3638 cb8a 053e
000002f0: 6a9d 8fb7 6987 df3c de11 da39 6abc 06ba
00000300: b83c b5b9 e27a 02b8 6fef 67ba 549f 99bc
00000310: 2fa5 1b3b 44fa 603d 9124 e13b 3e6c cc37
00000320: c27b e338 ca66 dc3a 42cd 67b6 346a c43a
00000330: 81ae f337 28db e1b9 7e63 c838 3f2f 3a3b
00000340: 0bb0 8839 cd88 733d 2a25 94ba 548b d5b7
00000350: 4a31 8d3a 8e96 c039 6fef d23a deab a435
00000360: c8a0 a53d c762 183a 2e76 cdbd a2d3 8b38
00000370: cd9b beb8 a3e5 373b f67a 0c3c 80f3 c33a
00000380: 657c 40ba 5b3f 8ab9 e030 16b9 464e 3839
00000390: 1ad9 9fb9 6fd4 593d ef9a 97b6 7938 0e3b
000003a0: 3452 0939 c5a2 81ba c4fc a9ba 7849 0cb9
000003b0: d31d 713b 90c9 d3ba 044f 0d3a 0ecb d7b8
000003c0: 9355 6338 a116 e9ba e7d0 8c3a fde3 423d
000003d0: aece 84ba 61c3 b8b9 9c05 833a 6a9d ed3c
000003e0: 3856 5439 2fcd f0b8 d2b4 e53a 0efd 2d39
000003f0: 1b20 01bb 37ef d3b8 ab6c 87bd 1151 333a

bias f4 [128]
-0.00157152 -0.00015697144 -0.00024240882 0.0004166045 2.4343424e-05 -0.0019486754 0.00062970683 -5.8772082e-05
-0.00016394356 0.00029450588 0.0002694779 0.0005725579 0.008037303 0.00031817248 0.00011015107 8.214088e-05
0.00031646897 4.16445e-05 -9.086658e-05 -0.0011824704 -4.2129523e-05 -0.0002753048 0.00037014202 8.678869e-05
0.00042017625 -0.00088969857 9.862008e-05 -0.00036404538 -0.00032657088 5.042244e-05 -3.001458e-05 0.00041293696
-0.00010237653 3.4368386e-06 -2.896753e-05 -0.00018431773 0.00023355683 -0.00060866575 0.000102335 2.3714725e-05
0.00011890126 0.00040515946 -0.00012679723 8.6199136e-05 -9.0642e-05 0.0001125929 3.4772595e-05 -0.041008346
0.00018379139 3.540785e-05 0.00068620266 -0.0014943655 -0.0002854184 1.5758675e-05 0.00031302308 0.0003049609
1.5979942e-05 0.00025434422 -2.3936343e-05 8.21573e-05 0.00042955272 0.00095005176 0.00033395458 -7.3679286e-05
0.00073427573 0.00012584291 -6.1697625e-05 -0.0001297028 -0.0003281458 -0.00028691045 0.0067929616 -0.00013005691
0.00042815972 6.555993e-05 0.00028275992 -0.00023340924 -0.029348556 -0.0010866612 -0.00033132033 0.0003285036
-0.00054453686 0.00012370742 0.0077400673 0.00054081687 1.6465665e-05 0.0002206535 -0.0003584255 0.00087643333
-0.00032530387 -7.2151e-05 0.0031126586 -5.5181292e-05 -0.0014988016 -0.001310261 8.132422e-05 -0.00034792858
0.00011834874 -0.00023603629 0.00064428546 0.00023744846 -0.00032364772 0.0005490424 0.00016455197 0.0044008614
0.00012335059 4.6344412e-05 -3.2744454e-05 0.00022781799 -2.1485796e-05 -0.0033633846 0.00032405596 -0.0007784251
0.0007343428 0.00029835978 0.00026879474 -1.13390315e-05 -0.001619754 0.000105960615 -0.0001271758 0.00056364865
0.00029824692 0.0001617441 -0.0004811154 -0.00040374606 0.0009710983 -0.00010608827 0.00012709852 -0.00033782813
00000000: 76fb cdba b398 24b9 1f2f 7eb9 b66b da39
00000010: 1b35 cc37 b26a ffba e912 253a 0b82 76b8
00000020: 44e8 2bb9 e967 9a39 b648 8d39 b617 163a
00000030: e4ae 033c 63d0 a639 e800 e738 0d43 ac38
00000040: bfeb a539 71ab 2e38 a08f beb8 1ffd 9aba
00000050: 3bb4 30b8 c956 90b9 9f0f c239 5302 b638
00000060: 1a4b dc39 a93a 69ba 41d2 ce38 58dd beb9
00000070: 9a37 abb9 af7c 5338 d2c7 fbb7 767f d839
00000080: fbb2 d6b8 70a4 6636 4cff f2b7 6a45 41b9
00000090: efe6 7439 de8e 1fba af9c d638 fcee c637
000000a0: a15a f938 956b d439 dff4 04b9 cfc5 b438
000000b0: 0e17 beb8 da1f ec38 cad8 1138 5ef8 27bd
000000c0: 20b8 4039 e482 1438 48e2 333a 96de c3ba
000000d0: 36a4 95b9 7f31 8437 3f1d a439 29e3 9f39
000000e0: aa0c 8637 8159 8539 e8ca c8b7 dd4b ac38
000000f0: 9735 e139 e50c 793a a016 af39 4484 9ab8
00000100: 697c 403a b3f4 0339 a963 81b8 d500 08b9
00000110: fc0a acb9 786c 96b9 7e97 de3b e35f 08b9
00000120: a07a e039 387d 8938 653f 9439 51bf 74b9
00000130: 626c f0bc 4d6e 8eba 10b5 adb9 023b ac39
00000140: 40bf 0eba 75b7 0139 64a0 fd3b 9bc5 0d3a
00000150: bf1f 8a37 395f 6739 0eeb bbb9 72c0 653a
00000160: 8c8d aab9 c64f 97b8 bffd 4b3b 7672 67b8
00000170: 7073 c4ba 10bd abba 9c8c aa38 2f6a b6b9
00000180: ff31 f838 8280 77b9 44e5 283a 96fb 7839
00000190: 43af a9b9 9ded 0f3a 958b 2c39 1a35 903b
000001a0: ac57 0139 ef61 4238 1757 09b8 6de2 6e39
000001b0: 653c b4b7 3b6c 5cbb 0ee6 a939 390f 4cba
000001c0: e980 403a 2c6d 9c39 05ed 8c39 c53c 3eb7
000001d0: ed4d d4ba 2c37 de38 7e5a 05b9 d2c1 133a
000001e0: 065e 9c39 da99 2939 373e fcb9 e1ad d3b9
000001f0: 4e91 7e3a b57b deb8 c045 0539 861e b1b9

weight f4 [128, 128]
-0.13043857 0.0046281093 -0.005639003 -0.04893669 0.01547494 -0.109972894 0.021004532 0.018537425
-0.033013485 0.036594145 0.037851095 0.035593018 -0.047032338 0.034735795 0.040777933 0.05128735
-0.02900625 0.016066479 0.14604925 -0.14383833 0.085699394 -0.007272186 -0.03916765 0.06844344
-0.19938397 -0.07061541 0.01224469 0.011851595 -0.06823302 0.06197387 -0.020179056 0.06365619
-0.049200676 -0.01341715 -0.041536015 -0.015478959 0.06430186 0.07155413 -0.034697898 -0.014111549
-0.08603521 0.05523102 0.09127323 0.02440316 0.025124278 0.015462932 -0.011042416 -0.060444653
0.095687374 0.027824154 -0.0009591386 0.062847376 -0.018989611 0.00092782354 0.07970518 0.06384082
0.029137157 0.02753034 -0.034592185 0.01478773 0.032774996 -0.027378973 0.010463434 -0.01746357
-0.025000215 0.021390585 -0.011133649 0.0988334 -0.0049499343 0.08344305 -0.07516141 -0.046233162
0.1388682 0.067720704 -0.0030728434 0.077567905 -0.036295697 -0.049414553 0.006331744 -0.014538173
-0.016732765 0.010981146 -0.10393336 0.020266851 0.052195366 0.026307462 0.020604283 0.014643102
0.079889655 0.024666863 -0.16469155 -0.045439523 -0.21633053 0.057836972 -0.018789062 0.02499484
0.0013029836 -0.0024736705 -0.020896431 0.08847553 0.015493 0.030405302 -0.04175894 -0.21282978
0.034177773 -0.052188795 0.0062670913 0.07442453 0.025713537 -0.20412847 -0.019945873 -0.039574426
-0.035056505 0.0506798 0.12151755 0.012536656 -0.22069313 0.09909272 -0.009223395 -0.0051107556
-0.03459674 -0.023589976 0.102444544 0.07691564 -0.21102017 0.022788038 -0.018682677 0.07444656
-0.07214797 0.023147972 0.0075593567 -0.032711435 0.027439319 -0.05785763 0.05214588 0.07148586
0.0035795486 0.017210739 0.05157534 0.06858933 -0.07374164 0.06480201 0.12344852 0.10512653
0.022076897 0.06580966 0.07924095 -0.09118661 0.08733431 0.021122964 0.028411947 0.032115657
0.010729103 -0.03458705 0.05762463 0.071597725 -0.037601348 0.08040272 0.06452002 0.0873879
-0.012799041 -0.00086689106 0.038665287 0.04633018 0.101440415 0.079084575 -0.0035185574 0.026741818
0.05947916 0.060603183 0.049132477 0.08776262 0.06593404 0.029870484 0.0023856522 -0.053796094
0.06795843 0.055597663 -0.06919484 0.17678146 0.023546528 -0.0013793843 0.08182864 0.08969303
0.050831083 0.14542983 0.03699258 0.03797325 -0.02246288 0.038832277 0.060750857 0.06267948
0.05296006 0.15358923 0.022410745 0.013825603 0.046038646 0.022073174 -0.048311345 -0.024020158
0.03514033 0.043079216 0.02763005 0.10714043 -0.011610971 -0.030449651 -0.0026255068 0.040554225
0.13072711 0.10207879 -0.095197625 0.047895685 0.05845771 0.04889938 -0.049235813 0.0553116
0.11122526 0.04007263 -0.073426135 0.03303115 -0.11528276 0.13909 0.028774543 0.048334345
0.023742907 0.013588298 0.049440123 0.08569963 0.048690207 0.06309593 -0.010531541 -0.057182334
0.07176306 -0.03684023 0.042278275 0.067178115 0.057928838 -0.091076486 0.04476859 -0.01967589
-0.042923454 0.08234475 0.10472743 0.050176475 0.031608712 0.054889224 0.13733777 0.061778072
0.004848717 -0.00569599 0.023829354 0.07514617 -0.097955264 -0.06504578 0.0086350255 0.077866904
00000000: b091 05be 65a7 973b 63c7 b8bb d771 48bd
00000010: 9a8a 7d3c 7839 e1bd b211 ac3c ccdb 973c
00000020: 2639 07bd bee3 153d c009 1b3d fcc9 113d
00000030: fba4 40bd 1f47 0e3d c306 273d af12 523d
00000040: 849e edbc d99d 833c ef8d 153e 5b4a 13be
00000050: 2a83 af3d 854b eebb 426e 20bd 132c 8c3d
00000060: 502b 4cbe d09e 90bd f49d 483c 312d 423c
00000070: c1bd 8bbd 50d8 7d3d 8c4e a5bc 2d5e 823d
00000080: a686 49bd 9bd3 5bbc ab21 2abd 769b 7dbc
00000090: b2b0 833d f98a 923d 621f 0ebd 2034 67bc
000000a0: 3a33 b0bd ec39 623d 76ed ba3d 23e9 c73c
000000b0: 6ed1 cd3c 3d58 7d3c 40eb 34bc d094 77bd
000000c0: bef7 c33d 7bef e33c b46e 7bba 20b6 803d
000000d0: 1a90 9bbc 2f39 733a 783c a33d fabe 823d
000000e0: 0cb1 ee3c 4f87 e13c 89b0 0dbd 3c48 723c
000000f0: 133f 063d de49 e0bc d36e 2b3c c30f 8fbc
00000100: 40cd ccbc 4f3b af3c e969 36bc 2a69 ca3d
00000110: 0f33 a2bb 31e4 aa3d 3aee 99bd fc5e 3dbd
00000120: 7733 0e3e 27b1 8a3d c261 49bb ecdb 9e3d
00000130: ccaa 14bd ea66 4abd 857a cf3b 8431 6ebc
00000140: 2713 89bc 44ea 333c 03db d4bd ab06 a63c
00000150: cfca 553d bf82 d73c 50ca a83c 9fe9 6f3c
00000160: 309d a33d 2912 ca3c e7a4 28be cb1e 3abd
00000170: c085 5dbe 76e6 6c3d 85eb 99bc fbc1 cc3c
00000180: e0c8 aa3a 4e1d 22bb fe2e abbc a932 b53d
00000190: 5ad6 7d3c 8a14 f93c 6c0b 2bbd 0df0 59be
000001a0: fefd 0b3d ebc3 55bd 2c5c cd3b e36b 983d
000001b0: 32a5 d23c 0e07 51be 8765 a3bc cb18 22bd
000001c0: 6997 0fbd 9f95 4f3d 31de f83d 8c66 4d3c
000001d0: 61fd 61be 20f1 ca3d b91d 17bc 2078 a7bb
000001e0: 50b5 0dbd c43f c1bc 72ce d13d f285 9d3d
000001f0: ac15 58be fbad ba3c 6a0c 99bc 7077 983d
00000200: 51c2 93bd d1a0 bd3c 7bb4 f73b 6dfc 05bd
00000210: 6cc8 e03c 1ffc 6cbd eb96 553d 2e67 923d
00000220: dc96 6a3b 89fd 8c3c aa40 533d 9078 8c3d
00000230: db05 97bd ebb6 843d 94d2 fc3d 944c d73d
00000240: 9cda b43c 37c7 863d 1449 a23d 0cc0 babd
00000250: 55dc b23d 110a ad3c 2cc0 e83c b58b 033d
00000260: 1fc9 2f3c 27ab 0dbd ce07 6c3d d4a1 923d
00000270: df03 1abd 2eaa a43d 1223 843d 6df8 b23d
00000280: 12b3 51bc 1340 63ba 7e5f 1e3d b7c4 3d3d
00000290: febf cf3d 18f7 a13d 9997 66bb a811 db3c
000002a0: 6ba0 733d 0b3b 783d 233f 493d e3bc b33d
000002b0: 6d08 873d f2b2 f43c 9a58 1c3b 4b59 5cbd
000002c0: ca2d 8b3d 60ba 633d 06b6 8dbd 3306 353e
000002d0: a6e4 c03c 75cc b4ba c695 a73d fbb0 b73d
000002e0: 4134 503d 8feb 143e 8885 173d d789 1b3d
000002f0: 1304 b8bc 980e 1f3d e4d5 783d 195e 803d
00000300: a6ec 583d 7f46 1d3e bd96 b73c c884 623c
00000310: 0593 3c3d cdd2 b43c 1ee2 45bd ecc5 c4bc
00000320: 4fef 0f3d d573 303d 6a58 e23c 716c db3d
00000330: f13b 3ebc 8c71 f9bc b210 2cbb 301c 263d
00000340: 54dd 053e af0e d13d f9f6 c2bd 442e 443d
00000350: 5a71 6f3d b74a 483d 7eab 49bd 6b8e 623d
00000360: 12ca e33d 3323 243d 7160 96bd ac4b 073d
00000370: 5e19 ecbd 9c6d 0e3e 97b8 eb3c 3cfa 453d
00000380: 7c80 c23c 74a1 5e3c ba81 4a3d 4a83 af3d
00000390: 626f 473d 7038 813d 7c8c 2cbc 0638 6abd
000003a0: 83f8 923d c8e5 16bd fc2b 2d3d ae94 893d
000003b0: ca46 6d3d 4f86 babd 455f 373d 552f a1bc
000003c0: 81d0 2fbd 5da4 a83d 567b d63d d985 4d3d
000003d0: 2378 013d 86d3 603d 46a2 0c3e 010b 7d3d
000003e0: fce1 9e3b 6da5 babb c735 c33c 3ce6 993d
000003f0: c59c c8bd b936 85bd ec79 0d3c af78 9f3d

bias f4 [128]
2.6376332e-10 2.8543402e-11 2.5357927e-10 -2.4522817e-10 9.792825e-11 -1.1588151e-10 1.5921336e-10 -5.7817365e-11
-1.5291757e-10 -8.5543655e-11 -8.6999886e-11 0.0018276991 -1.9049998e-10 1.7831776e-10 -3.3067743e-11 2.6038408e-10
6.441291e-11 2.6778102e-10 -2.1545252e-10 2.8074945e-10 -9.9856665e-11 -2.3777216e-10 1.8262351e-10 2.6732724e-10
2.9746255e-10 2.8535546e-10 2.6960534e-10 -1.8445036e-10 2.9826402e-10 2.551981e-10 2.647869e-10 -1.4608899e-10
2.7383848e-10 1.5297244e-10 2.6014263e-10 2.849879e-10 3.9868563e-11 2.6961258e-10 -1.6574882e-10 -1.5298408e-10
-1.1475649e-10 3.6583316e-11 6.1973274e-11 1.10219577e-10 2.5853042e-10 2.6949548e-10 -1.7263206e-11 -2.3464894e-10
1.1198179e-10 2.6305333e-10 8.457847e-11 -7.728635e-11 -2.9111716e-10 -1.13758954e-10 2.743143e-10 -2.720979e-10
-2.896187e-10 1.8719496e-11 -1.0057149e-10 3.5400682e-10 -3.596795e-11 2.6792332e-10 -1.1311614e-10 2.7060162e-10
-2.4127392e-10 2.6427832e-10 1.641408e-10 2.852008e-10 2.9037872e-10 -1.9993639e-10 2.765687e-10 -2.9527325e-10
5.027655e-12 2.5323443e-10 1.9900762e-11 -1.8460455e-10 2.1396011e-10 1.2902006e-10 2.834196e-10 -1.1228884e-10
2.5244762e-10 2.9627453e-10 2.680796e-10 4.1738862e-11 0.000308397 -1.04989115e-10 -1.6621156e-10 -2.6318223e-10
-1.13225124e-10 1.5465926e-10 1.7891055e-10 -2.4685738e-11 -2.769161e-10 -1.1390551e-10 -2.219464e-10 2.5635744e-10
-9.4395616e-11 -2.5124278e-10 -1.0638345e-10 2.632942e-10 2.562282e-10 2.6370972e-10 1.7737438e-11 1.9406049e-10
-2.9054067e-10 -0.0015826176 -1.1712108e-10 -4.332339e-11 2.7085043e-10 2.6234273e-10 1.6644158e-10 2.8748634e-10
2.608539e-10 -1.4000047e-10 -2.923836e-10 2.7663533e-10 -5.1104104e-10 1.6924617e-10 1.6576635e-10 -4.792825e-11
2.877645e-10 -1.3970902e-10 2.6086078e-10 -1.63011e-10 2.6551641e-10 -2.1205902e-10 -1.9930017e-10 2.854108e-10
00000000: 6301 912f 0712 fb2d 1c68 8b2f ccd0 86af
00000010: b458 d72e 7ed3 feae 940e 2f2f 9148 7eae
00000020: 7822 28af cc1c bcae 9550 bfae 688f ef3a
00000030: fa74 51af fd0f 442f f86e 11ae cd25 8f2f
00000040: 3fa5 8d2e d436 932f 7ee4 6caf f957 9a2f
00000050: 4e96 dbae 75b7 82af f3cb 482f f7f6 922f
00000060: 2288 a32f 36e0 9c2f 9437 942f 29ce 4aaf
00000070: eef8 a32f f14b 8c2f 7191 912f 65a0 20af
00000080: 578b 962f ea31 282f d203 8f2f 7bac 9c2f
00000090: 0358 2f2e 9938 942f 253e 36af 3135 28af
000000a0: 295a fcae 27e5 202e da47 882e 1b60 f22e
000000b0: ec20 8e2f 1e28 942f 49d9 97ad e7ff 80af
000000c0: 2540 f62e 779d 902f 72fd b92e 59f4 a9ae
000000d0: 190b a0af 9928 faae 4ece 962f 6096 95af
000000e0: 3538 9faf 8fa8 a42d b728 ddae 089e c22f
000000f0: 5030 1eae db4a 932f babe f8ae cbc3 942f
00000100: 49a4 84af de49 912f 8779 342f 72ca 9c2f
00000110: 2ca3 9f2f 17d5 5baf 960b 982f 0454 a2af
00000120: 17e5 b02c 9437 8b2f 880c af2d 90f9 4aaf
00000130: 6b40 6b2f ebdb 0d2f c3cf 9b2f ffec f6ae
00000140: d8c8 8a2f efe0 a22f d960 932f c891 372e
00000150: 58b0 a139 9edf e6ae 65c0 36af 9baf 90af
00000160: 14fc f8ae b60c 2a2f d8b6 442f 5723 d9ad
00000170: 7a3c 98af 1a7b faae 5c08 74af 1aef 8c2f
00000180: 0294 cfae 471f 8aaf 8ff0 e9ae 5dbf 902f
00000190: eadc 8c2f d8f9 902f 2905 9c2d 2c5f 552f
000001a0: f7b9 9faf d66f cfba a7c6 00af cd89 3eae
000001b0: cfe6 942f 7539 902f 2401 372f 1b0c 9e2f
000001c0: ec67 8f2f a1ee 19af 55bd a0af f614 982f
000001d0: 5179 0cb0 9016 3a2f 1443 362f 6aca 52ae
000001e0: 4133 9e2f 989c 19af e468 8f2f 843b 33af
000001f0: 1df8 912f 4f29 69af 0322 5baf 00e8 9c2f

weight f4 [128, 128]
0.099068135 0.14291391 0.09732419 -0.076999724 0.15354241 -0.06492236 -0.037602536 0.052115604
-0.06678148 -0.0066956314 0.051768612 0.0009754731 -0.10847467 -0.034520008 -0.0043605026 0.122021586
0.06516688 0.12065625 -0.07530382 0.117351145 0.049003314 -0.10062923 0.088266104 0.121401966
0.07846451 0.11260462 0.09997344 0.040746957 0.080130324 0.0975994 0.120987676 0.035154093
0.119680725 -0.036974717 0.097476125 0.115553 0.016504776 0.10014853 -0.10211447 0.035978206
-0.008844194 0.16244495 0.1538237 0.15244758 0.1259498 0.120677106 0.17613572 -0.1032131
0.021833774 0.122341976 0.023392994 -0.0062339245 -0.09039756 -0.009793512 0.10060116 -0.09323407
-0.08533074 -0.057915162 0.04813556 0.085330695 0.15030213 0.12144929 -0.009431189 0.12034501
-0.075953394 0.12161041 0.087820455 0.10216051 0.10491399 -0.08182175 0.077305 -0.088733636
-0.058909297 0.09720905 -0.028534805 -0.06874454 0.09308561 -0.034592822 0.10284647 -0.009237074
0.09608128 0.10603074 0.121413834 -0.0068157087 -0.00063897634 -0.10816743 0.044314727 -0.09623936
0.03325086 -0.037244614 -0.03973797 0.005738654 -0.08269622 -0.010824014 -0.07319874 0.12345645
0.05038435 -0.09930862 -0.11512813 0.07812544 0.12679102 0.12229874 -0.12207551 0.06788685
-0.09053198 -0.00016898676 0.048806597 -0.0051956954 0.12062939 0.09845451 -0.037549082 0.115489304
0.12225517 -0.10447795 -0.089899324 0.11924138 0.096514605 -0.038745105 -0.03815142 -0.119429745
0.10364318 0.04791313 0.1000359 -0.10232211 0.121910915 -0.09835439 -0.10100878 0.11300412
-0.05377949 -0.014902839 -0.05476814 0.07296511 -0.01957616 0.062099762 0.036211815 -0.050418057
0.06395632 0.14543687 -0.050388493 -0.0007524943 0.10022586 0.17004474 0.15361425 -0.025060534
-0.06313078 -0.024893196 0.0993917 -0.02481365 -0.04722414 0.103162006 -0.04816541 -0.02533173
-0.07594135 -0.060166765 -0.053725325 -0.0393037 -0.07764107 -0.052786417 -0.024971975 -0.033914242
-0.02453823 0.03552899 -0.051464938 -0.024542179 -0.015346229 -0.054864306 0.09343579 -0.034734875
0.14575028 -0.007208777 -0.067268305 -0.01726965 -0.019258281 -0.026031986 -0.0004588799 0.093957685
-0.02066458 -0.026203483 -0.021735992 0.14859734 0.08417351 0.14499986 -0.055770684 0.08669402
0.0801685 0.05518364 -0.046497058 -0.06314533 -0.0156278 -0.025672587 0.14640887 -0.025610927
0.072194 -0.025671646 -0.045646783 -0.05476256 -0.059470847 0.10069765 -0.075135626 0.08410495
0.0562249 -0.05237112 0.027391871 0.06528294 -0.050443675 0.03470634 -0.05619883 0.12598331
-0.049772017 -0.057418082 -0.025634421 0.005729598 0.0009827251 0.098705664 -0.042785328 0.10294771
-0.031588886 0.035675794 0.038224757 -0.005518548 0.0778583 0.14574711 0.07018821 -0.024618832
-0.048117865 0.09761973 0.11571389 -0.07566286 -0.026409907 -0.025928603 0.11277881 -0.06532609
0.08448477 -0.0013273819 -0.04693741 0.15252335 -0.026365083 -0.05289395 0.032904755 -0.02682162
-0.024788398 0.09569713 0.08509053 -0.025705492 -0.06552308 0.037662532 0.03735124 0.120379016
-0.058157533 -0.04648598 -0.0550494 0.09484003 -0.025820816 0.09104929 0.09251156 -0.060337383
00000000: 3ce4 ca3d 0658 123e e851 c73d 08b2 9dbd
00000010: 393a 1d3e 04f6 84bd 1e05 1abd 2c77 553d
00000020: bbc4 88bd 0767 dbbb 530b 543d e4b6 7f3a
00000030: f827 debd da64 0dbd 8ce2 8ebb 74e6 f93d
00000040: 3776 853d a01a f73d e438 9abd cc55 f03d
00000050: b3b7 483d b316 cebd dcc4 b43d 98a1 f83d
00000060: 00b2 a03d 409d e63d e0be cc3d 48e6 263d
00000070: 5e1b a43d 32e2 c73d 63c8 f73d bdfd 0f3d
00000080: 2b1b f53d cd72 17bd 90a1 c73d 0da7 ec3d
00000090: 0635 873c ac1a cd3d 6421 d1bd e25d 133d
000000a0: 3de7 10bc f857 263e f683 1d3e 381b 1c3e
000000b0: fcf8 003e 8f25 f73d ec5c 343e 6461 d3bd
000000c0: bedc b23c 6e8e fa3d aaa2 bf3c f345 ccbb
000000d0: 5b22 b9bd f774 20bc fb07 ce3d 81f1 bebd
000000e0: e2c1 aebd 7338 6dbd cb29 453d dcc1 ae3d
000000f0: cde8 193e 68ba f83d 4685 1abc 7277 f63d
00000100: 748d 9bbd e10e f93d 36db b33d 8839 d13d
00000110: 25dd d63d 2992 a7bd 1552 9e3d fbb9 b5bd
00000120: e04a 71bd 8a15 c73d d3c1 e9bc f0c9 8cbd
00000130: aba3 be3d 34b1 0dbd 2ca1 d23d 1957 17bc
00000140: 43c6 c43d a526 d93d d1a7 f83d 4f56 dfbb
00000150: fa80 27ba e386 ddbd 5c83 353d 2419 c5bd
00000160: 0e32 083d cf8d 18bd 48c4 22bd 520b bc3b
00000170: a35c a9bd 3557 31bc 39e9 95bd bcd6 fc3d
00000180: d25f 4e3d 5162 cbbd 4cc8 ebbd 3b00 a03d
00000190: 81d5 013e c377 fa3d ba02 fabd 4308 8b3d
000001a0: d568 b9bd 0a32 31b9 6de9 473d a740 aabb
000001b0: 8b0c f73d 85a2 c93d 11cd 19bd a885 ec3d
000001c0: eb60 fa3d 89f8 d5bd 231d b8bd d334 f43d
000001d0: 73a9 c53d 30b3 1ebd aa44 1cbd 9597 f4bd
000001e0: e042 d43d 8f40 443d 9fdf cc3d 418e d1bd
000001f0: 6eac f93d 076e c9bd b1dd cebd b46e e73d
00000200: e247 5cbd 0a2b 74bc 8f54 60bd bb6e 953d
00000210: 2f5e a0bc 525c 7e3d d752 143d 2a83 4ebd
00000220: 88fb 823d 67ed 143e 2a64 4ebd 0a43 45ba
00000230: 3743 cd3d 3520 2e3e 0e4d 1d3e c04b cdbc
00000240: b64a 81bd d1ec cbbc e08d cb3d ff45 cbbc
00000250: 1a6e 41bd 9a46 d33d 1849 45bd 7d84 cfbc
00000260: 2387 9bbd 6d71 76bd 160f 5cbd ebfc 20bd
00000270: 4802 9fbd 9236 58bd 0792 ccbc a9e9 0abd
00000280: 6604 c9bc d986 113d e6cc 52bd ae0c c9bc
00000290: c06e 7bbc 65b9 60bd 435b bf3d 2846 0ebd
000002a0: 903f 153e 9b37 ecbb f7c3 89bd 1579 8dbc
000002b0: 8bc3 9dbc 0841 d5bc d195 f0b9 e36c c03d
000002c0: c448 a9bc b0a8 d6bc ae0f b2bc e729 183e
000002d0: 2963 ac3d d87a 143e cd6f 64bd a28c b13d
000002e0: 622f a43d 3e08 623d b373 3ebd 5752 81bd
000002f0: df05 80bc 514f d2bc 35ec 153e 02ce d1bc
00000300: 73da 933d 584d d2bc 1ff8 3abd b54e 60bd
00000310: b497 73bd 923a ce3d b5e0 99bd 373f ac3d
00000320: 154c 663d 1983 56bd eb64 e03c 10b3 853d
00000330: 079e 4ebd 3c28 0e3d bf30 66bd c501 013e
00000340: bedd 4bbd 392f 6bbd 47ff d1bc 5abf bb3b
00000350: c8ce 803a 3226 ca3d ab3f 2fbd 40d6 d23d
00000360: 5963 01bd c820 123d 9091 1c3d f0d4 b4bb
00000370: 2c74 9f3d bb3e 153e d6be 8f3d 6fad c9bc
00000380: 3d17 45bd daec c73d 67fb ec3d 21f5 9abd
00000390: 9759 d8bc 3968 d4bc 94f8 e63d afc9 85bd
000003a0: 5a06 ad3d 8cfb adba 7141 40bd 152f 1c3e
000003b0: 96fb d7bc 54a7 58bd 23c7 063d 04b9 dbbc
000003c0: 0a11 cbbc dbfc c33d f243 ae3d 5394 d2bc
000003d0: f730 86bd 0744 1a3d 9dfd 183d 4689 f63d
000003e0: 9836 6ebd 1568 3ebd 7b7b 61bd 7d3b c23d
000003f0: 2d86 d3bc 0d78 ba3d b376 bd3d 5524 77bd

bias f4 [128]
-2.03656e-40 1.03476e-40 -5.244301e-18 1.16633e-40 7.35606e-11 -1.85762e-40 2.3941e-41 -1.87101e-40
3.1091046e-11 1.47529e-40 1.41709e-40 -4.7966e-41 1.2751e-40 9.9111e-41 1.9480582e-10 1.21428e-40
1.41499e-40 -1.0777e-40 -1.2292306e-28 2.1012e-40 8.8101e-41 -1.71817e-40 -2.7364e-40 -1.73136e-40
1.1737876e-17 1.7173924e-17 1.14982e-40 1.74e-40 -3.3002e-41 2.13044e-40 -8.184e-42 1.1929e-40
9.2316e-41 -1.71572e-40 -8.196e-41 -1.87085e-40 -1.7721e-41 -2.08421e-40 2.3412667e-18 -1.86923e-40
-2.62103e-40 -3.1448e-41 1.64386e-40 -1.03066e-40 2.25517e-40 -1.11961e-40 -2.0278e-40 2.821564e-10
2.20922e-40 1.7745e-40 8.365e-41 1.8075e-40 1.82138e-40 -1.60537e-40 1.49584e-40 -9.09e-41
-7.0169e-41 -2.5036554e-17 9.8667e-41 -2.10657e-40 2.25145e-40 1.89908e-40 1.19108e-40 -9.96e-41
3.6369575e-12 -2.25815e-40 2.447681e-10 1.03389e-40 -3.5562566e-28 -2.0745007e-31 1.87931e-40 -3.0142e-41
-1.41926e-40 1.04453e-40 1.62391e-40 1.27517e-40 -1.8224e-40 2.2357e-40 -1.337193e-39 1.40234e-40
1.9754894e-11 2.00254e-40 -1.8951e-41 4.686141e-17 1.50352e-40 -2.7965501e-30 2.02139e-40 1.6666e-40
-6.879e-41 1.19377e-40 3.613e-41 -1.4924174e-10 1.02124e-40 -5.056353e-30 4.8273254e-32 -2.9107642e-18
2.07134e-40 -1.4368123e-28 2.75595e-40 1.7409e-40 2.2202541e-10 -1.4411e-41 2.65588e-40 2.4973072e-11
1.12318e-40 -1.86359e-40 1.53954e-40 2.7833e-41 2.0064e-41 -7.9353e-41 -6.8203e-41 1.23484e-40
1.35143e-40 -1.79844e-40 -4.4581e-41 1.24032e-40 -1.51138e-40 6.8041e-41 1.5267e-40 -2.23562e-40
1.9374e-40 -6.4542e-41 4.3122993e-32 -1.87759e-40 -4.0694e-41 -2.9016425e-11 -1.8537425e-11 8.2898e-41
00000000: b637 0280 7320 0100 067b c1a2 2045 0100
00000010: f0c2 a12e d405 0280 bd42 0000 9009 0280
00000020: 68bd 082e 409b 0100 078b 0100 b685 0080
00000030: 7263 0100 4814 0100 f730 562f 7e52 0100
00000040: 718a 0100 6b2c 0180 d0d2 1b91 bb49 0200
00000050: 97f5 0000 f5de 0180 ccfa 0280 a2e2 0180
00000060: 8d86 5823 c866 9e23 8640 0100 0be5 0100
00000070: ff5b 0080 e151 0200 d016 0080 884c 0100
00000080: 5701 0100 46de 0180 79e4 0080 8409 0280
00000090: 6631 0080 fe44 0280 47c1 2c22 1109 0280
000000a0: a3da 0280 aa57 0080 3eca 0100 4e1f 0180
000000b0: a674 0200 1a38 0180 4535 0280 fc1d 9b2f
000000c0: d767 0200 a9ee 0100 2fe9 0000 dcf7 0100
000000d0: bafb 0100 83bf 0180 fba0 0100 64fd 0080
000000e0: 9ac3 0080 e4eb e6a3 0b13 0100 3a4b 0280
000000f0: 9d73 0200 6311 0200 064c 0100 a515 0180
00000100: 9aed 7f2c 7b75 0280 0c90 862f 3520 0100
00000110: 9067 e191 8ea4 868c e00b 0200 0654 0080
00000120: a28b 0180 2c23 0100 aec4 0100 7763 0100
00000130: 03fc 0180 396f 0200 8d8f 0e80 ea86 0100
00000140: 11c4 ad2d 3a2e 0200 d434 0080 301c 5824
00000150: 1fa3 0100 13e2 628e 7b33 0200 95d0 0100
00000160: c2bf 0080 c64c 0100 b764 0000 d117 24af
00000170: ae1c 0100 2c1c cd8e 29a6 7a0b c8c6 56a2
00000180: 6841 0200 3a23 3691 3f00 0300 4be5 0100
00000190: 991e 742f 2c28 0080 5ae4 0200 5caa db2d
000001a0: 1939 0100 7e07 0280 29ad 0100 964d 0000
000001b0: ee37 0000 34dd 0080 1fbe 0080 3958 0100
000001c0: b978 0100 55f5 0180 467c 0080 c059 0100
000001d0: 50a5 0180 acbd 0000 95a9 0100 336f 0280
000001e0: 111c 0200 ebb3 0080 4ae8 5f0b 650b 0280
000001f0: 7071 0080 2e3b ffad 920e a3ad 16e7 0000

weight f4 [1, 128]
0.1761359 -0.11892567 0.20668733 -0.13412105 0.20684211 -0.11873908 -0.13258733 -0.1469806
0.1360642 -0.12975758 -0.13073838 -0.12386143 0.20545793 -0.115028895 0.16787586 -0.111013874
0.17799959 0.17131749 -0.038176034 0.17124067 -0.13488552 -0.113600984 0.19419435 -0.13855907
0.18135919 0.14935707 -0.12996344 -0.13145535 -0.104563095 0.19645378 -0.10511738 0.22167002
-0.12060081 -0.14271277 -0.12694982 -0.12783861 -0.11281694 -0.12979308 0.18465702 -0.14504087
-0.13060513 0.17876863 -0.05836778 0.19429198 0.20035872 -0.15365551 -0.12151846 0.20994362
-0.12953444 -0.103437185 -0.12934704 -0.11672946 -0.10709057 0.21371444 0.17400977 -0.13206151
0.17855191 0.20097575 0.18199676 -0.12087686 0.1946867 -0.12883244 0.1791835 0.17274404
0.11540831 -0.17253132 0.19971025 -0.11442168 -0.04285957 -0.028688194 -0.13875099 -0.116458625
-0.12921052 0.17179285 -0.119035035 -0.13048962 -0.13125245 0.17704028 0.2448249 -0.12855631
0.042762954 0.19616932 -0.11137044 0.19898817 -0.12759238 -0.009276377 0.16842122 0.17367898
-0.11515175 -0.13299808 -0.1064129 0.0817233 -0.11674098 0.001783969 -0.019822586 0.20862259
0.17772128 -0.0456247 -0.13294607 0.19507405 0.16329244 0.17133306 -0.115050316 0.20812488
-0.1285993 -0.13149393 -0.12772903 -0.12765865 0.18316779 0.20778373 -0.13239971 -0.101720035
-0.12352911 -0.10164708 -0.1625134 -0.11633664 0.16528009 -0.08234519 0.17927966 -0.115956366
-0.09421962 -0.16726992 -0.022960683 -0.07097421 -0.13220087 0.21366468 0.020468075 -0.111735225
00000000: f85c 343e 4d8f f3bd d8a5 533e 0757 09be
00000010: 6bce 533e 7a2d f3bd f9c4 07be 1582 16be
00000020: 6a54 0b3e 2cdf 04be 48e0 05be 10ab fdbd
00000030: 9063 523e 4594 ebbd a6e7 2b3e 3e5b e3bd
00000040: 8645 363e da6d 2f3e 795e 1cbd b759 2f3e
00000050: 6e1f 0abe a2a7 e8bd e2da 463e 6ee2 0dbe
00000060: 39b6 393e 0ff1 183e 2315 05be 3b9c 06be
00000070: 2d25 d6bd 2e2b 493e c847 d7bd 77fd 623e
00000080: 8ffd f6bd 4c23 12be 22ff 01be 20e8 02be
00000090: 910c e7bd 7ae8 04be bb16 3d3e 9885 14be
000000a0: 5abd 05be 200f 373e 0e13 6fbd 7af4 463e
000000b0: d62a 4d3e df57 1dbe acde f8bd 76fb 563e
000000c0: ada4 04be e0d6 d3bd 8d73 04be db0f efbd
000000d0: 4d52 dbbd f5d7 5a3e 9e2f 323e 223b 07be
000000e0: 50d6 363e 96cc 4d3e 5c5d 3a3e 4a8e f7bd
000000f0: f35b 473e a7ec 03be e17b 373e d0e3 303e
00000100: 315b ec3d 0dac 30be d880 4c3e ea55 eabd
00000110: 848d 2fbd 8103 ebbc bd14 0ebe dc81 eebd
00000120: c34f 04be 77ea 2f3e a4c8 f3bd 129f 05be
00000130: 0b67 06be 0c4a 353e 61b3 7a3e 44a4 03be
00000140: 3528 2f3d 9ce0 483e 2f16 e4bd 8ec3 4b3e
00000150: 94a7 02be f2fb 17bc 9d76 2c3e e7d8 313e
00000160: aed4 ebbd a630 08be 02ef d9bd 8c5e a73d
00000170: e515 efbd 11d4 e93a fa62 a2bc 29a1 553e
00000180: 91fc 353e f7e0 3abd 0423 08be 7ec1 473e
00000190: 2236 273e ef71 2f3e 809f ebbd b01e 553e
000001a0: 89af 03be 58a6 06be 66cb 02be f3b8 02be
000001b0: 5690 3b3e 42c5 543e ca93 07be 9852 d0bd
000001c0: d4fc fcbd 582c d0bd ea69 26be e841 eebd
000001d0: 2f3f 293e 98a4 a8bd 1695 373e 887a edbd
000001e0: 37f6 c0bd ce48 2bbe 0b18 bcbc ed5a 91bd
000001f0: aa5f 07be eaca 5a3e aaac a73c 70d5 e4bd
