wgan_results/mgum/base/generator.pth (torch_old, 215544 bytes, 25 tensors)

weight f4 [128, 3]
-0.53269213 -0.20583627 0.50153196 0.42498153 0.12247955 -0.37785605 0.002483013 0.49865252
-0.30684605 -0.51247084 0.21794192 0.35621166 0.14946245 -0.3260235 0.09557093 0.33203107
-0.44846243 0.4197419 0.16443466 0.034859367 0.18652494 -0.43449786 -0.11597674 -0.22939828
0.16141684 0.25354815 0.3914399 -0.6362327 -0.045254163 -0.048939377 -0.63159835 -0.42202115
-0.13508664 0.038503923 0.33310187 -0.21123795 -0.5686136 0.2016254 0.34874922 -0.4939908
0.4799425 0.14321035 -0.7104243 0.3921153 0.45906293 -0.052329935 -0.44097987 0.1772975
-0.58676314 0.4452243 -0.054282866 -0.3804946 -0.14900523 0.3603161 0.30836126 -0.8084786
0.28373235 -0.26994377 -0.16504338 -0.2320897 0.36850402 -0.30962268 -0.08371696 0.18342212
0.05602491 0.17782883 -0.57890254 -0.21839252 0.5415489 0.16939673 -0.4327078 0.1566357
0.028040072 0.49875012 -0.2950777 0.13155243 -0.14660826 -0.56871337 -0.52332926 0.2774094
0.22909112 -0.58437884 0.3156871 0.37698963 0.05921715 -0.5209687 0.31523535 0.21731395
0.06012679 0.20725986 -0.10429878 -0.06256897 0.5887003 0.14601634 0.20388077 0.625452
0.61132306 0.50506616 -0.19531426 -0.2995089 -0.24670295 -0.21920082 -0.3075572 -0.11174165
0.28472412 0.5677219 0.3456267 -0.27677268 -0.3188744 -0.3845289 -0.26134896 -0.40288398
-0.33601654 -0.24707979 0.41689888 -0.63703734 0.076706104 0.43549922 0.12061018 -0.3835674
-0.47921643 0.15337601 0.014926612 -0.38415754 0.20677607 0.15636034 -0.61388665 0.078216985
-0.07368145 -0.18021032 -0.062636234 0.15011701 -0.5927152 -0.17293921 0.10026156 -0.035908427
0.42008182 0.31168276 0.018266216 0.16460466 0.16238414 -0.37263548 0.19265652 -0.021915184
-0.43964094 -0.06570062 0.112493955 0.42594898 0.054255746 -0.38210657 0.21602947 -0.45099348
0.12845051 0.23552096 0.041971434 0.27421802 0.22931121 0.5390297 -0.17575225 0.28622425
-0.82913166 0.32417858 0.471405 0.11155113 0.18951887 0.3414619 -0.6682778 0.15860952
-0.28684202 0.0997298 0.09695911 0.33015877 -0.5696582 0.06582482 0.4311724 0.052105714
0.30827054 0.44836906 0.12712933 0.23097663 -0.4038244 -0.14912343 0.3714106 -0.4863483
-0.47893703 -0.11496576 0.5224189 0.35181725 -0.03314064 0.25940683 -0.60691714 0.19301471
-0.17767504 -0.16809702 -0.2540164 0.06151566 -0.46730697 0.23847997 -0.71441424 0.058182415
-0.2687522 0.069206275 0.026666945 0.08598798 -0.59975326 0.28607488 -0.032782897 0.082767166
0.21356086 0.3218747 -0.3369951 0.37217638 0.08571373 0.440443 -0.41738173 -0.13003772
0.12984566 0.4532509 -0.21028683 -0.6024682 -0.3266484 -0.35274777 -0.6341082 -0.26882988
0.6019352 -0.51033217 -0.24899499 0.28803486 -0.53281254 0.17851694 0.45764628 -0.5160134
0.3669514 0.28134575 0.3462561 0.07256954 -0.28846675 0.28922927 -0.45970333 -0.64209896
-0.20626785 -0.073568664 0.17666012 0.48309973 -0.12769033 0.040768664 -0.42048982 0.11555623
-0.15623643 0.52330685 0.15872565 -0.46775877 -0.022750879 0.43986502 -0.32991356 -0.091557205
00000000: 835e 08bf bec6 52be 6664 003f 2e97 d93e
00000010: 8fd6 fa3d 5976 c1be 0cba 223b 624f ff3e
00000020: ed1a 9dbe 4a31 03bf 2b2c 5f3e 6061 b63e
00000030: af0c 193e 8dec a6be b1ba c33d faff a93e
00000040: de9c e5be 69e8 d63e 8f61 283e b2c8 0e3d
00000050: 6500 3f3e 8176 debe 3785 edbd 62e7 6abe
00000060: 754a 253e 10d1 813e d06a c83e 25e0 22bf
00000070: 6e5c 39bd a874 48bd 6eb0 21bf 2813 d8be
00000080: 2754 0abe 4ab6 1d3d 548c aa3e c34e 58be
00000090: a990 11bf e476 4e3e 428f b23e 5dec fcbe
000000a0: 06bb f53e bca5 123e 5ede 35bf 56c3 c83e
000000b0: 4c0a eb3e ea57 56bd 1dc8 e1be 7a8d 353e
000000c0: 1c36 16bf 70f4 e33e b657 5ebd 30d0 c2be
000000d0: d494 18be 5a7b b83e 87e1 9d3e 74f8 4ebf
000000e0: 5e45 913e 1236 8abe 2201 29be eca8 6dbe
000000f0: 8fac bc3e dd86 9ebe cc73 abbd 02d3 3b3e
00000100: 607a 653d c318 363e f532 14bf 4aa2 5fbe
00000110: f3a2 0a3f 5676 2d3e e08b ddbe 1c65 203e
00000120: 4bb4 e53c 2d5c ff3e 6d14 97be aeb5 063e
00000130: 7a20 16be 3397 11bf e8f8 05bf 9b08 8e3e
00000140: dd96 6a3e da99 15bf bda1 a13e c904 c13e
00000150: af8d 723d 345e 05bf 8766 a13e 8c87 5e3e
00000160: 8247 763d ee3b 543e 999a d5bd 2924 80bd
00000170: 10b5 163f 4f85 153e 1fc6 503e 9f1d 203f
00000180: ab7f 1c3f 044c 013f 7600 48be 3b59 99be
00000190: b39f 7cbe 2e76 60be 2378 9dbe ced8 e4bd
000001a0: 5cc7 913e 3956 113f fcf5 b03e 26b5 8dbe
000001b0: 8143 a3be f9e0 c4be 88cf 85be cf46 cebe
000001c0: 5c0a acbe 7c02 7dbe c573 d53e e114 23bf
000001d0: 1718 9d3d c1f9 de3e 7802 f73d f262 c4be
000001e0: db5b f5be 9a0e 1d3e c08e 743c 4cb0 c4be
000001f0: 1bbd 533e ed1c 203e ad27 1dbf 3a30 a03d
00000200: 4de6 96bd 0e89 38be 6d47 80bd 46b8 193e
00000210: 2fbc 17bf fa16 31be ef55 cd3d b714 13bd
00000220: f714 d73e e294 9f3e 08a3 953c 208e 283e
00000230: 0748 263e 14ca bebe c047 453e 7987 b3bc
00000240: 9e18 e1be 0c8e 86bd 3b63 e63d fc15 da3e
00000250: 463b 5e3d 79a3 c3be d436 5d3e 9ee8 e6be
00000260: 8888 033e 682c 713e 3dea 2b3d 4e66 8c3e
00000270: 8fd0 6a3e dafd 093f 66f8 33be fc8b 923e
00000280: f941 54bf bcfa a53e ff5b f13e eb74 e43d
00000290: 3c11 423e 18d4 ae3e 4114 2bbf 896a 223e
000002a0: f5dc 92be 233f cc3d 7f92 c63d 920a a93e
000002b0: 1fd5 11bf 2acf 863d a1c2 dc3e cd6c 553d
000002c0: a3d5 9d3e a190 e53e 312e 023e 2385 6c3e
000002d0: 12c2 cebe d0b3 18be 8829 be3e a502 f9be
000002e0: 3c37 f5be 2b73 ebbd 3fbd 053f 6421 b43e
000002f0: 7bbe 07bd f9d0 843e ec5e 1bbf a6a5 453e
00000300: 72f0 35be a021 2cbe 700e 82be d8f7 7b3d
00000310: dc42 efbe 1834 743e dae3 36bf af50 6e3d
00000320: e399 89be 05bc 8d3d a374 da3c 771a b03d
00000330: 6e89 19bf 6878 923e 5c47 06bd d581 a93d
00000340: b3af 5a3e c3cc a43e 9f8a acbe e78d be3e
00000350: ae8a af3d bf81 e13e 0fb3 d5be 9c28 05be
00000360: 43f6 043e 8110 e83e 6e55 57be 5b3b 1abf
00000370: 763e a7be 5b9b b4be ea54 22bf 12a4 89be
00000380: 6d18 1a3f 21a5 02bf 8bf8 7ebe 4e79 933e
00000390: 6766 08bf 25cd 363e 9d50 ea3e 7419 04bf
000003a0: 0ee1 bb3e 8d0c 903e 7b48 b13e 579f 943d
000003b0: eab1 93be dc15 943e 3c5e ebbe 9960 24bf
000003c0: e137 53be 2bab 96bd 64e6 343e d958 f73e
000003d0: 41c1 02be 0bfd 263d 714a d7be bfa8 ec3d
000003e0: 71fc 1fbe 70f7 053f fa88 223e 147e efbe
000003f0: 0d60 babc fd35 e13e 6eea a8be 5882 bbbd

bias f4 [128]
0.00025583134 -9.998906e-05 8.2284765e-05 2.8036433e-05 -8.623713e-05 -6.9398743e-06 1.3488034e-06 6.209188e-07
1.9800234e-05 4.920136e-06 -2.1886011e-05 1.3066862e-05 -6.45966e-05 4.8115035e-05 -6.169943e-05 1.3073855e-05
-4.634346e-06 -0.00010642441 3.6205624e-06 -1.0174044e-06 -4.8562382e-05 3.239996e-06 -0.00018940856 -2.9007394e-06
0.00016784146 5.3112966e-05 1.2798536e-06 -3.7570306e-05 -1.8500501e-05 -5.299478e-07 -5.106033e-05 5.6410605e-05
2.1781623e-05 -2.2461845e-07 3.719087e-05 7.802285e-05 1.2718155e-07 2.0347675e-06 6.712637e-06 -0.00059270975
1.8910436e-05 2.1083546e-05 1.8458111e-05 -0.00045233892 2.0867387e-06 7.691481e-06 -7.1591126e-06 -1.2518573e-05
6.854325e-05 0.00042773702 -1.2456257e-05 -8.4983037e-07 0.00013356106 1.416113e-05 3.8321455e-06 3.1759206e-05
-1.5008624e-06 2.9504248e-05 -5.9829504e-06 -3.0481619e-05 4.674023e-06 -3.1025447e-05 7.700421e-05 -2.1574908e-05
-1.8757109e-07 1.9983463e-05 5.8797323e-06 -1.6252534e-06 -1.7426097e-05 -1.2007087e-05 1.0889897e-07 -2.0638894e-05
6.259658e-05 1.6271458e-07 1.3871288e-05 -2.4948204e-05 1.578288e-06 3.516289e-05 4.628331e-05 2.2680122e-05
-0.0003273361 -3.2662342e-06 -5.0331682e-06 -6.180655e-05 -9.1098984e-05 1.4121552e-05 -0.00013855359 -8.4351115e-07
7.4160334e-07 6.687206e-06 0.00015420828 0.0001053707 -2.7843393e-05 -3.1970594e-05 4.0888926e-06 9.320064e-05
-1.6211343e-05 -7.015481e-06 2.666052e-06 2.6476148e-06 -4.3798853e-05 4.260949e-05 8.416247e-06 -2.017145e-05
-9.952306e-05 -1.1058195e-05 5.5192263e-06 -3.8072603e-06 -2.9906391e-06 8.9569e-07 -0.00016983629 -5.345157e-06
3.0718434e-06 -0.00027157244 3.5768473e-05 -7.992916e-05 -0.0001465538 -8.396239e-06 5.216047e-05 -0.00015578377
-3.3975746e-05 -0.00020578763 -1.271875e-06 6.541614e-06 -3.1800693e-05 -5.8782725e-06 -2.211626e-05 -1.5019853e-05
00000000: 1a21 8639 38b1 d1b8 4c90 ac38 c82f eb37
00000010: 35da b4b8 11dd e8b6 8808 b535 37ad 2635
00000020: ae18 a637 a517 a536 da97 b7b7 bf39 5b37
00000030: 0978 87b8 20cf 4938 a164 81b8 c857 5b37
00000040: bb80 9bb6 2c30 dfb8 caf8 7236 c08d 88b5
00000050: 76af 4bb8 b56e 5936 f99b 46b9 53aa 42b6
00000060: 99fe 2f39 9dc5 5e38 6fc7 ab35 cf94 1db8
00000070: 8631 9bb7 bc41 0eb5 9d29 56b8 6d9a 6c38
00000080: aeb7 b637 a62e 71b4 65fd 1b38 33a0 a338
00000090: 668f 0834 0a8d 0836 1d3d e136 1460 1bba
000000a0: daa1 9e37 92dc b037 7ed6 9a37 e727 edb9
000000b0: e609 0c36 a90a 0137 4f38 f0b6 dd06 52b7
000000c0: e1be 8f38 e441 e039 37fb 50b7 e61f 64b5
000000d0: 860c 0c39 9795 6d37 e195 8036 3035 0538
000000e0: 3d71 c9b5 e47f f737 27c1 c8b6 c7b2 ffb7
000000f0: 8dd5 9c36 5221 02b8 527d a138 c3fb b4b7
00000100: 2667 49b4 29a2 a737 844a c536 4823 dab5
00000110: 422e 92b7 0c72 49b7 d8db e933 b021 adb7
00000120: 4846 8338 a5b6 2e34 bab8 6837 dc47 d1b7
00000130: 90d5 d335 de7b 1338 5320 4238 3141 be37
00000140: 4f9e abb9 7a31 5bb6 96e2 a8b6 249e 81b8
00000150: 650c bfb8 9beb 6c37 b248 11b9 a56d 62b5
00000160: 9812 4735 aa62 e036 f8b2 2139 77fa dc38
00000170: 3b91 e9b7 2a18 06b8 5233 8936 b674 c338
00000180: 98fd 87b7 8666 ebb6 6dea 3236 adad 3136
00000190: a9b4 37b8 97b7 3238 8133 0d37 dc35 a9b7
000001a0: 09b7 d0b8 9686 39b7 cb31 b936 3c80 7fb6
000001b0: cab2 48b6 596f 7035 1516 32b9 8d5a b3b6
000001c0: de25 4e36 d661 8eb9 1b06 1638 a49f a7b8
000001d0: 3cac 19b9 92dd 0cb7 e1c6 5a38 e359 23b9
000001e0: 2e81 0eb8 b2c8 57b9 4bb5 aab5 0980 db36
000001f0: bc61 05b8 fa3d c5b6 4f86 b9b7 c7fd 7bb7

weight f4 [128]
1.1620151 1.0147468 1.0761648 1.0361996 0.83971304 0.5712938 0.34164196 0.5323923
0.5175208 0.79569656 0.6448943 1.1145948 1.1683353 1.0348048 1.0149409 0.67516273
0.8277949 1.1113864 1.0247759 0.30531114 0.66494495 0.20467341 1.1383086 0.85115385
1.1518011 0.8405926 0.9026501 1.0603988 0.8241493 0.21839294 0.91687757 0.76267844
0.9160039 0.29506555 1.1167339 0.8519706 0.2957478 0.35549107 0.7981264 1.0854473
0.66019285 0.83700335 0.8240384 1.0752175 0.79435325 0.6839033 0.30076307 0.7064762
0.92691684 0.9972315 0.96663123 0.37137067 1.0352007 1.0044519 0.69224596 1.0450903
0.52178 1.0306659 0.43252382 0.48569483 1.0651762 0.66413176 0.899603 0.9662876
0.19407357 0.80941856 0.7251008 0.12425018 0.72311133 0.5157186 1.016299 0.9705606
0.922866 0.5984043 1.1210442 0.98462343 1.0221901 1.0403157 0.9682404 0.75873893
1.0976104 0.68286705 0.44543988 1.0669687 1.0628356 0.72205615 1.0720674 0.6387283
0.15055546 0.37424967 1.1433203 0.7993112 1.018975 0.6516263 0.58702505 1.057136
0.9511762 0.5997766 0.5374222 0.40057158 0.7808404 0.7819995 0.79732615 1.1056556
0.9897761 0.89599514 1.1273527 0.7398288 0.24156325 0.19713508 1.0970733 0.4283008
1.2075319 1.0332096 0.7806629 1.196511 0.97688526 0.9037658 0.8269207 1.1443638
0.73669827 0.9899566 0.34857738 0.6561593 0.76518023 1.0052972 1.0187727 0.818261
00000000: e9bc 943f 39e3 813f c5bf 893f 30a2 843f
00000010: 6ff7 563f 4f40 123f b2eb ae3e dd4a 083f
00000020: 3e7c 043f c5b2 4b3f cb17 253f 0bab 8e3f
00000030: 038c 953f 7c74 843f 95e9 813f 77d7 2c3f
00000040: 5eea 533f e941 8e3f db2b 833f be51 9c3e
00000050: d539 2a3f e895 513e 19b4 913f 38e5 593f
00000060: 386e 933f 1431 573f 1414 673f 26bb 873f
00000070: 73fb 523f 66a2 5f3e 7db8 6a3f e53e 433f
00000080: 3b7f 6a3f d512 973e 23f1 8e3f bf1a 5a3f
00000090: 416c 973e ed02 b63e 0352 4c3f f0ef 8a3f
000000a0: 6602 293f da45 563f 2ef4 523f baa0 893f
000000b0: bc5a 4b3f 4914 2f3f 9efd 993e a0db 343f
000000c0: 6c4a 6d3f 904a 7f3f 2575 773f 4c24 be3e
000000d0: 7581 843f e191 803f 0837 313f 85c5 853f
000000e0: 6093 053f dcec 833f c373 dd3e feac f83e
000000f0: b257 883f 8a04 2a3f 624c 663f a05e 773f
00000100: 39bb 463e 0e36 4f3f 35a0 393f e176 fe3d
00000110: d31d 393f 2206 043f 1616 823f a976 783f
00000120: f240 6c3f 0631 193f 607e 8f3f 4810 7c3f
00000130: 20d7 823f 1129 853f 9ade 773f b73c 423f
00000140: 7f7e 8c3f 60d0 2e3f b210 e43e 6e92 883f
00000150: ff0a 883f acd8 383f 8139 893f b383 233f
00000160: 362b 1a3e a79d bf3e 5258 923f a99f 4c3f
00000170: c66d 823f fbd0 263f 4647 163f 3c50 873f
00000180: 4980 733f f68a 193f 8094 093f b817 cd3e
00000190: 28e5 473f 1f31 483f 911d 4c3f 1f86 8d3f
000001a0: f761 7d3f f05f 653f 184d 903f 6c65 3d3f
000001b0: 5b5c 773e c7dd 493e e66c 8c3f 3e4a db3e
000001c0: 6890 9a3f 3640 843f 86d9 473f 4627 993f
000001d0: 2715 7a3f 325d 673f 13b1 533f 837a 923f
000001e0: 4298 3c3f cc6d 7d3f bc78 b23e 0efa 273f
000001f0: dae2 433f 94ad 803f 2567 823f 8e79 513f

bias f4 [128]
0.2114256 0.18280783 -0.0053896606 0.015335858 -0.015429752 -0.111632384 -0.32898962 -0.35165146
-0.29306072 0.03170154 -0.1455703 -0.023661323 -0.04546491 -0.118033126 -0.0048340606 0.022435023
-0.15766257 0.1702728 0.0021389213 -0.38573515 0.20121552 -0.37506348 0.20896846 0.021884417
-0.055432897 0.14338957 -0.004625459 0.05435002 0.18676995 -0.4019208 0.11239886 -0.07303873
0.18959841 -0.43743703 0.1977974 0.20705232 -0.41478455 -0.32382047 -0.0105733825 0.2034087
-0.17789212 -0.002356323 -0.0761981 0.16644281 0.031766266 -0.34239894 -0.33096558 -0.19164366
0.14040145 0.2112109 -0.045347437 -0.4284219 -0.02706179 0.025831945 0.1309778 -0.066009
0.039648864 -0.051751878 -0.32606992 0.06910997 0.18481462 -0.037838627 0.11443048 -0.01736102
-0.3595635 0.15159348 -0.19439034 -0.27718773 -0.29200298 -0.2966437 -0.09735387 0.15685719
-0.024852125 -0.2612333 0.18525204 0.14429782 0.044522304 -0.043786023 0.19219965 0.016675275
0.17325085 -0.10069183 -0.36268064 0.22103003 -0.007257651 0.11368791 0.22809565 -0.055339523
-0.3408336 -0.2363384 0.20502712 -0.013416731 0.19647443 -0.08975887 -0.27439806 0.117616706
0.09841862 -0.34226575 -0.037659645 -0.4884779 0.016625933 -0.2782193 -0.13122422 0.1711825
0.24412274 -0.035396326 0.063713595 0.036571663 -0.4081344 -0.36545083 0.20948948 -0.2759756
-0.034615096 0.20435427 0.11080553 0.040202443 0.25337964 -0.12715171 -0.088236175 0.20173182
-0.27146915 0.15310933 -0.4493018 -0.29595375 -0.33439022 0.03484294 -0.06355322 -0.054163054
00000000: f47f 583e fa31 3b3e c09b b0bb 4043 7b3c
00000010: 12cd 7cbc 859f e4bd 5471 a8be a90b b4be
00000020: 0e0c 96be 79d9 013d 6110 15be 64d5 c1bc
00000030: 6a39 3abd 5abb f1bd 0a67 9ebb a7c9 b73c
00000040: 4c72 21be fe5b 2e3e 252d 0c3b 147f c5be
00000050: 710b 4e3e 5208 c0be d4fb 553e f346 b33c
00000060: 9b0d 63bd b7d4 123e 2a91 97bb 209e 5e3d
00000070: 9f40 3f3e 90c8 cdbe 6031 e63d 5495 95bd
00000080: 1626 423e bff7 dfbe 678b 4a3e 8605 543e
00000090: a45e d4be cccb a5be fb3b 2dbc 5f4a 503e
000000a0: 5a29 36be 8a6c 1abb c00d 9cbd fc6f 2a3e
000000b0: 581d 023d ea4e afbe 5274 a9be 3c3e 44be
000000c0: 66c5 0f3e ac47 583e 3cbe 39bd 1e5a dbbe
000000d0: b0b0 ddbc 849d d33c 0b1f 063e ba2f 87bd
000000e0: d966 223d c7f9 53bd a3f2 a6be 8789 8d3d
000000f0: 0b40 3d3e adfc 1abd 875a ea3d b338 8ebc
00000100: b518 b8be 523b 1b3e 430e 47be 8deb 8dbe
00000110: 6a81 95be afe1 97be 7761 c7bd 2c9f 203e
00000120: af96 cbbc 5fc0 85be b6b2 3d3e cfc2 133e
00000130: 055d 363d f958 33bd fccf 443e 969a 883c
00000140: ac68 313e 8537 cebd 47b1 b9be b255 623e
00000150: 97d1 edbb 35d5 e83d e891 693e b2ab 62bd
00000160: be81 aebe b202 72be a1f2 513e d9d1 5bbc
00000170: 9830 493e 80d3 b7bd e77d 8cbe 07e1 f03d
00000180: b48f c93d 753d afbe 0041 1abd c619 fabe
00000190: 1c33 883c c372 8ebe a45f 06be 774a 2f3e
000001a0: 50fb 793e bdfb 10bd 467c 823d 2bcc 153d
000001b0: fef6 d0be 5f1c bbbe 6984 563e ad4c 8dbe
000001c0: 8fc8 0dbd 3f42 513e 02ee e23d 51ab 243d
000001d0: faba 813e 0f34 02be 2bb5 b4bd c992 4e3e
000001e0: 01fe 8abe b1c8 1c3e e30a e6be 4087 97be
000001f0: 3235 abbe 78b7 0e3d 3128 82bd 14da 5dbd

running_mean f4 [128]
-0.0035726083 0.0024919074 0.005984763 0.00011087841 -0.0035529283 -0.0073664896 -0.0017098724 0.0022693244
-0.0017993195 0.0019127873 -5.21914e-05 0.0039825337 0.00023543085 0.0037033448 0.0010148336 -0.0042913384
0.0052015004 -0.0028244394 -0.008719281 0.0014763296 -0.0025386484 -0.0015438492 -0.004285837 -0.004709743
0.00580468 0.0031586902 0.0016182736 0.0007425928 -0.006262585 -0.0018502669 -0.004904443 -0.003948615
0.0032898195 0.00089370226 -0.00210323 0.003133008 0.00033193856 0.0007932979 -0.0061762608 0.0019923598
0.0023116185 0.0012754438 0.0028895172 -0.0017179194 -0.00032059985 0.0005376853 -0.00020646327 0.0025759886
-9.053075e-05 0.0027316827 -0.004865578 -0.0025605694 0.004515074 -0.009024977 -0.0020375957 -0.006773533
0.00073938095 -0.005415308 -0.0033275126 -0.0022358361 -0.0027994446 -0.0010182075 0.0012819828 -0.0065283407
0.0013644149 -0.005242029 0.0045953477 -0.0006946833 0.0039225924 -0.0012960114 0.0029022472 -0.0031346774
0.0044945185 0.0022617169 -0.0048196767 -0.0025807614 -0.00083084265 0.0018281904 0.0017465915 0.0011301487
-0.001686635 -0.002574234 0.003235341 0.0032367858 0.005704597 0.0056642476 0.0032410314 -0.005788214
-0.0006825702 -0.0024465045 -0.00174002 0.00085950317 0.0018014798 0.0034295903 -0.0060176873 -0.0045479685
-0.0037879243 0.0062389756 0.0022420315 0.0016553283 5.0238403e-05 0.0018912662 -0.0039055278 -0.003531798
0.00433894 0.0015341495 -0.0010612232 -0.0028951794 0.0015319643 -0.001878296 0.0011328415 -0.0031817888
0.00076353224 0.0026756441 0.0052779126 0.0068622553 0.0012905821 0.0017422013 0.005368995 -0.004922589
-0.0015989573 -0.0026974338 0.0015272676 -0.00072437467 0.0006179233 -0.0067135054 -0.0072973287 0.0011840855
00000000: 6c22 6abb 454f 233b d51b c43b 6587 e838
00000010: 3fd8 68bb 9862 f1bb cc1d e0ba f2b8 143b
00000020: 25d7 ebba 7eb6 fa3a 17e8 5ab8 ea7f 823b
00000030: fddd 7639 d1b3 723b 2a04 853a 5b9e 8cbb
00000040: 5971 aa3b 3b1a 39bb 51db 0ebc 6781 c13a
00000050: 745f 26bb fc5a caba 3570 8cbb 3054 9abb
00000060: 2f35 be3b 0702 4f3b 401c d43a 8faa 423a
00000070: 5f36 cdbb a884 f2ba 73b5 a0bb 6263 81bb
00000080: 039a 573b 5847 6a3a 58d6 09bb 2753 4d3b
00000090: 0a08 ae39 52f5 4f3a 3b62 cabb 4092 023b
000000a0: 867e 173b cb2c a73a 0e5e 3d3b cf2b e1ba
000000b0: 2f16 a8b9 73f3 0c3a 107e 58b9 ebd1 283b
000000c0: 54db bdb8 0806 333b 6d6f 9fbb 3acf 27bb
000000d0: 30f3 933b 7fdd 13bc 2f89 05bb 83f4 ddbb
000000e0: 04d3 413a e572 b1bb 6612 5abb 1b87 12bb
000000f0: e376 37bb 6075 85ba 3408 a83a b1eb d5bb
00000100: 2bd6 b23a 54c5 abbb 9294 963b 681b 36ba
00000110: 1789 803b edde a9ba a133 3e3b 296f 4dbb
00000120: c146 933b 5039 143b 61ee 9dbb fe21 29bb
00000130: e8cc 59ba e49f ef3a e3ed e43a 7f21 943a
00000140: 1412 ddba 7bb4 28bb 0408 543b 4120 543b
00000150: a1ed ba3b 279b b93b 7c67 543b 0fab bdbb
00000160: 83ee 32ba 8955 20bb 6211 e4ba 4850 613a
00000170: a21f ec3a fac2 603b 0530 c5bb 2007 95bb
00000180: d33e 78bb 5270 cc3b 0cef 123b 9af7 d83a
00000190: 13b7 5238 5de4 f73a e2f3 7fbb bd75 67bb
000001a0: ab2d 8e3b 8415 c93a be18 8bba 0dbd 3dbb
000001b0: 31cc c83a 2831 f6ba da7b 943a 8f85 50bb
000001c0: c827 483a dc59 2f3b 57f2 ac3b c5dc e03b
000001d0: c028 a93a 935a e43a 65ee af3b ab4d a1bb
000001e0: 1b94 d1ba 6ec7 30bb 992e c83a f6e3 3dba
000001f0: 21fc 213a f7fc dbbb 6e1e efbb 5133 9b3a

running_var f4 [128]
0.5722565 0.33530173 0.3403407 0.4336103 0.13708614 0.4893794 0.06368813 0.25617656
0.24429008 0.40883574 0.592887 0.15569976 0.481888 0.49183702 0.862609 0.22643119
0.54463595 0.29398465 0.8250488 0.15474832 0.2374319 0.06901117 0.6697762 0.23930669
0.3338682 0.3617596 0.40061036 0.57886493 0.37230024 0.09465496 0.36175346 0.45643827
0.6600993 0.1988063 0.18638217 0.51306313 0.31718412 0.3361281 0.5825955 0.34813502
0.2528688 0.21337225 0.38868955 0.058384653 0.389237 0.27315506 0.05362565 0.17627586
0.20910534 0.32754427 0.2653385 0.13382676 0.36938837 0.8701454 0.2717703 0.58547217
0.10096353 0.4353655 0.28619125 0.27199072 0.32020268 0.47606772 0.39488664 0.4705624
0.12496165 0.27735907 0.5891847 0.0130037535 0.4422907 0.15628286 0.25782207 0.38278085
0.26341197 0.5957651 0.8287011 0.40149587 0.520949 0.47653013 0.2065034 0.7034835
0.07841792 0.25175515 0.21567148 0.5131164 0.3013001 0.48904058 0.53334844 0.31448448
0.022964412 0.40985933 0.14539132 0.07325646 0.20891324 0.39324152 0.4300663 0.4125385
0.47043434 0.71026415 0.24970199 0.23351644 0.43294895 0.31148073 0.48607966 0.42191157
0.7433238 0.51535934 0.31107345 0.3580474 0.041975442 0.089222424 0.112395644 0.5314699
0.35805643 0.444583 0.2860024 0.47753832 0.12058964 0.5597327 0.28397945 0.8362766
0.44925714 0.2195488 0.15909597 0.34876728 0.21812585 0.46112552 0.683888 0.3046078
00000000: 677f 123f abac ab3e 2341 ae3e 2b02 de3e
00000010: 4f60 0c3e f08f fa3e ec6e 823d 9329 833e
00000020: 2e27 7a3e eb52 d13e 71c7 173f c26f 1f3e
00000030: 06ba f63e 10d2 fb3e f2d3 5c3f 94dd 673e
00000040: 436d 0b3f 2885 963e 6636 533f 5876 1e3e
00000050: 5921 733e ba55 8d3d 7476 2b3f d00c 753e
00000060: c6f0 aa3e 8e38 b93e cd1c cd3e 7e30 143f
00000070: 239e be3e 76da c13d c037 b93e 47b2 e93e
00000080: 45fc 283f e193 4b3e f8da 3e3e 1b58 033f
00000090: f565 a23e fb18 ac3e fb24 153f c13e b23e
000000a0: 0578 813e 417e 5a3e 5102 c73e bf24 6f3d
000000b0: 124a c73e fbda 8b3e 92a6 5b3d a981 343e
000000c0: b61f 563e e2b3 a73e 73da 873e e209 093e
000000d0: 7920 bd3e d9c1 5e3f 7a25 8b3e 81e1 153f
000000e0: f8c5 ce3d 3ae8 de3e a987 923e 5e42 8b3e
000000f0: 9bf1 a33e 26bf f33e 952e ca3e 8eed f03e
00000100: e5eb ff3d 0202 8e3e cfd4 163f b20d 553c
00000110: ed73 e23e 9d08 203e 4101 843e dafb c33e
00000120: efdd 863e 1084 183f c125 543f de90 cd3e
00000130: ea5c 053f c2fb f33e a175 533e 7f17 343f
00000140: 9399 a03d 0de6 803e fcd8 5c3e 995b 033f
00000150: 0244 9a3e 8763 fa3e 8689 083f 1c04 a13e
00000160: dd1f bc3c 15d9 d13e 76e1 143e 7c07 963d
00000170: 5aed 553e f456 c93e a631 dc3e 3f38 d33e
00000180: c5dc f03e dfd3 353f e1b1 7f3e ef1e 6f3e
00000190: 7cab dd3e 677a 9f3e 6fdf f83e cb04 d83e
000001a0: 784a 3e3f 97ee 033f 0545 9f3e fd51 b73e
000001b0: 71ee 2b3d 3fba b63d b02f e63d 690e 083f
000001c0: 2c53 b73e 62a0 e33e e86e 923e e77f f43e
000001d0: b4f7 f63d a44a 0f3f c165 913e 3916 563f
000001e0: 0805 e63e 67d1 603e 0eea 223e a091 b23e
000001f0: 625c 5f3e a518 ec3e 4913 2f3f 8ef5 9b3e

weight f4 [128, 128]
0.06320018 -0.15823345 0.045077235 0.18112232 -0.102287926 0.0065315026 -0.015523065 0.004318308
-0.0032185812 0.097339444 -0.0083020525 0.033575144 0.15447612 0.027986133 0.19456443 -0.034344003
0.06049065 0.13687451 -0.069948904 -0.019681606 -0.17070957 -0.00076574815 0.13550322 -0.03576198
0.04310419 -0.07147555 0.22447161 0.25195324 0.006939239 -0.0021011531 0.0925639 0.015139835
-0.045709398 -0.025467658 0.10062262 -0.06317124 -0.027910901 -0.03471768 -0.121522255 -0.081636295
0.08778173 0.22788976 0.084443025 0.1151249 0.12132394 0.047893632 0.023602543 0.066357955
0.14931689 -0.16441625 -0.079186715 -0.0045810137 -0.05546703 -0.06841052 -0.072028495 -0.12575729
0.122602895 -0.18128914 -0.014836613 -0.04203868 0.10572492 -0.017298855 -0.0782725 -0.09172298
-0.0067661414 -0.009929731 0.06763489 -0.0007151568 0.063149124 -0.0087524755 0.0014761876 -0.20684588
0.032475486 -0.03185117 0.110516176 0.11826718 0.1657324 0.16308628 -0.17391087 -0.116438836
0.063335806 -0.13248032 0.05910776 -0.12043282 0.03155317 -0.04472394 -0.12020991 0.05798976
-0.0020918122 0.0069656447 0.09027575 0.13990928 -0.12945616 0.06481851 0.031024745 0.1018041
-0.20108141 0.08619847 0.026183898 -0.024536513 0.026457781 0.01730821 0.08089921 0.09094166
-0.08310756 0.16156583 0.14943273 -0.023089964 0.009215694 -0.0027084777 -0.14460628 0.01017774
0.21355404 -0.083415955 -0.011244642 -0.05451489 -0.1721125 0.11181514 0.06497087 0.13760275
0.030062096 0.12520038 -0.021663517 -0.13073888 0.047590874 -0.06971252 -0.15675998 0.15667559
0.040744208 0.31818885 0.43621838 0.16016267 0.0022724604 0.023180967 -0.06322667 0.027565336
0.024529878 0.0005289688 0.09927622 0.5032428 0.11478247 0.08165302 0.04879701 0.15893646
0.026559561 0.09678788 0.0822521 0.010287759 0.11337338 -0.023276914 0.16003473 0.13499513
0.56755114 0.08945678 0.0838781 0.027928436 0.09441548 -0.03328904 0.15801765 0.0729397
0.26251495 -0.046170626 0.071090765 0.18749024 -0.049753856 -0.018837187 -0.032880735 0.32876694
0.04629285 0.008643891 -0.020263463 0.10085698 0.089547716 -0.01694845 0.06736003 0.090874285
0.011421312 0.22807223 0.07136343 -0.07444902 0.29698443 0.033041816 0.08222891 0.13014793
0.12513408 0.09906531 -0.042958483 -0.0012750161 0.09035811 0.122839995 0.25818434 0.027391003
-0.029064903 0.18815258 0.011737164 0.005609601 0.040247645 0.026553078 0.17027073 0.11185702
0.3573347 0.015890848 0.15720345 0.06074886 0.0585012 0.11105673 0.1763706 0.11653364
0.10375451 0.049369346 -0.028255386 0.233239 0.487724 0.17487061 0.2204978 -0.0026662762
0.003487771 -0.034022618 0.10967965 0.13392003 0.12241889 -0.008106819 0.0016244156 0.06948783
0.14748609 0.010495826 0.13586396 0.023867577 0.017227387 0.10682267 0.14002265 0.055732988
0.24595396 0.10853092 0.16901037 0.07808048 0.055249043 -0.020693963 0.19032116 -0.032522153
0.0261281 0.16235009 0.14703009 0.42718872 0.18519686 0.06359113 0.44721112 0.16428313
0.02182219 0.051353123 0.00029676995 -0.021738172 0.06582025 0.15732297 -0.0007401247 0.049366686
00000000: 196f 813d f307 22be e8a2 383d 2178 393e
00000010: 557c d1bd 3706 d63b 7454 7ebc 9880 8d3b
00000020: d5ee 52bb e759 c73d 5505 08bc 1786 093d
00000030: fd2e 1e3e 2d43 e53c e63b 473e 4cac 0cbd
00000040: 0bc5 773d d528 0c3e 5f41 8fbd 523b a1bc
00000050: 7dce 2ebe 7dbc 48ba 5bc1 0a3e 277b 12bd
00000060: 058e 303d c661 92bd e3db 653e 0400 813e
00000070: 8e62 e33b 80b3 09bb 2492 bd3d 120d 783c
00000080: c739 3bbd 8da1 d0bc 3b13 ce3d ec5f 81bd
00000090: 67a5 e4bc 2034 0ebd a9e0 f8bd ee30 a7bd
000000a0: e8c6 b33d ef5b 693e 77f0 ac3d 9bc6 eb3d
000000b0: b078 f83d 1d2c 443d 1f5a c13c aee6 873d
000000c0: 87e6 183e bc5c 28be a52c a2bd 541c 96bb
000000d0: 6531 63bd d11a 8cbd ad83 93bd 85c6 00be
000000e0: 3a17 fb3d dca3 39be 4415 73bc c030 2cbd
000000f0: 4f86 d83d 54b6 8dbc 554d a0bd 42d9 bbbd
00000100: 82b6 ddbb 4fb0 22bc 2984 8a3d 5c79 3bba
00000110: 5454 813d 8b66 0fbc a37c c13a 68cf 53be
00000120: 0405 053d 5f76 02bd 4e56 e23d 1036 f23d
00000130: c1b5 293e 1700 273e b115 32be 7c77 eebd
00000140: 34b6 813d eca8 07be fb1a 723d 7ba5 f6bd
00000150: e63d 013d 7330 37bd 9d30 f6bd ac86 6d3d
00000160: c916 09bb 1040 e43b 7ee2 b83d 6144 0f3e
00000170: 2890 04be 91bf 843d 9b27 fe3c ab7e d03d
00000180: 49e8 4dbe d388 b03d 9d7f d63c cc00 c9bc
00000190: fdbd d83c f2c9 8d3c 7cae a53d 9f3f ba3d
000001a0: 4c34 aabd 8371 253e e504 193e 2a27 bdbc
000001b0: 6cfd 163c b780 31bb ab13 14be 89c0 263c
000001c0: e9ad 5a3e fcd5 aabd 723b 38bc 014b 5fbd
000001d0: 423e 30be 56ff e43d 730f 853d bce7 0c3e
000001e0: c944 f63c 8734 003e b077 b1bc 6ae0 05be
000001f0: a6ee 423d 70c5 8ebd b085 20be 916f 203e
00000200: 66e3 263d a6e9 a23e 0458 df3e af01 243e
00000210: 8fed 143b 03e6 bd3c fc7c 81bd b3d0 e13c
00000220: e2f2 c83c 7faa 0a3a 5551 cb3d 85d4 003f
00000230: 1213 eb3d b339 a73d 60df 473d 3dc0 223e
00000240: 7093 d93c b938 c63d ca73 a83d fd8d 283c
00000250: 4d30 e83d 3aaf bebc 25e0 233e 2a3c 0a3e
00000260: 084b 113f 1e35 b73d 48c8 ab3d 2dca e43c
00000270: e75c c13d 175a 08bd 61cf 213e 6961 953d
00000280: 5c68 863e 691d 3dbd 0998 913d 71fd 3f3e
00000290: b3ca 4bbd 7250 9abc f3ad 06bd 2454 a83e
000002a0: 929d 3d3d 1b9f 0d3c 90ff a5bc 1b8e ce3d
000002b0: cb64 b73d 7ad7 8abc 0ef4 893d 4c1c ba3d
000002c0: 7420 3b3c c48b 693e fd26 923d ba78 98bd
000002d0: 580e 983e db56 073d a167 a83d 8045 053e
000002e0: 2623 003e c1e2 ca3d 3cf5 2fbd 711e a7ba
000002f0: ac0d b93d 8993 fb3d bd30 843e 1963 e03c
00000300: 8519 eebc 12ab 403e 3c4d 403c bed0 b73b
00000310: b7da 243d d785 d93c 735b 2e3e 4b15 e53d
00000320: 93f4 b63e 862d 823c f1f9 203e ccd3 783d
00000330: f49e 6f3d b671 e33d 7f9a 343e 30a9 ee3d
00000340: 3f7d d43d 8337 4a3d d777 e7bc 34d6 6e3e
00000350: f6b6 f93e 4811 333e 2dca 613e b1bc 2ebb
00000360: 1693 643b 4d5b 0bbd b99f e03d 5522 093e
00000370: c1b6 fa3d 77d2 04bc 58ea d43a a34f 8e3d
00000380: 9806 173e aff6 2b3c ec1f 0b3e f085 c33c
00000390: 7320 8d3c d8c5 da3d 1962 0f3e 4648 643d
000003a0: 5bdb 7b3e 7645 de3d 0e11 2d3e a9e8 9f3d
000003b0: d24c 623d 6386 a9bc 8de3 423e f335 05bd
000003c0: 990a d63c 1a3f 263e 0e8f 163e 7bb8 da3e
000003d0: 3fa4 3d3e 113c 823d dbf8 e43e d639 283e
000003e0: 73c4 b23c a757 523d ca97 9b39 4014 b2bc
000003f0: c4cc 863d 4619 213e ee04 42ba b934 4a3d

bias f4 [128]
-1.3815608e-06 -0.00010575635 -2.7824668e-05 1.0797724e-05 2.57934e-05 1.6679995e-05 5.005662e-06 -8.916561e-06
1.3330039e-05 3.757694e-05 -2.9049295e-05 1.3203139e-05 -5.303287e-06 4.0649804e-05 3.9692746e-05 -6.023722e-07
4.39696e-06 -3.4991258e-06 1.4090945e-05 1.3200602e-06 -2.7457338e-06 -2.0345793e-05 1.6396027e-06 1.2873029e-06
-1.8669378e-05 -7.963424e-06 1.4770209e-05 9.942207e-07 -3.3872166e-05 1.4644163e-05 -9.942858e-05 1.2273998e-05
4.040967e-06 -0.00056915596 8.394553e-06 7.966e-06 -7.081746e-05 1.3212942e-05 2.9280323e-05 -0.0010728742
-2.095539e-05 0.00011190429 -1.0066184e-06 -1.8637129e-05 -1.700962e-06 7.876941e-06 7.229536e-06 3.410479e-05
2.9618363e-05 -4.130324e-09 -8.459841e-06 -5.442047e-05 7.3341136e-05 2.4994085e-07 1.6242468e-05 7.233237e-06
2.968347e-06 -1.8422233e-07 -2.392721e-05 1.2197909e-05 -2.7782863e-07 -1.9372917e-05 -3.4846923e-06 -5.07117e-06
2.09018e-40 -2.9264298e-05 -3.8450176e-05 -6.540582e-05 -3.484049e-05 1.1568411e-05 6.2746235e-06 -2.5176203e-07
2.5674997e-05 3.0972833e-06 1.1338563e-05 -5.784781e-06 1.9209849e-05 4.5249913e-06 6.043869e-05 -3.0156578e-05
2.013868e-05 -1.5052764e-05 -4.462214e-06 1.5155623e-05 -5.08775e-06 9.5967e-41 5.4568313e-06 3.7053562e-06
3.0010635e-05 -3.3132437e-05 -1.8824425e-05 1.9796078e-06 1.1878632e-06 3.7228706e-06 -4.469403e-06 2.4712595e-05
-4.2870288e-05 2.2139531e-05 -4.348308e-05 -1.9126938e-09 -1.951159e-05 -1.9394693e-05 -3.3863757e-06 3.4737673e-07
-3.0028373e-06 -6.8094682e-06 -1.8695684e-05 7.741473e-06 -2.631351e-06 5.33735e-06 -2.5165768e-06 1.2948982e-05
-2.0956952e-05 -4.354187e-06 1.8780578e-05 -1.8295068e-05 -8.542114e-07 5.6129685e-20 1.3671853e-05 -1.0612429e-05
-3.7303176e-05 8.817402e-06 1.8489095e-06 -1.542537e-05 -0.00057682674 -2.2398284e-05 1.2160763e-05 0.000270992
00000000: 116e b9b5 82c9 ddb8 0569 e9b7 df27 3537
00000010: e85e d837 04ec 8b37 4ff6 a736 5698 15b7
00000020: 15a4 5f37 ef9b 1d38 e3ae f3b7 0d83 5d37
00000030: e3f2 b1b6 657f 2a38 c37b 2638 b4b2 21b5
00000040: 9989 9336 86d2 6ab6 2668 6c37 ec2c b135
00000050: 5943 38b6 42ac aab7 5210 dc35 64c7 ac35
00000060: 2f9c 9cb7 a59a 05b7 91cd 7737 2a71 8535
00000070: f611 0eb8 33b0 7537 5084 d0b8 6cec 4d37
00000080: a497 8736 6933 15ba 55d6 0c37 b6a5 0537
00000090: d683 94b8 27ad 5d37 049f f537 af9f 8cba
000000a0: 5bc9 afb7 29ae ea38 251b 87b5 ee56 9cb7
000000b0: 9c4c e4b5 3427 0437 3e95 f236 bd0b 0f38
000000c0: f374 f837 b7ea 8db1 beee 0db7 8941 64b8
000000d0: b9ce 9938 9c2f 8634 6f40 8837 08b5 f236
000000e0: d033 4736 a6ce 45b4 4bb7 c8b7 9fa5 4c37
000000f0: 7a28 95b4 0683 a2b7 8fda 69b6 0529 aab6
00000100: a846 0200 9a7c f5b7 9045 21b8 7b2a 89b8
00000110: b121 12b8 f215 4237 9b8a d236 e929 87b4
00000120: a360 d737 ecda 4f36 c23a 3e37 e41a c2b6
00000130: d624 a137 61d5 9736 8d7f 7d38 c2f8 fcb7
00000140: 7cef a837 218b 7cb7 20ba 95b6 e844 7e37
00000150: 71b7 aab6 840b 0100 d319 b736 89a9 7836
00000160: 59bf fb37 aff7 0ab8 25e9 9db7 67d9 0436
00000170: ab6e 9f35 6ed6 7936 e1f7 95b6 e54d cf37
00000180: 9fcf 33b8 48b8 b937 9a61 36b8 7770 03b1
00000190: d2ac a3b7 c9b1 a2b7 7e41 63b6 187f ba34
000001a0: 5a84 49b6 e37c e4b6 add4 9cb7 60e1 0137
000001b0: 4496 30b6 7d17 b336 76e2 28b6 743f 5937
000001c0: b6cc afb7 2e1a 92b6 fc8a 9d37 5c78 99b7
000001d0: f64c 65b5 5088 841f 2960 6537 090c 32b7
000001e0: fb75 1cb8 74ee 1337 0c28 f835 bb65 81b7
000001f0: 3036 17ba f3e3 bbb7 1406 4c37 ee13 8e39

weight f4 [128]
0.77821046 1.0931172 0.913147 0.75452644 1.1701033 1.0864466 1.0175923 1.0978603
1.2121556 1.1077713 1.2608677 1.1049598 1.0686516 0.7715648 1.1632521 0.492416
0.6400416 0.98493534 1.0229045 1.0981774 0.59064525 1.1591103 0.7848568 0.56671125
0.54374105 1.0763954 1.2301991 0.35886896 0.7832823 1.2006056 1.2326362 0.7228146
1.1223488 1.0381418 1.0838385 1.1257128 1.1781737 1.0464485 1.1865706 1.0579846
1.0368441 0.6641286 0.9168509 0.91599745 -0.0018261921 1.1315088 0.45715907 0.842886
0.89588994 -0.0014746236 1.1668342 0.6866906 0.69934505 0.6398068 1.2317973 1.0160619
0.50140136 1.2644085 1.0876224 0.8060056 0.84941214 1.0574038 0.9887089 0.6335063
1.73451e-40 1.1479535 0.7965163 1.279995 1.133596 1.1930908 1.2380295 0.45284545
1.1547462 1.1906329 0.8020053 0.7959658 1.2479447 0.6205109 0.95203763 0.93408465
1.1784708 0.7286425 1.2359716 1.0569004 1.1148002 -4.0072e-41 0.84273636 0.97569096
1.2111218 0.7426132 1.072555 0.994721 0.49526182 0.5919887 0.612276 0.8741242
1.003462 1.1535903 0.8299885 0.0012922683 0.76577044 1.0990217 0.8319234 1.2063423
1.1401609 0.6849046 0.94889957 0.50492305 0.7795662 0.46114168 1.2424232 1.0565368
1.1812413 0.5314656 0.8019566 0.41928038 1.0845162 5.038381e-12 1.0001295 0.66349185
1.0123829 0.7643077 0.74568564 0.8603923 1.0189488 1.1317152 0.919235 1.0822674
00000000: cd38 473f 44eb 8b3f 00c4 693f a528 413f
00000010: f2c5 953f af10 8b3f 7740 823f b086 8c3f
00000020: ea27 9b3f 73cb 8d3f 1d64 a13f 536f 8d3f
00000030: 93c9 883f 4585 453f 72e5 943f f31d fc3e
00000040: c4d9 233f b924 7c3f 89ee 823f 1491 8c3f
00000050: 8734 173f ba5d 943f 60ec 483f fd13 113f
00000060: 9d32 0b3f 53c7 893f 2a77 9d3f acbd b73e
00000070: 3085 483f 72ad 993f 06c7 9d3f 610a 393f
00000080: 20a9 8f3f d5e1 843f 38bb 8a3f 5b17 903f
00000090: 65ce 963f 06f2 853f 8ce1 973f 0a6c 873f
000000a0: 4fb7 843f 5504 2a3f beb6 6a3f cf7e 6a3f
000000b0: d75c efba 48d5 903f c110 ea3e 60c7 573f
000000c0: 0b59 653f 2848 c1ba d35a 953f f5ca 2f3f
000000d0: 4708 333f 61ca 233f 89ab 9d3f 510e 823f
000000e0: d75b 003f 23d8 a13f 3637 8b3f 6256 4e3f
000000f0: 1373 593f 0259 873f 071c 7d3f 782d 223f
00000100: 83e3 0100 24f0 923f 7ee8 4b3f e0d6 a33f
00000110: ac19 913f 33b7 983f c077 9e3f 5cdb e73e
00000120: b9ce 933f a966 983f 3850 4d3f 6ac4 4b3f
00000130: a7bc 9f3f cdd9 1e3f bdb8 733f 2c20 6f3f
00000140: 22d8 963f 5188 3a3f 5134 9e3f 8348 873f
00000150: c6b1 8e3f b46f 0080 92bd 573f e2c6 793f
00000160: 0a06 9b3f e61b 3e3f 7b49 893f 09a6 7e3f
00000170: f592 fd3e 928c 173f 1fbe 1c3f 9bc6 5f3f
00000180: 7171 803f d9a8 933f 207a 543f 5461 a93a
00000190: 8809 443f beac 8c3f eff8 543f 6d69 9a3f
000001a0: cbf0 913f e855 2f3f 15eb 723f a342 013f
000001b0: a791 473f c31a ec3e b907 9f3f 993c 873f
000001c0: ea32 973f 210e 083f 074d 4d3f ebab d63e
000001d0: 6dd1 8a3f b445 b12c 3e04 803f 9ada 293f
000001e0: c395 813f aba9 433f 41e5 3e3f ab42 5c3f
000001f0: ea6c 823f 0bdc 903f fc52 6b3f bd87 8a3f

bias f4 [128]
-0.11510717 -0.23375359 -0.18465485 0.06937803 -0.006519386 -0.07474275 -0.15321115 -0.09526758
0.020281306 -0.0532101 0.12785502 0.007917394 0.020518757 -0.12949656 -0.06547001 -0.08836654
-0.015958624 0.019151554 0.036996927 -0.06257356 -0.10313216 0.20104812 -0.04084266 -0.10068313
-0.07760019 0.16731276 0.1415567 -0.47535437 -0.052367445 0.08051548 -0.21947645 -0.09111811
-0.22296636 -0.17506623 -0.051590145 0.18461986 -0.12888394 -0.24298868 0.12225386 -0.2443305
-0.06120692 -0.4304044 -0.090739325 -0.044998568 0.0052822856 -0.13243274 -0.25244647 -0.18666445
-0.024924241 0.0078273425 -0.016328651 -0.4767287 -0.38271913 -0.28733176 0.042072408 0.09976719
-0.29744843 -0.066542946 -0.05516446 0.010329618 0.094762735 -0.0578117 -0.031707093 -0.25408986
-5.94121e-40 -0.04612951 -0.19698966 0.18661125 0.041265562 -0.042692702 0.004566756 -0.12974896
0.17772824 0.18625064 -0.105544075 -0.3244323 0.022949284 -0.19059488 -0.21095881 -0.08966216
0.19951205 -0.08309545 0.11060229 -0.18855618 -0.052615337 2.4914036e-38 -0.09884468 -0.07181039
0.03713371 -0.1721426 0.06461037 0.05696396 -0.19410644 -0.06919172 -0.23542802 -0.17781149
0.10040818 0.06512639 -0.17720352 -0.09341851 -0.18065189 -0.21816605 0.07256547 -0.033113293
0.047720663 -0.05943065 -0.018409112 -0.18175545 -0.34022912 -0.2850617 0.037132844 -0.030452415
0.12832616 -0.35642442 -0.050121993 -0.2941554 0.12182407 -0.04196459 -0.047015768 -0.19681701
0.19345893 -0.27395952 -0.19702296 -0.18708298 -0.27498823 0.12201356 0.041363325 -0.25738078
00000000: 4fbd ebbd 1a5d 6fbe 2916 3dbe 1216 8e3d
00000010: 93a0 d5bb ba12 99bd 62e3 1cbe a61b c3bd
00000020: fb24 a63c d5f2 59bd 6dec 023e f5b7 013c
00000030: f416 a83c bf9a 04be 2415 86bd 84f9 b4bd
00000040: a9bb 82bc b8e3 9c3c 178a 173d 9126 80bd
00000050: f436 d3bd 8fdf 4d3e a24a 27bd f532 cebd
00000060: d9ec 9ebd 0954 2b3e 3df4 103e a661 f3be
00000070: 3f7f 56bd 4de5 a43d 6fbe 60be 229c babd
00000080: 4b51 64be 9044 33be 3050 53bd fd0c 3d3e
00000090: 27fa 03be 06d2 78be 3b60 fa3d c631 7abe
000000a0: 1bb4 7abd f75d dcbe 8ad5 b9bd 6b50 38bd
000000b0: 0617 ad3b 739c 07be aa40 81be f724 3fbe
000000c0: ec2d ccbc 413e 003c aac3 85bc c915 f4be
000000d0: c3f3 c3be 261d 93be 1e54 2c3d be52 cc3d
000000e0: 294b 98be ab47 88bd 21f4 61bd 8f3d 293c
000000f0: f712 c23d f6cb 6cbd 4cdf 01bd 1118 82be
00000100: 2b78 0680 4cf2 3cbd a8b7 49be 0517 3f3e
00000110: 1406 293d 8bde 2ebd baa4 953b e9dc 04be
00000120: 64fe 353e 7db8 3e3e 7e27 d8bd fe1b a6be
00000130: 2300 bc3c 4e2b 43be 9605 58be cba0 b7bd
00000140: e34c 4c3e f32d aabd 7483 e23d df14 41be
00000150: 2e83 57bd 19a5 0701 146f cabd 5311 93bd
00000160: 8419 183d 2646 30be 7152 843d 0b53 693d
00000170: d7c3 46be 63b4 8dbd 0b14 71be 3714 36be
00000180: cea2 cd3d fc60 853d d774 35be 3452 bfbd
00000190: cffc 38be ec66 5fbe 359d 943d cea1 07bd
000001a0: be76 433d 8e6d 73bd b5ce 96bc 1a1e 3abe
000001b0: 8332 aebe 9bf3 91be 9c18 183d 5877 f9bc
000001c0: ef67 033e 437d b6be b84c 4dbd 899b 96be
000001d0: e67e f93d 10e3 2bbd 9b93 40bd 668a 49be
000001e0: 191a 463e 6c44 8cbe 63c0 49be ae92 3fbe
000001f0: 42cb 8cbe 3fe2 f93d 976c 293d 6ac7 83be

running_mean f4 [128]
0.5364025 5.4742837 1.28195 -1.543599 2.3113778 -3.9997036 1.64736 0.91189784
0.21004498 -4.0793 -1.7676092 0.20838353 0.15767457 -4.718359 0.5459725 0.3078417
1.1660768 -0.550938 -3.6821392 1.8584694 0.96698415 -1.2558788 -1.0129323 0.22028688
-0.72249264 -1.3763738 -1.6761776 0.4096398 -3.8117514 -1.0998553 5.348615 -3.0947785
0.727772 5.3906126 -3.8590512 -1.4072076 1.7706928 3.554899 -1.8268567 5.345492
2.430311 3.256703 0.2706955 -3.3482153 -0.13302223 0.24668093 -1.766162 2.0704813
-3.6475868 -0.10874114 -1.3831891 2.0747983 -2.2205188 0.400636 0.3262853 0.16864105
-0.09180461 -4.160929 -4.105049 0.16709958 -1.7598107 -4.1588187 -3.6693692 0.61186975
-7.98934e-40 -4.040428 1.5734035 -1.4034616 -3.7719147 0.38563332 0.14705119 -0.055333782
-1.3813063 -1.3404084 -1.656364 4.8658595 0.6399176 0.70799667 1.9600589 -3.5526674
-1.2300699 -2.4713771 -1.9949313 2.2605402 -3.7653258 2.235952e-39 -3.1188116 -3.7104242
0.30064192 1.9549834 -3.6954684 -1.0868826 -0.21321347 0.1886795 -1.813731 2.2030618
-1.9451312 -3.9282248 2.1504889 -0.00248713 1.5811365 2.1297762 -3.147229 0.8992937
0.27146402 -3.7011318 -4.0151052 -1.4391118 -2.0245154 -0.6575558 0.35067663 0.69551194
-1.8491607 0.18796012 -2.3285427 2.9936135 -1.692659 2.3096472e-13 1.6970477 0.7463284
-1.1659086 -1.4265643 0.48706594 1.8149191 4.9469647 -1.2618344 -3.3612714 4.6029067
00000000: ad51 093f 552d af40 f016 a43f a794 c5bf
00000010: 9ded 1340 25fb 7fc0 b1dc d23f 2372 693f
00000020: 0816 573e a089 82c0 0541 e2bf 7e62 553e
00000030: 7175 213e ccfc 96c0 dbc4 0b3f 6d9d 9d3e
00000040: 0142 953f 460a 0dbf 2ba8 6bc0 53e2 ed3f
00000050: 468c 773f a3c0 a0bf c4a7 81bf e292 613e
00000060: 47f5 38bf 042d b0bf fd8c d6bf 4fbc d13e
00000070: bcf3 73c0 0fc8 8cbf db27 ab40 da10 46c0
00000080: 444f 3a3f e67f ac40 b2fa 76c0 611f b4bf
00000090: 10a6 e23f 7783 6340 71d6 e9bf 450e ab40
000000a0: 378a 1b40 d26d 5040 9a98 8a3e 2949 56c0
000000b0: fb36 08be ed99 7c3e 9911 e2bf c482 0440
000000c0: 1072 69c0 adb3 debd 570c b1bf 7fc9 0440
000000d0: fb1c 0ec0 2920 cd3e de0e a73e 3db0 2c3e
000000e0: 0e04 bcbd 5526 85c0 905c 83c0 271c 2b3e
000000f0: 7a41 e1bf 0b15 85c0 f2d6 6ac0 7fa3 1c3f
00000100: 1ab3 0880 304b 81c0 4965 c93f a1a4 b3bf
00000110: 0d67 71c0 bb71 c53e 9694 163e ada5 62bd
00000120: a5ce b0bf 8192 abbf bc03 d4bf 1fb5 9b40
00000130: a4d1 233f 453f 353f 36e3 fa3f e75e 63c0
00000140: ee72 9dbf 0b2b 1ec0 e959 ffbf b1ac 1040
00000150: 19fb 70c0 ed58 1800 9c9a 47c0 9777 6dc0
00000160: bded 993e e53c fa3f 8e82 6cc0 f81e 8bbf
00000170: a254 5abe 3335 413e 5628 e8bf f7fe 0c40
00000180: 0ffa f8bf 0968 7bc0 9ca1 0940 1eff 22bb
00000190: ae62 ca3f 414e 0840 336c 49c0 1d38 663f
000001a0: 55fd 8a3e 58df 6cc0 be7b 80c0 d134 b8bf
000001b0: a991 01c0 9455 28bf e38b b33e 120d 323f
000001c0: 4cb1 ecbf 9e78 403e d806 15c0 5d97 3f40
000001d0: 0da9 d8bf 8605 822a dc38 d93f 610f 3f3f
000001e0: 7e3c 95bf a999 b6bf b560 f93e 454f e83f
000001f0: 894d 9e40 ca83 a1bf 121f 57c0 034b 9340

running_var f4 [128]
14.88166 9.933048 12.719236 15.975699 16.41807 23.962461 15.460716 11.038153
16.158659 30.005562 21.607262 17.3764 15.042964 17.928085 10.595397 8.61006
9.549658 13.837355 21.962088 13.064388 8.1305685 20.195688 26.800114 7.1786485
6.6608744 17.385094 21.170214 1.5394976 23.71605 13.784342 11.29198 18.164982
12.4511595 8.148339 28.35245 18.379618 14.284143 11.974604 22.31225 9.678044
11.075159 7.956048 13.130084 19.477547 0.014462212 10.120643 8.508281 16.039177
21.674858 0.037254587 13.138473 6.9817786 6.1923914 4.1713805 16.269379 18.50543
3.6230516 28.90187 30.109016 12.84753 13.566792 26.7749 20.683807 9.704293
6e-45 27.18449 12.978677 21.831924 21.674236 14.340982 16.439413 5.3069224
19.510334 19.421942 14.930444 11.433397 15.494247 10.246917 16.367552 11.354982
20.103462 12.651875 24.102217 16.246052 30.125687 6e-45 15.417042 21.906668
16.843245 14.157451 19.96055 16.672216 6.3901076 8.35965 5.108293 15.160831
19.361885 20.694414 15.389448 2.1733258e-06 13.390543 15.633038 18.540106 16.679323
15.42601 19.22985 14.1089945 10.046977 7.5464387 5.365719 16.647045 13.662464
22.005207 3.3035555 14.785064 6.3519826 20.694353 2.0315248e-26 15.696237 11.126954
17.794207 4.985044 11.851677 14.411419 8.815215 20.466948 15.600411 9.680942
00000000: 481b 6e41 c4ed 1e41 fe81 4b41 779c 7f41
00000010: 3558 8341 1fb3 bf41 185f 7741 469c 3041
00000020: ef44 8141 640b f041 acdb ac41 de02 8b41
00000030: fbaf 7041 b86c 8f41 bf86 2941 cec2 0941
00000040: 66cb 1841 ce65 5d41 5bb2 af41 bc07 5141
00000050: cf16 0241 c590 a141 a266 d641 7db7 e540
00000060: e225 d540 ac14 8b41 995c a941 420e c53f
00000070: 78ba bd41 aa8c 5c41 f3ab 3441 e251 9141
00000080: f337 4741 995f 0241 d1d1 e241 7509 9341
00000090: da8b 6441 fa97 3f41 7d7f b241 45d9 1a41
000000a0: da33 3141 f297 fe40 d314 5241 04d2 9b41
000000b0: eaf2 6c3c 27ee 2141 eb21 0841 3c50 8041
000000c0: 1c66 ad41 4498 183d 2f37 5241 bb6a df40
000000d0: 1228 c640 f37b 8540 b027 8241 1f0b 9441
000000e0: 14e0 6740 0837 e741 44df f041 7c8f 4d41
000000f0: 9411 5941 ff32 d641 7078 a541 c944 1b41
00000100: 0400 0000 d679 d941 a9a8 4f41 c8a7 ae41
00000110: d664 ad41 aa74 6541 eb83 8341 4fd2 a940
00000120: 2a15 9c41 2360 9b41 19e3 6e41 32ef 3641
00000130: 70e8 7741 5ff3 2341 bff0 8241 02ae 3541
00000140: e4d3 a041 146e 4a41 57d1 c041 eaf7 8141
00000150: 6801 f141 0400 0000 34ac 7641 db40 af41
00000160: f7be 8641 eb84 6241 35af 9f41 b360 8541
00000170: c37b cc40 20c1 0541 2377 a340 c492 7241
00000180: 24e5 9a41 298e a541 2e3b 7641 74d9 1136
00000190: aa3f 5641 ec20 7a41 2352 9441 416f 8541
000001a0: f0d0 7641 bcd6 9941 71be 6141 6bc0 2041
000001b0: 6d7c f140 f8b3 ab40 262d 8541 7499 5a41
000001c0: aa0a b041 746d 5340 9f8f 6c41 7143 cb40
000001d0: 098e a541 4631 c914 c923 7b41 0108 3241
000001e0: 895a 8e41 7b85 9f40 78a0 3d41 2c95 6641
000001f0: 1f0b 0d41 4fbc a341 499b 7941 23e5 1a41

weight f4 [128, 128]
0.010026958 0.0003945234 0.0099305315 0.0006316313 -0.0008244531 0.00058964663 -0.0019773324 0.012069392
0.0051208595 0.0004294767 0.00020784716 0.008621584 0.0051104072 0.00019555129 0.012691611 0.009647918
-0.00041749232 -0.00025977616 0.0005927976 -0.0021407115 0.009244534 0.0023861409 -0.00020892298 0.010329512
0.008586079 0.00042332103 0.00023592914 0.0020861977 0.0011852863 -0.0006855352 0.0045570587 0.0010583496
0.011328282 0.0001633339 0.00038941167 0.000505672 -0.0040576654 0.0070538362 -0.00018091327 2.6207983e-05
-0.002426047 0.0038365745 0.012395879 0.00029581902 8.0222555e-05 0.012795848 0.00049863476 0.008811914
0.001121382 -0.00019588566 -0.0007973516 -0.0020477218 0.0011638732 0.008001689 0.006931962 0.004373919
0.0072975582 0.00044452405 0.0007820744 0.00569776 0.0021535328 0.00081253535 0.000909999 0.0079652695
-1.67068e-40 0.0006127067 0.008829486 0.0013919357 0.0005498161 0.012203859 0.00689831 4.5592427e-05
0.001105334 0.00089438475 -0.0010053861 0.00448208 0.012099408 0.008842432 0.009068766 -0.0019349752
0.0017973545 0.00039734587 0.00034240476 0.0092043625 0.00015955036 -1.71188e-40 0.0010862787 0.0008848616
0.0058362354 0.00853437 0.0006311834 -1.4066748e-05 0.009450078 0.0076865903 0.006252765 0.008774177
-0.00017149637 0.0005667872 0.008637375 -4.2539742e-08 0.008854391 0.009300652 0.00045787494 0.013286738
0.0044542607 0.001288853 -0.00064210256 -5.7094265e-05 0.00076208235 0.0003377664 0.006962714 0.011749676
0.00033683237 0.0064887614 -0.0018001742 0.0029871108 0.0002932409 4.7033586e-17 0.0005232148 0.009295457
0.0026961414 0.0008619668 0.010256846 0.008989619 -0.0004421499 0.0032570492 0.00091347477 0.0016805297
-0.061725553 -0.17809452 0.05952541 0.084241815 -0.14075543 -0.034117118 -0.139601 0.11721629
0.010671749 -0.04936356 0.10027368 0.07648738 0.024589509 -0.04926685 0.17596544 0.1588332
-0.04440157 -0.01933745 -0.34120607 -0.17263556 -0.018879876 0.10392883 0.14136294 0.109923325
0.11073104 0.113675594 0.08273269 -0.023179004 -0.039030235 0.03677036 0.06989478 -0.0828739
0.05758365 -0.04734533 -0.086916596 0.12222751 -0.12401843 0.014213333 0.082999356 -0.1365016
-0.16682483 0.026637701 0.07986864 -0.21157528 0.007725709 0.16385233 0.07472422 0.050304353
-0.115909256 -0.00065060874 0.004624584 0.019156097 -0.02317613 -0.07720869 0.028769527 0.08287479
0.0052687945 -0.098178715 -0.028654633 0.0040561184 0.037112474 -0.08409059 -0.15381216 -0.044373125
-1.787358e-39 -0.09678663 0.09455104 0.113273226 -0.24482973 0.14073737 0.04103291 0.06013453
0.09064146 0.10844293 0.054232035 -0.0734363 0.09653007 0.08542725 0.02302241 -0.04154181
0.10862419 -0.18452105 0.0912868 0.021778112 -0.09211695 -8.3152e-41 -0.052752282 -0.09897186
0.0600032 0.059843257 -0.35175648 0.04270689 0.07867055 0.039847326 0.042587742 0.049100608
0.09185332 -0.36631432 0.036502007 -2.368163e-05 0.030941525 -0.015989318 -0.24538071 0.16822046
0.06330943 -0.059376966 -0.099758744 0.089347884 -0.038367882 0.120192796 0.07984113 0.05713602
0.09013216 -0.12952907 0.055423714 0.03980629 0.08186534 -7.073343e-16 -0.085069776 0.040649284
0.11423247 -0.0866138 0.12326993 0.0917409 -0.15183355 0.13340777 -0.27264023 -0.15159185
00000000: 1c48 243c 09d8 ce39 abb3 223c 0f94 253a
00000010: 1c20 58ba 8492 1a3a 2296 01bb b3be 453c
00000020: e2cc a73b 632b e139 8cf1 5939 8b41 0d3c
00000030: 3475 a73b e60c 4d39 7af0 4f3c 4d12 1e3c
00000040: dfe2 dab9 9132 88b9 f965 1b3a 2e4b 0cbb
00000050: 6376 173c cd60 1c3b 5612 5bb9 1d3d 293c
00000060: a0ac 0c3c 30f1 dd39 bf63 7739 97b8 083b
00000070: 9c5b 9b3a 7db5 33ba 6153 953b 52b8 8a3a
00000080: 429a 393c 9c44 2b39 f329 cc39 138f 043a
00000090: 2af6 84bb de23 e73b 89b3 3db9 37d9 db37
000000a0: 51fe 1ebb 0a6f 7b3b 1618 4b3c 2818 9b39
000000b0: 283d a838 ada5 513c d0b6 023a d95f 103c
000000c0: 56fb 923a a866 4db9 5c05 51ba 1233 06bb
000000d0: 1b8d 983a 8419 033c 8325 e33b 1853 8f3b
000000e0: 5b20 ef3b 020f e939 2004 4d3a 46b4 ba3b
000000f0: 4922 0d3b 5300 553a 008d 6e3a c380 023c
00000100: b8d1 0180 0d9e 203a 8ca9 103c 9d71 b63a
00000110: 8921 103a b2f2 473c 380b e23b 7f3a 3f38
00000120: dbe0 903a 2575 6a3a 29c7 83ba 6ade 923b
00000130: 983c 463c d9df 103c 2995 143c fe9e fdba
00000140: 3695 eb3a dc52 d039 ca84 b339 e5cd 163c
00000150: f94c 2739 34dd 0180 7761 8e3a 0ff6 673a
00000160: e43d bf3b bed3 0b3c 0076 253a 3900 6cb7
00000170: 80d4 1a3c cbdf fb3b ffe3 cc3b 91c1 0f3c
00000180: b5d3 33b9 7294 143a c783 0d3c f1b4 36b3
00000190: 0212 113c c361 183c ef0e f039 9eb0 593c
000001a0: 0cf5 913b bbee a83a c652 28ba 8078 6fb8
000001b0: 7bc6 473a 3d16 b139 7a27 e43b b781 403c
000001c0: e098 b039 ad9f d43b d3f3 ebba 67c3 433b
000001d0: 21be 9939 75e7 5824 5a28 093a f94b 183c
000001e0: bfb1 303b 9df5 613a 550c 283c 3249 133c
000001f0: 5bd0 e7b9 3874 553b 4176 6f3a 3845 dc3a
00000200: efd3 7cbd 695e 36be ebd0 733d f986 ac3d
00000210: 3122 10be 64be 0bbd 91f3 0ebe 180f f03d
00000220: 8fd8 2e3c 7231 4abd 4a5c cd3d 6aa5 9c3d
00000230: f06f c93c 09cc 49bd 4930 343e 2ca5 223e
00000240: 6cde 35bd 9269 9ebc 90b2 aebe 60c7 30be
00000250: f8a9 9abc a3d8 d43d 72c1 103e 7b1f e13d
00000260: f5c6 e23d c0ce e83d c26f a93d e5e1 bdbc
00000270: 2bde 1fbd 849c 163d ff24 8f3d cbb9 a9bd
00000280: d5dc 6b3d 2ded 41bd 5401 b2bd 6b52 fa3d
00000290: 60fd fdbd 0adf 683c 91fb a93d 13c7 0bbe
000002a0: 21d4 2abe 4f37 da3c 2b92 a33d 31a7 58be
000002b0: f227 fd3b e8c8 273e 0309 993d f00b 4e3d
000002c0: d561 edbd 9d8d 2aba d389 973b 3fed 9c3c
000002d0: dedb bdbc 971f 9ebd 12ae eb3c 42ba a93d
000002e0: daa5 ac3b ec11 c9bd 1fbd eabc 30e9 843b
000002f0: 4003 183d b037 acbd ef80 1dbe 98c0 35bd
00000300: 6d76 1380 1238 c6bd faa3 c13d cbfb e73d
00000310: a5b4 7abe 751d 103e 2012 283d a04f 763d
00000320: 3ba2 b93d 5417 de3d 6922 5e3d c565 96bd
00000330: 8fb1 c53d 7bf4 ae3d 7e99 bc3c bf27 2abd
00000340: 5c76 de3d 16f3 3cbe 93f4 ba3d 0368 b23c
00000350: d0a7 bcbd cbe7 0080 c712 58bd c2b1 cabd
00000360: eac5 753d 341e 753d 6d19 b4be 6bed 2e3d
00000370: 061e a13d f336 233d 7c70 2e3d b81d 493d
00000380: 981d bc3d 8d8d bbbe 2183 153d eaa7 c6b7
00000390: 1579 fd3c 08fc 82bc 1545 7bbe fc41 2c3e
000003a0: 60a8 813d 4335 73bd 504e ccbd 06fc b63d
000003b0: a427 1dbd a427 f63d bf83 a33d 7607 6a3d
000003c0: 3697 b83d 45a3 04be fa03 633d ec0b 233d
000003d0: 04a9 a73d 0fe0 4ba6 1039 aebd dd7f 263d
000003e0: b7f2 e93d 9362 b1bd f274 fc3d a7e2 bb3d
000003f0: 417a 1bbe 0c9c 083e 8097 8bbe e53a 1bbe
