wgan_results/gum/uniform/critic.pth (torch_old, 540616 bytes, 27 tensors)

bias f4 [128]
000000 c4 80 9b be 4f 3e 99 3b 10 80 d1 be 61 33 16 bc
       -0.30371678 0.004676617 -0.40918016 -0.009167523
000010 de 3b b8 bc 86 4d ef be 79 24 d4 be 09 b4 a4 bc
       -0.022489484 -0.46738833 -0.41434076 -0.020105379
000020 0b 42 e9 3a e3 d5 c1 be dd dd e7 be 53 3d 66 bd
       0.0017796172 -0.37858495 -0.45286456 -0.056210827
000030 24 2c 26 bc 7b d0 28 bd fd 8e b8 be 4d 6d bf be
       -0.01014236 -0.041214447 -0.3604659 -0.37388077
000040 3f f3 a5 be cc d8 06 bc 89 0a 0b bc 67 d3 be be
       -0.32412145 -0.008230399 -0.0084863985 -0.37270662
000050 82 4c 6e bb 29 89 82 be 6e 77 38 bd 67 ba 04 bf
       -0.003636152 -0.2549527 -0.045035772 -0.5184693
000060 3d 1b 18 bc fa 11 8d 3a e9 65 71 bf 81 85 f0 bc
       -0.009283838 0.0010762804 -0.9429613 -0.029360535
000070 d4 61 18 bd c0 7b 91 bc 07 f4 67 bd 84 bf 0b bf
       -0.03720267 -0.017759204 -0.056629207 -0.54589105
000080 42 99 d5 bb db a5 1d bc 0c 82 23 bd 5b 5b a3 bd
       -0.006518514 -0.009622063 -0.039918944 -0.07976409
000090 98 a0 70 bd 63 b9 92 bc da 25 c3 bc 64 ad 05 bd
       -0.058746904 -0.017910665 -0.02382176 -0.03263606
0000a0 6d bd c8 be f6 c5 6b bd d2 77 22 bd 36 51 1b be
       -0.3920702 -0.057561837 -0.03966505 -0.15167698
0000b0 62 6a 13 3d a9 a3 52 bd 86 e2 d6 bd d0 08 ca bd
       0.035990126 -0.05142561 -0.10492425 -0.09864962
0000c0 37 d7 90 bb db f6 6f be 85 ef 2d bc 3d 63 2a bd
       -0.004420187 -0.23434012 -0.010616188 -0.041598547
0000d0 65 8a 42 3c 12 9e 9b be 5a 7f 21 ba be e0 b3 bc
       0.011873816 -0.30394036 -0.00061606395 -0.021957751
0000e0 d9 7a f4 be 70 5f b1 bd 2d 20 d0 be 64 0b 0f bd
       -0.47749975 -0.086607814 -0.40649548 -0.034922972
0000f0 3a 9e 9f bb 21 04 41 bb 54 81 8f bd bf a0 01 bd
       -0.004871157 -0.0029451924 -0.07007089 -0.03164744
000100 97 00 17 bc 8a 94 f0 be c3 98 86 be fd 56 38 bc
       -0.009216449 -0.46988326 -0.26288423 -0.011251208
000110 e3 bb c2 be 40 6a 55 bd 67 5c f6 bc 8e 6e 71 bc
       -0.3803397 -0.05210328 -0.030073358 -0.014735831
000120 bf fa be be 6b 60 aa bc d4 f0 b0 bd 7d a3 f0 be
       -0.3730068 -0.020797929 -0.08639684 -0.46999732
000130 3f e3 a8 be 6e 11 c8 bb bb 68 07 bc 49 2b d6 3a
       -0.32985875 -0.0061055934 -0.008264716 0.0016339804
000140 b3 39 0d bd 0f 12 2f bd fa d3 a1 bd a9 43 6d bd
       -0.034478854 -0.04274183 -0.079017594 -0.057925854
000150 3e 0c bc be ad 1a a2 bc dd d9 ab bc 49 e0 c1 3b
       -0.3672809 -0.01978811 -0.020977909 0.0059166295
000160 22 e8 da be ee 45 81 be 81 4e c4 be aa 1c 34 bc
       -0.42755228 -0.25248665 -0.38341144 -0.010993162
000170 f2 a3 67 3b a7 85 c6 be 58 3a c4 be af 44 a8 bd
       0.0035345522 -0.38773844 -0.38325763 -0.08216225
000180 e6 08 9b bd 4f b8 ed b9 37 7a 82 be d5 90 4f 3b
       -0.075700566 -0.00045341483 -0.25483868 0.003167202
000190 04 67 bb be 18 b4 cb be 56 80 06 bd 75 a1 25 bd
       -0.36602032 -0.39785838 -0.032837234 -0.04043718
0001a0 39 2b bd be 64 d9 5d bc 41 fb 6f be be 36 83 ba
       -0.3694704 -0.0135405995 -0.2343569 -0.0010010821
0001b0 2c 01 43 bf 77 c7 98 be 37 7d f3 be 9e 5c c7 bc
       -0.76173663 -0.2983968 -0.4755647 -0.024336156
0001c0 73 ba 01 3d 76 79 87 be 49 6f ec be 56 a5 ad be
       0.031671952 -0.26459855 -0.46178654 -0.33915204
0001d0 04 6a 6f bb 62 d8 81 bb 6e 6c f3 be 50 f1 0c bf
       -0.0036531696 -0.0039625624 -0.47543663 -0.55055714
0001e0 69 c8 a9 bd 59 dc 3f bb 09 42 1a bd 26 ec e4 bb
       -0.08290178 -0.0029275625 -0.037660632 -0.006986159
0001f0 1d 75 83 bd 99 2b b3 bd a8 42 84 bb ef 3f be be
       -0.06418822 -0.0874855 -0.0040362664 -0.37158152

weight_orig f4 [128, 1]
000000 34 8f e0 3d 34 aa 04 bc 12 a3 16 3e c8 fc 0f ba
       0.10964814 -0.00809722 0.14710644 -0.00054926844
000010 7e 32 25 bb 88 ba 88 3e 59 29 18 3e ab b9 2e 3b
       -0.0025207098 0.26704812 0.14859523 0.002666096
000020 fb 82 28 bb e6 ab 0d 3e c9 ce 22 3e f4 89 a4 3c
       -0.0025712836 0.13835105 0.15899195 0.020085312
000030 e1 aa 66 ba 36 13 dc 3b 99 32 26 3e f3 b9 2b 3e
       -0.00087992667 0.0067161573 0.16230239 0.16770153
000040 2c 40 fd 3d 04 49 10 3b d9 9d 7e 3a d4 2b 0d 3e
       0.123657554 0.0022016177 0.0009712852 0.1378625
000050 32 62 21 3b 0e 63 b1 3d f3 8c af 3c b0 e4 36 3e
       0.002462518 0.08661471 0.021429515 0.17860675
000060 45 e2 4a 3b af 26 dc bb 66 20 18 3f ef 7c 8c 3c
       0.003095762 -0.0067184786 0.59424436 0.017149417
000070 9a fd b2 3a c8 09 b5 bb 0a 2a 9b 3c 32 9a 4d 3e
       0.0013655901 -0.0055248477 0.018940944 0.20078352
000080 88 c2 9a 3a bb 47 ac ba 31 c1 6a bb ae cb c4 3c
       0.0011807242 -0.0013143936 -0.0035820717 0.024022903
000090 4e ce 08 3d e1 9d 71 3b 1a 4d 85 bb 59 95 75 3c
       0.033399872 0.0036867785 -0.004068029 0.014989221
0000a0 c9 72 11 3e f2 02 b5 3c 89 f9 1e 3c 20 ee 86 3d
       0.14203943 0.022096131 0.0097030485 0.065883875
0000b0 16 26 27 3d 9b 63 8f 3c 12 4c fb 3c 03 7b 2d 3d
       0.040807806 0.01750355 0.030675922 0.04235364
0000c0 87 28 8d bb 30 dc 68 3d 72 c9 54 3a 8b 74 3c 3b
       -0.0043078098 0.056850612 0.0008117176 0.0028755988
0000d0 ce 4a 9a bb 0a 2a 94 3d 63 67 19 bb 9e dd da 3c
       -0.0047086244 0.07234581 -0.002340757 0.026717003
0000e0 40 ab 7c 3e 31 2f fb 3c 15 e5 18 3e 9a 79 49 3b
       0.24674702 0.030662151 0.14931138 0.0030742646
0000f0 41 22 a4 ba df 53 b7 bb 51 43 b9 3c e2 43 05 3c
       -0.0012522415 -0.005594715 0.022615107 0.00813386
000100 c6 a4 00 3a f9 1b 31 3e cc a7 cc 3d 31 6a 25 bb
       0.00049073657 0.17295827 0.09992942 -0.0025240297
000110 31 81 10 3e 23 2d bb 3c de bc 8a 3b 74 22 7c 3b
       0.14111783 0.022848671 0.0042339405 0.0038472684
000120 8b 0d 0f 3e 07 68 54 bb a8 7b 0d 3d bc 2f 74 3e
       0.1397001 -0.0032410638 0.034541756 0.23846334
000130 be 9d 0e 3e ae f4 5c ba 77 3b c6 3a cc 58 91 3a
       0.13927361 -0.0008428794 0.0015123923 0.0011089086
000140 e5 8d 92 3b f9 5b 2d 3c 9b 5e 19 3d 8d a1 93 3c
       0.0044724816 0.01058101 0.03744374 0.01802137
000150 4a eb 09 3e df 98 34 3c 1d 9b 2c 3b 71 2c 88 bb
       0.13468662 0.011022775 0.0026337572 -0.0041556885
000160 78 d7 21 3e 92 dc ac 3d 98 8a 4e 3e 41 f7 a8 39
       0.15804851 0.08440508 0.20170057 0.00032227676
000170 33 a2 6c bb e5 de 10 3e 58 11 49 3e 1b 2c f7 3c
       -0.003610742 0.14147528 0.19635522 0.030172398
000180 66 a2 de 3c b8 cd 79 bb 3b 73 b1 3d e2 28 12 3d
       0.027177047 -0.0038117003 0.086645566 0.03568352
000190 d9 d2 0b 3e 22 49 0e 3e 75 53 bb 3b 06 14 2a 3c
       0.13654651 0.13895085 0.005716736 0.0103807505
0001a0 0f a7 39 3e 30 bc 89 bb dc 84 b8 3d e4 26 47 3d
       0.18130134 -0.004203342 0.09009716 0.048621073
0001b0 8a 44 8c 3e 78 fd 92 3d 66 77 84 3e b5 92 83 3c
       0.2739604 0.071772516 0.25872344 0.016061166
0001c0 c4 0e 03 3d d3 5b ce 3d 89 09 25 3e c6 56 a5 3d
       0.031996503 0.10076108 0.16116919 0.08073191
0001d0 e8 b7 88 3b c6 16 11 3a 91 d1 33 3e 0d b9 4f 3e
       0.004172314 0.00055347045 0.17560412 0.20285435
0001e0 fe 20 e9 3c e6 fd 5a bb ea 92 bd 3b e0 af 73 bb
       0.028458115 -0.0033415495 0.005785336 -0.0037183687
0001f0 fe 42 ab 3c e0 58 2a 3d 00 87 fb b9 ee cc 0e 3e
       0.020905968 0.041588664 -0.00047975034 0.13945362

weight_u f4 [128]
000000 52 ee b6 bd b1 24 d8 3b a0 6c f5 bd 2e 97 ea 39
       -0.08932175 0.006596171 -0.11983609 0.00044744596
000010 c0 92 06 3b a4 c3 5e be 7b e8 f7 bd c2 55 0e bb
       0.0020534247 -0.21754318 -0.12104889 -0.0021718596
000020 f3 45 09 3b 3b d1 e6 bd 71 a0 04 be 74 09 86 bc
       0.0020946234 -0.11270376 -0.12951829 -0.01636193
000030 20 e8 3b 3a 24 47 b3 bb 61 63 07 be 5b e4 0b be
       0.0007168073 -0.005471127 -0.13221504 -0.1366133
000040 b1 4d ce bd 63 13 eb ba 8b 6a 4f ba 93 00 e6 bd
       -0.10073412 -0.0017934855 -0.00079122995 -0.11230578
000050 70 77 03 bb d4 80 90 bd df 01 8f bc 25 fd 14 be
       -0.0020060204 -0.07055822 -0.017456947 -0.14549692
000060 0a 46 25 bb 01 57 b3 3b e6 d9 f7 be a1 e3 64 bc
       -0.0025218748 0.005473018 -0.4840843 -0.013970287
000070 45 cf 91 ba 47 7a 93 3b de cc 7c bc f5 7c 27 be
       -0.0011124393 0.0045006606 -0.0154297035 -0.16356261
000080 3a 24 7c ba db 57 8c 3a 79 3c 3f 3b 61 50 a0 bc
       -0.0009618435 0.0010707335 0.0029180332 -0.019569578
000090 db e3 de bc 82 d3 44 bb 18 2e 59 3b bb 0e 48 bc
       -0.02720826 -0.0030033295 0.0033139046 -0.012210543
0000a0 86 f8 ec bd b5 74 93 bc 18 81 01 bc 87 d5 5b bd
       -0.115708396 -0.017999986 -0.0079043135 -0.053670432
0000b0 bb 29 08 bd 9f 9d 69 bc 4c b6 cc bc 2c 52 0d bd
       -0.033242922 -0.014258771 -0.02498927 -0.034502193
0000c0 32 fb 65 3b 61 b1 3d bd 3f 57 2d ba 0d 85 19 bb
       0.003509235 -0.04631174 -0.0006612427 -0.0023425252
0000d0 2a 61 7b 3b 43 65 71 bd a5 ee f9 3a f0 4a b2 bc
       0.0038357475 -0.05893446 0.0019068314 -0.021764249
0000e0 60 d4 4d be c6 9e cc bc 59 1a f9 bd 3b 20 24 bb
       -0.20100546 -0.024978053 -0.121632285 -0.0025043625
0000f0 fb b4 85 3a b8 57 95 3b 52 eb 96 bc 13 1f d9 bb
       0.0010201031 0.004557576 -0.018422756 -0.006626019
000100 80 97 d1 b9 ec 46 10 be 7e b7 a6 bd 20 c0 06 3b
       -0.00039976463 -0.14089555 -0.08140467 0.0020561293
000110 e9 6e eb bd 56 7a 98 bc 9e 09 62 bb f0 64 4d bb
       -0.11495764 -0.018613022 -0.0034490596 -0.003134068
000120 67 11 e9 bd e4 07 2d 3b a2 82 e6 bc 6a eb 46 be
       -0.11380272 0.0026402408 -0.028138462 -0.19425741
000130 41 5b e8 bd d0 fe 33 3a fc 7b a1 ba 2f ce 6c ba
       -0.1134553 0.0006866278 -0.0012320275 -0.00090334093
000140 c7 c5 6e bb e3 38 0d bc 56 e0 f9 bc e4 86 70 bc
       -0.0036433802 -0.00861952 -0.03050248 -0.014680598
000150 2a b4 e0 bd 4c 1e 13 bc c7 9b 0c bb 24 dc 5d 3b
       -0.109718636 -0.008979391 -0.0021455155 0.0033853138
000160 f9 d6 03 be 1a d1 8c bd ca 40 28 be ab a4 89 b9
       -0.12874974 -0.068758205 -0.16430965 -0.00026253363
000170 50 c4 40 3b 93 07 ec bd 4d cb 23 be 16 5a c9 bc
       0.0029413886 -0.11524882 -0.15995522 -0.02457909
000180 df 5c b5 bc d3 7e 4b 3b 01 8e 90 bd 35 21 ee bc
       -0.022139011 0.0031050935 -0.07058335 -0.029068569
000190 84 ce e3 bd 67 d1 e7 bd 8e 99 98 bb a5 8c 0a bc
       -0.11123374 -0.11319237 -0.004656977 -0.008456384
0001a0 92 3c 17 be 6d 67 60 3b 2b 50 96 bd c4 3b 22 bd
       -0.147692 0.0034241334 -0.073395096 -0.03960778
0001b0 bf 87 64 be 8f 7b 6f bd eb d1 57 be 53 5d 56 bc
       -0.22317408 -0.058467444 -0.21076171 -0.013083774
0001c0 5c 86 d5 bc b0 1a a8 bd 63 71 06 be 4e b0 86 bd
       -0.026065044 -0.08208215 -0.13129191 -0.06576596
0001d0 5d bf 5e bb 9d 62 ec b9 f1 7b 12 be 2d 37 29 be
       -0.0033988573 -0.000450869 -0.14305092 -0.16524954
0001e0 6e e9 bd bc 3c 65 32 3b 55 6e 9a bb 41 83 46 3b
       -0.023182597 0.0027220985 -0.0047128596 0.0030290636
0001f0 73 83 8b bc bc c4 0a bd 4e e6 cc 39 22 a8 e8 bd
       -0.017030453 -0.033879027 0.00039081502 -0.11360194

weight f4 [128, 1]
000000 51 ee b6 3d b0 24 d8 bb 9e 6c f5 3d 2d 97 ea b9
       0.08932174 -0.0065961704 0.11983608 -0.00044744593
000010 bf 92 06 bb a2 c3 5e 3e 7a e8 f7 3d c1 55 0e 3b
       -0.0020534245 0.21754315 0.12104888 0.0021718594
000020 f2 45 09 bb 3a d1 e6 3d 70 a0 04 3e 74 09 86 3c
       -0.0020946232 0.112703755 0.12951827 0.01636193
000030 1f e8 3b ba 23 47 b3 3b 60 63 07 3e 5a e4 0b 3e
       -0.00071680726 0.0054711266 0.13221502 0.13661328
000040 b0 4d ce 3d 61 13 eb 3a 8a 6a 4f 3a 91 00 e6 3d
       0.100734115 0.0017934853 0.0007912299 0.11230577
000050 6f 77 03 3b d3 80 90 3d de 01 8f 3c 24 fd 14 3e
       0.0020060202 0.07055821 0.017456945 0.1454969
000060 09 46 25 3b 00 57 b3 bb e5 d9 f7 3e 9f e3 64 3c
       0.0025218746 -0.0054730177 0.48408428 0.013970285
000070 44 cf 91 3a 46 7a 93 bb dc cc 7c 3c f3 7c 27 3e
       0.0011124392 -0.00450066 0.015429702 0.16356258
000080 38 24 7c 3a da 57 8c ba 78 3c 3f bb 60 50 a0 3c
       0.0009618434 -0.0010707334 -0.002918033 0.019569576
000090 da e3 de 3c 81 d3 44 3b 16 2e 59 bb ba 0e 48 3c
       0.027208257 0.0030033293 -0.0033139042 0.012210542
0000a0 85 f8 ec 3d b4 74 93 3c 17 81 01 3c 85 d5 5b 3d
       0.11570839 0.017999984 0.007904313 0.053670425
0000b0 ba 29 08 3d 9d 9d 69 3c 4b b6 cc 3c 2b 52 0d 3d
       0.03324292 0.014258769 0.024989268 0.03450219
0000c0 30 fb 65 bb 60 b1 3d 3d 3e 57 2d 3a 0c 85 19 3b
       -0.0035092346 0.046311736 0.00066124264 0.002342525
0000d0 28 61 7b bb 42 65 71 3d a3 ee f9 ba ef 4a b2 3c
       -0.003835747 0.058934458 -0.0019068312 0.021764247
0000e0 5f d4 4d 3e c4 9e cc 3c 57 1a f9 3d 3a 20 24 3b
       0.20100544 0.02497805 0.12163227 0.0025043623
0000f0 fa b4 85 ba b7 57 95 bb 51 eb 96 3c 11 1f d9 3b
       -0.001020103 -0.0045575756 0.018422754 0.006626018
000100 7f 97 d1 39 eb 46 10 3e 7d b7 a6 3d 1f c0 06 bb
       0.0003997646 0.14089553 0.08140466 -0.002056129
000110 e7 6e eb 3d 55 7a 98 3c 9d 09 62 3b ef 64 4d 3b
       0.11495762 0.01861302 0.0034490593 0.0031340679
000120 66 11 e9 3d e3 07 2d bb a0 82 e6 3c 68 eb 46 3e
       0.113802716 -0.0026402406 0.028138459 0.19425738
000130 3f 5b e8 3d cf fe 33 ba fb 7b a1 3a 2d ce 6c 3a
       0.11345529 -0.00068662775 0.0012320274 0.0009033408
000140 c6 c5 6e 3b e2 38 0d 3c 55 e0 f9 3c e2 86 70 3c
       0.00364338 0.008619519 0.030502478 0.014680596
000150 29 b4 e0 3d 4b 1e 13 3c c7 9b 0c 3b 23 dc 5d bb
       0.10971863 0.00897939 0.0021455155 -0.0033853136
000160 f8 d6 03 3e 19 d1 8c 3d c9 40 28 3e aa a4 89 39
       0.12874973 0.0687582 0.16430964 0.0002625336
000170 4f c4 40 bb 92 07 ec 3d 4c cb 23 3e 15 5a c9 3c
       -0.0029413884 0.115248814 0.1599552 0.024579087
000180 de 5c b5 3c d2 7e 4b bb 00 8e 90 3d 33 21 ee 3c
       0.02213901 -0.0031050933 0.07058334 0.029068565
000190 83 ce e3 3d 66 d1 e7 3d 8d 99 98 3b a4 8c 0a 3c
       0.11123373 0.113192365 0.0046569766 0.008456383
0001a0 91 3c 17 3e 6b 67 60 bb 2a 50 96 3d c3 3b 22 3d
       0.14769198 -0.003424133 0.07339509 0.039607774
0001b0 be 87 64 3e 8e 7b 6f 3d ea d1 57 3e 52 5d 56 3c
       0.22317407 0.05846744 0.2107617 0.013083773
0001c0 5b 86 d5 3c af 1a a8 3d 62 71 06 3e 4d b0 86 3d
       0.026065042 0.082082145 0.1312919 0.065765955
0001d0 5b bf 5e 3b 9c 62 ec 39 f0 7b 12 3e 2c 37 29 3e
       0.0033988568 0.00045086897 0.14305091 0.16524953
0001e0 6c e9 bd 3c 3b 65 32 bb 54 6e 9a 3b 40 83 46 bb
       0.023182593 -0.0027220983 0.004712859 -0.0030290633
0001f0 72 83 8b 3c bb c4 0a 3d 4c e6 cc b9 21 a8 e8 3d
       0.017030451 0.033879023 -0.00039081497 0.11360193

bias f4 [128]
000000 fb 2c 2d be 5f d0 f8 3b a3 54 87 bb ec f2 c2 bc
       -0.1691169 0.007593199 -0.0041299625 -0.023797475
000010 5e 8e 3d be fb e0 67 3e 2c e6 3f be 90 c3 42 be
       -0.1851134 0.22644417 -0.18740147 -0.19019914
000020 73 a8 bb bd 67 50 b6 bd 2b af aa bb cf d3 77 3e
       -0.091629885 -0.08902054 -0.00520887 0.24201892
000030 d6 e4 55 bc f7 fb 27 be a3 1a 3c be 6a ef 74 3e
       -0.013055047 -0.1640471 -0.18369536 0.23919454
000040 d7 05 3a be 4f 43 83 3e 51 8d 76 3e 73 da f1 bd
       -0.1816629 0.2563729 0.24077345 -0.11809244
000050 d0 ce e3 bb c9 d1 43 be 6f ef 01 bd fb 32 39 be
       -0.006952144 -0.19122995 -0.031722482 -0.18085854
000060 61 2f 0f be 4e c4 0e 3d e5 b4 10 bc df 56 39 be
       -0.13982917 0.03485518 -0.008832191 -0.18099545
000070 d9 77 16 3e cd b4 83 3e c8 35 3b be 25 00 d1 bd
       0.14694156 0.25723878 -0.18282235 -0.10205106
000080 91 76 ab bb c2 48 3a be e3 84 cd bd a9 d1 ee 3d
       -0.00523264 -0.18191817 -0.10035112 0.11661083
000090 d8 b8 91 3c 3c bb 10 be 9c a0 35 be 7f a2 9e 3e
       0.017788336 -0.14133924 -0.17737049 0.3098335
0000a0 f1 75 d2 bb 95 19 37 be 85 e7 75 bd 69 a2 19 be
       -0.006422751 -0.17880853 -0.060035247 -0.15003361
0000b0 54 5f 2a be d1 97 c4 bd 33 85 42 be 6f 7b 9b 3d
       -0.16637927 -0.09599269 -0.18996124 0.075919025
0000c0 77 f1 77 3e 33 ca d6 bd fa d7 07 be b5 82 ce 3c
       0.24213205 -0.10487785 -0.13265982 0.02520881
0000d0 88 71 42 be 87 8f d2 bd 14 ed de bd 49 8f 80 bc
       -0.18988621 -0.10281282 -0.10885063 -0.015693324
0000e0 33 6b 85 bd 32 34 a7 bd a8 04 43 be 13 5d 09 be
       -0.06514587 -0.08164252 -0.19044745 -0.13414411
0000f0 77 29 0d bc c0 c8 ed 3c ac 51 39 be bc 7b 6f 3e
       -0.008615843 0.02902639 -0.18097562 0.23387045
000100 79 b7 e8 bd ed a5 36 be c1 ac 51 3e 70 7a c4 bd
       -0.1136312 -0.17836733 0.20476057 -0.095936656
000110 fb d4 3f be d6 35 83 bc 28 a8 24 bd be 9d 4a be
       -0.1873359 -0.016016882 -0.04019943 -0.19786736
000120 60 b0 5a 3e 7f 71 3b be cd be 40 be 76 8c 27 be
       0.21356344 -0.18305014 -0.18822785 -0.16362175
000130 00 10 f2 bd 63 4b 2b be cf 66 98 3a ca ff 2f 3c
       -0.11819458 -0.16727977 0.0011627319 0.010742137
000140 5b 9b b2 bb 2c c1 8f bd 7e ce 8b 3e a1 6b 36 be
       -0.0054506487 -0.070192665 0.2730598 -0.17814495
000150 ed 96 25 3c de f7 3e be 56 34 0b be e1 9f 42 be
       0.010106784 -0.18649241 -0.13594183 -0.19006301
000160 9e 66 82 bc ba 36 20 3c d5 0c 2e 3c 5b dc 5d 3e
       -0.015918072 0.009778673 0.010623177 0.2166609
000170 35 9d 06 bc 51 4d 71 3e 61 43 2a be e3 1f 36 be
       -0.008216192 0.2356465 -0.16627266 -0.17785601
000180 27 bb d4 b8 6c d3 ca bd 3c bb 3b be 53 c8 51 bb
       -0.000101438076 -0.09903607 -0.18333143 -0.0032010272
000190 07 69 ac 3e 8e d2 3a be 72 b6 73 3e b8 dc f6 bb
       0.3367388 -0.18244383 0.23800066 -0.007533636
0001a0 c8 85 88 3e 28 47 20 be ed 9e 39 be f5 e9 3a bb
       0.26664567 -0.15652144 -0.18127032 -0.0028520797
0001b0 49 45 0e 3d 57 24 49 be b2 49 55 3e 94 14 2a be
       0.034734044 -0.19642769 0.20828894 -0.16609412
0001c0 44 d7 3c be f5 32 c5 bb f4 71 c5 bd fd 12 44 be
       -0.18441492 -0.0060180374 -0.096408755 -0.19147868
0001d0 a1 eb a3 bb 3b 35 91 bd e2 4d 06 3c b3 69 3f be
       -0.0050024544 -0.07090231 0.00819728 -0.18692665
0001e0 89 28 15 bd 59 b4 5e 3e 96 05 16 be 8e 68 39 be
       -0.03641561 0.21748485 -0.14650568 -0.1810629
0001f0 11 fc 8e 3d 5a 02 84 bc b7 d2 86 3e 0e c5 38 be
       0.069816716 -0.016114403 0.26332638 -0.1804392

weight_orig f4 [128, 128]
000000 9c d5 d6 3c 7f 5d fc ba 61 ae 24 3d 64 82 a1 3b
       0.026224904 -0.0019253938 0.040205363 0.004928874
000010 ea 96 27 bb 33 69 8e 3d 92 4d 1b 3d d7 9c cf 3b
       -0.002557213 0.06953659 0.037915774 0.0063358354
000020 1b 90 4c bb 40 94 15 3d 5c be 1c 3d 61 aa 49 3b
       -0.0031213823 0.036518335 0.03826748 0.003077172
000030 dd a9 94 38 85 a9 fb 3b 98 06 44 3d dd ba 56 3d
       7.0888294e-05 0.0076801204 0.04785785 0.0524243
000040 d8 58 25 3d ae 63 bb bb 9e 61 8d bb a0 cf 2d 3d
       0.04036793 -0.00571867 -0.0043146154 0.042434335
000050 9e 5b 16 bb ce a7 9a 3c 63 fb 45 bb a1 62 02 3d
       -0.0022942792 0.018878844 -0.0030209653 0.03183234
000060 fc 19 57 bb 8d ed b4 3b 41 68 06 3e 82 0c 20 bb
       -0.0032821884 0.0055214823 0.13125707 -0.0024421518
000070 f6 63 90 ba 1e 25 6a bb 1d e0 de 3b a2 a3 29 3d
       -0.0011016119 -0.003572769 0.0068016187 0.041415818
000080 6f 10 20 3b 34 c3 0e 3b 66 45 fd ba 1c 57 ba 3b
       0.0024423858 0.002178383 -0.001932305 0.005686654
000090 eb af 72 3c 2d 74 7a bb b6 ea bc 3b 82 bd a6 ba
       0.01481245 -0.0038216219 0.0057652844 -0.0012721273
0000a0 af 8a 1d 3d 19 99 6f 3b 77 20 db 3b 44 5f 6d 3c
       0.038462337 0.003655976 0.0066872197 0.014488045
0000b0 9d c4 8f 3c b6 ee 96 b9 22 05 e0 3b 30 10 00 3c
       0.017549807 -0.00028788083 0.0068365494 0.007816359
0000c0 2c 77 54 3b d2 3b bd 3c 27 53 b7 3b 24 c4 cc 39
       0.0032419665 0.023099814 0.0055946293 0.00039056048
0000d0 e6 60 34 3b b7 35 12 3d d8 44 8c 3b 39 40 57 3c
       0.0027523576 0.035695758 0.0042806678 0.0131378705
0000e0 6e a6 89 3d 76 d8 80 3c 40 39 21 3d b0 2b 94 bb
       0.06721197 0.015728217 0.03936124 -0.0045218095
0000f0 4e bd 38 bb e8 d9 aa 3b 6b db 71 3a 52 37 01 3c
       -0.0028189006 0.0052139647 0.0009226116 0.007886725
000100 b6 49 7b bb d4 ea 3a 3d a3 00 d5 3c fb e6 9c 3b
       -0.0038343496 0.045634106 0.02600128 0.004788277
000110 d5 8f 2e 3d ad 08 b1 3a 07 b1 a8 3a ad 32 0a 3b
       0.042617638 0.0013506614 0.0012870141 0.0021087334
000120 1a a1 2a 3d 81 bc de ba 5a fa 53 3c 88 e1 85 3d
       0.041657545 -0.0016993434 0.012938106 0.06537157
000130 15 d2 2d 3d 8e d5 52 ba 42 84 56 bb c2 07 92 bb
       0.042436678 -0.00080426864 -0.003273264 -0.004456491
000140 40 a2 06 3c 97 10 f5 3b 56 b8 d6 3b 3a 95 e8 3b
       0.008217394 0.0074787843 0.0065527363 0.0070978673
000150 18 ca 18 3d 98 c9 e7 ba 86 0e 6a bb 1e 85 33 3b
       0.037302107 -0.0017683981 -0.0035714223 0.0027392576
000160 a2 e9 30 3d 6f 12 a6 3c c9 33 72 3d e5 90 77 3b
       0.04319156 0.020272462 0.059131417 0.0037775573
000170 22 b1 42 3b 8b 5f 1b 3d d2 89 6c 3d 3a 40 63 3c
       0.002970763 0.037932914 0.057748623 0.013870293
000180 af df 8b 3b 1f 02 c9 3b 06 ea 9c 3c c5 3a 7f 3c
       0.0042686085 0.006134286 0.01915456 0.015577977
000190 44 21 2d 3d 75 1d 0c 3d 00 2f ea 3b 27 b3 fb 3b
       0.042268053 0.03420778 0.007146716 0.0076812687
0001a0 e6 f1 5d 3d 0d d6 8e 3b e0 83 da 3c 93 14 9a 3c
       0.05418577 0.004359013 0.026674211 0.018808639
0001b0 17 6d 57 3d 10 c2 0a 3d 40 91 8c 3d 7a 8b 0e bb
       0.05259427 0.03387648 0.06863642 -0.0021750615
0001c0 0c 57 7a 3c ff 55 f5 3c 05 19 4e 3d fa 21 30 3d
       0.015279543 0.029948233 0.05031683 0.043001153
0001d0 ac f2 4b 3b b5 0d ad 3b 88 e6 3f 3d 79 03 2b 3d
       0.0031119986 0.005281175 0.04685071 0.04175136
0001e0 39 80 82 3c 5a e0 b4 bb e4 80 e8 3b 7c 49 96 ba
       0.015930282 -0.005519909 0.007095443 -0.0011465992
0001f0 12 45 87 3b 17 6f f2 3b 16 33 2f bb ee 7d 2b 3d
       0.004128107 0.007398497 -0.002673333 0.041868143
000200 11 92 00 ba 6f c6 3d bb d2 3d ee 39 5c c2 76 bb
       -0.0004904578 -0.0028957387 0.00045440957 -0.0037652468
000210 6f e7 b1 3a a0 9f a7 3b 63 28 ba 3a 09 2e fa 39
       0.0013573001 0.0051154643 0.001420271 0.00047718015
000220 91 a5 93 bb 05 9f d5 39 9e 92 cb 3a 10 53 39 3b
       -0.004505821 0.00040745005 0.0015531366 0.002827827
000230 7e be 30 3a 98 d3 7c 3a 97 18 a7 3b b7 39 a3 3b
       0.0006742253 0.0009644567 0.005099367 0.0049812454
000240 10 d1 98 3b 91 26 9a bb 48 38 61 3a 46 2b e5 39
       0.004663594 -0.0047043045 0.00085914554 0.00043710525
000250 dd 92 95 bb eb 56 12 ba ab 6e ed b9 3d 68 41 3a
       -0.0045646266 -0.000558241 -0.00045286617 0.00073778984
000260 93 d8 13 bb 6a a3 7b 3b 3d a7 e6 3b 60 01 9e 3b
       -0.0022559508 0.0038396963 0.0070389793 0.0048219413
000270 0f 88 94 ba e1 43 96 3b 1c 75 10 ba 68 73 db 3a
       -0.0011332053 0.0045857285 -0.0005510615 0.0016742768
000280 bb cf 0b 3c b2 e0 1a 3b d5 5d d0 ba 32 af 01 3c
       0.0085334135 0.0023632464 -0.0015897105 0.007915305
000290 2b 26 d5 3b de e9 d7 3a 83 db 0c bb 01 6c 8d 3b
       0.006504794 0.0016472896 -0.0021493144 0.0043158536
0002a0 e2 fb d2 39 93 99 98 ba 07 e0 c8 3b 8f c8 d5 b9
       0.0004024199 -0.0011642448 0.0061302218 -0.00040775954
0002b0 6e a1 e3 3b 7e ff 70 3b 7a fd 32 3c da 6f 7e bb
       0.006946734 0.003677338 0.010924691 -0.0038823993
0002c0 45 61 40 ba ad d7 40 3c 1e ea be ba 8f 78 00 ba
       -0.0007338713 0.011770171 -0.0014565622 -0.0004900777
0002d0 78 7c 40 3b ea 34 4f 3c 48 e9 f3 3b 93 4e e3 3b
       0.0029371064 0.012646893 0.007443581 0.006936857
0002e0 5b af aa 3b 87 cc c3 3b a3 39 61 3a 15 41 09 3a
       0.0052088923 0.0059753093 0.00085916574 0.0005235833
0002f0 da 7c b9 38 c4 b1 2c bb 30 65 e1 3b 5b 38 40 ba
       8.844743e-05 -0.0026351074 0.0068785176 -0.00073326164
000300 8c 01 40 39 4e 00 cf 3a 75 77 0f ba 4f 67 05 ba
       0.00018311123 0.0015792937 -0.00054728176 -0.00050889415
000310 c2 f3 a7 39 fe be 7b 3a 17 33 11 ba 56 73 0f 3b
       0.00032034336 0.000960335 -0.0005538924 0.0021888814
000320 3f 0a 27 3a e9 f6 b8 39 c9 6f c4 3b ee 86 aa 3b
       0.0006372071 0.00035279177 0.005994771 0.005204073
000330 58 70 93 3b c6 a4 7a 39 94 53 10 bc d7 fb 81 3a
       0.0044994764 0.00023903241 -0.008808989 0.0009916973
000340 b7 a8 81 3b 89 02 d8 ba 22 ef 00 3b 1a 64 2f ba
       0.00395688 -0.0016480248 0.0019673784 -0.00066906365
000350 39 da 58 39 09 40 19 bb e9 18 a8 bb 82 ac 1b 3b
       0.0002068066 -0.0023384115 -0.0051299226 0.0023753946
000360 fd b6 97 3a cc 0a cd 38 8a 37 af 3b be c1 94 bb
       0.001157492 9.777173e-05 0.005347197 -0.0045396974
000370 55 18 28 3b 8c 3a fd 39 d1 f2 ae 3b 3d 95 89 3b
       0.0025649269 0.0004829954 0.0053390046 0.004198699
000380 9b 4c 82 3b a6 cb 4a 3b 29 bd 64 ba 72 96 dc 3b
       0.0039764172 0.0030944138 -0.0008725697 0.0067318017
000390 eb 2a 3a 3a 27 81 db 3a b4 dc 82 3b 4e 1d 8f b9
       0.0007101732 0.0016746864 0.003993595 -0.0002729692
0003a0 82 26 ad 3b 31 7b 49 3b f1 9f e2 b9 9e 61 df 3b
       0.0052841315 0.0030743594 -0.00043225245 0.006817057
0003b0 c3 37 e5 3a 70 09 4b 3c 47 6e a8 3b bd 3e 85 ba
       0.0017487932 0.012392387 0.005140099 -0.0010165792
0003c0 7a 31 e7 3b 2e 50 5e 39 56 98 be 39 af 21 55 3c
       0.0070554586 0.00021201439 0.00036353123 0.013008519
0003d0 21 2f 53 3b fb 2e 6f 3b 05 7f d0 3a 55 f5 df 3a
       0.0032224136 0.0036496508 0.0015906995 0.0017086664
0003e0 f7 bb 94 3b 24 d2 01 bb 9f 0c 11 3c 4a 25 bd 38
       0.0045390087 -0.0019809091 0.008853107 9.019168e-05
0003f0 1e 37 e9 3b 51 c3 9f 3b 80 e4 55 bb 49 6b 2c 3a
       0.007117166 0.0048755785 -0.0032637417 0.0006577266

weight_u f4 [128]
000000 bd b9 24 be 80 13 42 bc 5c 33 a0 bb e7 6c 95 bc
       -0.16086479 -0.0118454695 -0.004888935 -0.018240405
000010 0d 5b 13 be 63 40 c4 3d 07 1a 18 be 52 f8 fd bd
       -0.14390202 0.09582593 -0.14853679 -0.12400879
000020 9a ce 05 ba a9 91 4f bd 6c 91 61 bc 06 b5 b2 3d
       -0.00051043334 -0.05067602 -0.013767581 0.08725934
000030 24 18 98 3c 5e 0f 04 be 10 a3 01 be 52 e3 b3 3d
       0.018566199 -0.12896487 -0.1265986 0.08783592
000040 1b c2 f9 bd d5 d3 d9 3d 1b 73 b7 3d dc 2c 85 bd
       -0.12195226 0.10636107 0.089575015 -0.06502697
000050 17 8c 8b bb 2b bd f1 bd 91 32 be bc 32 14 da bd
       -0.0042586434 -0.11803659 -0.023217471 -0.10648383
000060 de da 9f bd 73 66 75 bb 73 9f 03 bb fe f2 dc bd
       -0.078054175 -0.0037445098 -0.0020084053 -0.107885346
000070 90 df 6c 3d 1e 45 de 3d ca c7 00 be fd 36 79 bd
       0.057830393 0.10853027 -0.12576213 -0.060843457
000080 28 29 9d bc 39 ed 08 be 2a 98 75 bd 47 77 39 3d
       -0.019184664 -0.13371743 -0.059959568 0.045279767
000090 9f ad fe bb df fd ce bd f2 52 d3 bd 39 9e 00 3e
       -0.007772162 -0.10107016 -0.10318555 0.12560357
0000a0 95 98 85 bc 1e b1 e6 bd 83 23 13 bd 8c 44 9b bd
       -0.016308108 -0.11264251 -0.03592254 -0.07581434
0000b0 e7 ad 1b be 64 de 61 bd 80 04 14 be 06 95 ba 3c
       -0.15203057 -0.05514373 -0.14454842 0.022776138
0000c0 8e d8 cd 3d bb 2b 76 bd 24 a8 ed bd 63 7b a1 bb
       0.1005107 -0.0601003 -0.11604336 -0.004928039
0000d0 37 12 0d be 03 39 6c bd bc 4a 8b bd 9a de af 3a
       -0.1377648 -0.057671558 -0.06801364 0.0013417781
0000e0 fa 8f 08 bc a9 e2 22 bd 0b 99 0c be e8 ea a8 bd
       -0.008335108 -0.03976694 -0.13730256 -0.0824793
0000f0 2f 25 19 bc 24 12 4b 3b b0 01 db bd 45 7f a9 3d
       -0.009347244 0.0030986154 -0.10693681 0.08276228
000100 79 6c 4b bd f5 d2 d7 bd eb 7f 92 3d 6a b4 5f bd
       -0.049663994 -0.10538284 0.07153305 -0.054615416
000110 7c 7f 09 be 4d 8d cb ba c0 1e 00 bd 3f 16 01 be
       -0.13427538 -0.0015529782 -0.031279325 -0.12606142
000120 08 be 9a 3d 73 e1 1b be 67 44 1b be 16 d2 c6 bd
       0.07555777 -0.15222721 -0.15162812 -0.097080395
000130 48 14 76 bd a4 11 19 be 53 45 ed bb 4d 76 8e bc
       -0.060077935 -0.14948136 -0.00724093 -0.017390395
000140 f7 6f 90 3c 78 33 21 bd e6 7d c9 3d 55 f2 d6 bd
       0.017631514 -0.039355725 0.09838466 -0.1049544
000150 d8 9b 5b 3c 87 d6 17 be 2a 40 03 be 85 db 12 be
       0.013403855 -0.1482793 -0.12817445 -0.14341553
000160 a4 8e 8b 3a 58 e1 72 bc f9 2a 3c bc a4 a4 9f 3d
       0.0010647369 -0.014824234 -0.011484855 0.077950746
000170 0f 75 14 bc f7 d6 cb 3d 63 ed e1 bd 3c e7 e0 bd
       -0.009061112 0.09953111 -0.11031606 -0.109816045
000180 8e 02 de bc bb 64 72 bd 26 4c 12 be b2 99 52 3b
       -0.027100828 -0.059178095 -0.14286861 0.0032135067
000190 00 5d 01 3e 69 b2 f8 bd f1 7d bb 3d 43 3d 2f bc
       0.12633133 -0.12143404 0.09154881 -0.010695758
0001a0 a8 f9 c2 3d 44 05 c3 bd 0f 6c db bd af 75 f4 bb
       0.095202744 -0.09522489 -0.1071397 -0.007460318
0001b0 9e 1e aa b7 dd bc 18 be b3 1e 96 3d bd 40 17 be
       -2.0279836e-05 -0.14915796 0.07330074 -0.1477079
0001c0 b8 e5 f5 bd b9 78 3d bc 6d 01 74 bd d4 e8 f0 bd
       -0.12006706 -0.011564427 -0.059571672 -0.117631584
0001d0 f2 80 4f bc a8 f5 14 bd 5f 21 67 3c cc 65 0f be
       -0.01266502 -0.03636709 0.014107077 -0.14003676
0001e0 e9 52 58 3c cc 87 a7 3d 80 a3 b2 bd 84 91 e9 bd
       0.013203361 0.08180198 -0.087225914 -0.11404708
0001f0 e8 b0 82 3c 05 4a 6c bc 62 48 bf 3d a2 62 d8 bd
       0.015953496 -0.0144219445 0.09339978 -0.10565688

weight_v f4 [128]
000000 90 9d aa bd 64 87 f4 3b 97 56 ec bd 56 72 b9 bc
       -0.08330834 0.007462429 -0.11539953 -0.022637527
000010 82 c1 75 3c ed c2 58 be 32 77 fb bd a0 64 e3 bc
       0.014999749 -0.21168108 -0.12278594 -0.027757943
000020 c3 a9 6c 3c 77 3f dd bd e0 25 0a be 52 c5 c5 ba
       0.014444771 -0.108031206 -0.1349101 -0.0015088713
000030 71 be 8d 3a fa e9 fa bc 7a 3f 17 be ea c0 1a be
       0.0010814202 -0.030629147 -0.14770308 -0.15112653
000040 ad c3 da bd 14 90 ce 3c 5d a9 bd 3c 21 ff dc bd
       -0.106818534 0.025215186 0.023152048 -0.107908495
000050 95 00 2a 3c 73 01 8f bd fa 2b 00 3c a8 74 12 be
       0.010376115 -0.06982698 0.007822985 -0.14302313
000060 1e 37 59 3c a3 3a c4 bc b0 d1 dc be 21 2f 5e 3c
       0.01325777 -0.023953741 -0.4312873 0.013561041
000070 90 90 85 3b d5 66 88 3c a4 7a a1 bc cb df 26 be
       0.004076071 0.016650597 -0.0197118 -0.16296308
000080 7b 46 21 bc 39 41 0c bc ac 5f 6e 3c fd 42 86 bc
       -0.009843464 -0.008560472 0.014549177 -0.016389364
000090 9e 91 1a bd 00 35 a8 3c 70 7a bd bc 63 3b f8 3b
       -0.037736528 0.020533085 -0.023129672 0.007575439
0000a0 60 85 e3 bd 28 92 01 bc e0 e6 c7 bc ad ef 27 bd
       -0.11109424 -0.0079083815 -0.024402082 -0.041000057
0000b0 57 3d 18 bd 7d eb 25 3b c9 ba 82 bc da b6 9c bc
       -0.037167873 0.0025317364 -0.015958207 -0.01913016
0000c0 48 8a 9c bc 5d 73 81 bd 51 57 c5 bc 1c 11 88 3a
       -0.019108906 -0.06320832 -0.024089487 0.0010381076
0000d0 ae 5b 6c bc b7 c7 b2 bd a8 68 7f bc 6d 9e f7 bc
       -0.014426155 -0.08729499 -0.015588917 -0.03022691
0000e0 2a 82 54 be 6b 4a 5b bd 8f 81 f2 bd 8a 3a 91 3c
       -0.20752779 -0.053537767 -0.118411176 0.017728109
0000f0 11 f0 80 3c ed 9e c7 bc 5c c4 b2 bb 25 6b 02 bd
       0.015739473 -0.024367774 -0.005455537 -0.031840462
000100 f2 26 a1 3c 7b e1 10 be 64 5b 9e bd 1d 99 b3 bc
       0.01967189 -0.14148514 -0.07732275 -0.021923596
000110 ad 82 e0 bd 63 a8 60 3a 50 42 25 bc e5 7b d2 bb
       -0.109624244 0.00085700135 -0.010086611 -0.006423461
000120 ed 5f e0 bd da 21 51 3c 48 59 23 bd 9e 99 4f be
       -0.109557964 0.0127644185 -0.039880067 -0.20273444
000130 47 7f ec bd 5b e2 e5 3b 08 f0 5d 3c 3f b9 c0 3c
       -0.11547714 0.007015509 0.013545997 0.023525832
000140 d9 fd 03 bd 41 64 f3 bc 19 5a 02 bc d6 98 cf bc
       -0.03222451 -0.02971089 -0.007956051 -0.025341433
000150 cb 4a d6 bd ce f5 0b 3c 2e 2f 5a 3c dd 09 67 bc
       -0.104634844 0.008542491 0.013316913 -0.014101473
000160 09 b4 01 be 23 aa 90 bd 7b 88 30 be 08 a7 8f bc
       -0.12666334 -0.07063701 -0.17239563 -0.017535701
000170 be 26 6d bc c9 f1 e2 bd 43 60 2d be 77 34 18 bd
       -0.014474569 -0.11081273 -0.16931252 -0.03715941
000180 f4 b4 5c bc 3a 22 d5 bc a1 14 8b bd 29 92 0f bd
       -0.013470877 -0.026017297 -0.06791044 -0.0350515
000190 f0 ef dd bd 78 8a f5 bd e0 b9 d6 bc b9 14 d9 bc
       -0.1083678 -0.119893014 -0.026211679 -0.02649914
0001a0 6a 1a 24 be c2 a3 98 bc 87 1e 99 bd ef d0 36 bd
       -0.16025701 -0.018632773 -0.07476526 -0.04463285
0001b0 23 54 62 be 45 72 b3 bd 6a 7f 57 be 74 95 81 3c
       -0.22102408 -0.087620296 -0.21044698 0.015818335
0001c0 f8 74 fe bc 85 28 a6 bd 9f 06 02 be 15 e5 cc bd
       -0.031061634 -0.08113197 -0.12697838 -0.100046314
0001d0 dd 04 1c bc 23 7c b1 bc 4e e3 12 be 27 cc 28 be
       -0.009522644 -0.021665638 -0.14344522 -0.16484128
0001e0 84 dc 3d bd ce 40 c7 3c 4f af ed bc 91 bc ea 3b
       -0.04635288 0.024322893 -0.029014258 0.007163592
0001f0 51 a0 ee bb 69 95 99 bc f0 19 5e 3c 0a 89 e1 bd
       -0.007282295 -0.018748002 0.013555989 -0.11012466

weight f4 [128, 128]
000000 29 e9 57 3c 30 a1 7d ba 9a 81 a5 3c 8c 51 22 3b
       0.013178148 -0.0009675203 0.0202034 0.0024767844
000010 de 6d a8 ba dc 1f 0f 3d c4 14 9c 3c 21 a7 50 3b
       -0.0012850126 0.034942493 0.01905287 0.0031837898
000020 7c 96 cd ba 1b 54 96 3c 67 87 9d 3c 0a ad ca 3a
       -0.0015685107 0.018350651 0.019229604 0.0015462947
000030 8b 68 15 38 4f ec 7c 3b 05 02 c5 3c 48 ce d7 3c
       3.562173e-05 0.0038593 0.024048815 0.02634348
000040 ec 2c a6 3c 08 54 3c bb f5 16 0e bb 8f ae ae 3c
       0.020285092 -0.002873661 -0.0021681164 0.02132347
000050 78 1c 97 ba 2b 6e 1b 3c 53 f9 c6 ba dd 09 83 3c
       -0.001152887 0.009486715 -0.0015180506 0.015995914
000060 e1 2d d8 ba 9d d5 35 3b a6 14 87 3d ca d9 a0 ba
       -0.0016493165 0.0027745732 0.06595735 -0.0012271937
000070 29 1d 11 ba 70 51 eb ba fb fd 5f 3b 37 7d aa 3c
       -0.0005535656 -0.0017953347 0.0034178484 0.02081166
000080 bc dd a0 3a 50 7a 8f 3a 40 8a 7e ba 1d 46 3b 3b
       0.0012273113 0.0010946486 -0.0009709932 0.0028575726
000090 32 e7 f3 3b 6a b5 fb ba 05 dd 3d 3b 5f 93 27 ba
       0.007443332 -0.0019203846 0.002897085 -0.00063925044
0000a0 c0 54 9e 3c 69 cc f0 3a 86 39 5c 3b ba 8f ee 3b
       0.019327521 0.0018371466 0.0033603623 0.007280317
0000b0 03 7d 10 3c 4d b0 17 b9 77 24 61 3b 72 b4 80 3b
       0.008818868 -0.0001446616 0.003435401 0.0039277608
0000c0 af 87 d5 3a 89 2e 3e 3c 4a 3e 38 3b c7 ca 4d 39
       0.0016291047 0.0116077745 0.00281133 0.00019625864
0000d0 42 48 b5 3a 3f f1 92 3c c2 f8 0c 3b 4f 54 d8 3b
       0.0013830739 0.0179373 0.0021510576 0.0066018472
0000e0 fc 56 0a 3d b9 7d 01 3c 0a 08 a2 3c bc e9 14 bb
       0.03377436 0.00790351 0.019779224 -0.0022722324
0000f0 42 aa b9 ba 0b b5 2b 3b a1 11 f3 39 0e dd 81 3b
       -0.0014165121 0.002620044 0.00046361706 0.0039631194
000100 05 8c fc ba 93 da bb 3c d7 11 56 3c 3a b0 1d 3b
       -0.0019267803 0.022931373 0.013065777 0.0024061338
000110 bb 6f af 3c be eb 31 3a 65 89 29 3a ef e3 8a 3a
       0.021415582 0.00067871425 0.0006467312 0.0010596494
000120 f4 7b ab 3c 31 da 5f ba 3d 0a d5 3b 40 8d 06 3d
       0.020933129 -0.0008539288 0.0065014646 0.03284955
000130 07 b1 ae 3c fa e3 d3 b9 67 97 d7 ba 0f c3 12 bb
       0.021324648 -0.00040414912 -0.001644832 -0.0022394096
000140 ef 4e 87 3b ea 4a 76 3b be cb 57 3b 8b bf 69 3b
       0.0041292827 0.0037581273 0.0032927836 0.0035667147
000150 11 8e 99 3c e4 f2 68 ba bb 3a eb ba 60 6b b4 3a
       0.0187445 -0.0008886291 -0.001794658 0.001376491
000160 8c cc b1 3c 71 e7 26 3c 71 6a f3 3c 6e ce f8 3a
       0.02170398 0.010187016 0.029713841 0.0018982419
000170 d9 aa c3 3a d4 26 9c 3c 36 b9 ed 3c b4 63 e4 3b
       0.0014928236 0.019061483 0.02901898 0.0069698934
000180 17 93 0c 3b f0 03 4a 3b 49 b3 1d 3c 11 41 00 3c
       0.0021449977 0.00308251 0.009625264 0.007828013
000190 54 ff ad 3c 2c d1 8c 3c 5f 5b 6b 3b fd f5 7c 3b
       0.021239914 0.017189585 0.0035912616 0.003859877
0001a0 92 0e df 3c 41 8d 0f 3b 26 9c 5b 3c 34 da 1a 3c
       0.027228627 0.0021904262 0.013403928 0.009451438
0001b0 67 81 d8 3c 09 74 8b 3c 8c 45 0d 3d 4f 42 8f ba
       0.026428891 0.017023103 0.034490153 -0.0010929796
0001c0 24 98 fb 3b ab 90 76 3c 5e 21 cf 3c e3 03 b1 3c
       0.0076780487 0.01504914 0.025284465 0.021608299
0001d0 43 f8 cc 3a ab eb 2d 3b ab dc c0 3c d2 de ab 3c
       0.0015637953 0.0026538174 0.023542723 0.020980272
0001e0 9b 27 03 3c 59 c8 35 bb 1b ab 69 3b 3f 0a 17 ba
       0.008005048 -0.0027737825 0.0035654965 -0.00057617197
0001f0 92 f2 07 3b 0b a6 73 3b cd 13 b0 ba e4 59 ac 3c
       0.0020743948 0.0037177827 -0.0013433635 0.021038957
000200 f9 36 81 b9 d8 b9 be ba 65 6f 6f 39 dc fe f7 ba
       -0.00024645755 -0.0014551235 0.00022834314 -0.0018920559
000210 9e cb 32 3a 9f 76 28 3b 28 17 3b 3a ec 6e 7b 39
       0.00068205025 0.002570547 0.00071369344 0.00023978547
000220 f1 62 14 bb 04 b1 56 39 b9 97 4c 3a c4 40 ba 3a
       -0.0022641981 0.00020474574 0.0007804591 0.0014209975
000230 30 a1 b1 39 e0 17 fe 39 e9 ee 27 3b 12 0b 24 3b
       0.00033880165 0.00048464444 0.002562458 0.0025031012
000240 12 95 19 3b 49 ec 1a bb 27 59 e2 39 36 51 66 39
       0.00234348 -0.0023639372 0.00043172503 0.00021964763
000250 b6 52 16 bb 9e 12 93 b9 34 9f 6e b9 4f 60 c2 39
       -0.0022937483 -0.00028051896 -0.00022756757 0.0003707432
000260 34 96 94 ba 2c e6 fc 3a 14 cf 67 3b 09 cc 1e 3b
       -0.0011336268 0.0019294671 0.003537123 0.00242305
000270 92 46 15 ba 9d 04 17 3b 65 2e 91 b9 e1 8c 5c 3a
       -0.0005694415 0.0023043521 -0.00027691122 0.00084133266
000280 0e 83 8c 3b 58 a7 9b 3a 17 69 51 ba 88 55 82 3b
       0.004288084 0.0011875434 -0.0007988377 0.0039774813
000290 8f 37 56 3b ce fe 58 3a 2e 90 8d ba 65 21 0e 3b
       0.0032686924 0.0008277715 -0.0010800415 0.0021687385
0002a0 7f 0a 54 39 4d 5d 19 ba ad e1 49 3b c3 da 56 b9
       0.00020221806 -0.000585039 0.003080468 -0.00020490125
0002b0 65 c5 64 3b 9a 34 f2 3a 0e e3 b3 3b 33 b6 ff ba
       0.0034907695 0.0018478811 0.0054897135 -0.0019509256
0002c0 05 58 c1 b9 05 cf c1 3b fd de 3f ba 57 1d 81 b9
       -0.00036877408 0.005914571 -0.00073192996 -0.00024626657
0002d0 5b 73 c1 3a af 3e d0 3b 21 22 75 3b 20 72 64 3b
       0.001475911 0.0063551287 0.0037404376 0.0034858063
0002e0 48 8a 2b 3b aa c7 44 3b 84 5a e2 39 21 f1 89 39
       0.0026174951 0.0030026236 0.00043173518 0.0002631033
0002f0 c3 6a 3a 38 45 8f ad ba 49 86 62 3b e7 2e c1 b9
       4.4445285e-05 -0.001324155 0.0034564903 -0.00036846774
000300 d2 f7 c0 38 cf 09 50 3a 79 2f 90 b9 6a 12 86 b9
       9.2014336e-05 0.0007936032 -0.0002750119 -0.0002557219
000310 2d cb 28 39 e3 01 fd 39 54 ed 91 b9 54 2b 90 3a
       0.00016097417 0.00048257326 -0.00027833378 0.0010999241
000320 7f e0 a7 39 26 e4 39 39 bd 6b 45 3b a7 61 2b 3b
       0.00032019985 0.00017727967 0.0030124031 0.0026150735
000330 74 2d 14 3b 41 e6 fb 38 b2 0c 91 bb 8f a2 02 3a
       0.00226101 0.00012011501 -0.004426562 0.00049833296
000340 05 4f 02 3b 98 17 59 ba 82 94 81 3a 10 45 b0 b9
       0.0019883525 -0.0008281409 0.0009886178 -0.00033620792
000350 5d f0 d9 38 99 04 9a ba 84 f0 28 bb 2e 74 9c 3a
       0.000103921375 -0.0011750638 -0.0025778124 0.001193648
000360 95 79 18 3a ca 11 4e 38 47 18 30 3b 8b 80 15 bb
       0.0005816457 4.9130795e-05 0.002686994 -0.0022812213
000370 ef ef a8 3a 58 7f 7e 39 36 d3 2f 3b b5 45 0a 3b
       0.0012888889 0.00024270767 0.0026828772 0.0021098678
000380 bb f3 02 3b c2 cf cb 3a 8c e2 e5 b9 60 b1 5d 3b
       0.00199817 0.0015549588 -0.00043847074 0.0033827648
000390 b3 19 bb 39 b2 9a 5c 3a 8d 84 03 3b de d4 0f b9
       0.00035686567 0.00084153854 0.002006802 -0.00013716842
0003a0 98 04 2e 3b 9e 7d ca 3a 9e c2 63 b9 22 80 60 3b
       0.002655303 0.0015448814 -0.00021720908 0.003425606
0003b0 c3 5d 66 3a dc 0d cc 3b 50 46 29 3b a4 e9 05 ba
       0.00087877753 0.006227238 0.0025829263 -0.00051083625
0003c0 03 5a 68 3b 53 6d df 38 cc 8c 3f 39 0d 33 d6 3b
       0.0035454042 0.00010653832 0.0001826763 0.0065368474
0003d0 00 3e d4 3a c3 61 f0 3a 71 8a 51 3a 96 14 61 3a
       0.0016192794 0.0018339682 0.00079933467 0.00085861364
0003e0 bc 7a 15 3b a7 78 82 ba aa c6 91 3b e4 17 3e 38
       0.002280875 -0.000995417 0.0044487314 4.532178e-05
0003f0 3f 62 6a 3b 3b 90 20 3b d8 f6 d6 ba 6f 48 ad 39
       0.0035764126 0.002450003 -0.001640047 0.000330511

bias f4 [128]
000000 85 a0 de bb 35 8b f5 bb 13 6b 5a 3a 80 bf 8b 3c
       -0.0067940378 -0.0074934014 0.00083319953 0.017059088
000010 69 91 39 bc dd f6 39 bc ad 4f 9d 3d 92 03 a5 3d
       -0.011326172 -0.011350361 0.076812126 0.080573216
000020 89 6c 84 3e 6d 15 82 bd dc 3c 87 3e 14 da 27 bb
       0.25864056 -0.06351743 0.2641362 -0.0025612162
000030 ca 4a 85 3e 69 f7 d2 3c 7d 43 96 bd a7 73 fa bb
       0.26033622 0.02575274 -0.07337091 -0.0076431814
000040 62 89 b7 3c 86 fe da bb c7 96 0d 3e 04 82 74 3d
       0.022404376 -0.0066831736 0.13827048 0.059694305
000050 35 a1 69 3e ea f9 fa 3d af f4 c7 3c 00 9a 2d bc
       0.22815402 0.122546986 0.024408666 -0.0105957985
000060 a0 3c 05 bc 00 eb 97 3d 50 69 81 3c a4 a4 2c 3e
       -0.00813213 0.074178696 0.015797287 0.1685968
000070 0a fc 83 bb 48 1d 2c bc 6c 98 83 3e 6a 51 87 bd
       -0.004027848 -0.010505028 0.25702226 -0.066073254
000080 8e 9e 4d bd 98 95 81 bb 97 3e 2d bc 0f cd 1d bb
       -0.050200038 -0.0039546005 -0.010574005 -0.0024078523
000090 d9 5d 97 ba 87 d2 88 3c 43 72 4c bd 93 ca 5f 3d
       -0.0011548355 0.01670195 -0.049913656 0.05463655
0000a0 23 e2 ed bb 0c 7a 28 3b af 0d 77 3e 67 0e b2 bc
       -0.0072596236 0.0025707511 0.24126314 -0.021735383
0000b0 0e a7 c8 3c 2f 92 70 3e c3 b0 94 bd 40 b7 41 3c
       0.02449372 0.23493265 -0.07260277 0.011823475
0000c0 a0 c1 32 bc 77 bb ba bb 05 4e 5c 3c d5 6b 34 bc
       -0.010910422 -0.005698617 0.013446336 -0.011012037
0000d0 9d 0c c7 3c 21 58 92 3b 1f f6 77 3c 82 4a 84 3c
       0.024298007 0.004466072 0.015134363 0.01614881
0000e0 b7 a2 6b 3c 03 54 3c 3e 7c 8e 28 3d ed de 92 bd
       0.014382056 0.18391423 0.04115151 -0.07171426
0000f0 2f 00 ab 3c 41 52 7a 3e 6d 1e 6e 3e 7d 8d e0 bb
       0.020874111 0.2444544 0.23253794 -0.006852804
000100 5d e0 ff bb c4 b7 a8 3c 41 1b 14 bc ca a0 5e bc
       -0.0078087286 0.020595439 -0.009039701 -0.01358814
000110 14 fe 6e 3c 35 24 0e 3e d5 ad 6a 3c 52 ff 1a 3e
       0.014586944 0.13881 0.014323671 0.1513646
000120 ca 32 74 bd 12 1d da 3c dd c6 2d 3a 2b f1 36 bc
       -0.05961875 0.02662519 0.0006629059 -0.011165897
000130 91 b1 89 3e de 90 81 3e aa 5a fb 3a d7 03 e2 bb
       0.26893285 0.25305837 0.00191768 -0.0068974304
000140 c7 54 7b 3c 74 54 e0 bb b5 ad 67 3e 85 a5 72 3a
       0.015340037 -0.006846005 0.22624858 0.0009256232
000150 e9 11 81 3c 5d 7e 9a bd c9 26 7c bd bf a7 e4 bb
       0.01575561 -0.07543633 -0.061560426 -0.0069780047
000160 12 57 36 bc 9f 6b 03 3d 97 a0 90 3c 89 b6 6f bd
       -0.011129158 0.032085057 0.0176547 -0.05852369
000170 0c 22 6d 3c ec 1c 71 3d 2f a0 07 bc 8b 50 a0 bd
       0.014473449 0.058865473 -0.008277937 -0.07827862
000180 46 d1 8f 3c 58 55 73 3e db 0a 92 bd 37 b2 81 bc
       0.017555844 0.23763025 -0.07130977 -0.01583205
000190 23 fe 5c 3e 05 5b 88 bd 90 0a 21 bc 6e bb 6b 3e
       0.2158132 -0.066579856 -0.009829178 0.23020718
0001a0 53 36 51 3e 3d 0f 49 3e 7c 27 7d bd 55 ce 8b 3e
       0.2043088 0.19634719 -0.061805233 0.27305856
0001b0 76 c6 66 3b 07 a0 8b bd ea b2 80 3e bd 1a 07 bc
       0.0035213507 -0.06817632 0.251365 -0.008246121
0001c0 9c 1b 54 3c cb 9b 81 3e e2 0d 0d bc 9f 76 ee bb
       0.012946036 0.25314173 -0.008609267 -0.0072773243
0001d0 0c 0b 14 bc 98 b8 64 bd 31 50 22 bc aa 58 1c 3c
       -0.009035837 -0.055840105 -0.009906814 0.009542624
0001e0 b2 71 0e bc ea b9 28 bc d9 3c 36 3d c5 9f 12 3c
       -0.008694099 -0.010298232 0.044491623 0.008949225
0001f0 49 92 65 bd 0e b4 78 3e 4c d6 8d bd 7c 00 6b bd
       -0.05604771 0.24287435 -0.069256395 -0.05737351
