wgan_results/mgum/uniform/generator.pth (torch_old, 550875 bytes, 19 tensors)

weight f4 [256, 5]
000000 73 f7 6a bd ee ac 1a bd 6a 7d b2 bd dd cd 65 3c
       -0.057364892 -0.037762575 -0.08715327 0.014026132
000010 22 4c 7e 3d 32 26 83 bb d4 2c f7 3d cc 21 dd bd
       0.062084325 -0.004002356 0.12069097 -0.10797462
000020 21 73 1c 3d 5f bc 8d 3d 2b 35 a6 3d 9b 0e 8a 3d
       0.038195733 0.069206946 0.0811561 0.06741067
000030 6b 6b eb bd e8 ef 82 3c c8 a1 a8 bc 6b c5 04 be
       -0.11495098 0.015983537 -0.020584956 -0.12965934
000040 04 b1 8d bd c5 26 4c 3e 73 33 79 3d e3 ab 8d bb
       -0.06918529 0.19936664 0.06084008 -0.004323469
000050 c3 2f 19 bd 0b 42 13 bc 0a 40 92 3d 25 7a 5d 3c
       -0.037399065 -0.008987914 0.07141121 0.013517891
000060 6a 69 b5 bc c2 6f 97 3d f7 0e 5e 3d 23 1d 53 be
       -0.022144992 0.07394363 0.05421349 -0.20616584
000070 9e e9 10 bd 2e 0e 81 3d b1 e8 ac bd 82 a0 69 bd
       -0.035379045 0.06301533 -0.0844282 -0.057037838
000080 38 51 08 be fd 21 b3 3c 56 3f be 3d 0e cd 85 3d
       -0.13312232 0.021866793 0.09289424 0.06533252
000090 f0 ab 33 3d 2f 96 17 be a9 37 d9 bc 47 e5 28 3d
       0.043865144 -0.14803384 -0.026515799 0.04123428
0000a0 c2 9a ed 3d 0b fa 82 3d 60 f5 e9 bd 59 25 f0 bb
       0.11601783 0.06395348 -0.11423755 -0.007328671
0000b0 36 01 32 bd 39 91 07 3e 4f 76 ef 3d 76 af 85 bc
       -0.043458186 0.13238992 0.116924874 -0.016319018
0000c0 39 e9 b1 ba 28 dd eb 3d d4 29 0a 3e 7b 51 07 be
       -0.0013573534 0.115167916 0.13492519 -0.13214676
0000d0 55 4a 28 bd 52 c1 7b bd 55 36 db 3b e7 10 e3 3d
       -0.041086514 -0.06146366 0.0066898265 0.11087208
0000e0 b6 d1 95 bd ea d0 23 be 0c be 92 bc 24 6c bd 3d
       -0.0731539 -0.15997663 -0.017912887 0.09249142
0000f0 ac a8 2b 3c 44 61 fd 3d de cb 61 3d da 61 94 bc
       0.010477226 0.123720676 0.055126064 -0.018113066
000100 ea 68 96 bd 71 13 b7 3d 79 f5 84 3b 5b 6d c2 3d
       -0.073442295 0.08939255 0.004057583 0.09493514
000110 22 74 bd 3d e6 28 38 3e 70 62 17 be 43 bb a3 bc
       0.09250666 0.17984352 -0.14783645 -0.019986754
000120 34 a3 6f 3d 04 77 7d 3d 6e a6 4e 3b 8e 0a 13 3e
       0.058505252 0.06188108 0.0031532305 0.14359495
000130 93 25 c0 bc f5 da 86 bd 73 55 80 bd b8 3c fa 3b
       -0.023455417 -0.065847315 -0.06266298 0.007636633
000140 1c e4 9e 3d c8 59 6e 3d ab 29 66 be 28 94 19 bd
       0.07758352 0.05819109 -0.22476833 -0.03749481
000150 d9 6a 91 3d 36 a4 2f bc 27 54 3a be 7e 33 97 3c
       0.07100458 -0.010720303 -0.18196164 0.01845717
000160 91 31 a1 bd 45 eb c4 3d 5e fa d4 3d 39 8c c2 bd
       -0.07870782 0.096151866 0.10399316 -0.094994016
000170 34 b7 ee bd 2f 88 8d bd 43 48 49 3d 6f 97 03 3e
       -0.11656037 -0.069107406 0.04914118 0.12850736
000180 b3 cb 1d bd aa cc b9 bc 50 16 0e bd 22 c5 c4 3d
       -0.03852434 -0.0226806 -0.034689248 0.096079126
000190 48 ec 44 bd 23 e7 c3 3d 48 3f 76 bc 69 f1 06 be
       -0.048076898 0.0956557 -0.015029736 -0.13178028
0001a0 8d 98 62 bc 31 30 bb bd 29 c5 b4 bd 98 4b c1 3d
       -0.013830316 -0.09140051 -0.08826668 0.094382465
0001b0 01 b7 80 3c b5 ca cd bd 66 b8 56 3d d6 7c 19 3d
       0.015712263 -0.10048429 0.05242195 0.03747257
0001c0 98 c4 0e be c8 05 c5 bc 65 62 2c 3d 0a 55 27 bd
       -0.13942182 -0.024050608 0.042086024 -0.040852584
0001d0 10 2c ff 3c e6 2a 00 be 66 73 ef 3c 89 d1 85 3c
       0.03114894 -0.12516364 0.029229831 0.016335266
0001e0 45 37 92 bd 7a 5c 46 bd cb 2d d4 3d 8d e7 9d 3d
       -0.07139448 -0.048428036 0.10360297 0.077101804
0001f0 4c d7 6f bd 65 41 87 bd 8e 4d bc bc eb 3c c3 3d
       -0.058554932 -0.0660427 -0.0229862 0.095331036
000200 f3 dd 98 bd 50 fd 5f 3d e6 cc 52 bc 28 80 84 3d
       -0.074642085 0.054684937 -0.012866234 0.06469756
000210 34 58 0d 3e 85 be 4e 3c 1c b2 9e bd 04 ba 18 bc
       0.13803178 0.012618666 -0.077488154 -0.009321693
000220 f6 24 c2 b9 07 b9 49 be 87 0b a2 3d 52 70 1d 3e
       -0.00037030102 -0.19699489 0.07912355 0.15374878
000230 38 d5 13 be 8d 89 5a 3e db 67 1a be 04 e9 c2 3d
       -0.14436805 0.21341534 -0.1507868 0.095171005
000240 12 e5 08 3d 2f 2d 2a be 8e f3 7e bd 5b fb 18 3e
       0.033421583 -0.16618799 -0.06224399 0.14939635
000250 75 30 7a 3d 60 bf be 3c 5e a9 58 3d 45 70 1e 3d
       0.06108137 0.023284614 0.052895896 0.038681287
000260 ef 3a 17 be b1 11 d0 bc 99 66 38 3d 12 11 3d 3d
       -0.14768575 -0.02539906 0.04501972 0.046158858
000270 62 17 05 3d 16 00 f8 bd c7 9f b0 bc f5 1e 15 3d
       0.032493003 -0.121093914 -0.021560563 0.036406476
000280 dc 7f 79 3d 62 6b 53 3c 77 04 a5 bd 83 17 c4 bc
       0.06091295 0.01290402 -0.08057492 -0.023936993
000290 8b f9 e0 3c 33 9d 0f 3d 07 ee 05 3e 38 40 6c be
       0.027462741 0.035062026 0.13079081 -0.23071373
0002a0 b5 13 30 3d 11 a1 34 bc 89 16 60 3d 8e f4 26 3d
       0.042987544 -0.011024729 0.05470899 0.04076057
0002b0 c6 49 1a be aa ba d6 bc 10 7a 37 3d 5f c7 ec 3d
       -0.15067205 -0.026212055 0.044794142 0.115614645
0002c0 07 16 cc 3d c3 d0 e9 bc 2d a5 84 bd c0 a5 33 bc
       0.09965139 -0.028541928 -0.06476817 -0.010964811
0002d0 f3 2c c7 bd 42 a9 f3 bc 3c 19 e0 3d 86 55 05 be
       -0.0972537 -0.029743794 0.10942313 -0.13020906
0002e0 06 e1 d6 3d 31 6a 6b bd 87 2c 99 bd 2a d4 f0 3d
       0.104921386 -0.05747432 -0.07479196 0.11759217
0002f0 0a b2 bb 3c 43 82 21 3c d0 fc 63 bd d1 73 22 bd
       0.022912044 0.009857717 -0.055661023 -0.039661232
000300 72 52 0f 3e c4 d4 bf 3c 7b 77 23 bd 00 bf 97 3c
       0.13996294 0.023416884 -0.039908867 0.018523693
000310 2d 01 b5 bd 1e 7e 96 3d 38 fe 2c 3e 04 50 86 bd
       -0.08838115 0.07348274 0.16893852 -0.065582305
000320 8e 67 70 bd 83 4c 10 3c 19 be 17 3e 4a 1e bd 3c
       -0.058692507 0.008807304 0.1481861 0.023085732
000330 b1 c2 2c bd 4d eb 1e 3c 16 54 0b 3e b6 46 22 3e
       -0.04217786 0.009699655 0.13606295 0.15847287
000340 db ce 33 3c 5a 13 c4 bd 51 79 ab bd 76 a4 8d 3d
       0.010974611 -0.095740035 -0.08372749 0.06916134
000350 d3 63 04 3e d4 58 9f 3c 4b a2 86 bd 55 bb cf bd
       0.12928705 0.019451536 -0.06573924 -0.101431526
000360 b0 55 97 bc 5f 59 2c 3e e8 ba 5b 3d 9d 07 51 bd
       -0.018473476 0.16830967 0.053645045 -0.05103265
000370 a5 77 28 3e bb fc 0a be 35 ec d5 bd ac 25 c7 bd
       0.16451891 -0.13572972 -0.104454435 -0.09723982
000380 0f e2 b1 bc 1b a7 dd 3b 54 30 7f 3d cf 78 83 3d
       -0.021714238 0.0067643053 0.06230195 0.06419527
000390 60 d6 fd 3a ed ee 58 bd 97 dc d9 bd 56 6a b7 bc
       0.0019366257 -0.052962232 -0.10637777 -0.022389572
0003a0 e9 dd 45 3d 4c 40 5b 3d 27 74 87 bb c1 7f 81 3c
       0.048307333 0.053528115 -0.0041337195 0.015807988
0003b0 15 54 b6 3d 84 b9 4b be 15 eb 0f 3d 37 7a 7d 3d
       0.08902756 -0.19894987 0.0351363 0.06188413
0003c0 1d 1e 28 3e 5d 2d cb 3d 16 a3 6d 3c 64 69 02 3e
       0.16417737 0.09920762 0.014504215 0.12735516
0003d0 5a 85 15 3e 76 2c a8 3d aa a1 5e 3d 93 ff 3f be
       0.14601651 0.08211605 0.054353394 -0.18749838
0003e0 6a 57 18 bd 16 94 47 3d 3e d5 c9 bd f9 17 89 bc
       -0.03719274 0.04872521 -0.09855126 -0.016735064
0003f0 aa 56 f6 bd 3f 3a e3 3b b2 ee e3 3d 0f da 47 bd
       -0.120282486 0.0069344337 0.11129512 -0.04879194

bias f4 [256]
000000 8b a4 cc b9 96 33 28 b8 e5 f8 85 39 87 1f 61 38
       -0.00039032506 -4.0102364e-05 0.00025553178 5.3673542e-05
000010 91 dd 9b ba 6b f4 44 3a c6 d9 1c ba b5 43 c4 39
       -0.0011891593 0.0007513228 -0.00059833785 0.0003743448
000020 a9 ba 68 38 de 27 b0 b6 7b f9 5d b8 ae 79 e3 38
       5.548695e-05 -5.24985e-06 -5.2922853e-05 0.00010846868
000030 cb e6 63 b9 f2 d9 de 35 4b 84 d8 39 d6 2e cb 37
       -0.00021734384 1.6603719e-06 0.00041297296 2.4221295e-05
000040 f6 53 4d 3a d3 b8 1d b9 d7 1b d2 37 1c 3b 24 b8
       0.00078326405 -0.00015041539 2.5046915e-05 -3.9155697e-05
000050 75 fb 35 b8 47 09 ee 38 ae 5a 20 3a 0b a5 80 b9
       -4.338795e-05 0.000113504524 0.0006117028 -0.0002453703
000060 b5 8e 2d ba 45 53 89 39 d8 71 de 37 74 4e 41 39
       -0.0006620691 0.00026192717 2.6517475e-05 0.0001843514
000070 ba 59 00 b9 0c 1f 1a 39 f2 0f e2 b9 9b 84 15 3b
       -0.00012240457 0.0001469815 -0.0004311796 0.0022814635
000080 cc 2a ee 39 43 79 a5 38 f8 19 ba ba 9e 2e 94 b8
       0.00045426784 7.8904e-05 -0.0014198413 -7.065873e-05
000090 04 86 00 b9 b0 16 5c b9 03 bf ce b9 1d 96 50 b8
       -0.00012256956 -0.00020989287 -0.00039433697 -4.973087e-05
0000a0 93 99 01 ba 5e 03 a1 38 71 45 e5 39 d1 e5 a6 b9
       -0.0004943844 7.6777054e-05 0.00043730022 -0.00031833214
0000b0 fc 84 56 37 d4 e1 1c b9 2d 72 b4 38 11 9f 16 b9
       1.2786357e-05 -0.00014961447 8.604336e-05 -0.00014364372
0000c0 52 15 36 39 67 bf cc 39 31 af c2 37 af 34 c3 b7
       0.00017364815 0.00039052518 2.3208182e-05 -2.3270344e-05
0000d0 53 62 73 b9 0b 26 d7 b8 f5 bc 9d b8 c4 ae 17 3a
       -0.00023210915 -0.00010259085 -7.5215394e-05 0.0005786235
0000e0 44 9d e8 37 89 e0 34 b9 fb 3b 14 ba 1d f4 f8 38
       2.7729788e-05 -0.00017249784 -0.000565469 0.00011871031
0000f0 02 71 50 b8 90 ae 03 39 49 e2 ba b8 2a c3 e9 b9
       -4.969631e-05 0.00012558163 -8.91132e-05 -0.00044586632
000100 51 59 14 b9 55 2c e0 b8 e7 f5 09 b8 cc f1 a9 38
       -0.00014147653 -0.0001068941 -3.289236e-05 8.103586e-05
000110 6d 08 c1 39 b3 93 1b b9 3a d5 f5 b8 72 82 ea 36
       0.00036818106 -0.00014836974 -0.00011722227 6.9889293e-06
000120 4b 9a b1 b8 b2 1a 90 b8 e7 19 6d 38 25 49 1c 38
       -8.468757e-05 -6.8714275e-05 5.6529327e-05 3.726142e-05
000130 0f 98 b9 b8 80 ca dd 38 18 9e 6e b8 1e c6 bd b7
       -8.8498105e-05 0.0001057582 -5.6890858e-05 -2.2622811e-05
000140 95 48 91 b9 ce 56 28 38 d5 fb d7 b9 4c 5d 26 39
       -0.00027710633 4.0135164e-05 -0.00041195625 0.0001586575
000150 13 4e 20 3a f9 4a 71 38 31 8b 18 39 f1 98 8f b8
       0.00061151496 5.75287e-05 0.00014547702 -6.847259e-05
000160 a9 f1 42 38 6d 2d 44 b9 23 08 6c b7 d0 4e 01 37
       4.6478268e-05 -0.00018708939 -1.4068591e-05 7.707349e-06
000170 c3 4c 2b ba 9b 33 9b b9 6f 5a 55 b7 08 18 14 b8
       -0.0006534571 -0.00029602353 -1.2716845e-05 -3.530833e-05
000180 93 9c a7 3a 97 68 39 b8 48 00 3f 39 9a 77 e4 b8
       0.0012787752 -4.4204844e-05 0.00018215284 -0.00010894165
000190 a5 47 8e b9 3b 1d f6 38 ca 00 0f 39 67 f2 d9 38
       -0.0002713773 0.00011735639 0.00013637837 0.00010392517
0001a0 bc d1 78 37 d3 d4 51 ba cc 99 05 3a aa 08 d9 38
       1.48307845e-05 -0.00080044306 0.0005096465 0.0001034898
0001b0 54 12 bf 38 85 4d 00 39 24 fd ef b9 15 02 dc b5
       9.1110036e-05 0.0001223591 -0.00045774237 -1.6391883e-06
0001c0 72 a3 ac 38 71 cb 03 39 7d 4a 64 b7 6e 66 19 b7
       8.232043e-05 0.00012568921 -1.3607202e-05 -9.143359e-06
0001d0 7e 53 ec b9 1b f7 f5 ba a5 78 b0 b8 aa b6 85 37
       -0.00045075634 -0.001876566 -8.414806e-05 1.5939895e-05
0001e0 26 41 8e 39 d7 70 60 ba ee d7 5d 38 90 b4 0b 38
       0.0002713289 -0.00085617363 5.2891606e-05 3.3308344e-05
0001f0 15 9d 9e b8 bd 00 ae b7 ff 75 34 b9 3e 01 b2 3a
       -7.563286e-05 -2.074276e-05 -0.00017210095 0.0013580692
000200 05 ee 2f b9 33 22 94 b9 71 cc c8 37 21 4b da 38
       -0.0001677797 -0.0002825424 2.3937058e-05 0.00010409044
000210 28 60 00 b8 74 33 95 38 78 f6 2d 39 6b 44 53 38
       -3.060713e-05 7.1144575e-05 0.00016590382 5.037004e-05
000220 9e fe 40 39 80 dd c0 b7 1d e7 96 b8 93 e2 78 37
       0.00018405399 -2.2991328e-05 -7.1956056e-05 1.4834705e-05
000230 0e 02 6f 38 7a 4c 9c 37 a5 9c 90 b7 b9 3b 66 38
       5.6983954e-05 1.8632261e-05 -1.7239081e-05 5.4891894e-05
000240 42 90 9d b9 97 9c c4 38 a8 55 66 b9 4e 13 6a 39
       -0.00030052854 9.3751754e-05 -0.00021966419 0.0002232317
000250 6d 11 51 ba 5f e7 dd b7 1d 11 01 39 6a 41 32 ba
       -0.0007975314 -2.6452994e-05 0.00012308774 -0.00067999086
000260 ca 69 e4 ba 4a 76 19 38 41 f1 8b 38 9f 80 49 39
       -0.0017426547 3.6588208e-05 6.6729735e-05 0.00019216769
000270 cc d8 2b 39 a2 d5 58 b8 87 37 e0 38 99 68 98 b7
       0.00016388594 -5.1697374e-05 0.00010691495 -1.816852e-05
000280 57 a1 81 ba 9f 0e b6 38 07 38 ba 39 b8 59 a0 ba
       -0.0009890002 8.68116e-05 0.00035518428 -0.001223377
000290 72 b6 b9 36 8a fd 6b 38 89 5e f9 b7 2f f7 f1 b8
       5.534669e-06 5.6264493e-05 -2.9727134e-05 -0.00011537817
0002a0 a5 3a 2f 39 ca 4a a2 b9 83 58 8a b7 5d 8b 35 38
       0.00016711147 -0.0003095477 -1.6492098e-05 4.3283555e-05
0002b0 82 15 00 39 c1 87 ba b8 58 c1 c7 b6 47 72 07 b9
       0.00012215044 -8.894457e-05 -5.9531703e-06 -0.00012917175
0002c0 c6 e4 d3 b9 85 3f 7c b7 8a 65 83 39 a7 e7 94 b9
       -0.00040415506 -1.503516e-05 0.0002506192 -0.00028401354
0002d0 53 2e 0e b9 8a 61 43 38 22 40 d9 32 04 10 0a 3a
       -0.00013559432 4.6582463e-05 2.5291289e-08 0.0005266669
0002e0 74 93 6a 39 be 47 c8 ba f4 32 0b b9 ca 38 13 38
       0.0002237091 -0.001528017 -0.00013275055 3.510042e-05
0002f0 90 28 f1 b8 8b 12 96 39 f7 19 35 38 38 3c e0 39
       -0.00011499331 0.00028624045 4.3177944e-05 0.00042769476
000300 5d 90 bd 39 60 6b 08 39 e8 bc e1 38 48 f3 f0 38
       0.00036156448 0.00013009971 0.000107640226 0.000114894065
000310 b7 d7 8a b9 50 e2 95 b9 2b d1 fa 39 87 05 4a 3a
       -0.0002648213 -0.0002858811 0.00047839558 0.0007706512
000320 24 50 a5 b7 f3 f6 82 38 42 c1 87 39 15 31 c4 38
       -1.9706851e-05 6.244881e-05 0.00025893195 9.3551505e-05
000330 c0 cf b0 b8 7f 79 90 38 17 0b 0c b7 7e da ab b7
       -8.4310304e-05 6.8890855e-05 -8.347232e-06 -2.0486532e-05
000340 3e fb 07 ba 6f b3 bb 38 93 51 17 ba 97 91 80 39
       -0.00051872793 8.950277e-05 -0.00057723484 0.00024522535
000350 76 39 51 3a 2d be b6 37 3e dc 11 39 83 33 a1 37
       0.00079812796 2.1784648e-05 0.00013910324 1.9216683e-05
000360 b3 53 37 b9 3a a4 16 b9 6d 74 10 39 6d 07 69 39
       -0.0001748342 -0.00014366294 0.00013776282 0.00022223378
000370 7c 6b 98 b8 7f 01 46 38 aa 78 a3 b9 32 c7 93 37
       -7.267945e-05 4.7208272e-05 -0.00031179684 1.7616523e-05
000380 23 c3 b7 38 71 a9 e9 b9 f4 74 1e 3b b2 ef a4 39
       8.762467e-05 -0.00044567467 0.0024178596 0.00031459105
000390 1b 20 6a 38 54 42 83 37 93 d9 04 37 74 76 7f 38
       5.5819848e-05 1.5647303e-05 7.918471e-06 6.0907056e-05
0003a0 10 20 0b 3a e9 45 02 38 c0 dd a7 39 0b ed ab 38
       0.0005307207 3.1059524e-05 0.0003201794 8.198068e-05
0003b0 a5 7d 97 37 f8 ae 8f b9 5f 51 8b 39 7f 33 b0 b8
       1.805911e-05 -0.00027405447 0.00026572772 -8.401926e-05
0003c0 f2 fb 03 b9 d4 c1 02 b8 f4 67 86 b7 78 f5 75 b9
       -0.0001258699 -3.117493e-05 -1.6022452e-05 -0.00023456465
0003d0 f1 dd 2e b8 3c d9 15 b9 33 ca 8e 36 50 52 2d b9
       -4.169153e-05 -0.00014290673 4.255469e-06 -0.0001652923
0003e0 3b af 59 b7 7b cf 10 b9 44 f3 35 38 48 52 d3 37
       -1.2975007e-05 -0.00013810203 4.338032e-05 2.5191475e-05
0003f0 7d d2 14 39 c8 0d 46 b7 10 71 e2 b9 1f 08 63 b7
       0.00014192793 -1.1804928e-05 -0.00043190317 -1.3532145e-05

weight f4 [256]
000000 86 20 90 3f 86 a7 58 3f b9 94 71 3f b0 7c 7f 3f
       1.1259925 0.8463062 0.9436756 0.99799633
000010 28 40 82 3f 77 ff a4 3f 41 b2 94 3f 91 62 95 3f
       1.0175829 1.2890462 1.1616899 1.1670705
000020 f6 63 72 3f c5 43 58 3f 01 82 54 3f f7 2f 5a 3f
       0.9468378 0.8447841 0.8301087 0.8522944
000030 6f 5c 6a 3f 46 f4 31 3f c7 ee 82 3f 70 92 81 3f
       0.9154729 0.69513357 1.0229119 1.0122814
000040 f5 90 99 3f 00 08 6b 3f c1 f1 79 3f 7e c1 50 3f
       1.1997362 0.9180908 0.9763451 0.81545246
000050 02 b7 4c 3f e6 02 65 3f fa 0d 9c 3f d9 9e 60 3f
       0.7996675 0.8945755 1.2191765 0.8774238
000060 19 5c 6e 3f 36 13 54 3f e4 6c 76 3f 6c 84 67 3f
       0.9310928 0.82841814 0.96259904 0.90436435
000070 9a 80 7a 3f b5 80 7c 3f 03 c1 91 3f c7 b1 9d 3f
       0.9785248 0.9863389 1.1387028 1.2319878
000080 46 d9 83 3f f9 d9 66 3f 1f 0d 9a 3f 36 f9 77 3f
       1.0300682 0.9017635 1.2035254 0.9686464
000090 21 58 60 3f f9 5e 69 3f 27 92 80 3f 45 f7 5f 3f
       0.87634474 0.9116054 1.0044602 0.8748668
0000a0 cc c9 7a 3f d5 3e 70 3f 39 08 79 3f 93 b6 83 3f
       0.9796417 0.93845874 0.9727817 1.0290092
0000b0 e6 9c 5d 3f ac b2 7e 3f 9e 5a 71 3f b8 bf 6b 3f
       0.86567533 0.9949138 0.94278896 0.92089415
0000c0 3d 53 5c 3f 41 3b 7e 3f b5 a6 6d 3f 49 f6 55 3f
       0.8606451 0.99309164 0.928325 0.83578926
0000d0 95 a3 8f 3f 56 44 86 3f 21 ad 84 3f 20 20 78 3f
       1.1221796 1.0489604 1.0365335 0.9692402
0000e0 b6 87 45 3f 98 d3 8c 3f 90 f1 7c 3f f8 3b 88 3f
       0.77160203 1.1002073 0.98806095 1.0643301
0000f0 a4 7a 63 3f df 4f 6b 3f 96 d4 6e 3f 69 85 86 3f
       0.8885901 0.9191875 0.9329313 1.0509464
000100 c7 4f 6e 3f 34 69 5e 3f 47 af 5c 3f 72 6b 5d 3f
       0.9309048 0.8687928 0.8620495 0.86492074
000110 07 b6 65 3f 20 15 5d 3f 03 af 70 3f ef 86 73 3f
       0.89730877 0.8636036 0.94017047 0.9512777
000120 2f 2f 63 3f e9 0c 75 3f 4b 71 98 3f fd 00 63 3f
       0.8874387 0.95722824 1.1909574 0.88673383
000130 9d f0 51 3f 3b 18 75 3f c5 f4 6a 3f 6f 89 5f 3f
       0.8200777 0.957401 0.9177974 0.8731908
000140 dd e6 54 3f 5b 0d 4b 3f 66 12 82 3f 13 47 52 3f
       0.8316477 0.79317254 1.0161865 0.821397
000150 3c a1 84 3f e7 5c 68 3f be 56 66 3f e1 0c 58 3f
       1.0361705 0.9076676 0.8997611 0.8439465
000160 88 30 6a 3f 72 54 84 3f 73 4c 4c 3f 31 b2 5c 3f
       0.914803 1.0338271 0.7980415 0.862094
000170 1f 9b 78 3f a3 1e 78 3f 40 1a 81 3f 19 b3 8b 3f
       0.97111696 0.9692175 1.0086136 1.0914031
000180 0b 35 8c 3f 2b 55 74 3f 26 6b 57 3f 4e a2 91 3f
       1.0953687 0.95442456 0.8414787 1.1377656
000190 56 2b 7e 3f c8 6e 5d 3f dd 7e 6c 3f 44 a5 6e 3f
       0.99284875 0.86497164 0.9238108 0.93220925
0001a0 61 ef 44 3f 6b 05 89 3f 18 ef 68 3f 3d d5 79 3f
       0.76927763 1.0704778 0.9098983 0.97591
0001b0 5f cb 92 3f 00 dd 83 3f d9 11 98 3f 4b 6b 40 3f
       1.1468314 1.0301819 1.1880447 0.75163716
0001c0 ea 99 9c 3f d0 ba 54 3f e7 55 5e 3f 65 37 52 3f
       1.2234471 0.83097553 0.86849827 0.82115775
0001d0 c0 f9 89 3f d0 48 9e 3f c9 2f 7c 3f 26 19 7e 3f
       1.0779343 1.2365971 0.98510414 0.99257123
0001e0 19 d1 91 3f 98 50 9c 3f 4e a6 58 3f e9 ca 5f 3f
       1.1391937 1.2212095 0.8462876 0.8741899
0001f0 98 cd 5c 3f 67 37 6f 3f 29 79 72 3f 9c e5 89 3f
       0.8625121 0.9344391 0.94716126 1.0773196
000200 63 88 86 3f 6c 3b 59 3f 8e 25 42 3f 4e 04 73 3f
       1.0510372 0.84856296 0.75838554 0.94928443
000210 f7 04 79 3f 27 74 4d 3f 17 0f 6d 3f 8c 2f 4b 3f
       0.972732 0.8025536 0.9260115 0.79369426
000220 44 29 87 3f 59 47 81 3f 11 96 69 3f 15 6b 84 3f
       1.0559468 1.0099899 0.9124461 1.0345179
000230 e3 82 50 3f 37 fa 70 3f 30 ff 58 3f c2 41 6c 3f
       0.8144972 0.941318 0.84764385 0.9228784
000240 72 cb 76 3f db 9e 5e 3f c9 c7 91 3f ae f9 7d 3f
       0.9640418 0.86961144 1.1389095 0.99209106
000250 f6 67 80 3f 8b bf 79 3f b2 76 5c 3f bc 83 96 3f
       1.0031726 0.97557896 0.86118615 1.1758952
000260 05 49 97 3f 00 96 71 3f 6c 70 74 3f 97 6b 70 3f
       1.1819159 0.94369507 0.9548404 0.9391417
000270 2b c3 76 3f 96 e7 56 3f 48 23 92 3f ea b4 52 3f
       0.9639155 0.8394712 1.1417017 0.823073
000280 9b 01 8d 3f 3a 82 4a 3f 3f 69 63 3f 3a 9e 80 3f
       1.1016115 0.7910496 0.8883247 1.0048287
000290 20 00 65 3f 7f 9c 5f 3f c5 55 5f 3f e6 12 62 3f
       0.89453316 0.8734817 0.8724025 0.88310087
0002a0 69 18 73 3f 30 fe 8f 3f cf f2 62 3f bf 4b 50 3f
       0.9495912 1.1249447 0.88651747 0.8136558
0002b0 6c e8 50 3f 7c de 6d 3f 1d 17 4a 3f a0 8c 61 3f
       0.8160465 0.9291761 0.7894152 0.881052
0002c0 96 fd 6c 3f b2 71 66 3f c0 06 6c 3f e3 11 75 3f
       0.9257444 0.90017235 0.921978 0.9573042
0002d0 f0 c8 81 3f b0 a1 68 3f fe c6 7d 3f 24 26 82 3f
       1.0139446 0.90871716 0.99131763 1.016789
0002e0 74 45 6d 3f 68 72 89 3f 37 b1 64 3f b5 9f 5f 3f
       0.926841 1.0738039 0.8933291 0.8735307
0002f0 9f 10 57 3f 7a b4 8e 3f 4a e9 6f 3f 69 bb 87 3f
       0.84009737 1.1148827 0.93715346 1.0604068
000300 61 40 7c 3f 7b 23 89 3f 98 c6 6b 3f ef f1 54 3f
       0.98535734 1.0713953 0.92099905 0.8318166
000310 1f 53 62 3f 34 cc 97 3f c9 57 8f 3f 1d 80 80 3f
       0.8840808 1.1859193 1.1198665 1.0039097
000320 1e 73 69 3f b0 ec 6f 3f 72 24 78 3f e3 dc 84 3f
       0.9119128 0.9372053 0.9693061 1.0379909
000330 7e 49 51 3f a3 24 4e 3f 8d 3d 5f 3f b1 b4 50 3f
       0.81752765 0.80524653 0.87203294 0.81525713
000340 4a 81 84 3f cf ab 5f 3f 78 31 76 3f 50 3a 75 3f
       1.0351956 0.87371534 0.96169233 0.957921
000350 05 c0 7d 3f 87 6d 47 3f bf 40 55 3f 79 4b 6d 3f
       0.99121124 0.779015 0.8330192 0.9269329
000360 62 81 74 3f 02 58 78 3f fe 14 53 3f ff 79 61 3f
       0.9550992 0.9700929 0.82453907 0.88076776
000370 54 0a 63 3f f3 04 80 3f af 1e 69 3f f8 eb 65 3f
       0.88687634 1.000151 0.91062444 0.89813185
000380 53 b4 96 3f aa 94 8d 3f 71 84 99 3f c0 e5 90 3f
       1.177378 1.1060994 1.1993543 1.1320114
000390 84 45 55 3f 84 02 51 3f e1 ec 5b 3f 3f d8 7a 3f
       0.833092 0.81644464 0.85908324 0.97986215
0003a0 f2 18 71 3f e2 61 60 3f 0d e9 9e 3f 9b cf 74 3f
       0.9417869 0.8764936 1.2414871 0.9562928
0003b0 49 6f 60 3f 90 37 6b 3f 71 81 62 3f 33 8d 65 3f
       0.8766981 0.91881657 0.8847876 0.8966858
0003c0 46 d7 6e 3f e2 d9 59 3f 8a 48 6e 3f 81 b6 54 3f
       0.9329723 0.8509809 0.93079436 0.8309098
0003d0 06 39 63 3f bd 2f 53 3f 01 12 51 3f 78 9a 6d 3f
       0.88758886 0.8249472 0.81668097 0.92813826
0003e0 8b 72 44 3f 1d 1f 4e 3f b5 20 81 3f 36 da 5c 3f
       0.7673728 0.80516225 1.0088106 0.86270463
0003f0 6f fd 74 3f 1b b6 79 3f 8b a9 5e 3f c4 15 5a 3f
       0.9569921 0.97543496 0.8697745 0.8518946

bias f4 [256]
000000 ca 0f 0b bd c0 47 66 3b 9d c3 9d bd 07 dc 01 3e
       -0.033950604 0.0035137981 -0.07703326 0.1268159
000010 2b 1d 45 3e b2 a9 8a bd 2c 32 2a bd 8c 9f ed 3d
       0.19249408 -0.06770648 -0.041551754 0.11602697
000020 fc 17 52 bd 0f f8 57 bd a2 b4 8b 3c ed cc 8e 3c
       -0.051292405 -0.0527268 0.017053906 0.0174317
000030 f0 77 73 bd 99 74 a0 bd e6 6c 0f 3d 29 04 1c 3e
       -0.059440553 -0.07834739 0.035015963 0.15235962
000040 36 f6 7d bd e3 aa 26 3d d4 b6 16 3e 49 e2 5d bc
       -0.062002383 0.040690314 0.14718181 -0.01354272
000050 48 2f 92 bc 32 a5 a3 3c b4 03 3c bd 32 84 d0 bd
       -0.017844811 0.019976232 -0.04590197 -0.10181464
000060 fd ad a3 3d 5b a9 3d bd 79 7b fd 3d 38 12 ba bc
       0.0799217 -0.046304088 0.12377066 -0.022713766
000070 52 40 63 bd 3a 95 3f 3c 3e 66 82 bd 5d bd 76 bd
       -0.055481263 0.011693293 -0.063671574 -0.060239185
000080 f4 28 44 3e 93 e5 1d 3b 7b f1 8b bd 66 04 91 bd
       0.19156247 0.0024093136 -0.06833168 -0.07080917
000090 a6 db 7b bb 13 71 cc 3d bb 10 61 3e 48 cd d6 3c
       -0.0038430481 0.09982505 0.21979038 0.026220933
0000a0 1d c4 1e 3e 68 5a 17 3d 87 ae 9c 3b e3 12 07 bd
       0.15504499 0.036951452 0.0047815475 -0.032976996
0000b0 9d 70 c9 3b 14 80 99 bd 98 8f 28 3b 15 fa bb bc
       0.0061474578 -0.07495132 0.0025720354 -0.022946397
0000c0 f2 04 51 bd e8 02 ed 3d 63 df 65 bd af 85 51 be
       -0.051030107 0.1157282 -0.05612124 -0.20461152
0000d0 0d 18 e8 bc b6 4e 96 3d 6a d2 c9 bd b8 aa 11 bd
       -0.02833178 0.07339232 -0.098545864 -0.0355632
0000e0 09 23 24 3d 63 8e 23 bd 5d fa ab 3c cb e4 03 be
       0.040072475 -0.039930712 0.020993406 -0.12880246
0000f0 50 d1 8a bd 77 49 e8 3c 6a 36 1b 3d 4c 39 e7 3d
       -0.067782044 0.028355343 0.03789369 0.112902254
000100 2a 1f 6e 3d 70 1b d7 bd e9 da f1 3b 1f 7c bf 3c
       0.05813519 -0.1050328 0.0073808325 0.023374615
000110 21 8e 4f bd c2 ba 3b bd 30 bd 93 bd 30 36 7d 3d
       -0.050672654 -0.045832403 -0.07213819 0.061819255
000120 ea 36 ee 3d 5a 85 6f 3c f9 bf f8 bc 96 6b 64 bc
       0.11631568 0.014619196 -0.030364977 -0.013941666
000130 fe 1e b3 bc 74 96 2d bc 56 dd e9 bc 25 b2 d3 bd
       -0.021865364 -0.010594953 -0.028547924 -0.10336713
000140 b5 a1 fe 3a 96 9b 06 be 25 54 aa bc 71 50 b4 bd
       0.0019426855 -0.13145289 -0.020792076 -0.088044055
000150 ca ad f0 3d 95 1c 73 bd c5 16 9b 3d c2 7c fd bd
       0.11751898 -0.05935343 0.07572702 -0.12377311
000160 ee f6 b1 bb 0c e8 f9 bd 20 67 4c bd de 88 23 3d
       -0.0054310476 -0.122024626 -0.049903035 0.03992545
000170 34 a7 06 3e 7e 6c 17 3d f7 a4 a0 bd ff dd fa bd
       0.1314972 0.0369687 -0.078439645 -0.12249374
000180 f8 21 1a 3e c8 f2 6a 3d a1 05 59 bd 19 2a 27 bd
       0.1505202 0.05736044 -0.052983884 -0.04081163
000190 cf 06 12 bd 39 b9 79 bd 7a 1b 83 bd 4a fc 2d bb
       -0.035651024 -0.060967658 -0.06401725 -0.002654808
0001a0 9e c3 fd bd b6 f2 ec 3d 81 13 0a 3e 40 b9 4c be
       -0.12390827 0.11569731 0.13484003 -0.19992542
0001b0 6a 5b 38 bd ee 23 c3 bd 2b e2 74 bd 10 73 43 be
       -0.045009054 -0.095283374 -0.059786003 -0.19086862
0001c0 25 cd 82 bd 01 89 e7 bd 0d aa 23 bd fa 52 17 bd
       -0.063867845 -0.11305428 -0.039957095 -0.036944367
0001d0 a5 6f 0b 3e 9a f4 75 bd 25 b3 74 be fc 19 eb bd
       0.13616808 -0.060047723 -0.23896463 -0.114795655
0001e0 4c 71 22 bd 35 09 84 bd 67 6d 20 be c3 04 56 bc
       -0.03965883 -0.064470686 -0.15666734 -0.013062659
0001f0 1d 69 4c bd c7 b3 9b 3c 95 ab 9e bc de 67 df 3d
       -0.04990493 0.019006623 -0.019368926 0.10908483
000200 3e 03 1e be 5b a9 07 bd b2 44 12 3d b8 bb 8b bd
       -0.15430924 -0.033120494 0.035710044 -0.06822914
000210 55 ef 07 bd b5 6b 85 bd 3b 32 6f bd 7b 0d 90 bc
       -0.03318723 -0.06514684 -0.058397513 -0.017584553
000220 e0 6d 1a 3e fa 2f 89 bd 70 bb 77 bd ca 4a 2b be
       0.15080976 -0.06698604 -0.06048149 -0.16727749
000230 d1 6d 73 bd 37 d5 c1 bd 6d d3 f1 bd 78 ca c0 bd
       -0.0594309 -0.09464496 -0.118079044 -0.09413618
000240 3d ec d6 3d d2 0d f3 bd 0a b5 15 bd dc 37 dc 3d
       0.104942776 -0.118678704 -0.036549605 0.10752842
000250 9e d8 f8 3d fd 78 d1 bc c4 8e 25 bd 20 85 35 bd
       0.121506914 -0.025570387 -0.040419355 -0.04431641
000260 3b 78 83 bd be d7 03 bc f1 5b 8e 3d fb 0a 19 bd
       -0.064194165 -0.008047042 0.0695113 -0.037363987
000270 78 0d 15 3e 17 a9 79 bd 30 ab d1 bc c5 5a 4b 3c
       0.14555919 -0.060952272 -0.025594324 0.012411778
000280 4f 6e fe 3d 61 af 63 3b 09 4f d9 3d 84 90 6c 3e
       0.124233834 0.0034741985 0.10610778 0.23102003
000290 fd 35 04 bc 3f a2 14 3d 39 19 5c 3c 68 46 51 bd
       -0.008069512 0.036287542 0.013433748 -0.051092535
0002a0 99 a3 11 3c 2b ed 86 bd 42 08 90 bc be 75 c9 bd
       0.008889102 -0.06588205 -0.017582063 -0.09836911
0002b0 59 2c 0f 3b 37 db 56 bd bb 4e e1 bd 89 ef 58 3d
       0.0021846502 -0.052455153 -0.11001345 0.052962814
0002c0 07 5b 0f 3e 7a ba f7 bd d4 e6 c5 bd b0 99 cd bd
       0.13999568 -0.120961145 -0.096631676 -0.10039079
0002d0 0e ed f3 bb 48 cb 1d be 0e 16 a7 bc 98 f2 7d 3e
       -0.0074440306 -0.15409577 -0.020396259 0.24799573
0002e0 eb 8c 89 bc 7f 1f 7b 3e b3 71 2a 3d ee 6e 67 bc
       -0.016790828 0.24523734 0.04161234 -0.014125569
0002f0 52 b3 8a bc 34 fb 32 bd 65 5c 2e 3e 70 83 a5 3d
       -0.01693121 -0.043696597 0.17027433 0.0808171
000300 9f e2 0d 3d 0a 85 04 3e 8b 37 bd 3b c9 5d 02 be
       0.03463995 0.12941375 0.0057744435 -0.12731089
000310 22 2b e7 bd e0 36 25 bd 8e 35 06 3e a2 ad f6 3d
       -0.11287524 -0.040335536 0.13106367 0.120448366
000320 f5 d0 6b 3d 54 91 ac bd d8 ee b0 bd 75 ba 28 3d
       0.057572324 -0.08426157 -0.08639306 0.041193444
000330 64 c2 9e bd ff 59 4f bd 88 d3 eb bd a3 98 0d 3d
       -0.07751921 -0.050622936 -0.11514956 0.034569394
000340 96 b1 70 3e 0e 20 2f bd 98 c3 be 3d 12 6b 39 bd
       0.23505244 -0.04275518 0.0931465 -0.045268126
000350 e9 4d 21 bd 18 9a ae bd 4d 5c 31 be 60 50 61 bd
       -0.03938094 -0.08525485 -0.17320366 -0.055008292
000360 d0 6c 79 3d 17 3f 3e be d2 89 02 3d ee 28 b9 bd
       0.060894787 -0.18578754 0.031869717 -0.0904101
000370 36 d0 ae 3d db f2 61 bd 16 35 df 3d 4b a8 d8 3d
       0.08535807 -0.055163246 0.10898797 0.10578974
000380 fd 39 81 bd 7b e9 24 3e f8 6b 32 bd 2f c2 13 bd
       -0.063098885 0.1610469 -0.04356 -0.03607386
000390 fe 8f d4 bd bc 45 3b be 70 73 31 3b d6 27 2b bb
       -0.10379027 -0.1828832 0.0027076863 -0.0026116273
0003a0 ba ad 89 bd 91 86 3e bd 11 ab 86 bd c8 84 5e 3d
       -0.06722589 -0.04651505 -0.06575597 0.05432585
0003b0 2e 09 92 3c 65 bc db 3d d0 63 a9 3c c7 86 cc bb
       0.017826643 0.10729293 0.020677477 -0.0062416526
0003c0 73 b5 8d bc 90 a5 5f 3d 9f 7e 41 3d 35 b1 ad bd
       -0.017298436 0.054601252 0.047239896 -0.08481065
0003d0 16 ec 93 bd 01 55 c3 bd b3 a5 18 bd 66 74 25 3e
       -0.07222764 -0.095376976 -0.037267398 0.16157684
0003e0 92 19 56 be 3e 0b ca bd a1 a8 25 bd 87 1d 88 3c
       -0.20908192 -0.098654255 -0.04044402 0.016615642
0003f0 11 43 13 3e 4c 8c 94 3d d5 87 93 3d d3 1c 7c 3c
       0.14381053 0.07253322 0.07203642 0.015387732

running_mean f4 [256]
000000 e6 5d ef b9 53 55 fc b8 54 2d a5 39 4b 19 27 ba
       -0.00045655592 -0.00012032189 0.00031505025 -0.00063743134
000010 97 d0 9d ba b1 b9 8f 3a 55 77 3d ba 53 42 2c 3a
       -0.0012040314 0.0010965375 -0.00072275597 0.00065711624
000020 97 74 99 39 6b 7d 17 b9 d8 8f e2 38 8f ec 8b 38
       0.000292693 -0.00014447204 0.00010803313 6.672099e-05
000030 96 f1 05 39 52 e4 99 ba 3e 04 13 38 76 44 c6 39
       0.00012773866 -0.0011741018 3.5051482e-05 0.0003781651
000040 d2 c2 9f 3a a7 c4 dd b7 64 96 a3 39 20 1e e6 b8
       0.0012188798 -2.6436826e-05 0.00031201832 -0.00010972866
000050 a9 b0 94 3a 9f f0 98 b5 25 5a 63 3a 02 bd 6e b9
       0.0011344153 -1.1394912e-06 0.00086727954 -0.0002276786
000060 4d d7 a2 ba d4 18 1f 3a fd b2 91 b6 f0 da c8 b9
       -0.0012423784 0.00060690683 -4.3421737e-06 -0.00038310094
000070 a5 60 62 b9 98 c7 e1 b9 c2 42 ed b8 66 df 2a 3b
       -0.00021589042 -0.00043064053 -0.00011313475 0.0026073097
000080 87 91 33 3a 1b 0e 62 39 22 04 8a ba 03 9c f7 39
       0.00068499934 0.00021558294 -0.0010529796 0.0004722775
000090 5c 05 12 3a 91 54 16 ba 00 38 2e ba 0c 2b b4 ba
       0.00055702566 -0.0005734647 -0.0006645918 -0.0013745739
0000a0 d9 94 40 ba 67 5d 25 39 15 0c e2 39 d8 00 40 ba
       -0.0007346399 0.00015770421 0.0004311508 -0.00073243445
0000b0 ab 62 09 3a c1 aa 98 b8 21 74 87 b9 e2 46 19 b9
       0.0005240838 -7.27973e-05 -0.0002583573 -0.00014617623
0000c0 3e 86 84 ba a1 0f 5c 3a 4a 9d 09 37 51 03 76 ba
       -0.0010110808 0.0008394663 8.202458e-06 -0.00093846495
0000d0 04 4a be b9 16 12 b5 b9 34 65 03 ba 17 06 52 3a
       -0.0003629477 -0.00034536485 -0.0005012334 0.0008011772
0000e0 fe 16 39 39 12 e2 ac b9 15 39 77 ba 64 b5 95 b8
       0.0001765154 -0.00032974832 -0.0009430808 -7.13866e-05
0000f0 f3 34 21 ba e2 cd 00 39 bc 97 37 ba 3c fe 0e b9
       -0.00061495526 0.00012283729 -0.0007003506 -0.00013636885
000100 36 ef 01 b8 ce 71 86 38 85 c9 bb ba b9 be 37 3a
       -3.097878e-05 6.410816e-05 -0.0014327025 0.0007009316
000110 c6 11 27 3a b4 14 ad ba f0 0f 2f 3a 2b c2 90 b9
       0.0006373193 -0.0013205023 0.0006678095 -0.00027610487
000120 24 6f 51 39 31 d8 70 39 1a 42 2f b9 c1 15 fe b8
       0.00019973196 0.00022968721 -0.00016713925 -0.00012115716
000130 93 b5 f6 39 e8 66 fb b8 36 c2 ab b9 cc 84 8c b6
       0.0004705606 -0.000119877805 -0.0003276036 -4.1877847e-06
000140 f9 92 22 ba 31 a4 81 ba fd 9a 72 ba 75 69 fb 39
       -0.000620171 -0.0009890852 -0.00092546624 0.00047953022
000150 85 d3 95 39 b5 5a 6f b9 6a fa 11 b9 15 78 a0 38
       0.0002857709 -0.00022826607 -0.00013921564 7.6517616e-05
000160 6c a0 3e 38 31 7d 46 ba 69 b8 3f 3a 66 51 22 39
       4.5448935e-05 -0.00075717556 0.0007313551 0.00015479847
000170 bd 88 8e ba ba 1d 9c 38 fe 94 fa 39 64 9e d2 b9
       -0.0010874491 7.444197e-05 0.00047794724 -0.00040172332
000180 31 d0 6e 3a 4a 6a 96 39 78 7e b3 ba 4d 70 73 b9
       0.00091100024 0.0002868942 -0.0013694307 -0.00023216121
000190 24 a3 90 38 d7 ce 59 b9 0b aa ed 39 1d 3a 4d 39
       6.8968424e-05 -0.00020771787 0.00045330854 0.00019571972
0001a0 7d fb 88 ba 3d d1 21 ba c6 65 f1 39 29 c6 82 b8
       -0.0010450926 -0.00061728415 0.0004604293 -6.235793e-05
0001b0 4f fa 7e b8 c2 ec 7d 39 16 31 8b b9 5e c6 9f ba
       -6.0791437e-05 0.0002421616 -0.00026548718 -0.0012189855
0001c0 67 e7 e9 39 56 e8 a1 39 8e d3 8d b9 5a 5d 03 ba
       0.0004461363 0.00030881417 -0.00027051236 -0.0005011164
0001d0 4a 96 99 ba 04 ac ce ba b7 15 c2 b9 ba 53 29 b9
       -0.0011717763 -0.0015767817 -0.00037018742 -0.00016148287
0001e0 6a c8 f0 38 16 66 fb b9 9e a4 d5 b7 8a a5 85 ba
       0.00011481422 -0.0004795051 -2.5468235e-05 -0.0010196429
0001f0 8e e2 2c 3a 12 39 1f 3a 74 02 a4 b8 e2 91 80 3a
       0.00065950386 0.0006073873 -7.820586e-05 0.0009809101
000200 6a 3f cd b9 13 72 5f 38 26 ec 97 ba f0 c3 a2 39
       -0.00039147894 5.3273583e-05 -0.0011590763 0.00031045033
000210 64 42 a8 39 cf c0 be ba 23 c8 03 38 f4 1b a4 ba
       0.00032092922 -0.0014553311 3.1419226e-05 -0.0012520538
000220 b8 98 ee b8 16 56 85 38 50 3a 2c ba 22 d3 5b b9
       -0.000113771704 6.357969e-05 -0.00065699685 -0.0002096412
000230 fa 13 89 ba 21 33 58 3a 33 b3 01 3a 0e 04 95 b9
       -0.0010458224 0.0008247365 0.0004947662 -0.00028422516
000240 cb 15 4f ba 82 5b a6 37 b7 e4 be b9 e8 a3 99 b7
       -0.0007899671 1.9831354e-05 -0.0003641003 -1.8315346e-05
000250 a8 07 68 ba fb 7d c7 b9 be b7 81 39 fd f3 06 ba
       -0.00088512385 -0.000380501 0.00024741696 -0.00051480514
000260 3a af b8 ba db 04 d7 39 a4 ce ac 39 52 af 59 3a
       -0.0014090308 0.00041011613 0.00032960356 0.0008304018
000270 53 c6 65 b8 4b dc 78 37 14 9a 64 b8 d6 6f 19 ba
       -5.478256e-05 1.4833243e-05 -5.4502932e-05 -0.00058531517
000280 93 9b ce ba 3f 2b cc b9 cd 75 70 39 30 82 d6 ba
       -0.0015762917 -0.00038942133 0.00022932068 -0.0016365703
000290 25 08 c7 b9 2c bc b0 39 5c 47 b6 ba 4c 89 e5 b8
       -0.00037962306 0.00033709535 -0.0013906765 -0.000109451445
0002a0 8c d6 1c b9 1a d5 1e b8 b2 80 f2 b9 94 34 89 3a
       -0.00014957244 -3.78686e-05 -0.00046253722 0.001046794
0002b0 65 af 54 ba 22 12 13 ba 1a ac 89 3a 64 f9 9a 39
       -0.0008113294 -0.0005610307 0.0010503561 0.0002955898
0002c0 ff bb 32 b9 37 d7 ec 38 3d 79 5b 3a 00 77 14 ba
       -0.00017045437 0.00011293444 0.0008372253 -0.00056634843
0002d0 89 f0 c7 b9 5f 74 b0 b8 05 0d df b9 67 e0 5d 3a
       -0.0003813545 -8.41401e-05 -0.00042543575 0.00084639195
0002e0 42 67 90 39 3c 2e 97 ba 35 94 58 b9 34 fd 69 b9
       0.00027542753 -0.0011534165 -0.00020654577 -0.00022314937
0002f0 1e b2 89 ba 19 5c 2f 39 0c 07 b2 39 fc 5e 53 3a
       -0.0010505354 0.0001672361 0.00033956056 0.0008063165
000300 ec ed ed 39 0d 49 7a b9 a3 24 a2 38 29 14 48 ba
       0.00045381428 -0.00023869071 7.731586e-05 -0.00076323986
000310 b7 12 8f 3a 57 17 ee b9 42 d0 d4 38 d9 b4 84 3a
       0.0010915612 -0.00045412287 0.00010147739 0.0010124698
000320 f9 b5 3a 39 d6 27 86 3a 9d 00 6e 3a 37 f4 d1 38
       0.00017806132 0.0010235261 0.0009079071 0.00010011385
000330 d8 53 ec 39 04 ac 01 3a 9c 4b c6 b9 53 37 96 b9
       0.00045075896 0.0004946592 -0.00037821836 -0.0002865145
000340 44 8f 82 ba 64 14 9d 3a 8e 9b 9e ba 77 59 f0 39
       -0.0009960909 0.0011984226 -0.0012100802 0.00045843024
000350 8c 7e 86 3a c1 e6 86 3a 2e 61 87 38 e5 d2 79 b9
       0.0010261103 0.0010292159 6.455403e-05 -0.00023825055
000360 5a 2b 27 b9 65 12 ab b9 99 bd 7c 39 7a 35 1a 3a
       -0.00015942511 -0.00032629367 0.00024103223 0.00058826024
000370 6d 4f c9 39 6b da 04 3a 17 be 4f ba 7a ef 9c b9
       0.00038396884 0.0005067947 -0.0007924749 -0.00029933063
000380 69 42 ee 39 75 65 c9 b9 e9 10 2e 3b 1c 12 47 39
       0.00045444377 -0.000384133 0.0026560372 0.00018984865
000390 2e 2d 92 ba 35 65 73 ba 52 b7 12 ba b1 04 bc 39
       -0.0011152381 -0.00092847954 -0.0005596775 0.0003586165
0003a0 d1 a2 da 39 7a 5b 78 38 9c bc 40 3a 03 06 e1 39
       0.00041701508 5.9213e-05 0.0007352324 0.00042919823
0003b0 c3 65 89 b9 66 6b c7 b9 56 66 53 39 a1 84 78 3a
       -0.00026206495 -0.00038036256 0.00020160651 0.00094802125
0003c0 15 e7 45 ba e2 e9 82 3a 67 85 67 38 4a 63 a8 ba
       -0.00075493875 0.0009987915 5.5198932e-05 -0.0012846973
0003d0 21 9a 9d 3a 45 bf 42 ba 29 5a 80 39 0a 12 33 b9
       0.0012024083 -0.0007429014 0.00024481237 -0.0001707749
0003e0 a9 e3 4e ba 2b ff 88 b9 92 56 47 3a ec 48 19 ba
       -0.00078922004 -0.00026130056 0.00076041475 -0.0005847353
0003f0 3e 14 80 b8 85 84 2a 37 67 d7 9f b8 09 11 2a ba
       -6.107286e-05 1.0163644e-05 -7.6218326e-05 -0.0006487524

running_var f4 [256]
000000 42 19 86 3c ae e5 03 3d 1a a8 ca 3c ae d8 83 3d
       0.016369466 0.03220146 0.02473836 0.06437813
000010 90 5f ec 3b ba 62 64 3d f8 80 18 3d 6a 3b f8 3c
       0.0072135404 0.055758215 0.03723237 0.030301768
000020 b5 6c 03 3d c9 d2 36 3d ad af 27 3d 02 2d 56 3d
       0.032086093 0.044634614 0.04093902 0.052289017
000030 1f ac c6 3c 47 66 6d 3d 3f f6 ee 3c 98 8a ef 3c
       0.024251996 0.057958867 0.029170154 0.029240891
000040 e3 0c 87 3d ca 69 48 3d 8f 95 26 3d f0 0d ed 3c
       0.06594255 0.048929013 0.040669974 0.02893731
000050 cb 4a ef 3c 0e 6d 10 3d 35 07 d3 3c f3 5b 9e 3c
       0.029210469 0.035260253 0.025760273 0.019330954
000060 5a a0 e0 3c d7 17 b8 3c 3f b0 f3 3c 06 38 8d 3d
       0.027420212 0.022472305 0.029747127 0.06895451
000070 0f 23 c9 3d a9 e6 6a 3d 89 19 ea 3c aa c8 9f 3c
       0.0982114 0.05734888 0.02857663 0.019504864
000080 84 af 3e 3c 76 2a 95 3d 1f 6d f4 3c ff 69 e6 3c
       0.011638526 0.072834894 0.02983719 0.028126715
000090 62 b0 4d 3d 5e b0 bc 3c 08 b7 d6 3c 76 c0 3d 3d
       0.05021704 0.023033317 0.026210323 0.046326123
0000a0 f6 5c e3 3c 6b 9d 5a 3d 2e 81 08 3d 47 20 35 3d
       0.027754288 0.05337278 0.03332632 0.044220235
0000b0 e4 29 87 3d 01 ff 32 3c f6 02 8a 3c cd 0c 57 3d
       0.06599787 0.0109250555 0.016847115 0.052502442
0000c0 f2 f6 98 3d cc b8 45 3d 68 84 16 3d 84 e1 7b 3d
       0.07468976 0.04827194 0.036747366 0.061494365
0000d0 88 eb ff 3c 8f ea 26 3d 3c 7c eb 3c 60 73 2a 3d
       0.03124024 0.040751036 0.028745763 0.041613936
0000e0 65 09 59 3d 1c d4 2c 3d a5 cd 09 3d 3a 66 8f 3c
       0.052987475 0.04219447 0.033643384 0.0175048
0000f0 28 7b 68 3d bc 57 bc 3c b3 20 34 3d 8a 59 19 3d
       0.056758076 0.022991054 0.043976497 0.037438907
000100 fc 8f aa 3c 5c cc 13 3d 68 f4 4d 3d 8b c2 d1 3c
       0.02082061 0.036083564 0.050281912 0.02560546
000110 45 ed 8d 3c db 80 4d 3d b4 a0 85 3d e6 6b 67 3d
       0.017325053 0.050171714 0.06524792 0.056499384
000120 1d 66 06 3d 61 e8 e4 3c 0f cd 81 3d 58 b5 06 3d
       0.032812227 0.027942838 0.0633794 0.032887787
000130 8d f4 36 3d b7 11 05 3d 1b 63 bb 3c 60 eb 78 3d
       0.044666816 0.032487597 0.022874406 0.060771346
000140 99 7b a8 3c df 8b 0d 3d c1 13 5e 3d 20 3c a7 3c
       0.020566748 0.03455722 0.054218058 0.020414412
000150 4a b1 d7 3c 0e 9a 2a 3d 33 79 42 3d ae 42 4f 3d
       0.026329655 0.041650824 0.047478866 0.0506007
000160 37 4e 2c 3d 0a 22 49 3d d2 41 6e 3d b9 8e 1b 3d
       0.04206678 0.049104728 0.05816824 0.037977908
000170 74 b2 47 3d 44 f2 88 3c 18 14 61 3d 5e ec e8 3c
       0.04875417 0.016717084 0.054950804 0.028433021
000180 5f 01 22 3d 6e c2 9c 3d fa 97 86 3d 60 8b f6 3c
       0.03955209 0.07654272 0.06571956 0.030095756
000190 dc 0e 70 3d 9a c2 67 3d 6a 04 13 3d 00 aa 6e 3d
       0.05860792 0.05658207 0.03589288 0.058267593
0001a0 01 0b c9 3c 82 b5 8f 3c 60 bb 25 3d fb b2 4c 3d
       0.02454138 0.017542604 0.040461898 0.049975377
0001b0 60 01 2e 3d 57 73 15 3d 89 f0 a7 3c b0 b8 3b 3d
       0.04248178 0.03648695 0.020500438 0.04583043
0001c0 6d 35 13 3d ed c4 b8 3c 9f 98 05 3d 4e 3f 0e 3d
       0.035939623 0.022554839 0.032616254 0.03472834
0001d0 14 c9 81 3d 2c 6d be 3c 1d 56 75 3d ba 20 86 3d
       0.06337181 0.023245417 0.059896577 0.06549211
0001e0 a1 42 0b 3d e0 e9 0a 3d 05 a7 95 3c 2b b9 6c 3d
       0.03399909 0.033914447 0.018268118 0.057793777
0001f0 75 9c 4a 3d 3a ab 01 3d 86 22 cc 3c 49 10 b4 3c
       0.049465615 0.031657435 0.024918806 0.021980422
000200 5e 5b f3 3c 3e 40 2d 3d ed a6 81 3d 33 5d 1e 3d
       0.029706653 0.042297594 0.06330667 0.0386631
000210 e2 80 50 3d a2 9a 84 3d 80 71 01 3d 44 e1 4b 3d
       0.050904162 0.06474806 0.031602383 0.049775377
000220 d2 d2 06 3d 56 27 89 3d b3 bc 21 3d ed fe 1c 3d
       0.032915898 0.06696956 0.0394866 0.038329054
000230 6c 4a 81 3d e1 75 2e 3d f7 49 a0 3d 52 3e 83 3d
       0.06313023 0.042592887 0.07826608 0.06408371
000240 94 66 4a 3d 8c 68 d2 3c 6f a1 07 3d 7a 47 b1 3c
       0.049414232 0.025684617 0.03311294 0.021640528
000250 ec c1 b3 3c a7 fb 83 3d 6e 79 c0 3c 18 71 ad 3c
       0.021943055 0.06444483 0.023495402 0.021172091
000260 f3 e8 b8 3c 4a 28 70 3d 97 de 01 3d b9 12 2b 3d
       0.022572016 0.058632173 0.03170642 0.041765902
000270 3c 88 40 3d 3a d2 3e 3d a7 b4 56 3d f8 cc 26 3d
       0.047004923 0.046587206 0.052418377 0.040722817
000280 13 3b 4b 3d b9 b3 5d 3d 96 2b 25 3d 0e 0e 18 3d
       0.049616884 0.054126475 0.04032477 0.03712278
000290 53 8f 20 3d 3d 51 0b 3d 50 7f 48 3d 96 55 6c 3d
       0.039199185 0.03401302 0.04894954 0.05769881
0002a0 2b 21 9b 3d 53 8f ea 3c dd a0 7d 3d 0f f4 3b 3d
       0.07574686 0.028632795 0.06192099 0.04588705
0002b0 a6 9e a9 3d 7b 3d 4a 3d 1f 97 3f 3d aa 3b 2a 3d
       0.08282213 0.04937504 0.04677498 0.041560806
0002c0 d8 3f 85 3c af 83 3f 3d a4 cc 77 3d 7d 2b 34 3d
       0.016265795 0.046756443 0.060497895 0.043986786
0002d0 be 98 b3 3d 36 ee 95 3c 83 1e 81 3d b8 12 ff 3c
       0.08769368 0.018302064 0.06304648 0.031136855
0002e0 ce 11 17 3d d2 4f 31 3d 75 33 77 3d dc 5e 4f 3d
       0.036882214 0.043289013 0.060351808 0.050627574
0002f0 72 69 c5 3c 6f 1d dc 3c 29 8d 06 3d e0 85 51 3d
       0.024098132 0.026869504 0.032849465 0.051153064
000300 10 40 09 3d e7 70 ab 3c 5d 22 bf 3c 7d 53 35 3d
       0.03350836 0.02092786 0.023331815 0.044269074
000310 81 de 82 3d 46 dd 47 3d 30 13 58 3d 2f 80 82 3c
       0.063900955 0.048795007 0.052752674 0.015930263
000320 1a 39 37 3c 0f b3 97 3d da 09 0a 3d c2 3b 60 3d
       0.011183048 0.074071996 0.0337008 0.05474449
000330 ba ab e1 3c b0 6c 44 3d 15 d7 67 3d 8b fe 39 3d
       0.027547706 0.047955215 0.056601603 0.045408767
000340 72 f7 43 3d e1 27 35 3d 37 0d 8a 3d f9 89 0e 3d
       0.047843404 0.044227485 0.06740802 0.03479955
000350 21 46 09 3d 61 1a 08 3d 3f 94 50 3d 44 74 06 3d
       0.033514146 0.033228282 0.05092263 0.032825723
000360 f3 d7 9b 3c 73 ca 1e 3d 54 fc 6b 3d 76 ec b4 3c
       0.019023871 0.03876729 0.057613686 0.02208541
000370 6a ff 2f 3d 47 b0 af 3c 38 1a 9c 3c 34 7c bc 3c
       0.04296819 0.02144636 0.01905547 0.023008443
000380 7b 66 0b 3d fe 01 13 3c 4c 97 ab 3c 47 3d e4 3c
       0.03403328 0.008972643 0.020946167 0.02786125
000390 c4 fd 56 3d af 90 d1 3c 82 e6 b7 3c e5 25 92 3c
       0.052488104 0.025581686 0.022448782 0.017840335
0003a0 cb 72 a7 3c 15 53 2a 3d 63 ff 36 3d 9c 9a 91 3d
       0.02044048 0.04158314 0.04467715 0.071095675
0003b0 8c 2a 82 3d bb 4f 19 3d af 3d 17 3d 2d 2f 75 3d
       0.063557714 0.037429553 0.03692406 0.059859443
0003c0 eb a4 45 3d 2b cc 59 3d 0a e1 4b 3d 1c 93 19 3d
       0.04825298 0.053173225 0.04977516 0.03749381
0003d0 1b 13 27 3d c2 02 23 3d b8 18 22 3d 69 d0 35 3d
       0.040789705 0.039797552 0.039574355 0.04438821
0003e0 d2 ba 4e 3d 26 f0 3d 3d 94 6a 7a 3d 83 bc 0d 3d
       0.050471134 0.0463716 0.061136797 0.034603607
0003f0 bc fc ed 3c 7e 67 a3 3c 92 9c ed 3c 99 31 75 3d
       0.029051177 0.01994681 0.029005323 0.059861753

weight f4 [256, 256]
000000 a8 b3 7f 3c de 5d 8f 3d d0 ce 8e 3d 22 db fd bc
       0.015606798 0.070003256 0.0697304 -0.03098828
000010 11 a0 eb bd be 14 41 3d 51 eb b0 3c b0 e7 be bc
       -0.115051396 0.047138922 0.021596583 -0.023303837
000020 96 21 9a 3d 0d 0d 92 3c 7d f5 a1 bd da a2 c6 bc
       0.07525937 0.017828489 -0.07908151 -0.024247576
000030 e9 c3 04 be 06 4a 62 bd d4 69 46 bc 7b 48 c4 3d
       -0.12965359 -0.055246376 -0.012110192 0.09584137
000040 fe 1b 94 bd cf 43 3c bd fe 2b e3 bd ad 60 60 3d
       -0.072319016 -0.045963105 -0.11092375 0.054779697
000050 f3 8e 87 3d 41 17 69 3c d4 18 5c 3d 25 81 e9 bc
       0.06619062 0.014226736 0.053734615 -0.028503964
000060 47 44 db bd b8 07 8d bd e5 82 64 bd d6 a8 45 3d
       -0.10706382 -0.06886238 -0.055788893 0.048256718
000070 e0 b4 6d 3d 31 29 85 3c 31 14 ff 3c 61 e9 eb 3d
       0.058033824 0.016254993 0.031137558 0.11519123
000080 69 4a 48 3d f6 c2 8f bc 14 a0 85 bd 42 a6 a5 bd
       0.048899088 -0.01754902 -0.06524673 -0.08088352
000090 60 c0 64 bd df 4c 42 3d e8 0c bb bd 24 b2 16 bd
       -0.055847526 0.04743659 -0.09133321 -0.036790982
0000a0 ab cf 86 bb b8 05 91 bd 70 a2 10 be 59 a8 71 bd
       -0.0041141114 -0.07081169 -0.14124465 -0.05899844
0000b0 6d e4 e4 bd 1a b8 3f be 5f 99 2a 3d a7 82 36 3d
       -0.11176381 -0.18722573 0.041650172 0.044558194
0000c0 30 81 b9 bc 3e 3f 8a bd 93 bf 88 bc 2f a3 8b 3d
       -0.02264461 -0.06750344 -0.016692912 0.06818234
0000d0 b7 3d a1 3d eb 27 bd bd c8 8f b5 3d a7 e9 6c 3d
       0.07873099 -0.092361294 0.08865315 0.057840016
0000e0 6e d6 6e bd 16 74 66 3d f8 08 26 bd 99 ca e1 ba
       -0.058309965 0.056263052 -0.040535897 -0.0017226517
0000f0 ef cb 8e bd 8c 87 80 bd e0 42 6f 3d 1d 14 ba bb
       -0.06972491 -0.062758535 0.058413386 -0.005678667
000100 51 d0 93 bd 28 c6 cc 3d bb 12 df bd 37 9c d3 bc
       -0.072174676 0.09998733 -0.108922444 -0.025831325
000110 b8 3c a9 bd a6 0c 99 bd 43 c4 93 3d e8 01 05 be
       -0.08263534 -0.074731156 0.07215168 -0.12989008
000120 89 b3 e7 bb 7c 1f 80 bd 88 31 84 bd 4c 39 a9 bd
       -0.007070963 -0.06256005 -0.0645476 -0.08262882
000130 d9 a5 b2 bd 3b f5 38 3c f2 8e fd bc 69 e6 b6 bb
       -0.08723039 0.011288936 -0.03095195 -0.0055816662
000140 38 f4 48 3d a6 d9 dd bc 86 b0 7d bd 31 32 a9 bd
       0.04906103 -0.027081322 -0.061935924 -0.082615264
000150 0c 30 d6 3c 29 89 0e bd 19 c9 fc 3b c5 3d 1b 3c
       0.026145957 -0.034798775 0.0077144024 0.009475176
000160 7c 93 7a bd 30 42 8d 3d e7 7b a8 bc 27 85 9b bd
       -0.06117581 0.0689739 -0.020566894 -0.07593756
000170 2b 53 6a bd 1d 50 96 bd 68 b4 e6 3c b2 7a 29 3b
       -0.05720822 -0.07339499 0.028162196 0.0025860486
000180 ed 29 95 3d 97 ca 02 be 6c 3f 09 be 41 90 51 3d
       0.07283387 -0.12772594 -0.134031 0.051162962
000190 bf aa 60 3c 7f b3 01 bc 93 74 10 be e2 eb b4 bd
       0.013712584 -0.00791633 -0.1410697 -0.088340536
0001a0 70 1c 82 bc f8 d6 3f 3d 6e 4c e3 bc 7f fb 02 3e
       -0.0158827 0.04683587 -0.027746405 0.1279125
0001b0 65 60 ae 3d 46 90 f5 bb c6 c0 3b 3c 78 ab 88 bd
       0.085144795 -0.0074940054 0.011459535 -0.0667333
0001c0 d4 f7 3e 3c 67 62 14 be b2 6f f9 3c dd e8 59 bc
       0.0116557665 -0.14490663 0.030448768 -0.013300148
0001d0 d8 b1 05 3d 9b 04 e4 bc e5 a8 b2 3d 29 8e e5 3c
       0.03264031 -0.027834227 0.0872362 0.028021889
0001e0 f8 78 68 bd 3a 75 13 3d b7 e2 19 bd 7e a1 8e 3a
       -0.05675599 0.036000468 -0.037569728 0.0010881869
0001f0 96 d6 61 3d 6d b8 15 3d de 8a bc 3d a7 4d 1a be
       0.055136286 0.036552835 0.09206174 -0.15068685
000200 27 9b 4d 3c df bf 19 be 3c b7 31 be e8 fc 29 bd
       0.012549198 -0.150146 -0.17355055 -0.041500956
000210 86 d3 88 bd cc c5 0f 3c d9 aa 57 3d 32 cc c2 bd
       -0.0668097 0.008775186 0.052653167 -0.095116034
000220 45 f1 e8 bc a2 ad 09 be de 05 69 bc cd 4a b1 3d
       -0.028435359 -0.13445142 -0.01422259 0.08656845
000230 c4 96 e0 bc ce ac bd 3d 4a 13 ba 3d 62 05 85 3d
       -0.02741564 0.092614755 0.0908571 0.06495167
000240 f4 b7 b1 3c 74 56 18 bd e4 36 45 bc b8 3e 55 bd
       0.021694161 -0.037191823 -0.012037013 -0.052061766
000250 ba fb d0 bc 0a 1c 3d 3d f8 1b 28 be 0f 52 d1 3d
       -0.025510658 0.04616932 -0.16416919 0.102207296
000260 ad f5 2d 3c 44 f1 d4 bd f2 54 48 3d 6a 68 24 3d
       0.010617656 -0.1039758 0.048909135 0.04013864
000270 30 8f 07 be 9f 35 aa 3d 81 bc 85 3a 45 fe d8 bd
       -0.13238215 0.08311009 0.0010203273 -0.10595373
000280 9d 62 23 bd 9c 4a 80 bd d6 c6 8d 3c 56 f6 6a 3d
       -0.039888967 -0.062642306 0.017306726 0.05736383
000290 98 b0 ed ba 9f 47 0f be 16 ec 7f bd 57 00 94 bc
       -0.0018134294 -0.13992165 -0.06248101 -0.018066568
0002a0 05 f1 e6 3d 65 14 d1 bc ae 2b 6a 3d 50 dd 41 3d
       0.112764396 -0.02552242 0.057170562 0.0473302
0002b0 27 65 6a 3c e8 c4 7c 3d 6f bf 03 3d b4 16 5e bc
       0.014306343 0.061711222 0.032164987 -0.0135552175
0002c0 1e 11 af bd 79 fa 37 3d a7 94 bc bd e3 24 8f bd
       -0.08548187 0.044916604 -0.09208041 -0.069894575
0002d0 a7 25 25 3c e0 a9 3c 3d 7a 1c 74 3d b9 25 86 3d
       0.010079778 0.046060443 0.05959747 0.06550164
0002e0 76 0c f8 3d 08 42 48 3d f7 e9 a5 bc bf e1 1b 3c
       0.12111752 0.048891097 -0.020253165 0.009514271
0002f0 cc ae 25 3d eb 63 ae bd 8c 55 e3 bd 1a d2 f9 3d
       0.040449902 -0.085151516 -0.11100301 0.12198277
000300 5c 1d 3f 3d a3 fe 1b be f7 a1 61 bd d4 ea 90 bd
       0.04665886 -0.15233855 -0.055086102 -0.0707604
000310 f4 d6 00 3d 67 aa 67 bd 54 13 a3 bd 3a f3 88 bd
       0.031454995 -0.056558993 -0.07962671 -0.06687017
000320 15 aa a9 bd 86 69 95 bd 8e da c8 3d f7 f6 f8 bd
       -0.08284394 -0.072955176 0.09807311 -0.1215648
000330 b0 b9 04 bd e1 f2 61 bd 8a 86 b8 3d 36 86 12 bd
       -0.032403648 -0.055163268 0.09010036 -0.035772525
000340 ef bc 24 bd da 17 c0 3d a2 88 a0 bd 76 c1 80 3d
       -0.040219244 0.09379549 -0.07838561 0.062869
000350 cc 5f c2 3d 64 70 f0 3c 45 93 de 3c 17 9d 7f bd
       0.09490928 0.029350467 0.027169833 -0.062405672
000360 1c 69 10 be fe b0 6a 3d 0a e5 90 bd 03 01 9e 3b
       -0.14102596 0.0572977 -0.07074936 0.004821898
000370 e0 61 95 3d 19 3a 21 3d 0b 7a 2d 3d bb 00 d0 bd
       0.07294059 0.039362047 0.042352717 -0.10156389
000380 45 13 9c bb 0a b9 f0 bd 20 38 d7 3d 83 c2 29 3b
       -0.0047630393 -0.117540434 0.10508752 0.0025903292
000390 f9 a9 cb 3b b4 64 97 3d ba 64 36 3d 3f 2a ae bd
       0.0062153307 0.073922545 0.044529654 -0.085041516
0003a0 7b 8e dd bd fa bf 6e 3b 09 02 c4 bc 5f fb bd bd
       -0.108181916 0.0036430345 -0.023926752 -0.09276461
0003b0 80 ab 7a 3d 96 30 fa bc e3 9e 68 3d 9a 9a 86 bd
       0.06119871 -0.030540746 0.05679215 -0.06572457
0003c0 f3 b9 09 bd 1f 91 75 bc 99 51 60 bd 56 f4 2c bc
       -0.0336246 -0.014988213 -0.054765318 -0.010556301
0003d0 32 f1 e6 bc a2 88 a0 3d 3e bc 1d 3d b1 43 f6 bd
       -0.028191183 0.07838561 0.0385096 -0.1202463
0003e0 08 11 15 ba 1b f7 25 bd 70 84 b8 3d 1d af 65 bd
       -0.0005686437 -0.04051886 0.090096354 -0.056075204
0003f0 0f c3 10 bc 51 79 86 3d d8 6c 3c bd b5 a3 00 be
       -0.008835568 0.06566108 -0.04600224 -0.1256245
